HardcoreVersion_7500_V3/actor/ppo_actor2600.pth (torch, 295492 bytes, 6 tensors)

l1.weight f4 [256, 24]
0.59263086 1.9327077 -1.149459 1.1803218 -0.18662372 0.1464814 0.06142739 0.23776126
0.15857345 -0.04638504 0.24520929 0.16345406 0.10279263 0.04169617 0.118430495 0.060167015
0.35128704 0.12155585 -0.08992315 -0.059120703 -0.1501942 0.006576845 -0.07366853 0.14962116
-0.8962557 0.33188316 0.04969978 -1.1679325 0.16050336 -0.22405985 0.60017896 -0.16704032
0.10026175 -0.07330153 -0.24865355 0.31292918 -0.115153246 0.15491275 -0.07257086 -0.10521051
0.0013119552 -0.03179847 0.030505052 0.09381978 -0.12494881 -0.3020741 -0.022529785 0.004216081
0.5991968 0.14612116 -0.4657585 -0.20317745 -0.3587489 0.30523196 0.117214784 0.12503302
0.11300536 0.014990482 0.2377869 -0.1581928 0.079552844 -0.19892904 0.10126966 -0.0075968546
0.18011087 0.0971002 0.31996024 -0.09526865 -0.10805064 -0.12828688 0.24631685 0.090522006
0.33947596 -0.414344 -0.6739944 0.1088597 -0.3323982 0.06944299 0.1751314 0.1289298
-0.36097246 -0.18753254 0.14691833 -0.08219242 0.26443976 -0.13788715 0.23224582 -0.216597
-0.24967586 -0.08402688 -0.02099582 -0.0859164 0.21691985 0.19801393 -0.20016415 -0.10193069
0.64500827 0.22926477 -0.23964942 -0.9014246 -0.3035192 0.2582164 0.121743284 -0.20126492
-0.05828732 -0.3905253 -0.10351739 -0.11136652 -0.20399724 -0.25361234 0.36764884 0.07980259
-0.058417555 -0.31606397 -0.24781379 -0.15578927 0.051756617 -0.115793616 -0.038016938 -0.031950288
0.3101632 0.48757693 -0.24672121 -0.9671693 -0.20632808 -0.0014660073 0.15762095 -0.30968222
0.54909164 0.02774313 0.38348722 0.03474697 -0.35918579 0.07888621 0.09988324 -0.048103835
-0.23999855 -0.24112073 0.08688631 -0.00696575 0.12673333 -0.042234816 0.21314178 -0.052996315
-0.16882034 0.58606935 0.901924 -0.9406432 0.3114643 -0.39692375 -0.14824663 -0.020358458
-0.098105215 -0.2967038 0.48115903 -0.49931479 0.18102527 -0.023856722 -0.11939107 -0.19649409
0.11868716 0.012140681 0.013108867 -0.14286692 0.035569657 -0.19472632 -0.21706992 0.17647691
0.40725508 -0.11221731 -0.7443655 -0.7496277 0.08622038 -0.16969055 -0.27058038 -0.096019015
-0.46369702 0.2808781 0.27274877 -0.28457025 0.13319643 0.2513054 -0.09761884 -0.1660092
0.18670483 0.19600278 0.13018814 -0.0030412273 -0.07308762 0.043219484 -0.09018236 -0.0777229
0.2944181 0.57006115 -0.64459246 0.26466292 -0.089472085 0.015967283 0.010159899 -0.044320244
-0.8411538 -0.07252582 0.43642092 0.5308685 0.12796448 -0.35458934 -0.10383988 -0.2524551
-0.2361391 -0.16366218 -0.0015607422 0.022198664 -0.21506755 -0.092200726 0.16171919 0.33599913
0.082385615 0.8246554 -0.03271575 -0.36592007 -0.39269143 0.43189174 -0.24686839 -0.0023463275
-0.27800533 0.4494292 0.2161494 0.42562988 -0.0027367116 -0.37548617 -0.03656452 0.24940549
0.19681372 0.286968 0.21850722 0.039145116 -0.02037151 -0.1711023 -0.1527548 -0.19675735
1.0484184 1.3654602 -0.608504 -0.43214586 -0.13673599 -0.11111269 -0.11300844 0.01087665
-0.29359114 0.6264679 -0.25865838 -0.079297155 -0.2097408 -0.12601854 -0.008723384 -0.19371776
00000000: a8b6 173f f762 f73f 7921 93bf c914 973f
00000010: 4a1a 3fbe 38ff 153e 499b 7b3d b077 733e
00000020: 1461 223e 3dfe 3dbd 2518 7b3e 8060 273e
00000030: f184 d23d 9ac9 2a3d b08b f23d b071 763d
00000040: e5db b33e 46f2 f83d a129 b8bd 8d28 72bd
00000050: 82cc 19be 9382 d73b 87df 96bd 4a36 193e
00000060: 0371 65bf 97ec a93e ff91 4b3d d07e 95bf
00000070: fe5a 243e f26f 65be 54a5 193f 9e0c 2bbe
00000080: 0856 cd3d 1d1f 96bd 099f 7ebe 4138 a03e
00000090: 77d5 ebbd 73a1 1e3e 08a0 94bd 9c78 d7bd
000000a0: e9f5 ab3a 1d3f 02bd bbe5 f93c 9624 c03d
000000b0: 29e5 ffbd 75a9 9abe 6290 b8bc 0d27 8a3b
000000c0: f664 193f c9a0 153e e677 eebe c00d 50be
000000d0: f0ad b7be 5d47 9c3e 4e0e f03d a808 003e
000000e0: 5b6f e73d a39a 753c 697e 733e 4bfd 21be
000000f0: 9aec a23d 0eb4 4bbe 7866 cf3d 09ef f8bb
00000100: fc6e 383e 78dc c63d d4d1 a33e 361c c3bd
00000110: a749 ddbd a35d 03be 7c3a 7c3e 9a63 b93d
00000120: cbcf ad3e e624 d4be e68a 2cbf d6f1 de3d
00000130: 1930 aabe 2038 8e3d a555 333e 2c06 043e
00000140: 62d1 b8be 8808 40be c271 163e 8054 a8bd
00000150: a664 873e 4a32 0dbe d9d1 6d3e 9bcb 5dbe
00000160: 07ab 7fbe 4916 acbd 6dff abbc f0f4 afbd
00000170: 3d20 5e3e 2ac4 4a3e d5f7 4cbe 0ac1 d0bd
00000180: 431f 253f 62c4 6a3e a866 75be c3c3 66bf
00000190: de66 9bbe f134 843e 8b54 f93d 6418 4ebe
000001a0: afbe 6ebd eff2 c7be ed00 d4bd 2114 e4bd
000001b0: a7e4 50be 7ad9 81be 783c bc3e 8a6f a33d
000001c0: 3f47 6fbd 23d3 a1be e6c2 7dbe 3987 1fbe
000001d0: bffe 533d 3425 edbd a6b7 1bbd 4ede 02bd
000001e0: b6cd 9e3e afa3 f93e 7ca4 7cbe 6898 77bf
000001f0: ab47 53be 0b27 c0ba 6367 213e ab8e 9ebe
00000200: 4591 0c3f 9045 e33c 7058 c43e d752 0e3d
00000210: 33e7 b7be 188f a13d 968f cc3d 8708 45bd
00000220: 2ec2 75be 5ae8 76be 73f1 b13d f240 e4bb
00000230: 62c6 013e 6afe 2cbd d741 5a3e aa12 59bd
00000240: 3ddf 2cbe a408 163f 7ee4 663f fecd 70bf
00000250: 4078 9f3e 9739 cbbe f7cd 17be c8c6 a6bc
00000260: 63eb c8bd 8fe9 97be 7a5a f63e 30a6 ffbe
00000270: b05e 393e 2c6f c3bc 4e83 f4bd bf35 49be
00000280: 4112 f33d b5e9 463c 93c6 563c b54b 12be
00000290: 7db1 113d 5666 47be 9447 5ebe 5db6 343e
000002a0: bd83 d03e 30d2 e5bd bd8e 3ebf 9ae7 3fbf
000002b0: 5094 b03d 5cc3 2dbe 8389 8abe 9ea5 c4bd
000002c0: b269 edbe 41cf 8f3e baa5 8b3e 31b3 91be
000002d0: a564 083e 1aab 803e 63ec c7bd 51fe 29be
000002e0: 8d2f 3f3e f4b4 483e 0a50 053e 544f 47bb
000002f0: f6ae 95bd ea06 313d 87b1 b8bd 2f2d 9fbd
00000300: f8bd 963e 87ef 113f 0304 25bf e681 873e
00000310: 243d b7bd d2cd 823c b475 263c 2589 35bd
00000320: db55 57bf 6b88 94bd 9072 df3e ffe6 073f
00000330: 1f09 033e bc8c b5be 01aa d4bd cb41 81be
00000340: 73ce 71be 0f97 27be d191 ccba f9d9 b53c
00000350: ab3a 5cbe bcd3 bcbd b799 253e 1408 ac3e
00000360: cab9 a83d 9e1c 533f f300 06bd e059 bbbe
00000370: da0e c9be ea20 dd3e 11cb 7cbe d8c4 19bb
00000380: b756 8ebe 961b e63e 4556 5d3e 29ec d93e
00000390: 675a 33bb b93f c0be aec4 15bd 2764 7f3e
000003a0: 8989 493e 78ed 923e 5bc0 5f3e a156 203d
000003b0: 27e2 a6bc 7135 2fbe c16b 1cbe c27a 49be
000003c0: 9332 863f 66c7 ae3f ebc6 1bbf 3942 ddbe
000003d0: 8504 0cbe 0d8f e3bd f870 e7bd fa33 323c
000003e0: 9451 96be 3360 203f df6e 84be 8c66 a2bd
000003f0: 4bc6 56be 010b 01be 86ec 0ebc f35d 46be

l1.bias f4 [256]
-0.18133691 0.021958774 -0.06810241 0.1811963 -0.16460113 0.09175836 0.17706086 0.018931944
-0.0536369 0.19394556 -0.28393215 0.31125185 0.048020467 0.24427958 0.1960534 0.13084146
-0.1780761 -0.05343085 -0.15939559 0.15262349 0.15145628 0.08339103 -0.07462102 -0.10158533
-0.02918525 0.08399932 -0.18866529 0.18771625 -0.13902731 -0.07185883 0.19794852 0.20145252
-0.028231602 -0.045160208 0.1940065 0.113555364 -0.17284955 0.07801322 -0.3021999 0.06119034
-0.115221925 0.2884853 0.35486546 -0.21535434 -0.088722 0.037946556 -0.11248053 0.20731512
-0.14942592 -0.102222584 -0.19565217 -0.10915956 -0.19075096 -0.12829274 0.35497788 0.09757848
0.24379508 0.09706286 0.123290025 0.04975922 -0.09259683 0.0923744 -0.31361073 -0.058342647
-0.11490092 -0.10532075 -0.04148122 0.033431455 -0.1110625 -0.19436991 -0.05582865 -0.24216762
0.036852263 0.085326485 -0.37237388 -0.1573857 -0.051777504 0.11760449 0.2017372 -0.08390142
0.21731927 -0.08192977 -0.022216126 0.02703435 -0.3087628 -0.07166579 -0.018163644 0.067480214
-0.1723131 -0.1233684 -0.0074739754 0.02510397 -0.026180044 -0.1396552 0.20122959 -0.084413804
-0.0074188933 0.23740529 -0.08194801 0.0042672018 -0.20154741 0.20913649 0.04487362 0.18008688
-0.011008937 -0.24185073 -0.15200813 0.15559964 -0.09276365 -0.23191057 0.27185288 -0.14104716
0.06980352 -0.09714598 -0.08120126 0.030275378 -0.20376384 -0.29868987 0.0010826305 -0.10297723
0.15989625 0.017478004 -0.2233082 0.0041439016 -0.08344304 0.112116106 0.17342685 0.023068706
-0.06834674 0.12999074 0.07132043 0.12963048 0.041867044 0.052696574 -0.028347798 -0.108678654
-0.19075756 -0.067399755 0.015463445 0.103776604 0.097754054 0.11862594 0.143503 -0.09228224
0.16796736 -0.03163068 -0.009030209 -0.008796194 -0.2242075 -0.119469374 0.08515812 0.18327291
0.0045819394 0.05822375 -0.061403073 -0.059497364 -0.06323284 0.05800086 0.055616114 -0.060541213
0.037805058 -0.22515522 -0.004791058 0.04794533 -0.11775257 0.17473932 0.013567998 0.19015491
-0.018752089 0.06479017 -0.10771904 -0.0293878 -0.134169 -0.13349962 0.18820909 0.29310745
0.05985557 -0.16250844 0.061352964 0.013448939 -0.075988755 -0.1323095 0.07964855 -0.12957987
0.107118085 -0.0969136 0.14232057 -0.04078854 -0.009168028 0.15375093 0.28166407 0.22020371
0.13260582 0.003939877 0.15922509 0.20525093 0.011986087 0.03754453 0.08452407 0.11198903
-0.02497708 0.17810476 -0.107120275 -0.12200702 -0.22557905 -0.01010807 -0.11521955 -0.2543751
-0.18585192 -0.11898644 0.12172605 -0.030033957 -0.046376195 0.014899523 -0.068688676 -0.20877878
-0.023237156 0.010376001 -0.33233622 -0.20516361 -0.14300641 0.085858494 0.25697064 -0.048447188
0.0810843 0.020051206 -0.084016696 -0.092732556 -0.1121656 -0.1978032 -0.014481497 0.14458194
-0.2003082 -0.10443178 -0.15492797 0.29302943 0.13924359 -0.113937944 0.32585883 -0.16507904
0.09982799 -0.05722767 0.0019992124 0.14793864 0.080475144 -0.073677085 -0.07451742 0.12836972
0.12689401 -0.0055980645 -0.07836602 0.09301106 -0.14653811 -0.06962402 0.026927913 0.39756885
00000000: 62b0 39be e3e2 b33c 4779 8bbd 868b 393e
00000010: 338d 28be cfeb bb3d 714f 353e 2a17 9b3c
00000020: 5eb2 5bbd aa99 463e 8e5f 91be 675c 9f3e
00000030: 1cb1 443d 6d24 7a3e 39c2 483e 4efb 053e
00000040: 9559 36be 4fda 5abd 9938 23be 5549 1c3e
00000050: 5b17 1b3e ebc8 aa3d e8d2 98bd f80b d0bd
00000060: e815 efbc d607 ac3d 7931 41be b038 403e
00000070: 2d5d 0ebe b92a 93bd 04b3 4a3e 9249 4e3e
00000080: f645 e7bc e9f9 38bd a4a9 463e b78f e83d
00000090: 79ff 30be 65c5 9f3d f2b9 9abe b9a2 7a3d
000000a0: 79f9 ebbd 58b4 933e edb0 b53e d985 5cbe
000000b0: e1b3 b5bd d96d 1b3d 315c e6bd 6a4a 543e
000000c0: 1c03 19be 135a d1bd 0b59 48be 0c8f dfbd
000000d0: 3854 43be 2c5f 03be a9bf b53e 3ad7 c73d
000000e0: 6ba5 793e e5c8 c63d 7b7f fc3d 53d0 4b3d
000000f0: 68a3 bdbd ca2e bd3d 9691 a0be b3f8 6ebd
00000100: 2c51 ebbd 68b2 d7bd 36e8 29bd 6cef 083d
00000110: bc74 e3bd e808 47be 95ac 64bd cafa 77be
00000120: 66f2 163d a7bf ae3d caa7 bebe b829 21be
00000130: a614 54bd 9fda f03d 3294 4e3e 82d4 abbd
00000140: f188 5e3e ccca a7bd 98fe b5bc 2477 dd3c
00000150: 2816 9ebe 84c5 92bd eccb 94bc 1133 8a3d
00000160: d872 30be 92a8 fcbd 40e8 f4bb d7a6 cd3c
00000170: 8877 d6bc c601 0fbe 210f 4e3e 25e1 acbd
00000180: 301a f3bb 5f1a 733e 5cd4 a7bd e2d3 8b3b
00000190: 7262 4ebe e027 563e 67cd 373d b268 383e
000001a0: d45e 34bc b8a7 77be 05a8 1bbe 8355 1f3e
000001b0: defa bdbd f779 6dbe 4d30 8b3e ab6e 10be
000001c0: 26f5 8e3d 79f4 c6bd d94c a6bd 1204 f83c
000001d0: 78a7 50be e1ed 98be 0de7 8d3a bae5 d2bd
000001e0: d8bb 233e 082e 8f3c e8aa 64be 91c9 873b
000001f0: 2fe4 aabd 219d e53d cf96 313e 95fa bc3c
00000200: 60f9 8bbd 4b1c 053e 7210 923d dabd 043e
00000210: c77c 2b3d 5dd8 573d a439 e8bc ea92 debd
00000220: f355 43be e208 8abd 645a 7d3c d488 d43d
00000230: 4733 c83d 28f2 f23d 73f2 123e 79fe bcbd
00000240: a3ff 2b3e 2c8f 01bd 71f3 13bc e91d 10bc
00000250: a796 65be 5cac f4bd 6167 ae3d e5ab 3b3e
00000260: 1824 963b 077c 6e3d ca81 7bbd 82b3 73bd
00000270: 3880 81bd 4f92 6d3d b9cd 633d 10fa 77bd
00000280: 7ad9 1a3d 178f 66be 4ffe 9cbb 5362 443d
00000290: 4228 f1bd ddee 323e 4f4c 5e3c f8b7 423e
000002a0: fb9d 99bc b5b0 843d cd9b dcbd afbe f0bc
000002b0: 9963 09be 20b4 08be e2b9 403e 2e12 963e
000002c0: 1d2b 753d 9d68 26be 3f4d 7b3d f058 5c3c
000002d0: fe9f 9bbd 247c 07be c71e a33d 96b0 04be
000002e0: ba60 db3d a37a c6bd 7cbc 113e e211 27bd
000002f0: 7f35 16bc e270 1d3e 4636 903e 157d 613e
00000300: d2c9 073e 151a 813b e70b 233e 4d2d 523e
00000310: 4b61 443c 4bc8 193d f51a ad3d 815a e53d
00000320: bc9c ccbc 1861 363e e061 dbbd d1de f9bd
00000330: 32fe 66be 529c 25bc 3af8 ebbd 743d 82be
00000340: f74f 3ebe 2aaf f3bd 824b f93d c609 f6bc
00000350: f7f4 3dbd 211d 743c a6ac 8cbd 1bca 55be
00000360: d95b bebc 1a00 2a3c f927 aabe 6916 52be
00000370: 4670 12be 94d6 af3d a891 833e 8f70 46bd
00000380: 870f a63d 6d42 a43c f210 acbd 91ea bdbd
00000390: 14b7 e5bd ec8c 4abe cd43 6dbc 4a0d 143e
000003a0: 981d 4dbe 54e0 d5bd 70a5 1ebe f407 963e
000003b0: df95 0e3e 4c58 e9bd f8d6 a63e 7b0a 29be
000003c0: 9e72 cc3d 9067 6abd 3805 033b 3a7d 173e
000003d0: 27d0 a43d 03e4 96bd 979c 98bd 5a73 033e
000003e0: 81f0 013e f86f b7bb 5d7e a0bd 957c be3d
000003f0: 160e 16be 0a97 8ebd ed97 dc3c 258e cb3e

l2.weight f4 [256, 256]
0.30833527 -0.11647366 0.22193308 0.115514584 0.07256655 0.18857485 0.21130663 -0.15239525
-0.094324 -0.041031707 -0.18003535 0.18952695 0.033524916 -0.0720151 0.08018997 -0.27892956
-0.09654097 -0.37965333 -0.09467599 0.049793914 -0.053059917 -0.0031295817 -0.1821689 -0.11393322
-0.22753075 -0.011162337 -0.13158116 -0.08689753 0.17662553 0.0029994282 -0.013850889 0.1262778
-0.07246695 0.023997556 0.058381554 0.09859936 0.13244648 -0.13988797 -0.08335282 -0.15650207
-0.07765468 0.016810419 -0.1246756 -0.43208233 0.026402283 0.23053531 -0.08449588 -0.09010152
0.069597214 0.09162791 0.05960678 0.34944746 -0.10066032 -0.19039246 0.0374209 -0.03711098
0.09715822 0.0680623 -0.019697227 0.1326951 -0.04604004 -0.32179153 0.019103946 0.09513646
0.05861034 0.111923315 0.13257253 0.10259131 -0.1952825 -0.15658462 -0.004810568 0.13627984
-0.020136062 -0.06626023 -0.02585301 0.17018777 0.24515896 0.09166001 0.029224435 -0.16610543
0.0028226362 -0.070111856 0.17442104 0.030268744 -0.17988786 -0.03244644 -0.072549425 -0.032624
0.15683141 -0.068385616 -0.03162731 0.17801258 -0.16466828 0.062400088 -0.02968938 0.007236131
-0.008338652 0.042426508 0.00036309814 0.0090001505 -0.4470906 0.044129662 -0.15273684 -0.23790602
-0.11922406 0.17698878 0.19775175 0.09672579 -0.09089271 -0.05446058 -0.024974156 -0.08530234
0.037914988 -0.06027835 0.060598996 -0.097022206 -0.057607282 0.13653174 0.08906142 0.08439661
-0.058304437 0.055032007 0.14780195 0.029708497 -0.008650687 0.03799229 0.3687739 -0.010413404
0.11494217 -0.05089673 -0.09802036 0.009506856 0.11372763 -0.08105047 0.15383795 -0.053299762
-0.09985377 -0.008763808 -0.21390612 0.0554227 0.12692878 0.21854582 0.021052245 -0.03305631
0.120138936 0.040826175 -0.12261884 0.023868307 0.0068170186 -0.105810784 0.06432946 0.19048202
0.14210568 0.051250834 -0.025100349 -0.065383606 -0.313517 0.12575066 0.011594971 -0.03572938
0.106350064 -0.1602916 -0.06730577 -0.08921646 0.120219156 -0.07073614 0.15981886 0.34013975
0.026114758 0.05647349 -0.11971519 -0.0077889245 -0.2708109 0.07324642 0.100980416 0.026571995
-0.14982714 0.15179864 0.02478427 -0.20024434 0.027438434 0.013252927 0.13883929 0.008771498
0.085941784 -0.23824175 -0.17189378 -0.021049663 0.16388403 -0.109066136 0.026744662 0.04603982
0.052322723 -0.10197785 0.20454758 -0.014529473 -0.059430912 0.10708419 0.13832892 -0.06812879
-0.04608478 0.063209295 -0.13015677 -0.018371414 0.17631039 0.29908523 -0.110466614 -0.07622938
0.25292656 0.1531501 0.1672903 -0.008692682 0.0055506877 -0.00582604 0.12474621 0.15580955
-0.29385978 0.034375284 0.091025606 -0.021527058 -0.15789321 0.047260106 -0.15727322 -0.063861944
-0.0033975353 -0.0780147 -0.13799502 -0.038653698 0.13885967 0.19702432 -0.040937044 -0.009686784
-0.035725635 0.06289727 0.06977077 -0.10884261 0.026488455 -0.07082185 0.14737828 -0.24111108
0.14506115 -0.15708585 -0.0029938885 0.07406048 0.08212006 -0.18122546 -0.024799014 -0.084637806
-0.025381215 -0.020874636 -0.2617675 0.0022626705 0.07325775 0.0055192076 0.21333358 -0.29666713
00000000: 1fde 9d3e be89 eebd 6d42 633e e992 ec3d
00000010: c59d 943d c419 413e c460 583e 800d 1cbe
00000020: f12c c1bd dd10 28bd 305b 38be 5a13 423e
00000030: 6c51 093d a77c 93bd a43a a43d dbcf 8ebe
00000040: 46b7 c5bd ec61 c2be 7ce5 c1bd b4f4 4b3d
00000050: 5b55 59bd ab19 4dbb 7c8a 3abe d255 e9bd
00000060: d2fd 68be 3ce2 36bc 36bd 06be 55f7 b1bd
00000070: 53dd 343e 0e92 443b d7ee 62bc f84e 013e
00000080: 8d69 94bd 8696 c43c 7f21 6f3d 76ee c93d
00000090: 0da0 073e cb3e 0fbe e2b4 aabd 1442 20be
000000a0: 6b09 9fbd 01b6 893c ec55 ffbd e539 ddbe
000000b0: 9a49 d83c 7311 6c3e 2d0c adbd 2587 b8bd
000000c0: fc88 8e3d 6aa7 bb3d 3d26 743d c7ea b23e
000000d0: ff26 cebd 3ef6 42be a846 193d af01 18bd
000000e0: e4fa c63d 3f64 8b3d 145c a1bc 39e1 073e
000000f0: 7b94 3cbd dcc1 a4be e17f 9c3c e8d6 c23d
00000100: 6511 703d 0d38 e53d 18c1 073e 651b d23d
00000110: 23f8 47be b857 20be f8a1 9dbb f18c 0b3e
00000120: 62f4 a4bc 72b3 87bd b1c9 d3bc b445 2e3e
00000130: f30a 7b3e 3eb8 bb3d 1568 ef3c 8b17 2abe
00000140: fafb 383b ce96 8fbd 6e9b 323e 28f6 f73c
00000150: 8634 38be 8fe6 04bd cb94 94bd bea0 05bd
00000160: 6a98 203e c20d 8cbd a38b 01bd ee48 363e
00000170: cd9e 28be 3c97 7f3d 2537 f3bc 111d ed3b
00000180: d79e 08bc 6bc7 2d3d 355e be39 5e75 133c
00000190: 0fe9 e4be 4ec1 343d 0c67 1cbe a39d 73be
000001a0: be2b f4bd 8c3c 353e 6f7f 4a3e 2c18 c63d
000001b0: f525 babd 0f12 5fbd 9a96 ccbc feb2 aebd
000001c0: bf4c 1b3d 6ee6 76bd a736 783d 94b3 c6bd
000001d0: 9df5 6bbd face 0b3e d565 b63d 21d8 ac3d
000001e0: a2d0 6ebd 3e69 613d 6559 173e 3c5f f33c
000001f0: 9cbb 0dbc ce9d 1b3d efcf bc3e fb9c 2abc
00000200: cd66 eb3d 1779 50bd e6be c8bd a5c2 1b3c
00000210: 08ea e83d cafd a5bd b287 1d3e da50 5abd
00000220: 2280 ccbd 1396 0fbc 350a 5bbe ea02 633d
00000230: 9ef9 013e 7aca 5f3e c275 ac3c 0e66 07bd
00000240: 670b f63d 5939 273d 961f fbbd 7887 c33c
00000250: 4c61 df3b 53b3 d8bd 2abf 833d b80d 433e
00000260: 2784 113e 65ec 513d 3f9f cdbc d7e7 85bd
00000270: 4d85 a0be c8c4 003e d5f8 3d3c f858 12bd
00000280: 10ce d93d 7b23 24be 9cd7 89bd 1fb7 b6bd
00000290: 7635 f63d 1cde 90bd 8ea7 233e cc26 ae3e
000002a0: 9eee d53c bf50 673d 3d2d f5bd 3c3a ffbb
000002b0: baa7 8abe 3802 963d d2ce ce3d 83ad d93c
000002c0: 496c 19be 1a71 1b3e 6208 cb3c da0c 4dbe
000002d0: 91c6 e03c ce22 593c e32b 0e3e 54b6 0f3c
000002e0: 3f02 b03d a5f5 73be ec04 30be 5870 acbc
000002f0: 37d1 273e 115e dfbd 9f17 db3c 4094 3c3d
00000300: 5a50 563d c3d9 d0bd ec74 513e 070d 6ebc
00000310: d46d 73bd f54e db3d 19a6 0d3e 1b87 8bbd
00000320: 65c3 3cbd e073 813d d147 05be a67f 96bc
00000330: b68a 343e b321 993e 523c e2bd 261e 9cbd
00000340: 977f 813e 61d3 1c3e 264e 2b3e c06b 0ebc
00000350: 8be2 b53b 5ee8 bebb f17a ff3d 8a8c 1f3e
00000360: ca74 96be 19cd 0c3d a26b ba3d 8359 b0bc
00000370: c2ae 21be d093 413d 3b0c 21be 0dca 82bd
00000380: 2fa9 5ebb 2cc6 9fbd 914e 0dbe 5753 1ebd
00000390: 3b31 0e3e bec0 493e 9aad 27bd 51b5 1ebc
000003a0: 0b55 12bd 49d0 803d fae3 8e3d e0e8 debd
000003b0: 51fe d83c 0c0b 91bd 55ea 163e d3e5 76be
000003c0: e98a 143e 1ddb 20be 1d35 44bb 05ad 973d
000003d0: 902e a83d 2b93 39be 4d27 cbbc 9656 adbd
000003e0: 44ec cfbc 4901 abbc 6406 86be 5049 143b
000003f0: 2908 963d 78da b43b 1e74 5a3e c1e4 97be

l2.bias f4 [256]
0.047348842 -0.13730761 0.066736616 -0.03821331 0.036458697 0.010822277 0.08130875 0.111254685
-0.013991055 0.03544061 -0.00562353 -0.063630216 0.07827192 -0.1234772 -0.13731986 -0.042983618
-0.0035973205 -0.16310525 -0.0048545864 -0.00058047957 -0.019189162 -0.030781563 -0.015967518 0.115406744
0.08243493 0.1545679 0.12145687 -0.042145208 0.000243962 0.15049498 -0.0483398 -0.09866646
-0.08073636 0.020515466 -0.24177061 0.074139066 0.032719802 -0.04708998 -0.047228616 -0.028146883
-0.00021516172 0.040453225 0.06916499 0.11344387 0.14493763 -0.02138478 -0.043934707 -0.1177288
-0.023905976 -0.055584423 -0.039241936 0.10758697 -0.038479805 0.013974721 0.0007108915 0.018905252
0.07568904 -0.043656316 -0.038560975 0.033624273 -0.010222645 0.008453042 -0.068598196 0.18469915
-0.02663989 -0.036804676 -0.061386276 -0.06884252 0.023016665 0.039271355 -0.11627106 0.10751057
-0.015165642 0.08976973 -0.02861309 -0.08419544 -0.01786623 -0.05447432 -0.061553083 0.042074345
-0.073431864 -0.10041777 -0.012508405 -0.16167025 -0.050029665 0.120048046 0.02775055 -0.012124543
-0.016409695 0.005631364 0.019655004 0.013926032 -0.0795057 0.03164229 0.0021928323 -0.008231859
-0.086499155 0.091366775 -0.034136895 0.031374242 0.07037397 -0.12541865 -0.02784102 -0.101802036
-0.045380123 -0.038877334 -0.034324914 -0.048025727 0.05635691 -0.04628563 0.08031926 0.055643823
-0.11326535 0.2144926 -0.11164665 0.07446098 0.031659164 0.055568207 0.0070377593 0.06967696
-0.013446918 0.07802383 0.032056585 0.037115842 0.024039809 0.06784045 -0.017949697 -0.0041547716
0.0881998 0.099515334 0.0573304 0.0926316 -0.14044896 0.028904168 -0.16298333 -0.07207217
0.023726657 -0.034731247 0.033194795 -0.03519916 -0.10386482 0.14242908 -0.022038152 -0.028678536
0.044471826 0.01612669 -0.06936854 0.054079875 0.04496875 0.0522151 -0.014544766 -0.08347074
-0.087425224 0.006703527 0.0135473935 -0.021605913 0.06396325 0.053471282 0.13642436 -0.032831453
0.13873851 0.017676847 -0.03569624 0.022514408 -0.07160123 0.07488518 0.08522875 -0.14460005
-0.025244065 0.030366277 -0.067932665 -0.06595742 0.015630296 -0.052331444 0.036663063 0.0839661
0.028261675 0.053641457 -0.021167943 0.03299796 0.022810625 -0.01590276 0.04073573 0.16780713
0.081181556 -0.08959145 0.081699565 0.14052947 0.071828455 0.057539478 0.023115698 -0.02678306
0.11686834 0.058345806 0.07179678 0.019309962 0.018419473 -0.0029626351 0.04791924 0.014411846
0.09269127 0.079064466 0.030509835 -0.11214839 -0.044676557 -0.01778965 0.004958986 0.017621676
-0.10178303 -0.02219205 -0.07923479 -0.012087223 -0.01739656 0.03628234 0.01722157 -0.07353266
0.033860516 0.054638013 0.10420243 0.029162342 0.014493396 0.015903769 -0.040964767 -0.019119803
0.12842648 0.050784405 0.022625174 0.023766397 0.04487301 -0.07591437 0.07671409 -0.105113566
-0.017216457 -0.0043407753 0.17403798 -0.037323404 -0.024623025 -0.026456555 0.0532165 0.09540461
0.025500821 -0.038155332 -0.009454932 0.049889464 0.025875306 -0.07007655 0.032825064 0.048980523
-0.015556831 0.081269205 0.10599474 0.021753184 0.08487781 -0.032930847 0.08682957 0.072634086
00000000: dcf0 413d 5e9a 0cbe 35ad 883d 8f85 1cbd
00000010: b755 153d eb4f 313c 3485 a63d 7fd9 e33d
00000020: bd3a 65bc 2c2a 113d 9745 b8bb 8f50 82bd
00000030: 074d a03d 9de1 fcbd 949d 0cbe 970f 30bd
00000040: 06c1 6bbb 1005 27be 3913 9fbb 532b 18ba
00000050: 9732 9dbc 9e29 fcbc 50ce 82bc 5f5a ec3d
00000060: a5d3 a83d 0c47 1e3e 61be f83d 74a0 2cbd
00000070: 0dd0 7f39 5b1b 1a3e f4ff 45bd a411 cabd
00000080: 1b59 a5bd 0d10 a83c b792 77be 39d6 973d
00000090: 3305 063d 6ce1 40bd cb72 41bd 4b94 e6bc
000000a0: 099d 61b9 48b2 253d 60a6 8d3d 4255 e83d
000000b0: 886a 143e 222f afbc e1f4 33bd cc1b f1bd
000000c0: 77d6 c3bc 7eac 63bd 27bc 20bd 8f56 dc3d
000000d0: 009d 1dbd 3af6 643c 1f5b 3a3a 30df 9a3c
000000e0: db02 9b3d f7d0 32bd 1df2 1dbd 9bb9 093d
000000f0: e17c 27bc a17e 0a3c 367d 8cbd c621 3d3e
00000100: e63b dabc 80c0 16bd 2d70 7bbd 4ffd 8cbd
00000110: 728d bc3c 00db 203d 861f eebd 802e dc3d
00000120: 5079 78bc 31d9 b73d 0066 eabc a96e acbd
00000130: 335c 92bc 7720 5fbd 161f 7cbd 2656 2c3d
00000140: 7263 96bd d5a7 cdbd 0ef0 4cbc e38c 25be
00000150: e8eb 4cbd c0db f53d 1f55 e33c 05a6 46bc
00000160: a06d 86bc 4e87 b83b 8803 a13c 032a 643c
00000170: e2d3 a2bd 599b 013d 9fb5 0f3b ebde 06bc
00000180: 7826 b1bd 811e bb3d 21d3 0bbd 4782 003d
00000190: 3a20 903d bf6d 00be da12 e4bc 967d d0bd
000001a0: 82e0 39bd d73d 1fbd 4898 0cbd a0b6 44bd
000001b0: 81d6 663d 0096 3dbd 6d7e a43d c7ea 633d
000001c0: aaf7 e7bd f3a3 5b3e 00a7 e4bd 007f 983d
000001d0: 0aad 013d 7d9b 633d 019d e63b cbb2 8e3d
000001e0: 7650 5cbc f5ca 9f3d c44d 033d c806 183d
000001f0: 22ef c43c efef 8a3d 3e0b 93bc c024 88bb
00000200: 19a2 b43d b2ce cb3d 48d3 6a3d a3b5 bd3d
00000210: dad1 0fbe 6fc8 ec3c 1ae5 26be 939a 93bd
00000220: 685e c23c 5a42 0ebd 44f7 073d ff2c 10bd
00000230: 14b7 d4bd eed8 113e 5b89 b4bc 40ef eabc
00000240: 1728 363d 1f1c 843c 1811 8ebd dc82 5d3d
00000250: 2731 383d 80df 553d 2c4d 6ebc b5f2 aabd
00000260: ff0b b3bd 43a9 db3b e3f5 5d3c e2fe b0bc
00000270: 2aff 823d b404 5b3d d4b2 0b3e 467a 06bd
00000280: 7811 0e3e 09cf 903c 3836 12bd 2370 b83c
00000290: aaa3 92bd 675d 993d 698c ae3d 0912 14be
000002a0: a4cc cebc b3c2 f83c 4820 8bbd af14 87bd
000002b0: 1b0b 803c 7f59 56bd 022c 163d 6bf6 ab3d
000002c0: 0785 e73c 25b7 5b3d 6568 adbc de28 073d
000002d0: 59dd ba3c 8146 82bc 82da 263d a2d5 2b3e
000002e0: 8442 a63d b97b b7bd 1a52 a73d f5e6 0f3e
000002f0: cc1a 933d 84ae 6b3d 225d bd3c 2668 dbbc
00000300: ab58 ef3d 03fc 6e3d 310a 933d ed2f 9e3c
00000310: 6fe4 963c c528 42bb f746 443d aa1f 6c3c
00000320: ecd4 bd3d 8dec a13d c3ef f93c 0eae e5bd
00000330: c4fe 36bd 9abb 91bc fd7e a23b 555b 903c
00000340: 9f73 d0bd 1acc b5bc d945 a2bd 7d09 46bc
00000350: 3b83 8ebc ca9c 143d 4014 8d3c 4b98 96bd
00000360: 53b1 0a3d 1ccc 5f3d 1568 d53d dde5 ee3c
00000370: b575 6d3c 9f48 823c acca 27bd 22a1 9cbc
00000380: 3b82 033e 4f03 503d 6e58 b93c bfb1 c23c
00000390: c3cc 373d fe78 9bbd 471c 9d3d c845 d7bd
000003a0: 8709 8dbc 103d 8ebb 0337 323e 6de0 18bd
000003b0: 3ab6 c9bc 6bbb d8bc 8bf9 593d 7e63 c33d
000003c0: 19e7 d03c c448 1cbd dce8 1abc e558 4c3d
000003d0: 73f8 d33c 4b84 8fbd 9373 063d cd9f 483d
000003e0: 14e2 7ebc 7870 a63d c513 d93d bc33 b23c
000003f0: 6bd4 ad3d 7fe2 06bd b4d3 b13d 2ec1 943d

l3.weight f4 [4, 256]
-0.0272831 -0.19884408 -0.061759792 -0.0913247 0.29478377 0.095777184 0.32115385 -0.108083226
-0.11490022 -0.074786656 -0.05296876 -0.14234273 0.19350359 0.08510022 0.16640122 0.20826998
-0.14285699 -0.01337339 -0.040598437 0.16444959 0.041289456 0.09020576 -0.13323812 0.089925915
-0.26451266 -0.20503438 -0.36577225 -0.07929786 -0.11626296 0.1927807 0.051331185 0.13852671
0.16127412 -0.33142155 0.06289987 0.00370074 -0.33619455 0.09055153 0.16774666 -0.019831972
-0.021229787 0.11878097 0.131529 -0.11634649 0.17899491 -0.084148414 -0.2384633 -0.019936051
-0.036955893 -0.03574098 0.29914448 -0.07293451 0.07758358 -0.21668354 -0.20948914 0.11683021
-0.062321838 -0.14545289 0.03995981 -0.14120792 -0.08248871 -0.3172345 -0.033846878 -0.20984864
0.07002548 -0.27893502 0.10168545 -0.31656778 0.27128917 0.1784174 -0.14941671 0.03522052
-0.09615774 -0.30198392 0.26809317 0.16540661 0.062864 0.22232626 0.018701341 0.27946892
0.0700912 -0.032666128 0.012585399 0.21267588 -0.036956336 0.20773141 0.15779337 0.29332358
0.308703 0.052851014 -0.19166261 -0.12879775 0.0667622 -0.109516636 -0.24405353 0.11690419
0.19104296 0.15892297 -0.02422128 0.0136145465 0.4667665 0.31079686 -0.052197527 -0.043144483
-0.15428486 -0.1763741 -0.03393067 -0.11448304 -0.10555004 0.34330216 0.052495833 -0.0639734
0.039318174 -0.12816891 0.016799206 -0.09082166 -0.20200019 0.016984235 -0.12763473 0.2473943
0.11443709 0.010668911 -0.25835758 0.07127153 -0.30942965 0.17624928 0.08253597 0.020051464
0.024370093 -0.37109378 -0.069159694 -0.28047177 -0.19690219 0.112655796 0.02942618 0.23457925
0.15532267 0.016421152 0.1167634 -0.038473073 -0.015961906 0.07500087 0.2912083 0.0028534583
0.20640886 -0.15828621 -0.02185141 -0.39245787 -0.28408065 -0.21528894 0.19971406 -0.027978381
0.318881 -0.03280194 -0.1031942 -0.21394509 0.082129106 0.0851261 0.09998751 -0.18557759
-0.094690844 -0.14382446 -0.0567477 0.2320239 0.056134734 0.011092533 -0.1413617 -0.17093232
-0.03811966 -0.030209122 -0.1293931 0.31282425 -0.33305523 -0.047023393 0.12988216 -0.25538582
0.16307642 0.15953632 0.08597443 -0.1878018 0.22086209 0.47438967 0.15702017 0.18453808
0.18526796 -0.32946366 -0.056685522 -0.21760556 0.35211158 0.075188935 -0.06361744 -0.062132552
-0.11925468 0.24256049 0.15154186 0.11712851 0.075126305 -0.10301407 0.21833922 0.15385747
0.05357566 -0.13102311 0.04568876 -0.21265982 -0.09716849 -0.26431865 0.05950366 0.22952713
0.28907648 -0.23541805 -0.18456626 0.14978532 -0.26506367 -0.22066279 0.20664293 -0.031680156
0.061909173 -0.03810299 -0.24004245 -0.0036265522 -0.20963973 -0.18039797 0.03984478 0.047518652
0.16137075 0.35545695 -0.26912177 -0.12339317 0.0069828383 -0.10483227 0.060869277 -0.38560653
-0.07265523 -0.072233886 -0.10932049 -0.14738402 0.06065694 -0.097963564 0.017260134 0.23027341
-0.11935446 -0.28587717 0.16342482 -0.13629554 0.010259001 0.1567731 -0.2165253 -0.1323898
-0.012532824 0.118333355 -0.064112425 -0.18228345 0.14106414 0.33735913 0.41624206 0.13836205
00000000: cf80 dfbc c89d 4bbe d6f7 7cbd 7208 bbbd
00000010: e6ed 963e d426 c43d 476e a43e bd5a ddbd
00000020: ce50 ebbd bf29 99bd c5f5 58bd 4bc2 11be
00000030: ce25 463e 0649 ae3d 1565 2a3e ba44 553e
00000040: 1a49 12be 101c 5bbc 8c4a 26bd 7965 283e
00000050: 221f 293d ccbd b83d 936f 08be 142b b83d
00000060: 346e 87be 88f4 51be 8046 bbbe eb66 a2bd
00000070: 461b eebd 4e68 453e a640 523d f2d9 0d3e
00000080: 0b25 253e 16b0 a9be a6d1 803d 1d88 723b
00000090: b121 acbe 1573 b93d c8c5 2b3e a976 a2bc
000000a0: 17ea adbc 7043 f33d 8aaf 063e 1247 eebd
000000b0: 714a 373e 0156 acbd b92f 74be ee50 a3bc
000000c0: 105f 17bd 2265 12bd 7729 993e b05e 95bd
000000d0: 24e4 9e3d 4ae2 5dbe 5284 56be ad44 ef3d
000000e0: 2f45 7fbd 9af1 14be e6ac 233d cf98 10be
000000f0: d7ef a8bd 8f6c a2be 06a3 0abd 90e2 56be
00000100: 8569 8f3d 92d0 8ebe 7640 d03d 2c15 a2be
00000110: 6ae6 8a3e 0db3 363e b200 19be 6443 103d
00000120: 59ee c4bd a39d 9abe 8243 893e 5a60 293e
00000130: d7be 803d 7fa9 633e 8e33 993c 8d16 8f3e
00000140: fa8b 8f3d ebcc 05bd fd32 4e3c b5c7 593e
00000150: 875f 17bd 8bb7 543e 9694 213e 822e 963e
00000160: 520e 9e3e 4e7a 583d 3443 44be 8fe3 03be
00000170: 9fba 883d 424a e0bd 2be9 79be 776b ef3d
00000180: c4a0 433e b4bc 223e b56b c6bc 8c0f 5f3c
00000190: 05fc ee3e c420 9f3e 13cd 55bd 45b8 30bd
000001a0: dafc 1dbe 699b 34be e3fa 0abd 1676 eabd
000001b0: 9f2a d8bd 4dc5 af3e df05 573d 7c04 83bd
000001c0: 180c 213d b63e 03be 7d9e 893c b500 babd
000001d0: 23d9 4ebe 8622 8b3c aeb2 02be ee54 7d3e
000001e0: fe5d ea3d a8cc 2e3c 7247 84be cff6 913d
000001f0: 906d 9ebe b17a 343e 9e08 a93d f842 a43c
00000200: caa3 c73c 0100 bebe 99a3 8dbd ff99 8fbe
00000210: baa0 49be 15b8 e63d 2c0f f13c 8b35 703e
00000220: e80c 1f3e a785 863c a621 ef3d f195 1dbd
00000230: 8bc2 82bc 0e9a 993d 4119 953e 1601 3b3b
00000240: d85c 533e c815 22be ba01 b3bc 3df0 c8be
00000250: 0573 91be b474 5cbe d881 4c3e eb32 e5bc
00000260: 5f44 a33e 545b 06bd 7b57 d3bd 6c14 5bbe
00000270: 4e33 a83d 9856 ae3d 40c6 cc3d 0d08 3ebe
00000280: 46ed c1bd b846 13be 4770 68bd ac97 6d3e
00000290: 89ed 653d 75bd 353c 1fc1 10be e208 2fbe
000002a0: 5c23 1cbd 1f79 f7bc a07f 04be 802a a03e
000002b0: 3786 aabe 9a9b 40bd d4ff 043e eec1 82be
000002c0: 81fd 263e 7d5d 233e 5d13 b03d 1d4f 40be
000002d0: ac29 623e 34e3 f23e e5c9 203e 8df7 3c3e
000002e0: e2b6 3d3e 76af a8be 142f 68bd fed3 5ebe
000002f0: f847 b43e a8fc 993d dc49 82bd b47e 7ebd
00000300: cc3b f4bd c761 783e ca2d 1b3e 12e1 ef3d
00000310: d2db 993d 0af9 d2bd 5194 5f3e d08c 1d3e
00000320: 2772 5b3d ec2a 06be 2324 3b3d 7fc3 59be
00000330: 4600 c7bd c654 87be 1cba 733d 2909 6b3e
00000340: d501 943e 6e11 71be f0fe 3cbe 5361 193e
00000350: 6db6 87be 6df5 61be 349a 533e 0dc3 01bd
00000360: 7994 7d3d e111 1cbd b0cd 75be 73ab 6dbb
00000370: ccab 56be 3fba 38be 4834 233d eba2 423d
00000380: 603e 253e 74fe b53e 54ca 89be 8fb5 fcbd
00000390: 4bd0 e43b 4db2 d6bd 1052 793d 386e c5be
000003a0: 44cc 94bd 5cef 93bd 6ce3 dfbd d6eb 16be
000003b0: 6973 783d 1fa1 c8bd 2065 8d3c cbcc 6b3e
000003c0: 1c70 f4bd 7e5e 92be d658 273e 0f91 0bbe
000003d0: 5e15 283c 2189 203e cfb8 5dbe 3191 07be
000003e0: 7956 4dbc c258 f23d 604d 83bd 83a8 3abe
000003f0: 1e73 103e 56ba ac3e ae1d d53e c8ae 0d3e

l3.bias f4 [4]
0.0012869389 0.10313039 0.007909225 0.10862821
00000000: 81ae a83a 0736 d33d b295 013c 7878 de3d
