HardcoreVersion_7500_V4/actor/ppo_actor7300.pth (torch, 295492 bytes, 6 tensors)

l1.weight f4 [256, 24]
000000 e5 2e b1 3e 02 a9 3a 40 e8 2d 91 bf ce 7a bc 3f
       0.3460609 2.9165654 -1.1342134 1.4724977
000010 d3 e5 6c 3e 92 a6 01 3e e3 51 17 bc e1 b8 72 3d
       0.23134546 0.12661198 -0.009235832 0.059258346
000020 ef 36 2e 3e b3 db e3 3e 1c 19 0a 3e 12 2a fc 3d
       0.17013143 0.44503555 0.13486141 0.12312712
000030 df f7 33 3e 2f 5a 24 3e bf 0e cc bd c5 74 a5 bb
       0.17575024 0.16050027 -0.0996375 -0.0050493204
000040 11 e5 ef 3e 24 2b b1 3e 12 f5 a9 bd a3 56 a2 3d
       0.4685445 0.34603226 -0.082986966 0.07926681
000050 6f af fa bc 57 c3 91 bd c5 dc be 3d 62 18 e9 3e
       -0.030601231 -0.07117336 0.09319452 0.45526415
000060 f5 b0 cc bf fc 5d 1e 3f 11 56 50 bf b4 f0 75 bf
       -1.5991503 0.6186216 -0.81381327 -0.9607041
000070 a7 8b 43 be 2d d3 94 be f1 2e 26 3e f2 09 6c be
       -0.19096242 -0.29067364 0.16228844 -0.23050669
000080 c9 69 bb be fa ca b3 be 76 e5 d0 be 5e 3b 77 3f
       -0.36604145 -0.35115796 -0.40800065 0.9657496
000090 27 3b 68 be 21 24 26 3f 36 ec 8e bc 50 4f 63 bc
       -0.22678815 0.6489888 -0.017446619 -0.01387389
0000a0 d1 d9 98 3d d8 60 a1 be 24 ce 8f be 32 b8 d9 bd
       0.0746342 -0.31519198 -0.2808696 -0.106308356
0000b0 8e ea ce be f3 81 f5 be 2f 61 aa be b2 c0 e9 3d
       -0.40413326 -0.47950706 -0.3327727 0.11413707
0000c0 0a 63 30 3f 14 06 53 3f 76 fc f1 be 41 ce 1f bd
       0.6890112 0.8243115 -0.47262925 -0.03901506
0000d0 34 9a 90 3e 2e 22 df 3e d1 03 46 3e 56 d8 1a 3e
       0.28242648 0.43580765 0.19337393 0.15121588
0000e0 4a 41 1e 3e 50 d4 ae 3d 4c 5f 33 be 00 1a 67 3d
       0.15454593 0.08536589 -0.17516822 0.05642128
0000f0 b1 08 24 3e 98 59 88 be 51 b7 de 3d 88 59 1c 3d
       0.1601894 -0.26630855 0.108748086 0.03817132
000100 a0 83 6e 3e 50 d9 1e 3e 1f 3f c7 3e a9 3b b4 bd
       0.23292398 0.15512586 0.38915345 -0.08800442
000110 6e 96 1f be b4 0c 7b be c4 ce bf 3e 56 2d ef 3c
       -0.15584728 -0.24516565 0.37462437 0.029196423
000120 86 6c 36 3d 23 1f 3a 3e 97 d3 31 bf ef 44 35 3e
       0.04453709 0.1817594 -0.69463485 0.17702077
000130 e3 92 32 3d af cc b7 3d 62 b0 54 3e d0 1a c9 3d
       0.043597113 0.08974587 0.2077041 0.09819567
000140 df 7b e0 be 77 59 f2 3e 41 ee d2 bc 83 5f 82 3e
       -0.43844506 0.4733388 -0.025748374 0.25463495
000150 51 12 23 3e 6c 78 80 be ef 95 96 3e cd b3 88 be
       0.15924956 -0.25091875 0.29411265 -0.26699677
000160 15 e2 ce be c0 3e 91 be 9b 63 a6 bd ba e0 13 be
       -0.40406862 -0.28368187 -0.08124467 -0.14441195
000170 65 b1 f6 3e ad da 19 3f de a2 93 be d2 cb ad 3d
       0.48182216 0.600993 -0.28835195 0.08486141
000180 d0 c2 0b 3f 06 46 86 3f 8b c2 c6 be 8f 78 c4 bf
       0.54594135 1.049012 -0.388203 -1.5349292
000190 67 d9 ad be 29 fc af 3e 5a 70 a0 bd 0e 76 f9 3d
       -0.33954927 0.3437207 -0.07833929 0.1218072
0001a0 b6 16 ba bd e3 02 70 be 4a 49 2e be ba c7 d2 3c
       -0.09086363 -0.23438601 -0.17020145 0.025730003
0001b0 85 f9 c2 bd 8d cd 83 be dd 79 f3 3e e6 41 09 3f
       -0.09520248 -0.2574276 0.47553912 0.5361618
0001c0 87 65 2d 3f e1 47 2e bf 48 31 37 bf 57 9e 1f be
       0.67733043 -0.6807843 -0.7155957 -0.15587746
0001d0 a0 c8 7b 3e 8c d1 95 bd 11 f2 7c be 60 6b ca bc
       0.24588251 -0.073153585 -0.24701716 -0.024709404
0001e0 39 45 f6 3d 08 e0 9d 3f eb 07 c6 be 31 47 22 c0
       0.12024922 1.2333994 -0.38677916 -2.5355952
0001f0 04 6d e0 bd 28 5d ab 3d 13 12 61 3f a1 6c d4 bd
       -0.10958293 0.083673775 0.87918204 -0.10372282
000200 bc c5 27 bd 10 00 35 3d 56 9f f7 3e 98 f9 69 3d
       -0.04096006 0.044189513 0.4836375 0.057122797
000210 13 63 1e bf 99 c7 ed 3d 48 10 2c bd a5 5f b6 bd
       -0.61869925 0.11610336 -0.042007715 -0.089049615
000220 60 de 13 bf 6b 08 cb be 32 d8 e7 bb a8 0f bb bb
       -0.5776119 -0.3965486 -0.007075333 -0.0057086535
000230 88 97 4a 3e f0 bf e1 bc 3a 9b c9 3e 44 26 f0 bd
       0.19784367 -0.027557343 0.3937624 -0.117260486
000240 0f fd 7b be 88 de 3a 3f 04 0d 58 3f 3c d5 73 bf
       -0.24608253 0.72995806 0.8439486 -0.95247245
000250 38 2f d1 3e 9a bc f6 be 0a 0d 23 3e a4 81 0c be
       0.40856338 -0.48190767 0.15922943 -0.13721329
000260 3c 79 3e be 90 ec 94 be 66 47 1e 3f 01 31 57 bf
       -0.18600935 -0.29086733 0.61827695 -0.8405915
000270 01 c7 c6 3e 31 a7 35 be c0 71 2c 3e 53 a2 c6 ba
       0.38823703 -0.1773956 0.16840267 -0.0015154578
000280 11 73 82 3e b7 da c1 3d e7 d8 14 3c 3e 45 3c be
       0.25478414 0.09465545 0.009084917 -0.18385789
000290 84 fe 58 3e f2 4b 34 be 57 23 fa be 42 20 6d 3e
       0.2119084 -0.17607096 -0.48855087 0.23156837
0002a0 fb 4c 16 3f 1b 01 c2 be f4 8d 4d bf 54 92 95 bf
       0.5871121 -0.37891468 -0.8029473 -1.1685281
0002b0 d4 5a a1 ba 2d c7 83 be e3 86 89 bb 17 71 52 bd
       -0.0012310394 -0.25737897 -0.004196988 -0.051377382
0002c0 2c 85 de be a8 11 89 3e a4 57 21 3e e3 02 9b be
       -0.43460977 0.26771283 0.15756088 -0.3027564
0002d0 df 81 70 3e a9 34 b3 3d d9 9d b1 bd 82 6f c2 be
       0.23487042 0.087502785 -0.08672685 -0.379757
0002e0 5f 93 ef 3d c6 f3 0b 3f 25 9e 27 3e 1e 04 f5 bc
       0.11698031 0.54668844 0.16368921 -0.02990919
0002f0 78 67 41 bd eb 89 63 3e aa 3c 64 be 57 64 2c bd
       -0.047217816 0.2222058 -0.22288767 -0.04208788
000300 ab b9 d4 3d 09 9f 93 3f 34 48 5c bf d4 38 5c bc
       0.10386976 1.1532909 -0.86047673 -0.013441283
000310 c9 d1 89 3d 63 df b0 3d c6 55 3f be f3 b8 0a 3e
       0.067294665 0.08636358 -0.18685064 0.13547115
000320 c3 5f 7d bf cf f0 eb 3d 91 e1 90 3e 6a 72 57 3f
       -0.98974246 0.1152054 0.28297094 0.84158957
000330 46 a5 ac 3d e9 96 84 be c1 b0 33 be 2e 24 cb be
       0.08429961 -0.25896385 -0.17547895 -0.3967604
000340 e9 73 05 bf f0 aa a2 be 3c 04 5b be 4c 25 17 b9
       -0.5212999 -0.3177104 -0.21388334 -0.00014414376
000350 62 1e bb be e1 f1 8c be cf 62 c2 3d f2 99 33 3e
       -0.36546618 -0.2752829 0.094915025 0.17539194
000360 fc a5 36 3e 4a 3f b3 3f 84 b4 c2 bb bc 1d 11 3e
       0.17836756 1.4003689 -0.0059419293 0.14171499
000370 3a 60 fd be 88 32 1b 3e 78 aa fe be 6c 6b 96 3d
       -0.49487478 0.15155995 -0.49739432 0.07344708
000380 58 9e 60 be d3 6f e6 3e fb 40 11 3e f7 83 d3 3e
       -0.21935403 0.4500719 0.14184944 0.4131162
000390 07 77 85 3c 70 c4 ca be 29 9d 2c be 63 ae 04 3f
       0.016292108 -0.39602995 -0.16856827 0.51828593
0003a0 49 57 e2 3e 2a 52 07 3f 84 d1 9d 3e 93 cc 48 3e
       0.44207218 0.5285975 0.3082391 0.19609289
0003b0 88 d0 83 3e 78 f6 9d be bb 6a be be 1d a6 02 be
       0.25745034 -0.30852103 -0.37190804 -0.1275868
0003c0 1d 46 90 3f 43 8f 00 40 01 19 f5 be 4b fd ff be
       1.1271397 2.008744 -0.4787064 -0.49997935
0003d0 a5 87 ee bd aa 6d d7 3d 52 ab 84 3e 5e 07 c9 bc
       -0.11646966 0.10518964 0.25911957 -0.024539646
0003e0 60 02 d9 be 53 5a 3d 3f 78 36 60 be 16 73 8b 3d
       -0.42384624 0.7396595 -0.21895778 0.0680906
0003f0 04 47 2d bd ad 87 09 be b4 4a 0e 3e 40 50 cc be
       -0.042304054 -0.13430662 0.13895684 -0.39904976

l1.bias f4 [256]
000000 fa f9 74 bd 20 52 03 3d ad 00 81 be 61 39 99 3e
       -0.05980871 0.032060742 -0.25195828 0.2992659
000010 5e e8 1f be 75 fb f4 bc 36 0e ae 3e 70 18 0b bd
       -0.15615985 -0.02990506 0.33995217 -0.033958852
000020 71 f7 31 be e8 93 4d 3e d3 be 09 bf bd c4 c9 3e
       -0.17379548 0.20075953 -0.538068 0.39407912
000030 3a 65 b0 3d 3c fd bc 3e 72 22 8f 3e eb da a7 3e
       0.086130574 0.36911952 0.27955967 0.3278421
000040 1f 01 2d 3e c7 3e 25 be 6d d8 10 be 27 ab 1d 3d
       0.16894959 -0.16137229 -0.1414506 0.0384933
000050 7b f5 4c 3e 8c 8c 94 bc 66 c5 33 bb fd da 19 bd
       0.20015518 -0.018133424 -0.002743089 -0.03756236
000060 09 41 d9 bd 5e 13 8d 3c 59 a8 4a be dd be 9b 3e
       -0.106081076 0.017221149 -0.19790782 0.30419055
000070 ed 71 6c be 6d 04 a8 bd 09 fa 8a 3e 6b 6a 8f 3e
       -0.23090334 -0.08203969 0.27143887 0.28010878
000080 2e 59 fe 3d da 32 c7 3b 9a 3e 9d 3e 5e 05 49 3e
       0.124193534 0.00607906 0.30711824 0.19630954
000090 b0 3e 2f bf 6d 37 18 3e 8e 01 fe be 77 d8 2f 3e
       -0.6845503 0.14864893 -0.4961056 0.17172419
0000a0 99 59 ac bd 94 7c e6 3e 90 71 15 3f d1 7b b1 be
       -0.08415527 0.4501692 0.5837641 -0.34664777
0000b0 40 80 37 bd 4c 59 a8 3d 0f 8e 7e 3c 7f 2f 9d 3e
       -0.044800043 0.08220157 0.015536799 0.307003
0000c0 4e 98 5a be 61 a3 6b bd 48 52 9e be 84 82 bc be
       -0.21347162 -0.057528857 -0.3092215 -0.36818326
0000d0 cd 69 7c be 1c bb 88 be 3d 94 05 3f 75 39 9b 3d
       -0.24649735 -0.26705253 0.5217932 0.075793184
0000e0 58 92 e0 3e a4 bb 79 3e 8e ea 60 3e 65 7f 38 3e
       0.4386165 0.24387985 0.21964476 0.18017347
0000f0 b5 11 27 3b db a1 7e 3e 5a 80 e5 be e0 c3 21 be
       0.0025492732 0.2486643 -0.44824487 -0.15797377
000100 9c 59 d8 bd ff dd 2a bd c7 be b8 3c 2f d5 b3 be
       -0.10563967 -0.04171562 0.022551907 -0.35123584
000110 a3 70 c2 be 33 0d af be d0 c8 2f 3d bb 1c a2 be
       -0.3797656 -0.34189758 0.04291612 -0.31662545
000120 4e fa c6 bd a7 6a cf 3d 5a c2 19 be 05 f5 52 bd
       -0.097157106 0.10127764 -0.15015545 -0.0515032
000130 16 6a 43 bd da 9e 3c bd a1 67 d5 3e 8c bb 97 be
       -0.047708593 -0.04604993 0.41680625 -0.29635274
000140 fe e9 e0 3e ce 13 3b be 97 97 0b 3e c4 d2 1b be
       0.43928522 -0.18269274 0.13632046 -0.1521712
000150 2b 10 95 be 33 55 23 3b 31 b0 e0 be bc ba fb bd
       -0.29113898 0.002492261 -0.43884423 -0.12291476
000160 2a 03 c3 be 0b f9 84 be 1d 3c 58 be 75 65 4f 3d
       -0.3808835 -0.25971255 -0.21116681 0.050633866
000170 73 3a e0 bd da fa 6f 3d 63 61 57 3e fd 69 7b bd
       -0.10948648 0.05858884 0.21033244 -0.061380375
000180 ba cb 78 bd 50 80 07 3f 4b 3d 1e 3a d6 de 2d 3e
       -0.060741164 0.52930164 0.0006036355 0.16979536
000190 96 a2 76 bd e1 24 b5 3e 30 8e ab bd c8 97 e3 3d
       -0.060213648 0.353797 -0.083767295 0.11112934
0001a0 8b eb c7 bd e1 b4 d9 be b6 a3 8b be f4 54 9a 3e
       -0.09761723 -0.42520812 -0.2727334 0.3014294
0001b0 32 5c 4f be 7b 85 b5 be 18 a1 a5 3e 72 36 8b bd
       -0.20250013 -0.354534 0.32349467 -0.06797494
0001c0 a0 80 eb 3d 5b 8d 24 be f8 41 b4 bd 82 ca a7 be
       0.11499143 -0.16069548 -0.08801645 -0.3277169
0001d0 d2 b3 a3 bd 68 5e b2 be e4 b4 b2 bd 8b fb 04 be
       -0.079932824 -0.3483765 -0.087259084 -0.12986581
0001e0 b5 3b 1f 3e 0d 32 03 3e 94 f5 eb be 6e 50 00 3e
       0.1555012 0.12812062 -0.460858 0.12530681
0001f0 84 b9 4e 3c 15 09 51 3d 6e a1 9f 3c 7c 8c 61 3e
       0.012617473 0.051034052 0.019486155 0.22026247
000200 04 f3 b3 be 44 b2 5d 3d 00 28 12 3e 67 ed 43 3e
       -0.35146344 0.054125085 0.14273071 0.1913353
000210 c3 2d 1a be 67 1f d9 3d 85 d8 77 ba 2e d4 87 bd
       -0.15056519 0.10601693 -0.0009454566 -0.06632267
000220 b5 78 7e be 92 4b 86 be 83 bc 08 3e 78 8a dc bd
       -0.24850734 -0.2622953 0.13353162 -0.10768598
000230 94 4c c7 bb d1 0b 9c 3e 21 da 85 3e c6 6c 49 bd
       -0.006082127 0.30477765 0.26142982 -0.049176
000240 53 f2 ad 3e 8e a4 73 bd a5 96 a3 3d 93 8b 29 3d
       0.3397394 -0.059483103 0.079877175 0.041392874
000250 33 b8 43 be b5 a7 d8 bd 7b 98 cc 3c ea c4 8b 3e
       -0.19113235 -0.105788626 0.024975052 0.2729867
000260 b6 e9 ca bc 2f 8f 13 3e e1 95 47 bd 4b be 5a be
       -0.024769645 0.14410089 -0.04872692 -0.21361654
000270 90 76 07 bd b9 d2 d1 bc 9c 62 e4 38 b4 58 9a bd
       -0.033072054 -0.025613176 0.000108902546 -0.0753645
000280 0f d6 19 3e a1 5e 85 be 79 81 6f 3d 7f dd 78 bc
       0.15023063 -0.2604876 0.058473084 -0.0151895275
000290 73 47 e6 bd d3 f6 3d 3e ad 52 16 3d 50 c6 c9 3e
       -0.112440966 0.18551187 0.03669994 0.39409113
0002a0 5a 5f 47 bd 5c cc 2f bd 56 0f 1d be 0e ad 81 bd
       -0.04867492 -0.0429195 -0.15337881 -0.06331836
0002b0 b4 e7 a0 be 6b 3f 7f bd ce e6 97 3d 78 39 94 3e
       -0.31426775 -0.06231634 0.074170694 0.28950095
0002c0 af df ac bd 36 72 94 be 20 03 0f be 23 4d 11 be
       -0.08441102 -0.28993386 -0.13966036 -0.14189582
0002d0 dd 6a 04 3e 38 7c 3d bd 20 5b b3 3c 76 78 9a be
       0.1293139 -0.046261042 0.021894038 -0.3017003
0002e0 f9 3b 9c 3e d7 c6 b1 bd f5 ae 53 3d 6d ea 0c 3e
       0.30514506 -0.08680504 0.051680524 0.13761301
0002f0 16 f7 4b be 28 47 a3 3e 62 3b 11 3f 1a d2 98 3e
       -0.19918475 0.31890225 0.56731236 0.29847795
000300 6f df 2e 3e 89 56 b3 bd 61 1e 3f 3d a6 11 18 3e
       0.1707742 -0.0875674 0.04665983 0.14850482
000310 a1 cb 6d bd 91 c4 9d 3e af e9 1e 3e 7a 9e a3 3e
       -0.058055524 0.3081403 0.1551883 0.31956846
000320 ff 03 55 bd 42 81 b8 3e 50 f6 1a be cf 6f 21 bd
       -0.052005764 0.36036116 -0.15133023 -0.03941327
000330 55 8d 9e be a2 50 55 bd 68 e1 64 be f2 50 1c 3e
       -0.30967203 -0.05207885 -0.2235161 0.15265253
000340 71 55 9b be 48 b7 3b be 1a 2d a2 3e 9f 06 8b 3e
       -0.30338624 -0.18331635 0.31675035 0.2715349
000350 4c 15 a4 be e3 52 c6 3c cf 14 6e be fa 7a 0d be
       -0.32047498 0.024209445 -0.23250125 -0.13816443
000360 1c 32 da 3d e3 68 41 bd f8 ae 35 bf dd b2 89 be
       0.10654089 -0.04721917 -0.70970106 -0.26894274
000370 6f 8f 8a bd c6 22 b0 3e b2 25 58 3d b1 5a 1f be
       -0.06765639 0.3440153 0.052770324 -0.1556194
000380 40 90 d4 3d 8d ce c1 bd 3f 0f bd 3c 8d 98 84 3b
       0.10379076 -0.094632246 0.023078559 0.004046506
000390 24 e4 0d bf f0 3a 9e be ce 8d 01 be 85 14 95 3e
       -0.5542624 -0.3090434 -0.1265175 0.29117218
0003a0 3a 83 af be 66 32 0d be f4 04 26 be 2a 05 d4 3e
       -0.34279805 -0.13788757 -0.16212827 0.4141019
0003b0 e4 ec b2 3e f0 bf c0 bd 78 22 88 3e 88 cd d6 be
       0.34946358 -0.09411609 0.26588798 -0.41953683
0003c0 82 b8 54 3d 2d 8b 9a bb be 97 a1 bd 04 af e7 3b
       0.051933773 -0.004716298 -0.07890271 0.007070424
0003d0 91 ac ef bd 20 af af be 65 8b 2f be 77 07 8f 3e
       -0.11702836 -0.34313297 -0.17143019 0.27935383
0003e0 c8 ac c9 3d 72 2e c4 3d 06 91 33 3d 87 26 19 3e
       0.098474085 0.09579171 0.043839477 0.14956103
0003f0 32 8e 00 be 13 90 38 bd b1 9b 5c bd 22 6b 26 3f
       -0.12554243 -0.045059275 -0.053859416 0.6500722

l2.weight f4 [256, 256]
000000 21 5e bd 3e 00 07 5f bd 08 8a 1c 3e 70 a7 12 be
       0.36985877 -0.054450035 0.1528703 -0.14321685
000010 2f a1 01 bf 7d 25 d8 bd 03 c0 85 3d ad d3 b5 be
       -0.5063657 -0.10554025 0.06530764 -0.35513058
000020 24 58 80 bd 4c b3 fb bd c3 fb e6 be bb c2 35 3e
       -0.062668115 -0.122900575 -0.45113954 0.17750065
000030 30 9b 27 3e 5a cd 1f be b4 02 30 be da f3 ae be
       0.16367793 -0.15605679 -0.17188531 -0.3417042
000040 1a 9b ea bd c4 7c 03 be 74 cd 7a bc 50 3a 66 3d
       -0.114553645 -0.12840563 -0.015307773 0.056207955
000050 2a 83 e5 3d aa 4d c4 bd 33 b1 38 be 8a dc 0c be
       0.11206658 -0.09585126 -0.18036346 -0.13756004
000060 c3 a4 29 be 2b 03 ba 3c d6 51 a6 3e 22 54 39 bd
       -0.16566758 0.022706589 0.3248431 -0.04524625
000070 69 81 3c be 44 e5 fc bd 9c a6 b7 3d 97 b7 8e 3d
       -0.18408741 -0.123484164 0.08967325 0.06968611
000080 c0 ff e0 bc 43 56 af 3d 46 bf 0e 3d 18 5c d8 3d
       -0.027465701 0.08561375 0.03485038 0.105644405
000090 9a 5c 8a 3c 36 e3 92 bc 6c 28 87 3e 38 ee 2b 3c
       0.016889859 -0.017930608 0.26398027 0.0104938075
0000a0 7d f5 05 be f2 9f c9 bd da 8f 87 bd 68 8f a0 be
       -0.13081928 -0.0984496 -0.066192344 -0.3135941
0000b0 1a 37 8a 3d 37 e9 5a 3e f5 84 9e bd cb 72 1a be
       0.06748791 0.21378027 -0.07740203 -0.15082853
0000c0 cc 0e 3d 3e 8b 09 31 3e 6e b8 5c 3e 8d e1 c6 3d
       0.18462676 0.17288797 0.2155473 0.09710989
0000d0 e5 89 ae 3d e8 a0 32 be 66 85 40 bd bf cf 1a 3d
       0.08522395 -0.17444193 -0.04700222 0.03779578
0000e0 5c d9 e1 bd 11 64 5e 3d f1 d1 6e be f5 70 df 3d
       -0.11027786 0.05429465 -0.23322274 0.10910217
0000f0 23 73 5d bd 24 be 5b bd 83 cb ec 3d 2c 05 99 3e
       -0.05406488 -0.05364813 0.11562254 0.29886758
000100 c4 dc 2d 3e d1 6f 2e 3e f8 5d 90 3d 2f 2a 1b be
       0.16978747 0.17034842 0.07049173 -0.1515281
000110 cc a7 1c be ef f5 aa 3c eb 3e 2d 3e 86 f7 b4 3d
       -0.15298384 0.020869223 0.16918533 0.08836274
000120 cf f1 e4 3d d5 67 59 3e 20 f2 11 3c 72 58 07 3c
       0.11178934 0.21231015 0.008907825 0.008260833
000130 c3 c5 cb 3d 19 0c 47 3d 0c 14 ee bc 3d bc 76 bd
       0.099498294 0.04859552 -0.029062293 -0.06023811
000140 98 06 81 3e 45 34 7b 3e da d3 b8 3e 6f 2d 9a be
       0.25200343 0.24531658 0.3609913 -0.30112788
000150 30 41 42 3e 84 b7 ef 3d ce 48 04 bc f0 54 af bd
       0.1897018 0.11704925 -0.008073999 -0.085611224
000160 d5 eb 47 3e 4a 29 fd be 76 38 3e 3c 61 c3 c7 3d
       0.19523557 -0.49445564 0.011610141 0.097540624
000170 f5 81 01 be 00 1d 06 be 8a 27 78 3d f6 52 19 3b
       -0.12647231 -0.13097 0.060584582 0.0023395396
000180 0d 67 11 bd 62 cc cd bc 26 fd 86 3d e9 51 1e 3e
       -0.035498668 -0.025121871 0.06591253 0.15460934
000190 b0 ae 84 bd 1f e4 2e 3e 94 58 1f be ab c0 24 be
       -0.064786315 0.17079209 -0.15561134 -0.16089122
0001a0 bd 28 09 be ad d6 94 3d 0b 5a 29 bd 46 0b 52 3d
       -0.13394447 0.07267509 -0.041345637 0.051280282
0001b0 2f 49 2d be d9 59 16 3c 55 d2 83 be 07 6c 25 3d
       -0.16922449 0.009176695 -0.25746408 0.040386226
0001c0 b4 cb b9 3e d1 7e d2 bb 92 1d 18 3e af 6d 8e bd
       0.36288226 -0.006423809 0.1485503 -0.06954514
0001d0 72 0c 7d be e8 f2 e1 3b 26 89 32 3e d4 59 dd bd
       -0.24711779 0.0068954118 0.1743513 -0.10808149
0001e0 82 4c 3e 3d 1a 81 10 3c 5a 75 c4 bc eb 59 9a b9
       0.046459682 0.008819843 -0.023981739 -0.00029440163
0001f0 64 23 c3 3c f6 ee c6 3d 89 70 9d 3d 74 16 13 be
       0.023820587 0.09713547 0.0768748 -0.14364034
000200 c5 63 53 3e e7 44 6d bd e6 34 b7 bd 01 1d 7a 3e
       0.20643528 -0.05792704 -0.089456365 0.24425127
000210 3b c0 dc 3d f6 be 6e 3d f5 69 c4 bd a9 b3 a8 3d
       0.107788526 0.058287583 -0.09590522 0.082373925
000220 b6 a8 79 bd 58 05 d3 3d 34 d3 f8 39 0f 37 72 3e
       -0.06095191 0.103037536 0.00047459605 0.23653816
000230 b2 73 52 3e 81 07 62 3e 91 39 7d be c6 93 11 3d
       0.20551947 0.22073175 -0.24728991 0.03554132
000240 50 45 8a 3e 5f 32 2e 3e df 2f 4d 3e 59 de 8a be
       0.27006006 0.17011403 0.20037793 -0.27122763
000250 83 db 14 bd 47 a8 30 bd 36 ba ae 3d ec a5 8f 3d
       -0.036342155 -0.04312923 0.08531611 0.07014069
000260 9d 96 9e 3c 61 eb dc 3e 85 63 bc be dc a9 0a bd
       0.019358927 0.4314833 -0.36794677 -0.033853397
000270 e9 1e ae be be 8d db bd cd e4 a8 3d d5 22 e4 bd
       -0.34007958 -0.107203946 0.08246765 -0.11139456
000280 27 98 a8 bd 36 bc 87 3d 71 24 db bd 8e 06 f6 bd
       -0.08232146 0.06627695 -0.1070031 -0.12012969
000290 59 ac 2c bd 61 a1 40 bd 84 18 2d 3e 74 dd b8 3d
       -0.04215655 -0.047028903 0.16903883 0.09026614
0002a0 d2 4b 53 3d fa af a2 bd 74 73 53 bd 2e a9 d3 bd
       0.05158598 -0.07943721 -0.051623777 -0.10335003
0002b0 ab e4 59 be 12 2f 0e 3e 67 82 64 3d 58 15 dd 3d
       -0.21278636 0.13885143 0.055788424 0.107950866
0002c0 a3 a0 7c be 78 a6 11 3f e3 fc a2 be c7 43 08 bf
       -0.24670653 0.56894636 -0.31833562 -0.5322842
0002d0 2f 82 aa 3d f9 93 5a 3d 1d 37 2d 3d d0 15 7a 3d
       0.08325612 0.053363774 0.04228889 0.06105596
0002e0 d9 19 02 3d fd ca bb bd 3d d7 2a be 10 b4 8d 3d
       0.03176293 -0.09169576 -0.1668367 0.0691911
0002f0 b2 8c 45 3c be 24 ce bd 37 d5 ba 3c 6b b0 70 bd
       0.01205747 -0.10065602 0.022806747 -0.058761995
000300 ae 91 23 3c 16 f6 0c bd 2f 2b 45 be 44 87 e7 bd
       0.009983463 -0.034414373 -0.19254754 -0.11305097
000310 3d 4a 85 3e ce ac fa 3d da ee ec 3d 2f b5 a4 3e
       0.26033202 0.12239991 0.11568995 0.32169482
000320 54 9a 6e bd b9 d3 31 be 55 a7 05 be 26 3e b8 be
       -0.058252648 -0.17365922 -0.13052113 -0.35984915
000330 7c c6 ae 3e 20 06 97 bb 57 f8 71 3d b5 3b 7e bd
       0.34135807 -0.0046088845 0.059074726 -0.06206866
000340 92 9e 1d 3d 53 04 4b 3e 86 4d 70 3e 1d 7f 0c 3e
       0.038481303 0.19825868 0.23467073 0.13720365
000350 fb bb 5a 3d 25 12 91 bd 4d 6c db 3c 91 5d 4f 3e
       0.05340193 -0.07083539 0.02678504 0.20250537
000360 ce 07 61 be 1c 63 9c 3d 03 78 21 bd ba 27 cf bd
       -0.21975634 0.07636091 -0.039421093 -0.10114999
000370 8a ad 2a be 87 ca 81 3e a2 f5 34 be e2 81 09 bf
       -0.16667762 0.2534983 -0.17671826 -0.5371381
000380 f7 fe 23 3e 0c 3b af bc 11 13 2a bf 81 2b 8e be
       0.1601523 -0.02139046 -0.66435343 -0.27767566
000390 fe 24 90 3d 63 9b ee 3d 1b 68 d6 3d 08 63 8b bd
       0.07038306 0.116507314 0.10469075 -0.06805998
0003a0 c1 95 5f be 60 35 dd bb a6 4a b2 3d 36 03 5d 3d
       -0.2183447 -0.0067507476 0.08705644 0.05395814
0003b0 1b 77 b6 3e 55 a6 3b 3e 01 4d 07 3e b4 b8 83 be
       0.35637745 0.1832517 0.13212968 -0.25726855
0003c0 f4 e7 2c 3e dd 0f 36 3e 7b 05 8c bd f0 69 49 be
       0.16885358 0.17779489 -0.06836983 -0.19669318
0003d0 0d 40 2b bc 46 ea 62 be a1 1b e0 bd 9e 60 80 3c
       -0.010452283 -0.2215968 -0.1094277 0.01567107
0003e0 49 46 e8 3c fc 22 89 3d 2b 33 3d be a5 9e 68 3e
       0.028353827 0.06696126 -0.1847655 0.22716768
0003f0 5d a7 91 3e 89 27 7b 3d 3d 86 29 3e 37 f1 ed bd
       0.28448 0.061317 0.16555114 -0.11618274

l2.bias f4 [256]
000000 78 fd 44 3d 25 d8 97 bd 2a 6a 45 3e e8 d7 af 3c
       0.04809329 -0.07414273 0.1927878 0.021465257
000010 21 f8 de bd 90 0d ad 3c b6 63 37 3d e6 40 ea 3c
       -0.108871706 0.021124631 0.044772826 0.0285954
000020 b8 f9 a4 bc 9c e1 06 3e c0 63 07 3d 24 5c 1b be
       -0.020138606 0.13172 0.033054113 -0.15171868
000030 67 76 ed 3d c4 67 87 be 10 e6 7b be f0 0d 7b be
       0.11594849 -0.26446354 -0.2459948 -0.24517035
000040 e4 00 97 3a 13 08 4b be b9 e2 9a bd 4f e1 e1 3c
       0.0011520651 -0.19827299 -0.07562775 0.027573256
000050 e3 b8 62 bd ad 1c db bc cd c0 ec bd 35 69 41 3e
       -0.055352103 -0.026747072 -0.11560211 0.1888779
000060 b9 57 cd 3d 5e 4c 83 3e cf f0 4f 3e 48 af 2c bc
       0.100264974 0.256442 0.20306705 -0.010539837
000070 3e fd 9f bd 2e e6 f2 3d a7 e7 06 be 67 56 84 bd
       -0.07811974 0.118603095 -0.13174306 -0.064617924
000080 38 06 f1 bd 3f 26 09 3b ee 38 96 be 26 14 9d 3d
       -0.11768764 0.0020927337 -0.2934031 0.07669859
000090 15 29 8c bc fb f2 20 be 02 ad e9 bd 53 09 b3 bc
       -0.017109433 -0.1571769 -0.11409952 -0.021855032
0000a0 d0 9d 6d bd 1a 21 e3 3d b4 a4 00 bc 8c c7 6b 3e
       -0.05801183 0.11090298 -0.007851768 0.2302534
0000b0 b7 69 09 3e eb d6 bf bd 7a 6f 8a 3d b1 62 02 3c
       0.13419233 -0.09367164 0.06759544 0.0079581
0000c0 48 18 c8 3d e8 a2 53 bd 4d df 80 bc 7f a9 fc 3d
       0.09770256 -0.05166903 -0.015731478 0.12337016
0000d0 4f 4a 0f 3c 7d 7f 95 3d e3 31 22 3e 6a fb cd 3c
       0.008745744 0.07299707 0.15839343 0.025144298
0000e0 80 8f 66 3d 52 de 0a bd 0e ab 19 bd 92 94 58 3d
       0.056289196 -0.033903427 -0.037516646 0.052876063
0000f0 f6 b4 e3 3d d8 a1 50 bd ca 37 28 be ef 4f 2c 3e
       0.111185 -0.050935596 -0.16427532 0.16827367
000100 a8 7a d5 bc 38 19 7d 3d 1a e6 e2 bd 90 33 6d be
       -0.026059464 0.06179163 -0.11079045 -0.23164201
000110 eb 71 03 bd ea 78 dd 3d 3c c2 0f be 0a ca 99 3e
       -0.032091063 0.10814078 -0.14038938 0.30036956
000120 2d 18 ce ba a7 cd 0a 3e d6 eb ea bb 5e cb c3 bd
       -0.0015723758 0.13555013 -0.007169227 -0.095602736
000130 f5 75 d9 bd 86 58 23 bd 33 c4 26 bd ae ee 99 3c
       -0.10618202 -0.039879344 -0.040714454 0.01879057
000140 d8 f9 00 bd 7e 4e 48 be ee 5f d5 bb 08 76 8d be
       -0.03148827 -0.19561192 -0.00651168 -0.27629113
000150 eb a1 33 bd f5 83 cc 3d a9 44 42 bd d0 c1 8a 3c
       -0.04385559 0.09986106 -0.04742876 0.01693812
000160 cc 6d 11 be 46 a8 5a 3d 62 e1 88 bd 1e 68 18 3d
       -0.1420204 0.053383134 -0.06683613 0.03720867
000170 47 e8 15 be 44 b6 1d 3d 5d c6 91 bc 6c 59 07 3e
       -0.14639388 0.0385039 -0.017794782 0.13217705
000180 d5 9d d5 bd 65 06 25 3e b1 a5 9b bd 87 ee 82 3d
       -0.10430495 0.1611572 -0.075999625 0.06393152
000190 0b eb 86 bc 26 90 b4 bd d1 3d 91 3d 58 1c 96 bd
       -0.0164695 -0.08816557 0.07091869 -0.07329625
0001a0 d3 ca 0e be a4 ac 02 be 06 61 3a bd 2b 9d 96 bd
       -0.13944559 -0.1276117 -0.045502685 -0.07354196
0001b0 07 17 1a 3d 22 64 f0 bd 33 14 1a 3e 99 a8 46 3e
       0.037619617 -0.11737849 0.15046768 0.19400252
0001c0 6e c7 9e bd 22 94 94 3e ef 9d 14 be e9 86 26 3e
       -0.07752882 0.29019266 -0.14513372 0.16262402
0001d0 1d 99 e6 3c 58 89 5a 3d bd 4b e3 bd eb 19 19 3e
       0.028149182 0.053353637 -0.1109843 0.14951293
0001e0 23 c0 a3 3d e7 c5 d4 3d 23 97 6a 3d 32 93 ba bd
       0.079956315 0.103893094 0.05727304 -0.091101065
0001f0 e7 11 1b 39 6f c1 6c 3c 25 8e 03 bd d1 c8 4a bc
       0.00014788621 0.014450415 -0.03211798 -0.01237698
000200 95 6d f4 3d 31 d7 96 3d 11 bb 75 bd 48 4e 9d 3d
       0.119349636 0.07365263 -0.059992854 0.076809466
000210 64 fb 5e be 5f df d7 3b 62 bd 0c be b7 c2 91 3d
       -0.21775585 0.006587907 -0.13744119 0.07117217
000220 31 8d e4 3c c7 f6 ca bd 10 78 16 bd 76 47 95 bd
       0.027899357 -0.0991035 -0.036735594 -0.07289021
000230 2d 4d 02 be 1b 48 6e 3e 08 6e 28 be 56 93 f3 bb
       -0.12724753 0.23269694 -0.16448224 -0.0074333353
000240 80 37 fd 3d 44 9d d7 3c c7 49 a0 bd 0c a7 9f 3d
       0.123641014 0.026320107 -0.07826572 0.077955335
000250 41 6f d6 3d 66 7a 83 3d db 49 b4 bd 81 71 0c be
       0.10470439 0.0641983 -0.08803149 -0.13715173
000260 e2 e0 26 be a0 92 02 3d 2b 06 81 bd 6d fe 1f 3d
       -0.16296723 0.031878114 -0.063000046 0.039061
000270 f7 e2 f9 3c d1 8d 3b 3c cd 02 0b 3e 86 1f 1d be
       0.030503733 0.011447386 0.13575287 -0.15344056
000280 6d ff 40 3e b2 ad 0b bc 5e 84 97 bd e1 2a a0 3c
       0.18847437 -0.008525299 -0.07398294 0.019551696
000290 f7 5b e1 bd cb 11 06 3e 25 93 d2 3a 27 23 dc bd
       -0.11003869 0.13092725 0.0016065581 -0.10748892
0002a0 6b 46 81 bd 83 9b 3e bb b6 42 4a be 84 92 1c be
       -0.06312259 -0.0029084391 -0.1975201 -0.15290266
0002b0 0d c4 e9 bd c8 e3 a4 3d f9 26 a8 bd 52 a2 11 3d
       -0.11414347 0.08051258 -0.082105584 0.03555519
0002c0 1e ba d2 3d 83 63 0a 3c d5 96 d3 bb ff d6 ea 3d
       0.10289405 0.008446577 -0.0064571896 0.114667885
0002d0 14 57 ea bb 82 a8 86 3c 76 13 03 3e 81 fa 43 3e
       -0.007151494 0.016437773 0.12800393 0.19138528
0002e0 58 f5 ae 3d 64 03 67 bd f1 3f 28 3e 45 be ff 3d
       0.08542889 -0.056399718 0.16430642 0.12487463
0002f0 99 18 2d bd ea 30 26 3e 06 34 80 3d fa 62 8f 3c
       -0.042259786 0.16229597 0.06259923 0.01750325
000300 73 a5 10 3e e3 c5 3a bc d5 69 de 3d 2c e7 80 3d
       0.14125614 -0.011399719 0.108600296 0.062940925
000310 4c bc 7e 3c be 28 52 3c 25 f6 59 3d 82 70 79 3d
       0.015547823 0.0128270965 0.053213257 0.06089831
000320 c9 cd 43 3e ff cb 06 3e 13 e0 90 3d 75 70 83 be
       0.1912147 0.13163756 0.07073989 -0.25671735
000330 3f 62 f2 bd eb 3c 1f 3d 2e 7e 1b bd 5c 4b 83 bc
       -0.11835145 0.038876455 -0.03796213 -0.016027145
000340 89 9d f4 bd 47 43 9b bc 63 e0 20 3c da 0b c0 bd
       -0.1194411 -0.018952979 0.009819123 -0.093772605
000350 96 e1 5c 3a d5 09 ef 3c 01 81 7c 3c e1 8c 13 be
       0.0008425949 0.029179493 0.015411616 -0.1440921
000360 05 ea c2 3d c7 fe 44 3d 0a fc 41 3c 5c 92 e5 3b
       0.09517292 0.048094537 0.011839876 0.007005973
000370 b5 94 49 3d ed dc 6f bd 3e df 83 bd e2 be e1 bd
       0.049214084 -0.0585603 -0.064390644 -0.11022736
000380 20 61 0e 3e bb 9c 8c b9 10 6f 24 bd ff c9 6b bc
       0.13904238 -0.00026819654 -0.04014498 -0.014391421
000390 db c6 92 bd 88 1c 8b bd 01 3d 1a 3e 5d fd cd bd
       -0.07166835 -0.06792551 0.15062334 -0.10058091
0003a0 8e 75 db bc f6 3d 87 bd 93 f7 54 3e ff 06 56 bd
       -0.026789453 -0.06603615 0.20797567 -0.052252766
0003b0 5c 9f 08 be 4d d5 c2 3c 2d d3 ef 3d 1c 7f 4f 3d
       -0.13342041 0.02378335 0.117102005 0.05065833
0003c0 bc 6e b3 bb b1 d9 0e be 6b 2f be 3c 06 cd 1a 3e
       -0.005475847 -0.1395023 0.02321597 0.15117273
0003d0 3e a6 e7 3c 95 3f d1 bd 27 21 bf 3d 33 ad d7 3c
       0.028277513 -0.102172054 0.09332495 0.026327705
0003e0 e2 95 3b bd 3f a4 c3 3d 35 fd a4 3d 8d 8c 3a 3c
       -0.045797236 0.09552812 0.08056108 0.011386049
0003f0 4c 55 a9 3d c0 bc 1b bd 34 79 8e 3d c1 45 85 3d
       0.08268222 -0.038021803 0.069567114 0.06507445

l3.weight f4 [4, 256]
000000 e2 a3 b0 bd 08 48 3b be d2 a4 c5 be 0d ec 77 be
       -0.08625008 -0.18289196 -0.3860231 -0.2421114
000010 e0 a3 4c 3e d9 92 8f be 50 4d 01 3f 93 3a 51 be
       0.19984388 -0.28041723 0.50508595 -0.204325
000020 66 f9 f7 bd 79 29 58 be d4 b0 13 3e e8 ee 13 3e
       -0.12108116 -0.2110957 0.14422923 0.14446604
000030 e8 72 3a 3e 4d d5 74 3e 16 f9 d2 3e b7 ce d8 3e
       0.18207896 0.23909493 0.41205662 0.4234521
000040 9d 26 f6 be 26 06 53 3e e1 79 92 3d 88 cf fb 3d
       -0.48076335 0.20607814 0.07152153 0.12295443
000050 51 e4 9b 3e f1 a9 15 3e 69 07 c8 be c2 2a 8b 3e
       0.3044763 0.14615609 -0.39068154 0.2718106
000060 48 8c ae be 0b f5 d2 be e5 1b 03 bf b6 0c c6 be
       -0.340914 -0.41202578 -0.5121444 -0.38681573
000070 9e df f6 bd a5 61 2c 3e 5b 41 03 3f b0 bb 3a 3e
       -0.1205437 0.16834123 0.512716 0.1823566
000080 c4 e3 3d 3e 24 29 63 be ae 87 dd bc ca 2f 18 3d
       0.18543917 -0.22183663 -0.027042236 0.03715495
000090 5f d0 1c bf 61 f9 2c 3e 01 9d 01 3e 81 b0 8b 3d
       -0.6125545 0.16892006 0.12657548 0.06820775
0000a0 4f 48 46 be e4 78 06 3e 06 21 86 bc 19 e0 bf 3d
       -0.19363521 0.13132054 -0.016373169 0.09368915
0000b0 a5 2a 8d 3e ab d7 cd be 84 a1 0a bf 16 39 25 be
       0.27571598 -0.40203604 -0.54152703 -0.16135058
0000c0 5f 15 62 bd db 2c 13 be 39 67 d0 3e 72 8a ab bd
       -0.055196162 -0.1437258 0.40703753 -0.08376016
0000d0 71 5f b9 3c c8 91 e7 be 28 e4 e2 be cb 3f 6e 3e
       0.022628518 -0.4522841 -0.44314694 0.23266523
0000e0 69 34 c5 bd bb 5d 1e bd 5c b4 9d be b7 2a 64 be
       -0.09629137 -0.038663607 -0.30801666 -0.2228192
0000f0 67 e3 57 be 66 67 a7 be 41 5c 31 3e e8 66 ab be
       -0.21082841 -0.32696074 0.17320348 -0.3347695
000100 fe a8 b7 3d ce 60 13 bf ac 4e 40 3e 7a 67 ea be
       0.089677796 -0.5756959 0.18780011 -0.4578207
000110 19 10 9b 3e 07 fc d5 3e 00 67 d5 be 94 b5 59 be
       0.3028572 0.41793844 -0.41680145 -0.21260673
000120 f1 3a 93 be 3e 48 de be 13 88 17 3f e8 69 92 3e
       -0.28755906 -0.4341449 0.5919201 0.28596425
000130 1f a4 11 3e a5 69 e3 3e 25 15 be bd 8f 94 44 3e
       0.14222763 0.44416538 -0.09281377 0.19197296
000140 3a c1 19 be 97 eb 1d 3d 28 29 b0 3c be 85 8b 3e
       -0.15015116 0.038554754 0.021504 0.27250475
000150 c0 fc ff be 48 9c 96 3e 1e 46 5b 3e 01 d1 95 3e
       -0.4999752 0.29416108 0.21413466 0.2926102
000160 92 bb d8 3e 58 9b f3 bd a5 e9 01 be 78 fb 81 3c
       0.42330605 -0.11894864 -0.12686785 0.01586698
000170 89 53 76 3d 17 05 99 bc 8b 2d 4a be 3a d9 5b 3e
       0.06013826 -0.018679185 -0.19743936 0.21469584
000180 66 fe a3 3e a0 51 19 bd 71 2f 7f be 25 1e 6c bd
       0.32030028 -0.03743136 -0.24920441 -0.057645936
000190 52 02 08 3f ae 8d e5 3e e4 34 44 bf 9f 36 32 bd
       0.5312854 0.44834656 -0.76643205 -0.043509122
0001a0 70 08 87 be a2 d2 5f be 6b b6 a7 be bd 35 56 be
       -0.26373625 -0.21857694 -0.3275636 -0.20918937
0001b0 fd f3 a3 3e 79 7d 13 3f 89 66 84 bd 3f f6 4f bd
       0.32022086 0.5761333 -0.064648695 -0.050771948
0001c0 20 ae 3c 3d 1b cb 9c 3c 9d 05 62 be 2d 99 79 be
       0.046064496 0.019139817 -0.22072454 -0.24374838
0001d0 af 43 82 be b5 f4 8e bd 1a 53 93 3e 22 f6 c5 3e
       -0.25442263 -0.06980268 0.2877434 0.38664347
0001e0 f6 e6 12 3f 35 35 2e bd 4b de bb be 37 09 7a 3e
       0.5738367 -0.04253121 -0.36693034 0.24417578
0001f0 0e ac d2 be ec 20 59 3e 86 45 82 3d 2d c3 36 3e
       -0.41146892 0.21203965 0.06360917 0.17847891
000200 53 d2 f1 3d f0 56 29 bf be 65 14 bd 67 e8 99 be
       0.11807694 -0.6614828 -0.03622984 -0.3006012
000210 24 52 d5 be 7a cd d9 3d a0 c2 20 be 5f 9e 59 3e
       -0.4166423 0.10634895 -0.15699244 0.2125182
000220 c3 55 9e 3d 59 0f 78 be 71 50 a0 3e c0 56 4b bb
       0.077312015 -0.24224605 0.31311372 -0.0031027049
000230 33 90 a3 bd 1a 37 15 3d 35 7c 11 3f d2 d6 80 3e
       -0.07986488 0.036429502 0.5683015 0.25163895
000240 56 61 58 3e 46 05 e9 bd d9 c3 40 3e 67 13 1c bf
       0.2113088 -0.11377959 0.1882471 -0.60967106
000250 02 f3 e9 be 8d 32 82 be 73 83 0a 3f 7e 3f fa be
       -0.45693213 -0.25429192 0.54106826 -0.48876566
000260 25 8f 83 3e 59 61 bd 3e fe 3d 99 be bb a1 d8 3d
       0.25695148 0.36988333 -0.2993011 0.10577723
000270 21 31 2f 3e 1f 79 92 3d 58 46 d4 3d a4 34 29 be
       0.17108585 0.07152008 0.103649795 -0.16523987
000280 e1 9a 94 be 17 a8 99 be 4b 6c 3a be 89 6d 99 3e
       -0.29024413 -0.30011055 -0.18205373 0.2996638
000290 74 04 83 3e 31 25 55 3d ee 81 84 be 42 35 72 be
       0.25589335 0.05203742 -0.25880378 -0.23653129
0002a0 3b 74 8b bd 33 4d 1a 3e 49 48 ac be ae ca c0 3e
       -0.068092786 0.15068512 -0.336489 0.37654632
0002b0 ea b7 4a bf 90 63 09 3e 9e 31 a1 3e 64 91 2d 3e
       -0.7918688 0.13416886 0.31483167 0.16949993
0002c0 6e 56 d2 3e 88 12 b7 3e b1 19 85 3c 9f a5 19 be
       0.41081566 0.35756326 0.016247602 -0.15004586
0002d0 34 ea e7 3e e3 aa 28 3f 21 01 59 3e 9d 04 9b 3e
       0.4529587 0.6588575 0.21191837 0.30276957
0002e0 4e 8f 38 3e 93 cc c6 be b9 46 45 3d e2 35 b0 be
       0.18023416 -0.38827953 0.04816315 -0.3441611
0002f0 62 be 2b 3e b6 d0 91 3a 95 6b 20 be da 9c c7 bd
       0.16771844 0.0011124823 -0.1566604 -0.09746714
000300 2a 0b 73 be e0 d7 9e bd bc 30 4d 3e 16 4a 02 3f
       -0.23734728 -0.07756019 0.20038122 0.50894296
000310 44 67 78 3e 9c 73 55 3e 54 3f c4 3e 24 b0 99 3b
       0.24258143 0.20844883 0.38329566 0.004690187
000320 00 d3 ca 3d 01 b9 d6 be ec 9c 28 bd 21 be 91 be
       0.09903526 -0.41938022 -0.041165277 -0.2846537
000330 9f c9 2a be a8 b6 88 be 0d e3 87 3e 4e a6 80 3e
       -0.16678475 -0.26701856 0.26540413 0.2512688
000340 72 50 b9 3e 74 c9 12 3e 6c 56 8f be 51 31 94 3e
       0.36194187 0.14334661 -0.27995622 0.28943875
000350 41 ae 2a bf 2f a3 8c be bb 1b ea 3e 5b be 02 be
       -0.6667214 -0.2746825 0.45724282 -0.12767927
000360 7b 86 f0 3e 4f f1 51 bc 88 2d 07 bf 29 86 1f 3d
       0.469776 -0.01281388 -0.5280385 0.038946304
000370 47 bd 3a be f3 bd 35 bd 33 24 ff bc fb c3 db 3d
       -0.18236266 -0.044370603 -0.03114519 0.1073074
000380 19 cc 9a 3e d4 77 aa 3e 5e b4 24 bd 3e ee ba be
       0.3023384 0.33294547 -0.040211074 -0.3650989
000390 c5 bb b5 bd 82 8f 0a be 56 16 ee bc 8c 1e bd be
       -0.08873705 -0.13531306 -0.029063385 -0.36937368
0003a0 5d e2 76 3e 11 65 fe bd b7 19 51 be 6f 41 7b be
       0.24109788 -0.12421621 -0.20419966 -0.2453668
0003b0 a2 81 01 3e 2c e1 78 be 60 6f c9 3e d9 5d 18 be
       0.12647107 -0.24304646 0.39342785 -0.1487955
0003c0 0e 16 67 be b1 fe e2 bd 28 ac b4 3e b9 8a ae be
       -0.22567007 -0.11083735 0.35287595 -0.34090212
0003d0 16 2d 13 be 11 b3 3e 3e 4b bc 94 be ff fb 5c be
       -0.14372668 0.18622996 -0.29049906 -0.21580504
0003e0 72 7f a6 3e d9 ac aa 3e 5a 78 04 3e 54 e5 7e bc
       0.32519108 0.33334997 0.12936535 -0.015557606
0003f0 a4 d9 0f 3c fd 2f c1 3e 05 e5 00 3f d2 57 e7 3e
       0.008779917 0.37731925 0.50349456 0.4518419

l3.bias f4 [4]
000000 e5 bf 02 be 60 5c 79 3d 6d 01 f8 bc bd 05 f8 3d
       -0.12768514 0.06087911 -0.030274117 0.121104695
