HardcoreVersion_7500_V4/actor/ppo_actor1600.pth (torch, 295492 bytes, 6 tensors)

l1.weight f4 [256, 24]
0	0x3f498b29	0.78727967
1	0x3fab0191	1.3359853
2	0xbf91b674	-1.1383805
3	0x3f5ccd88	0.86251116
4	0xbe276ac9	-0.16349329
5	0x3dec7524	0.1154578
6	0x3b6eabc0	0.003641829
7	0x3e6c9aac	0.23105878
8	0x3e68c770	0.2273233
9	0xbdb74fa4	-0.08950737
10	0x3e2db5bf	0.16963862
11	0x3e364e3f	0.17803286
12	0x3de29e1c	0.11065313
13	0x3d936e08	0.07198721
14	0x3e0cd01d	0.13751264
15	0x3d298b7a	0.04139278
16	0x3e6802d5	0.2265733
17	0x3d494817	0.049141016
18	0xbdde6a97	-0.10860174
19	0x3d0c77b5	0.03429385
20	0xbdd6cede	-0.104886755
21	0xbc06ef2c	-0.008235734
22	0xbdb928d3	-0.0904099
23	0x3dc6511f	0.09683441
24	0xbf4159a5	-0.7552741
25	0x3e415556	0.1888021
26	0x3db8a991	0.09016717
27	0xbf329ca2	-0.6977025
28	0x3e47a831	0.19497754
29	0xbed31a6e	-0.41231102
30	0x3f0cd4cb	0.55012196
31	0xbe069a85	-0.13144882
32	0x3dc365bc	0.09540889
33	0xbdf2b8c8	-0.118516505
34	0xbe6421c7	-0.2227851
35	0x3e3961c6	0.18103704
36	0xbd9d6928	-0.076860726
37	0x3e1b80df	0.15185879
38	0xbd544915	-0.05182751
39	0xbe26a9b3	-0.16275673
40	0xbd4c1e8c	-0.04983382
41	0xbe13a3c6	-0.14417943
42	0xbb776f0d	-0.00377554
43	0x3dc371a4	0.095431596
44	0x3ce74848	0.028232709
45	0xbe45105e	-0.19244525
46	0x3bf2260c	0.0073897894
47	0xbc279705	-0.010228877
48	0x3f1c5177	0.61061805
49	0xbdceea6f	-0.101033084
50	0xbf00abe2	-0.5026227
51	0xbdab08b1	-0.08351267
52	0xbeb5dec0	-0.35521507
53	0x3e9c875c	0.3057202
54	0x3e5eebe7	0.21769677
55	0x3dbfa9d4	0.09358564
56	0x3d96e433	0.07367744
57	0x3d0664da	0.032811023
58	0x3e680a10	0.22660089
59	0xbe25c86b	-0.16189735
60	0x3d63074a	0.055426873
61	0xbe377c3d	-0.17918487
62	0x3dd64a63	0.10463407
63	0x3b75e996	0.0037523261
64	0x3e0beb9f	0.13664101
65	0xbbdda00a	-0.006763463
66	0x3e40a5ec	0.18813294
67	0xbddb353b	-0.10703512
68	0xbdae3ba7	-0.085074715
69	0xbd904de3	-0.07046106
70	0x3e647f2b	0.22314136
71	0x3d2bb8f5	0.041924436
72	0x3ee8590a	0.4538043
73	0xbecc47cd	-0.3989853
74	0xbf172e25	-0.59054786
75	0xbe1f484f	-0.15554927
76	0xbea524da	-0.32254678
77	0x3e340189	0.1757871
78	0x3e38191b	0.17978327
79	0x3e868f60	0.2628126
80	0xbea1becd	-0.31590882
81	0xbe257654	-0.1615842
82	0x3daab8dd	0.08336041
83	0x3c45151d	0.01202896
84	0x3e82566c	0.2545656
85	0xbd9f9d9c	-0.077937335
86	0x3e26eac2	0.1630049
87	0xbe2e24b4	-0.17006189
88	0xbe11402a	-0.14184633
89	0xbc554489	-0.013016828
90	0x38a90b0c	8.0606056e-05
91	0xbd973be9	-0.07384474
92	0x3e1afea7	0.15136205
93	0x3e21de1a	0.15807381
94	0xbde7decc	-0.11321792
95	0xbde16739	-0.11006016
96	0x3f082948	0.5318799
97	0x3ee33c94	0.44382155
98	0xbe6e7f69	-0.2329079
99	0xbf603e9b	-0.8759553
100	0xbea7fd6f	-0.32810542
101	0x3e89eb39	0.26937273
102	0x3d8dba58	0.06920308
103	0xbe43f4f2	-0.19136408
104	0xbda39a7a	-0.079884484
105	0xbed5d39e	-0.41763014
106	0xbe01a94f	-0.12662242
107	0xbde125c5	-0.10993532
108	0xbe514505	-0.20436485
109	0xbe626c82	-0.22111705
110	0x3e8a74e1	0.27042297
111	0x3cfcdea5	0.030867884
112	0xbc3e8c77	-0.011630169
113	0xbe95ed2a	-0.29282504
114	0xbe599adf	-0.21250485
115	0xbdf06670	-0.117382884
116	0x3d7767cb	0.06040172
117	0xbe249f05	-0.16076286
118	0xbcfc19b6	-0.030773979
119	0xbd7fd606	-0.062459968
120	0x3e738453	0.23780946
121	0x3edb6653	0.42851505
122	0xbeab1603	-0.3341523
123	0xbf423cd8	-0.7587409
124	0xbe3176ed	-0.17330523
125	0xbe4d52fa	-0.20051184
126	0x3d0b914b	0.03407411
127	0xbe930cad	-0.28720608
128	0x3ecd698f	0.40119597
129	0xbd869401	-0.06571198
130	0x3eb2f30c	0.34951055
131	0x3d70d1e4	0.058793917
132	0xbe9a8e50	-0.301867
133	0x3e4702e3	0.19434695
134	0xbd3a0ba1	-0.045421246
135	0xbdb57a07	-0.088611655
136	0xbe424121	-0.18970157
137	0xbe6b40ce	-0.2297394
138	0x3d4c0b73	0.049815606
139	0xbd323bcd	-0.04351406
140	0x3d992fcd	0.074798204
141	0xbe0869d4	-0.1332162
142	0x3e495d89	0.19664587
143	0xbdf11783	-0.11772063
144	0xbd2a2a81	-0.04154444
145	0x3c81ab9a	0.015828896
146	0x3f5eead8	0.87077093
147	0xbf2e8ea2	-0.6818639
148	0x3e9b0529	0.30277374
149	0xbee592ea	-0.4483865
150	0xbd7c17ff	-0.061546322
151	0xbdbe605d	-0.092957236
152	0x3d3efd48	0.046628267
153	0xbeb6329b	-0.35585484
154	0x3edf5c98	0.4362533
155	0xbeea5d21	-0.45774177
156	0x3dbde0cb	0.092713915
157	0x3c99f98a	0.018795747
158	0xbc6ca890	-0.014444485
159	0xbe53af4a	-0.20672336
160	0x3dc17fad	0.0944818
161	0xbc4a1b1f	-0.012335568
162	0xbc62188c	-0.013799798
163	0xbe526d96	-0.20549616
164	0x3d305b25	0.043055672
165	0xbdfe2216	-0.12408845
166	0xbde13e05	-0.109981574
167	0x3e5a996f	0.21347593
168	0x3e915af4	0.28389704
169	0x3d2749c8	0.040841848
170	0xbf201cdb	-0.6254403
171	0xbf02fe22	-0.51169026
172	0x3dfbe39c	0.122992724
173	0xbe20f5ec	-0.15718812
174	0xbe700fde	-0.23443553
175	0xbe16e38f	-0.14735244
176	0xbeb74bcb	-0.35800013
177	0x3e9bf179	0.30457667
178	0x3e971af2	0.29512745
179	0xbe9fa8cd	-0.31183472
180	0x3dcb30ab	0.09921392
181	0x3e63d88f	0.2225058
182	0xbc50a386	-0.0127342995
183	0xbd84829e	-0.06470226
184	0x3e24a461	0.1607833
185	0x3e2a123c	0.16608518
186	0x3def5a18	0.11687106
187	0xbcc82d52	-0.024435673
188	0xbd9602a9	-0.07324726
189	0x3d857cf3	0.06517973
190	0x3c71eb8a	0.01476563
191	0xbd8c23c6	-0.06842761
192	0x3ec13dea	0.3774255
193	0x3d7e35a9	0.062062893
194	0xbf0cc83f	-0.5499305
195	0xbdf5b49f	-0.11997341
196	0xbe28b8f3	-0.16476803
197	0x3cab8dd5	0.020941654
198	0x3dbde28b	0.09271725
199	0x3cf25b4c	0.02958455
200	0xbf34e690	-0.7066431
201	0xbb56a036	-0.0032749302
202	0x3ed04721	0.40679267
203	0x3ed0b6e4	0.40764534
204	0x3d96d3d0	0.07364619
205	0xbe845f2e	-0.25853866
206	0xbda376c9	-0.07981641
207	0xbe4639e3	-0.1935802
208	0xbe0ee37b	-0.13953964
209	0xbc978fb7	-0.018501146
210	0x3d9d5672	0.07682504
211	0x3db8abad	0.090171196
212	0xbe2c318d	-0.16815777
213	0xbdace724	-0.08442524
214	0x3d77d179	0.060502503
215	0x3e9836c3	0.2972928
216	0x3e00e737	0.12588201
217	0x3ef0d774	0.47039378
218	0xbe0d5d66	-0.1380516
219	0xbebac1c8	-0.36475968
220	0xbec46378	-0.3835714
221	0x3e897f11	0.26854756
222	0xbe393ea0	-0.18090296
223	0x3d0e6770	0.034766614
224	0xbe78bd42	-0.24290946
225	0x3eca0d02	0.3946305
226	0x3e62320b	0.22089402
227	0x3e9e58d7	0.30927154
228	0xbd32be36	-0.04363843
229	0xbe99ed46	-0.30063838
230	0xbd5e4c8a	-0.054272212
231	0x3e88771e	0.2665338
232	0x3e3dc6ae	0.18532822
233	0x3e575756	0.2102941
234	0x3e098683	0.13430218
235	0x3d6f2f34	0.058394626
236	0x3d16f358	0.036853164
237	0xbe06b739	-0.13155831
238	0xbe1d8059	-0.15380992
239	0xbe40f2c7	-0.18842612
240	0x3f5fea3e	0.874668
241	0x3f99cad8	1.2015028
242	0xbf18df15	-0.59715396
243	0xbe63c4d6	-0.22243056
244	0xbde224b9	-0.110421605
245	0xbe3d2543	-0.18471245
246	0xbe441b96	-0.19151148
247	0x3b2ac9af	0.0026060154
248	0xbe35ed58	-0.1776632
249	0x3f090a1f	0.5353107
250	0xbe6e56bb	-0.23275273
251	0xbe30610d	-0.17224522
252	0xbe156123	-0.14587836
253	0xbde554db	-0.111978255
254	0x3c723509	0.014783152
255	0xbd831445	-0.064003505

l1.bias f4 [256]
0	0xbe57e837	-0.21084677
1	0xbc66e31a	-0.014092231
2	0xbdad81be	-0.08472012
3	0x3e103172	0.14081362
4	0xbe34d483	-0.17659192
5	0x3d6fa6ec	0.0585088
6	0x3e11765f	0.14205311
7	0x3cf317d7	0.029674454
8	0xbd312c65	-0.04325523
9	0x3e606b6b	0.21915977
10	0xbe506785	-0.2035199
11	0x3e87e3c8	0.2654097
12	0x3d914374	0.07092944
13	0x3e6429e7	0.2228161
14	0x3e38a998	0.18033445
15	0x3dcc2b83	0.09969237
16	0x3afe8ed4	0.0019421228
17	0xbd25e40e	-0.040500693
18	0xbe5638f4	-0.20920163
19	0x3e1c0f60	0.1524024
20	0x3e0c01e2	0.13672593
21	0x3d95b063	0.07309034
22	0xbdce7daa	-0.10082562
23	0xbdee1ae0	-0.1162622
24	0x393b93b3	0.00017888732
25	0x3d8cdbed	0.06877885
26	0xbe2d5147	-0.16925536
27	0x3e596484	0.2122975
28	0xbdcb358f	-0.09922325
29	0x3bf37f61	0.0074309562
30	0x3e2c1253	0.16803865
31	0x3e37a5e0	0.1793437
32	0xbd35d7c5	-0.044395227
33	0x3d48c9f4	0.049020723
34	0x3e0ed227	0.13947354
35	0x3d95d3b7	0.07315772
36	0xbde12569	-0.109934635
37	0x3dc47b38	0.095938146
38	0xbe7e0a00	-0.24808502
39	0x3d2332af	0.039843258
40	0xbe16a602	-0.14711764
41	0x3e4c2654	0.19936496
42	0x3ea632fb	0.3246077
43	0xbe6c20e1	-0.23059417
44	0xbdfe7b44	-0.12425855
45	0x3c9640b9	0.018341409
46	0xbdb807a6	-0.08985834
47	0x3e210c26	0.1572729
48	0xbdf59c66	-0.11992721
49	0xbdaa2ebf	-0.08309697
50	0xbe53584c	-0.20639151
51	0xbce57169	-0.02800818
52	0xbe01e626	-0.12685451
53	0xbe0a9838	-0.1353463
54	0x3e931572	0.287273
55	0x3dafa457	0.08576267
56	0x3e4f5500	0.20247269
57	0x3db79753	0.0896441
58	0x3d835040	0.06411791
59	0x3d020c1f	0.03174984
60	0xbdf357cb	-0.118819796
61	0x3df01fec	0.117248386
62	0xbe3d812d	-0.18506308
63	0xbd482091	-0.048859183
64	0xbda408b6	-0.08009474
65	0xbdce721f	-0.100803606
66	0xbd95ca55	-0.073139824
67	0xbaac7151	-0.001315633
68	0xbdeb0106	-0.114748046
69	0xbe273fab	-0.16332881
70	0xbd514866	-0.051094435
71	0xbe2b7d6f	-0.16747068
72	0x3dc8a599	0.0979721
73	0x3d37abe4	0.044841662
74	0xbe839595	-0.2570006
75	0xbe1f75d8	-0.15572298
76	0xbd97758f	-0.073954694
77	0x3d7bd36c	0.061480924
78	0x3e2a65bb	0.1664037
79	0xbd7498df	-0.0597161
80	0x3e20f503	0.15718465
81	0xbd9022e3	-0.07037904
82	0x3c4d97e5	0.0125484215
83	0x3d0cd85b	0.03438602
84	0xbe95ef63	-0.292842
85	0xbd985e4a	-0.07439859
86	0x3caf26e6	0.021380853
87	0x3da7eb4c	0.08199176
88	0xbe26fa1d	-0.16306348
89	0xbdb98a59	-0.09059591
90	0x3d166764	0.036719695
91	0x3cbec150	0.023285538
92	0x3a72ce0e	0.0009262272
93	0xbe40e0f3	-0.18835811
94	0x3e4bcf3b	0.19903271
95	0xbdd6dfb6	-0.10491888
96	0xbc06fe4e	-0.008239342
97	0x3e1c261d	0.15248914
98	0xbdb07c58	-0.08617467
99	0x3bfb71ab	0.0076734624
100	0xbe3cda78	-0.18442714
101	0x3e489eff	0.19591902
102	0xbabe7922	-0.001453195
103	0x3e08ae1b	0.13347666
104	0xbb66b8a6	-0.0035205274
105	0xbe7630da	-0.24042073
106	0xbe14eaa8	-0.1454264
107	0x3e2b6acf	0.16739963
108	0xbdcd2505	-0.100168265
109	0xbe436a15	-0.19083436
110	0x3e60a2e8	0.21937144
111	0xbe2319a3	-0.15927748
112	0x3d40f08f	0.047104415
113	0xbde20b05	-0.11037258
114	0xbc550612	-0.013001936
115	0x3b0ee98b	0.0021806683
116	0xbe4dad98	-0.20085752
117	0xbe8629fc	-0.26203907
118	0x3c8fd939	0.017559635
119	0xbdd16c38	-0.10225719
120	0x3e1d4bb8	0.15360916
121	0xbc3b2f78	-0.011424892
122	0xbe3ada96	-0.18247446
123	0xbcb76295	-0.022385875
124	0xbdd04035	-0.101684965
125	0x3dcab2c7	0.0989738
126	0x3e54dee5	0.20788153
127	0x3ced9bb3	0.029004907
128	0xbd9186cc	-0.071057886
129	0x3e16a1dd	0.14710183
130	0x3dde7ab4	0.108632475
131	0x3e308e7c	0.17241853
132	0x3c84dc5c	0.016218357
133	0x3cce4769	0.025180535
134	0xbd73baec	-0.059504434
135	0xbd34d510	-0.044148505
136	0xbe5d3457	-0.21601997
137	0xbc1b5e7a	-0.009482974
138	0x3d3cd55b	0.04610191
139	0x3dd7650f	0.10517322
140	0x3d7290f1	0.05922026
141	0x3dd318af	0.103074424
142	0x3ddae6b7	0.106885366
143	0xbd9936b1	-0.07481135
144	0x3e1294d1	0.14314581
145	0xbca35417	-0.019937558
146	0x38757aca	5.8526908e-05
147	0xbd0e3cc2	-0.034725912
148	0xbe459063	-0.1929336
149	0xbe14c2b3	-0.14527397
150	0x3d9a60aa	0.075379685
151	0x3e23125a	0.1592497
152	0xbae5abc7	-0.0017522507
153	0x3d48aed4	0.048994854
154	0xbdccc5df	-0.099986784
155	0xbd5ffcea	-0.054684557
156	0xbd9e9748	-0.07743698
157	0x3d768509	0.060185466
158	0x3c3aae76	0.011394134
159	0xbd8976fc	-0.067121476
160	0x3cd76a6d	0.026295865
161	0xbe288971	-0.1645868
162	0xbc8e6f67	-0.017387105
163	0x3db0e698	0.08637732
164	0xbdf6a0b6	-0.12042372
165	0x3e3347f6	0.1750792
166	0xbc8247fe	-0.01590347
167	0x3e4c4078	0.19946468
168	0xbc2d1d6b	-0.010566096
169	0x3d1aa1ca	0.03775195
170	0xbdc31e60	-0.09527278
171	0xbd89fac6	-0.06737284
172	0xbe0527da	-0.13003483
173	0xbded9be3	-0.11601999
174	0x3e2ae945	0.16690548
175	0x3e989756	0.2980296
176	0x3d690896	0.056892954
177	0xbddd7cf6	-0.1081485
178	0x3d6ca4c4	0.05777432
179	0x3b382072	0.002809551
180	0xbdf9be56	-0.12194507
181	0xbe23505e	-0.15948626
182	0x3d99b544	0.07505277
183	0xbda965f2	-0.08271398
184	0x3cb1cfc8	0.021705523
185	0xbda861d1	-0.08221782
186	0x3e106140	0.14099598
187	0xbd899c63	-0.067192815
188	0xbd3445c7	-0.044011857
189	0x3df1b58f	0.11802208
190	0x3e898bb9	0.26864412
191	0x3e56cac2	0.20975783
192	0x3dc73a6d	0.09727941
193	0x3abc6ee1	0.0014376306
194	0x3e1a01b7	0.15039717
195	0x3e568959	0.20950831
196	0x3b743ac5	0.0037266475
197	0xbb9caa4f	-0.0047810446
198	0x3da7b031	0.08187903
199	0x3c7fb532	0.015607165
200	0x3cd0baa6	0.025479626
201	0x3deda738	0.1160416
202	0xbe1748ee	-0.14773914
203	0xbdbb16da	-0.09135218
204	0xbe4c1bb2	-0.1993244
205	0xbd5b7bcb	-0.053584855
206	0xbd409d79	-0.047025178
207	0xbe004cbc	-0.12529272
208	0xbe5bd026	-0.21466121
209	0xbde6be95	-0.112668194
210	0x3df759bb	0.120776616
211	0xbc3ae473	-0.011407006
212	0xbd0869a6	-0.03330388
213	0x3bf454bc	0.00745639
214	0xbd980006	-0.074218795
215	0xbe38238d	-0.17982312
216	0xbd8b26f9	-0.06794543
217	0xbd42d01e	-0.047561757
218	0xbe886ce4	-0.26645577
219	0xbe48c725	-0.19607218
220	0xbdbb148b	-0.09134778
221	0x3daa58be	0.083177075
222	0x3e736c10	0.23771691
223	0xbcbba486	-0.0229056
224	0x3e1de51a	0.15419427
225	0x3d9bd7a2	0.07609488
226	0xbdd6cdb6	-0.10488455
227	0xbe0931e1	-0.13397934
228	0xbde61617	-0.11234682
229	0xbe3af917	-0.18259083
230	0xbce4dab5	-0.027936319
231	0x3dba076b	0.09083446
232	0xbe0ca351	-0.13734175
233	0xbdbe5509	-0.09293563
234	0xbe3b7233	-0.18305282
235	0x3e77b44b	0.2418987
236	0x3e344050	0.17602658
237	0xbd77ee2f	-0.060529884
238	0x3e686383	0.2269421
239	0xbded121a	-0.11575718
240	0x3e2672a1	0.16254665
241	0xbd941522	-0.07230593
242	0x3d2e12b4	0.042498305
243	0x3e17a537	0.14809118
244	0x3db767e5	0.08955363
245	0xbd9c413d	-0.07629631
246	0xbcdaa851	-0.026691588
247	0x3d9e2586	0.07722001
248	0x3e1220ac	0.14270276
249	0xbcd43b01	-0.025907042
250	0xbd3d614a	-0.04623536
251	0x3d9e5165	0.077303685
252	0xbdf01721	-0.117231615
253	0xbdc5c3a1	-0.09656454
254	0x3d140356	0.036135994
255	0x3eaa239b	0.3323029

l2.weight f4 [256, 256]
0	0x3e9161ab	0.28394827
1	0xbcffcf65	-0.031226823
2	0x3e7284d1	0.23683478
3	0x3db23cf8	0.08703035
4	0x3d767fb5	0.060180385
5	0x3e4957ed	0.19662447
6	0x3e0738a3	0.13205199
7	0xbd4ed729	-0.05049816
8	0xbc993aef	-0.01870486
9	0x3d3d620f	0.046236094
10	0xbd4dbdeb	-0.050229948
11	0x3e11c1d3	0.14234094
12	0x3d4d6576	0.05014559
13	0xbd9061eb	-0.07049926
14	0x3da967f4	0.082717806
15	0xbdbb696d	-0.09150968
16	0xbdade299	-0.08490486
17	0xbea60f28	-0.32433438
18	0xbdbf00e0	-0.09326339
19	0x3cb2cd2f	0.021826355
20	0x3d252dbe	0.040326826
21	0xbd5be7d1	-0.053687874
22	0x3a139a8c	0.0005630634
23	0xbe09c619	-0.13454475
24	0xbe60545a	-0.21907178
25	0x3d31e9d7	0.043435898
26	0xbcc2d30c	-0.023782276
27	0x3cbc38a4	0.022976227
28	0x3dd7d020	0.105377436
29	0x3cf7c3cb	0.030244729
30	0xbd139f8c	-0.036040828
31	0x3d875e94	0.06609836
32	0xbddcc530	-0.10779798
33	0xbcb517da	-0.0221061
34	0x3b9150de	0.004434689
35	0x3e2fe2a4	0.171763
36	0x3d2c81a2	0.042115815
37	0xbe06f79c	-0.13180393
38	0xbe02e8dc	-0.12784141
39	0xbe1287b7	-0.14309584
40	0x3d267f19	0.040648554
41	0x3d0e8bbf	0.03480124
42	0xbca49b4a	-0.020093579
43	0xbe710d95	-0.23540337
44	0x3d6f6822	0.05844892
45	0x3e8c692a	0.27423984
46	0xbcff8857	-0.031192942
47	0xbd88dd4f	-0.06682836
48	0x3d2cc502	0.04218007
49	0x3cfd0eeb	0.030890903
50	0x3d09eb5d	0.033671726
51	0x3e8a96b4	0.27068102
52	0xbcb47971	-0.022030564
53	0xbd894125	-0.067018785
54	0x3d0794d8	0.033100933
55	0xbd1da9df	-0.03849208
56	0x3e4779d9	0.19480075
57	0x3d7547ce	0.05988293
58	0x3cf0c855	0.0293924
59	0x3c3925c6	0.01130051
60	0xbd0bddd6	-0.034147106
61	0xbe5d875c	-0.21633667
62	0xba94f931	-0.0011365769
63	0x3dd68523	0.104746126
64	0x3db27545	0.08713774
65	0x3d92975d	0.071577765
66	0x3d6da4fe	0.058018677
67	0x3dce630d	0.10077486
68	0xbe191253	-0.14948396
69	0xbd8cc159	-0.06872816
70	0xbb88c580	-0.0041739345
71	0x3d08dd87	0.03341439
72	0xbd37d20f	-0.04487806
73	0xbd56ae79	-0.052412484
74	0xbba74070	-0.005104117
75	0x3de4ebad	0.11177764
76	0x3e69c5d4	0.22829372
77	0x3d6ea039	0.05825827
78	0x3da89591	0.082316525
79	0xbe3dda6f	-0.18540357
80	0x3b18c3ef	0.0023310145
81	0xbcff70e7	-0.031181766
82	0x3d84e68f	0.06489288
83	0xbae8cc5b	-0.0017761098
84	0xbdde1f3e	-0.10845803
85	0xbd22c082	-0.03973437
86	0xbddc7069	-0.10763628
87	0xbd3b3a29	-0.045709763
88	0x3e1a8765	0.15090711
89	0xbc5f3d0e	-0.013625396
90	0x3bf0d398	0.0073494427
91	0x3d884b9c	0.06655046
92	0xbde3f526	-0.11130743
93	0x3d448b25	0.04798426
94	0xbd38b4bb	-0.045094233
95	0xbb0ad7f6	-0.0021185852
96	0x3d630a4a	0.055429734
97	0x3da2eec6	0.07955699
98	0x3cb996c6	0.022654902
99	0xbda88d12	-0.08230032
100	0xbe92ba66	-0.28657836
101	0x3d869dbe	0.06573056
102	0xbd917f4b	-0.07104357
103	0xbe15c479	-0.1462573
104	0xbe0c33a3	-0.13691573
105	0x3e285e5d	0.16442247
106	0x3e18e1d4	0.14929897
107	0x3db09be2	0.08623482
108	0x3da5de43	0.08099034
109	0xbd8cb35b	-0.06870147
110	0xbd3a95b7	-0.045552935
111	0xbd5f999d	-0.054589856
112	0xbd2fdc00	-0.042934418
113	0xbdb2c52e	-0.08729015
114	0x3db07b48	0.08617264
115	0xbd94ed12	-0.0727178
116	0xbcf46af6	-0.02983616
117	0x3e0028b0	0.12515521
118	0xbcc94d24	-0.024572916
119	0x3d88f950	0.066881776
120	0x3a6b3908	0.0008973037
121	0x3e5e7d55	0.21727498
122	0x3e0418f3	0.12900142
123	0x3d9f4e00	0.07778549
124	0xbd50e2b7	-0.050997462
125	0x3da0e490	0.07856095
126	0x3e79fe18	0.24413335
127	0xbd61d09b	-0.055130582
128	0x3db555e8	0.08854276
129	0xbd0fa555	-0.035069782
130	0xbdafe663	-0.08588865
131	0xbca062ed	-0.019578421
132	0x3dc81b00	0.09770775
133	0x3d1015f0	0.03517717
134	0x3e42ea4b	0.19034688
135	0xbd59fa26	-0.053217076
136	0xbd6185e4	-0.05505933
137	0xbd81b3f5	-0.06333152
138	0xbe0428ae	-0.12906143
139	0x3d82f407	0.06394201
140	0x3df741b4	0.12073079
141	0x3d4bcee9	0.04975787
142	0x3d36fab8	0.044672698
143	0xbdc0d449	-0.0941549
144	0x3daab445	0.08335165
145	0xbd1cb43c	-0.038257822
146	0xbdb7e4a8	-0.089791596
147	0xbaf32210	-0.001854958
148	0x3d03e452	0.032200165
149	0xbdddb34c	-0.10825214
150	0x3d4d9af8	0.050196618
151	0x3df5e79a	0.12007065
152	0x3dfa05ca	0.122081354
153	0x3d8a0e6f	0.06741034
154	0xbcd60ea2	-0.026130024
155	0x3cc69764	0.02424211
156	0xbe853ee3	-0.2602454
157	0x3dd6a99a	0.10481568
158	0xbc6c6cc0	-0.014430225
159	0xbd181393	-0.037128042
160	0x3d8f331f	0.069921724
161	0xbd3164f1	-0.043309156
162	0xbdcb8d7f	-0.099390976
163	0xbe32ae66	-0.1744934
164	0x3e191a78	0.14951503
165	0x3d0f7e26	0.035032414
166	0x3d819016	0.0632631
167	0x3e81b73d	0.25335112
168	0xb912c746	-0.0001399788
169	0x3d677d64	0.056516066
170	0xbd4933f3	-0.04912181
171	0x3c37411c	0.011184957
172	0xbe413d81	-0.18871118
173	0x3d81dd95	0.063410915
174	0x3df5dd05	0.12005047
175	0x3c8a321a	0.016869593
176	0xbd3b9b35	-0.045802314
177	0x3ddc2d3b	0.107508145
178	0xbd8bc0b4	-0.068238646
179	0xbe5909ca	-0.2119514
180	0x3cdf774a	0.027278561
181	0x3d9c13ba	0.0762095
182	0x3d9fc4cf	0.0780121
183	0x3ce644db	0.028109005
184	0x3dbd07cc	0.09230003
185	0xbe2538eb	-0.16134994
186	0xbe2517e1	-0.1612239
187	0xbd04e067	-0.03244057
188	0x3e12b7fb	0.14327995
189	0xbd65ceff	-0.05610561
190	0xbd9da911	-0.076982625
191	0x3ce8a550	0.02839914
192	0x3d7a9d3e	0.061185114
193	0xbda29f70	-0.079405665
194	0x3e146d2c	0.14494771
195	0xbd048178	-0.032350034
196	0xbd9ff3db	-0.078101836
197	0xbcf93ab1	-0.030423494
198	0x3d544994	0.051827982
199	0xbd0dde9f	-0.034636136
200	0xbc40e8ef	-0.011774286
201	0x3d81c7f7	0.063369684
202	0xbd537d65	-0.051633257
203	0xbd663172	-0.0561995
204	0x3dbcb3dd	0.09213994
205	0x3e8778c8	0.26459336
206	0xbd94f36a	-0.0727299
207	0xbd8e9a2e	-0.06963001
208	0x3e47c320	0.19508028
209	0x3dfe5f5b	0.12420531
210	0x3df6dc13	0.120536946
211	0xbccfcb62	-0.025365535
212	0x3cb448fc	0.022007458
213	0xbd0b1c57	-0.033962574
214	0x3cd5ceb4	0.02609954
215	0x3e3ea15a	0.18616238
216	0xbdfb2a3b	-0.12263914
217	0xbd3a075a	-0.045417167
218	0x3cc97cc0	0.024595618
219	0xbcc40e2b	-0.023932537
220	0xbe213d83	-0.15746121
221	0x3b44c8d1	0.0030026922
222	0xbe0a8cf9	-0.1353034
223	0xbde3477e	-0.110976204
224	0xbb3a2ebf	-0.002840921
225	0xbda50e2e	-0.08059345
226	0xbdb84651	-0.08997787
227	0xbd364bfc	-0.044506058
228	0x3e1cf16f	0.15326475
229	0x3ddee9d5	0.10884444
230	0xbc274ab0	-0.010210678
231	0x3cc02265	0.0234539
232	0xbb86d46f	-0.0041146795
233	0x3d5c5c60	0.053799033
234	0x3b8a44f2	0.0042196447
235	0xbc04a16f	-0.008095129
236	0xbdd02338	-0.101629674
237	0xbbc12520	-0.005894318
238	0x3dfab7d1	0.122420914
239	0xbe4903cb	-0.19630353
240	0x3e3d2876	0.18472466
241	0xbdba06f1	-0.09083355
242	0x3c40ea9d	0.011774686
243	0x3e0bb244	0.13642222
244	0x3d6bbc5b	0.057552677
245	0xbdebe20b	-0.11517724
246	0x3bceeee4	0.006315099
247	0xbc80f2d1	-0.015740784
248	0xbd999ded	-0.07500825
249	0xbca5bfe2	-0.020233098
250	0xbe459ea7	-0.19298802
251	0x3c0602bd	0.008179364
252	0x3da2278a	0.07917698
253	0x3c8e5455	0.017374197
254	0x3e181168	0.1485039
255	0xbe3f9255	-0.18708165

l2.bias f4 [256]
0	0x3cfae8f1	0.030628653
1	0xbdd908eb	-0.10597404
2	0x3d0f3a47	0.034967687
3	0xbcb598b1	-0.022167535
4	0x3d2910f8	0.04127595
5	0x3b8282c5	0.003982874
6	0x3d0515f4	0.03249164
7	0x3d9a295a	0.075274184
8	0xbb28e286	-0.0025769784
9	0x3ce5f842	0.02807248
10	0xbb767251	-0.003760476
11	0xbd8f7321	-0.07004381
12	0x3c39801f	0.01132205
13	0xbdf29737	-0.11845248
14	0xbe2bfcac	-0.16795605
15	0xbcb2e690	-0.021838456
16	0x3c23df28	0.010001935
17	0xbe06a1e9	-0.13147701
18	0xbc035c64	-0.008017633
19	0xba8a89b3	-0.0010569602
20	0xbd51c1b0	-0.051210105
21	0xbc4bbf28	-0.012435712
22	0x3c937172	0.01799843
23	0x3d93138f	0.07181465
24	0x3d7c38e6	0.0615777
25	0x3dc19eb1	0.09454096
26	0x3d97db5e	0.07414888
27	0xbd8559d0	-0.06511271
28	0xbc433656	-0.01191481
29	0x3e0ad2c3	0.13556962
30	0xbd1a426d	-0.037661005
31	0xbdcee77f	-0.10102748
32	0xbdc3540d	-0.09537516
33	0xbd2bf0b5	-0.041977603
34	0xbe3c5790	-0.18392777
35	0x3dc05015	0.093902744
36	0xbd9884bc	-0.07447192
37	0xbd0fe877	-0.035133805
38	0xbd736c86	-0.059429668
39	0xbc3dc27c	-0.011582013
40	0xbcf86eff	-0.030326365
41	0xbc420a9d	-0.011843351
42	0xbb833aa4	-0.0040047932
43	0x3df1151a	0.11771603
44	0x3df9d5b8	0.12198967
45	0x381646f6	3.5828874e-05
46	0x3cc0bfa2	0.023528878
47	0xbce27429	-0.02764328
48	0xbd22ab7a	-0.039714314
49	0xbd4a6dac	-0.049420998
50	0xbd1f823c	-0.03894256
51	0x3dfcac3e	0.1233754
52	0x3bf35681	0.0074260836
53	0xbc0aff47	-0.008483714
54	0xbca7acb7	-0.020468099
55	0xbd03f0f9	-0.03221223
56	0xbbad2f79	-0.0052852
57	0xbd651404	-0.05592729
58	0xbd047967	-0.03234234
59	0x3c87616d	0.016525948
60	0x3d4dba7e	0.05022668
61	0x3cb16333	0.021653747
62	0xbd88fa5b	-0.066883765
63	0x3e1b0814	0.151398
64	0xbc07d4fc	-0.0082905255
65	0xbd7c1d22	-0.06155122
66	0xbccb9f14	-0.024856128
67	0xbd51c127	-0.051209595
68	0x3a681b8e	0.00088542036
69	0x3cf06479	0.029344784
70	0xbdce9905	-0.1008778
71	0x3d8c631e	0.068548426
72	0xbcb070c0	-0.021538138
73	0x3d433c3d	0.04766487
74	0xbcd42cba	-0.025900234
75	0xbd311db5	-0.04324122
76	0x3b40f385	0.0029442024
77	0xbd3753c6	-0.044757627
78	0xbd3410ca	-0.043961324
79	0x3d514d3d	0.05109905
80	0xbd89da0a	-0.06731041
81	0xbdb3fbe3	-0.08788278
82	0x3d34bec2	0.044127233
83	0xbdff12ab	-0.124547325
84	0xbd6f9628	-0.05849281
85	0x3da9068a	0.082532
86	0x3d1b8df2	0.037977166
87	0xbd3d1921	-0.046166543
88	0x3ca0f7f1	0.019649478
89	0x3c310c12	0.0108061
90	0x3c0e2c56	0.008677563
91	0x3d46a142	0.04849363
92	0xbd402a7b	-0.046915513
93	0x3da72e13	0.08163085
94	0x3c35bc46	0.011092251
95	0xbc720920	-0.014772683
96	0xbd8329e7	-0.064044766
97	0x3d849204	0.06473163
98	0xbc0c210d	-0.008552802
99	0x3cef0fc3	0.02918232
100	0x3d983445	0.074318446
101	0xbdbb7b69	-0.09154398
102	0x3b4888f8	0.0030599218
103	0xbd4de46c	-0.05026667
104	0x3b7ea5c4	0.0038856128
105	0xbd920ed8	-0.071317375
106	0xbd212044	-0.03933741
107	0xbd0f42cd	-0.034975816
108	0x3d12302a	0.035690464
109	0xbda8837e	-0.08228205
110	0x3dacba1f	0.08433937
111	0xbc16bb00	-0.009199858
112	0xbd96123e	-0.07327698
113	0x3e362d98	0.1779083
114	0xbdf241d4	-0.11828962
115	0xbc180183	-0.009277704
116	0x3d004b3c	0.03132175
117	0x3d3cd2c3	0.046099436
118	0xbce36a52	-0.027760658
119	0x3dd4c1a4	0.103884965
120	0xbd42d3c3	-0.047565233
121	0x3d1559e6	0.036462687
122	0x3dba6a6f	0.09102332
123	0x3d806684	0.06269553
124	0x3cc547f0	0.024082154
125	0x3e0ced58	0.13762414
126	0xbcbc3b65	-0.02297754
127	0x3b8b398e	0.0042488044
128	0x3d8418c4	0.06450036
129	0x3d6825b7	0.056676593
130	0x3d91c948	0.071184695
131	0x3db3335b	0.0875003
132	0xbddf7244	-0.10910466
133	0x3d5da76d	0.054114748
134	0xbe0d445f	-0.13795613
135	0xbdb3446b	-0.08753284
136	0x3d832069	0.06402666
137	0xbd1e0313	-0.03857715
138	0x3d04d6ab	0.032431286
139	0xbd5acba8	-0.053416878
140	0xbdab1f48	-0.08355576
141	0x3dcebf2b	0.10095056
142	0xbbd3952d	-0.006456992
143	0xbd04d8d8	-0.03243336
144	0xbc26a01e	-0.010170011
145	0x3c7b4508	0.015336283
146	0xbd157b78	-0.036494702
147	0x3d0c1880	0.034203053
148	0x3ca13a19	0.019681023
149	0x3d95d1ee	0.073154315
150	0xbd186cd6	-0.03721317
151	0xbca68cf9	-0.020330893
152	0xbd9cd8db	-0.076585494
153	0x3bac260d	0.0052535594
154	0xbb3679f5	-0.0027843688
155	0xbc8ac3ab	-0.016939005
156	0x3cc485b7	0.023989541
157	0x3c3d13da	0.0115403775
158	0x3df9b32f	0.1219238
159	0xbc5e8ecf	-0.013583853
160	0x3dbde87d	0.09272859
161	0x3c706b41	0.014674009
162	0xbd604ab7	-0.054758754
163	0xbc6ef5ad	-0.014584941
164	0xbc8ec89e	-0.017429646
165	0x3d4d667b	0.05014656
166	0x3d7291c9	0.059221063
167	0xbdcae48f	-0.09906875
168	0xbd51c064	-0.05120887
169	0x3d29309d	0.041306127
170	0xbdadfccb	-0.08495482
171	0xbd9256db	-0.071454726
172	0xbd1acf87	-0.03779557
173	0xbd96ef82	-0.07369901
174	0x3caf56d9	0.021403717
175	0x3d944c4b	0.07241114
176	0x3c8b0699	0.01697092
177	0x3cbeb282	0.023278479
178	0xbb9d889c	-0.004807545
179	0x3cf7f293	0.030267036
180	0xbcdda578	-0.02705644
181	0xbd2d7124	-0.042344227
182	0x3d529a84	0.05141689
183	0x3dee3eb8	0.116330564
184	0x3df53a61	0.119740255
185	0xbddf5b94	-0.10906139
186	0x3d86702c	0.06564364
187	0x3d7a3542	0.061085947
188	0x3dc208fc	0.0947437
189	0x3cb10571	0.02160904
190	0xbb62e776	-0.0034622825
191	0xbc152501	-0.009103061
192	0x3de1316b	0.10995754
193	0x3d87530c	0.06607637
194	0x3d19fae5	0.037592787
195	0x3bb71bb8	0.005588021
196	0xbc1e4740	-0.009660542
197	0xbba825ef	-0.005131475
198	0x3d0e1f3a	0.03469775
199	0x3dab60d3	0.08368077
200	0x3d8d0f6a	0.068877056
201	0x3d5aaf8c	0.05339007
202	0x3d0ad471	0.033894006
203	0xbe0e2fc0	-0.13885403
204	0xbd1547d3	-0.03644545
205	0xbd89d641	-0.06730319
206	0x3d03b29f	0.03215277
207	0x3cad9789	0.021190422
208	0xbda6c3cd	-0.08142815
209	0xbc9e8c27	-0.01935394
210	0xbdbfe9e5	-0.09370784
211	0xbd188409	-0.037235294
212	0xbd0b33bc	-0.033984885
213	0x3d7a095c	0.061044082
214	0x3d39e482	0.045383938
215	0xbd81b474	-0.06333247
216	0x3d846421	0.064644106
217	0x3cea461f	0.02859789
218	0x3d924985	0.07142929
219	0x3cf701aa	0.03015216
220	0x3b325805	0.0027213108
221	0xbcf06147	-0.02934326
222	0xbd65d2d3	-0.05610926
223	0x3c6e5f3f	0.014549076
224	0x3de3d210	0.111240506
225	0x3c7194be	0.014744936
226	0x3d2ad471	0.041706506
227	0x3d18bd89	0.03729013
228	0x3db70cfe	0.08938025
229	0xbd76c3e4	-0.06024541
230	0x3d9c1b0e	0.07622348
231	0xbda2d5b3	-0.07950916
232	0xbd699412	-0.057025976
233	0x3cea2a83	0.028584724
234	0x3dfbc00a	0.12292488
235	0xbd2b87ee	-0.04187768
236	0xbc8e600a	-0.01737978
237	0x3bd4302a	0.006475468
238	0x3ca51446	0.020151269
239	0x3dbf1e84	0.09331992
240	0x3d4ce528	0.050023228
241	0xbc0b5b18	-0.008505605
242	0xbce677ce	-0.0281333
243	0x3d370bfd	0.044689167
244	0x3cb73b72	0.022367213
245	0xbdaaafd5	-0.083343185
246	0x3d339485	0.04384281
247	0x3d8b8ace	0.06813584
248	0xbd02d274	-0.031938985
249	0x3d62ca65	0.0553688
250	0x3db2e0b5	0.08734266
251	0xbb3e0a16	-0.002899771
252	0x3d9cf7e8	0.07664472
253	0xbbfb264f	-0.007664479
254	0x3dabcb1a	0.08388348
255	0x3cbc5832	0.022991274

l3.weight f4 [4, 256]
0	0x3b5a1bfd	0.0033280842
1	0xbdc77f09	-0.09741027
2	0xbd98670c	-0.0744153
3	0xbdc5896f	-0.09645354
4	0x3e8372ca	0.25673515
5	0x3ddb45e5	0.10706691
6	0x3e651631	0.22371747
7	0xbdfcb734	-0.12339631
8	0xbda4715d	-0.08029435
9	0xbc3d9458	-0.011571012
10	0xbdcc6f0d	-0.09982119
11	0xbe07f8a9	-0.1327845
12	0x3e07a022	0.1324468
13	0x3dc8b5d7	0.09800308
14	0x3e1eb462	0.15498498
15	0x3e0f6803	0.14004521
16	0xbe0c8915	-0.13724168
17	0xbd10c4e3	-0.035344016
18	0x3b896cf9	0.0041938988
19	0x3ce7de7f	0.028304337
20	0x3e125f11	0.14294077
21	0x3d8e4582	0.06946851
22	0xbd1d1bb2	-0.03835649
23	0x3d85a10a	0.065248564
24	0xbde8e981	-0.11372662
25	0xbe1d24ba	-0.15346041
26	0xbe85a6b3	-0.26103744
27	0xbdd2e05c	-0.102966994
28	0xbd2acef5	-0.041701276
29	0x3e64b5b3	0.22334938
30	0x3d831483	0.06400397
31	0x3dcdf44b	0.10056361
32	0x3d649568	0.055806547
33	0xbe5245d1	-0.20534445
34	0x3d7ebeda	0.06219373
35	0xbd3dd43b	-0.046344977
36	0xbe487a2c	-0.19577855
37	0x3dc3acef	0.09554469
38	0x3e0b8ce6	0.13627967
39	0xbd4e6d6d	-0.050397325
40	0x3d61834f	0.055056866
41	0x3dcde151	0.10052741
42	0x3df9bd44	0.12194303
43	0xbd901060	-0.07034373
44	0x3e04fa21	0.12986042
45	0xbd956b30	-0.07295835
46	0xbe2ab5c1	-0.16670896
47	0xbd124dcb	-0.03571872
48	0xbe084eba	-0.13311282
49	0xbd809b42	-0.06279613
50	0x3e27817f	0.16357993
51	0xbda63eb5	-0.08117429
52	0x3d5c4aff	0.05378246
53	0xbe35ce00	-0.17754364
54	0xbe0d86dc	-0.13820976
55	0x3d9441d7	0.072391205
56	0xbd96dbca	-0.0736614
57	0xbe13c6fe	-0.14431378
58	0x3d609710	0.054831564
59	0xbc93efcd	-0.018058682
60	0xbdc80ba7	-0.097678475
61	0xbe8a28ae	-0.2698416
62	0xbca7db44	-0.020490296
63	0xbe3aa2b7	-0.18226133
64	0x3cb54389	0.02212693
65	0xbe3c8548	-0.18410218
66	0xbc87dc23	-0.016584462
67	0xbe7477f6	-0.23873886
68	0x3e46eb5f	0.19425724
69	0x3df4d63c	0.119549245
70	0xbe2fc72a	-0.17165819
71	0xbdcdb4e5	-0.100442685
72	0xbd219666	-0.03945007
73	0xbe450c34	-0.19242936
74	0x3d8e5cc7	0.069512896
75	0x3e26aee6	0.16277656
76	0x3db5708c	0.08859357
77	0x3e32fa75	0.17478354
78	0xbdb66a6b	-0.08907016
79	0x3e46770f	0.19381355
80	0x3d62082d	0.05518358
81	0xbd99e808	-0.075149596
82	0x3d344079	0.0440068
83	0x3e37b30c	0.17939395
84	0xbdc1496c	-0.09437832
85	0x3daa89a2	0.083270326
86	0x3de1f097	0.11032217
87	0x3ded1df1	0.115779765
88	0x3e54423e	0.20728394
89	0x3d8c9ace	0.06865464
90	0xbdb82e55	-0.08993212
91	0xbe0aaf2d	-0.13543387
92	0x3e0cbcaa	0.13743845
93	0xbdd09e06	-0.101863906
94	0xbde2610c	-0.110536665
95	0x3dab8161	0.083742864
96	0x3e0daaba	0.13834658
97	0x3da70668	0.08155519
98	0xbc285692	-0.010274546
99	0xbcb58cd4	-0.022161879
100	0x3e8827b5	0.26592794
101	0x3e3d5a93	0.18491583
102	0x3be6f040	0.007047683
103	0xbb1db617	-0.0024064833
104	0xbd99fa68	-0.07518464
105	0xbe0ff8e5	-0.1405979
106	0xbd5f744c	-0.05455427
107	0xbdbd50d3	-0.092439316
108	0xbd6e44f6	-0.058171235
109	0x3ea0c65a	0.3140133
110	0xbcb9e248	-0.022690907
111	0x3b859fa4	0.0040778685
112	0xbd19c2ef	-0.03753942
113	0xbdc7d81d	-0.09758017
114	0x3dd9c2fe	0.10632895
115	0xbd9749f8	-0.07387155
116	0xbdeb71a2	-0.11496283
117	0x3b3ba6ff	0.0028633473
118	0xbda317f0	-0.0796355
119	0x3e56a2df	0.20960568
120	0xbc31fc3b	-0.010863359
121	0xbc575c51	-0.013144569
122	0xbe5616d9	-0.20907153
123	0x3d3af189	0.045640502
124	0xbe681223	-0.22663169
125	0x3e047044	0.12933451
126	0x3d730da9	0.0593392
127	0x3cce0226	0.025147509
128	0x3de70326	0.112798974
129	0xbea34157	-0.31885788
130	0xbc5fd9b0	-0.013662741
131	0xbe90c7a4	-0.28277314
132	0xbdd95f79	-0.10613913
133	0x3e168d6c	0.14702386
134	0xbce84b85	-0.028356323
135	0x3e85c31a	0.26125413
136	0x3e7bee3f	0.24602602
137	0x3c0478db	0.008085455
138	0x3dbaeae8	0.09126836
139	0x3b925ffa	0.0044670077
140	0x3bdf6e97	0.0068186033
141	0xbd5bc552	-0.053654976
142	0x3e23378c	0.15939158
143	0xbcc2edb3	-0.023794984
144	0x3e2bb9fa	0.16770163
145	0xbe0f3081	-0.13983347
146	0xbd2ccb4a	-0.04218606
147	0xbe8e013b	-0.27735314
148	0xbe825229	-0.25453308
149	0xbe34b3c0	-0.17646694
150	0x3e1d253d	0.15346237
151	0x3b9fea8a	0.004880254
152	0x3e8c3b6e	0.2738909
153	0xbe01b45f	-0.12666462
154	0x3d65cc85	0.05610325
155	0xbd782fbb	-0.060592394
156	0x3ddf3def	0.10900485
157	0x3dc815d2	0.09769787
158	0x3dbab66b	0.09116825
159	0xbe1fc3b2	-0.15601996
160	0xbda9eee7	-0.0829752
161	0xbddbf32d	-0.107397415
162	0xbd3c6b94	-0.046001032
163	0x3e6a5ce0	0.22886992
164	0xbc94d2b2	-0.018166874
165	0x3c9e7364	0.019342132
166	0xbe003be1	-0.12522842
167	0xbe2a70c9	-0.16644587
168	0xbd95c744	-0.073133975
169	0xbd7b0189	-0.06128076
170	0xbd3a9ed6	-0.045561634
171	0x3ea811bd	0.32826033
172	0xbe3300d2	-0.17480782
173	0x3cf592d8	0.029977247
174	0x3d9f51cb	0.07779273
175	0xbe424071	-0.18969895
176	0x3d9de616	0.07709901
177	0x3de113c3	0.109900974
178	0x3d9c3107	0.07626539
179	0xbda1c2f9	-0.07898516
180	0x3dd6e352	0.10492577
181	0x3eab1a2c	0.33418405
182	0x3dc4fa3d	0.09618042
183	0x3e1e6020	0.15466356
184	0x3e640c4a	0.22270313
185	0xbe2d0847	-0.16897689
186	0xbda49b77	-0.08037465
187	0xbe595c99	-0.2122673
188	0x3e6f1d2c	0.23350972
189	0x3b82a7cc	0.003987288
190	0x3b212625	0.0024589386
191	0xbd4339fa	-0.047662713
192	0xbe175872	-0.14779833
193	0x3e039e94	0.12853462
194	0x3e1bdf4c	0.152219
195	0x3db56ef0	0.0885905
196	0x3d9bcd4f	0.07607519
197	0xbde33cd7	-0.11095589
198	0x3e0721e5	0.13196523
199	0x3dd6c1af	0.10486161
200	0x3d8b457e	0.06800364
201	0xbdc08bb4	-0.09401646
202	0x3b3049db	0.002689949
203	0xbe1c7089	-0.15277304
204	0xbe036726	-0.12832317
205	0xbe11a7d4	-0.14224178
206	0xbcb087f0	-0.021549195
207	0x3e0f65c6	0.14003667
208	0x3e6d5e31	0.23180462
209	0xbe47d277	-0.1951388
210	0xbdf5b304	-0.11997035
211	0x3e094685	0.13405807
212	0xbe6324eb	-0.22182052
213	0xbe38adc7	-0.18035041
214	0x3dc26048	0.094910204
215	0xbd5b4a31	-0.05353755
216	0x3cf043e9	0.029329257
217	0xbd315957	-0.04329809
218	0xbe235e2b	-0.15953891
219	0x3d06c618	0.03290376
220	0xbda70776	-0.0815572
221	0xbe00b0ea	-0.12567487
222	0x3d6cf00a	0.057846107
223	0x3dc876df	0.09788298
224	0x3ddb3800	0.107040405
225	0x3e784ef8	0.24248874
226	0xbe163c96	-0.14671549
227	0xbe09018c	-0.13379496
228	0xbd9054f5	-0.07047454
229	0xbdacc9be	-0.08436917
230	0x3cb0370f	0.021510629
231	0xbe2cf8ac	-0.16891736
232	0xbd5ae48f	-0.053440627
233	0xbdbdffcd	-0.09277306
234	0xbdbafcec	-0.09130272
235	0xbdb96a63	-0.09053495
236	0x3d7b580b	0.06136326
237	0xbd7ca8b2	-0.061684318
238	0xbe13e380	-0.14442253
239	0x3e38dc13	0.18052702
240	0xbdae71be	-0.08517788
241	0xbdbc310a	-0.09189041
242	0x3e0fb3c1	0.14033414
243	0xbddc1876	-0.10746853
244	0x3d4f0a72	0.05054707
245	0x3deecfae	0.116607055
246	0xbe29f905	-0.165989
247	0xbd9e1a70	-0.07719886
248	0xbcd6442d	-0.026155556
249	0x3d8c20f5	0.068422236
250	0xbcb131dc	-0.02163022
251	0xbd9b147d	-0.07572267
252	0x3db6a2e4	0.08917788
253	0x3e5b7506	0.2143136
254	0x3ebc3442	0.3675862
255	0x3dd4544a	0.10367639

l3.bias f4 [4]
0	0x3c10c06b	0.0088349385
1	0x3dbda0d9	0.09259195
2	0x3c962cb6	0.018331867
3	0x3db77c09	0.08959205
