HardcoreVersion_7500_Working/critic/ppo_q_critic1000.pth (torch, 592130 bytes, 10 tensors)

l1.weight f4 [256, 28]
000000 a9 26 d8 bd 97 f2 c1 3c c1 c4 24 bf f0 ce 61 be
       -0.10554249 0.023675246 -0.6436272 -0.22051597
000010 50 be 99 3c e3 ef 2e bd 12 3d 36 3d 05 74 1d 3e
       0.018767506 -0.042709243 0.044491835 0.15376289
000020 fa 02 86 3d 92 8b 8d 3d 3b a6 76 3c 2e e3 e6 bd
       0.065435365 0.069113865 0.015054281 -0.112738
000030 0e 97 02 bd 4e e4 21 3e c1 3c 0b 3d c9 99 33 3e
       -0.03188234 0.15809748 0.033993486 0.17539133
000040 bc b0 1a 3d 4f 8d 2f 3e 35 a1 43 3e 72 6b 7f bc
       0.037766203 0.17143749 0.19104464 -0.015589582
000050 f3 15 34 be 88 14 32 3e 08 ae de 3d e0 5d ea bd
       -0.17586498 0.17390645 0.108730376 -0.114436865
000060 86 24 2f 3e 32 d1 06 3e 37 bf 31 be 83 f6 f0 3d
       0.17103776 0.13165739 -0.17358099 0.117657684
000070 20 6d 01 bf 7b 58 23 bf ae da 38 bd 9c 42 87 3e
       -0.50557137 -0.63806885 -0.045130424 0.26418006
000080 ad d0 42 be 56 39 5a 3e 26 3b 92 bd 2b 42 64 3e
       -0.19024916 0.21310934 -0.07140188 0.22290866
000090 6b c9 f0 3c c6 22 28 3e 70 53 12 be 4e 53 8f bc
       0.029392919 0.16419515 -0.14289641 -0.017495777
0000a0 d7 fe 15 bd c9 c8 d8 3c 4a f4 22 be c0 63 02 be
       -0.036619987 0.02646293 -0.15913501 -0.12733364
0000b0 aa d9 e2 3d 69 dc 90 3c 11 fa 8d 3c ab 0c 05 be
       0.110766724 0.017683225 0.017331155 -0.12993114
0000c0 86 0d 07 3e 70 d4 2d 3e 57 31 1e 3e e4 41 17 be
       0.13188753 0.1697557 0.15448509 -0.14771229
0000d0 63 4a f7 bd 73 c5 57 3e 73 c4 e6 bd 4c c0 6a bd
       -0.12074735 0.21071415 -0.112679385 -0.057312295
0000e0 3e 0e 88 3e f1 33 76 3f 8d 47 e5 be 8d 17 91 bc
       0.26573366 0.96173006 -0.4478115 -0.017711425
0000f0 8a 10 a1 3e 44 06 a9 3e f1 57 84 3d b2 af 44 be
       0.3145793 0.33012593 0.06462086 -0.19207647
000100 ec 8e 3b 3d 28 fb d3 bb e7 47 48 bc df 15 62 be
       0.045790598 -0.006469149 -0.012224174 -0.22078656
000110 be 16 d3 bb 81 e5 46 3c 3b 14 25 be 40 69 58 3e
       -0.00644192 0.012139679 -0.16120999 0.211339
000120 3f 4a 8d 3d 68 30 e4 3d ba a9 e0 3d 64 b1 93 3d
       0.06898927 0.11142045 0.10969873 0.07211569
000130 00 f3 5f bc 35 a9 f7 bd 99 f9 a5 bd ba 13 97 3c
       -0.013668776 -0.120928206 -0.081042476 0.018442024
000140 82 33 c8 3d 95 2d e7 3d 79 7d 05 bd 4d 4f 0f bd
       0.09775449 0.11287991 -0.032590363 -0.034987736
000150 56 72 9f be fa fc fe bd 7a b8 ab 3e a1 f1 6a bd
       -0.3114192 -0.12450595 0.33539182 -0.05735934
000160 3c 64 0c be dd fd 80 bd d8 98 28 3e 6f 51 3d 3d
       -0.13710111 -0.062984206 0.16464555 0.04622024
000170 48 28 00 3e e9 ff 07 be 17 47 fc bd cb a1 29 3e
       0.12515366 -0.13281216 -0.12318247 0.16565625
000180 37 75 03 3b b3 0b ed 3c c9 d6 a6 bd 64 88 aa 3d
       0.002005888 0.028936243 -0.08146436 0.08326796
000190 39 6c b3 3d 8c 5d b4 3d 1c be b7 bc 09 7e b3 3d
       0.08760876 0.08806905 -0.022429518 0.08764274
0001a0 05 37 19 3e 67 50 cb bb 70 b6 c7 3d 80 4f 28 be
       0.14962395 -0.006204653 0.09751594 -0.16436577
0001b0 3a 53 60 bd cb a3 fb 3d 47 f4 05 3e 0d 26 96 3d
       -0.05476687 0.122871004 0.13081466 0.07331476
0001c0 a6 3b 16 3e 37 56 5e 3f f8 95 22 bf 28 f1 00 3d
       0.14671192 0.86850303 -0.63510084 0.031479985
0001d0 c3 4e b5 bd 42 d2 5e 3e b9 2b 2c 3e 0c 75 f6 ba
       -0.08852913 0.21759894 0.16813554 -0.0018803193
0001e0 67 9a c5 3d 7f e9 c5 3d 1e ed 7f 3d 82 db 3f bd
       0.096485905 0.096636765 0.062481992 -0.0468402
0001f0 37 13 c4 3d a7 62 ee 3d a1 34 c4 bd 7b dc 8c 3d
       0.095739774 0.1163991 -0.09580351 0.06877991
000200 f4 b4 32 bc e0 a9 1c be d6 80 42 3e 32 27 0b 3e
       -0.0109074 -0.15299177 0.1899446 0.1358917
000210 45 53 1e 3d 5a f2 cd bd 24 3c 22 3d b5 62 6d 3d
       0.03865363 -0.100559905 0.039608136 0.057955462
000220 ed 1e 4a bc 1e a0 1a 3d ac db 78 3c 16 c6 03 3e
       -0.012336475 0.037750356 0.015189093 0.12868533
000230 06 ae 4c 3c 0a 74 00 3f 80 9c 58 bd 41 a0 95 be
       0.012492662 0.5017706 -0.052883625 -0.29223827
000240 a8 e8 23 3e 13 0d 64 3d 15 d9 a1 bd 83 1d 2c 3d
       0.1600672 0.05567653 -0.07902733 0.042020332
000250 2a bf e3 bd 52 4b 55 3e 07 0d ec bb 2c d0 23 be
       -0.11120446 0.20829514 -0.0072037014 -0.1599738
000260 1c 02 87 3d 27 ba 41 3e d3 96 d6 3d a0 37 a7 bb
       0.06592199 0.18918668 0.10477986 -0.0051030666
000270 8b c7 a3 3d 53 82 85 3d d6 4b cf bd ac 35 bf 3d
       0.07997044 0.06518998 -0.101218864 0.09336409
000280 ab f7 1f 3e d8 5d 10 3e 14 f8 1f 3d da d1 55 3d
       0.15621822 0.14098299 0.039054945 0.052202083
000290 96 c2 36 3d af 41 f3 39 23 86 08 3e 6b d3 25 bd
       0.044619165 0.0004639751 0.13332419 -0.040484827
0002a0 93 ca 19 bb 2e a7 eb 3b 07 c4 4a bc ca 96 1c 3d
       -0.002346669 0.00719156 -0.012375838 0.03822974
0002b0 79 1f 0e 3e f4 bb a9 3d a2 ba 86 bb 33 31 c8 3d
       0.13879193 0.08287802 -0.004111604 0.09775009
0002c0 4f 7b 27 bd 69 41 53 3e c2 52 5d bd 01 13 e3 3d
       -0.04088908 0.2063042 -0.054034002 0.11087609
0002d0 d8 ae 2e 3e 20 30 a8 bd d2 60 52 be ca a4 1e be
       0.17058885 -0.08212304 -0.20544747 -0.1549255
0002e0 a8 fa 2d be 4e 96 da bd fd c7 d8 bd 42 a0 dc bc
       -0.16990149 -0.106731996 -0.1058502 -0.026931886
0002f0 c9 52 40 be 18 81 66 bd b0 15 07 be 7b 52 28 bd
       -0.1878158 -0.056275457 -0.13191867 -0.041094285
000300 48 b3 8d 3e 69 e5 c6 bc dc 4f 82 3b 34 77 c0 bd
       0.27675843 -0.024279313 0.003976805 -0.09397736
000310 2e af 60 be 06 bf 1c bf b0 81 14 3f 72 c2 f1 3e
       -0.21941826 -0.6122898 0.5801039 0.47218663
000320 ec 82 12 3e 97 4b 53 bd 2b 2a 41 3d 62 e1 91 3c
       0.14307755 -0.05158576 0.047159355 0.017807666
000330 62 50 b3 bd a7 53 ea 3d 4e 15 b5 bd 98 e9 36 3e
       -0.08755566 0.11441737 -0.08841954 0.17862546
000340 6f 3e 14 3e 61 80 22 be 58 c4 57 bd 43 cd 83 bd
       0.14476942 -0.15869285 -0.052677482 -0.06435635
000350 17 85 da 3c 67 b5 33 be 2d b6 13 3e 5d 48 29 3d
       0.02667479 -0.17549668 0.14424963 0.041328777
000360 a7 b8 f4 bd 5d a0 51 3d d8 66 23 3e 6d e6 b0 3d
       -0.11949282 0.051178325 0.159572 0.086377
000370 2b 38 1f bc 09 99 46 bc 0d a9 28 be 40 c8 ef bd
       -0.009717981 -0.012121447 -0.16470738 -0.117081165
000380 03 da 37 be 3f b0 b7 3e 7e 49 67 3d 6d 01 d1 bd
       -0.17954259 0.35876653 0.056466572 -0.1020535
000390 03 93 b0 bd 21 cd 25 3e ce a0 10 be 11 db 53 be
       -0.0862179 0.16191532 -0.14123842 -0.20689036
0003a0 9e 4f ce 3d ab bb 1a 3e 6b df 8c be d8 df e6 bd
       0.100737795 0.15110652 -0.27514204 -0.112731636
0003b0 bc 52 b1 bb 71 a9 e2 be 00 ba 5f bd b1 5c f8 bc
       -0.005411474 -0.442699 -0.054620743 -0.030317636
0003c0 d3 d5 4c be 5b 7b b7 3d 64 71 46 bd 86 98 4b be
       -0.20003442 0.08959075 -0.04844798 -0.19882402
0003d0 0e 7d f6 bd 88 17 11 bd 26 f7 4d 3c 17 f4 6e 3d
       -0.12035571 -0.03542283 0.012571132 0.05833825
0003e0 14 d0 4f 3e 16 24 93 3b be 34 58 be 2b 57 19 3e
       0.2029422 0.0044903858 -0.2111387 0.14974658
0003f0 68 ab 36 3f 12 8c 54 3f fe 19 d1 bd 5d 82 4b bd
       0.71355295 0.8302623 -0.10210036 -0.04968487

l1.bias f4 [256]
000000 1e 66 02 3e eb b9 f0 3d e6 e4 11 3e 08 0e 0f be
       0.12734267 0.11754211 0.14247474 -0.13970196
000010 f6 a2 20 be f8 0c 0d be 68 1f 6b 3d 4b 36 0e 3e
       -0.15687165 -0.13774478 0.057403 0.13887899
000020 a2 20 c1 3d 33 b7 c3 3d 6b 93 2c bd ee 5f c9 3d
       0.09430052 0.09556427 -0.042132776 0.0983275
000030 12 32 ea 3d 54 0d d9 3d 49 67 62 3e d8 f2 e5 bc
       0.114353314 0.10598245 0.22109713 -0.028069898
000040 63 7f e1 3d 55 5b 27 3e 73 13 06 3e 3e 1a 33 be
       0.11010625 0.16343434 0.13093357 -0.1749048
000050 80 d6 2a 3e 1f d9 cd bd a7 a5 bf bd e6 b4 9a 3d
       0.16683388 -0.10051178 -0.093577676 0.07554035
000060 51 ee 0e be d5 07 ae bd d4 36 5e bd d9 6f e9 3b
       -0.13958098 -0.084975876 -0.054251507 0.007123929
000070 b1 93 10 3d a7 b0 87 bc 5b c7 0c bd 2b 5c 36 bd
       0.0352971 -0.016563727 -0.034369808 -0.044521492
000080 37 ba 11 3b 79 77 b1 bd dc 30 92 3d bb eb a9 3d
       0.0022236237 -0.08665366 0.071382254 0.08296915
000090 b0 59 1b 3d 25 85 53 3e b3 b0 82 3e ee d5 88 3b
       0.03792733 0.2065626 0.25525436 0.004175893
0000a0 e7 78 d4 bb 87 d0 95 bd f0 b7 96 3d ec 5d f3 bd
       -0.0064841392 -0.07315164 0.07359302 -0.118831486
0000b0 68 5e 00 3d b9 05 1b be f9 fa 86 3e 17 a5 f8 bc
       0.031340033 -0.15138902 0.26363352 -0.030352158
0000c0 31 ec 23 bd a3 0e a6 3d 2a 89 60 3e d4 f9 e5 3d
       -0.04002017 0.081082605 0.21927324 0.112292916
0000d0 6a 8f 7e 3d b8 93 4b bb b5 e9 f7 bb 14 b7 10 3e
       0.06214849 -0.003106339 -0.007565702 0.14132339
0000e0 c1 bc 1e 3e 67 42 ae bd e6 d7 32 bd e7 6f 45 3e
       0.15501691 -0.08508759 -0.043662928 0.19280969
0000f0 d9 f8 28 be ea 97 8e bc 15 37 de 3d 1a 44 45 be
       -0.16501178 -0.017406423 0.1085035 -0.1926426
000100 57 8e 19 be 63 00 2e be 18 8d fe bd d6 e2 06 be
       -0.14995705 -0.16992335 -0.12429255 -0.13172469
000110 a5 63 00 3e bb 46 92 3d 02 a6 29 be 39 ce f8 bd
       0.12538011 0.07142397 -0.16567233 -0.12148709
000120 71 9e 42 3e f8 40 35 3c 7e 65 c4 bd 63 cc 84 3d
       0.19005753 0.011062853 -0.095896706 0.06484296
000130 70 09 39 3e 93 4a 51 3e aa 58 65 3e 2a 04 dd 3d
       0.18070006 0.20438604 0.22397104 0.1079181
000140 44 00 4c be 72 81 4f bd 37 f0 dd bd 28 2e c2 bc
       -0.19921976 -0.050660558 -0.10836833 -0.02370365
000150 6d 4b 20 be b6 49 90 3d b5 7a ed bd d7 35 30 be
       -0.15653773 0.07045309 -0.1159567 -0.17208038
000160 9d b2 cf bd 79 1f ca 3d f9 cb 1e 3e 4c 2c a3 3d
       -0.1014149 0.09869284 0.15507497 0.07967433
000170 b3 e6 c0 bb 0c c9 0b be 93 5f 00 be 63 ed a0 3d
       -0.0058868765 -0.13650912 -0.12536459 0.07857778
000180 38 26 52 3d 6c b2 07 3e 09 ec 38 3d 61 78 d1 bc
       0.05130598 0.13251656 0.045146976 -0.025570096
000190 b5 7a ac bd 57 5d 0b bd ee 69 d2 bd de 4b 32 3d
       -0.08421842 -0.034024563 -0.10274111 0.043529384
0001a0 30 e2 e0 bd fb 4b 41 3d 57 03 f3 3d f5 d1 c0 3d
       -0.10980642 0.0471916 0.118658714 0.09415046
0001b0 ae 4a 9b 3c 13 92 f1 bd 44 97 c3 bd af a0 42 3d
       0.018956508 -0.117954396 -0.09550336 0.04751652
0001c0 cd a1 54 3d 59 b1 3c 3e f0 ba 7b bd cb 44 3f bc
       0.051912118 0.18427028 -0.061457574 -0.011674116
0001d0 98 28 0a be 6b 49 eb 3d ad 5c 7b bd 1e 1f e2 3d
       -0.13492048 0.11488613 -0.06136768 0.110410914
0001e0 54 2c 73 bd a2 09 ca bd 32 f1 d3 3d ce 92 4f bd
       -0.059368446 -0.098651186 0.10348739 -0.050677113
0001f0 c5 07 12 3e ae 4d 22 bd 3c 88 1a be da cf df 3c
       0.14260776 -0.039624862 -0.15091032 0.027320791
000200 63 2f 5e 3d d5 31 ab bd 67 23 f8 bd 27 e5 35 3e
       0.05424441 -0.08359114 -0.121161275 0.17763196
000210 46 71 bf bc 90 82 28 3e 6b c7 be 3c de 1b 0a bd
       -0.023369443 0.16456056 0.02328845 -0.033717982
000220 80 42 05 bd d4 01 f7 bd 6d 5d 96 3d 12 ac 22 be
       -0.032534122 -0.120608956 0.07342038 -0.15885952
000230 dd d8 88 bc dc eb e2 bd cc 7c 76 3d c1 ec f0 bd
       -0.016704971 -0.11080143 0.06017761 -0.11763907
000240 43 84 f0 3c f3 36 94 bc 78 d1 49 bc 14 10 0a 3e
       0.029359942 -0.018092608 -0.012318008 0.13482696
000250 16 78 da 3d bc 4c 34 3c 31 52 88 bd 43 b3 af 3a
       0.10667436 0.011004623 -0.06656302 0.0013404865
000260 46 4d 6e 3e f3 96 80 3d f4 e4 db bd 23 a9 bd 3d
       0.23271665 0.06278791 -0.10737029 0.09260776
000270 3d 35 82 bd ef 1a d7 ba 95 d1 e5 bd 85 03 2b 3e
       -0.06357811 -0.0016411225 -0.11221615 0.16700561
000280 a3 da df 3c 61 47 22 3e d6 33 34 be 9d b9 e2 bc
       0.027325934 0.15847541 -0.17597899 -0.027676398
000290 b6 f0 8a 3d 34 3e 9f 3d 7d 85 d3 3d 8b 7f 64 3e
       0.06784193 0.07775536 0.10328195 0.22314279
0002a0 7e a1 0e 3e 7d c4 71 bd b7 c2 8a ba ac 12 9c 3c
       0.13928792 -0.059025276 -0.0010586594 0.019051872
0002b0 43 1f 0e 3e 11 84 28 be 9f e9 da bc 75 da 45 3e
       0.13879113 -0.1645663 -0.026722727 0.19321616
0002c0 8a 00 02 be 8d 2c fe 3c d5 8c 06 be cc 8e 7a bb
       -0.12695518 0.031027103 -0.1313966 -0.0038232086
0002d0 f0 3f e5 bd 89 32 0f be 18 56 f6 3d 07 00 23 be
       -0.11193836 -0.13984121 0.1202814 -0.15917979
0002e0 c3 fe dc bd 0b ba fd bc 0b 54 00 3d 61 c7 8a bd
       -0.107907794 -0.030972501 0.03133015 -0.0677631
0002f0 92 f8 ad bc 35 ce 14 3c 07 0e 51 be c6 8e 5b 3e
       -0.021236692 0.009082367 -0.20415507 0.21441182
000300 08 e4 1d 3d bb 9f d1 bd 8f 7f f7 bd ce ce 2c b8
       0.038547546 -0.10235544 -0.12084877 -4.1200597e-05
000310 90 c4 10 be d6 16 19 3e 13 3a e4 3d 56 a7 2e be
       -0.14137483 0.14950117 0.11143889 -0.17056021
000320 0d f8 03 be c9 ef c6 3c 10 e3 1b 3d 1e 49 bd bc
       -0.12887593 0.02428426 0.03805834 -0.023106154
000330 61 b7 95 3d 0f 16 eb bc 30 53 d5 bd 44 4b fb bd
       0.073103674 -0.028697042 -0.104162574 -0.12270215
000340 4b 2e 29 3e a4 15 66 3d f9 b2 94 bc 8b c7 96 3d
       0.16521566 0.05617298 -0.018151747 0.073622786
000350 4c 8c 29 be b6 49 0a 3e a8 da d9 3d 8c cf 02 bc
       -0.16557425 0.13504681 0.106374085 -0.007984053
000360 d2 22 eb bd 0d ac 22 3d e4 5b e9 bd c6 d2 76 3e
       -0.11481251 0.03971486 -0.1139448 0.24103841
000370 5c 49 a8 3c d4 4e 61 3d d9 53 41 3d 44 0f 3b 3e
       0.020542793 0.055006817 0.047199104 0.18267542
000380 90 81 0a 3d e5 c8 e9 bd 39 a9 e7 3c e7 2c 96 bd
       0.033814967 -0.11415271 0.028278934 -0.07332783
000390 b9 10 16 3e e5 ad 2d 3e 71 3c 83 3d 6b 22 86 bd
       0.14654817 0.16960867 0.06408013 -0.065495335
0003a0 13 c6 21 3c f6 ab e8 3d 74 30 86 3e 9f 65 93 3c
       0.009873885 0.11360924 0.26208842 0.017992793
0003b0 f1 51 c8 3d 3d 7e 67 3e 43 10 fb 3c 84 0e 3d 3d
       0.09781254 0.2260675 0.030647403 0.04615642
0003c0 70 9c ca 3d 92 f9 80 3d f4 16 f3 bd fa df 9d 3c
       0.09893119 0.06297602 -0.11869612 0.01927184
0003d0 76 9b 0e 3e 12 22 0a 3e 30 eb ca 3c 48 c3 0d 3d
       0.13926491 0.1348956 0.02477035 0.034610063
0003e0 b7 8e 01 be 20 53 e0 3c 47 8c a6 bd 2f 8b 00 3d
       -0.12652098 0.027383387 -0.081322245 0.031382736
0003f0 dc f1 3c 3e a0 b8 b6 bb a1 82 44 be 4b bc 89 3d
       0.18451637 -0.0055762082 -0.19190456 0.06725367

l2.weight f4 [256, 256]
000000 8a 0b bb 39 87 7d 4e 3c a7 74 b2 bd f6 1e 4e bd
       0.00035676017 0.01260317 -0.08713656 -0.050322495
000010 22 33 6d 3c 6a 72 b1 3d f0 e3 c4 3d 4e 84 0a bd
       0.014477523 0.08664401 0.09613788 -0.03381758
000020 65 61 39 3e f0 98 cd 3d eb 7d 82 be 22 16 2e bd
       0.1810356 0.10038936 -0.25486693 -0.042501576
000030 8e a9 00 3d 52 97 ca 3c 94 66 29 bc f4 55 af 3d
       0.0314117 0.024730358 -0.010339398 0.08561316
000040 aa d6 47 bd ed d9 79 3d 8d dc be bd cd e5 b6 bd
       -0.048788704 0.060998846 -0.093194105 -0.0893055
000050 ed c5 5a bd 3b 78 a5 3d fe a0 84 bd 20 5c 1d be
       -0.053411413 0.08079573 -0.06476019 -0.15367174
000060 6e 66 30 be eb aa a0 bd 4f 6e aa bd 12 fd af bd
       -0.17226574 -0.078451 -0.08321821 -0.08593191
000070 7c e3 68 bd c0 8f fb bd c5 c5 44 3e 8f 5f d6 3c
       -0.05685757 -0.122832775 0.19216068 0.026168613
000080 f3 6c 42 be 0f 32 27 be 96 b0 93 3d df 36 fe bb
       -0.18986873 -0.1632769 0.072114155 -0.007758006
000090 2a 0a d8 3c 0c 32 7a 3c 12 59 55 3c 37 94 27 bd
       0.026372034 0.015270721 0.013021724 -0.040912833
0000a0 13 d4 93 bd 2e ba 65 bc de e2 b5 bd 0e 45 1a be
       -0.07218184 -0.0140214395 -0.08881162 -0.15065405
0000b0 6c 36 0c 3d fd ae 13 bd b7 43 3b be d0 56 34 3d
       0.03423159 -0.036055554 -0.1828755 0.044028103
0000c0 24 a3 cd 3d 7c ec 80 bc bf d1 47 bd 18 57 66 bd
       0.10040882 -0.015737765 -0.048784014 -0.056235403
0000d0 16 07 94 3d 1a 30 b6 bd 96 cc 16 3d 09 fb 04 3d
       0.07227914 -0.088958934 0.036816202 0.03246597
0000e0 85 79 84 bc 8a a8 61 3d a3 bf 5c 3d 2d 8e 8b 3c
       -0.016171226 0.055092372 0.053893697 0.017035568
0000f0 7b 86 25 3d 9b 99 90 3d 8a 22 c6 bd 3e ad 46 3d
       0.040411454 0.07060548 -0.096745566 0.04850506
000100 cd 13 7d 3d 53 2c 9d 3d 88 5a 88 3d fd cf 47 3e
       0.06178646 0.0767447 0.066578925 0.19512935
000110 37 21 13 be 36 0d c7 bd 48 84 a9 3c 2b 60 e3 3d
       -0.14368139 -0.09719317 0.02069296 0.11102327
000120 4a ef 80 3d 84 a2 43 bd f3 ed 13 3e b7 71 5b bd
       0.06295641 -0.04776241 0.14446239 -0.053575244
000130 a6 91 82 3d 23 34 76 bc 7a f8 09 3d 13 8e 97 3c
       0.063754365 -0.015027079 0.03368423 0.018500363
000140 39 01 71 3d eb 6d 87 bd 09 8a 83 3d 50 92 4a be
       0.058839057 -0.06612762 0.064228125 -0.19782376
000150 02 c5 04 bd c3 a5 7d 3d f8 47 c8 bc 5e 77 56 3e
       -0.032414444 0.06192566 -0.02444838 0.20943972
000160 ff 30 8d be 00 d1 6e bd d7 d9 e5 3c 31 35 94 bc
       -0.27576444 -0.058304787 0.028057976 -0.01809177
000170 27 be 67 bd c5 c4 d1 3d 2e 8c 2f 3d c9 94 40 3d
       -0.056577828 0.10242609 0.042858295 0.047016893
000180 3d a6 df bc c3 96 59 3c 52 4e f3 bd 5c 50 5a bd
       -0.027300948 0.013280573 -0.11880173 -0.053299293
000190 72 f4 a1 3c 3b 36 0d 3d 49 5f 93 bc 25 9a 34 bd
       0.01976988 0.034475546 -0.017989771 -0.044092316
0001a0 f6 91 5d be c8 5c a2 3d 8d 24 c3 bc 43 19 df 3d
       -0.21637711 0.07927853 -0.02382114 0.1089349
0001b0 c1 14 3a bd 89 bf 09 be d9 9c 23 3c fb 27 e2 3c
       -0.04542995 -0.13451971 0.009986126 0.027606955
0001c0 bc c2 4f bd 6e 53 af 3d 28 5e 1f be 0d d2 38 bd
       -0.050722823 0.08560835 -0.15563262 -0.045122195
0001d0 44 b8 a5 bc 54 8d b9 ba 98 e1 1a bd 4e 68 a6 bd
       -0.020229466 -0.0014156499 -0.0378128 -0.08125363
0001e0 e6 8e 08 bd 7e f5 2d 3d 3b fa 6a bb 85 3c 59 bc
       -0.033339404 0.042470448 -0.0035854715 -0.013259058
0001f0 d2 6c 02 bd aa b8 d7 3d e8 c9 b5 3d 2c 41 ba 3d
       -0.03184206 0.10533269 0.08876401 0.09094462
000200 a6 64 c4 bd 84 70 af 3d 10 84 96 bd b4 31 e7 bc
       -0.0958951 0.085663825 -0.07349408 -0.028221942
000210 42 d5 fc 3d 4c cc 8c 3c 61 93 c1 bc 7c 1e 95 3d
       0.12345363 0.01718726 -0.023629846 0.07281205
000220 fc 85 7a 3e 08 fd 3b bc 62 e5 33 bc 99 4d 51 3b
       0.24465173 -0.011473902 -0.010979982 0.003193712
000230 2b f8 30 3e 97 64 c0 bd 4d 13 c0 3c cb d3 74 3c
       0.17282169 -0.09394186 0.023446703 0.0149430735
000240 d6 aa 47 3d 81 f6 c1 3d 67 37 d6 3c 73 46 65 3c
       0.048746906 0.09470845 0.026149465 0.013993847
000250 05 06 8f bd 55 f2 b3 bd 2e a4 3f be fd d0 b7 3c
       -0.0698357 -0.087864555 -0.18714973 0.02243852
000260 0c 58 03 3e 61 81 09 3d a5 75 5a 3a 51 e1 a5 bb
       0.12826556 0.03357065 0.00083335704 -0.00506226
000270 1f 17 94 bc 01 59 94 3c 1a a1 ac 3c 77 b6 4d 3c
       -0.018077431 0.018108847 0.021072913 0.01255571
000280 a7 44 3b 3d c0 d5 e4 bb 2a dc 58 3d 23 d7 66 bd
       0.04571977 -0.006983489 0.05294434 -0.056357514
000290 c1 33 12 bd 5c fd c0 3d 19 69 cb 3d 66 0d 6d bd
       -0.035693888 0.094233245 0.09932155 -0.057874106
0002a0 8a 43 90 bd 08 ba e9 3c a4 25 93 bb 37 23 92 3d
       -0.07044132 0.02853109 -0.004490571 0.07135623
0002b0 1d 47 79 bd 1a 32 4b bd 8c 7c be bd 84 dd a3 bc
       -0.060858835 -0.049608327 -0.09301099 -0.020003088
0002c0 9c 13 b7 bd 3e ed 7a bd a6 7f 9f bd fe 70 51 3d
       -0.08939287 -0.061261408 -0.07788019 0.05113315
0002d0 c5 8d 21 3b 1b 7e 2e bd e8 fe 72 3d b4 35 e0 3c
       0.0024651152 -0.042600732 0.05932513 0.027369358
0002e0 1f b7 f7 bc 13 53 5d bd 46 e3 7a bd dc b9 04 3b
       -0.030238686 -0.054034304 -0.0612519 0.0020252382
0002f0 0a 07 a4 3d 76 67 87 3d 83 80 36 3e 9f 47 9a bc
       0.08009155 0.066115305 0.17822461 -0.01883298
000300 43 f4 4e bd 09 b5 90 b9 f4 06 22 3d 37 20 70 bd
       -0.050525915 -0.00027600702 0.039557412 -0.058624472
000310 a1 37 fe bd 3f 47 99 bc dc 47 90 3a 0b 03 8c bd
       -0.12412954 -0.01871073 0.0011007744 -0.06836518
000320 ad e9 ca 3c ab 8e 15 3d 92 8d 06 bd 71 23 e5 39
       0.024769628 0.036513012 -0.032849856 0.0004370469
000330 8c f9 e5 bc a7 d1 0c bc 20 fe 22 be e5 ba 11 3d
       -0.028073095 -0.008594907 -0.15917253 0.035578627
000340 03 bd c1 bd 81 12 ca 3b c0 e5 40 3d a0 15 c4 3c
       -0.09459879 0.0061667566 0.047094107 0.023936093
000350 35 2c c5 bc a9 aa 8e bc a7 e0 0d bd 47 72 7c 3d
       -0.024068931 -0.017415361 -0.034638073 0.06163242
000360 2d 14 80 3d 41 f9 93 bc 02 7a 29 3d d7 1b d2 3d
       0.06253848 -0.01806319 0.04137612 0.10259216
000370 75 11 88 bd b0 fe fd bd 92 7e 56 3e 82 db 88 bd
       -0.06643955 -0.124020934 0.2094672 -0.06682493
000380 ce e7 7b 3c 79 a8 59 3d e0 35 2d be bd eb af 3d
       0.015375091 0.053139184 -0.16915083 0.085898854
000390 a7 5e 93 bd 37 bd 00 be 51 30 b7 bc 9a eb 0c bd
       -0.07195788 -0.1257218 -0.022361906 -0.034404375
0003a0 6e 28 01 3e 05 d3 04 3e 19 5c 59 3d b2 bd 6e bb
       0.12613079 0.12971123 0.053066347 -0.0036428985
0003b0 cd 37 31 3e a3 80 22 3d b1 08 63 3d 6b 35 0e bb
       0.17306443 0.03967346 0.05542821 -0.002169932
0003c0 f2 d7 2e 3e d0 96 60 be 47 68 e5 3d fd 5e 1f 3d
       0.17074564 -0.2193253 0.1120153 0.038908947
0003d0 46 20 23 be 7b db f8 3b 17 66 f9 bc 41 9e 68 bb
       -0.1593028 0.0075945235 -0.030444188 -0.0035494717
0003e0 70 91 54 bc fd 65 2d 3e 2e a8 34 bd b1 2e 70 3d
       -0.012974128 0.16933437 -0.0441057 0.05863828
0003f0 c1 a8 8f bc c5 8f ab bc af 4b 78 3d a1 08 46 bd
       -0.017536523 -0.020942578 0.060619052 -0.048348073

l2.bias f4 [256]
000000 e2 82 c6 3c 08 b9 2d 3d 56 a8 60 3c e0 9b f5 bc
       0.024232332 0.042412788 0.013712009 -0.029981554
000010 5d c5 0f bd c5 f2 0b 3d ae b9 b3 3d b9 21 94 bc
       -0.03510033 0.03416707 0.0877565 -0.018082486
000020 53 26 46 3d 06 5d 5e 3c 76 bb 4c 3d 4d ab 38 bc
       0.048376393 0.013571983 0.049983464 -0.01127131
000030 d7 51 38 3c 1c aa 0b bd 7a 49 62 3c 3a b2 1b bd
       0.011249981 -0.034097776 0.0138114635 -0.038011767
000040 da e5 6e bd 5f b3 4f bd a8 7c 58 3d f4 69 d5 3b
       -0.058324672 -0.05070817 0.052853256 0.0065128747
000050 91 30 44 3b 56 d8 bf 3c 7a e2 f7 3c 3c 44 d5 bc
       0.0029936174 0.023418587 0.03025936 -0.026033513
000060 e2 58 15 bd fc d7 4c 3d 4e 24 05 bd 2f 54 ba 3c
       -0.03646172 0.050010666 -0.032505326 0.02274522
000070 e6 f4 87 bc 25 8f 79 bd c0 4d 1d 3a 4d ca 7b bb
       -0.016596269 -0.06092753 0.00060006604 -0.0038420141
000080 a6 39 18 3d 8b f3 95 3c 73 9f cf bc 7d 78 5d bd
       0.037164353 0.018304607 -0.025344586 -0.054069985
000090 04 44 08 bd 9f 29 85 3d bb a2 63 ba 5e 47 2e bd
       -0.03326799 0.06502079 -0.00086836115 -0.04254853
0000a0 ce b7 fa 3c 28 e3 82 bd 58 cd ff 3c 24 dd 83 bd
       0.030605223 -0.06390983 0.031225845 -0.064386636
0000b0 d3 18 86 bd 19 8c 06 bc 71 a7 6c 3d 32 12 43 3d
       -0.065477036 -0.008212113 0.057776872 0.047624774
0000c0 eb 3a 24 bd e1 9f fa bb 79 d8 3c bc 52 ce 9b 3a
       -0.04009525 -0.0076484536 -0.0115262205 0.001188705
0000d0 34 1e 91 3c 32 4d 68 3c f4 ed 39 bd 12 13 52 bd
       0.017714597 0.014178561 -0.045392945 -0.051287718
0000e0 2e 8c 95 3c 32 ed 54 ba 44 ba 1e bd 04 d5 83 3c
       0.01825532 -0.0008122503 -0.038751855 0.016092785
0000f0 ba 3a 5f 3d d9 4f 7c 3d b6 b7 30 bd d8 d2 01 3d
       0.054499365 0.061599586 -0.04314395 0.031695217
000100 ba 03 86 3c ee 5e 63 3d 51 9c 48 bd c2 06 c3 bc
       0.016359199 0.055510454 -0.0489772 -0.023806933
000110 da 67 53 bd 04 a7 50 3c 1d 87 52 3d 21 b1 7b 3c
       -0.051612712 0.012735132 0.051398385 0.015362055
000120 e3 9f 75 3b 50 66 2c 3d 12 d9 9e 3d 0c 1f 13 3d
       0.0037479333 0.04208976 0.077562466 0.03591828
000130 4a 4f b9 3c fb ab 68 3d bc ff 6b 3c c6 ac 28 3d
       0.022620816 0.05680464 0.014404234 0.041180395
000140 d0 bf f3 3c da 60 53 bb da 30 8d bb f5 80 ed 3c
       0.02975455 -0.0032253773 -0.004308802 0.028992156
000150 99 e8 2d bd 05 53 28 bd 81 bd 95 3b 4f 63 59 bd
       -0.04245815 -0.0410948 0.0045697098 -0.053073224
000160 40 a7 3b bd 31 62 0c 3d 04 a4 18 bd 34 02 65 bd
       -0.0458138 0.03427333 -0.037265792 -0.055910304
000170 75 26 f9 bc 82 eb 1d 3c c1 a0 e5 3c 76 56 f0 3c
       -0.030413846 0.009638669 0.028030755 0.029338103
000180 a9 83 34 3a b9 c1 1a bc 61 23 dc bc fe 5e 00 bc
       0.0006886074 -0.009445601 -0.026872339 -0.007835148
000190 de 12 4b bd 05 e7 03 bd f2 0e 7e 3d c4 54 74 bc
       -0.04957854 -0.03220274 0.06202597 -0.014912788
0001a0 d7 d7 78 bd ad 99 47 bd bf ce 41 3d ff ea 03 bd
       -0.060752716 -0.04873054 0.04731631 -0.03220653
0001b0 05 5d 3e 3c ce 25 b1 bc 3a 90 1e bd fc a7 4b 3d
       0.011618857 -0.021624472 -0.038711764 0.04972075
0001c0 8f 37 2f bd d0 42 e3 3c 71 e2 cf bc 5b 38 a7 3d
       -0.042777594 0.02774182 -0.02537653 0.08165046
0001d0 bc e8 46 3d 6b f5 c5 bc 0f 00 8e 3d 54 2a 1d 3c
       0.048561797 -0.024164876 0.06933605 0.009592611
0001e0 cd fa c1 3c b4 78 11 bd 33 33 bc 3c d3 3b 32 bd
       0.023679161 -0.035515502 0.022973632 -0.043514084
0001f0 91 d8 73 3c 7f 7a 44 3c ee 2d e4 3c e8 5a 3f bd
       0.014883176 0.011992096 0.027853932 -0.046717554
000200 d8 ff 6d 3d f8 a7 7d 3d d5 e8 7a 3d 9f dd 99 3b
       0.05810532 0.061927766 0.061257202 0.0046956087
000210 0f 36 1b bd 1b 96 7d bd 78 2b fa bc 71 20 e8 bc
       -0.03789335 -0.06191073 -0.030538306 -0.028335782
000220 cb ee 77 bd 1b 96 45 3d f5 08 1a 3d ce 46 15 bc
       -0.060530465 0.048238855 0.0376062 -0.009111119
000230 b8 c8 43 3d c3 16 85 3d 12 0c 6c 3d 74 f6 6c 3d
       0.047798842 0.06498482 0.0576287 0.057852224
000240 e8 4f f1 ba 3a cf 1e bd a1 b9 85 bd 98 c4 d8 bc
       -0.0018410655 -0.038771845 -0.065295465 -0.02646093
000250 45 32 49 3c 09 d6 9f 3c f7 fe 4b 3d 1d 44 58 3d
       0.012280052 0.01951124 0.0498037 0.052799333
000260 62 44 38 bd 74 22 1b bc 89 5c 62 3d e3 20 cb bc
       -0.04498709 -0.0094686635 0.05526403 -0.024795955
000270 50 bf cb bc 42 08 69 3c db 03 8d 3d b9 96 f4 bc
       -0.024871498 0.01422316 0.06885501 -0.029857026
000280 2e f3 ae bd 8e 35 56 bd 1e 69 8f ba f5 75 e2 bc
       -0.085424766 -0.052297167 -0.0010941362 -0.027644137
000290 da 9e de bc 99 6b 87 bd 15 19 2b 3c 73 14 d6 3c
       -0.027175356 -0.066123195 0.010442992 0.026132798
0002a0 83 07 05 bc 29 de cb bd ab 0c 8d 3d 6f 9f ca 3c
       -0.008119467 -0.09954483 0.06887182 0.024734227
0002b0 58 73 9c bc f6 9e 8b 3b 7e 09 01 bc 5a 87 73 bd
       -0.019097969 0.004260893 -0.007875798 -0.059455253
0002c0 dc 9d 24 bd 71 c8 18 bd 9d 9e 94 bd b5 6f 5a 3d
       -0.04018961 -0.03730053 -0.072568156 0.05332919
0002d0 05 c9 3a bd d1 53 69 bd 9f 86 e1 bc e0 55 10 bd
       -0.045601863 -0.0569647 -0.027530013 -0.035238147
0002e0 4b 6a 2f 3d 17 b8 59 3d 13 ae 5b bd 6e 43 bf 3c
       0.04282598 0.053154077 -0.053632807 0.023347583
0002f0 4a b8 4a bd 2b 9c 58 3b ee 8e d8 3c b8 d9 b3 bc
       -0.049492158 0.0033052068 0.026435342 -0.021954402
000300 2f a0 9f bc ff c6 30 3d b8 a8 ab bb 3c 5a 06 bc
       -0.019485561 0.043158527 -0.0052386187 -0.0082002245
000310 a5 45 9e bd 80 03 cf 3a 9f e3 f5 bc 8f 4e 86 3c
       -0.077281274 0.001579389 -0.030015765 0.016394882
000320 5f 74 3c bd 2f f2 bb bc 3e 56 30 3d 19 9a 7c 3c
       -0.046009418 -0.02294263 0.043050997 0.015417599
000330 45 47 9e 3d 44 7d 70 bc a5 ce 89 3c 57 5a 9d bd
       0.07728437 -0.014678303 0.016822169 -0.076832466
000340 99 b6 00 bd f8 fe 3e 3d 1a ba 44 bb f8 f3 19 3c
       -0.03142414 0.046629876 -0.0030018152 0.009396546
000350 cb c2 a5 bc b7 33 6d bc 95 d3 87 3c ed b4 1a bd
       -0.020234486 -0.014477662 0.016580382 -0.0377702
000360 f3 7b 16 bd 2f a9 46 3d 3c 64 b6 bc 7c 1e e7 bc
       -0.0367393 0.04850119 -0.022264592 -0.028212778
000370 7f aa 6f b8 60 a6 13 bd 1c ed 80 bd 15 14 62 bd
       -5.7140827e-05 -0.03604734 -0.06295225 -0.055194933
000380 58 3b 25 3d 75 d3 68 3c ac a5 14 bd 7f 03 7b bd
       0.040339798 0.014210572 -0.03629081 -0.06128263
000390 80 03 5f 3d 3e 18 a8 3c ed 80 98 3d 0b fb 7c bd
       0.054446697 0.020519372 0.07446466 -0.06176285
0003a0 c9 e0 63 3c 9a 35 aa bc 8d ba 05 bd eb b3 ef bc
       0.013908573 -0.020777512 -0.03264861 -0.029260596
0003b0 2d 3e 47 3d 61 2f 12 3d fd bd 6e 3b 27 d2 8e bc
       0.04864328 0.035689715 0.003642916 -0.017434193
0003c0 6a f4 95 bd 5d b2 40 bd 53 46 13 bc a0 e4 81 3d
       -0.07322009 -0.0470451 -0.008988935 0.06342435
0003d0 77 5a ce 3c 34 51 f3 3c 55 2b fa 3c b5 55 fd bc
       0.025189621 0.029701807 0.03053824 -0.030924657
0003e0 f0 20 8b 3c 00 75 7e 3d a4 ce b4 3c 72 f0 07 bd
       0.01698348 0.0621233 0.02207119 -0.03318829
0003f0 eb b6 c5 bb 58 11 3f bd 7c 5d 69 3d 2d 9e c2 bd
       -0.0060337684 -0.0466474 0.05697392 -0.09502826

l3.weight f4 [1, 256]
000000 47 74 98 be e4 f3 9d bd c3 8e c1 3e c2 71 4b 3e
       -0.29776213 -0.07712534 0.3780423 0.19867614
000010 00 38 92 3e 60 d5 02 3f 5a 26 97 3e 9d 4d fe be
       0.2855835 0.51106834 0.29521447 -0.4966859
000020 13 b6 57 bc 5b e6 6a be f9 9a 56 3e d5 0e 14 be
       -0.0131659685 -0.22939436 0.20957555 -0.14458783
000030 6b c2 aa be 1e 1c 23 be c2 e0 d9 bd d3 ac 14 3f
       -0.33351454 -0.15928695 -0.10638572 0.5807621
000040 63 49 81 be 6e f5 47 3e 0c 85 ee be ef 63 a6 3e
       -0.25251302 0.19527218 -0.46585882 0.32498118
000050 4d aa a6 3e 20 63 01 bd ff bf b1 ba e3 19 45 3c
       0.32551804 -0.031588674 -0.0013561248 0.012030098
000060 65 d9 21 be 25 9b d0 bd 31 61 02 3e 73 c7 90 be
       -0.15805586 -0.101858415 0.12732388 -0.28277168
000070 f7 58 0f be a0 7f 41 be 0f 7b 4e 3e 89 7f e1 be
       -0.13998781 -0.18896341 0.2016413 -0.44042614
000080 3f df 5e 3e 6d 47 92 3e 01 74 e2 3e b3 29 d2 3e
       0.21764849 0.2857012 0.4422913 0.4104744
000090 99 9b d4 3e 42 df 97 be db 2e b3 bd 81 24 1f 3e
       0.41524962 -0.2966252 -0.08749171 0.15541269
0000a0 4f 7c 6f 3e df da ae 3e 53 1b 15 be 7a bc d3 be
       0.23387264 0.3415136 -0.14561205 -0.41354734
0000b0 dc 92 2c 3e a2 9b b7 bc d9 02 73 bd ed 5d 46 be
       0.16852897 -0.022413079 -0.059328888 -0.19371767
0000c0 46 7d 8e be b7 79 ed 3e 20 3c 18 bf 92 22 e1 bc
       -0.2782995 0.46381924 -0.59466743 -0.027482305
0000d0 ac 75 9c be e2 05 80 3b 08 30 a3 3e 75 fe 74 3e
       -0.30558527 0.0039069513 0.31872582 0.23925193
0000e0 c8 64 b6 3e b5 58 d9 be 21 4f 0a 3e 93 80 8b be
       0.35623765 -0.4245049 0.13506748 -0.27246532
0000f0 2f 5a 72 3e 4c 7e 94 3e b0 07 3c 3e 1a b5 dc 3e
       0.23667215 0.29002607 0.18362308 0.4310692
000100 cf 0b c1 bc d5 8d 6c bd a7 bf 02 bd 02 cb 0a bf
       -0.023565201 -0.05775245 -0.031921055 -0.54216015
000110 df e8 cd 3e 68 a3 93 be ed 3e d8 be 7f 86 7e 3e
       0.4021673 -0.28835607 -0.4223551 0.24855994
000120 24 0e 82 3e 23 01 c2 bd af 63 25 3f bd 67 18 3e
       0.25401413 -0.09472873 0.6460523 0.14883323
000130 88 94 9f 3e 65 33 03 be 33 50 03 3f 2c f1 3d 3e
       0.31168008 -0.12812574 0.5129425 0.18549031
000140 ed d8 87 3e 4d 3b 8b 3e 66 af 45 be 7b 3a 16 bd
       0.2653269 0.2719368 -0.1930519 -0.036676865
000150 34 0f 68 be b7 9a d1 3e e4 f9 33 be f7 28 10 3f
       -0.2266205 0.4093835 -0.17575794 0.5631251
000160 bc 93 b7 3e 9a 49 30 be ce cf 99 bc 42 1f 84 3e
       0.358549 -0.17215577 -0.018775847 0.25805098
000170 fb b5 0b be 6b 58 5b 3e 85 82 b7 bc a3 c1 58 bc
       -0.13643639 0.21420448 -0.022401104 -0.01322976
000180 7e 6d c0 bd 3b 30 e1 be 6c f8 bf be 13 5c 30 be
       -0.09395884 -0.4398211 -0.37494218 -0.17222624
000190 65 93 54 3e 47 67 b2 3e eb 02 c1 39 3b 12 42 be
       0.20759352 0.3484442 0.00036814003 -0.18952267
0001a0 08 b9 2b bf 3b 91 ce 3e 0a 2a ce be 09 c6 a0 3e
       -0.6707921 0.40345177 -0.40266448 0.3140109
0001b0 b7 b0 a8 3e 5e e0 c2 be 0a 6d b5 be 28 23 97 be
       0.32947323 -0.38061804 -0.35434753 -0.2951901
0001c0 c4 75 87 bc c5 94 02 3f d5 c2 6b be a2 62 4e 3e
       -0.016535647 0.51008254 -0.23023541 0.20154813
0001d0 e3 6e 82 3a f6 53 f5 3e 8b 8d 93 be b9 91 8a 3e
       0.000995126 0.4791562 -0.28818926 0.27064303
0001e0 af 61 2b 3e 14 c2 be bd f0 64 b3 bd cd ea cf 3e
       0.16736482 -0.09314361 -0.08759487 0.40608826
0001f0 a8 11 e5 3e 25 f7 8c bd 17 31 8d be 0f de bc be
       0.44740033 -0.068830766 -0.27576515 -0.36888167
000200 e8 a7 e7 bc 60 d2 4b 3e 5f 7d b3 3e ee f6 71 bd
       -0.028278306 0.1990447 0.35056588 -0.05907338
000210 d7 48 b9 3e 67 4c 38 3e 9e 79 23 be 0d bc d0 bc
       0.36188385 0.17997895 -0.15964362 -0.025480295
000220 0d c9 87 3e 3a fb 66 3e 55 c8 0c 3e 88 bc 89 3e
       0.26520577 0.22556773 0.13748296 0.2690165
000230 1c b9 aa 3e 67 26 b6 be 22 dd a1 be 94 4d 81 be
       0.33344352 -0.35576174 -0.31614023 -0.252545
000240 18 61 fe be 3f 28 c8 3e 75 24 2d be 8b f3 33 bf
       -0.49683452 0.39093205 -0.16908439 -0.7029349
000250 0d d1 03 bf 38 12 3f 3e 3d ad d6 3d 9a 44 b8 3e
       -0.5149086 0.18659294 0.10482261 0.3598984
000260 91 71 7c 3e 67 43 d1 3e d1 d3 3f be 40 f2 5e 3e
       0.24652697 0.40871736 -0.18733145 0.21772099
000270 5a 9f 25 3e 20 04 18 3f bd ac a1 bd b2 cd f8 3e
       0.16174069 0.59381294 -0.07894275 0.48594433
000280 47 2a 0b bf 83 61 b7 be cc 8d a2 bc 76 4d b0 be
       -0.54361385 -0.35816583 -0.019843005 -0.34434098
000290 8f c5 0f 3e 1c 35 b9 be ac 27 7e 3e 4e e6 d4 3e
       0.14040206 -0.36173332 0.24819821 0.4158196
0002a0 e6 de 9e 3e 32 49 95 be ab 80 71 3e 17 69 b0 3e
       0.31029433 -0.29157406 0.23584239 0.34455177
0002b0 71 b4 a8 3e 25 3f 03 be b8 0c 7f 3e fe d3 ce 3e
       0.32950166 -0.12817056 0.24907196 0.40396112
0002c0 54 a0 e1 3e ef 02 a7 3e db 0a 94 be e4 f1 86 3e
       0.44067633 0.32619426 -0.28914532 0.26356423
0002d0 73 1a da 3e 3f 62 47 bf f2 2c 67 3e 8c 09 2d bf
       0.42598304 -0.77884287 0.22575739 -0.6759269
0002e0 76 ad 43 3e 7c 6a 12 bd 11 db b0 be 4f 49 ce bd
       0.19109139 -0.035746083 -0.34542134 -0.10072576
0002f0 dd 0b 0b be a5 3b be 3d 5a dd af 3e d6 63 81 3e
       -0.13578744 0.0928872 0.34348565 0.2527148
000300 38 b7 10 be ef f0 8e bd 4b 3f 4c 3e f1 42 14 be
       -0.14132392 -0.06979548 0.1994602 -0.14478661
000310 60 19 18 bf 2f c8 d3 3e 9b 48 bd be 84 86 f6 ba
       -0.5941372 0.41363665 -0.36969456 -0.0018808399
000320 d2 6a b9 3e 5f bc bc be eb e2 c5 3e 52 91 b3 be
       0.3621431 -0.36862466 0.38649687 -0.35071808
000330 95 92 22 bf 4e 79 8e be 62 34 99 be 25 35 38 bf
       -0.63504916 -0.27826923 -0.29922777 -0.7195609
000340 1e b9 b7 be f8 0a 63 3e 5c fd 58 3e 7f 9d 51 3e
       -0.3588342 0.22172153 0.21190399 0.20470236
000350 e3 a8 6c 3b 9d 9c bf bd a3 d2 86 bd 27 06 e2 bd
       0.0036111407 -0.093560435 -0.065831445 -0.1103633
000360 3a ba 0b bf 95 3e c4 3d 59 97 53 bd 57 97 e1 3e
       -0.54581034 0.09582249 -0.05165801 0.44060776
000370 d3 42 fa 3e 52 a6 0e 3f e2 26 14 3f ed 36 03 3f
       0.48879108 0.55722535 0.5787183 0.51255685
000380 67 a5 49 3e 77 e8 47 3e 4a 2a f0 3e 6d c8 2d be
       0.19692002 0.19522272 0.46907264 -0.16970988
000390 f9 e5 e7 bd 50 c9 40 3e 84 6a f0 be d3 ba 00 bf
       -0.11323161 0.18826795 -0.46956265 -0.5028507
0003a0 26 56 9b be 02 a8 0f 3e a2 43 84 bd 23 f1 c3 bd
       -0.30339164 0.14028934 -0.064582124 -0.095674776
0003b0 ef dd 77 3e b2 14 89 be 93 3e b7 bc 8c 76 0d 3e
       0.24205755 -0.26773602 -0.022368705 0.13814753
0003c0 33 7e 29 be 62 8e d0 be f2 40 99 3e b4 b7 77 3e
       -0.16552047 -0.4073363 0.29932362 0.24191171
0003d0 13 85 53 3e 6a 6a c0 bd da 24 89 3d 17 10 55 3e
       0.20656233 -0.09395297 0.06696482 0.20806919
0003e0 cd dd a3 be c2 24 c8 3e ef 1f 0f 3f 43 f7 43 3f
       -0.32005158 0.39090544 0.559081 0.76549166
0003f0 d0 c3 98 be 71 0c 89 be d9 3e 13 be 7b be e5 be
       -0.29836893 -0.26767305 -0.14379443 -0.44871888

l4.weight f4 [256, 28]
000000 84 dc 97 3d ad a4 ee 3e 60 dc ca be 75 37 60 be
       0.07415107 0.46610013 -0.39621258 -0.21896155
000010 01 fe 1f bc aa d3 94 bb 38 af 6b be 49 f4 14 3d
       -0.009765149 -0.004541834 -0.2301606 0.03636578
000020 39 24 72 3c ff 4f c3 bd d6 cb 31 3d 30 a5 23 be
       0.014779144 -0.095367424 0.043407284 -0.15980983
000030 16 bd f0 3c 85 0b 8f bc 18 56 9b 3c 75 ee 21 3c
       0.029387038 -0.017461548 0.018961951 0.009883513
000040 04 17 25 3e b1 76 ba bd d9 7a 20 3e 6a c0 38 3e
       0.16122061 -0.0910467 0.15671863 0.1804215
000050 e0 81 26 3e 94 a0 e1 bd f5 52 e3 3d d9 29 00 be
       0.16260481 -0.11016956 0.11099807 -0.12515964
000060 13 e9 4c bd 38 01 b4 bd 95 0a 9a bb 19 da ff bc
       -0.050026964 -0.08789295 -0.0047009685 -0.031231927
000070 62 45 58 be fa 22 3c bf 78 15 b4 be 24 23 cb 3e
       -0.21120217 -0.7349087 -0.3517263 0.39675248
000080 5f f1 e3 bb c9 0b af bd 62 ff 14 3e 51 57 dc 3d
       -0.006956264 -0.0854717 0.14550546 0.10758842
000090 f6 d5 f8 3c 33 4d c3 3d 26 e5 37 be 1c 20 0f 3e
       0.030375462 0.09536209 -0.17958507 0.13977093
0000a0 51 af d1 bd 3a 3b 04 3e 4a e5 28 3e cc b6 15 3c
       -0.10238517 0.12913218 0.16493717 0.00913782
0000b0 2c ad de bd 93 ba 16 3e 3f f8 3e bd 7a 7d 03 be
       -0.10872874 0.1471961 -0.046623465 -0.12840834
0000c0 a4 da c9 bb ed f1 c2 bd 66 d2 3f 3d 93 57 61 3c
       -0.006160097 -0.095188 0.04683151 0.0137537895
0000d0 3a 9c af bd 64 b4 78 3d de fe aa 3b 46 d9 00 bb
       -0.0857472 0.06071891 0.005218371 -0.0019660755
0000e0 e9 44 65 3e 29 72 1e bf de fc c3 3d b7 e4 a3 bd
       0.22389568 -0.61892945 0.09569715 -0.08002608
0000f0 9c 04 23 3e 4b 4a 50 3e 11 18 e8 3d c9 76 98 3d
       0.15919727 0.2034084 0.11332715 0.074445315
000100 10 82 82 be a5 b0 16 be 87 83 9c 3d 6b d8 5c 3d
       -0.25489855 -0.14715822 0.07642274 0.05391733
000110 30 28 6e 3c 06 17 48 bd 9f d5 ba 3d 13 d3 1d 3d
       0.014535949 -0.04885008 0.09122776 0.038531374
000120 92 1a 4e bd 9d 8c dd bd 44 71 2e bc 0d 20 93 3c
       -0.05031831 -0.108178355 -0.010647122 0.017959619
000130 a6 3b 16 bd 25 f3 d5 3d 70 dc 1c 3e 4b fb 30 3b
       -0.03667798 0.10446767 0.15318465 0.002700525
000140 b0 f0 a0 3d 8d 93 64 bd 13 d3 39 3d 3b f3 95 3c
       0.078584075 -0.055804778 0.04536731 0.018304458
000150 08 83 c6 3e 05 7e c3 be b3 15 28 bd 8e 1d 02 3d
       0.38771844 -0.38182083 -0.04103632 0.031766467
000160 6d c2 85 bd c8 54 af 3d c5 27 84 be fc 5b a4 3d
       -0.065312244 0.085610926 -0.25811592 0.08025357
000170 6d 4e 1b 3e eb 85 a8 3e f6 2c 39 bd ae f2 3a 3d
       0.15166636 0.3291467 -0.045208894 0.045641594
000180 37 d9 c7 bc 26 6d 1b bd e0 c8 da bd 90 3a 12 be
       -0.024395568 -0.03794589 -0.10682845 -0.14280152
000190 f8 16 2d 3e aa 86 3c 3e 85 97 3f 3e 08 a4 6f 3d
       0.16903293 0.18410745 0.18710144 0.05850604
0001a0 df d7 42 be 13 43 08 3e 7e e7 8b bd b6 4e 9b 3d
       -0.19027661 0.13306837 -0.06831263 0.07583372
0001b0 0d 68 8f 3d c2 e8 1f bd a9 0c 90 bc f9 5e 8d 3c
       0.07002268 -0.039040335 -0.017584162 0.0172572
0001c0 bb f8 d6 3e d4 41 d0 3e d7 38 8e 3e ce 0d bf 3c
       0.4198664 0.40675223 0.2777774 0.023322012
0001d0 f3 68 37 3d 82 7b db 3d 50 c2 27 3e 4c b8 99 bd
       0.04477782 0.107169166 0.16382718 -0.07505855
0001e0 04 3d 67 bd 34 16 8a bd c0 dc 87 bc f6 e2 03 3e
       -0.056454673 -0.06742516 -0.016584754 0.12879547
0001f0 45 49 1e bd 56 c5 f5 3d 30 33 67 3e 4d e1 fe 3c
       -0.038644094 0.120005295 0.2257812 0.031113291
000200 22 e8 e2 3d 37 95 27 3b 8b 64 c1 bd 78 1c ca 3d
       0.11079432 0.0025571117 -0.09443005 0.09868711
000210 1f 31 27 3e 06 11 e5 3d 49 13 2c be 8e 87 f2 3d
       0.16327332 0.111848876 -0.16804232 0.11842261
000220 89 4f 02 bd ab d0 40 3d 54 b1 2f bd 7d 7e 16 3c
       -0.031814132 0.047074 -0.042893723 0.009185431
000230 67 5d 86 3e f6 09 15 bf 18 c0 76 3e 30 06 28 3c
       0.26243135 -0.58218324 0.24096715 0.010255381
000240 fe 82 46 be 99 92 c1 bd 80 ce 06 be c4 55 de 3d
       -0.19385907 -0.094517894 -0.13164711 0.10856202
000250 28 47 e8 3b 57 30 ff bd 0b 11 61 3d 9b 8f 8e be
       0.0070885606 -0.12460392 0.054947894 -0.27843937
000260 7c 90 41 be 8d 73 3e 3c 06 98 47 bd c7 96 cb 3d
       -0.18902773 0.011624229 -0.048728965 0.09940868
000270 08 30 17 3e 0b 7a 95 ba 0a f2 fd 3d a5 5c e0 3c
       0.14764416 -0.001140417 0.12399681 0.027387926
000280 ce 17 3a 3e 79 a5 e5 3d 5b bd 31 3e 3b 75 29 bd
       0.18173143 0.11213202 0.1735739 -0.041371565
000290 5d c6 5a bd fe ac ff bd e5 72 71 bd ce 5d f3 3d
       -0.05341183 -0.124841675 -0.058947463 0.11883126
0002a0 2a 22 c3 3d b5 61 c5 bd bb 75 25 3f f3 6b e7 3e
       0.09528001 -0.09637777 0.6463277 0.45199546
0002b0 b6 76 70 3d ab 49 45 bc b8 43 96 3d 48 30 1b bc
       0.05870696 -0.01204149 0.07337135 -0.00947196
0002c0 b3 0e 2f bd c1 7e 69 3d 00 ea a5 bd 7c 9b 24 be
       -0.042738628 0.057005648 -0.081012726 -0.16074938
0002d0 63 d8 db ba fe 9f 45 bd 76 2a ac 3d 25 35 d4 bd
       -0.0016772862 -0.048248284 0.08406536 -0.10361699
0002e0 3e 6f 47 3e f1 2a c1 3d c8 60 1e 3e 59 d9 2f be
       0.1947603 0.094320185 0.15466607 -0.17172755
0002f0 22 d9 83 3d d0 88 21 3e 4a cf 0c 3b fd ad 44 3d
       0.06437899 0.15774846 0.0021485859 0.04801749
000300 79 39 11 3c fc 91 41 bd b2 78 a6 3d 5d 62 93 bd
       0.0088638 -0.047258362 0.081284896 -0.07196496
000310 04 16 5f 3e a1 fb 89 3e f6 8b 2e 3e cf 69 85 bd
       0.21785742 0.2694979 0.17045578 -0.06514322
000320 da c9 11 be 36 77 51 3e 6c 31 a5 3c 79 cb 73 bd
       -0.14237157 0.20455632 0.020165168 -0.05952022
000330 87 92 d3 3d 60 f3 8f bd 7c 5f 08 bd 68 9b 76 3e
       0.10330682 -0.07028842 -0.033294186 0.2408272
000340 84 1c 0c 3e 42 74 e5 bd b7 29 f2 bd 93 af 9d 3d
       0.13682753 -0.11203815 -0.11824363 0.07699504
000350 ec a3 82 bd ac 9d 57 3e 3a 69 9c bc eb d2 1b be
       -0.06378922 0.21056241 -0.019093145 -0.15217178
000360 04 93 3c 3e 09 6c 91 bd 37 9c ff bd 05 6a 85 bc
       0.18415457 -0.07100684 -0.124809675 -0.016285906
000370 ce ce 73 3c ab 01 cc bd 8d bb 75 bd ae 5e 2e 3e
       0.014880849 -0.09961256 -0.059993315 0.17028305
000380 fc 87 e5 3d 9e ab 99 be 83 13 1a 3f 34 4d 82 bd
       0.112075776 -0.30013746 0.6018602 -0.063623816
000390 7e 3e 14 3c 39 af cd 3d 45 f8 1d be 20 8a ec 3d
       0.009048102 0.10043187 -0.15426739 0.11549783
0003a0 39 98 17 bd 0d 8c 4a be 86 9a c9 3d c9 a6 03 3e
       -0.037010405 -0.19779988 0.09843926 0.12856592
0003b0 9c 1f 17 3d 4a b8 57 be 51 8a d0 3d 0a 3f 06 3e
       0.03689538 -0.21066394 0.10182632 0.13109985
0003c0 b5 db fc 3d 02 83 00 be 8c 33 57 bd a9 e6 bd 3d
       0.12346593 -0.12549976 -0.052539393 0.092725106
0003d0 8d a3 e9 bd 46 39 81 bd 92 f1 64 bd ff b6 0a bd
       -0.11408148 -0.06309752 -0.055894442 -0.033865925
0003e0 1e 5c 3e bd df 74 41 3d 6c 98 fe 3d ea c9 98 3d
       -0.04647457 0.047230598 0.12431416 0.07460387
0003f0 04 f0 02 bd 03 54 85 3f ab 70 0d bf 16 a6 cc be
       -0.031967178 1.0416263 -0.5525004 -0.39970464

l4.bias f4 [256]
000000 65 cf 13 3d 23 f5 56 3d 0f 26 f9 bd 95 1d 09 be
       0.03608646 0.052479874 -0.12165462 -0.13390191
000010 0d 8f d0 bd 4f 58 13 be ae a3 ab bd 8f 96 31 be
       -0.10183535 -0.14389156 -0.08380829 -0.1734259
000020 e8 34 d4 3d fb 11 94 3d a8 81 f2 bc bc b8 f3 3c
       0.103616536 0.07229992 -0.02960284 0.029751174
000030 fd 5b 30 be 93 9b 8b bc 6d 0d 23 3d cb d3 5f be
       -0.1722259 -0.017041957 0.039807726 -0.21858136
000040 9c 32 2f be 70 01 a9 bc 74 38 0f be 6e ec a3 3c
       -0.1710915 -0.020630568 -0.13986379 0.0200102
000050 07 1f 95 bd 0e b8 4e 3e 96 18 d2 bd 71 6a 27 3e
       -0.072813086 0.20187399 -0.10258596 0.16349198
000060 7d fb 0a be 41 2a ab bd 47 3d 16 3d 6d bb fe bd
       -0.13572498 -0.08357669 0.036679532 -0.124380924
000070 4d 5f db bd 82 ff 38 3e 1d b4 18 be a0 35 33 3d
       -0.107115366 0.18066218 -0.14912458 0.043752313
000080 65 ed 4d 3e c6 24 09 be 0e f3 11 3b 0b ab c6 3d
       0.2011009 -0.13392934 0.0022270116 0.097005926
000090 a8 a2 48 3d b5 79 e6 3d a8 1d 99 bd 01 99 ba 3d
       0.048983246 0.112536825 -0.074763596 0.091112144
0000a0 7b 3d 4d 3c b6 4c 2d 3e 87 26 86 3d ec 4d 60 3d
       0.012526865 0.16923794 0.06550317 0.054761812
0000b0 f0 cc 31 3e 70 e2 09 be aa ae c2 3d f4 f9 04 3d
       0.17363334 -0.13465285 0.09505971 0.032464936
0000c0 2a d2 23 be 04 da 17 3b f9 5b 0a be 18 4f 9d 3d
       -0.1599814 0.002317072 -0.13511647 0.076811016
0000d0 95 66 15 be 08 0f 25 3d a3 e9 d3 3d 35 f9 f0 bc
       -0.14589913 0.040297538 0.10347297 -0.029415706
0000e0 6a 1e d2 bd 1c 69 1d be fb cd ab bd ac ef 25 3c
       -0.10259707 -0.15372127 -0.08388897 0.010127943
0000f0 47 a5 1c 3e 96 0c b8 3d dc 93 16 be e4 e9 9a 3d
       0.15297423 0.089867756 -0.14704841 0.07564142
000100 4e ad b9 3d 72 e3 b4 bb 70 14 1e 3e 35 b0 41 be
       0.09066258 -0.0055202777 0.15437484 -0.18914874
000110 b0 82 6b 3d 08 5d a5 3a 43 e3 07 3e 71 16 04 3e
       0.05749768 0.0012616226 0.13270287 0.12899186
000120 3a 38 a6 3b 89 95 50 3d 6a 69 52 3e 5b a0 b2 bd
       0.0050726207 0.050923858 0.20548025 -0.08721992
000130 c0 44 ab 3d 90 96 11 3e ff 39 64 bd dd 63 e0 3b
       0.083627224 0.14217591 -0.055719372 0.006847842
000140 70 b8 e2 bd 36 67 a2 bd ba 6d 1a 3e bb f6 be bc
       -0.11070335 -0.07929842 0.1508092 -0.02331101
000150 8c 9b e7 bc 4f 3d b3 ba 07 ac 23 be 27 a5 72 3e
       -0.028272413 -0.0013674888 -0.15983592 0.23695813
000160 49 30 54 3c 24 4a a8 3d 29 c3 a1 3d 70 2c 05 be
       0.012950965 0.08217266 0.07898552 -0.13005233
000170 30 da 31 3e 8e 81 89 bd 43 68 4a be 3b 90 ba bd
       0.17368388 -0.06714164 -0.19766335 -0.09109541
000180 a6 6d 17 3d 1e 00 17 3e 24 2c 0c 3e ac 01 e7 bd
       0.036969803 0.14746138 0.13688713 -0.11279616
000190 66 b2 13 3c c5 95 14 be 8c da d7 3c 8b 96 0e 3e
       0.0090147015 -0.14510258 0.026349328 0.13924615
0001a0 9a 0d 21 bd 06 3f 15 3e 95 3f 15 bc 17 43 1e be
       -0.039319612 0.14574823 -0.009109397 -0.1545528
0001b0 e6 c3 07 be 54 9e a6 3b dd 5a ab bd 93 e0 c7 3d
       -0.13258323 0.005084792 -0.0836694 0.09759631
0001c0 a3 55 5c be 64 e3 16 be d7 2e 9f 3d 31 16 ff bd
       -0.21517043 -0.1473518 0.07772606 -0.124554045
0001d0 f0 4c 4f be dd 92 03 3e 1f 76 c3 bd 9f b5 5b be
       -0.20244193 0.12848993 -0.09544014 -0.21456002
0001e0 2a cb 5d 3e 31 42 cd 3d 03 8c 83 bd 26 be f6 3d
       0.21659532 0.10022391 -0.064231895 0.12047987
0001f0 4f 6f 2a 3e 24 e7 fe bd 71 67 fe bc dc 81 69 be
       0.16644023 -0.1244643 -0.031055184 -0.22803444
000200 13 c1 9b 3d b3 76 ac 3d 4e 84 ea bd 87 d2 f8 3d
       0.07605185 0.084210776 -0.11451016 0.1214953
000210 c3 d1 fc 3c 54 2e ab bd f2 8a 2d 3e 28 83 85 bd
       0.030861741 -0.08358446 0.16947535 -0.06519157
000220 16 29 7f be ae f5 1e bd 6a 0f e3 bd 6a dd 58 be
       -0.24918017 -0.038808517 -0.110869244 -0.21178213
000230 01 67 6b be 99 15 5d bd 32 ee dc 3d 08 43 61 3d
       -0.22988512 -0.053975675 0.1078762 0.054995567
000240 34 f7 4a 3e c0 b8 7c 3d 60 9c 48 3e d4 bc b2 b9
       0.19820863 0.06169963 0.19590902 -0.00034091494
000250 7f bf 94 bd bf 8e bf bd aa 2e 3f be 73 d4 c0 bd
       -0.072630875 -0.093533985 -0.18670145 -0.094155215
000260 f7 10 1c 3d dd b9 ea 3d 01 fb f2 bd f2 a5 30 be
       0.038102116 0.11461232 -0.118642814 -0.17250803
000270 af 45 12 be 0a b6 0c 3d fb c4 55 bc 73 41 9b bc
       -0.14284395 0.034353293 -0.013047452 -0.018952107
000280 22 19 a6 3d d8 67 77 b9 09 3b ec 3c 8e 46 bd bd
       0.081102625 -0.0002359444 0.028836744 -0.09241973
000290 03 c8 00 be fc b4 10 3e a5 54 8e bd 35 bc 37 3d
       -0.12576298 0.1413154 -0.069497384 0.044857223
0002a0 23 de d2 3d fe f2 49 bd 98 1a 4d be 28 8d ca 3d
       0.102962755 -0.049304 -0.20029676 0.09890205
0002b0 11 e0 ff 3d 80 95 b2 bd ae 17 e3 bd 81 69 36 3d
       0.12493909 -0.08719921 -0.11088501 0.04453421
0002c0 53 c3 62 bd 52 a1 79 3d 7d 1e 03 be 54 0f c4 3d
       -0.055362057 0.060944863 -0.12804599 0.09573236
0002d0 86 43 41 be 41 72 0b 3d a2 d8 d2 3c 00 2c 4d 3e
       -0.18873414 0.034044508 0.025738064 0.20036316
0002e0 fa 10 2d 3e dd c3 75 bd a0 b4 12 3e f1 4f 6f 3c
       0.16901007 -0.060001243 0.14326715 0.014606462
0002f0 af 34 e4 bc 3d 53 1c be e6 db 32 3e 66 4b b5 3d
       -0.027857153 -0.15266128 0.17466697 0.08852272
000300 26 5d 1c 3e 7d 19 7d bd e4 4f b7 3d 8d 03 a1 3d
       0.15269908 -0.061791886 0.08950785 0.078620054
000310 d7 af b6 3d 00 ce 9b 3c 2f 81 57 3d 84 b7 c8 3d
       0.089202575 0.019019127 0.052613433 0.09800628
000320 3b ce 8f bc 0c ed 6d bd 62 b4 07 3d 7e ae 1e 3e
       -0.017554393 -0.058087394 0.03313101 0.15496251
000330 9e 6c 83 bd 1c 30 e1 bd 47 ba fe 3d f8 d7 48 3e
       -0.064172015 -0.10995504 0.12437873 0.19613636
000340 43 a8 05 3e 23 10 2c be 16 77 e2 ba 42 16 1e 3e
       0.13052468 -0.1680303 -0.0017277922 0.15438178
000350 9e 11 09 be 6f 32 2c bd 3b 16 15 bd 3d e1 25 bd
       -0.13385627 -0.042040285 -0.036398154 -0.040498007
000360 86 7f 18 be 36 07 b5 3d 04 ac 22 be 22 f1 0c be
       -0.14892396 0.08839266 -0.15885931 -0.1376386
000370 3f 8b 46 bc 8a 2c f4 3d 6b 7f 96 3d 05 00 1a bc
       -0.01211816 0.11922558 0.07348522 -0.009399419
000380 19 12 16 be 85 8b b9 bd 39 a3 44 3e 69 51 fc bd
       -0.14655341 -0.09059814 0.1920289 -0.12320215
000390 f9 55 c4 3c 17 a2 61 bd 31 f9 cf 3d fd f3 84 3d
       0.023966776 -0.05508622 0.10154951 0.064918496
0003a0 ab a5 c9 bd 10 6b 18 be e5 6d 63 bd 27 f9 50 3d
       -0.09846052 -0.14884591 -0.055524725 0.05101886
0003b0 7c 28 cf bd c3 8c 37 3e 65 09 82 bc 93 be 4f bd
       -0.10115144 0.1792479 -0.01587362 -0.050718855
0003c0 4d 62 62 3d 47 83 ec 3d 9f 4f 8b bd 02 95 fa 3c
       0.05526953 0.11548477 -0.06802296 0.03058863
0003d0 4c 52 5b 3e 67 ec b5 bd 2b a3 7f 3d c6 a1 29 3c
       0.21418113 -0.08882981 0.06241147 0.010353511
0003e0 bc 7e 17 be 3d cd c4 3c 59 de a5 3d 61 1b 06 be
       -0.14794439 0.024023646 0.0809905 -0.13096382
0003f0 64 40 2d be 0c eb 16 be b4 b0 08 be 66 20 ce 3c
       -0.16919094 -0.14738101 -0.13348657 0.025161933
