HardcoreVersion_7500_Working/critic/ppo_q_critic3700.pth (torch, 592130 bytes, 10 tensors)

l1.weight f4 [256, 28]
00000000: cca5 63bd 3488 813e 428e 49bf e4c3 bdbe
00000010: 31ee 7c3d f680 babd f93c c13d 9b3c 963c
00000020: e57f 3e3e 7f38 8b3d ba69 13bd c456 8bbd
00000030: bb5c 883d c223 8d3c b79d babd 2781 333e
00000040: 5484 7c3e c0be f93e dfe6 bf3e 4483 24be
00000050: 927a 10bf e606 443e 9c5b 723e 9236 1dbe
00000060: 0eab 8cbd d519 da3d 82f0 95bd f0bf 413d
00000070: 79bc b8be 97cc 88bf 97bc b33b 4470 213f
00000080: 9df3 8fbe db93 c23d 37f8 b1bc 5786 7b3d
00000090: ae79 b93d 003e 35bd fb16 e7bd 9267 38be
000000a0: 61e9 94bc 54a9 e8ba 6d0e 90be 2d49 80be
000000b0: 9ea5 1ebd 8e85 97bd c89b 31bd 6430 b2bd
000000c0: da8b 3c3e 6eb2 a63e 9fc3 593e f22b 55be
000000d0: 6a17 4bbc 686c b83d 6522 3c3c 4689 9ebc
000000e0: 8e85 eb3e e65a 853f ed55 17bf 8fb3 36bf
000000f0: cd53 fe3e 1786 8d3e b7f8 98bd 91cc 003d
00000100: c9b0 203e 0401 07be 3a44 8a3d c7cb 56be
00000110: a898 19be 2075 8c3d 3ed5 b0be 3b3f 47bd
00000120: 064d 5bbe 8176 813c 415c 123e b979 433e
00000130: 6adf 9a3d 7be7 b5bd 5337 9ebc 93ce c73d
00000140: 2c43 313e 7932 68be 1720 273d 7a6b a0be
00000150: 158f b7be 693d 83be 305d 893e 0db2 4ebd
00000160: 16b7 05be 851e 3b3a 4fe0 c53d ed96 5f3c
00000170: 8967 c63d 33c0 29be 4850 c9bc a86c c33d
00000180: 9bfa 6a3d 437a 48bd 4fdc 55be 98b5 083d
00000190: 4cdd 073e 6fa9 d63d 6fed 94bc 50dc da3d
000001a0: cbc4 6f3e fbbf 893d cb9c 573e 8a5c 80be
000001b0: 16dc 363b ddba af3c e2ff ff3b 3c02 d53d
000001c0: 5292 5d3e 9e78 e13e 0405 5dbf c425 6abf
000001d0: dcbc 00be 12dc b83d 9871 dd3d 51cf 863c
000001e0: cb90 ec3d 46d7 fe3d 4094 273d ba9c d13c
000001f0: 226e 133e db73 813d de08 62be cb84 b93c
00000200: 674c 90bb e606 65bd 3c52 a83e 9f43 983e
00000210: 68b5 7b3d a56a 3bbe ac0b 053e 0e5a 1fbd
00000220: 1e44 d63c 1b7f d03d 3788 c0bc 5f84 103e
00000230: ef76 253e d5c2 d03e 3169 8dbd 1dad 34bf
00000240: e3c1 003e 3285 3e3d 0084 1abe 02a6 4f3d
00000250: 2abf a5bc 056e 563e f923 cabc 6fce dabd
00000260: 9b5e 2cbd 4312 403e ff43 d53d 0263 c13c
00000270: 7bc0 373e 235e 1f3e bc2c 96bd 932b cc3d
00000280: 0af2 2f3e 557f 6e3e f9b3 513d 84d0 3dbd
00000290: 9b13 253d 20e6 123c c73b 953d d4d5 ef3b
000002a0: 6ee2 bb3e 4644 733d 929e 0fbe 6e8a d7bd
000002b0: 350a 0d3f 32ba 873e 5fd3 ae3d 58f6 f93d
000002c0: 2fb1 d7bd aee9 c43e 2368 88bd b66f 6a3d
000002d0: 36c0 e6bc 8302 9cbd 4e26 72be 5ca5 0bbe
000002e0: 1913 d0bd 1071 33be d5ba 86bd 4d55 933d
000002f0: ca70 873b 2609 363c 00cf 0bbd e390 163d
00000300: 2014 ec3c df25 1dbe c970 4ebd e5e6 5f3d
00000310: 96e3 a9be b29b 77bf 3284 bc3e fd53 993f
00000320: 8783 0b3e 80d6 51bd 2cec 7a3c dc36 acbc
00000330: 1213 183b 080a 2b3e 41bc b3b8 1921 ec3d
00000340: 65a0 023e e7b4 20be 8c7b b53d 0f62 8fbe
00000350: 198a 9ebe faf6 c8be 2a05 1d3e 72bc 9d3d
00000360: cf19 1bbe e1e4 053e 1a1e 823e 746b 0c3e
00000370: 5c57 9b3d 72b5 1fbd c1c8 e23c 3231 0d3d
00000380: 436e bebe a655 64be 8da9 0f3e 41c4 7a3c
00000390: 7acf 81be b4f7 6dbd 1c03 c3bd ea22 e83c
000003a0: 3425 6e3e 67b4 773e b0a0 dc3c 8a51 ffbe
000003b0: d12d 16bd 7f15 bdbe cbd8 773d a7f3 103e
000003c0: cd8e 38be 16e0 d1bb 8bc5 0dbe 21c3 0abf
000003d0: 3a5c 21bf 9b43 8fbd 534e 3c3e 7581 233e
000003e0: 0637 00ba 632a 3ebd 681c 66bd ffc9 debd
000003f0: c758 4a3f 46c1 a63f 2058 f5bd 16a3 ca3d
-0.055578038 0.25299227 -0.78732693 -0.37063515 0.061750595 -0.091066286 0.09435458 0.018339446
0.18603475 0.06797885 -0.0359895 -0.068036586 0.06658312 0.017228965 -0.09112113 0.17529736
0.24659854 0.48778343 0.37480828 -0.16065699 -0.5643703 0.19143257 0.23667759 -0.15352848
-0.068685636 0.10649458 -0.07321264 0.047302186 -0.36081293 -1.0687436 0.005485128 0.6306193
-0.2811555 0.095008574 -0.021724803 0.061407413 0.09056412 -0.04424858 -0.1128368 -0.18008259
-0.01817769 -0.0017750659 -0.28136006 -0.2505583 -0.038732164 -0.073985204 -0.043361455 -0.08700636
0.18412724 0.32558006 0.2126603 -0.20817545 -0.012395719 0.09005052 0.01148281 -0.019352566
0.46000332 1.0418365 -0.5911549 -0.71367735 0.4967331 0.27641365 -0.074693136 0.03144509
0.15692438 -0.13183981 0.067512944 -0.20976172 -0.1499964 0.06858277 -0.3453769 -0.048644286
-0.21416101 0.015803577 0.14293005 0.19089402 0.07562144 -0.08882042 -0.01931349 0.09756198
0.1731078 -0.22675504 0.040802088 -0.31331998 -0.3585135 -0.2563279 0.2682891 -0.05046277
-0.13058123 0.00071380317 0.09661924 0.013646823 0.096877165 -0.16577224 -0.024574414 0.09542209
0.057367902 -0.048944723 -0.20884822 0.033376306 0.13268012 0.10481536 -0.018179623 0.106865525
0.23414914 0.067260705 0.21055906 -0.25070602 0.0027902178 0.021451408 0.007812486 0.10400817
0.21637848 0.44037336 -0.8633578 -0.91463876 -0.12572044 0.0902635 0.10812682 0.016456278
0.115510546 0.12443404 0.040912867 0.025587428 0.14397481 0.06320926 -0.22073695 0.022646328
-0.004403639 -0.055914782 0.3287524 0.2973909 0.0614523 -0.183024 0.12992734 -0.038904242
0.026155528 0.101804934 -0.023502452 0.14112996 0.16158651 0.40773645 -0.06904829 -0.7057665
0.12573962 0.046513744 -0.15089417 0.050695427 -0.020232756 0.20940407 -0.024675356 -0.10683905
-0.04208241 0.18756966 0.1041336 0.02360678 0.17944519 0.15563254 -0.07332751 0.099692486
0.17182174 0.23290761 0.051197026 -0.046341434 0.0403019 0.008965999 0.07286792 0.0073191915
0.3669619 0.059391282 -0.14025334 -0.1052445 0.550937 0.26509243 0.085364096 0.122051895
-0.10531842 0.38459533 -0.066604875 0.057235442 -0.028167825 -0.076176666 -0.23647425 -0.13637298
-0.101598926 -0.17523599 -0.06578604 0.07194004 0.0041333186 0.01111058 -0.034132957 0.03675927
0.02881819 -0.15346478 -0.05040053 0.054663558 -0.33181447 -0.9672195 0.36819607 1.1978756
0.13624392 -0.051229954 0.015315097 -0.021022253 0.0023204726 0.16703045 -8.57045e-05 0.115297504
0.12756498 -0.15694009 0.08861455 -0.280045 -0.30964735 -0.39250928 0.15334001 0.07701959
-0.15146564 0.13075592 0.2541359 0.13712865 0.07585022 -0.0389914 0.027683618 0.034470744
-0.37193498 -0.22298297 0.14029522 0.01530558 -0.25353605 -0.058097556 -0.095220774 0.02833696
0.2325638 0.24189912 0.02693209 -0.49866897 -0.036664788 -0.36930463 0.060509484 0.14155446
-0.18023224 -0.006404887 -0.13844888 -0.54203993 -0.6303135 -0.069953166 0.18389253 0.15967353
-0.00048910116 -0.046427142 -0.056179434 -0.108783714 0.79041713 1.3027732 -0.11979699 0.098943874

l1.bias f4 [256]
00000000: 7549 a73d 2871 0d3e a1ac 5f3e 1573 87be
00000010: 0da5 90be dc7f 8cbe 6b3d 043e 1ef9 453e
00000020: 1215 473e c67f 2a3d c851 03be 8b72 40bd
00000030: 02f8 be3d 3f06 413e 39ce a83e 48ec 12bd
00000040: 60a3 2a3e feff 723e 51e9 773d acc6 c3bd
00000050: 38f3 053e 761d ab3c bbd4 21be 069d 8d3d
00000060: 7e13 edbd 31f8 fbbd 13c9 303d 91c1 303d
00000070: 09bd 033d 92ff 4f3d 8591 903c 033f a8bd
00000080: 2137 20bd eef0 be3c f61d 17ba a12f b83d
00000090: 8a99 0f3e 178c a03e 4209 d13e 4899 a9bd
000000a0: 2d8b 10bc 2c5f fb3b 1ab7 cf3d 0a80 3bbe
000000b0: 0d91 153e 0fdf fbbd 2d88 103f 8ecb bd3d
000000c0: 0643 8d3c 569b 293d 93fd 903e 7945 863e
000000d0: 9697 7a3d 655c 53bd 7dc5 00bd 547e 3a3e
000000e0: d5d0 963e c59c 273c 9fe5 59be 9bbd 9b3e
000000f0: 7e6d 8cbe a247 39be 2d39 0f3e d8d1 b5bd
00000100: d70d 53be dacd 88be 06bf 43be f505 2cbe
00000110: d00f 5e3e 9c34 313e f754 86be ffcf 64be
00000120: 17df 8f3e 7ed4 55bd 0dbb cbbd 5204 963d
00000130: f4cb 853e 142b 923e dc93 ba3e d0d2 e53d
00000140: 7148 93be cd14 a5bd a1b7 62be 67f5 a53b
00000150: 3ea0 c8be 5a3b a03d 8c7e 3abe eb4d b2be
00000160: 7354 a5bd 4d97 c83d 6e2b 7a3e f3aa 32bc
00000170: 92a5 a53c 64ca 8bbe d983 29be ff2b 29bd
00000180: 1122 b53d b67e e33d 192f ddbc 3003 2ebe
00000190: c0d1 c8bd 33c0 4b3d 1f3c 62be 6ba5 0e3e
000001a0: f120 dfbc 443d 3f3e c01d c7bd ec68 d1bd
000001b0: b5b7 5d3d 7463 84bd 5a87 03be 297b 27bc
000001c0: cba7 3abd 478f 423e a045 60bd 5ef7 863d
000001d0: 2b7d bcbd e3d0 453e 0f89 803d f6ac 033e
000001e0: 1def 0ebe badf 02be c81a 2e3e f65c e5bd
000001f0: 0818 d13d b1f3 10be fd28 94be 6669 a53d
00000200: f6cb fc3d 3fa1 443d 803a fbbd bf4f b83d
00000210: 0166 a7bd bf39 ee3d 0ad6 96bc 3e5c 0bbd
00000220: 9921 00be 5abf abbe 2a25 3d3e fcc6 12be
00000230: 88ed 2dbe fef2 b0bd a8ca 13bc 37a3 acbd
00000240: 4ff4 473d 8019 663a e83a 3cbe 63b6 543e
00000250: a838 f53c ee47 213e 0d25 9e3d 6d75 25be
00000260: 37e9 633e 91c1 4f3d 216f 67bd 5f70 073d
00000270: 7d6d 1cbe 91a3 823e 3a38 57be 8910 423e
00000280: e226 1cbd 3fab 81bc 3d93 9bbe d24f 203d
00000290: fc65 cf3d b719 143e 201f 173e 29eb 863e
000002a0: 5485 0f3e 2614 adbd f584 8cbb f303 f5bc
000002b0: 7819 cc3d 6128 66be 3052 99bd f4ee 2e3d
000002c0: 9704 10be 1017 06bc 4c10 38be eb94 dfbd
000002d0: edac d8be 9374 45be 914b 573e e7b1 63be
000002e0: ce89 39be 1c10 12be 4935 32bc 105c afbd
000002f0: 026a 5ebe 519b bbbd b3f8 54be a422 953e
00000300: b936 d43c 8df7 9bbd 46a7 43be a838 a83d
00000310: cc16 fa3b 473b 9f3d 17d3 193e 55f4 55be
00000320: 2266 8cbe 18fa debd af28 a53d b20e 5e3d
00000330: a09a 57bd 86ed 913d 963a 3ebe 59af 81be
00000340: c3b1 c93e e629 673d 7816 25ba 9511 d63d
00000350: 4543 76be fae4 8e3e ac36 ca3c fc97 f4bd
00000360: 6333 92be 1adb 453e f72b 9bbe 0ee9 a13e
00000370: c850 353e 253d 303e 87af d53d 6cf5 8f3e
00000380: c92f a0bd f396 3ebe b703 a1bc de32 c1bd
00000390: 9822 bd3d 2728 1a3e d3e9 583e c8d1 24bd
000003a0: c0b3 4a3e 4a98 1a3d f5a9 d43e 3125 933d
000003b0: 5c11 593e 7c31 8a3e ec9c 073c df92 1c3e
000003c0: c405 093e e923 4b3d c178 7fbd 047e a7bd
000003d0: 67f0 733e a005 7e3e 3dd6 923d 93db 5fbc
000003e0: 9a96 55bc 42ae 5ebc ccb9 88be 9ca9 0abc
000003f0: edaf 683e dd18 b0bd d973 26be 522b 413d
0.08168308 0.13812697 0.21843196 -0.26454988 -0.28250924 -0.274413 0.12914054 0.19333312
0.19441631 0.04162576 -0.12824166 -0.046984237 0.093246475 0.18850039 0.32969835 -0.035869867
0.16663885 0.23730466 0.060525242 -0.09559378 0.13081062 0.020888072 -0.15803806 0.069147155
-0.115759835 -0.12303198 0.04316051 0.04315335 0.0321627 0.05078084 0.017647514 -0.082151435
-0.039115075 0.023308244 -0.00057646574 0.089934595 0.14023414 0.3135688 0.40827376 -0.08281189
-0.008822245 0.0076712575 0.10142346 -0.18310562 0.14606114 -0.122984044 0.5645779 0.092673406
0.017243873 0.041407906 0.28318462 0.26224878 0.06117972 -0.051601786 -0.03143834 0.18212253
0.294562 0.010230248 -0.21279 0.30418095 -0.27427286 -0.18093732 0.13986655 -0.08877915
-0.20610748 -0.26719552 -0.19115838 -0.16799147 0.2168572 0.17305225 -0.26236698 -0.22344969
0.28099892 -0.0522046 -0.099477865 0.07325043 0.26132166 0.2854849 0.36440933 0.1122185
-0.28766206 -0.08060608 -0.22140361 0.0050646546 -0.39184755 0.078238204 -0.18212336 -0.34825072
-0.08072748 0.09794483 0.2443063 -0.010905015 0.020220552 -0.2730285 -0.16554202 -0.041301724
0.08844388 0.111081526 -0.026999997 -0.16993403 -0.09805632 0.049743842 -0.22093247 0.1393029
-0.027237387 0.18675715 -0.09722471 -0.102250904 0.054130275 -0.06464282 -0.12844601 -0.010222235
-0.045570176 0.18999968 -0.0547539 0.0659015 -0.092035614 0.19317965 0.06276142 0.12858948
-0.13958402 -0.12780657 0.17002404 -0.111993715 0.10209662 -0.14155461 -0.28937522 0.08076744
0.1234359 0.04800534 -0.12267017 0.08999585 -0.081737526 0.11632108 -0.018412609 -0.034023516
-0.12512816 -0.33544427 0.18471208 -0.14333719 -0.16985142 -0.08640097 -0.009020485 -0.08429568
0.048816975 0.00087776035 -0.18381846 0.207727 0.029934242 0.15750095 0.077219106 -0.16158076
0.22256933 0.05072171 -0.056502465 0.03306615 -0.15276141 0.25515416 -0.21017542 0.1895162
-0.03812302 -0.015828727 -0.3038577 0.039138623 0.10126874 0.14462934 0.14757967 0.26351288
0.14015704 -0.08451109 -0.0042883107 -0.02990911 0.09965795 -0.22476341 -0.07486379 0.042708352
-0.14064251 -0.0081842095 -0.17974967 -0.10917076 -0.42319432 -0.19282751 0.2102492 -0.22235833
-0.18118975 -0.14263958 -0.010876962 -0.085624814 -0.21720126 -0.09160484 -0.20797996 0.2912799
0.025905 -0.07615576 -0.19106779 0.08213931 0.007632112 0.07774978 0.1502193 -0.20893987
-0.2742167 -0.10887545 0.080644004 0.054213233 -0.052637696 0.07125382 -0.18577036 -0.25329092
0.39393434 0.05643644 -0.00062975986 0.10452572 -0.24049099 0.2790907 0.024684273 -0.11943051
-0.2855483 0.19321862 -0.3030698 0.3162312 0.17706597 0.17210825 0.1043387 0.2811693
-0.07821614 -0.1861227 -0.019655092 -0.0943353 0.09235114 0.1505438 0.21182947 -0.040239125
0.19795132 0.03774289 0.41535917 0.07184828 0.21198028 0.2699088 0.008277159 0.15290402
0.13381106 0.049594793 -0.06237102 -0.081783324 0.23822175 0.24806833 0.07169769 -0.01366319
-0.0130363945 -0.013591351 -0.26704252 -0.00846329 0.2272336 -0.08598492 -0.1625513 0.047160454

l2.weight f4 [256, 256]
00000000: 456a 623d 62eb 62bd 84ef 4cbe a515 74bd
00000010: 0cd2 253e 2b5e 633e b483 84bd 0501 efbd
00000020: 6df8 9abd cc90 013e ed6e bbbe 85f3 9fbd
00000030: b70e 88bc ec7f d93b cdc7 b8bc e12f 2cbd
00000040: 7ef8 60bd 0074 143d 8d36 a3be 5000 8cbe
00000050: b850 e23d ef5f 3ebe 69d6 823d 0ab7 fdbd
00000060: 8b2e 02bf 181d 62bd c47f debc 2216 29be
00000070: 08a8 8c3d 9307 1fbe ce66 fa3d c34b 003d
00000080: f586 c5bd 178b 0abd 16b4 033d 2354 8e3b
00000090: a5c4 913e be46 fabc bdd3 6e3c f66d 973c
000000a0: bb46 9abd cddf dbbd 09ab d5bd b0ca 063e
000000b0: 72b9 d9bd 3774 bdbe 90b7 a93e 8d65 e7bb
000000c0: cf52 08be 14b5 a0bd 606b cfbc aadd 1bbd
000000d0: 015f a03d 7975 c7bd 4035 acbd a34a b4bd
000000e0: 2f83 c9bd 646c 87be b924 de3d c2ae c73d
000000f0: edbf 813d 0475 103e eeac 5cbd 166e 77be
00000100: 05d7 063d 5062 b93d dbbc a1bd 2567 d5bc
00000110: e76c 44be a389 da3c d15d 773d 879e 083e
00000120: fbab 03bd 553c 92bd 3dbf 533e d504 80bd
00000130: bac7 d73d 34f3 86bc 289f 033d b88a b23d
00000140: 6d15 153d 9d8b 12bd 1fe5 773d a67f 42be
00000150: 4ed0 453e 8bae fd3c 3ad5 8dbd f233 a23e
00000160: a9fb 8bbe 16d2 9cbd ac48 ecbc 2caa c1bc
00000170: f7ea 45be be70 ec3d 7203 2a3d e5b2 8d3d
00000180: 271a 05bd 0e60 c13c 2f76 12bb f7f9 13bc
00000190: ea84 193e f67c c93d 4adf c73c 7bea 4cbd
000001a0: c4a1 8dbe cce6 fe38 1d62 1fbe f682 d53d
000001b0: beb0 8cbe 88cc 38be f301 3f3e 87cf 2ebd
000001c0: 24a7 7cbc 56f3 083d c10e 20be 60e8 18be
000001d0: d0fa 3e3e 1714 6a3d c34e c4bd 15da 803d
000001e0: 7f49 f9bc 171e 6d3e e858 1bbd df81 83bd
000001f0: 6b4e e63b edee 473e a17c 0e3e f6e1 d33d
00000200: 80ea 3abe 28cb 9abd faa1 83bd bc3c 403b
00000210: 8e28 813e c220 acbc 7515 f33d 9e39 1e3e
00000220: f520 a93d 68f7 763d 107c 9bbd 6e25 b83c
00000230: 5959 823e 9acf 1dbe 3a78 8f3d 5057 b2bd
00000240: 0967 08be 8200 f93d b961 89bc 5f6f 543e
00000250: 925f 0ebe f350 58be 6620 cbbe 3ce8 8c3c
00000260: 711d 7cbd 23f4 73be a773 eebd ef2b 5a3d
00000270: 9340 ba3c cb90 a0bd 30f7 be3d 92bf 27be
00000280: 3eee c73c cbba ce3d 37f2 29bd ff3c b63d
00000290: 64b3 8ebd 254d 373e 76d5 a73d 1201 d2bd
000002a0: 9621 a43d 337c 16be 315e c8bd 3cdd 803d
000002b0: 607c a63c 5e55 3abb c007 fabc 8950 fe3c
000002c0: a28d 13bf d3dc 05bd cef7 a9bd 0f67 8a3e
000002d0: db23 143e 2825 2dbd 87d0 12bd 73a4 f93d
000002e0: cb59 bbbb d0f3 64be abcc 1a3d bfb5 52bd
000002f0: 11e1 e13d b394 8a3d c179 aabd 64d7 6e3c
00000300: 46ce 69bc ce79 063e 2699 1d3d fd67 1bbe
00000310: 9053 53bf afce 393d d0b3 9d3d 22fc 1bbe
00000320: 678a ac3d 4e55 513d 6f16 563c b506 73be
00000330: fde3 883d 5d07 9b3e cb24 5bbe 73eb f43c
00000340: 410f 2bbe 6f46 8dbe 1d1f 983d 7102 723e
00000350: c1dc eabc 9136 9a3d 20fd 783d 2cbb 5f3d
00000360: 47ef 4a3e 5c8f 0cbe 4df6 bb3c 79a5 95bd
00000370: 1079 c3bd 1494 04be ba3f 753e 7f85 62be
00000380: 09e6 833d 6ad5 783d ca2e c9bd b38e 673e
00000390: acd4 6cbd b68c ebbd 5601 c3be 92e7 0abe
000003a0: 34c1 31be 6714 b03d 95b2 5e3d b501 ec3c
000003b0: 5802 363f 3929 543d 4a70 203e 9797 a6bd
000003c0: 145d 693e 5aa0 69be 53a6 de3c 582c be3d
000003d0: f4d0 e5be a9f2 81bd a9d3 d53d c482 76be
000003e0: 6e11 8abe 071a 513e 4aeb adbc 4cfb 0a3e
000003f0: 2e63 77bd 733b 35bb 17fe 263d 5bbb 1ebe
0.055277128 -0.05540026 -0.20013243 -0.059590954 0.16193408 0.22203891 -0.06470433 -0.11670116
-0.07566915 0.12652892 -0.36608067 -0.078101195 -0.01660858 0.006637564 -0.02255621 -0.04203785
-0.05492448 0.03624344 -0.31877556 -0.27343988 0.11050552 -0.18591283 0.06388552 -0.123884276
-0.5085227 -0.055203527 -0.027160533 -0.16512349 0.06867987 -0.15530233 0.1222664 0.031322252
-0.09644882 -0.033824053 0.032154165 0.004343526 0.2847034 -0.03055131 0.0145768495 0.01848505
-0.07533022 -0.10736046 -0.10433013 0.13163257 -0.10631074 -0.37002727 0.3314786 -0.0070616663
-0.13312839 -0.07847038 -0.025319755 -0.038053192 0.078306206 -0.09739203 -0.08408594 -0.08803298
-0.098394744 -0.26449883 0.10846848 0.09750129 0.06335435 0.14107138 -0.053875856 -0.24163088
0.032919902 0.09051955 -0.078973494 -0.02605016 -0.19182168 0.026676958 0.060392205 0.13341723
-0.032146435 -0.07140414 0.2067842 -0.06250922 0.10536142 -0.01647339 0.032134205 0.08717865
0.036397386 -0.035777677 0.06052124 -0.18994007 0.19317743 0.030967018 -0.06925435 0.31680256
-0.2734044 -0.07657258 -0.028843246 -0.023640715 -0.19327913 0.11544941 0.041507192 0.06918887
-0.032495644 0.023605373 -0.0022348275 -0.009031764 0.14992109 0.098382875 0.024398465 -0.050028306
-0.2766248 0.00012154653 -0.15564771 0.104253694 -0.27478594 -0.18046772 0.18653087 -0.042678382
-0.015420709 0.03343519 -0.15630628 -0.14932394 0.18650365 0.057148065 -0.09585335 0.06291596
-0.030430553 0.2315601 -0.037926584 -0.06421255 0.007028391 0.19524737 0.1391473 0.10345833
-0.18253517 -0.0755828 -0.06427379 0.0029333076 0.25226253 -0.021011714 0.11869327 0.15451667
0.08258239 0.06029454 -0.075920224 0.022478785 0.25458792 -0.15411225 0.07005353 -0.0870806
-0.13320555 0.121583 -0.01677023 0.2074561 -0.13903645 -0.2112463 -0.39673156 0.017200582
-0.061551515 -0.238236 -0.11643153 0.053264555 0.02273587 -0.07840117 0.09324491 -0.16381672
0.024405595 0.10094222 -0.04149076 0.08898353 -0.0696781 0.17900522 0.08195011 -0.102541104
0.080142185 -0.14695816 -0.097835906 0.06292197 0.020322978 -0.002843223 -0.030521274 0.031044262
-0.5763799 -0.032681298 -0.08299218 0.27031752 0.14466803 -0.042271763 -0.0358434 0.12189569
-0.0057174913 -0.22358632 0.037792843 -0.051442858 0.11029256 0.067666434 -0.08324004 0.01457772
-0.014270371 0.13132402 0.03847613 -0.15176387 -0.8254938 0.045363124 0.07700312 -0.152329
0.08424836 0.051106744 0.013066872 -0.23733027 0.0668411 0.30279055 -0.21400754 0.029897427
-0.16705038 -0.275928 0.074278094 0.23633744 -0.028669717 0.07529939 0.060788274 0.05462186
0.1981784 -0.13726562 0.022944594 -0.07306952 -0.09544575 -0.12947112 0.23950091 -0.22121237
0.0644036 0.060750403 -0.098233774 0.22613029 -0.057820007 -0.11501448 -0.38086957 -0.135649
-0.17358857 0.085976414 0.054369528 0.028809408 0.71097326 0.051797125 0.15667835 -0.08134382
0.22789413 -0.22815076 0.027178919 0.09285802 -0.4488598 -0.06345112 0.104407616 -0.2407332
-0.26966423 0.20420085 -0.021230359 0.13572425 -0.06039732 -0.0027653843 0.040769663 -0.15501158

l2.bias f4 [256]
00000000: 63f1 253d 4e61 b03d 9650 583c 87cf 59bd
00000010: 7cfc 45bd 6f5e 523b 5f57 2a3d 463e 8bbd
00000020: 483c c23d 4ce6 28bc 269c 9f3d 82f1 273b
00000030: 021d 3a3d 2117 a8bb dcbc 433c c516 1cbd
00000040: 8425 82bd ccf4 c6bd aa18 0e3d d54a 153d
00000050: e6b1 d7bd 14f7 9d3d 83aa dd3c 3c44 d5bc
00000060: a106 c73c 0b41 bd3d 845a 4abd 5b50 0cb9
00000070: ea32 853c b2f4 72bd 3b2b 013b 4cae 87bd
00000080: 758b f43c 2722 d0bc 06fc 6dbd 6da7 c5bd
00000090: ff31 8b3d 409f ab3d 3375 853d fb79 aabd
000000a0: 92c2 893c 19fd f2bd 9c5d d43c 0890 f1bd
000000b0: 8135 a7bd 1e10 46bd 3b2e ca3d 0a3b 913d
000000c0: e3bf c4bc a958 08bd a9fb 5c3c 71e2 593d
000000d0: 943f 1d3d 69ad a13d 9dfa 90bd 68fc 97bd
000000e0: 9893 463c c1c9 733d 5bba 5cbc 962d 023d
000000f0: 6263 203d 82d5 223c fa8f b5bd ebc2 bf3c
00000100: 00e9 db3d 0c9f 343d e81e dabc 9250 f8bc
00000110: 5ba3 17be d930 2a3d b81a d13d 027e 853d
00000120: 15ca 40bd 9d58 843d 4d7b 7c3d 4dc6 49bc
00000130: d3da dcbd 3c66 ab3d 17ca 95bc 5f30 123d
00000140: 7809 5cbc 9f81 61bd d29f c4bc 7341 5d3d
00000150: b8f6 273d 4639 d1bd dfa6 3f3d 7114 f1bd
00000160: 0836 1bbe cc34 913d 04a4 18bd 3baa 5aba
00000170: a600 0c3d 4a24 c63a b5b5 b73c 66a8 dabc
00000180: 13c4 0d3d 6275 38bd 3bf7 173d 71f6 903d
00000190: 5fd3 48bd fd44 8fbd 16ee d13d 16d4 773b
000001a0: f7e2 7a3a 6548 5dbe bb6f ca3d 0892 86bd
000001b0: 39b4 a9bd 15db b0bd 1720 c7bc a519 ac3d
000001c0: 4d56 36bc 93c1 5cbd 948f a03c 26dc 023d
000001d0: 3ccf 143e 7395 63bd 2c53 cf3d a872 263c
000001e0: e5d4 123c 8e80 2b3c d786 55bc 624e 8dbc
000001f0: 6016 1dbd 129a 64bd 601f 5c3d 0fc8 b6bc
00000200: 3841 d13d 3eed 713d ff5e 0e3d 784f 4e3d
00000210: 3896 f8bd 0ace dcbd 17e0 bebc a8a2 0ebd
00000220: 8b0f 92bd 8a76 913c a875 b03c 15ba da3c
00000230: d454 a63d 10da c13d 2448 de3d 8641 ad3d
00000240: 4bc5 093d b0d1 77bd e340 58bd 2d47 e7bd
00000250: 918c 0f3d 4e9d 6fbb 0d7d d83a 4ecb cd3c
00000260: c01f 82bd 571a 81bd 2e33 df3d fada 06bd
00000270: c7d0 babc 0f0d 5cbd aadf 9d3d 5036 8ebd
00000280: 44d9 a1bd 40cc 37bd 41a0 023d b7a1 99bc
00000290: da3f c3bd 985b 7bbc e95e 10bd 32a3 86bd
000002a0: 0a3a 89bd d661 02bd 3666 353d 1a44 e7bc
000002b0: 15b6 4cbd 043e a13c 90ff 0e3c 8952 f0bd
000002c0: 5502 a8bd 1a76 c3bd a37f 3cbd f40d e0bc
000002d0: a4ec b3bd 19fe 75bd 895d 3cbd 2a67 1d3c
000002e0: 0136 373d 37eb 743d 023b 49bd 80f8 e63c
000002f0: e88d 173d 756d d3b9 a3cd df3b 2fa8 26bd
00000300: bea5 223c 9838 cd3d bc0b 49bd 4721 75bd
00000310: 560d 62bd 9ca8 04be 5958 bb3c 15d5 5c3c
00000320: 9fa1 d7bd ae0d 043d 3418 89bd e2ba b2bc
00000330: 666c 1b3e 8005 8e3c 1627 133d 5b34 123d
00000340: 6b14 c63c 9809 203d c841 9bbc cd3a 813c
00000350: cbc2 a5bc 8c06 023d 5b8d c93c 3c8c 9fbc
00000360: 4072 0ebe ec0c 82bc 3c64 b6bc 0e32 13bc
00000370: 7503 333d 853c 38bd 8a0b debd 2e77 9fbd
00000380: aaca f03c 5f86 20bd 0812 c9bd e4ec 62bd
00000390: 3bca 103e 8907 3bbd 70da cf3d c330 adbc
000003a0: 6c03 863d 302f 803c e453 693c 2dd7 b23c
000003b0: 0d26 013c 3bbc c03d bc41 0e3b 1f13 a0bc
000003c0: 2566 dbbc b3e6 e2bc 0657 1ebd 7adf 573d
000003d0: 84a7 3a3d 2706 8e3d 4013 c23c 60d5 0abe
000003e0: 68e3 573d 7961 c93d 71bc 0e3d cd6d b4bd
000003f0: 8466 de3b 0ce8 543c 922b 1f3d 365d 30bd
0.040513407 0.086123094 0.013202807 -0.05317643 -0.04833649 0.0032099744 0.04158723 -0.06798987
0.09484154 -0.010308813 0.07793455 0.0025626128 0.04543782 -0.0051297103 0.011946883 -0.038107652
-0.06354812 -0.0971466 0.03469149 0.03644832 -0.10531978 0.07713142 0.027058845 -0.026033513
0.024295153 0.092409216 -0.04940273 -0.00013381375 0.01625963 -0.05931539 0.0019709605 -0.06625041
0.029851655 -0.02540691 -0.058101676 -0.096510746 0.067966454 0.08379984 0.065164946 -0.08324047
0.016816411 -0.11864681 0.025923543 -0.1179505 -0.08164502 -0.048355214 0.09872099 0.07091339
-0.02401728 -0.033287678 0.013487735 0.053194467 0.03839071 0.078944035 -0.07079051 -0.074211895
0.01212015 0.05951858 -0.013472165 0.031781755 0.03915728 0.0099386 -0.08865352 0.023408374
0.107378006 0.04409699 -0.026626065 -0.030311856 -0.14808409 0.04155049 0.10210174 0.06518175
-0.04706772 0.06462214 0.061641026 -0.012315345 -0.10783925 0.08369109 -0.01828484 0.03569066
-0.013429992 -0.055055257 -0.02400199 0.054017495 0.041006774 -0.10216002 0.04679 -0.11771477
-0.1515733 0.07090148 -0.037265792 -0.00083414064 0.034180306 0.0015117016 0.022425512 -0.026691627
0.03461082 -0.04503382 0.03710101 0.07078255 -0.049029704 -0.0699558 0.102504894 0.0037815622
0.00095705636 -0.21609648 0.09884592 -0.06570822 -0.08286328 -0.086355366 -0.024307294 0.08403329
-0.011128974 -0.053895544 0.019599713 0.03194823 0.14532179 -0.055562448 0.10123286 0.010159172
0.008961891 0.010467662 -0.013032637 -0.01724929 -0.038351417 -0.055810995 0.05374086 -0.022312192
0.102175176 0.059064142 0.034758564 0.050368756 -0.12138027 -0.10781486 -0.023300214 -0.03482309
-0.07131871 0.01775672 0.021540478 0.026700059 0.081216484 0.0946542 0.108536035 0.08459763
0.03363542 -0.060502708 -0.052796256 -0.112928726 0.035046164 -0.0036562267 0.001651676 0.025121357
-0.06353712 -0.06303852 0.108984336 -0.032923676 -0.02280463 -0.05372339 0.07708676 -0.06943953
-0.07902768 -0.044872522 0.03189111 -0.01875387 -0.09533663 -0.015341662 -0.035246763 -0.06574096
-0.06700523 -0.031831585 0.04428693 -0.028230716 -0.049978334 0.019682892 0.008727923 -0.11734492
-0.0820357 -0.095440105 -0.04602016 -0.027350403 -0.0878537 -0.06005678 -0.04598764 0.009607116
0.044729237 0.05979463 -0.04912854 0.028194666 0.037000567 -0.00040326608 0.0068299337 -0.040687736
0.009927211 0.1002056 -0.049083456 -0.05984619 -0.0551885 -0.12954944 0.022869276 0.013478537
-0.10528874 0.03223961 -0.066940695 -0.021817628 0.1517807 0.017336607 0.035925947 0.03569446
0.024179658 0.03907165 -0.018952265 0.015775109 -0.020234486 0.031744525 0.024603536 -0.019476049
-0.1391077 -0.015875302 -0.022264592 -0.008984102 0.04370447 -0.04497959 -0.10842045 -0.077864036
0.029393513 -0.039190646 -0.09817892 -0.055401698 0.14139645 -0.045661483 0.101490855 -0.021141415
0.065436214 0.0156475 0.0142411925 0.02183112 0.007882607 0.09410902 0.0021706661 -0.019540368
-0.026782105 -0.027697897 -0.03865721 0.05270336 0.04556991 0.06934767 0.02369082 -0.13557959
0.052707106 0.098330446 0.03484768 -0.08810005 0.006787123 0.012994777 0.03885991 -0.043057643

l3.weight f4 [1, 256]
00000000: 0d26 7bbf 157c d4be b94e df3e 0779 e93e
00000010: 0991 633f 5a0d 8e3f ad4c 593f e139 afbf
00000020: 969b 30bf 1ebe babf 4cf3 603f 8364 0fbf
00000030: 1690 6cbf 7f2c 20c0 7fbb 2fbf 40fb 6c3f
00000040: f8c3 cebf 7e07 413f e16e a9bf 9d02 7c3f
00000050: d3c6 513f d604 62bf 0d43 1dbf e319 453c
00000060: 5bc8 49bf 043b bbbe 8f33 273e 99bb 36bf
00000070: e7d9 67bf c998 33bf 82a2 ed3e 1902 61c0
00000080: eef5 943e 0084 f63e b1eb 973f 69c9 243f
00000090: 7706 813f 2a2e 05bf a51b acbe 961a 173f
000000a0: a658 b53e e764 133f b623 bcbf 0f41 8bbf
000000b0: 3292 a13e 2cfd 66bf d4de 04be 0170 43bf
000000c0: 28f0 f1be a32f 483f 674c d0bf 1d7a d6be
000000d0: a679 4bbf 73a7 853f 9986 ab3e 90a1 103f
000000e0: 33f1 563f 6ea2 44bf a314 cf3e b79c 8ebf
000000f0: f911 893f a61c ea3e b80c bc3e cb05 693f
00000100: 6bf2 7abf c763 74bf dd7c 5fbf 0ca0 bebf
00000110: 1b83 763f a6ad 4abf 4748 5cbf 7e19 613f
00000120: 97c4 e53e 979a 44bf deb0 ae3f f9e4 0e3f
00000130: 24f2 3d3f 13fa 60bf a238 4e3f 04c5 693e
00000140: 98a7 853f 9773 0f3f 8bb1 37bf 4cb8 66bf
00000150: 6765 85bf 8e11 1a3f 6da4 85bf dc9b 463f
00000160: 5369 5f3f d966 b6bf cecf 99bc 61ac 1c3f
00000170: cad0 1cbf b11b fa3e 5c7e 33bf 3463 25bf
00000180: 545d ddbe 532c 86bf 4df1 7cbf 8682 12bf
00000190: 2de4 8e3e 3c82 c33e fdba 393f 1b95 ffbe
000001a0: 60a2 d0bf 6c4e a93f 6957 bdbe 2ba6 e83e
000001b0: 64c1 2b3f e0f3 8abf 77e0 80bf 6e78 3fbf
000001c0: bd75 cbbe 4636 8a3f be5b 09bf a51d 243f
000001d0: 1985 3e3f 6b2b aa3f f64c c5bf af6f 443f
000001e0: f94c dd3e 5b99 87be 5876 32bf cfe5 4c3f
000001f0: 5636 363f 272d a3bf 7abe 4abf 5a64 a0bf
00000200: 92f2 39bf 263d 7c3e b852 073f 988d ebbe
00000210: 8b70 143f b45f 983e 1b1f 0cbf c447 8cbc
00000220: 8d75 9f3e 2030 f43e 9aa3 ea3e d530 6e3f
00000230: a484 903f d580 4abf 1fa8 92bf dd37 67bf
00000240: 1f85 86bf 34d1 3d3f 9d63 3ebf 05bc 04c0
00000250: d4d8 02c0 b54a ca3e 9b31 a63e 256e e13e
00000260: 312c d23e 2e3c ba3f d8c5 a7be d81c 973e
00000270: acd1 323e 94df f03f 56ee 83be 106e 6d3f
00000280: 3aff b4bf e1ac 72bf d788 2fbf 8d65 16c0
00000290: 5135 6c3f 5d26 40bf ac10 ac3e 5b41 b63f
000002a0: 1415 053f 333b 7ebf 049c 223f 1c06 0f3f
000002b0: 1988 ec3e cf75 e1be 0aed 303f 8f95 663f
000002c0: 434c 353f fc42 4d3f babc 35bf a6f8 f83e
000002d0: 733a 1b3f 5eca 24c0 1229 8f3e 8f83 7cbf
000002e0: fd77 a73e 6d07 92be d5b1 6ebf 037f 4dbf
000002f0: 625b c4be a8d7 023e 769f d73e eca6 8e3e
00000300: b653 d9be 5834 03bf 9740 b53e f01a 83bf
00000310: d479 66bf 7718 cb3f 710a 2abf e494 083a
00000320: f32d 0d3f 20e6 32bf 5aca 3a3f f35d 99bf
00000330: 803e 25c0 87e5 47bf 86a1 80bf 96cd 5bc0
00000340: d4cd 38bf 1621 b03e 798a aa3e 92b8 fb3e
00000350: e3a8 6c3b 78a6 12bf 466f d4bf f3d3 3dbf
00000360: b42e 17c0 fdd6 833e 5997 53bd f769 3f3f
00000370: 3e55 623f 532e 643f f7a2 6f3f 01b3 143f
00000380: 74d6 623e 4312 cd3e f52d 7e3f dba7 bfbf
00000390: 66e7 15bf bed3 1f3f 1f3f d7be 0de4 5bbf
000003a0: a5ac c7be 4c55 0e3f 9474 fabe f01e cabe
000003b0: a26a 533f 756c 5fbf 624f 40bf bacb b73e
000003c0: fa8d f1be 11dd 8abf 66ed e93e 8dee 9e3e
000003d0: afaa 083f ee59 d1be 065f cc3d f9bc 133f
000003e0: 10fa 9fbf 30d3 593f 9099 653f 98c7 c43f
000003f0: 6672 58bf 8de3 0cbf 5184 0dbf a547 97bf
-0.98104936 -0.41500917 0.43614748 0.4560015 0.8889318 1.1097825 0.8488262 -1.3689538
-0.68987405 -1.4589269 0.8787124 -0.56012744 -0.9240736 -2.5027158 -0.6864547 0.9257088
-1.6153555 0.7540206 -1.3236963 0.9844149 0.81944007 -0.8828863 -0.61430436 0.012030098
-0.78821343 -0.36568463 0.16328262 -0.7138 -0.9056687 -0.70155007 0.46413046 -3.515753
0.2909388 0.48147583 1.1868802 0.6436983 1.0080098 -0.52023566 -0.3361484 0.5902494
0.35419196 0.5757584 -1.4698398 -1.0879229 0.3155685 -0.9023006 -0.12975627 -0.7634278
-0.47253537 0.7819769 -1.6273316 -0.4189004 -0.79482496 1.0441726 0.33501127 0.56496525
0.8396179 -0.7681035 0.40445432 -1.1141576 1.070861 0.45724982 0.36728454 0.91024464
-0.9802615 -0.9546475 -0.872999 -1.4892592 0.962938 -0.79171216 -0.86047786 0.87929523
0.4487655 -0.76798385 1.3647726 0.55818135 0.741976 -0.8788158 0.80555165 0.22829062
1.044177 0.5603575 -0.71755284 -0.90124965 -1.042157 0.60183036 -1.0440804 0.7758157
0.87270087 -1.4250137 -0.018775847 0.6120053 -0.61256087 0.48849252 -0.70114684 -0.64604497
-0.43235266 -1.0482277 -0.98805696 -0.5723041 0.2790846 0.38185298 0.72550946 -0.49918446
-1.6299553 1.3227057 -0.3698075 0.45439276 0.67091966 -1.0855675 -1.0068501 -0.74793136
-0.39738265 1.0797813 -0.5365561 0.64107734 0.7442184 1.32945 -1.5414112 0.76732916
0.43222788 -0.26484188 -0.6971183 0.8003816 0.7117666 -1.2748154 -0.79196894 -1.2530625
-0.7263576 0.24632701 0.52860594 -0.46006465 0.57984227 0.29760516 -0.54734963 -0.017124064
0.31144372 0.47692966 0.45827943 0.9304326 1.1290479 -0.7910283 -1.1457556 -0.90319616
-1.0509375 0.74147344 -0.7437075 -2.0739758 -2.0444841 0.39510122 0.3245972 0.44029346
0.4104934 1.4549615 -0.3276813 0.29514194 0.17462796 1.8818231 -0.25767773 0.9274607
-1.4140389 -0.9479504 -0.68568176 -2.3499482 0.92268854 -0.7505854 0.3360647 1.4238695
0.5198529 -0.9930908 0.6351931 0.558687 0.46197584 -0.44035193 0.6911169 0.9007196
0.7081949 0.80180335 -0.709911 0.48627204 0.6063606 -2.5748515 0.27961022 -0.9863824
0.3270873 -0.2852129 -0.932401 -0.8027193 -0.3835097 0.12777579 0.42113847 0.27861726
-0.4244668 -0.51251745 0.3540084 -1.0242596 -0.90029645 1.5866841 -0.6642218 0.0005210175
0.5514824 -0.6988239 0.72965014 -1.1981796 -2.5819397 -0.78084606 -1.0049293 -3.434423
-0.7218907 0.34400243 0.3330877 0.49164253 0.0036111407 -0.5728526 -1.6596458 -0.74151534
-2.3622255 0.2574996 -0.05165801 0.74771065 0.8841132 0.89133185 0.9360804 0.5808564
0.2215212 0.40052995 0.99288875 -1.49731 -0.5855621 0.6243247 -0.42040345 -0.8589485
-0.38998905 0.555989 -0.48917067 -0.39476728 0.82584584 -0.8727487 -0.7512113 0.3589762
-0.47178632 -1.0848714 0.45688933 0.31041375 0.5338544 -0.40888923 0.09979062 0.57710224
-1.2498188 0.8508787 0.8968744 1.5373411 -0.8454956 -0.55034715 -0.55280024 -1.1818739

l4.weight f4 [256, 28]
00000000: d8eb ef3d c13d 2e3f 55d3 adbe 3505 e6be
00000010: d54e 793d 03d4 a53d cedc 11be bb30 023c
00000020: 7388 cdbc a749 02be 8a32 48bd fc45 56be
00000030: ad1a c23c 3d9d 3d3d f184 923b 660f a8bb
00000040: 5f8b 0f3e 1fcf 9bbd ba96 ee3d b39f 963e
00000050: 370e 913e 70e3 93be 7782 ab3d 04b7 e4bd
00000060: 6a69 a53c 1cf8 f5bd db63 a1bc 8363 94bc
00000070: 7552 9a3b 1ff5 b6bf 5295 0abf 9ea1 fe3e
00000080: 6858 6dbd 5f16 92bd 24a2 d73d 281b ab3b
00000090: 67bb 9bbc 2dfe ee3d 4a59 55bd d470 913e
000000a0: 2e58 21bd 3523 843d 7e1f 813e 98f4 babd
000000b0: 2b36 f8bd 76fe 073e 965c bfbd d382 7fbe
000000c0: 96b4 d93d 790b efbd ab7a 8f3c 356a 063e
000000d0: 948e 6fbc ed8b 7d3d f9e5 cb3d ee3e 803d
000000e0: abc9 f53e 2c86 0cbf db5b c03d 108a 073e
000000f0: 1d6d 1d3e b3de 973c 53b0 2f3d 9004 bdbb
00000100: 02a8 50be d9b0 94bd 3051 96bd ac63 a5bc
00000110: 0159 b53b c8eb e438 e6d8 6b3e af9b 66bd
00000120: 495a 87be f5d6 94be 05b9 e3bd ffbd 11be
00000130: 21d1 a8bd 9269 813e ca20 a53e a38d af3c
00000140: 4e1a e33a f22b 14bd 6952 2fbd 475e 153c
00000150: 1d81 ec3e 839f bf3e e453 293d 36f8 febd
00000160: e743 9ebd f899 813d 58e8 68bd 418d 1e3d
00000170: 5219 0f3e b3a0 be3e 805c 10bd 2e64 273e
00000180: 0344 42bd 6a0c b1bc 468b 22be 1dc9 0dbe
00000190: 18e2 8f3e 2100 ba3e ecc7 b03e 955e 4c3e
000001a0: ba28 bfbe 8ca5 c4bd 6ee0 06be c401 c23d
000001b0: 1279 ce3c 4db7 f13c 3838 71bc 084f 05bc
000001c0: 3d17 e43e b515 ef3e d5a0 893e 5455 823e
000001d0: 123b 273d 3bf4 cc3c e114 a73c f09c e23c
000001e0: 8396 d13c 5238 813d 16a7 2b3d ec56 533d
000001f0: 7570 f73b d16d ad3d 6fad 813e 8288 7e3d
00000200: c1b4 313e 6339 6a3d 2f54 92be be03 0ebc
00000210: cb1a 9c3e d158 4c3e 84ae c3be 545e 833c
00000220: 85c5 0fbd f5d0 913c e15f 1f3c 2404 733d
00000230: 0b7b 843e f9e3 45bf fd64 6b3e c412 0a3c
00000240: 8e46 41be af15 4bbd 4990 e9bd f01d 663d
00000250: 4188 a8bc 93a0 ebbd 7ac2 8d3d c36d 8cbe
00000260: 97b9 2dbe 2f68 633c a7ef b2bd 5c4f f23d
00000270: 4e25 143e fbd3 453b d563 eb3d 3bad 0c3d
00000280: e7bf 313e d644 1a3e cc64 6e3e e296 bdbd
00000290: dc00 b1bc 5a7e b2bd 4959 83bd 22e6 953d
000002a0: 96cc b03d f949 b9bd 890d 273f 0dff 173f
000002b0: 8fae 843d 1e15 c83c c13c 0a3e 4b1e 493a
000002c0: 8e68 63bd 9cea 913d 4684 7cbd 7a2b 16be
000002d0: dabc 173c adb6 1ebd 12c6 393d f5c3 efbd
000002e0: eb28 6a3e be6e 1b3e 646d 263e 71ad 23be
000002f0: fdbf 8c3d b3c7 443e b1e3 26bb 7edf f9bc
00000300: fdb3 9c3c 0bde 93bc 0d45 903d 0f17 8cbd
00000310: 20ce 963d fd3e c43e 864a 873e 1535 c9be
00000320: 2350 87be 70f4 71bd 8d41 0fbd 81a3 73bd
00000330: 6e0f 8a3c 163b 573e 9cd0 983d faf5 e73e
00000340: 64d7 fa3d 6437 f9bc 7181 8ebe 03ef 013d
00000350: 1308 08be 7382 b73e d009 c73d aba8 4dbd
00000360: e996 bf3e 7f7e 9f3c 49c4 8cbe 8b53 d9bd
00000370: 88ba 17bd 6cc0 02be 3f46 98bd 066c 993e
00000380: 52e1 0e3e 6426 50be a0e0 3d3f c5b1 2f3e
00000390: 6741 3c3d 05f2 683d 26d6 13be 327f a7bb
000003a0: 2f1b 14bb 1525 b3be d568 753e d7e0 07be
000003b0: 5124 073e 344a 37be d20b 923e 2edb 083f
000003c0: 5791 d43e 1d78 4dbe 188a 173c caa0 5d3c
000003d0: 8277 5cbe 76ce 46be b6ff b9bd 7b4b 17be
000003e0: fbfa cf39 9661 ccbc 5f4c e43c 0409 013c
000003f0: 4130 de3b ba0b 983f 8564 3abf 8848 1fbf
0.117149055 0.6806298 -0.33950296 -0.44925848 0.060866196 0.08097079 -0.14244387 0.007946189
-0.025089478 -0.12723409 -0.048876323 -0.20925134 0.02369436 0.046292532 0.0044714143 -0.0051287888
0.1401801 -0.076078646 0.116498426 0.29418716 0.28331158 -0.2888446 0.083744936 -0.1116772
0.020191867 -0.12010214 -0.019700935 -0.018113857 0.0047095367 -1.4293555 -0.54134095 0.4973268
-0.05794564 -0.07133173 0.10528973 0.005221743 -0.019010259 0.11669574 -0.052087106 0.28406394
-0.039390735 0.06452028 0.2521934 -0.09128684 -0.12119707 0.13280663 -0.09343831 -0.24952249
0.10630147 -0.1167211 0.017514547 0.13126452 -0.014621396 0.06190102 0.09955973 0.06262003
0.48005423 -0.5489223 0.0939252 0.1323626 0.15373655 0.018538808 0.042892765 -0.005768366
-0.2037659 -0.072602935 -0.07339704 -0.020189129 0.0055342917 0.00010915805 0.23031959 -0.056300815
-0.2643607 -0.2907025 -0.11119274 -0.14232634 -0.08243013 0.25275856 0.3225158 0.021429842
0.0017326565 -0.036174722 -0.0428032 0.009116716 0.46192256 0.37426385 0.04133977 -0.12449686
-0.07727795 0.06328195 -0.056862205 0.03870893 0.13974503 0.3723198 -0.035244465 0.1634681
-0.047428142 -0.021612365 -0.15873441 -0.1384625 0.28102183 0.36328223 0.34527528 0.19957955
-0.3733576 -0.09601888 -0.1317155 0.09472993 0.025204215 0.02950635 -0.014722876 -0.008136518
0.4454898 0.4669625 0.26880518 0.25455725 0.04082782 0.025018802 0.020395698 0.027662724
0.025584465 0.0630957 0.041907392 0.051596567 0.0075512477 0.084682114 0.25327632 0.062141903
0.17354108 0.057183634 -0.28579852 -0.008667884 0.3048919 0.19955756 -0.38219082 0.01603619
-0.03510048 0.017799834 0.009727449 0.05933012 0.25875124 -0.77300984 0.22987743 0.008427326
-0.1887457 -0.049581226 -0.11404473 0.056180894 -0.020572783 -0.115052365 0.06921859 -0.27427492
-0.16965328 0.01387982 -0.08737116 0.11831543 0.14467356 0.0030186165 0.11493651 0.034344893
0.17358361 0.15065321 0.23280638 -0.09257294 -0.021606855 -0.08715506 -0.06413514 0.07319285
0.08632772 -0.09047312 0.6525503 0.5937355 0.06478607 0.024424132 0.13499738 0.00076720555
-0.055519633 0.07124826 -0.061649583 -0.14665022 0.009261334 -0.038748432 0.04535491 -0.11707298
0.22867171 0.15178964 0.16252667 -0.15984131 0.06872556 0.19216804 -0.0025465304 -0.030502077
0.019128794 -0.018050214 0.070444204 -0.068403356 0.07363534 0.38329306 0.26424044 -0.3929831
-0.26428327 -0.059071004 -0.034974623 -0.0594821 0.01685306 0.21018633 0.07461664 0.45304853
0.12248114 -0.03042192 -0.2783313 0.03172208 -0.1328433 0.35841712 0.097186685 -0.050209682
0.37419823 0.019469498 -0.27493504 -0.10611638 -0.037043124 -0.12768716 -0.074352734 0.29965228
0.1395314 -0.20327145 0.74170876 0.17157657 0.04596081 0.056871433 -0.1443716 -0.0051115984
-0.002259921 -0.3498923 0.23965771 -0.13269363 0.13197447 -0.178994 0.28524643 0.5345944
0.41517136 -0.20065351 0.009249233 0.013527105 -0.21529964 -0.19414696 -0.09081976 -0.14774887
0.00039669112 -0.024948876 0.027868448 0.007875685 0.0067806547 1.1878579 -0.7280963 -0.6222005

l4.bias f4 [256]
00000000: c4c1 763d 49d4 363e 0467 b8bd 545c 1cbe
00000010: 205e 59be 657c 75be e1ae 4ebe 40ac 81be
00000020: b5f3 88bd 49bc ab3d b37f 14bd 80e4 113d
00000030: 6e47 94be c712 3dbd 3caa 353e 86fd cdbe
00000040: 3f97 53be 7be3 49bc cdf1 03be 36c3 e6bb
00000050: 219c 65be e0c2 d83e 3fe2 3dbe e8df d9bd
00000060: c21a 8abe 02b6 2dbe 3572 cfbb f737 0dbe
00000070: 5d74 32be e9c5 5c3e 53d3 83be 44bd 163d
00000080: 3e6f 493e 4ed6 53bc e664 11be cff7 3b3e
00000090: 589d 43be 5a5d ff3d 4dc4 11bd e36a f83d
000000a0: b26e f83d b217 353e 5881 1b3e 2ffa b33d
000000b0: 9614 403e 3888 bebd 7775 243e 8733 343e
000000c0: ecef c0be 0c30 33be 22a1 a1bd d7ff 273e
000000d0: c2d0 18bd 3a4f 353d f6a9 173e d84d a63d
000000e0: cd1e 05be 2599 5bbe 0058 87be 27a0 e9bd
000000f0: 7e82 ae3d 97a3 7d3e 9393 acbe 6b56 ce3d
00000100: 20f2 003c 0422 21bd 3730 5e3e 303c 8bbe
00000110: 6022 1e3e 9b55 6a3d 0abd 5e3e f047 633e
00000120: 833a 9a3d a5d2 aebd bffa b23e 3fb1 62bc
00000130: 8b4f f13d 9d66 f83d 1e21 333d b5bf cabc
00000140: 396f 50be f379 d8bd 559b 873d a3e5 d53c
00000150: b098 1cbe 9c95 93bd 010f 08be 383e ac3e
00000160: f399 823d b39e 023e 77bb ad3c bb5e 4ebe
00000170: 5572 a03d 1183 0bbe 2bae c6be 103e a6bd
00000180: 7153 b03c ce68 b03d f87a a63e be83 90be
00000190: 5bd0 0f3e 46c5 85be a44b 2bba 3182 593e
000001a0: 2995 1bbe f269 3d3d d0d3 7e3d a0fc 1dbe
000001b0: 6d6f 433b fb0f 433d 1d6e 2fbe ff0b 3d3e
000001c0: d563 96be 0fcd b1bd 4f9a 1e3d e26e 74bd
000001d0: 9825 90be 05f9 06bd 43c7 61be 9cb4 51be
000001e0: fe61 943e d0ec 853d 6db8 20bd 567c 32bc
000001f0: ef45 783e 74d3 ff3c 23c5 113d dc8a a6be
00000200: 017a ab3e 7695 1d3e 999f 4dbe fa96 d23c
00000210: 7a65 5f3d 8b5a f2bc 6619 d03d e859 17be
00000220: 7859 aabe 56da c9bd de31 40be 3e68 adbe
00000230: 3d41 bcbe 3401 4cbd 7861 373e ba4b 403e
00000240: c0ca 723e 972a 5a3e f105 713e e5c2 b4bd
00000250: ba15 9dbd 23a4 bcbd dc76 60be 5f5e 05be
00000260: 51cb 4e3d dc4c 223e 1299 44be 0f07 5dbe
00000270: 9d15 64be 066a ce3c 29b2 97bd eed9 2a3e
00000280: a377 82bd fdad e7bb 1118 903d c838 1ebe
00000290: bd63 043c dbdf 893d 3095 cbbd 53bc 8dbd
000002a0: 3e48 0a3e 325c 58bc 0850 1cbe c22f b7bd
000002b0: 1257 283d a7db 10be b4c8 0ebd db31 6c3e
000002c0: 3a88 4f3d 0439 c43c e6f9 973d ac93 e2bc
000002d0: 55fe cdbe ddfa abbd 061c 3bbd f4af dd3e
000002e0: 36a8 8e3e e247 11be d636 973d 2bb1 09be
000002f0: d821 fabd a89b a0bd ee3f 8b3e beb3 c83d
00000300: ec7c 6e3e b375 a3bd e1fa 873e a0e9 85bc
00000310: 13a2 0f3e ab5a 04bd 6254 74b9 6073 223e
00000320: 7c03 a0bc eb63 3bbe 99e4 e23c ea1d 923e
00000330: b624 48be 4326 9dbe 4ace e43d 2fdd 613e
00000340: c96d a53c ef79 41be 7b86 bbbd 10ce 903e
00000350: 20e5 60bd 3cd9 75be e7c9 dd3c 6b17 2c3d
00000360: b5ec 62be 5d07 e73d b217 b5be e7f0 a9bd
00000370: c42c 9abd c3af 5d3e 9257 3a3d f7a7 643d
00000380: d5d7 8cbe eab8 8ebe 7cf1 ac3d 3161 89be
00000390: c5e9 993d 27d9 a43c 6aa2 5b3e d987 d93c
000003a0: 3c88 bd3d c8d3 80be 752e d2bd d38a 5abd
000003b0: c7da 8dbe 1dad ae3e 88b9 bb3d a702 8bbd
000003c0: a4f5 813d 1899 573e c376 283e 7076 8abd
000003d0: 5bae 1d3f 2ddb 70bd e4d7 3c3e 3601 b63c
000003e0: ecbf cdbd 072e 873d 8a2d 723e c355 7dbe
000003f0: 316d 27be a207 9ebe 0c2b 55be a301 66bd
0.060243383 0.17854418 -0.09004024 -0.15269595 -0.21227312 -0.23973234 -0.20183899 -0.2532673
-0.066871084 0.08385522 -0.036254596 0.035618305 -0.28960747 -0.046160486 0.1774072 -0.40232486
-0.20663165 -0.012322302 -0.12885208 -0.007042314 -0.2242284 0.42336178 -0.18543337 -0.1063841
-0.2697354 -0.16963962 -0.006330753 -0.1379088 -0.17427202 0.21559872 -0.25747165 0.03680159
0.19671342 -0.012929512 -0.14198646 0.1835625 -0.1910299 0.12468977 -0.035587598 0.12129762
0.121304885 0.1768482 0.1518606 0.08787953 0.18757853 -0.093033254 0.16060434 0.17597781
-0.37683046 -0.17498797 -0.07892062 0.16406189 -0.037308462 0.04426501 0.14810929 0.08120316
-0.13000031 -0.21445139 -0.26434326 -0.114075 0.08520983 0.24769436 -0.3370634 0.10075077
0.007870227 -0.03933908 0.2169808 -0.27194357 0.154428 0.057210546 0.217518 0.2219541
0.075306915 -0.08536271 0.3495693 -0.013836204 0.1178275 0.12128947 0.043732755 -0.024749616
-0.20354928 -0.10570135 0.06621424 0.026110476 -0.1529262 -0.0720627 -0.13286974 0.3364122
0.0637702 0.12755851 0.021207554 -0.20153324 0.07834307 -0.13624217 -0.38804755 -0.08117306
0.021524163 0.0861374 0.32515693 -0.2822551 0.14044325 -0.2612707 -0.00065344037 0.2124107
-0.15193619 0.046243615 0.06221372 -0.154284 0.0029821054 0.047622662 -0.17131849 0.18461607
-0.2937304 -0.0868169 0.03872138 -0.05967606 -0.28153682 -0.032952327 -0.22048669 -0.20479053
0.28981012 0.06539309 -0.039238382 -0.010893902 0.24245428 0.031228758 0.035588395 -0.32527816
0.3349152 0.15389046 -0.20080413 0.025706757 0.054540135 -0.02958419 0.10161094 -0.1478039
-0.33271384 -0.098560974 -0.18769023 -0.33868593 -0.36768523 -0.049805835 0.17908275 0.18778887
0.23710155 0.21305309 0.23537423 -0.08826236 -0.0767016 -0.09210994 -0.21920341 -0.13024281
0.050486866 0.15849632 -0.19199017 -0.21584724 -0.2227387 0.02519704 -0.07407028 0.16684696
-0.06370475 -0.0070703016 0.0703584 -0.15451348 0.00808042 0.0673215 -0.09940565 -0.069206856
0.1350412 -0.013205575 -0.15264904 -0.08944656 0.04109866 -0.1414629 -0.034859374 0.23065893
0.050667025 0.023952968 0.07420711 -0.027658306 -0.40233102 -0.08397458 -0.045681022 0.43298304
0.2786271 -0.14187577 0.07383506 -0.1344649 -0.122134864 -0.07842189 0.27197212 0.09799908
0.23289841 -0.07981434 0.26558593 -0.016346753 0.1402667 -0.03231303 -0.00023301088 0.15864325
-0.019532911 -0.18299834 0.027696894 0.28538448 -0.19545254 -0.30693254 0.11172159 0.22057031
0.020193951 -0.1889417 -0.091565095 0.28282213 -0.05490601 -0.2400865 0.027073814 0.04201452
-0.22160609 0.11280701 -0.3536964 -0.082979016 -0.075280696 0.21649079 0.04549367 0.055824246
-0.27508417 -0.27875453 0.08444497 -0.26831964 0.07515291 0.020123078 0.21448675 0.026554035
0.092545 -0.25161576 -0.10262767 -0.05335505 -0.27705976 0.3411645 0.09166247 -0.06787615
0.0634568 0.21054494 0.16451554 -0.067608714 0.6159417 -0.058802772 0.1844173 0.022217374
-0.10046372 0.06600576 0.23650184 -0.24739747 -0.16350247 -0.30865198 -0.20817202 -0.056153905

l5.weight f4 [256, 256]
00000000: 2b63 923d d405 b0bd ab9a 6dbd 90d0 873d
00000010: 463f 893d 99e5 903d 2621 a5bd bb2d 2b3e
00000020: 1218 8a3d 2798 d13c 7ff7 1f3c 251c 963c
00000030: 209c a93d 654a 60bf 8e28 3cbe bb84 e2bb
00000040: f0d0 2bbe 9f36 c33e 60a5 773d 5790 e9be
00000050: 2235 87bb 3642 babd dd85 cfbd ce8d c23d
00000060: bf2b 7bbe 23da f1bc e8f3 da3d 938e 6abe
00000070: f16d a7bc 052c 773d cf51 abbf 8910 cbbd
00000080: fb63 103e 9fd5 913c b114 823d 51f2 a7bb
00000090: 80c8 94bd a86e 953e 4a88 1dbf 2318 10be
000000a0: 22fb 9abd 301e 7a3d 6a8a 733d 4f95 67be
000000b0: 8d39 5b3d 195c 2abe e85a ffbc e55d 45bc
000000c0: b514 38be b031 5abe e4a1 623e 15ba 15bf
000000d0: 1645 c3bd 05ad 1f3e 2223 1bbc 8d8d 433e
000000e0: 4d9b 293c 9fed 4abe 9496 823b f8ec edbe
000000f0: f590 d23c fa7d 2a3e 1685 b0bd 071b ad3d
00000100: 61ec a5bc 95c4 87be bb75 a2bd 0a18 d7bc
00000110: 5a09 d13d b493 00be 132e f73c ad74 cb3d
00000120: 0568 823d abeb 04be 087a 05bd dc1c 8cbf
00000130: 36a9 3bbd 04f5 5e3e c8e0 993b 86be 89bd
00000140: fac5 1fbe a700 913d f04d 313e 12b6 93bc
00000150: edbc 183d 3a2b d9bb 3c57 c33c 4d67 ab3d
00000160: 823d debc ec15 20be 9345 173d cc0a ab3c
00000170: fde0 46bd 7a27 5d3e 7443 203e af06 b2bd
00000180: 9390 e3bd b21a c03d 05ed f83e 913f a33d
00000190: 145e 0d3d 6c14 fd3d 01dc cdbd f95e 41bf
000001a0: 4c00 9e3d ae21 88bd 82d3 bdbe b34d 5fbc
000001b0: d0ea dabc 353e 62bd 26d0 e43d e5d9 7abe
000001c0: 600c f83c d40e c1bd 0953 60bd 12e9 223e
000001d0: 2b5c fcbd 078f dd3d 86c6 41bd f821 7d3e
000001e0: eb32 ed3d 1796 5ebe 9900 cf3d 4a00 a33d
000001f0: 812a 23bf 7791 f8bc 17aa 3b3d 4f1b f73c
00000200: fdfe f13c 371e 0cbc 22fb fbbc 7ffb 41be
00000210: 21b0 27bc 818e e23d 240c 7a3a d545 4b3d
00000220: 5b00 bcbd c67e 79bd 95cd babc 0278 c7bd
00000230: 651b b53d f554 64be 57e7 d83e 5436 03bd
00000240: 9253 4abd 02c9 a33d 914a 553e 7da3 87be
00000250: 8d35 09be 7544 b8bd e70b 023e d1e8 0fbe
00000260: e7f4 2fbd 4ee8 3ebd c1ce 053f c9f1 35be
00000270: 016a 223d e530 dd3d d8e0 ac3c a6c7 433f
00000280: 3dc5 8e3d ec4b 933d d4f9 813e cb09 b2be
00000290: c92d 86bd ef22 a23c f74b 073e 496a f6bd
000002a0: 20da 1b3e 6c99 0fbc d1e4 2e3d 6101 973c
000002b0: 8b3f 813d 6040 a2ba 8937 49be 715a b9be
000002c0: 5f77 81bd 94b0 e6be 33aa 74be 00d1 303a
000002d0: 1f65 293e 87e2 21ba 1826 883c d9a4 1ebe
000002e0: 5d31 99be cbe9 03bc 4d59 563c 82d7 5b3d
000002f0: 6973 c03d 5232 f23a 93ca f7bd 41a1 9cbd
00000300: fa47 e9bd c210 2ebf 2c7a fbbd 3b44 5c3d
00000310: d1f5 a5bd faca 6a3e 8d2d ec3d 6310 d2bd
00000320: ef54 a0be 1143 173e 2611 f23d b5ad 2e3c
00000330: d51a d73d dcd5 adbd afa2 d4bd 7570 aa3d
00000340: 7d79 253d fde4 d9bd c359 0dbd 470a d8bd
00000350: 0c5e 9b3e f72e 83be 9137 8fbe c918 b6be
00000360: 4d71 d13a 24ec dbbd 071a 51be 9b11 af3d
00000370: 7fc2 d03d 5b56 d5bc ece1 733d 243f 5c3c
00000380: 4ed1 983d f59f 96bd ef19 5dbc 5ab7 4f3d
00000390: 83b4 e3bd 0dd4 773d 4391 013e b662 f03c
000003a0: 35c5 dcbc afc5 bf3d 2b83 f4bc 94bf be3d
000003b0: 903d 02bd 724d 96bf 3292 873d 5a9a 5dbe
000003c0: b524 65bd f8d5 8ebe e727 84bf 5e2e b63d
000003d0: fabd 79be c170 56be 8da0 41be 8098 243e
000003e0: 1926 bbbe 59e5 d63d bcca 0abe c4ec adbe
000003f0: 76b6 86be 9012 b33c 9474 9bbe f5ed c43d
0.07147821 -0.085948616 -0.05800883 0.06631577 0.067015216 0.07075042 -0.08062963 0.16716664
0.06742872 0.025585247 0.0097635975 0.018323967 0.082817316 -0.8761352 -0.18374845 -0.0069127954
-0.16778922 0.3812761 0.06046045 -0.45617935 -0.004126207 -0.0909466 -0.10132954 0.09499703
-0.24528407 -0.029522961 0.10691053 -0.2290595 -0.020438166 0.060344715 -1.3384341 -0.09915263
0.1410064 0.017802058 0.06351603 -0.005125322 -0.07264805 0.29185987 -0.61536086 -0.14071707
-0.07567431 0.061063945 0.059458174 -0.2261555 0.05352168 -0.16636695 -0.031171277 -0.012046312
-0.17976649 -0.21308017 0.22132069 -0.58487064 -0.095346615 0.15593345 -0.0094688255 0.19096966
0.010351968 -0.19817208 0.0039852355 -0.46469855 0.025703887 0.16649619 -0.08619134 0.08452421
-0.020254316 -0.26517168 -0.079326116 -0.02625658 0.10206862 -0.12556344 0.030173337 0.099343635
0.063674964 -0.12980525 -0.03258708 -1.0946307 -0.04581567 0.21773154 0.0046959855 -0.067257926
-0.15602866 0.070802025 0.17314887 -0.018031154 0.03728955 -0.0066274675 0.023845308 0.083693124
-0.027128939 -0.15633363 0.036931586 0.020879172 -0.04855441 0.2159709 0.15650731 -0.08692681
-0.1111156 0.09380092 0.48618332 0.07971109 0.034513548 0.12357411 -0.10051728 -0.7553554
0.077149004 -0.06647049 -0.3707543 -0.013629365 -0.026723295 -0.055235106 0.11172514 -0.24497183
0.030279338 -0.09426656 -0.05476669 0.15909222 -0.12322267 0.10818296 -0.047308467 0.2471999
0.115819775 -0.21736942 0.10107536 0.079590395 -0.6373673 -0.0303428 0.045816507 0.030164389
0.029540533 -0.008552126 -0.030759398 -0.18943594 -0.0102348635 0.11062337 0.0009538552 0.049627144
-0.09179755 -0.060911916 -0.022803107 -0.097396865 0.08843116 -0.22298034 0.42363998 -0.032034233
-0.049396105 0.079973236 0.20829226 -0.2649192 -0.13399334 -0.08997432 0.12699853 -0.14053656
-0.042958166 -0.04660826 0.52268606 -0.17768015 0.039651874 0.108003415 0.021103308 0.76476514
0.06971214 0.07192215 0.25385916 -0.34773096 -0.065517016 0.019792048 0.13212572 -0.12031991
0.15219927 -0.008764606 0.042698685 0.018433275 0.06310948 -0.0012378804 -0.19650091 -0.36201814
-0.06321596 -0.45056593 -0.23893051 0.00067450106 0.16542481 -0.0006175418 0.016619727 -0.15492572
-0.29920474 -0.008051346 0.013082814 0.05367232 0.09397013 0.0018478131 -0.12099185 -0.07647944
-0.113906816 -0.6799432 -0.12279162 0.053776007 -0.081035264 0.22928992 0.115321256 -0.10257032
-0.313148 0.14771678 0.11819677 0.010661532 0.10503165 -0.08488056 -0.10382592 0.08322231
0.040399063 -0.10639379 -0.03450943 -0.10548835 0.3034519 -0.2562177 -0.2797208 -0.35565785
0.0015979201 -0.107383996 -0.20420085 0.0854828 0.10193347 -0.026042154 0.059541628 0.013442788
0.07461797 -0.07354728 -0.013494953 0.050711967 -0.11118414 0.06050496 0.12653069 0.029343944
-0.026949504 0.09363877 -0.029847702 0.093138844 -0.03179699 -1.1742384 0.066196814 -0.21640912
-0.05594321 -0.2789762 -1.0324677 0.088955626 -0.24388877 -0.2094145 -0.18908902 0.16073799
-0.36552504 0.10492963 -0.135539 -0.339697 -0.26311082 0.021859437 -0.3036238 0.09615699
