HardcoreVersion_eval/ppo_q_critic3000.pth (torch, 373698 bytes, 10 tensors)

l1.weight f4 [200, 28]
00000000: 8e1e 0dbe 4561 583e d482 bcbe 60ec 51be
00000010: 43fd 97be a887 963c 8cfb ecbd 8bcb be3c
00000020: ac00 093d 5e2f 38be 322a 213c ef23 aebe
00000030: fc76 533d 41db 0eba 6089 8fbd 865a 5ebd
00000040: 3e11 5d3e db96 ec3d de41 9b3e 85c1 ecbd
00000050: 5ada c93d 17ce 863e fba6 8cbe ef92 31be
00000060: 060a 0bbc fa32 f53c cf3b adbc f0eb 553d
00000070: 8728 623e 43a9 ae3e 6601 93be 115f a9bf
00000080: e42e 6e3e b1ec 453d 4d12 4a3e b481 0b3c
00000090: e490 36bd 6c6b b2bc 942e 16be bf69 80be
000000a0: e295 cdbb f165 c23e ea3c 953e 3658 383e
000000b0: b931 cbbe 5533 e1be 0b57 073c e4e1 c03d
000000c0: e9c6 3b3e 8167 e8bd 479b 2bbd 0ddb ffbd
000000d0: f4df 3c3d 34e1 f73b 4e99 e7bd f250 633d
000000e0: d124 2b3e 1219 15c0 877e 80be f44a 7ebe
000000f0: 5037 413b eecc e1bd 8959 a83d 031f b2bc
00000100: 21c6 20bd bab9 e73d 9bca c9be 46ae 2fbd
00000110: 4cc9 cb3e e8ad 7a3e 1854 0d3e ac14 e3bc
00000120: 7f3f 2cbe 229b b0be a050 f0bc c57c e63c
00000130: c5a7 0c3e 60e7 c1bd a5f3 023d da5c bebd
00000140: 4e97 bcbc 42bb c9bb dc71 fabd a317 4a3e
00000150: 1f96 66bd c0c8 17bf a250 ab3e 4fd7 843c
00000160: fafa 02bd b3f0 663d d5a0 acbd 2533 4dbd
00000170: 6891 df3c bc51 053e 0826 5fbe c50f cf3d
00000180: d3d7 f1b9 9881 b9bd 5de9 0c3d b0ed 0c3d
00000190: a44e 3c3e 0fde 0e3e 21ce 89bd bf42 2e3e
000001a0: 35a0 2d3e 5ac0 9dbd 113f 593e b971 b33d
000001b0: 5714 683d b68c 113d be3b e0bd d160 b43d
000001c0: 7cb6 08bc 2ade b4bf b7ad 62be dfb0 9a3d
000001d0: 8744 51bd aeaf c238 28ed 06bd adc3 1b3c
000001e0: aae2 babc 87a9 2bbd 7336 18bf 7b6d 103f
000001f0: dc13 72be ebd4 02bd ae30 e0be cbb9 62be
00000200: 6498 873e 5c01 1c3e 0fa6 b03e bfa3 cd3c
00000210: 7594 63bd 54c7 ddbd 3063 cf3b c195 163d
00000220: d03b cf3c 340e c0bc 17f7 ccbe 2c69 a53e
00000230: 8c41 c13e f4a1 3abf b037 c63e f8d6 33bf
00000240: 3d94 abbd 4665 213d 5bee babc 12a4 9f3c
00000250: b7e6 083c 3e9c 183f 9baa 71bd fe3a c33e
00000260: 5f4d 823a 8252 afbc 1e92 873e f5d2 37bf
00000270: dbff 73bf 3dae ea3e 10d3 54be bde7 56bd
00000280: 5222 de3e 4a93 6ebe 5489 503d 4c12 05be
00000290: 0dc5 da3b 20a9 3e3c b6a5 71bc 04b0 08bc
000002a0: 850a e43d e58c 823e 0d59 29bf 2503 ec3e
000002b0: 5ae0 323e d6ab e93a 849c bebd 8790 343c
000002c0: bcb6 adbe 641e 24bd 5601 4d3c 592e 263e
000002d0: a889 38bc deed f4bc d8dc 263f 17b6 303e
000002e0: 8a4e 12bf bd6f 29bf 230e 79be b633 ad3e
000002f0: 0d2e d93e 7374 cf3e 9892 a5bd 8a1b 08bd
00000300: 0cc3 6dba 80da 353c 3705 583a 3a63 15bc
00000310: 5b45 c53d e1e5 d43d b6fd 97be c46b 85bd
00000320: f469 7e3c 1d9d c63d dbe6 9b3d 4a7b 603c
00000330: ccaf d3bd f516 a1bc 5963 4bbe be1f 633d
00000340: 72f2 0dbe 5c1c 203d 610b 31bd 8623 10be
00000350: 6ed1 f43a 23c9 60be edf3 8c3d b561 54be
00000360: 0c61 24be 9e8b 60be efea 87bd f4e7 59be
00000370: b21a e53d 7ffd a13d baba 16bd cb16 2abc
00000380: bf83 eb3d 1f2a 7f3e 3e90 2f3e bb8e a5be
00000390: 07fd 18be 2814 b53c 9539 eabd e86d 373c
000003a0: b480 843c f27f a23d 0a99 8c3c 61aa 843d
000003b0: 1a49 653c 1cfc 67bc 887e 80be f9be c3be
000003c0: e4ac 54bd fc47 d8bd 0b24 193e 8f2e 2b3e
000003d0: bc18 c9be 6553 02bf 70c7 813e 0cf7 e9bc
000003e0: 4967 d7ba 346a d63b b5b0 543c d5bc 4e3c
000003f0: a533 693e 9218 de3f 468f 1ebe 4a53 3d3f
-0.13781187 0.21130855 -0.36818564 -0.20500326 -0.2968541 0.018375233 -0.11571416 0.023290416
0.033447906 -0.17986819 0.00983672 -0.3401179 0.051627144 -0.00054495415 -0.07008624 -0.05428555
0.21588609 0.11552211 0.3032369 -0.115603484 0.098561004 0.2632911 -0.27471146 -0.17341207
-0.0084862765 0.029931534 -0.021146683 0.05222696 0.22085772 0.3411351 -0.28712004 -1.3232137
0.23260075 0.04832143 0.19733544 0.00851481 -0.044571772 -0.021779738 -0.14666206 -0.25080678
-0.006273971 0.379684 0.29148036 0.180024 -0.39686373 -0.43984476 0.008260499 0.09418085
0.18337597 -0.11347867 -0.04189613 -0.124929525 0.046112016 0.007564688 -0.113085374 0.055497117
0.16713263 -2.3296552 -0.25096533 -0.2483328 0.0029482432 -0.11025415 0.082202025 -0.021743303
-0.03925145 0.113147214 -0.39412388 -0.04289081 0.39802015 0.24480402 0.1380161 -0.027719818
-0.16821097 -0.34493357 -0.02933532 0.028135667 0.13735874 -0.094679594 0.03197064 -0.09295054
-0.023021366 -0.006156356 -0.12228748 0.19735579 -0.05629551 -0.59290695 0.33459955 0.016215948
-0.03197763 0.056381892 -0.08429114 -0.050097603 0.027291015 0.1301946 -0.21791852 0.1011043
-0.00046127904 -0.09057921 0.03440224 0.034406364 0.18389374 0.13951896 -0.06728769 0.17017649
0.16955645 -0.07702704 0.21215464 0.08761925 0.056660023 0.035534583 -0.10948895 0.08807529
-0.008344289 -1.4130299 -0.2213658 0.07553267 -0.051090743 9.283364e-05 -0.032941014 0.009507102
-0.02281316 -0.04190972 -0.5945808 0.56417054 -0.23640388 -0.031941336 -0.4378714 -0.22141187
0.26483452 0.15234894 0.34501693 0.025102494 -0.0555615 -0.108290344 0.0063289627 0.03676391
0.025297076 -0.023444273 -0.40032265 0.32306802 0.3774532 -0.7290337 0.3871436 -0.7024989
-0.083778836 0.039403223 -0.022818735 0.019487415 0.008355788 0.59613407 -0.059000593 0.38130945
0.0009941271 -0.021401647 0.26478666 -0.7180627 -0.9531228 0.45836058 -0.20783639 -0.052467097
0.4338556 -0.23298374 0.050912216 -0.12995261 0.0066763223 0.011637002 -0.014748981 -0.008342747
0.11134819 0.2549812 -0.66151506 0.4609615 0.17468396 0.00178277 -0.09307197 0.011020786
-0.33928478 -0.040068045 0.012512526 0.16228618 -0.011263289 -0.02989858 0.6518073 0.17256962
-0.5715109 -0.66186124 -0.24321799 0.33828515 0.42417946 0.4051853 -0.08084601 -0.03322939
-0.0009069897 0.011099458 0.0008240523 -0.009117896 0.09632369 0.103954084 -0.29685754 -0.06514695
0.015528191 0.09697936 0.076123916 0.013701269 -0.10336265 -0.019664267 -0.19862117 0.055450194
-0.13862017 0.039089546 -0.043223742 -0.14076051 0.0018678138 -0.21951728 0.06882463 -0.20740397
-0.16052645 -0.2192826 -0.06636607 -0.2127989 0.11186732 0.07909679 -0.03679917 -0.010381411
0.11499738 0.24918412 0.17144868 -0.32335457 -0.14940272 0.022104338 -0.11436764 0.011195637
0.016174652 0.0793456 0.017162818 0.0647781 0.01399448 -0.014159229 -0.25096536 -0.38231638
-0.051922694 -0.10560605 0.14955156 0.1671698 -0.39276683 -0.509085 0.2534747 -0.028560184
-0.001643398 0.006543422 0.012981583 0.012618263 0.22773607 1.7351248 -0.15484342 0.73955214

l1.bias f4 [200]
00000000: be83 923e 8fec e8bc 2581 13bf ddc6 2bbe
00000010: 0ae2 24bd 1469 df3c 5f58 123e 2907 17be
00000020: e59e 1b3f be9d 84be d4c4 063e 04cc e4bd
00000030: ebbc ec3d 70f8 d8be 3e62 a1bd d505 4d3e
00000040: 926a bf3e 59c8 11bd 4c21 7b3e f4d7 b93e
00000050: 2ce4 14be 0b76 033e 3fe2 a7bd 4b13 05be
00000060: 9de0 2c3e c2f4 373e 44ac 1c3f 7c51 35bd
00000070: b015 86bc 9a75 603e bfdf 8b3e 86c1 8c3e
00000080: 8974 d8bd bba1 86bd d64d a3be ed8a 11be
00000090: d974 173e 0174 2b3e 4b61 a73e e364 013e
000000a0: 0d45 7e3d a733 fa3b 4ee6 9f3d 33f3 08be
000000b0: 4866 b1bd 7d87 97be e44f 80be f3ba 083f
000000c0: 4288 303d 2302 223e b05d d33a 4a0b fc3e
000000d0: 2a5f 903e b7db 8d3e ad12 e13e 80f9 3cbe
000000e0: 08b2 8d3e 89dc dbbb abac 983d 9108 c93c
000000f0: 09bd 6e3e 4d62 16bc e6e6 6abe c403 d3bd
00000100: 15fc 5abd 5f41 6b3e c311 d1be c91b 0dbe
00000110: 80ac 4cbe 4304 ef3d 5074 143f 0d84 9cbd
00000120: a1a9 c23e dc78 bebc d010 2d3e 0164 933d
00000130: b047 92be ec32 e6bd 80ae 823e 09d4 a6be
00000140: 5b4d 3d3c f815 383e 9a72 6bbe 1978 6abe
00000150: 04a5 643e 7f1c 953e 587d 483c 0141 dfbd
00000160: 06b1 283e 4724 2e3e 462d b03c b62b 9a3d
00000170: f454 2e3f 103b eb3d 2ae2 13bc bd35 6a3e
00000180: 3512 283e fffd cc3c 042f 473e 1180 193e
00000190: afe1 a83d 8127 96bd ccec 8ebe 02d8 04be
000001a0: 83f3 1fbe 9338 e3be 8ebc 103e 0b0f b6bd
000001b0: 59c5 f73c b365 5c3e df9a 0f3f ebca 2b3e
000001c0: 1459 09bc ec69 1b3e 7db4 983e 521e ae3e
000001d0: 0495 86be 4dc7 2ebe 9aca babe ec8e 443e
000001e0: 2d99 88be 3cd6 a2be 248b c93e eb26 073f
000001f0: efb2 903e 71e1 3a3e fe4e e7be 0580 8a3d
00000200: 9f25 02bf 0216 b1be 6863 663b d639 593e
00000210: 06cd 47be 5f5d 7e3e c63c b4bd 3e01 9dbb
00000220: 4cef 6bbc 0b3b 80bd 14d6 e13c c5f0 3a3c
00000230: 36da 57be ddb4 ccbd d20b 393e 04d9 24bd
00000240: 4712 0d3e bd8d 69bd 8c47 63be 6dd3 fbbd
00000250: 87d6 223e c2f5 013e cf2a 343e e09f 48be
00000260: d0eb 8abd 8aa2 d4bd 130b 253e 72c7 8abd
00000270: fdeb e03e 4546 c43d 8fb3 ed3d ad94 8abd
00000280: 69d2 09bd 02bc a53d 9fa7 2bbe 18c5 9ebe
00000290: 65b7 0ebe 0932 7a3e b245 bf3e 3ca4 453e
000002a0: 3457 8e3d 9e67 8f3e 6d65 a6be 4907 fabd
000002b0: 8c3f 153e 9e36 453e bbdf d5be ad5b 8ebe
000002c0: 1825 5b3d 6fae 66be 8483 81be e6e3 e3be
000002d0: d14e 613c 8d3b cb3d 0b3e 56be ab2f 673e
000002e0: 9a23 0cbe 414a 22be b0c5 073d 7323 be3e
000002f0: c83c ed3e 0032 d5be d829 77bb 70f8 013d
00000300: 65e6 913e dca2 813b cd61 153e 64e3 1c3e
00000310: 2372 cbbc 2cb5 e43e 98e5 e6bd c706 46bb
0.28616136 -0.028433112 -0.57618934 -0.16775079 -0.04025463 0.027271785 0.14291523 -0.14748825
0.6078933 -0.25901598 0.13161021 -0.111717254 0.11559471 -0.42377043 -0.07880066 0.20021756
0.37385994 -0.035591457 0.2452442 0.36297572 -0.14540166 0.12837999 -0.0819745 -0.12995641
0.16882558 0.17964461 0.61200356 -0.044267163 -0.016367763 0.21919861 0.27319142 0.27491397
-0.10569102 -0.065738164 -0.31895322 -0.14213152 0.14790668 0.1674347 0.32691416 0.12636141
0.06207757 0.007635552 0.07807599 -0.13374023 -0.08662087 -0.29595557 -0.25060952 0.5341026
0.043098696 0.15821128 0.0016125944 0.49227363 0.28197604 0.27706692 0.4395956 -0.18454552
0.2767489 -0.0067096394 0.07454809 0.024540218 0.23314299 -0.00917871 -0.22939643 -0.103034526
-0.05346306 0.22974156 -0.40833864 -0.1378013 -0.19987679 0.11670735 0.5798998 -0.07642374
0.38020042 -0.02325099 0.16900945 0.071968086 -0.28570318 -0.11240181 0.25523758 -0.32583645
0.0115540875 0.1797713 -0.22992936 -0.22897376 0.22328573 0.29123303 0.0122369155 -0.109010704
0.16473779 0.17006026 0.021505963 0.075278684 0.6809838 0.11485875 -0.00902609 0.22872062
0.16413195 0.025023459 0.19451529 0.1499026 0.08246171 -0.073317535 -0.27915037 -0.12973025
-0.15620236 -0.443791 0.14134428 -0.08889588 0.03024547 0.2152317 0.5609569 0.16776626
-0.008383054 0.15177125 0.29825202 0.34007508 -0.26285565 -0.17068215 -0.36482698 0.19195145
-0.26679364 -0.31804073 0.39363968 0.5279376 0.28261515 0.18250062 -0.45177454 0.06762699
-0.50838655 -0.34587103 0.0035154466 0.21213469 -0.19511804 0.24840306 -0.08800654 -0.004791408
-0.014400315 -0.062612616 0.0275679 0.011409943 -0.21079335 -0.099954344 0.18070915 -0.040246025
0.13776504 -0.057019938 -0.22195262 -0.12296186 0.15902148 0.12691405 0.17594455 -0.19592237
-0.06783259 -0.10382564 0.16117506 -0.067763224 0.43930045 0.09583715 0.11606514 -0.06766639
-0.03364793 0.080925 -0.16763161 -0.31009746 -0.13937147 0.2443315 0.3735786 0.19300932
0.069502264 0.2800874 -0.32499257 -0.12208421 0.14575022 0.19259116 -0.41772255 -0.27804318
0.053502172 -0.22527479 -0.2529565 -0.4450981 0.013751701 0.09923468 -0.20922105 0.22576778
-0.13685456 -0.15848638 0.033147514 0.3713642 0.46335435 -0.4163971 -0.003771415 0.03173107
0.2849609 0.003956182 0.1458809 0.15321118 -0.024834698 0.44669473 -0.1127426 -0.0030216442

l2.weight f4 [200, 200]
00000000: 6d1b a3bd 6ebb 253e 9daa 88be 818d 48be
00000010: 73e5 61be 5fc4 0abe c625 2ebe dc33 6fbe
00000020: a21a 833e 8695 e73d 3bc6 5ebd 6f5b ccbd
00000030: 3486 12bd 5288 8c3b 9464 3cbd f1eb 083e
00000040: 1dd3 e23e f2c8 d5bd 824a 13bd fd2f 023e
00000050: 5fe2 f2bc 5dd9 03bd 5d4c c6bc 10e9 4cbe
00000060: e58a 5b3e d663 833e 8193 983e 82a1 9d3e
00000070: e99f 13be d660 d83c b4bf 803e c350 b0be
00000080: b5c2 c6bd 81db efbc 677b fa3e 02df 763d
00000090: 7eb3 0d3d e0da 043e 0979 4b3e 7254 a5bd
000000a0: 4097 aebe c052 a5bd 0182 ffba 16b5 2bbe
000000b0: 3dfc 3cbf 045a 0fbf 8c0f 05be 8b52 f53d
000000c0: e53f 093e 8b89 5cbd ac45 e6bd 9e79 4a3d
000000d0: 1c01 17bd 159d 6d3e 57db b53d 72f5 33be
000000e0: 2caa cc3c af41 183d b4c6 14bf 3f7e 133d
000000f0: e8c3 273e 19ba c8be 5d53 ad3e 1a9a 903d
00000100: eec4 15be fdf0 8abe 3bf0 90bc f31c 6fbd
00000110: 9f76 91bc 09f2 2abe a132 9f3e 1fad d7be
00000120: 3012 703d 5987 f4bd a0b5 52be 0b73 c93c
00000130: fe95 debc aaba 943e 15d9 e53d f9c8 93be
00000140: 2f70 023e f717 afbd 09ba 88be ab79 93bb
00000150: 08cc d9bd 68da efbc 59b4 f43c 7279 76be
00000160: fabc 423e 75e8 e7bd 4270 05be 3e88 c4bd
00000170: e761 b1be 53a3 f23d 653c 4c3e f87c 5f3e
00000180: 48ff 12bd 918d b33d 57c4 b2be e398 bb3d
00000190: a1b0 ca3d 890f 6ebe e874 0dbe 4fb0 d4be
000001a0: 95bb b3bd dd2c 5c3e dd79 60be 4654 c03e
000001b0: abb3 113f 0552 16be ede6 183e d559 823d
000001c0: 638f b7be aaae 943e 99b5 92bd 5894 44be
000001d0: 7f4f bb3e 07c5 d43e 8297 6dbe 1b06 be3a
000001e0: 8309 02be f102 e9bd 154d d03d 2df3 8a3e
000001f0: be9b 533e 6adb 2f3e 7ac3 993e f6ce 703d
00000200: fc10 a43d 02a9 dbbd d91c 503e f85f 013e
00000210: 6b38 19be 8ba4 7c3e c90c 913d ceac 553e
00000220: 213c 8bbe 023e ab3d 05f2 de3e 8969 86bd
00000230: de87 3abf 8772 943e c5a4 1e3d 80c8 2fbc
00000240: f474 263e 0707 333b 7cc2 3a3d 30ca 7a3e
00000250: 9443 393e 06f6 94be cd62 333e 7a32 eebc
00000260: 77ed 3ebd af36 2c3d 14ea c8bd ba02 bbbc
00000270: 3026 d8b8 a573 083d 4cb0 62ba a9cf 32bb
00000280: bc69 cdbe aab3 53be e0c5 71bd bacb d8bd
00000290: 0791 2b3e eed1 433e bfd3 233e 0c58 0c3e
000002a0: 2ccf 9cbc ab9a f3bd fed7 593e 2a36 7d3d
000002b0: df48 f3bd 66bf 0e3e 7223 0bbb 7a61 c3be
000002c0: 10ae f53d 86ba adbd 0091 0b3e f9c0 083e
000002d0: b7f9 95be 57b4 2cbe 9632 e03e 4559 77bc
000002e0: 352d 8abe 6f70 36be 1214 793d dee4 8a3e
000002f0: 5234 543d bb0b 363d fb71 723e de17 cd3b
00000300: d4a4 e73d 6c7a 2b3d 37b1 013e 09bb b5bd
00000310: 6c4e 2ebe 389d 623e c21a d2bd a84e 393e
00000320: 760a 8d3d 852f 63be 755a 1bbe 407c 213e
00000330: 1c1f 6c3e c54e 983e 823a a3be 0ce1 af3e
00000340: b219 8ebd 002a 503e 28d5 663d f148 fa3d
00000350: f6f5 a6be b216 403e b1f3 aabb ebff 213f
00000360: db71 d03d 46f7 7bbd 30f4 af3d c548 e73e
00000370: 156f 7bbe 1a4c c1bc 1c7f 983d 80ee 203d
00000380: 9032 9dbd dffe efbd 514f 193d 8238 04be
00000390: 7120 cb3d 3c51 003e 015b 063d 4806 85bf
000003a0: d3ba 7a3c 6540 b03c f55a c33e b03c c93c
000003b0: 9c64 61bc 835a e13d 5ec2 1d3e 8bf4 a03d
000003c0: a1f2 0bbe a194 ba3d ef18 e5be 452b ecbe
000003d0: d4f0 76be 0faa ce3d 7f7f c13d c8b0 49be
000003e0: d41e efbe 4527 003e 357a 8fbc 5498 e13d
000003f0: 0386 a5be 56cd 8fbe 823e c0bd ef24 f0bc
-0.079642154 0.1618478 -0.26692668 -0.1958523 -0.22060184 -0.13551472 -0.17006597 -0.23359627
0.25606257 0.11307816 -0.054388266 -0.09978377 -0.035772517 0.0042887116 -0.045994356 0.13371255
0.44301692 -0.10438718 -0.035959728 0.12713619 -0.029648958 -0.032189716 -0.024206335 -0.20010781
0.21439703 0.25662106 0.29800037 0.30787283 -0.1441647 0.026413362 0.25146258 -0.34436616
-0.09705106 -0.029279472 0.48922274 0.06027127 0.034595005 0.12974119 0.1987039 -0.08072747
-0.3409977 -0.08072424 -0.00194937 -0.16768298 -0.73822385 -0.5599673 -0.12994212 0.119786344
0.1340328 -0.05384211 -0.112437576 0.04943239 -0.036866292 0.23204453 0.088797264 -0.17574099
0.024983488 0.037172016 -0.58115697 0.03600907 0.16383326 -0.3920448 0.33852664 0.070606425
-0.14625904 -0.27136984 -0.017692676 -0.058377218 -0.017756758 -0.16693892 0.31093314 -0.42124268
0.058611095 -0.11939878 -0.20577097 0.02459099 -0.027171131 0.29048663 0.11223046 -0.28864267
0.12738107 -0.08549493 -0.26704434 -0.004500588 -0.10634619 -0.029278949 0.029871153 -0.24069765
0.19017401 -0.113236345 -0.13031104 -0.09596299 -0.34645006 0.11847558 0.19944914 0.21825016
-0.035887986 0.08767236 -0.3491542 0.0916002 0.098969705 -0.23248114 -0.13814127 -0.41540763
-0.08776013 0.21501489 -0.21921487 0.37564296 0.56914777 -0.14679725 0.14931841 0.0636479
-0.35851583 0.29039508 -0.07163543 -0.19197214 0.36584088 0.4155657 -0.23202327 0.0014497669
-0.12698941 -0.11377514 0.10170952 0.27138653 0.2066488 0.17173544 0.3003195 0.058791123
0.08011052 -0.10725595 0.20323505 0.12634265 -0.14962928 0.24672143 0.07082517 0.20866701
-0.27194312 0.083614364 0.4354402 -0.06563098 -0.72863567 0.28993627 0.038731355 -0.010728955
0.16255552 0.002731742 0.04559563 0.24491191 0.18092185 -0.2909395 0.17518158 -0.029076803
-0.046613183 0.042044338 -0.09810272 -0.022828449 -0.000103067956 0.033313412 -0.0008647486 -0.002728442
-0.4011973 -0.20674005 -0.0590266 -0.10585733 0.16754542 0.1912305 0.15998743 0.13705462
-0.019141756 -0.11894735 0.212738 0.061819233 -0.118791334 0.139402 -0.0021230844 -0.38160306
0.119960904 -0.08482842 0.13629532 0.13354863 -0.2929208 -0.16865669 0.43788594 -0.015096967
-0.26987615 -0.17816328 0.060810156 0.27127737 0.05180771 0.04444478 0.23676293 0.0062589487
0.11310735 0.041864797 0.12665258 -0.08873565 -0.17022103 0.22130287 -0.1025901 0.18096411
0.06886761 -0.22186096 -0.15171225 0.15770054 0.23058742 0.29747596 -0.31880575 0.34351385
-0.06938495 0.20328522 0.056355625 0.12220944 -0.32609528 0.18758658 -0.0052170386 0.63281125
0.10177966 -0.061515115 0.08591497 0.45172706 -0.24554093 -0.023595858 0.07446119 0.03928995
-0.0767566 -0.11718535 0.037429158 -0.12912181 0.09918297 0.12530988 0.03280163 -1.0392542
0.015303331 0.02151508 0.38155332 0.02456507 -0.013756897 0.11003592 0.15406176 0.07859143
-0.13666774 0.0911038 -0.44745585 -0.46126762 -0.24115306 0.1009103 0.09448146 -0.19696343
-0.46703207 0.1251498 -0.017514328 0.110153824 -0.32328805 -0.28086346 -0.093869224 -0.029314486

l2.bias f4 [200]
00000000: 288e 6a3e 1963 0abe b3a8 a53d df7a 783d
00000010: 7c1e eb3c 5572 903d 1374 fb3c a220 dbbd
00000020: 5fbb 08be 74aa d9bd 7c65 543c f3ed 583d
00000030: 707b 593c d31f 163d 8ed6 aa3d c112 a0bd
00000040: d158 13be 8bbc 0fbc a679 9f3c d15b ca3d
00000050: e55f 82bd 120c 68bd 7791 e43d 1c9c 193e
00000060: f19f d9bc 30f1 7e3d d6e7 18bd 17a4 45be
00000070: e696 13be 639c 853d a3fe a8bb 5c7a 8ebd
00000080: 1de0 e5bd add2 a03d a526 5ebd 9209 0abd
00000090: 529e d3bd cf2b 7cbd 8c2a bbbc 46d7 09bd
000000a0: e234 313d bf10 093e 1f7e bebd 2448 aabd
000000b0: dd0e f6bd 67fa ab3b 1748 62bd 8b08 633d
000000c0: 40c0 c93d cb3c b7bd 116f bbbd 28fb b0bd
000000d0: 1167 20bd 145e c33d 1f09 db3c ad4d 783d
000000e0: 192c 4ebd 3251 fabd 7414 86bd 60e3 40bd
000000f0: b97e be3d b38e 96bd 8196 49bd 85a1 f1bc
00000100: dce6 ef3d 4ef6 7abd ee9d bf3c 3926 8abd
00000110: 9ce0 a3bc c103 dcbc 5729 d03d 33ef 07be
00000120: 2a0f 083e cd81 99bd d387 cebd 13a8 e73d
00000130: 8947 7bbd 89dd f4bd e21a de3d 6861 01bd
00000140: 89e0 e73c 7ec7 b53d 38e4 a9bc b042 003e
00000150: e2f6 543d 1bdc 5f3d 13b6 0f3e bbac ffbd
00000160: cb4c dc3c 2fe7 ed3a fff7 70bd f079 5b3d
00000170: 5072 6db9 01af 013e 3e83 b2be a206 e23d
00000180: 5d4f 13be 0586 6ebc 79d9 8bbc be01 aa3d
00000190: 6b75 6d3c 5b77 80bd e9c9 ddbd c92b f53d
000001a0: 77c6 8cbc 7601 5a3c 475c 2ebe 1258 4bbd
000001b0: f64f 14be b4ce 543d fa31 8fbd 4235 27bd
000001c0: 7c0d 69bc d260 fc3d 8ee7 8ebd 465e 3dbd
000001d0: 82af 873d b06c 043c 4e29 5bbe 9377 86bb
000001e0: c67f 82bd 1b61 cabd 96fb 12be 4d56 c93d
000001f0: d125 17bd 088f 53b9 b3f7 143c 64c7 bb3d
00000200: dd66 d4bd d358 073b c7b3 4fbd 5f66 55bc
00000210: 7848 023d 3444 ec3d d1a9 5bbd 55d6 bebb
00000220: ffc0 073d 1d6a 653d 7ba2 fd3d 92e3 60bd
00000230: 685a 3e3d 165d 463d 9e8f 633d 0b5c 2bbd
00000240: a2cc ee3d 207e 0a3d cd20 4e3d 78fb d03d
00000250: dbed 353d 8b93 023d 7f37 013d ac94 f3bd
00000260: 25ef 0dbe 030b 913d cab2 24be 677f 2dbe
00000270: ccc0 1dbd a1e6 c13d ffa3 263d 45c2 b83c
00000280: 5af3 c93d 01d1 263c 6e4d 03be 513f d4bc
00000290: 49fb 13be 54a9 083d 04ee 26bd 49d7 15be
000002a0: e123 cbbd e652 84bd 9827 12bd edc3 ba38
000002b0: 5083 a9bd 66d3 753d ea1d 8d3d 668b a9bd
000002c0: 3900 4d3d 7861 b93c 8b82 8a3c 45bc ce3d
000002d0: 393d 7d3d 2ca2 0fbc 9f5f 343d 9c9a 60bd
000002e0: 7ddd d5ba 1d2f ea3c b342 103a ba33 8d3c
000002f0: bbec 0e3e 1a2d 533e 7dff 52bd 0e39 5f3d
00000300: 191c 5cbd d6fc 5fbd 25c1 f13d 1585 debc
00000310: ca03 af3d 560d a9bd d806 f63d 8a33 bfbc
0.22905791 -0.13514365 0.080888174 0.060664054 0.02870106 0.07053057 0.030694997 -0.106995836
-0.13352726 -0.106282145 0.012963649 0.0529613 0.013274059 0.036651444 0.08341704 -0.07816077
-0.1438935 -0.0087729795 0.019467186 0.09880794 -0.06365947 -0.056652136 0.11160558 0.15000957
-0.026565524 0.062241733 -0.03733047 -0.19300877 -0.14413032 0.06523969 -0.005157308 -0.06956932
-0.11224387 0.07852683 -0.054236073 -0.033700533 -0.103329316 -0.061565217 -0.022847436 -0.033652566
0.043263324 0.13385294 -0.093013994 -0.08314541 -0.12014554 0.005248356 -0.05524453 0.05542807
0.09851122 -0.08947142 -0.091520436 -0.08641654 -0.03916079 0.09539428 0.026737748 0.060620952
-0.050335024 -0.12222518 -0.0654687 -0.04709184 0.09301514 -0.073514365 -0.049215797 -0.029495964
0.11713955 -0.06127005 0.023390736 -0.06745572 -0.020004563 -0.026857259 0.10164135 -0.13274841
0.13287035 -0.07495461 -0.100845 0.113113545 -0.061347518 -0.11956317 0.10844971 -0.031587034
0.028305309 0.08875941 -0.020738706 0.1252544 0.05199326 0.05465327 0.140343 -0.124841176
0.026892086 0.0018150563 -0.058830258 0.053583086 -0.00022644666 0.12664415 -0.34865755 0.11036421
-0.14385743 -0.01455832 -0.017071472 0.083011135 0.014493327 -0.06272765 -0.10829527 0.11971242
-0.01718448 0.013306012 -0.17027389 -0.049644537 -0.14483628 0.05195494 -0.06991954 -0.040822275
-0.014224406 0.123231545 -0.06977759 -0.046232484 0.06625272 0.008082554 -0.21402475 -0.00410361
-0.06372027 -0.09881803 -0.14353785 0.09830914 -0.0369013 -0.00020175811 0.009092259 0.0916889
-0.10371182 0.0020652309 -0.05070856 -0.013024895 0.031807393 0.11536446 -0.053628746 -0.00582389
0.03314304 0.0560094 0.12384506 -0.054904528 0.046472937 0.048428617 0.055556886 -0.041835826
0.11660124 0.03381169 0.05032425 0.10204214 0.04441629 0.03187899 0.031547066 -0.11893591
-0.13860758 0.070821784 -0.16083828 -0.16943131 -0.038513944 0.09467817 0.040683743 0.022553572
0.09860869 0.010181666 -0.12822506 -0.025909098 -0.14451326 0.03336461 -0.040754333 -0.14632906
-0.09918953 -0.06461124 -0.03568229 8.905665e-05 -0.08276999 0.06001606 0.06890471 -0.08278541
0.05004904 0.022629485 0.01690795 0.10094503 0.061825965 -0.008766692 0.044036504 -0.054834947
-0.0016316619 0.028586918 0.0005503103 0.01723658 0.13957493 0.20622674 -0.051513184 0.05449777
-0.053737734 -0.054684483 0.118044175 -0.027163068 0.085456446 -0.08254497 0.12013024 -0.023340005

l3.weight f4 [1, 200]
00000000: 038a 90bf 2ff3 343f 6f2c 0dc0 3bd6 95bf
00000010: 4e71 52bf 47f2 43bf 2b87 583e b7dc e83e
00000020: 4ece 353f a83a 8d3f 9cf0 56bf 9eaa 2f3f
00000030: ffb5 30c0 fa3e 06c0 7375 cfbf eca4 303f
00000040: 3d2f 023f 8e50 96bf ca58 8c3f a947 7cbf
00000050: 0aeb 3a3f c9fc d13e 6d2c a5be ea6c 65bf
00000060: 438b 81bf 0b5b 69bf 1b8c f13e 077b ab3f
00000070: 1aba 6fc0 5aae 533f 97b1 d53e 18de dcbf
00000080: 2297 443f df5c f1bf 0a0a 053f 3c72 223f
00000090: 3ce9 663f 4cc4 1c3f 5e21 d73e f680 b63f
000000a0: a5a0 61bf e7ec 9bbf 2083 1bc0 0872 b93e
000000b0: 0dee b53f 63f6 bcbf 8016 a5bf 9491 09c0
000000c0: f351 51bf 3042 e73e 7731 013f 7a03 a03f
000000d0: f892 de3c 9f4e c2bf 34d5 b2bf d426 44bf
000000e0: 83a0 f83e 85ed 973f 4625 a33f cc3a 503f
000000f0: 01bc adbf 4b05 a4bf 327d 51bf 4946 db3e
00000100: 5784 91bf c900 b03f ef91 b53f cf02 123f
00000110: 7af6 b33f 5144 1d3f a468 63bf 3dd0 95bf
00000120: d354 35bf 1baf d53f c8e4 d43e 9ead 09bf
00000130: 1be7 173f 08fd ac3f bee4 2ec0 fe43 073f
00000140: 21d2 0fbf ee69 85bf 0b8d 8dbf 70dd d03f
00000150: b60a 70bf b4a5 3bbf 3189 a2bf 4c6a 0f3f
00000160: d92b eabf 34d1 723e 1618 0e3d eb81 4ebf
00000170: 5c7d 733b 30fa a1bf 9257 4340 0851 84bf
00000180: f6e2 0f3f 6555 923e 13c0 4c3f 9ed7 38c0
00000190: 3b45 bc3e 7b5e 203f d47d 033f 6d01 f2bf
000001a0: 0484 de3e 7716 94bf b75c 583f 37d3 a6bf
000001b0: deb4 1a3f 3d2b aa3f 240f e63e 6de6 943f
000001c0: 4e69 213d 1ce5 1340 589f b93e f567 d6bf
000001d0: 2210 2dc0 90c3 953e e88c 983f 6cbb 4f3e
000001e0: a2d2 223f fc49 993e 189d e73e a590 853f
000001f0: 5c37 eabf 28ad 5dc0 c7c5 8dbf 8b64 a7bf
00000200: ffc3 433f d9d4 023d d73c d8bf 9cc0 ce3e
00000210: 1ef8 64bf 1c58 57c0 9a86 2d3f e61e 8bbf
00000220: 9fe5 28c0 ab68 a43f 0ce9 63bf bfc0 143f
00000230: e4af 80bf ad67 3fbf b6a9 0040 2806 dcbf
00000240: b3af 85c0 7470 b3bf 9dd4 64bf e1ab b9bf
00000250: 6fc1 90bf 789d f43f f361 4d3e dd05 bebf
00000260: 149a 6a3f 9d89 2abf 7d21 193f cf66 de3e
00000270: 90e4 8cbf 7801 00c0 fc72 dcbf c940 83bf
00000280: ea5c 98bf cf89 613e 381b 073f 2fa8 d73e
00000290: 2c41 953f 33fc 213e e379 7d3e d2f7 a4bf
000002a0: 4df1 883f 885b 203f 03a7 8e3e 02d0 2fc0
000002b0: ba4d 47bd 276e 62bf 5d0c 46bf 7216 493f
000002c0: e3cd 94bf 185a 693e 3214 bdbf 48d8 6fbf
000002d0: d44e 843e bee9 aa3f 449a fc3f 01bc 0bbb
000002e0: bbd8 44bf 08a1 41bf 29f1 6f3e cea0 8a3f
000002f0: aa6b b9be 8e68 0740 215d 193f fad9 23bb
00000300: cb40 f1bf 53e5 2a3f 2b0b 83bf 6158 4f3f
00000310: 0ffa b23f e3e8 ec3e eb7e d23f 464e 94bf
-1.1292118 0.7068357 -2.205837 -1.1706003 -0.8220414 -0.7654156 0.21145312 0.45480892
0.7101792 1.1033525 -0.8396089 0.68619716 -2.7611082 -2.0975938 -1.6207718 0.6900165
0.5085333 -1.1743333 1.0964596 -0.98546845 0.7301489 0.41013172 -0.32260457 -0.89619315
-1.0120624 -0.91154546 0.47177204 1.339692 -3.7457337 0.82687914 0.41737053 -1.7255278
0.7679311 -1.8856467 0.51968443 0.6345556 0.9019964 0.61237025 0.42017645 1.4258106
-0.8813575 -1.2181672 -2.4298782 0.3621981 1.4213272 -1.4762691 -1.2897491 -2.1495104
-0.8176567 0.45167685 0.504661 1.2501061 0.02716969 -1.5180243 -1.3971314 -0.76621747
0.4855996 1.186936 1.274575 0.81339717 -1.3572999 -1.2814115 -0.8183166 0.4282706
-1.1368512 1.375024 1.418516 0.57035536 1.4059594 0.6143237 -0.88831544 -1.1704174
-0.70832556 1.6694063 0.41580796 -0.53780544 0.59337014 1.3514719 -2.7327113 0.5283812
-0.56180006 -1.0422952 -1.1058668 1.6317577 -0.93766344 -0.7329972 -1.2698117 0.5602157
-1.8294631 0.23712617 0.03469094 -0.8066699 0.0037153577 -1.2654476 3.0522199 -1.0337229
0.5620569 0.28580776 0.7998058 -2.8881602 0.3677157 0.62644166 0.51363873 -1.8906685
0.43460095 -1.1569356 0.8451647 -1.3033208 0.6043223 1.3294445 0.44933426 1.163282
0.039407067 2.3108587 0.36254382 -1.6750475 -2.7041097 0.29250765 1.1918001 0.2028634
0.6360265 0.29939258 0.4523704 1.0434767 -1.8298144 -3.4636936 -1.1075982 -1.3077558
0.7647094 0.03194127 -1.6893567 0.40381324 -0.89441097 -3.3647528 0.6778351 -1.0868804
-2.639015 1.2844442 -0.89027476 0.5810661 -1.0053678 -0.7476757 2.0103583 -1.7189379
-4.1776977 -1.4018693 -0.8938692 -1.4505578 -1.1309031 1.9110556 0.20056896 -1.4845539
0.91641355 -0.6661623 0.59816724 0.43437812 -1.1007252 -2.0000896 -1.722259 -1.0254146
-1.1903355 0.22025226 0.5277591 0.421205 1.1660514 0.15818863 0.24753527 -1.2888129
1.0698639 0.62639666 0.27861795 -2.7470708 -0.04865811 -0.8844933 -0.77362615 0.78549874
-1.1625332 0.22788274 -1.4771788 -0.93689394 0.2584139 1.3352582 1.9734578 -0.0021321776
-0.76893204 -0.7563634 0.23431839 1.0830324 -0.36214954 2.1157565 0.5990773 -0.002500175
-1.8847898 0.6675617 -1.0237783 0.8099423 1.3982562 0.46271428 1.6444982 -1.1586387

l4.weight f4 [200, 28]
00000000: 600d 72be f819 48c0 aa48 f1bc 412c 6e3f
00000010: 5e29 42bd de5b cdbe d424 1abe eedd 40be
00000020: 28e7 88bd 7f6d 1fbe ee99 0dbe f9da 55bd
00000030: cce4 83bd bcf6 cb3b f0ec 883e 2367 103e
00000040: 7117 a4be 71be 7fbe 108f 0a3e 31a2 5e3c
00000050: 8681 7d3d 35af 583e b093 033e b3bf 7cbe
00000060: fe11 c5bd acbf cebd ecdf b1bc 9a9f 45bc
00000070: c477 053f 6b86 803c 2e49 6a3d dd2c 47bf
00000080: 89c4 a6be d33b 133d 7dfa 24be a8d4 f63c
00000090: 985b 013d 541d 123f ed68 e63c 4b91 5d3e
000000a0: 6a01 d63c ecd4 c4bb a5a5 b9bd c220 16be
000000b0: 94db 96be 1642 6dbe 43a9 5f3d ba56 88be
000000c0: 53d6 b23e b216 783e 9b18 ce3e 2b8f dbbe
000000d0: 2966 dc3b 3e77 1bbc 2d15 c93c 17e4 9b3b
000000e0: 0311 22be 452b 25bf 0924 e9be c7df 48bf
000000f0: 8771 0b3e 7137 cfbd 60e6 e33d e712 1abd
00000100: c51b 13bc 9e71 cf3e 4c17 ee3d 722e 123e
00000110: f8ea b63d 81ba 28be 0191 d03e c6db 263d
00000120: 8d4e 883e 2d77 a43e 2a29 383e b344 8c3d
00000130: c483 92be 5586 9a3e 1f3c 6ebe 9b02 e73d
00000140: 5631 23bd 85ee 933c 3a6a a63c 55a0 203d
00000150: 01c2 303e 33c0 54bf 0e2e 66be b8f8 35bf
00000160: 2512 59bd a6ff 993c 2f34 1d3e ab7c 343d
00000170: 7de5 5ebc 4cb6 b73c c18f 95bd f213 ad3e
00000180: f667 0b3e 8c61 423c 9e2c c3bd 12e1 e5be
00000190: cacb 6bbe 1b70 033f 178f 513e 234f 523d
000001a0: 533d 23bd df5f 363e 8a3f 63be 5f24 e73d
000001b0: 0e7f a13c a82f 843c 497c bbbd 0d11 993d
000001c0: 1b8f 883e 0403 f8be 5b6b 25be 8ba9 1d3f
000001d0: 0a4b 203e 54c6 d73c ca46 153e d0e5 bd3c
000001e0: 0f9b 3ebc 0d41 9c3e 9584 913d bc3a 3d3e
000001f0: f868 1d3d 1f2e 283d 2718 ba3e d90d b13e
00000200: 60c8 cabd 07a5 1abf b441 aebe b298 f33d
00000210: 8be6 e33e 901d 103e b823 c8be 73c4 4abd
00000220: 5680 2a3d d12d a63c 7733 833d 29b3 0f3d
00000230: ef1d 973d 0606 993f 0260 f8be c5e5 35be
00000240: 996a 7e3c ecb2 283d d757 d7bd 84be de3c
00000250: 5e4d 413d a943 503e 0922 c03d d527 12bd
00000260: b92e 27bc 1041 083e afb6 bf3d 6062 b13c
00000270: 95ef 81be c76f 65be 4b32 fd3e a064 bdbe
00000280: 7547 613e 73b7 cb3e 598a 41be 047e 3c3d
00000290: 7d31 313c 5c6a 15bd b175 c23c 672a 7abd
000002a0: ee44 8dbe e94c be3e c33f 8bbe 4fdf 003d
000002b0: a5c6 da3d 221a 5cbc eef9 b53d 6b3e 403d
000002c0: 2e26 3f3d 06e6 6d3e e1b0 0fbe f213 2b3d
000002d0: 3d17 8e3b 6a2b 253d 7606 4ebe b667 27be
000002e0: 32e0 0fbe 3dac 0fbe 02d2 323d 652d 80be
000002f0: 4dcc 2a3d 1ae1 973e f3c6 cd3d ca11 f33d
00000300: 3dd4 c7bc 1cc7 a73d 6a3f c2bd 94d1 a03d
00000310: b0e6 87be f909 813f be95 cf3e 7819 55bf
00000320: 2262 85be ee84 c93c a327 39be 1c71 3f3c
00000330: 6a6c dc3c 2fab c03c e29f 7f3d c66c aebc
00000340: 56d1 8c3c 528f c6bc 3e86 41be a5d4 0ebf
00000350: 8644 97bb dddf 843e 4fc7 2ebe 29d1 b53e
00000360: bab2 dbbd 4740 d13d ad49 873e 58c1 3ebd
00000370: d2d0 833c f762 59bc 18b4 943c 16ac c2bc
00000380: 97c7 bfbe 8b00 4cbf f605 da3e 3eae 0c3f
00000390: 1dc9 6f3d c6ab 30be 02e7 ef3b 0e5c 75bd
000003a0: 3fca ed3c 84af 96be 82a1 083d 66a9 58be
000003b0: df14 3abc b8aa 15bd 78a7 3a3e 0495 8fbd
000003c0: 4773 7fbd b165 fcbd b244 84be 48d3 003e
000003d0: 9f97 7a3c 276f 0d3f 9014 e33d 238c f63d
000003e0: 7935 8cbd 81e1 01bc 480a 0abc ffb1 9c3c
000003f0: 5cdf 2bbf 05f3 9bbf af8f b83e 900a a6bf
-0.23637915 -3.126585 -0.029453594 0.93036276 -0.047402732 -0.40109152 -0.15053111 -0.1883466
-0.066847146 -0.15569113 -0.13828251 -0.05221078 -0.06440124 0.0062244814 0.2674327 0.14101844
-0.32049134 -0.24974991 0.13531137 0.013588474 0.0618911 0.21160586 0.12849307 -0.24682502
-0.09622572 -0.10095152 -0.02171322 -0.012061978 0.5213587 0.015689095 0.057198696 -0.7780283
-0.3257182 0.035945725 -0.16111179 0.0301307 0.03158149 0.57076 0.028126204 0.21637456
0.026123721 -0.0060068276 -0.09064797 -0.14660934 -0.294644 -0.23169741 0.05460478 -0.26628667
0.3492914 0.24227408 0.40253147 -0.42882666 0.0067260456 -0.009488879 0.02454623 0.004757415
-0.15826802 -0.6451915 -0.45535305 -0.7846646 0.13617526 -0.101179965 0.11127925 -0.037615683
-0.008978789 0.4051637 0.11625537 0.1427553 0.089315355 -0.16477396 0.4073563 0.040736936
0.2662243 0.32122174 0.17984453 0.06849041 -0.28616154 0.30180612 -0.23265122 0.11279794
-0.039841972 0.01805807 0.020314325 0.039215405 0.17261507 -0.8310577 -0.22478506 -0.7108264
-0.05299582 0.01879866 0.15351938 0.044064205 -0.013604519 0.022425793 -0.073028095 0.3380428
0.13613877 0.011864077 -0.095299944 -0.44898278 -0.23026958 0.51342934 0.2046474 0.051345002
-0.039853405 0.1781001 -0.22192207 0.11286234 0.019713905 0.016136006 -0.09154565 0.07473955
0.2667168 -0.484398 -0.16154234 0.6158683 0.15653625 0.026339687 0.14577785 0.023180872
-0.011633649 0.3051838 0.07105366 0.18479437 0.038430184 0.04105961 0.36346552 0.34580877
-0.099015 -0.6040806 -0.34034503 0.11894359 0.44511828 0.14073777 -0.3908975 -0.049503755
0.041626297 0.020285519 0.064063005 0.03508297 0.07378756 1.1954963 -0.48510748 -0.17763431
0.015528345 0.04118626 -0.10514801 0.027190454 0.047192924 0.2033831 0.09381492 -0.035682518
-0.010204011 0.1330607 0.09361016 0.021653354 -0.253781 -0.22405921 0.49452433 -0.36990833
0.21999915 0.39788398 -0.18900432 0.046018615 0.010815022 -0.036478385 0.02373776 -0.061075594
-0.27591652 0.37168053 -0.27197084 0.031462964 0.1068242 -0.013433965 0.08885561 0.046934526
0.04666727 0.23232278 -0.14032318 0.04176707 0.0043362663 0.040324606 -0.20119652 -0.16348156
-0.14050367 -0.14030547 0.04365731 -0.25034633 0.041698743 0.29663926 0.10047712 0.11868627
-0.024393195 0.08192274 -0.094847515 0.07852474 -0.26543188 1.0081168 0.40543932 -0.8324199
-0.26051432 0.024599519 -0.18081526 0.011684682 0.026907165 0.023519127 0.062408336 -0.021292102
0.017189663 -0.024238262 -0.18898866 -0.5579322 -0.004616323 0.25952044 -0.17068218 0.3551114
-0.10727449 0.10217338 0.26423398 -0.046571106 0.016090784 -0.013268224 0.018152282 -0.023763698
-0.37456962 -0.7968833 0.42582673 0.5495337 0.058541406 -0.17253026 0.0073212394 -0.059902243
0.029027103 -0.29430783 0.03335715 -0.2115837 -0.011357515 -0.036539763 0.18227947 -0.07010844
-0.062365796 -0.123240836 -0.2583366 0.12580597 0.015294938 0.5524773 0.11087906 0.12038448
-0.068461366 -0.0079272995 -0.008425303 0.019127844 -0.67137694 -1.2183539 0.36047122 -1.2971973

l4.bias f4 [200]
00000000: 3255 8c3d ecd3 64be 315b 84bd fd78 0f3e
00000010: 08df 863e f08b cbbd 253f 303d dcbb 60be
00000020: afce 18be 7f73 40be a2d2 62bd 7d5c c6be
00000030: cfa1 f93d d249 3cbe 82e2 c0bd f016 e83d
00000040: 37c5 503e dee6 dd3c 5f85 5a3d 86fe c33c
00000050: 5509 ce3e e684 1a3e a459 233e bcb6 ccbd
00000060: 1de9 e83e ea79 1bbe 7a60 963c 4330 fabd
00000070: 6a46 4a3e 2adb 48be 5b79 ca3d eda2 02be
00000080: 703f d43e 18dd 6bbe 8587 ef3d 852c d73d
00000090: 91ae 86bd cb2d 27be 33c9 8d3e 60c8 9f3e
000000a0: 52b8 de3e ddce 90be 3879 74be 3939 c8be
000000b0: 49b3 c83c 5b7c df3e 24ce 4dbe 2e2c 113d
000000c0: 4c3a 9c3c d7ea e03d 807c 16be 9199 283d
000000d0: 9804 52be 8f81 9f3e 7822 75be d7ff a63e
000000e0: ab92 813e 18cf d43e 8bb1 babd ada0 62be
000000f0: 8d4c 243e 2a5c e0ba a311 59be f5d2 7abe
00000100: de20 8e3c 3de8 bdbe 05e6 a83e c7e2 8fbb
00000110: b4de b0be e9d2 59be d144 b7bd a9d8 febd
00000120: b5ef 633e a691 4c3e e3c8 84bc 69d1 243e
00000130: 3c74 c73e f9d9 8c3e 28f7 8b3c 2e24 53be
00000140: 1bf4 983b 7879 82be 9c8d 07bd 2a3c 32be
00000150: d1c1 813e 7f52 4fbe 1073 23be 8705 ef3d
00000160: d1f3 e63d 10e6 b4be ff6c f93d 5869 3f3e
00000170: e8e9 6f3e c21e fdbd d5a3 cf3d f2aa acbe
00000180: f7e1 bebd 3ec8 2bbe 8510 babe ef4e cabe
00000190: 1c99 143d 4a3c 543d 2cf8 973e 3941 2abe
000001a0: 19a2 09be 4fc6 2d3e 3ddb 0fbe 62c2 6abc
000001b0: 04ed 8bbe 5068 2e3e 59cd ffbd 6589 2d3c
000001c0: 4ac8 a63e 0fda 493e d5cf b13e 5523 4cbe
000001d0: 02f3 26be 1734 2e3b f74e 2f3e 7221 86bd
000001e0: 338e 0dbd 5cc0 31be 5c56 773d d2f1 95bd
000001f0: 8731 71be 1555 7fbe d1d6 2dbe b249 403e
00000200: 857c 74be 7ff8 d83e 721b 9e3e 8d0a 08bb
00000210: 9175 9a3e 5e72 50be 02a8 0a3e ee55 bdbe
00000220: ce99 0a3e 7223 e2be 4435 91be 9fa5 f33e
00000230: a7d8 08be 6235 16be fdd1 cebe 3006 54be
00000240: 17df 1bbe 3bab b73c 3286 cc3d 70a7 54be
00000250: 1af7 d13e 4aed 653e b6b4 6c3e 2813 b6be
00000260: 58a7 843c 73aa c7be 3a3d d4be a0e1 f2bd
00000270: 69de 423d 5413 ae3d a7f5 4e3d d12e fa3e
00000280: 3146 ed3d 8d73 37be 9e38 123b a35b 70be
00000290: 950c 04be a14a 753d 9321 123f e9f0 7dbe
000002a0: 8800 50bc d6bf 10be 32d9 e33d ff04 2d3d
000002b0: e971 34bd fc39 09be f07d cc3d 5018 093e
000002c0: 8346 f03c a60a a2bd 2973 59be 662e 133e
000002d0: 9892 cd3e 7436 80be 9a3e 863e bd3e c83d
000002e0: 36d9 3ebd 50b1 303e fe8b 92bd 8692 2dbe
000002f0: 7c2a 3b3e b2de 80be 4636 923d f04b 033e
00000300: 0b62 2cbe 08ae d03e fcef 08be 7d91 4c3d
00000310: a5e9 24bd 213a ce3e 54c9 f7be 916e 77be
0.06852187 -0.22346467 -0.06462706 0.14010997 0.26342034 -0.099388 0.04302897 -0.21946663
-0.14922594 -0.18794058 -0.055376656 -0.38742438 0.12189066 -0.18387535 -0.09418203 0.113325
0.20387731 0.027087625 0.05334985 0.023925077 0.40241495 0.15089759 0.15952164 -0.09995791
0.4549035 -0.15183225 0.01835655 -0.122162364 0.19753423 -0.19614854 0.09886428 -0.12757464
0.4145465 -0.2303356 0.1169577 0.10506538 -0.06576265 -0.16326062 0.27692565 0.31207561
0.435 -0.28282824 -0.23874366 -0.39106157 0.024499552 0.43649563 -0.20098168 0.035442524
0.019070767 0.10982292 -0.1469593 0.041162077 -0.20509565 0.31153533 -0.2393893 0.32617065
0.2530721 0.4156425 -0.09115895 -0.22131605 0.16044827 -0.0017117311 -0.21198134 -0.24494536
0.017349657 -0.37091246 0.3298799 -0.0043910476 -0.3454491 -0.21271862 -0.089486726 -0.124436684
0.2225941 0.19977435 -0.016209072 0.16095509 0.38955867 0.2751005 0.017085627 -0.2061927
0.0046677715 -0.25483298 -0.033094034 -0.17405763 0.25343183 -0.20246314 -0.15961862 0.11670976
0.11276973 -0.35331774 0.121789925 0.18692529 0.23429072 -0.12359382 0.1013867 -0.3372417
-0.09320443 -0.16775605 -0.36340728 -0.39513347 0.03627883 0.05181531 0.29681528 -0.16626443
-0.13440742 0.1697018 -0.14048477 -0.014328571 -0.27329266 0.1703198 -0.12490339 0.010591839
0.32574683 0.19712089 0.34728876 -0.19935353 -0.16303638 0.002658134 0.17119966 -0.06549348
-0.03455944 -0.17358536 0.060385093 -0.07321514 -0.2355405 -0.249348 -0.16976477 0.18778113
-0.23875625 0.42377087 0.30880314 -0.0020758242 0.3016782 -0.20356128 0.13540652 -0.36979622
0.13535234 -0.44167668 -0.2836095 0.47587296 -0.13363896 -0.14668801 -0.40394583 -0.20705485
-0.15221821 0.022420516 0.09986533 -0.20766997 0.41008836 0.224538 0.23115811 -0.3556149
0.016193077 -0.3899723 -0.41452962 -0.11859441 0.047575388 0.0849978 0.05052724 0.48863843
0.115856536 -0.17915173 0.0022311579 -0.23472457 -0.12895425 0.059885625 0.5708248 -0.24798931
-0.012695439 -0.1413568 0.11125411 0.042241093 -0.044053946 -0.13401026 0.09984958 0.1338818
0.029330498 -0.07912187 -0.21235336 0.14373168 0.40150905 -0.25041544 0.26219636 0.097775914
-0.046593867 0.1725514 -0.07155608 -0.16950426 0.18277925 -0.25169903 0.07139258 0.12821937
-0.16834275 0.40757775 -0.13372797 0.049943436 -0.040261883 0.40278724 -0.4839579 -0.24163271

l5.weight f4 [200, 200]
00000000: 52ea ee3c 324e 48be ca19 f03d df55 8dbd
00000010: 5a79 51be 8d83 1e3e b76b c1bd ea20 863e
00000020: 9b89 d23a 83c8 29bd 7cfa 133d 18e5 d03d
00000030: 0b7c 313c 6edc 77bd d99e efbc 5ca8 a63d
00000040: bc33 723e 02bc e5be b029 a13d 3bdc 113d
00000050: 5aed 263d 1608 fabc 1526 ed3a 568b b13d
00000060: 8bbb 19be d111 84bd 4b4a 48bd 3fe3 b13d
00000070: 00b7 0c3c 31ab 143b 6d28 1b3e d24c b93c
00000080: 2856 ec3d 8978 babd 2cd8 703d 8b91 01be
00000090: 594b a33c b222 093e 8029 813d 6c2b 13bd
000000a0: 98f4 8ebc 0a03 d1bd e8b8 893d e6dc 51bd
000000b0: e283 523e 9fa9 a8bd a78d abbd f226 253d
000000c0: 2866 82bd 822e babc 1eeb a53d ec90 283e
000000d0: 114c 0fbf 2da9 e3bd 9506 3bbc b1bd 82bd
000000e0: e00b a4bb c2a8 103e 7792 d2be c663 dcbd
000000f0: 7be4 423d 2a33 ffbd eda3 853d 0b1d 283e
00000100: b717 3cbe 0ac3 dfbc 39f0 493e 614c 5dbe
00000110: 2a64 dbba 72a8 6c3e 4bd4 7cbc da95 90bd
00000120: cbc9 813d c8f0 993e 6d57 b9ba 7242 9e3d
00000130: 9b6e 0f3e b59d b9bc d045 dabc 5be5 853d
00000140: 1f3a 2d3d df94 323c 2c51 103e 3c3f 1f3d
00000150: 09a9 223d ec24 9ebd 11c6 82bc 8b3f 4b3d
00000160: 50b1 06be 469a 973d 98ab 143d 4589 cfbf
00000170: 50f7 373c efcc 313c ff12 2f3e 7398 86be
00000180: 06eb ccbe 9111 b13d e7c2 9fbe aa74 e23d
00000190: 981b 243e 7744 0cbd 088d 03be 0d18 7ebd
000001a0: fbf2 36bd ddc0 183e e536 3ebe 22e5 a7be
000001b0: 20ff 58be 8328 96bd 4c7f a43c 8b9b 86be
000001c0: 549c 3cbd 1ddb 2b3e 9f67 ddbc 02d9 1cbe
000001d0: 75ef a8bd 4062 9ebf ae40 ccbc 4567 b8bc
000001e0: 6715 d13d d2fe 733a bae6 803d 7f1f 1a3d
000001f0: 7e64 25bc c845 d63d 90c3 95bd 2b5a 22be
00000200: 99eb 333e 98eb 643c 7e70 e93c c59f cebe
00000210: d0aa 91bd 6460 513e 599a be3d 2067 6ebe
00000220: 5c96 a9bd 2f40 cd3d 0f5f 87be 76e6 533e
00000230: f122 d93c dbb2 93bc 11cd 3abe e6ac 6abd
00000240: 60e7 123d 2718 ef3d fbef b9bd 7607 ca3d
00000250: 2340 54bc 130b 843d 4737 98bc 5fa1 92be
00000260: 3164 e63d e3ec 223d 68b5 e03d dd1f 143e
00000270: 2e11 c23c 0d17 de3d 1346 503e 321a bc38
00000280: 0780 4abd 1bca 63be 9a43 973e dccf bc3c
00000290: 0f21 8bbc 28e6 093d d0fb f9bd 5335 09be
000002a0: c6d5 263e 6524 58be b28e 27be 46fb 3a3e
000002b0: 50e7 1dbd 890f 93be 9258 cdbd 3b8a d3be
000002c0: 51b9 db3d 9aa3 0bbe 6500 9d3c 254f d5bc
000002d0: 5ee2 a73d e980 873d 198e b83d 12ee 3a3d
000002e0: c9eb 8cbd 8954 a5bd 0182 49bd 016e a6bc
000002f0: 676c 8dbd f7d4 693d d559 dd3c 1a68 323d
00000300: 794d 27bd 197b b1bd 2dc3 80be 7763 82bb
00000310: 553e 7d3d 411e 973e bc82 b0bd 4f4c 44be
00000320: e76e 983d 901a 25bc 6867 d83d bd3b 0a3d
00000330: 78ee b33e f300 5e3e 5361 093e 8ff7 0ebd
00000340: 4561 a63d fa2a b9bc cb05 903c a658 01bd
00000350: 04e6 5abe 6dca 71be d417 963e fa7e edbc
00000360: a512 b83d 2594 a93e 892c b73c bece 3ebb
00000370: 3d90 913e 5654 35be 4507 0ebe 7598 ac3d
00000380: 181c 0e3c 04fe 533c 8ffa af3c a37d 09be
00000390: a081 cebe fcd6 8ebe 48e9 50be c362 3cbd
000003a0: 2bb1 b9be 940d 26bd 2f0d 8b3e 84c4 a2be
000003b0: 5a67 b53d fe73 ba3e 2162 a7be f52a cb3d
000003c0: a369 af3e 17c6 393e 35bb 75bd e460 e2bd
000003d0: 8874 5abe a48f d93d e3da 523d e1a4 b0bd
000003e0: 4875 a83c 224c 0d3f 9b2e f23b 2e74 4c3d
000003f0: 398c 183e cf65 e8bd 95ae 05be a168 2cbf
0.029164467 -0.19561079 0.11723669 -0.06901144 -0.20456448 0.1547987 -0.09444373 0.26196986
0.0016062738 -0.04145099 0.036127552 0.10199946 0.010832797 -0.060512953 -0.02925055 0.08137581
0.23652548 -0.4487 0.078692794 0.03561042 0.0407537 -0.030521434 0.0018093014 0.08669154
-0.15012948 -0.06448711 -0.048898976 0.08685922 0.0085885525 0.0022685046 0.1515214 0.022619639
0.115398705 -0.091050215 0.058799908 -0.12653176 0.01993339 0.13392141 0.063067436 -0.035930082
-0.017450616 -0.10205658 0.06724721 -0.051236056 0.20558122 -0.08235478 -0.083766274 0.040320344
-0.06367141 -0.022727255 0.08101486 0.16461533 -0.55975443 -0.11116252 -0.0114151435 -0.06383837
-0.0050062984 0.14126876 -0.4112737 -0.10761218 0.047581177 -0.12460931 0.06525407 0.16417329
-0.18368421 -0.027314682 0.19720544 -0.21611167 -0.0016738225 0.23111132 -0.015431474 -0.07059832
0.06337317 0.30066514 -0.0014140435 0.07727517 0.14007036 -0.022658208 -0.026644617 0.06537887
0.042291757 0.010899751 0.14093465 0.038878664 0.039711986 -0.07721886 -0.015963586 0.049621146
-0.13153577 0.07402472 0.036296457 -1.6213766 0.0112283975 0.010852083 0.1709709 -0.26288185
-0.4002306 0.08645929 -0.31203386 0.11057408 0.16026151 -0.03424498 -0.12846768 -0.062034655
-0.044665318 0.14917322 -0.18575628 -0.32792002 -0.21191072 -0.07331946 0.020080231 -0.26290545
-0.046047524 0.16782804 -0.02702695 -0.15317157 -0.08248798 -1.2373734 -0.024933185 -0.02251018
0.1020916 0.00093076855 0.062940076 0.037627693 -0.01009476 0.104625285 -0.07312691 -0.15854709
0.17570342 0.013972186 0.028496023 -0.4035627 -0.07112658 0.20446926 0.09306783 -0.23281527
-0.08280632 0.10022008 -0.2643971 0.20693383 0.02650592 -0.01802962 -0.18242289 -0.057293795
0.035865188 0.116745286 -0.09078976 0.09864704 -0.0129547445 0.06447425 -0.018581046 -0.2863874
0.11249579 0.039776694 0.109721005 0.1446528 0.023689833 0.1084424 0.20339231 8.969418e-05
-0.049438503 -0.22245066 0.29543763 0.023048334 -0.016983537 0.03366676 -0.122062325 -0.13399248
0.16292486 -0.21107633 -0.16363028 0.18259916 -0.038550675 -0.2872279 -0.10026659 -0.413164
0.10728706 -0.13636628 0.019165227 -0.026038716 0.08197473 0.066163845 0.09011478 0.045637198
-0.0688091 -0.080727644 -0.049196247 -0.020316126 -0.06905442 0.057087865 0.027020374 0.04355631
-0.040845368 -0.08666057 -0.25148907 -0.0039791423 0.061827023 0.2951527 -0.086186856 -0.19169734
0.07443028 -0.010077134 0.10566598 0.033748377 0.35142875 0.2168005 0.13416032 -0.03490406
0.081240214 -0.0226035 0.017580887 -0.031578682 -0.21376806 -0.23612376 0.29315054 -0.028991211
0.08987931 0.33120838 0.022360103 -0.0029114927 0.28430358 -0.17707953 -0.1386996 0.08427516
0.00867369 0.01293898 0.02148178 -0.13426833 -0.4033327 -0.27898395 -0.2040149 -0.045992624
-0.3626798 -0.040540293 0.27158496 -0.31790555 0.08857603 0.3641662 -0.32692054 0.09920303
0.34260282 0.18141972 -0.059992988 -0.11053637 -0.21333516 0.106231004 0.051478278 -0.08625198
0.020563737 0.55194294 0.0073908097 0.049915485 0.1489724 -0.113475434 -0.13054879 -0.6734715

l5.bias f4 [200]
00000000: 4177 d23d 6da0 543e 8c47 2fbe 6e56 96bd
00000010: d562 bd3d 1508 b4be dc12 52be 9f07 f6bc
00000020: 5ab6 81bd 72e6 63bd b83a 16bc c900 2e3b
00000030: 237b a23d f2ba d5bc 7b01 b33d a88f b43d
00000040: 9db3 3d3d 54d3 043e b545 81bd c06f 0dbd
00000050: 8d9f e63d 3d24 b13d b823 573d 6338 03bb
00000060: a504 d93d 2aed 1abe ae48 7abd 1dde 25bd
00000070: ceb8 25be 17b2 97bd e16d afbd 4975 80bd
00000080: d599 b2bd c944 93bd 02b0 03bc 27e0 9bbd
00000090: 619a 52bd 0bf5 ffbc 7d06 073e 4b20 753d
000000a0: 26cd 5e3d 8cdb 17be 9f09 36be 4da3 f93d
000000b0: 30da 8b3c ceb2 b83d ff01 f93c 508a 63be
000000c0: 7419 00be b04c 36bd 66d9 32bc a7a1 283d
000000d0: 5c94 803c ffb2 6a3d 7668 82bd 9ffa c63d
000000e0: 7874 d63d 49ec cd3d 3f38 afbd 56df a4ba
000000f0: be29 e3bc 2b63 433d 0e7a a33d 794c ac3d
00000100: 4038 76bc 39a0 1abc a8b5 053e e79d 08bd
00000110: 2e03 bebd 8243 1abd e6e9 01bc ab1a 663c
00000120: 1f9c 54bd 8f80 e53c e299 083e 377c c73d
00000130: 3a34 1fbe 33a2 44be b8dd 41bb a014 4fbd
00000140: e231 823c 216b 63be 722c 1bbd bbda 6dbd
00000150: 06e1 49bd 86b3 a7bc 32aa e3bd a0d5 6ebd
00000160: 0f4b 74bd 6bf9 87bd d82a 0a3e bc16 3abd
00000170: c9b9 38bc fd93 113d deec 9a3d 4785 07be
00000180: ef63 04bd 4c6b 163d 748e 283c 6612 083d
00000190: 35de 0c3e 415e 3c3d d43c 253d 592d a63d
000001a0: 717b e3bd afcf b1bd 66c6 243d 097a 34be
000001b0: b749 0c3e 9bd9 02bd 42a6 f13d 3d51 3939
000001c0: 35d4 f63d 3225 b23d ab25 9d3d 7a03 413d
000001d0: a63c 0b3e 455e efbc a618 3d3d 4d94 27be
000001e0: 8dad aebd 2ac2 1d3e 05e7 3fbe c3a7 80bd
000001f0: 281b 303d db5a e9bd 3ad2 80bd 7d92 cbbc
00000200: c49d 02be ca6a 993d 44a8 d3bc 48ed 24bd
00000210: 8fe5 d1bb 4715 b2bc 4445 fbbd 5a2d 06bd
00000220: 50af 463d aa0d 58bc 9665 083e 41cc 0fbe
00000230: 6422 26be fd67 b6bd 0862 dc3c 8b1c ecbd
00000240: 5f31 c1bd 0ffb a33b f3e5 bb3d bff4 91be
00000250: aee2 193d d59d b63d f387 4f3d e1b2 1e3d
00000260: e2c1 1ebd 7a39 a43c 2e65 3b3e 2db7 c73d
00000270: 6854 2c3e 1e48 203d 067a a23c e673 6bbd
00000280: 222a de3d ae55 c03d 69ba 033e 806a 6a3e
00000290: 44fe 90bd 4d61 a63d 0de7 c8bd b4da 413d
000002a0: 8be6 0a3e cbb7 8fbd b55e 11be 133e cdbc
000002b0: 4111 4abd 04f5 e3bc b550 083d 0ed6 19bd
000002c0: 516e 6abe 9cf6 1cbd 5034 0ebc 287f a1bd
000002d0: dc6a 393d 61ad af3d 65ce 673b 89c9 dabd
000002e0: 1234 463e ad3b 533c 8eea 75bd 58c9 0bbe
000002f0: 52f1 22bd 78d2 1ebe 47f5 183d 897d c7bd
00000300: 650a fb3d 7cac 763d 8f03 9bbd 6b43 bfbc
00000310: 0d15 173e 9651 313c 6d35 123d 81ba 943d
0.10276652 0.20764323 -0.17117137 -0.07340704 0.09247366 -0.35162416 -0.20515007 -0.03003293
-0.06333609 -0.05563969 -0.009169273 0.002655076 0.07933643 -0.026090119 0.08740517 0.08816463
0.04631387 0.1297124 -0.06312124 -0.0345304 0.11260901 0.0864949 0.0525243 -0.0020022623
0.10596589 -0.15129533 -0.06110447 -0.040495027 -0.16183779 -0.07407015 -0.085658796 -0.0627237
-0.087207474 -0.07190854 -0.008037569 -0.07611113 -0.05141676 -0.031244775 0.13186069 0.05984525
0.054394864 -0.14829844 -0.17777108 0.1218935 0.017071813 0.09018479 0.03039646 -0.22220731
-0.1250971 -0.04450673 -0.01091609 0.04116979 0.015695743 0.05729961 -0.063675806 0.09715771
0.104714334 0.100548334 -0.0855565 -0.0012578766 -0.027729865 0.047701996 0.079822645 0.084130235
-0.0150280595 -0.009437614 0.13057578 -0.033353712 -0.0927795 -0.037662037 -0.007929301 0.014044444
-0.0519067 0.028015403 0.13339952 0.09740489 -0.15547267 -0.19202499 -0.0029581618 -0.05055678
0.015892927 -0.22208835 -0.037884183 -0.058069926 -0.049286865 -0.020471346 -0.111164466 -0.058309197
-0.059641894 -0.066393696 0.13492906 -0.045431837 -0.011274763 0.035541523 0.0756471 -0.13234435
-0.032321867 0.03672342 0.01028787 0.03322067 0.1375664 0.045988325 0.040341213 0.08114118
-0.11107529 -0.086821906 0.04022827 -0.17624678 0.13699995 -0.031945806 0.11799289 0.00017673238
0.12052194 0.08698501 0.076732 0.047122456 0.13597354 -0.029219756 0.046166085 -0.16365166
-0.08529196 0.15406099 -0.1874047 -0.06281998 0.04299465 -0.113942824 -0.062900975 -0.024850124
-0.12755495 0.074910715 -0.025837071 -0.04026535 -0.0064055393 -0.021738661 -0.12269071 -0.032758094
0.048507035 -0.0131868515 0.13320002 -0.1404276 -0.16224056 -0.08906553 0.026902214 -0.11528882
-0.09433245 0.0050042938 0.09174719 -0.2850704 0.037569694 0.08916823 0.05066676 0.03874481
-0.03875912 0.020046938 0.18300316 0.09751735 0.16829073 0.039131276 0.019833576 -0.057483576
0.1084788 0.09391342 0.12864079 0.22892189 -0.07079747 0.081240274 -0.098096944 0.047327712
0.13564508 -0.070174776 -0.14196284 -0.025054013 -0.04933286 -0.027826793 0.033280093 -0.037557654
-0.22893645 -0.038321123 -0.008679464 -0.07885581 0.045267925 0.08577991 0.0035370823 -0.10682971
0.19355801 0.012892646 -0.060038142 -0.13651025 -0.039780922 -0.15509975 0.03734329 -0.09740741
0.12257842 0.060223088 -0.07569038 -0.023347577 0.14754124 0.010822674 0.035695482 0.07262135
