HardcoreVersion_eval/ppo_actor1600.pth (torch, 186564 bytes, 6 tensors)

l1.weight f4 [200, 24]
000000 b0 aa 98 3d 4f 24 aa 3f 9c c0 71 3e 89 48 64 3f
       0.07454431 1.329233 0.23608631 0.8917318
000010 10 43 57 be 68 bd 0e 3e c4 ed ad be 34 ff 8e 3e
       -0.21021676 0.1393944 -0.33970463 0.2792908
000020 c0 2d aa 3e ee 28 ca be 24 9a af 3e 33 66 1b be
       0.3323803 -0.39484352 0.34297287 -0.15175705
000030 5a 6a 9f 3e 0d 5b fc 3d 3f 88 c0 3d 8c 95 7d 3d
       0.31135827 0.12322054 0.09400987 0.061910197
000040 81 23 97 3d c8 07 08 be 8b 18 00 be 10 55 47 3e
       0.07379819 -0.13284218 -0.12509362 0.19466043
000050 48 ec 15 3d 9e 36 b9 bc 85 d7 9f bd e5 08 16 3e
       0.03660229 -0.022609051 -0.07804779 0.1465183
000060 b7 ae 19 3d e3 39 e9 bf 74 9e 40 bf 39 3d 97 bf
       0.037520137 -1.8220791 -0.7524178 -1.1815559
000070 9e 1e 71 3e 52 92 c2 be 6f 1d 63 3e be 45 ce be
       0.23546836 -0.3800226 0.22179197 -0.40287584
000080 6a 3f 3e bc 7d b9 44 3e bc 73 70 3c 5f 66 01 3f
       -0.011611799 0.19211383 0.014676031 0.5054683
000090 08 8a 6a 3c 1e f0 2e 3e 51 79 c3 3d 0d ed ee be
       0.014315136 0.17083785 0.09544624 -0.4666523
0000a0 da 46 09 bf 28 a1 0c bf df ed 46 3b b0 70 a5 3e
       -0.53623736 -0.54933405 0.0030354185 0.32312536
0000b0 4a be a6 3e fc 62 80 3d d7 da 1e 3e f6 d9 4a 3d
       0.32567054 0.0626888 0.15513168 0.04952427
0000c0 bc d7 4d be 73 38 46 3f 41 5a 8b 3d d7 64 00 bf
       -0.20101827 0.77429885 0.06804324 -0.5015387
0000d0 ea 43 75 be 64 72 c1 3e 35 4f bc bd c1 ec 4d 3e
       -0.23951688 0.37782586 -0.09194795 0.20109846
0000e0 dc 80 0a 3d 24 2b 19 bd fd b1 8c 3e d5 70 5b be
       0.033814296 -0.037394658 0.27479544 -0.21429761
0000f0 24 2c 80 3c 01 d2 d6 be e9 92 e0 bd 86 a4 d1 bd
       0.015646048 -0.41957095 -0.10965521 -0.102364585
000100 82 a4 9e 3d d1 c6 75 3e bc 95 e6 3e 7d 88 7f bd
       0.07746221 0.24001624 0.45036113 -0.062386025
000110 2b e7 b9 be 8c 62 e0 be d9 86 70 3e ab f7 18 3e
       -0.3630918 -0.43825185 0.2348894 0.14938228
000120 b6 1c 1b be d8 74 ed 3e b7 7e 20 3d 20 0a 8d bf
       -0.15147671 0.46378207 0.039183345 -1.1018715
000130 8f 47 98 be 3a 7f b6 3d 81 11 f6 3d ea 9f b6 3e
       -0.29742095 0.08910985 0.12015057 0.3566888
000140 e3 de 49 be 78 70 e5 be dd 52 df 3d ba 87 ee be
       -0.19713931 -0.4481237 0.10904477 -0.46587926
000150 1b 68 05 3c 74 41 5e be a6 75 0d bd aa 8c 77 be
       0.008142496 -0.21704656 -0.034536026 -0.24174753
000160 c2 1f dd bd f2 84 8c 3e e7 6b 94 3e 08 89 97 3d
       -0.10797073 0.2744518 0.28988573 0.073991835
000170 76 48 f0 3d 4a 3b b3 bd 9a 49 95 be 35 da 19 be
       0.11732571 -0.08751543 -0.29157716 -0.15024646
000180 e5 bc ba 3d ac 1b c4 3f 24 ce 76 3e e3 b3 02 bf
       0.0911806 1.5320945 0.24102074 -0.51055735
000190 23 7b d0 be 1f e1 28 bc 49 04 b1 bd a6 4c 02 be
       -0.40718946 -0.010307579 -0.086433955 -0.12724552
0001a0 f9 ae f7 bb c5 ee 5c be cd 7c 22 be 36 14 a1 be
       -0.0075587 -0.21575458 -0.1586792 -0.31460732
0001b0 a7 5a 18 bf 00 a9 af be c9 8c ca 3e 41 33 a0 3e
       -0.59513324 -0.34308624 0.39560536 0.31289104
0001c0 8e 0a a2 3e ed a6 42 be cd 30 9d be b3 2d 37 be
       0.31648678 -0.1900899 -0.30701295 -0.17888527
0001d0 f0 f5 0f 3c a3 96 a5 be 9b 07 9b bd fb e4 d1 bc
       0.008786663 -0.3234149 -0.0756981 -0.025621882
0001e0 f5 17 63 bd d6 af 89 bf c8 f2 f3 3d ea 65 82 bf
       -0.05544277 -1.0756786 0.11911541 -1.0187352
0001f0 89 e4 b4 be 31 c4 8e be ad b0 db bc 7d 48 79 be
       -0.35330608 -0.27884057 -0.026817644 -0.24344058
000200 b4 a8 94 3e 74 4e 03 be 92 90 5d 3e 97 af e4 3d
       0.2903496 -0.12822896 0.2163718 0.111663036
000210 75 5b 78 be 7e 5c 98 3e 46 40 76 be aa bd a4 be
       -0.24253638 0.29758066 -0.24047956 -0.32175952
000220 04 92 da be e2 24 89 be 61 82 36 3e 69 ea 3d bc
       -0.42689526 -0.26785952 0.17823173 -0.011591532
000230 48 84 30 3d 61 5b 21 be 51 75 74 3e bc b1 9c bc
       0.043094903 -0.15757515 0.23872878 -0.01912772
000240 2a 2e ce be 58 cc d5 be 32 bc 39 3e 4b d0 5c 3f
       -0.40269595 -0.41757464 0.18138197 0.8625533
000250 98 d6 d1 3d ed 1b 01 bf 57 17 c5 3d 28 c5 75 be
       0.10246009 -0.50433236 0.09623592 -0.2400099
000260 b0 06 35 be 92 f7 c4 be 64 32 c7 3e bc 6c da be
       -0.17678332 -0.3847013 0.38905632 -0.42661083
000270 36 e4 a3 3e 95 31 81 3e ec 72 c0 bb 4b cc 88 be
       0.3201005 0.2523314 -0.0058730748 -0.26718363
000280 b0 01 34 bd 43 08 38 be 10 3f 0e 3d 41 3b 96 bd
       -0.04394692 -0.17971902 0.03472811 -0.073355205
000290 80 f0 a7 3e 3f 4f 4f 3d 63 97 85 be c4 ed 60 3e
       0.32800674 0.050612684 -0.2609206 0.219657
0002a0 32 7c 56 3e 46 35 b3 3f 95 74 68 bf ca 43 00 bf
       0.20945814 1.4000633 -0.9080289 -0.5010344
0002b0 98 34 11 3f d6 7d 4e be 72 20 4e 3e b9 e9 ae 3c
       0.56720877 -0.2016519 0.20129564 0.021351682
0002c0 51 c9 98 be d8 ad 85 3e 86 08 04 3e 5a ef ef be
       -0.29841092 0.26109195 0.12893876 -0.46862298
0002d0 23 ff 06 3e 77 71 4c 3e 35 74 eb 3d f4 13 56 be
       0.13183264 0.19965158 0.11496774 -0.20906049
0002e0 ab d9 b5 bc 88 8a 2d be 63 9e 8a be a3 d1 6f be
       -0.022198519 -0.16947377 -0.27073964 -0.23419814
0002f0 f6 28 f8 bd 4d 10 8b bd 5e 31 8e bd 2d 62 34 3b
       -0.12117188 -0.067902185 -0.0694301 0.0027524338
000300 a8 60 91 3e 71 99 db 3f bc 19 b1 3e 6c d1 c3 3e
       0.28394055 1.7156202 0.34589946 0.38245714
000310 35 a3 95 bd d4 68 93 3d f5 13 9d 3d 62 27 e9 bd
       -0.0730652 0.07197729 0.07669822 -0.11384465
000320 02 7e e3 be 94 88 4f be 11 99 09 3f 6b dd bb 3d
       -0.44432074 -0.20266944 0.53749186 0.091730915
000330 e9 5f 9d bd 21 8a ca bd 2e 81 80 be 02 31 7a be
       -0.07684309 -0.09889627 -0.25098556 -0.24432757
000340 cc f7 4b bd bc 0a 85 3e 83 03 e9 3e 40 1e e0 3e
       -0.049796864 0.25984752 0.45510492 0.4377308
000350 5e 09 58 be 89 1e 96 be 92 97 56 bc 07 96 66 3e
       -0.21097323 -0.2932017 -0.013097661 0.22518168
000360 b7 c7 b3 be 43 7d 7a bf 49 41 26 3e 84 bc 6e 3e
       -0.35113308 -0.97847384 0.16235842 0.233141
000370 e0 2a 13 bd d6 b3 5d 3e 66 0a 58 bf b5 d7 8d 3d
       -0.03592956 0.21650633 -0.84390867 0.069259085
000380 46 5f 4b be c5 be 9c 3e 18 b3 f3 3e a7 c8 74 3e
       -0.19860563 0.30614296 0.47597575 0.23904668
000390 69 59 94 be ee c6 db be ad 70 83 be 9e e3 2f 3e
       -0.28974465 -0.4292521 -0.25671902 0.17176673
0003a0 9d 88 7b 3e ff 48 ea 3e 82 86 10 3f 89 37 ac 3e
       0.24563833 0.45758817 0.5645524 0.3363612
0003b0 d8 08 34 bc 2b 5d a0 be 4f 08 8f be 05 a3 7d be
       -0.010988437 -0.31321082 -0.27936026 -0.24769218
0003c0 1f 7b fd 3d 98 a2 0f 3f 54 97 5a be b8 01 41 bf
       0.12376999 0.56107473 -0.2134679 -0.7539325
0003d0 fd 72 81 bd 70 bf 71 be eb 88 05 be 1c 7e b7 3d
       -0.063207604 -0.23608184 -0.13040511 0.089596
0003e0 26 42 86 3c bf 0b 11 3f a9 1a a3 bc 4f 40 4e be
       0.016388964 0.5665855 -0.019910173 -0.2014172
0003f0 af ad bf 3d c8 37 0d be a7 db 03 be 8d f0 9a be
       0.093592994 -0.1379081 -0.1287676 -0.3026165

l1.bias f4 [200]
000000 88 09 d9 bd 57 ef ad 3d 17 ef 22 3d e2 1d df 3d
       -0.10597521 0.08492916 0.039778795 0.108943716
000010 d1 ac 85 3e de f7 4a 3e ea a0 36 3e c1 14 98 3e
       0.2610841 0.19821116 0.17834821 0.29703334
000020 53 91 92 bc 4f ff 3b 3e fd ce 63 be 51 12 b2 3e
       -0.017891562 0.18359111 -0.22246929 0.347796
000030 30 90 ea bd dd 01 b8 3d 5e 5c 87 3e 9b 2c c2 bd
       -0.11453283 0.089847304 0.26437658 -0.09481164
000040 41 72 64 3e 68 76 47 be 42 25 4f be d8 59 c8 3e
       0.2230921 -0.19478762 -0.20229056 0.39131045
000050 76 83 31 be cb f1 82 3e 50 47 1b 3e 7d 40 93 3e
       -0.17335305 0.25575098 0.15163922 0.28760138
000060 34 cb 0f be 15 88 b0 bc 66 fa 21 be 13 3b a8 be
       -0.1404236 -0.021549264 -0.15818176 -0.3285757
000070 7a 9d 69 bd 55 b9 35 be 3e 12 40 3e bc fd 4d 3e
       -0.057034947 -0.1774648 0.18756959 0.20116323
000080 fa 90 f3 bc 50 9e eb bd aa 99 83 3e 25 3c 31 be
       -0.029732216 -0.11504805 0.25703174 -0.173081
000090 d9 c3 84 3e 30 61 bd 3e 33 a2 90 3a 53 da 5d be
       0.2593067 0.3698821 0.0011034667 -0.21665315
0000a0 28 91 1a 3e 69 90 29 3d 13 61 a0 3e 43 86 9b be
       0.15094435 0.041397486 0.31324062 -0.3037587
0000b0 c3 66 45 3d d0 14 39 3e 08 25 a9 3d f5 aa 4f 3d
       0.048193704 0.18074346 0.08259016 0.050700147
0000c0 6b 76 8f bd 78 7c 3c 3c 39 5a ef bd f0 a8 ca 3d
       -0.07005008 0.011504285 -0.116871305 0.098955035
0000d0 eb b5 82 3e 66 12 09 3d d6 ca c7 3d 9e bd 3d 3e
       0.25529417 0.03346481 0.09755485 0.18529364
0000e0 46 27 8b 3d 24 ce 51 be 0f 01 67 bd 1f 17 9a 3d
       0.067946 -0.20488793 -0.056397494 0.07523941
0000f0 12 1f ee bc 5d b3 09 3e 9b 92 a0 3d a9 bd 03 bb
       -0.02906755 0.13447328 0.07840463 -0.002010206
000100 d7 32 fb 3c 6b 04 1c 3e 0a c2 7c 3e 30 5e 42 bd
       0.03066389 0.1523606 0.24683395 -0.047453105
000110 5b 8b 65 be 36 b2 bb 3b ad 3f 26 3e 7a 8e 35 3e
       -0.22416441 0.0057280315 0.16235228 0.17730132
000120 0a ac 72 bd eb 57 08 be 64 22 27 be 65 dd 51 be
       -0.0592461 -0.13314788 -0.16321713 -0.20494612
000130 40 6a 37 3e 3d 6e 0e 3e 6a 38 e7 ba 23 0c ff bd
       0.17911625 0.1390924 -0.0017640714 -0.12453487
000140 80 d2 dc 3d b1 30 9d bc 44 21 b8 3d d6 5b ae bb
       0.10782337 -0.019188257 0.0899072 -0.0053210063
000150 ab 88 13 be cc 9a 8c be 09 e2 d3 bd 23 35 8b 3e
       -0.14407603 -0.2746185 -0.10345847 0.27188978
000160 87 ba 87 3d 9b 48 8e be 45 e4 08 be eb 38 9b 3e
       0.06627374 -0.2778977 -0.13368328 0.30316862
000170 b8 08 f4 3d 92 50 32 3e 16 14 82 3d 2a e5 3b be
       0.119157255 0.17413548 0.06351487 -0.18349138
000180 53 a2 fb 3d 2b c2 a7 3e 87 24 86 3d 4d 06 a9 3d
       0.1228682 0.32765326 0.06549936 0.08253155
000190 52 9b fd bd 88 bb f4 bd 1e a5 f4 bd c0 25 8f 3d
       -0.123831406 -0.11949831 -0.11945556 0.06989622
0001a0 05 5e 92 3e 52 df 97 be 39 74 2d 3e a7 cb 46 be
       0.28587356 -0.29662567 0.16938867 -0.19413625
0001b0 f0 41 39 be 45 a6 26 be aa ea 8a 3e c3 06 13 3e
       -0.1809156 -0.16274364 0.2713216 0.14358048
0001c0 0a 7e 26 3e 77 97 02 be 3d c2 81 be 8a 84 eb bd
       0.16259018 -0.12753092 -0.25343505 -0.11499889
0001d0 1f d8 c5 bd 60 19 3e be d9 a0 5d 3e a6 9f f2 bd
       -0.096603625 -0.18564367 0.2164339 -0.11846857
0001e0 ee 7a f4 bc 48 cc 47 be c9 dd b6 be 8d 08 89 3e
       -0.029843774 -0.19511521 -0.35716084 0.26764336
0001f0 74 13 a6 3b d4 cd 2c bd b2 93 7f 3e e9 b3 2e 3e
       0.005068237 -0.04218848 0.24958685 0.17060818
000200 84 70 83 3e 90 85 96 be 66 79 89 bd 56 38 84 be
       0.2567178 -0.29398775 -0.06712608 -0.2582423
000210 70 5c 8f be ea 6d 64 bd 30 7d 72 be 5e 0a f4 bd
       -0.28000212 -0.055768885 -0.23680568 -0.1191604
000220 ab 15 66 3e b5 24 3e 3e 74 b9 42 be 44 a5 b4 be
       0.22469203 0.1856869 -0.19016057 -0.35282338
000230 1a 05 89 bc 8b 50 d9 3d cc b2 25 3e e9 01 c8 3e
       -0.016726065 0.106110655 0.16181487 0.39063957
000240 5b 41 0b 3e e5 38 3a 3e ac 61 67 3e 6f ad 87 bd
       0.1359915 0.18185766 0.22595853 -0.06624877
000250 f0 a5 5f bc b3 39 42 be 05 6a f6 3d 4a 95 82 3e
       -0.013650402 -0.18967323 0.1203194 0.25504524
000260 51 5c 94 3d c5 07 ae 3e 0e fc 8f bd 10 2a 67 bc
       0.072441705 0.33990303 -0.070304975 -0.01410915
000270 4c e7 de 3d 05 f9 30 3e dd cf b8 3d ec 13 48 be
       0.1088396 0.17282493 0.09024022 -0.1953885
000280 fb 1c 2c 3e f3 be 33 bd 21 de 36 3e 70 d2 38 3e
       0.1680793 -0.043883275 0.17858173 0.18049026
000290 f7 73 59 3d 74 f0 99 be c6 f0 92 3b 97 5c b1 3e
       0.05308911 -0.30066264 0.004484269 0.34640953
0002a0 45 b7 ff bc 72 94 7b 3d ca e0 97 be c6 d7 a8 3e
       -0.03121532 0.061420865 -0.29663688 0.32977122
0002b0 46 4a 56 3e fe 1d 2c be 41 cd f6 be 11 95 a7 3e
       0.2092677 -0.16808316 -0.4820347 0.32730916
0002c0 29 02 91 3d fe c9 07 be 16 10 67 be 0b 85 c1 3b
       0.0708049 -0.13260648 -0.2256473 0.0059057525
0002d0 55 15 3f be ba 5b 5a 3e c6 d0 fb bd c3 36 89 be
       -0.18660481 0.21324053 -0.1229568 -0.26799592
0002e0 f9 1c 37 be 2a b1 09 3e 7e 0a 30 3e 10 b0 80 be
       -0.17882146 0.13446489 0.17191502 -0.25134325
0002f0 be 55 9a 3e 0b 5d 22 be dc a9 84 bc 9a 21 c5 3d
       0.3014354 -0.15855806 -0.016194277 0.096255496
000300 2d 99 06 3e 9c a7 da 3d b3 91 36 3d f9 3a 7c 3e
       0.1314437 0.106765 0.044572543 0.24631871
000310 77 07 03 bf 36 25 bb 3e 88 23 8b 3c 58 d0 31 bb
       -0.51183265 0.36551827 0.016984716 -0.002713224

l2.weight f4 [200, 200]
000000 13 ab a2 3c c6 00 ca be ca a5 db bd bc 65 9d 3d
       0.019856965 -0.39453715 -0.10724981 0.0768542
000010 66 b8 92 bc e8 83 ef be 77 37 2d 3e 78 4f a3 3e
       -0.017910194 -0.46780324 0.1691569 0.31896567
000020 23 d6 36 3e 60 21 e8 bd b2 6d 27 be 7a f9 e4 bd
       0.17855124 -0.11334491 -0.16350439 -0.111803964
000030 22 30 76 be 63 c9 40 3e 1e 88 93 3e d1 6b d9 3d
       -0.24041799 0.18826823 0.28814787 0.106162675
000040 3b 35 07 3f 68 eb 0b 3f 80 d8 85 3d 21 07 2b 3d
       0.528156 0.54656076 0.06535435 0.041754846
000050 7b 88 54 bd 82 bc 35 3e 12 e5 97 be 73 d9 36 3e
       -0.05188797 0.17747691 -0.29666954 0.17856388
000060 f5 e8 ea 3e 94 9a f8 bc 84 91 2d bd b5 ea 22 be
       0.45880857 -0.030347146 -0.042375103 -0.15909846
000070 16 99 69 be 70 f6 8f 3e 99 96 22 be 5d 03 95 3c
       -0.22812304 0.28117704 -0.15877761 0.01819008
000080 bb 44 12 bf 26 01 8e be ec 95 1c 3e 9c 28 25 3d
       -0.57136124 -0.2773525 0.15291566 0.04032193
000090 96 27 2c bd 5a 95 d6 3d f4 5c e6 bd a0 d4 49 be
       -0.04202994 0.10477705 -0.11248198 -0.19710016
0000a0 0c f8 cc bd db 37 8c 3e 3a d7 76 be a1 f4 98 3e
       -0.10008249 0.27386364 -0.2410554 0.29874137
0000b0 cd 87 14 be 89 ea e0 bd d5 a0 75 3d 74 0a d7 bd
       -0.14504929 -0.10982234 0.059967835 -0.10500041
0000c0 f9 0d ef 3d 6a 44 7b 3e 5b 0e 07 bd 5a e1 46 be
       0.11672587 0.24537817 -0.032972675 -0.19421902
0000d0 07 5d 0c 3c 6a 7a 62 be 59 97 62 be e8 96 ab be
       0.008567101 -0.2211701 -0.22128047 -0.3351357
0000e0 f4 75 8f be 31 e9 ec bc 37 1d 10 bd 12 bb c1 3d
       -0.2801968 -0.028919788 -0.03518411 0.09459509
0000f0 bb 0f c9 bd 5f d4 0e 3e 3d d0 84 be c3 98 71 3e
       -0.098174535 0.139482 -0.25940123 0.2359343
000100 84 61 76 bd a8 7b 13 3e aa 8c 8e 3e 79 d2 2f bf
       -0.060151592 0.1440264 0.27841693 -0.6868053
000110 ad 3b 4a bd c2 f9 00 be e2 51 01 3e 13 b7 a9 bc
       -0.049373318 -0.12595275 0.12628892 -0.02071718
000120 e4 25 db 3c 09 2c 23 3e fd 7a 9d 3d ad 31 a7 be
       0.026751466 0.15934767 0.07689474 -0.32655087
000130 64 d2 7e bd 74 5c aa 3e 3b 47 3f 3e ac 3e 6b bd
       -0.062212363 0.3327366 0.18679516 -0.057432815
000140 8f 33 f4 bd ac b7 d5 3e 80 b5 88 bd 52 7c 4f bd
       -0.119238965 0.41741693 -0.066752434 -0.05065567
000150 47 11 a4 3e fb 06 3e 3d a0 b5 56 bd e1 6c 22 3e
       0.32044432 0.046393376 -0.052419305 0.15861847
000160 45 75 7c 3e ff e1 83 be 7b 1d c2 3c dc 83 51 bd
       0.2465411 -0.2575836 0.023695698 -0.05115114
000170 48 9b 9a bd 79 ec 08 3f 96 f4 36 bd 78 8a a4 bd
       -0.07549149 0.5348583 -0.04466685 -0.08034223
000180 df fd 8b bd e6 0a fc bd ae ff 81 3e 39 1d e4 3b
       -0.068355314 -0.12306766 0.2539038 0.0069614914
000190 9d 4d 1e 3e 38 2e e2 3e 2c 74 22 3d 83 dd f2 3e
       0.15459295 0.44175887 0.03966157 0.47434625
0001a0 50 45 99 3e ed 78 91 3d bf 6b 98 be 73 61 ff 3c
       0.29935694 0.07103143 -0.29769704 0.031174397
0001b0 1c 28 8a 3d 31 05 12 3e 0d d5 11 3c ad e3 13 3e
       0.067459315 0.14259793 0.008900893 0.1444232
0001c0 8c 36 1b be 6b 0e 5f be 96 18 b9 bd 54 70 b5 bc
       -0.15157527 -0.21782844 -0.090378925 -0.022148289
0001d0 41 ee ba 3e f4 c5 89 be 8f 1d 86 3e d1 f1 5f 3d
       0.36509898 -0.2690884 0.26194426 0.054673973
0001e0 73 31 55 be e9 ea af bc ea 02 f2 be 1c c0 42 3d
       -0.20819645 -0.021474319 -0.47267848 0.04754649
0001f0 1f 64 ec 3e 46 92 9c bc f1 0c 9f be 78 3b ca bd
       0.46170136 -0.019112717 -0.3106456 -0.09874624
000200 1f 4f bb 3d 14 19 2c 3e 8b e7 09 3f b5 3d 07 3e
       0.091459505 0.16806442 0.5386893 0.13207133
000210 a2 97 0a 3f e7 be 50 3e 3c 2f 6b 3d a3 88 31 3e
       0.54137623 0.20385323 0.057418093 0.17337279
000220 c7 6c 78 be c6 e4 30 3e 2c 38 9c 3e a5 a8 f6 bc
       -0.24260245 0.1727477 0.30511606 -0.030109713
000230 50 f7 b2 be d9 17 58 bf 21 04 d8 be 8c 91 c1 3d
       -0.3495431 -0.8441139 -0.4219065 0.09451589
000240 38 88 59 bd 8a 6b 71 3f 1e a3 52 3e b1 43 bb 3e
       -0.053108424 0.94304717 0.20570037 0.36575082
000250 06 79 98 3d 39 97 36 bd 66 ba 59 3d d9 0c d8 bd
       0.074449584 -0.04457781 0.05315628 -0.105493255
000260 05 3c 9e 3c d3 22 d5 3e c1 b2 25 be 12 10 53 be
       0.019315729 0.4162813 -0.1618147 -0.20611599
000270 3e 62 82 be 47 33 13 3e 45 87 ee 3e 39 88 51 bd
       -0.25465578 0.1437503 0.46587577 -0.051155303
000280 1f 39 87 3d 47 37 ae be ab 3a 88 3e 19 c2 96 bd
       0.06602692 -0.34026548 0.2660726 -0.0736124
000290 20 d0 3c be 3c c7 0e bf a4 a4 74 be 28 e7 ad be
       -0.18438768 -0.5577276 -0.2389093 -0.3396542
0002a0 87 9e ad 3e 6c a0 c8 bc 62 98 55 3e a8 f9 b5 3e
       0.3391001 -0.024490558 0.2085891 0.35542035
0002b0 04 e3 fd 3d 23 39 d5 bd 8c a6 06 3e 13 b5 c5 3d
       0.123968154 -0.104112886 0.1314947 0.09653678
0002c0 13 f2 96 be 95 8b 41 be 91 5c 94 3e 86 b0 a5 3e
       -0.29481563 -0.18900903 0.28976873 0.3236124
0002d0 41 44 ed bd df 83 5d be 23 16 8d bd d2 5a 8e 3e
       -0.11585284 -0.21632336 -0.06888988 0.27803665
0002e0 b2 86 24 be 7e 2f e5 bc 12 19 9c 3e bc 5f c0 3d
       -0.16067007 -0.027976748 0.30487877 0.0939326
0002f0 0c 54 6f 3d 53 8d 5e 3e 78 61 5c 3e 78 2b 8f 3e
       0.058429763 0.21733598 0.21521556 0.27962852
000300 38 c5 fd bd 7a 34 20 3e 75 c0 e6 3d 80 b3 f8 bd
       -0.12391132 0.15645018 0.11267177 -0.12143612
000310 cf 88 b6 be d6 7e a6 3e 61 5f 17 bb 56 67 7f 3e
       -0.35651252 0.32518643 -0.0023097622 0.24941763
000320 f8 b7 63 be 60 13 54 3e 2d 19 ba bc 75 ee 0a be
       -0.22238147 0.20710516 -0.022717083 -0.13567527
000330 ef c7 10 be 2b 33 c9 bd 7d fd e0 bd aa 8b a6 3d
       -0.14138769 -0.09824213 -0.10985849 0.081321076
000340 a8 13 16 be e2 de 6f 3d 0f 1c a9 3e ab 98 8c 3d
       -0.14655936 0.058562167 0.3302922 0.068650566
000350 28 5d 0b 3e d2 64 04 be 2c 2c 81 be 85 7d a7 bc
       0.13609755 -0.12929085 -0.25229013 -0.020445595
000360 fd 8d 16 3e d9 39 25 bc 2e e4 b3 bd 04 c6 4a be
       0.14702602 -0.010084593 -0.08783756 -0.198021
000370 f3 59 c9 3e 6e d1 45 bd 2e 11 14 3e 0d f6 71 bc
       0.39326438 -0.04829543 0.14459679 -0.014768136
000380 87 00 5c bd 58 a9 75 3d 80 53 44 3d a5 fb 83 bd
       -0.05371144 0.059975952 0.047931194 -0.06444482
000390 62 b2 d4 bc 32 b2 34 3c 80 38 77 bd ab f7 4a be
       -0.025963966 0.011028813 -0.060356617 -0.1982104
0003a0 84 21 26 bd bc 8e 7e bc e7 64 9c bd 85 b1 47 3e
       -0.040559307 -0.01553696 -0.07636433 0.19501312
0003b0 5e 52 9d 3d 59 42 02 be 6a 4d 35 3d 5a 5c dd bd
       0.07681726 -0.12720622 0.04426328 -0.1080863
0003c0 7a 3a 59 bd 2d 1b 20 be ff ff b6 bd 87 c6 2f 3d
       -0.053034283 -0.15635367 -0.08935546 0.04291394
0003d0 ab 41 f1 bd d8 37 1b be 7d 81 03 3e 5a 04 01 3e
       -0.11780103 -0.15158021 0.12842365 0.12599316
0003e0 09 4f 9c bd 14 4e 03 bd 9b 59 54 3e 3b 66 3b 3e
       -0.07632262 -0.032056883 0.20737307 0.18300717
0003f0 80 b2 c9 3d eb 61 ea 3d fc 79 c3 bd 8d 63 41 bd
       0.09848499 0.114444576 -0.09544751 -0.04721408

l2.bias f4 [200]
000000 72 bd 95 3c db 64 2f 3d 66 99 77 be 99 bc fb 3d
       0.018278811 0.042820793 -0.2417961 0.122918315
000010 3e 0b 08 3c 73 07 bc 3d ac 9b 4c 3e 8d cd 3a 3d
       0.008303462 0.09181108 0.19981259 0.045606185
000020 bf 48 b5 bd 69 3c 0a bd 1e 82 48 3c 93 61 6e be
       -0.08851766 -0.033749018 0.012238054 -0.23279409
000030 d7 f5 2b bd 57 eb 3b be 7a 54 72 3d f0 46 8f bd
       -0.041982498 -0.18351494 0.059162594 -0.06995952
000040 42 fa f2 bc cc 64 b1 bc 4b a1 ef bd 31 f3 80 3d
       -0.029660348 -0.021654509 -0.11700686 0.06296385
000050 b4 ba 07 3e a9 07 a1 3d 69 26 12 bc c9 45 0b bd
       0.13254815 0.07862789 -0.0089202905 -0.0340021
000060 60 4e 72 3d 19 cb 1b bc d5 68 42 3d 58 0c 20 be
       0.059156775 -0.0095088715 0.047463257 -0.15629709
000070 9d b3 f9 3d 05 d4 56 3c bc 6a ac 3d 15 f2 00 3e
       0.12192462 0.013112073 0.084187955 0.12592347
000080 a3 87 f2 3d 1c 59 b4 3d 8f b5 b4 ba 62 41 43 bd
       0.11842277 0.08806059 -0.0013787019 -0.047669776
000090 f4 a9 5c bc a7 1d 80 be 8a e6 cc bd 4a 13 64 3e
       -0.013468254 -0.25022623 -0.10004909 0.22272983
0000a0 87 84 1c 3e 9d b9 8f 3d 7a 73 86 3c 87 14 55 be
       0.1528493 0.07017825 0.016412485 -0.20808612
0000b0 f0 41 50 3d bc 59 db bd 3a 40 fa 3d 2e 7c c8 bc
       0.050844133 -0.10710475 0.122192815 -0.024473276
0000c0 8e 54 19 3e 70 81 6b 3e 8e 70 01 3d b3 10 d8 3c
       0.14973661 0.22998595 0.03160148 0.02637515
0000d0 78 55 9d bd ce 6e 75 3d 74 24 ce bc 32 b2 c1 3c
       -0.076823175 0.059920125 -0.025163867 0.02364454
0000e0 cc 70 0d bd 93 c9 5f 3c 9a a1 a4 3e 9d 1d ed bc
       -0.0345314 0.013658899 0.32154542 -0.028944785
0000f0 11 57 8a 3d be fd 75 3d 58 a5 d3 3c 78 6c df 3d
       0.06754888 0.06005644 0.025835678 0.10909361
000100 bf 97 1b 3e 59 4f fa bc 5b bb 89 3d a8 86 9b 3d
       0.15194605 -0.030555414 0.06725188 0.07594043
000110 1e 51 6c bc 7e 4e 88 bd 1c 60 ac 3c 43 4c c6 3c
       -0.014423637 -0.06655596 0.021041922 0.024206286
000120 b9 f9 20 3d e9 93 e4 3c 26 e4 3e 3c 9d 1e 43 3d
       0.039300654 0.02790256 0.0116510745 0.047636617
000130 d7 16 0c bd ac 1c 78 3d 4a ee e5 3d 75 bc db 3d
       -0.03420147 0.06057422 0.11227091 0.10729305
000140 48 fa 0f bb 60 18 07 3e c9 61 8f 3c dc 73 4e bb
       -0.0021969248 0.13192892 0.017502682 -0.0031502163
000150 4f 8f 18 be 34 e2 25 be dd 8d 3a 3d b3 15 61 bd
       -0.14898418 -0.16199571 0.045545448 -0.054952335
000160 36 26 99 3e 56 6a bc 3a 26 60 53 3d 6f d0 f6 3d
       0.29911965 0.0014374952 0.051605366 0.12051474
000170 b5 a3 bb bd 95 53 b5 bd 73 85 e4 3d ed f3 4b be
       -0.09162084 -0.08853833 0.11158266 -0.19917269
000180 a7 f1 cb 3d 95 25 16 be 3a f5 02 3d 7e e2 ed 3c
       0.09958201 -0.14662774 0.031972148 0.029038664
000190 4e 7d fa 3d 44 06 99 3c 9f db 5c 3d dc 1c 20 3e
       0.12230931 0.018679745 0.053920384 0.15636009
0001a0 e3 b8 2c 3e 4a 20 bb bd 14 35 d7 3b ed 8e c5 3d
       0.16867404 -0.09137018 0.0065676067 0.096464016
0001b0 24 71 f0 bc f8 ad 75 bb b0 77 f5 bd b3 cb be 3d
       -0.029350825 -0.0037487727 -0.11985719 0.09316196
0001c0 23 30 bb bd b1 5a 2a be 25 7d 4a 3e 7e 98 52 3d
       -0.09140041 -0.16636159 0.19774301 0.05141496
0001d0 51 09 65 3d 1d fb 93 3d f4 b4 84 3d 3a 6b 5a 3d
       0.055917088 0.072256304 0.064798266 0.053324915
0001e0 3e a4 48 bd 92 87 04 bd 21 59 07 be d0 06 31 bd
       -0.04898476 -0.032355852 -0.13217594 -0.043219388
0001f0 01 b7 c5 3d c7 9f 05 bd 78 68 5d bc 4f ea 55 bb
       0.09654046 -0.03262308 -0.013513677 -0.003264088
000200 04 21 50 3d d8 8e 94 3c e5 78 56 bd 34 51 f9 bc
       0.050812736 0.01813452 -0.052361388 -0.030434228
000210 ec 62 e9 3c d2 ea d9 3c 6e 86 27 3e 16 82 0b 3e
       0.028489552 0.026601229 0.16359875 0.13623843
000220 5c 94 83 bb 05 12 53 be f1 91 31 3d d8 40 7f 3b
       -0.0040154886 -0.20612343 0.04335207 0.0038948562
000230 5d 41 c5 bd 10 e8 3e 3e bf 51 b0 bc b9 33 4a bb
       -0.09631608 0.18643212 -0.021523355 -0.0030853583
000240 fb 3a 73 bd ea c7 2e 3e 00 2a ae 3a a0 60 54 bd
       -0.05938242 0.17068449 0.0013287663 -0.05184996
000250 8d 72 bd 3d 61 07 a4 bd 2f f7 f8 bd ef 1b 59 3d
       0.092503645 -0.0800922 -0.121565215 0.053005155
000260 86 28 12 3d 5d cb 3c 3d 46 4d d8 3a 7d 79 e8 bc
       0.035683177 0.04609238 0.0016502521 -0.028378243
000270 51 b0 16 bc f0 29 09 3e 1f 8c 68 bc 29 21 03 3d
       -0.009197311 0.13394904 -0.014193564 0.032014046
000280 2a 36 45 3d 5b ec 0b bd 52 73 2b 3e 8e 40 e5 bc
       0.048147358 -0.034160953 0.1674321 -0.027984884
000290 01 9d 21 3e 0c 48 00 be 67 7d ab bb 0f 39 74 3d
       0.15782548 -0.12527484 -0.005233455 0.059624728
0002a0 03 cb 4b 3c 07 d4 02 bd 63 33 b7 bc 25 ee 3d be
       0.0124385385 -0.031940486 -0.02236337 -0.18547876
0002b0 f8 ba 86 be f7 0c dd 3d 3e 6e 56 bd 4e 1f de 3d
       -0.2631452 0.107934885 -0.05235123 0.10845815
0002c0 f9 49 ef bd 87 f8 8d 3e f4 09 9f bd 6d 59 b7 bd
       -0.11684031 0.27728674 -0.0776557 -0.089526035
0002d0 ff 01 db bc 89 3c 41 bc 6c f5 f7 bd c4 13 4d be
       -0.02673435 -0.011794218 -0.121073574 -0.20027071
0002e0 5d b8 10 3d e5 49 d6 3c 26 77 4b bd 47 dc 31 bd
       0.035332073 0.026158283 -0.049674176 -0.043422963
0002f0 19 55 a8 3d 7a 98 70 bc 6e 97 a1 bb df 07 d8 3c
       0.08219356 -0.014684791 -0.004931382 0.02637094
000300 35 61 73 3d 70 7c 51 bd 91 a4 f5 bd 59 2b bc bd
       0.059418876 -0.051144063 -0.11994279 -0.091879554
000310 8a b1 01 be 13 17 f6 bc 36 6a 07 be 43 e6 d4 bc
       -0.12665382 -0.0300403 -0.1322411 -0.025988704

l3.weight f4 [4, 200]
000000 53 3e 14 3e a9 f4 78 3e 64 71 86 3e f7 6b 8a 3e
       0.144769 0.2431208 0.26258385 0.27035496
000010 d0 e4 96 be 2b 1e aa 3e f0 e4 54 3e a7 e7 23 be
       -0.29471445 0.3322614 0.20790458 -0.16006337
000020 a3 8c ed 3e 33 bc 2f 3e f2 a4 47 3e 5d d2 cf 3e
       0.4639636 0.17161636 0.19496515 0.40590182
000030 66 95 51 3e 8c 64 26 bd d3 69 23 3e ed 33 ab 3e
       0.20467147 -0.040623233 0.15958337 0.33438054
000040 6d 2b 44 3e 03 ae 97 be a1 37 64 be 6a 62 d5 3e
       0.1915719 -0.29624948 -0.22286846 0.41676646
000050 db 4b fa 3e 93 57 42 3e 76 d1 f6 bd 87 8b 0b 3e
       0.48885998 0.1897872 -0.1205167 0.13627444
000060 c2 7d db bd f4 1d 99 3e 94 4f 47 be f1 14 a1 bd
       -0.10717346 0.29905665 -0.1946395 -0.078653224
000070 b7 e8 61 be a3 eb 15 be 74 93 06 bf 6f c2 94 3e
       -0.2206143 -0.1464067 -0.52568746 0.2905459
000080 1e d3 2c 3e 1b 19 29 3d 9c 1d 1a bc fc a9 26 be
       0.1687741 0.041283708 -0.0094064735 -0.16275781
000090 05 cc b2 3d 9e 3b 1a be 8e fb 3a be e6 84 b1 be
       0.0873032 -0.15061805 -0.18260023 -0.34671706
0000a0 6b 0c fb bd 0f d3 87 3e a8 a6 66 3d 29 22 c0 bc
       -0.12258228 0.26528212 0.05631128 -0.023453789
0000b0 4a 3d e2 bd 81 ce 39 3d 57 69 4c 3e 04 88 9b 3e
       -0.11046846 0.045362953 0.19962059 0.3037721
0000c0 f2 9d d2 3b bc 63 86 be 64 d0 d2 bd e4 0d 43 3e
       0.00642752 -0.26247966 -0.102936536 0.19048268
0000d0 26 17 76 be d6 b4 bb be 8a e7 02 3d 09 ee 86 be
       -0.24032268 -0.36661404 0.031959094 -0.2635348
0000e0 cb 63 d2 3e 65 f6 e4 3d 3f b7 e3 3e 67 b8 93 bd
       0.4109176 0.111798085 0.44475743 -0.07212906
0000f0 c7 19 f6 3e a3 54 78 be 21 d5 b3 3d 50 ae 6a 3d
       0.48066542 -0.24251036 0.087808855 0.057295144
000100 ff 24 5d be 6b 96 7c 3e 0b 2a 02 3f 6f db a4 be
       -0.21596144 0.24666755 0.508454 -0.32198665
000110 a1 b1 80 3e be be 80 be 0b 4f 55 bd ae 53 89 3e
       0.2513552 -0.25145525 -0.052077334 0.26821655
000120 c8 45 a9 3e 41 07 a6 be 42 fc ca bc 3f a1 e6 be
       0.3306105 -0.3242741 -0.024778489 -0.45044896
000130 74 58 76 be a9 92 2f be 8b db ed be a8 2b ac bd
       -0.2405718 -0.1714579 -0.4645656 -0.08406764
000140 e6 8d 38 3e bd 2a cf bd ec 6b 50 be b8 31 91 3e
       0.1802288 -0.101155736 -0.20353669 0.28358245
000150 d7 6d 38 be 20 bf 55 3e 1a b1 50 3e f7 dd 86 3e
       -0.1801065 0.2087369 0.20380059 0.2634122
000160 9c 6f b6 be 13 4e 09 be 67 29 e6 be 2a f7 12 3e
       -0.35632026 -0.13408689 -0.44953462 0.14352098
000170 24 d7 08 bf 24 3e f7 3d c9 10 87 3e 09 75 89 be
       -0.5345328 0.12072399 0.26379994 -0.26847103
000180 f5 ce 40 3e bf 38 9a 3e 5a cb 8e be 15 19 f9 3d
       0.18828948 0.3012142 -0.2788952 0.12162987
000190 0f 39 bc be cf b4 0e 3f 0d d0 5e 3e 46 9c 8c 3d
       -0.36762282 0.5574464 0.21759053 0.06865744
0001a0 ea 5d 3c be bb 74 0a bd e1 7a ca 3e 4c f5 b0 3e
       -0.183952 -0.03380273 0.39546874 0.34562147
0001b0 bb cf f0 3e c4 2c d8 be c9 04 80 bd 25 97 fb 3c
       0.47033486 -0.42221653 -0.06250913 0.03071172
0001c0 ae 81 64 3d 02 f1 ab be 53 c7 4a 3e 3f 49 ba 3e
       0.055787735 -0.33582312 0.19802599 0.36384007
0001d0 a6 02 d6 be bb f5 7d 3e ff ed 2c bc c8 55 b8 be
       -0.41798896 0.2480077 -0.01055479 -0.36002946
0001e0 f5 ab 5d 3e ea 5d d7 be 58 c5 2b 3e a6 96 8f 3e
       0.21647628 -0.42063838 0.167745 0.28044623
0001f0 40 4c 8b 3e 59 d8 1b be e4 aa 24 3e 60 ed 3f be
       0.27206612 -0.15219249 0.16080815 -0.18742895
000200 b7 87 15 3e 48 d0 06 3e 07 8b 17 3e c8 17 a2 be
       0.14602552 0.1316539 0.14799128 -0.3165877
000210 bf 45 eb 3e f9 d6 a1 3c 13 5a d8 bb 72 f7 6d 3d
       0.4595165 0.019755827 -0.0066025346 0.05809731
000220 ab 97 92 be 4d 98 9b bb 39 f5 2f be 59 e9 21 be
       -0.28631338 -0.0047483803 -0.17183389 -0.15811671
000230 76 5b 10 be 51 ea a1 3e 3e 49 b0 3e d8 e6 44 3e
       -0.1409739 0.31624082 0.3443088 0.19228685
000240 8b 8b d9 bd 9d c7 69 3e ae b5 b3 be e1 d8 49 3c
       -0.10622319 0.22830053 -0.35099548 0.012319774
000250 cd a2 61 3e c3 ee b6 be bb db d6 3e 62 4b e1 be
       0.2203476 -0.35729036 0.41964516 -0.44002825
000260 dc 28 72 3e e3 69 42 3e 30 fe 9a bd 8e c6 c7 3d
       0.23648399 0.18985705 -0.07568014 0.09754668
000270 e8 09 69 3e 8c 2e 50 3e d2 10 ad be fe c1 e7 3e
       0.22757685 0.20330256 -0.33801895 0.45265192
000280 98 b5 e9 3e b3 09 63 3e e9 01 03 3e b7 63 68 3e
       0.45646358 0.22171669 0.12793697 0.22694288
000290 70 ea 5b 3e 02 07 de be 96 0f f3 bd 7a 26 ca 3e
       0.2147615 -0.43364722 -0.11868207 0.3948248
0002a0 a6 60 90 be 35 a6 db 3c 8b 6b 6e 3d 53 02 be bd
       -0.28198737 0.026812652 0.05820803 -0.09277787
0002b0 c1 a7 7e be 1d 8d 27 3c ac 2c 81 be 33 b7 e6 3d
       -0.2486868 0.010226515 -0.25229394 0.11265411
0002c0 df df 4d 3e f4 24 ca be 84 ef 11 be 17 a8 70 3e
       0.20104931 -0.39481318 -0.14251524 0.23501621
0002d0 b3 52 ce be 00 d3 3f 3d 80 5f b2 bd 9e cc ab be
       -0.4029747 0.046832085 -0.087096214 -0.33554548
0002e0 59 69 7b bb 25 15 df 3e ff aa 3d 3e 39 da be 3e
       -0.0038362353 0.4357082 0.18522261 0.37275866
0002f0 f9 9e fc 3d 3f 4c f5 3d 7a a4 e2 be cc 6b 55 be
       0.12335009 0.119774334 -0.4426611 -0.20841902
000300 67 23 42 be 4e 76 d7 3e cd 88 00 3c 64 7e 72 3e
       -0.18958817 0.42082447 0.007845116 0.23681027
000310 be 4a cb bc 68 70 27 bc cb 61 15 3f fe 4b e9 3d
       -0.024815913 -0.010219671 0.58352345 0.113914475
000320 b0 37 72 3d 13 e4 87 3e 52 03 6b be 18 5b 8a be
       0.05913514 0.26541194 -0.22950485 -0.27022624
000330 76 ba dd be 9c bb 8b 3d 7e 2b 40 be 70 60 a7 3d
       -0.4330632 0.06822893 -0.18766591 0.08172691
000340 6e 74 1c be 3a af e0 3e c0 f7 06 3f 88 50 40 3e
       -0.1527879 0.43883687 0.52721786 0.1878072
000350 b1 46 24 3c 37 d9 d0 3e af ca 07 3f 72 ef 12 3f
       0.01002662 0.40790722 0.53043646 0.57396615
000360 67 ee e2 bd 63 b7 f2 3e 7d 08 83 bc dc d3 44 be
       -0.11080628 0.47405538 -0.015995258 -0.19221443
000370 6f b2 34 3e 13 eb 3c be 31 65 02 3e ef 87 dc 3e
       0.17646192 -0.18449049 0.12733914 0.4307246
000380 50 bc fa 3e 37 05 e9 3e 8b 38 9e 3e 4a 81 91 3e
       0.48971796 0.4551179 0.30902514 0.28418952
000390 27 aa a6 3c f1 95 f4 3e 3c 08 81 3d 3c 36 db be
       0.020344807 0.47770646 0.06300399 -0.42814815
0003a0 14 16 f3 3e c7 8a 85 be a3 f8 50 be 5e 90 98 3e
       0.47477782 -0.2608244 -0.20407347 0.29797643
0003b0 57 80 ec bd 8e 6f 78 be 8e ad bc 3e 05 bd b0 be
       -0.115479164 -0.24261305 0.36851162 -0.3451921
0003c0 70 9a 01 bd 37 72 da be 30 91 87 be 32 50 c9 3e
       -0.031641424 -0.42665264 -0.26477957 0.39318997
0003d0 0b 5f e4 be ce 14 9b bd dc b8 9f be 45 21 bc be
       -0.44603762 -0.075723276 -0.31195724 -0.36744133
0003e0 cd 8c 66 3e d4 24 f8 be 8b a1 2b 3f f9 85 3e be
       0.22514649 -0.48465598 0.6704337 -0.18605794
0003f0 54 da 37 3e 32 f3 f2 3d eb fe 07 3e e3 4d b8 3e
       0.1795438 0.11862792 0.13280837 0.35996923

l3.bias f4 [4]
000000 10 7b 88 3d 52 25 dc bc be d6 13 bd c1 95 3d 3c
       0.06664097 -0.026873264 -0.036093466 0.011571349
