HardcoreVersion_eval/ppo_q_critic1600.pth (torch, 373698 bytes, 10 tensors)

l1.weight f4 [200, 28]
0	0xbe87db13	-0.26534328
1	0xbe5e09f1	-0.2168348
2	0xbecc1b66	-0.39864653
3	0xbd9bd3bc	-0.076087445
4	0xbe8ef57c	-0.27921665
5	0x3c929912	0.017895255
6	0xbe25d9a9	-0.16196312
7	0x3d19ada7	0.037519123
8	0x3df06850	0.11738646
9	0xbe2aee84	-0.16692549
10	0xbcdc6f46	-0.026908528
11	0xbea50d0f	-0.32236525
12	0x3dc72291	0.0972339
13	0xbd9d06e0	-0.07667327
14	0xbd843e6c	-0.064572185
15	0xbd456869	-0.048195276
16	0x3e617e5b	0.22020857
17	0x3d89de15	0.06731812
18	0x3e6a4875	0.22879203
19	0xbdcca1cd	-0.099917985
20	0x3e2d76a3	0.16939788
21	0x3e33c435	0.17555316
22	0xbe10e22d	-0.14148779
23	0xbe4764db	-0.19472067
24	0x3de8b9f1	0.113635905
25	0x3d7d2940	0.061806917
26	0xbd8a2dd0	-0.06747019
27	0x3dd406e7	0.10352879
28	0x3e830178	0.25587058
29	0x3ecbf612	0.39836174
30	0xbebf0a8c	-0.37312734
31	0xbf0954c9	-0.53644997
32	0x3d108e49	0.035291944
33	0x3d850f3c	0.06497046
34	0x3db3f065	0.08786086
35	0x3c27bdfc	0.010238167
36	0xbb95a421	-0.004566685
37	0xbcef61d5	-0.029221455
38	0xbe86d066	-0.2633087
39	0xbdc5023f	-0.09619569
40	0xbd2e1f7b	-0.04251049
41	0x3ebe7533	0.3719879
42	0x3e111bd8	0.14170778
43	0xbb9dc418	-0.004814636
44	0xbe8daa0d	-0.276688
45	0xbe969f94	-0.29418623
46	0xbc70b800	-0.0146923065
47	0x3d9562b1	0.072942145
48	0x3e00b260	0.12568045
49	0xbe1d4832	-0.15359572
50	0xbd6b7259	-0.057482097
51	0xbd838d4f	-0.06423437
52	0xbc9a32f4	-0.018823124
53	0x3be7b2af	0.0070708613
54	0xbe02ed2d	-0.12785788
55	0x3c980a8e	0.01855972
56	0x3dd11b74	0.102103144
57	0xc006c39e	-2.1056895
58	0xbea238e0	-0.31684017
59	0x3e43cbc8	0.19120705
60	0x3d33b31c	0.043871984
61	0xbdea5871	-0.1144265
62	0xbd0fc7ba	-0.035102583
63	0xbd2484a0	-0.040165544
64	0xbd5b01fd	-0.053468693
65	0x3dca47c5	0.0987697
66	0xbec1333f	-0.3773441
67	0xbc8fa08b	-0.017532608
68	0x3eca7a67	0.3954651
69	0x3e2d4fe5	0.16925009
70	0xbca6dc13	-0.020368611
71	0xbdb0e988	-0.086382926
72	0x3c1e161c	0.009648826
73	0xbe6fe17b	-0.23425858
74	0x3cee2f0d	0.02907517
75	0x3cc86847	0.024463786
76	0xbcdcf142	-0.02697051
77	0xbe299287	-0.16559802
78	0xbb27cfa8	-0.002560595
79	0xbbd6a3a7	-0.0065502706
80	0xbd37efe2	-0.044906504
81	0x3c5e0f76	0.013553491
82	0xbd7d9c53	-0.06191666
83	0x3e85cae6	0.26131362
84	0xbc508ce6	-0.012728905
85	0xbf099d79	-0.5375591
86	0x3ebd7254	0.37001288
87	0x3dcd3e1b	0.10021611
88	0xbd26f7c1	-0.04076362
89	0x3d974c3f	0.0738759
90	0xbdf60006	-0.12011723
91	0xbdd196c1	-0.10233832
92	0x3d287acf	0.041132744
93	0x3e20d581	0.15706445
94	0xbe5f7911	-0.21823527
95	0x3dbc8404	0.092048675
96	0xbc743a61	-0.014906497
97	0xbd84960a	-0.0647393
98	0x3d5e5627	0.05428138
99	0x3d56038c	0.052249476
100	0x3e4b229d	0.19837423
101	0x3e2401da	0.16016331
102	0xbd32542a	-0.043537296
103	0x3e37ab09	0.17936338
104	0x3e1b5dfc	0.15172571
105	0xbcf300d2	-0.029663477
106	0x3e3d1894	0.18466407
107	0x3d37d04a	0.044876374
108	0x3d97f6cd	0.074201204
109	0x3d190e88	0.037367374
110	0xbe02c7e4	-0.12771565
111	0x3d898a40	0.06715822
112	0xbe310578	-0.17287242
113	0xbf93b882	-1.1540682
114	0xbde18ff7	-0.11013787
115	0x3d216683	0.039404403
116	0x3d184a74	0.03718038
117	0xbd7c381b	-0.061576944
118	0x3de47822	0.11155726
119	0xbd31ea0e	-0.043436103
120	0xbce875ea	-0.028376538
121	0xbe3ec1c5	-0.18628605
122	0xbeda1bcb	-0.4259933
123	0x3f0c7bd8	0.5487647
124	0xbccc0c75	-0.024908284
125	0xbd95c01b	-0.07312032
126	0xbe5f5406	-0.21809396
127	0xbe1f5873	-0.15561084
128	0x3e47ec82	0.19523814
129	0x3d91bc2f	0.07115971
130	0x3e983c0e	0.29733318
131	0x3e15c3e5	0.14625509
132	0x3c1f58d9	0.009725773
133	0xbe0c4e57	-0.1370176
134	0x3d393ba6	0.0452229
135	0x3dcb6608	0.0993157
136	0xbce8ab5d	-0.028402025
137	0x3c668ccf	0.014071657
138	0xbebfe0ce	-0.374762
139	0x3ea6d06e	0.32580894
140	0xbda4de12	-0.08050169
141	0xbf4d4bdb	-0.8019387
142	0x3ecd4718	0.40093303
143	0xbf78d543	-0.9720041
144	0x3d442739	0.04788897
145	0x3d8b52ba	0.06802888
146	0x3d33aa7a	0.04386375
147	0x3d29fb2c	0.0414993
148	0xbd1f0cd3	-0.03883059
149	0x3effcf2b	0.49962744
150	0xbe2a3c00	-0.1662445
151	0x3ecd25ff	0.4006805
152	0xbcd3f7b9	-0.02587496
153	0xbd050fb9	-0.032485697
154	0xbcb2af5c	-0.021812133
155	0xbf0b34c2	-0.5437738
156	0xbef06062	-0.46948534
157	0x3ea3a15d	0.31959048
158	0xbdda1e6d	-0.106503345
159	0xb9e0a022	-0.00042843918
160	0x3e997a5c	0.29976165
161	0xbe27babe	-0.1637983
162	0xba652bdf	-0.0008742194
163	0xbd953a72	-0.07286538
164	0x3d441096	0.04786738
165	0x3dc63d03	0.09679606
166	0xbdfd53b9	-0.123694845
167	0x3d6b9ae4	0.057520762
168	0x3ea14039	0.3149431
169	0xbc569690	-0.01309742
170	0xbf393b9f	-0.723566
171	0xbc79e8f5	-0.015253295
172	0x3e1673cd	0.14692612
173	0xbd801f44	-0.062559634
174	0xbb8563a2	-0.004070715
175	0x3b925c47	0.0044665667
176	0xbeed0ec2	-0.46300322
177	0x3c0d9e50	0.008643702
178	0x3d408bd4	0.04700835
179	0x3dfb78db	0.12278911
180	0xbc319012	-0.010837572
181	0xbd8731d8	-0.06601304
182	0x3ed87324	0.42275345
183	0x3dc98c01	0.09841157
184	0xbeeb088b	-0.45904955
185	0xbf2c6f3d	-0.67357236
186	0xbe4ba02e	-0.19885322
187	0x3ecbfd65	0.39841762
188	0x3eeb1e5a	0.45921594
189	0x3e8cdab1	0.27510598
190	0xbdf4521d	-0.11929724
191	0x3cf37450	0.029718548
192	0x3bb86ae9	0.005627979
193	0x3bb81a6c	0.005618384
194	0x3b2b9b9d	0.0026185282
195	0xbcbc685e	-0.022998985
196	0x3ddfdc0c	0.109306425
197	0x3ded2dc1	0.115809925
198	0xbe915835	-0.2838761
199	0xbda021fa	-0.078189805
200	0x3ce766bc	0.02824723
201	0x3de1368c	0.10996732
202	0x3db6a13b	0.08917471
203	0x3c8a436a	0.016877849
204	0xbdd3afcc	-0.10336265
205	0xbd05c550	-0.032658875
206	0xbe4be1f3	-0.19910412
207	0x3d6f7729	0.05846325
208	0xbe1b8d0f	-0.15190528
209	0x3d554f2f	0.05207747
210	0xbcf7aec0	-0.030234694
211	0xbe02d697	-0.12777172
212	0x3c736a7f	0.014856934
213	0xbe537c33	-0.20652847
214	0x3da790c1	0.081819065
215	0xbe47135f	-0.19440983
216	0xbe1712b5	-0.1475323
217	0xbe533eae	-0.20629379
218	0xbd5a9f30	-0.05337447
219	0xbe4c9920	-0.19980288
220	0x3dff7fa9	0.12475521
221	0x3dbc74ad	0.09201942
222	0xbd4bfdc8	-0.04980257
223	0x3b28d9f8	0.0025764685
224	0x3deae85b	0.114700995
225	0x3dd45645	0.10368017
226	0x3df8fa19	0.12157077
227	0xbee462a0	-0.44606495
228	0xbe66e165	-0.22546919
229	0x3dc05519	0.09391231
230	0xbe4cccc3	-0.19999985
231	0x3ccf97a2	0.025340859
232	0x3d98f6db	0.07468959
233	0xbd3cd795	-0.046104033
234	0xbbda4bb6	-0.0066618575
235	0x3cd28f5d	0.025703127
236	0xba9f6d46	-0.0012163303
237	0x3e04cfc5	0.12969883
238	0xbe45812b	-0.19287555
239	0xbe95bf01	-0.29247287
240	0x3cb69c9a	0.02229147
241	0xbdcc4ce9	-0.09975607
242	0x3d5003d0	0.050784886
243	0xbc2c08a0	-0.010500103
244	0xbec19fef	-0.37817332
245	0xbea2bdaa	-0.31785327
246	0x3e6662d0	0.22498631
247	0x3d4bc945	0.049752492
248	0x3d76f936	0.06029626
249	0xbc96cd77	-0.01840852
250	0x3b964909	0.004586343
251	0xbcd74960	-0.026280105
252	0x3dc8c7f2	0.098037615
253	0x3fc642a1	1.5489084
254	0xbe5f1a56	-0.2178739
255	0x3f29d556	0.6634115

l1.bias f4 [200]
0	0x3e27c1fb	0.16382591
1	0x3da0c335	0.07849733
2	0xbea52f28	-0.3226254
3	0xbda9d14c	-0.08291873
4	0xbd83dd61	-0.06438709
5	0x3d0f92cd	0.03505211
6	0x3e3466f4	0.17617399
7	0xbe09ba85	-0.13450058
8	0x3ee1b47f	0.4408302
9	0xbe190cc0	-0.1494627
10	0x3dc8e32b	0.09808954
11	0xbd45195c	-0.048119888
12	0x3dcefd61	0.10106922
13	0xbe8861d5	-0.2663714
14	0x3db6f8ab	0.089341484
15	0x3e9e466c	0.30913103
16	0x3e871c12	0.26388603
17	0xbbda3336	-0.006658937
18	0x3e5d7ba8	0.21629202
19	0x3ea2fe53	0.3183466
20	0xbe0e2535	-0.13881381
21	0x3da4f4d9	0.080545135
22	0x3a0acb01	0.0005294532
23	0xbdeac555	-0.11463419
24	0x3df36dc6	0.11886172
25	0x3e3158b8	0.17319
26	0x3ec9975a	0.39373285
27	0x3d10c1da	0.03534112
28	0x3c0a0535	0.008424093
29	0x3daa9c42	0.08330585
30	0x3e48fb06	0.19627008
31	0x3e0b5525	0.13606699
32	0xbcfa7ef9	-0.030578123
33	0xbdd19384	-0.102332145
34	0xbe56495a	-0.20926419
35	0xbe2e5d48	-0.17027771
36	0x3e54cc24	0.20780998
37	0x3e4e7d79	0.20165052
38	0x3e86757e	0.26261514
39	0x3d75875d	0.059943546
40	0x3d8e5b53	0.069510125
41	0xbd76312d	-0.06010549
42	0xbca45580	-0.0200603
43	0xbda7c549	-0.08191926
44	0xbcb8229e	-0.022477444
45	0xbe754417	-0.23951755
46	0xbe1dba4d	-0.154031
47	0x3ed3b648	0.41350007
48	0x3d2bf625	0.04198279
49	0x3dce6d7e	0.10079478
50	0x3d99c3d2	0.07508053
51	0x3e9ac2be	0.30226701
52	0x3e60c2d0	0.21949315
53	0x3e8e80ea	0.2783273
54	0x3ea513e1	0.3224173
55	0xbdfd76a9	-0.12376148
56	0x3e19c76b	0.15017478
57	0x3d87affb	0.066253625
58	0xbb583870	-0.0032992624
59	0x3ca9d26f	0.020730225
60	0x3e2c4db7	0.16826521
61	0x3ab91b6d	0.0014122553
62	0xbe501092	-0.20318821
63	0xbc683f2b	-0.014175217
64	0xbdc568bd	-0.09639118
65	0x3dd7cabf	0.105367176
66	0xbe92ccc1	-0.2867184
67	0xbe111ea9	-0.14171852
68	0xbdc11d52	-0.094294205
69	0x3da580db	0.08081218
70	0x3ee8c745	0.4546453
71	0xbdae4bb2	-0.085105315
72	0x3e946c45	0.28988853
73	0x3d50f4a4	0.051014557
74	0x3e33567b	0.17513458
75	0x3d8d989a	0.06913872
76	0xbe4cb8d4	-0.19992381
77	0xbdef08af	-0.11671578
78	0x3e4018e1	0.1875949
79	0xbe68ada3	-0.22722487
80	0x3cf18790	0.029483587
81	0x3e3da2d0	0.1851914
82	0xbe180dc8	-0.14849007
83	0xbe0c9ab3	-0.13730888
84	0x3e315449	0.17317308
85	0x3e75231b	0.23939173
86	0xbd4b542c	-0.04964082
87	0xbe0b4d92	-0.1360381
88	0x3dcc856f	0.09986388
89	0xbcd725f6	-0.026263218
90	0x3dc7cd4e	0.09755956
91	0x3c1860f6	0.009300461
92	0x3ef03fd4	0.46923697
93	0x3d9ef472	0.07761468
94	0xbd8d3023	-0.06893947
95	0x3e0244b4	0.1272152
96	0x3dd296b5	0.10282651
97	0x3ceeda41	0.029156806
98	0x3db545b3	0.08851185
99	0x3df2ea67	0.11861115
100	0x3e297c3b	0.16551296
101	0xbc57eb2d	-0.013178629
102	0xbe4e02a9	-0.20118202
103	0xbe13a346	-0.14417753
104	0xbdcff276	-0.10153668
105	0xbe849f87	-0.2590296
106	0x3e61de58	0.22057474
107	0x3c3239b3	0.010878014
108	0x3d357d94	0.044309214
109	0x3e207461	0.15669395
110	0x3eedfd26	0.464822
111	0x3d717d05	0.05895712
112	0xbe066e2e	-0.13127968
113	0x3de2bfb4	0.11071721
114	0x3e57a579	0.21059217
115	0x3e94f71d	0.29094782
116	0xbe073b4c	-0.13206214
117	0xbde1eda2	-0.11031653
118	0xbe6f332b	-0.23359363
119	0x3e1812ff	0.14850996
120	0xbe315e94	-0.17321235
121	0xbe6c32ce	-0.23066255
122	0x3e5e67e7	0.21719323
123	0x3edd4491	0.43216375
124	0x3e237039	0.15960778
125	0x3e1844ea	0.14870039
126	0xbeb42993	-0.3518797
127	0x3dcf758b	0.101298414
128	0xbea7ab9f	-0.32748124
129	0xbe8c1f00	-0.273674
130	0x3b083e50	0.0020789094
131	0x3d894b4c	0.06703815
132	0xbe05b0a9	-0.13055672
133	0x3de462c8	0.111516535
134	0xbc939662	-0.018016044
135	0x3d8e8336	0.0695862
136	0xbd825b48	-0.06365067
137	0x3c510fb9	0.012760096
138	0xbd847ee8	-0.06469518
139	0x3d7e49c6	0.062082075
140	0xbe42de96	-0.19030222
141	0xbdf72a6c	-0.12068638
142	0x3dff00ba	0.124513105
143	0xbd1e0e1d	-0.03858768
144	0x3d0f7f18	0.035033315
145	0xbdad5ea7	-0.08465319
146	0xbe03cb5d	-0.12870546
147	0xbe0963c1	-0.1341696
148	0x3e27b3f6	0.16377243
149	0x3d94a503	0.07258036
150	0x3e68c0c3	0.22729783
151	0xbe090b49	-0.13383211
152	0xbb85feed	-0.0040892274
153	0xbd12f57b	-0.03587864
154	0x3e29b7bb	0.16573994
155	0x3d7745ce	0.060369305
156	0x3eca9b54	0.3957163
157	0x3e1a734e	0.15083048
158	0x3e08b16b	0.1334893
159	0x3a4ac719	0.00077353563
160	0x3cac0a95	0.02100114
161	0x3dd99ac1	0.1062522
162	0xbd34c825	-0.044136185
163	0xbe73148c	-0.23738307
164	0xbe1e6013	-0.15466337
165	0x3e55c246	0.2087489
166	0x3e9cd2ae	0.30629486
167	0x3e86c42f	0.2632155
168	0x3cb00256	0.021485489
169	0x3e8061da	0.25074655
170	0xbe52c5d2	-0.20583275
171	0xbdc51710	-0.096235394
172	0x3dc69f47	0.096983485
173	0x3e78f257	0.24311195
174	0xbeac08b5	-0.33600393
175	0xbe846da2	-0.25864893
176	0x3d3b967f	0.04579782
177	0xbe1cee32	-0.1532524
178	0xbe1b35f3	-0.15157299
179	0xbe96e88a	-0.29474288
180	0xbc8c07bf	-0.017093537
181	0x3dde0f85	0.10842804
182	0xbdffdbfb	-0.1249313
183	0x3e5307d7	0.2060846
184	0xbd49f011	-0.04930121
185	0xbda0545d	-0.07828591
186	0x3ce68887	0.028141273
187	0x3e9574c8	0.2919066
188	0x3ec7426d	0.38917866
189	0xbe98d6d7	-0.2985141
190	0x3c785676	0.015157333
191	0x3dc122e5	0.09430484
192	0x3e79aa2f	0.24381326
193	0x3d918422	0.071052805
194	0xbd32fbfd	-0.043697346
195	0x3dfcaea7	0.12338
196	0xbd59eea4	-0.0532061
197	0x3eb79b5e	0.35860723
198	0xbd4f589f	-0.050621625
199	0x3de3792e	0.111070976

l2.weight f4 [200, 200]
0	0xbb5370a2	-0.003226318
1	0x3e58ec34	0.21183854
2	0xbd8a6789	-0.06758029
3	0xbe077623	-0.1322866
4	0xbdcb867a	-0.09937759
5	0xbeb4592c	-0.35224283
6	0x3cf7debf	0.03025758
7	0xbe7b65d7	-0.24550568
8	0x3e3ae512	0.18251446
9	0x3e2a8408	0.16651928
10	0xbd79630a	-0.060885467
11	0x3d839e0b	0.06426629
12	0x3d9c74ff	0.07639503
13	0xbbef254a	-0.0072981464
14	0x3d81aab7	0.063313894
15	0x3e43cc53	0.19120912
16	0x3e944989	0.28962353
17	0xbe7c70fb	-0.24652474
18	0x3e56a4e9	0.20961346
19	0x3d7189fd	0.058969487
20	0x3e2a547a	0.16633788
21	0x3d17318a	0.03691248
22	0xbddb59e9	-0.107105084
23	0xbe9c13eb	-0.30483946
24	0xbaee32f2	-0.0018173142
25	0x3dd91f7e	0.1060171
26	0x3e7b3c78	0.24534786
27	0x3e468bc3	0.19389252
28	0xbdf77a79	-0.12083907
29	0xbbe4dc69	-0.0069842828
30	0x3e61ee63	0.22063594
31	0xbe81a324	-0.2531978
32	0x3d67646c	0.056492254
33	0x3e01d039	0.12677087
34	0x3da18853	0.0788733
35	0x3cd553ab	0.026040873
36	0x3db1dcfd	0.08684728
37	0x3d916e02	0.071010605
38	0x3e637a9f	0.22214745
39	0xbcca6aeb	-0.024709186
40	0xbe1640e6	-0.14673194
41	0xbc1c4192	-0.009537118
42	0x3e186a32	0.1488426
43	0xbe19a3db	-0.15003912
44	0xbf1e12f8	-0.61747694
45	0xbed66450	-0.41873407
46	0xbaa8c997	-0.0012877461
47	0x3e69e831	0.2284248
48	0x3e3fea65	0.18741758
49	0xbe28dc2e	-0.16490242
50	0xbd3d0c1a	-0.04615412
51	0x3e02aef6	0.12762055
52	0x3c4ffb35	0.01269417
53	0xbcee1cf8	-0.029066548
54	0x3e436c56	0.19084296
55	0xbe0b655d	-0.13612886
56	0xbe0a69d3	-0.13516931
57	0xbb1a4b34	-0.002354336
58	0x3d0cacb1	0.03434438
59	0x3e0c15c6	0.13680181
60	0xbd1e4a0b	-0.03864483
61	0xbf0fec42	-0.56219876
62	0x3e3bf39d	0.1835465
63	0x3d583660	0.05278623
64	0xbdc50aca	-0.096211985
65	0xbc9b7f78	-0.01898168
66	0xbcc8b2a9	-0.024499254
67	0xbcc39f53	-0.023879683
68	0x3c8a881f	0.01691061
69	0xbd9aaafc	-0.07552144
70	0x3ef60763	0.4805251
71	0xbe91c1a1	-0.2846804
72	0x3d8969ab	0.06709608
73	0xbdada73a	-0.084791616
74	0xbca3469e	-0.019931134
75	0xbd18c39e	-0.03729593
76	0xbc43c152	-0.011947947
77	0x3e1af87f	0.15133856
78	0x3d951e3a	0.07281156
79	0xbe341d1b	-0.17589228
80	0x3e32bd7c	0.17455095
81	0xbc839fe2	-0.016067449
82	0xbed8182d	-0.42205945
83	0xbdb489d4	-0.08815351
84	0xbd494cdc	-0.049145564
85	0x3d91a63f	0.07111787
86	0x3e29411c	0.16528744
87	0xbe20d46d	-0.15706034
88	0x3d26d8c6	0.040734075
89	0xbdb7e8eb	-0.089799725
90	0xbcbefa82	-0.02331281
91	0xbd8fe0f0	-0.07025325
92	0xbe35ab91	-0.17741229
93	0xbc4a6fe4	-0.012355778
94	0x3e6f13f5	0.23347457
95	0x3e2c729c	0.16840595
96	0x3c3bee55	0.011470397
97	0xbcab6722	-0.020923201
98	0xbdadbbf0	-0.08483112
99	0x3d961e0c	0.0732995
100	0x3e0337ef	0.12814306
101	0xbe60b9d6	-0.21945891
102	0xbdd97f4f	-0.10619985
103	0xbe4e961f	-0.20174454
104	0xbd7b8052	-0.061401673
105	0x3e2b04e9	0.16701092
106	0xbe7d4575	-0.24733527
107	0x3e77adb5	0.24187358
108	0x3e8e15bb	0.27750954
109	0xbc95e160	-0.018295944
110	0x3e7035f2	0.23458079
111	0xbce2c966	-0.027683925
112	0xbe8578d1	-0.26068738
113	0x3d169a31	0.036768142
114	0x3d0bcc59	0.034130428
115	0xbe098eb9	-0.1343335
116	0x3e379304	0.17927176
117	0x3e4c547a	0.199541
118	0xbe699c3f	-0.2281351
119	0xbcb9ad2b	-0.02266558
120	0xbdb266a0	-0.087109804
121	0xbea68bf1	-0.32528642
122	0xbd1de716	-0.03855046
123	0x3dad6226	0.08465986
124	0x3e102a48	0.14078629
125	0x3e0b8b72	0.13627413
126	0xbe5aac96	-0.21354899
127	0x3c0db2b2	0.008648561
128	0xbc629089	-0.013828405
129	0x3dddee77	0.10836499
130	0x3ded3cbf	0.11583852
131	0x3d7ac6e3	0.06122483
132	0xbda26fc5	-0.079314746
133	0x3e3bdac3	0.1834517
134	0x3de8e605	0.11371998
135	0xbc20637b	-0.009789343
136	0xbe054c03	-0.13017277
137	0x3c0f079f	0.008729844
138	0x3e4d1d46	0.20030698
139	0x3b294e43	0.0025834
140	0xbf09aaae	-0.5377606
141	0x3e6c08ad	0.23050185
142	0x3d5c0ef0	0.053725183
143	0xbdf8d8ca	-0.12150724
144	0x3d281178	0.041032284
145	0x3e338e16	0.1753467
146	0xbe03e375	-0.12879737
147	0x3e912946	0.28351802
148	0x3e1648bf	0.14676188
149	0xbe84b1ca	-0.25916892
150	0x3d3e115a	0.046403266
151	0xbdccc62d	-0.099987365
152	0xbd0c18d3	-0.03420336
153	0x3d9b1684	0.07572654
154	0xbbb384b1	-0.0054784645
155	0xbcfc01fd	-0.030762667
156	0xbc8aace4	-0.016928144
157	0x3d3dbfd2	0.046325512
158	0x3d1fb7de	0.03899371
159	0xbda72862	-0.08161999
160	0xbe5fb1d2	-0.21845177
161	0xbe123b68	-0.14280474
162	0x3d8f9011	0.070099
163	0xbe008d27	-0.12553845
164	0xbbf8fa3b	-0.007598189
165	0x3e084967	0.13309251
166	0x3e4589bd	0.19290824
167	0x3e85d0d1	0.26135877
168	0xbd543b72	-0.051814504
169	0x3e17bf82	0.14819148
170	0x3e025e66	0.12731323
171	0x3ab68efa	0.0013928108
172	0xbd6aba66	-0.05730667
173	0x3e4c80d6	0.19971022
174	0xbcf47855	-0.029842535
175	0x3bb540cb	0.0055314056
176	0x3e01c67c	0.12673372
177	0x3bbd47b4	0.00577637
178	0xbe87912b	-0.26477942
179	0x3e252552	0.16127518
180	0xbd403c78	-0.046932667
181	0x3c8f0664	0.017459102
182	0x3e64e447	0.22352706
183	0xbd743c9c	-0.059628114
184	0xbe1efb07	-0.15525447
185	0xbec0c295	-0.37648454
186	0x3dd59051	0.10427917
187	0x3e504f71	0.20342804
188	0x3d8815be	0.06644772
189	0xbd708f01	-0.05873013
190	0x3dd46eb4	0.103726774
191	0xbc17c46c	-0.009263139
192	0x3db22c36	0.08699839
193	0x3d23a415	0.039951403
194	0x3db54fe8	0.088531315
195	0x3afa8c41	0.0019115285
196	0xbc8b4ffc	-0.017005913
197	0x3e93f14d	0.28895035
198	0xbe1f968f	-0.15584777
199	0x3e12452d	0.14284201
200	0x3d91c8fd	0.071184136
201	0xbe51e72a	-0.20498338
202	0x3dba01f6	0.09082405
203	0x3dd36299	0.103215404
204	0x3dfa3e2a	0.12218888
205	0x3e17f3f4	0.14839154
206	0xbe867c82	-0.26266867
207	0x3eb5f9e8	0.35542226
208	0xbdaf24e9	-0.08551962
209	0x3e90d48b	0.28287157
210	0xbbc4169d	-0.005984141
211	0x3d9c1515	0.076212086
212	0xbe5bbeaf	-0.21459459
213	0x3e3cc2b8	0.18433654
214	0xbd7d94c9	-0.06190947
215	0x3ecade16	0.39622563
216	0x3bce8b8b	0.006303256
217	0xbc74102b	-0.014896433
218	0x3e21aa87	0.15787707
219	0x3e9ee212	0.31031853
220	0x3db69c85	0.089165725
221	0x3c3b98c0	0.011449993
222	0x3dadfd3c	0.08495566
223	0x3c3529f2	0.011057364
224	0xbda0e57e	-0.07856272
225	0x3c5f4d53	0.013629275
226	0x3d139671	0.036032144
227	0x3d836928	0.06416541
228	0x3c03a7ee	0.008035643
229	0x3e097828	0.13424742
230	0x3cbb0e3d	0.022833938
231	0xbf4d9956	-0.803121
232	0xbd4fe2ae	-0.050753288
233	0x3cd20df3	0.025641417
234	0x3e8aeb92	0.2713285
235	0xbb88e655	-0.0041778483
236	0xbbf4a28b	-0.0074656657
237	0x3dbd7c4d	0.09252224
238	0x3df12aad	0.11775718
239	0x3de94239	0.11389584
240	0xbc98593d	-0.01859724
241	0x3e188549	0.14894594
242	0xbeecd0ae	-0.4625296
243	0xbe942f28	-0.28942227
244	0xbe6aaa61	-0.22916557
245	0xbcb58134	-0.022156335
246	0x3db09036	0.08621256
247	0xbe21cb7f	-0.15800284
248	0xbe38ce70	-0.180475
249	0x3d38d92d	0.04512899
250	0xbb5f541a	-0.0034077228
251	0x3dc3c7df	0.09559607
252	0xbe9c1396	-0.30483693
253	0xbe5de297	-0.21668468
254	0xbe87278e	-0.26397365
255	0xbc734441	-0.014847816

l2.bias f4 [200]
0	0x3e2956c4	0.16537005
1	0xbdade6e3	-0.08491304
2	0xbc14a87b	-0.009073372
3	0x3d1cb92a	0.038262524
4	0xbc985444	-0.018594868
5	0x3c927293	0.017876899
6	0x3d6b93ea	0.05751411
7	0xbd35b7e5	-0.04436483
8	0xbdb3a868	-0.08772355
9	0xbd554c5d	-0.05207478
10	0xbd1e0049	-0.03857449
11	0x3d4ac5de	0.049505107
12	0x3b296ec1	0.0025853368
13	0xbcf7c749	-0.030246394
14	0x3dd9ae4c	0.106289476
15	0xbd473967	-0.048638728
16	0xbd74a060	-0.059723258
17	0xbd83c463	-0.06433942
18	0x3c380283	0.011231068
19	0x3cebe724	0.02879674
20	0xbcef1f09	-0.029189603
21	0xbd1283da	-0.035770275
22	0x3d8e674a	0.069532946
23	0x3d8fe796	0.070265934
24	0x3bd12972	0.0063831145
25	0x3d0bcd88	0.034131557
26	0x3b8361fb	0.004009483
27	0xbdae5eda	-0.08514185
28	0xbd2c7d25	-0.042111535
29	0x3dbff6f6	0.09373276
30	0x3c3f1ca3	0.011664542
31	0x3d04e1e7	0.032442
32	0xbd388630	-0.045049846
33	0x3bdb96ad	0.0067013116
34	0xbc365930	-0.011129662
35	0x3b8f5846	0.0043745367
36	0xbce7a141	-0.028275134
37	0xbca779e3	-0.020443862
38	0x3c9825f3	0.018572783
39	0xbd410434	-0.04712315
40	0xbc8f2cbc	-0.017477386
41	0x3d88653c	0.06659934
42	0xbd92cf17	-0.071684055
43	0xbd0051d3	-0.031328034
44	0xbdc2184f	-0.09477293
45	0x3c75eda7	0.015010274
46	0xbcd4147c	-0.025888674
47	0xbc554d3c	-0.013018902
48	0x3dd36534	0.10322037
49	0xbcfcc20f	-0.030854253
50	0xbd6372bb	-0.055529337
51	0xbd28ca87	-0.04120877
52	0xbd13663d	-0.035986174
53	0x3db0c2b8	0.0863089
54	0xbcd555ca	-0.026041884
55	0x3b02400b	0.0019874598
56	0xbc83d5cb	-0.016093155
57	0xbcf0dcbb	-0.029402127
58	0xbcab2d0d	-0.020895505
59	0xbc057e05	-0.008147721
60	0x3d9dfafb	0.07713886
61	0xbd17463a	-0.036932208
62	0xbd812fc9	-0.063079424
63	0x3c6f6da8	0.014613546
64	0x3dbb9c25	0.091606416
65	0xbd4d9170	-0.050187528
66	0x3cb3d3e3	0.021951621
67	0xbcd653b9	-0.026162969
68	0xba51b366	-0.000799945
69	0x3d44a012	0.048004217
70	0x3d33f298	0.043932527
71	0xbde870f5	-0.1134967
72	0x3d984d66	0.074366376
73	0xbba5b616	-0.0050571067
74	0xbd6e954e	-0.058247857
75	0x3d45f139	0.04832575
76	0xbc5de292	-0.013542788
77	0xbd84bb0d	-0.064809896
78	0x3ca3416a	0.019928653
79	0x3a68d553	0.00088818854
80	0x3b26d6ba	0.0025457577
81	0x3cbdc566	0.023165416
82	0xbd992af2	-0.07478894
83	0x3dc8231a	0.0977232
84	0xbb9251a1	-0.0044652973
85	0x3ca837d5	0.020534435
86	0x3d8e168f	0.069378965
87	0xbd663358	-0.05620131
88	0x3b7e5b77	0.0038811842
89	0x3d1365cb	0.03598575
90	0xbd5e9fed	-0.054351736
91	0x3d989403	0.07450106
92	0x3b3ec7b7	0.0029110739
93	0x3cff8841	0.0311929
94	0xbe5729e2	-0.21012071
95	0x3d25ef8c	0.040511653
96	0xbd8bbf33	-0.06823578
97	0x3c3a1bcd	0.011359167
98	0x3d6050e1	0.054764632
99	0x3d4e7108	0.050400764
100	0x3cbe63d7	0.023240967
101	0xbd0990f1	-0.033585493
102	0xbd853ce6	-0.06505756
103	0x3d142537	0.036168303
104	0x3d1ce11c	0.03830062
105	0xbd392603	-0.045202266
106	0xbdd109cc	-0.10206947
107	0x3c6446a3	0.013932857
108	0xbdcb2f39	-0.099211164
109	0x3d611440	0.054950953
110	0x3b916aab	0.0044377646
111	0xbd4364ea	-0.04770366
112	0xbc35f42c	-0.011105578
113	0x3da05d37	0.07830279
114	0xbc8ebfff	-0.017425535
115	0xbd03bbf8	-0.032161683
116	0x3d14fe26	0.036375187
117	0x3c938452	0.018007431
118	0xbdd0b628	-0.101909935
119	0x3cd5d4ce	0.02610245
120	0xbc72f1a3	-0.0148281185
121	0xbd7370a6	-0.0594336
122	0xbdba531a	-0.090978816
123	0x3de46e5f	0.11153864
124	0xbd55d876	-0.052208386
125	0x3c41095f	0.011782019
126	0x3cadecbe	0.021231052
127	0x3d2471ec	0.040147707
128	0xbd8229ed	-0.06355653
129	0x3bab9731	0.0052365293
130	0xbcfad294	-0.03061799
131	0x3cd5dc5b	0.02610605
132	0x3c3a6e9f	0.011378913
133	0xbab97f68	-0.001415235
134	0xbbeb2a73	-0.007176691
135	0x3d699f29	0.057036553
136	0x3b464e30	0.0030259006
137	0x3cd56146	0.02604736
138	0x3d1b3382	0.03789092
139	0xbd4c16bf	-0.04982638
140	0x3d3cd30b	0.046099704
141	0x3cec6f1f	0.02886158
142	0x3d7d4011	0.061828677
143	0xbddc6348	-0.10761124
144	0x3d70b5a5	0.05876698
145	0x3d0ed6ec	0.034872934
146	0x3d362714	0.04447086
147	0x3d7319a8	0.05935064
148	0xbc90ddcf	-0.017683892
149	0x3dd46443	0.10370686
150	0x3d79a86d	0.06095164
151	0xbd838aee	-0.06422983
152	0xbdc29752	-0.09501518
153	0x3dcb3057	0.099213295
154	0xbde032ab	-0.10947164
155	0xbdd8b9d2	-0.105823174
156	0xbda8f81a	-0.082504466
157	0x3d6dedfa	0.05808828
158	0x3cd8f6c4	0.026484855
159	0x3cfc7a29	0.03081997
160	0x3dc0da21	0.09416605
161	0x3d0e4e7a	0.03474281
162	0xbd163ae8	-0.03667727
163	0x3c001f41	0.0078199515
164	0xbcb0692b	-0.021534523
165	0x3d83b57c	0.064311
166	0xbcc33287	-0.023827804
167	0xbdcedc17	-0.101005726
168	0xbd4cf078	-0.050034016
169	0xbcdd880a	-0.027042408
170	0x3c0c608a	0.008567939
171	0xbd9f43bc	-0.07776591
172	0xbda30350	-0.07959616
173	0x3c6b830e	0.014374508
174	0x3c6a53ea	0.014302233
175	0xbcc3246a	-0.023821075
176	0x3d6c1278	0.0576348
177	0x3d4c41fb	0.04986761
178	0xbd475e63	-0.048674
179	0x3d66aa0b	0.05631451
180	0x3d8dec16	0.069297954
181	0x3ba16588	0.0049254335
182	0x3ca192a9	0.019723253
183	0xbd51bf47	-0.051207807
184	0xbcc4a53f	-0.024004577
185	0xbcd9af3a	-0.026572812
186	0x3d5e5cd6	0.054287754
187	0x3c895e92	0.016768727
188	0x3de5aaae	0.11214195
189	0x3e2452b2	0.16047171
190	0xbc2d4687	-0.010575897
191	0x3d6c47f2	0.0576858
192	0x3c5be081	0.013420225
193	0x3b843612	0.004034766
194	0x3e05b0a0	0.13055658
195	0x3bdb4c06	0.0066924123
196	0x3d8b657e	0.068064675
197	0xbcc0d616	-0.023539584
198	0x3db8e06f	0.09027182
199	0xbccf3fd2	-0.025298987

l3.weight f4 [1, 200]
0	0xbf4dea7d	-0.80435926
1	0x3ee54ee9	0.44786766
2	0xbfa16e42	-1.2611773
3	0xbf236527	-0.6382622
4	0xbf23bc3a	-0.63959086
5	0xbf1e306d	-0.6179264
6	0x3e55ebe4	0.20890766
7	0x3eaa2e8a	0.3323863
8	0x3f0eb951	0.5575152
9	0x3de86b55	0.11348597
10	0xbf41a515	-0.7564252
11	0x3ef9fc22	0.48825175
12	0xbf535931	-0.8255797
13	0xbfa1efb3	-1.2651275
14	0xbf7ce887	-0.9879231
15	0x3f0cbfb0	0.5497999
16	0x3ec0fa87	0.37691137
17	0xbf6a882e	-0.91614044
18	0x3f667584	0.90023065
19	0xbf4bb8c7	-0.7957882
20	0x3f03a433	0.51422423
21	0x3ec0e0af	0.3767142
22	0xbea64f91	-0.3248258
23	0xbf304072	-0.68848336
24	0xbf3f9cd1	-0.7484866
25	0xbf2a9cfc	-0.6664579
26	0x3ec2c3b1	0.38039926
27	0x3f41aabe	0.75651157
28	0xc01d1a0d	-2.454715
29	0x3f3ef650	0.74594593
30	0x3eb7214f	0.357676
31	0xbf99c529	-1.2013294
32	0x3edc6f25	0.43053547
33	0xbfa18eb5	-1.2621676
34	0x3ed1c1f5	0.4096829
35	0x3f050938	0.5196719
36	0x3f29ff97	0.66405624
37	0x3f09a582	0.5376817
38	0x3eb99c1f	0.36251923
39	0x3f957485	1.1676184
40	0xbf7902a7	-0.9726967
41	0xbf69eee4	-0.91380143
42	0xbfb0c7ad	-1.3810936
43	0x3ea34740	0.31890297
44	0x3f94b283	1.1616977
45	0xbf6064b4	-0.8765366
46	0xbf7dadd6	-0.9909338
47	0xbfd3bf10	-1.6542683
48	0xbf2cba66	-0.6747192
49	0x3ecbe09e	0.39819807
50	0x3e975671	0.29558137
51	0x3f800f44	1.0004659
52	0x3cf889f9	0.030339228
53	0xbfa9d23e	-1.3267286
54	0xbf9cd9a4	-1.2253919
55	0xbf08e96b	-0.5348117
56	0x3ed6470a	0.41851074
57	0x3f3b49cb	0.73159474
58	0x3f574fe9	0.8410631
59	0x3f41b96f	0.75673574
60	0xbf14cb29	-0.581225
61	0xbf836740	-1.0265884
62	0xbf1718dd	-0.59022313
63	0x3eb915a9	0.36149338
64	0xbf31e560	-0.69490623
65	0x3f8737e0	1.0563927
66	0x3fa04970	1.2522411
67	0x3ed8934e	0.42299885
68	0x3f7305c0	0.9493065
69	0x3eb4b910	0.3529744
70	0xbf213322	-0.6296865
71	0xbf4c278f	-0.7974786
72	0xbefd2f5e	-0.494502
73	0x3f7fd12b	0.9992854
74	0x3ec019f7	0.3751981
75	0xbecb7fe2	-0.39746004
76	0x3f02f4d5	0.51154834
77	0x3f83d427	1.0299119
78	0xbffa930e	-1.9576128
79	0x3f001472	0.500312
80	0xbee788f7	-0.45221683
81	0xbf3fc55a	-0.7491051
82	0xbf758906	-0.95912206
83	0x3f6f5f34	0.93504643
84	0xbf463735	-0.7742799
85	0xbf04c8a5	-0.5186866
86	0xbf9792aa	-1.1841633
87	0x3eca3f22	0.39501292
88	0xbfc8b318	-1.5679655
89	0x3e1a9497	0.15095745
90	0x3d1b33df	0.037891265
91	0xbf2350f1	-0.6379538
92	0x3bdfe656	0.006832878
93	0xbf738741	-0.95128256
94	0x3ff0807e	1.8789213
95	0xbf48a554	-0.7837727
96	0x3ed4242d	0.4143385
97	0x3e8b7728	0.27239347
98	0x3ed01d68	0.40647435
99	0xc00a5007	-2.1611345
100	0x3eaae495	0.3337752
101	0x3eebafeb	0.46032652
102	0x3edd7ad1	0.43257764
103	0xbf96ff30	-1.1796627
104	0x3e91a8ee	0.28449196
105	0xbf39a3b7	-0.72515434
106	0x3f096494	0.53669095
107	0xbf7ace94	-0.97971463
108	0x3f0f3be7	0.5595078
109	0x3f7e94e8	0.9944596
110	0x3ea26a23	0.317216
111	0x3f59ff40	0.85155106
112	0x3d2b8de9	0.041883383
113	0x3ff2e811	1.8977071
114	0x3ea242af	0.316915
115	0xbf8dfd13	-1.1092857
116	0xbf996fea	-1.1987278
117	0x3e85d85a	0.26141626
118	0x3ead571b	0.3385552
119	0x3e4a02b4	0.19727594
120	0x3efe12ea	0.49623805
121	0x3e942ac5	0.2893888
122	0x3ebf268b	0.37334093
123	0x3f46d6a8	0.7767129
124	0xbfad3f13	-1.3534874
125	0xbfb3b8ed	-1.404081
126	0xbf3d9d19	-0.74067837
127	0xbf90b88d	-1.130632
128	0x3f2b6c4c	0.6696212
129	0x3d0f5662	0.03499449
130	0xbf99ed2d	-1.2025505
131	0x3ea3bc86	0.3197977
132	0xbf3ab2a7	-0.7292885
133	0xbfad3d42	-1.3534319
134	0x3f171b2a	0.59025824
135	0xbf40a39e	-0.7524966
136	0xbf863bd2	-1.0487006
137	0x3f5c0268	0.8594117
138	0xbef08dbf	-0.46983144
139	0x3ec62dde	0.3870687
140	0xbf5f5254	-0.87235
141	0xbf0fa3cf	-0.5610933
142	0x3fcc7072	1.5971816
143	0xbfcf6e9b	-1.6205629
144	0xc00f6280	-2.240387
145	0xbf81d819	-1.0144073
146	0xbf31e31e	-0.6948718
147	0xbf833186	-1.0249488
148	0xbf6b8310	-0.9199686
149	0x3f913ce0	1.1346703
150	0x3e4b9118	0.19879568
151	0xbf962f37	-1.1733159
152	0x3f5177f3	0.81823653
153	0xbeeae587	-0.4587824
154	0x3ed9c9aa	0.4253667
155	0x3e926596	0.2859313
156	0xbf54fa4f	-0.8319444
157	0xbfc8375e	-1.5641897
158	0xbf60f5f5	-0.878753
159	0xbf507281	-0.8142472
160	0xbf6496a3	-0.89292353
161	0x3e558505	0.20851524
162	0x3ec198bd	0.37811843
163	0x3ed4737a	0.41494352
164	0x3f097301	0.5369111
165	0x3e1ab330	0.15107417
166	0x3e608fb8	0.21929824
167	0xbf73a493	-0.95172995
168	0x3f8451c4	1.0337453
169	0x3efd8eb4	0.49522936
170	0x3e8d76b4	0.27629626
171	0xbfbaa108	-1.4580393
172	0xbd544e6c	-0.0518326
173	0xbf1e45ae	-0.6182507
174	0xbf3bbe3a	-0.7333714
175	0x3f0c77ea	0.54870474
176	0xbf4aa956	-0.79164636
177	0x3e7281f3	0.23682384
178	0xbfb5b0dc	-1.4194598
179	0xbf6241dd	-0.8838175
180	0x3e645814	0.22299224
181	0x3f8df476	1.1090229
182	0x3f77bb39	0.96770054
183	0xbbc56e19	-0.0060250876
184	0xbf0420e7	-0.51612705
185	0xbf0bd67f	-0.5462417
186	0x3e5c9f03	0.21545033
187	0x3f80bbf8	1.0057364
188	0xbeb58925	-0.35456195
189	0x3f9235c4	1.1422658
190	0x3f01df20	0.50731087
191	0x3a4400a2	0.0007476901
192	0xbfc45c7d	-1.5340725
193	0x3f03f5d7	0.51546997
194	0xbf531f80	-0.8246994
195	0x3f34cac8	0.7062192
196	0x3f6a34f8	0.91487074
197	0x3ebd569a	0.36980134
198	0x3f9f60e1	1.245144
199	0xbf4ab468	-0.7918153

l4.weight f4 [200, 28]
0	0xbe5d322e	-0.21601173
1	0xc01a867c	-2.4144583
2	0xbd8b388f	-0.06797897
3	0x3f10cb26	0.5655998
4	0xbe36a5e3	-0.17836718
5	0xbec5af7e	-0.38610452
6	0xbe8cf132	-0.27527767
7	0xbe4edb7a	-0.20200911
8	0xbdaf3bb0	-0.08556306
9	0xbe19ab70	-0.15006804
10	0xbe2ee58e	-0.17079756
11	0xbad02355	-0.001587967
12	0x3c470e3e	0.012149392
13	0xbbc3f527	-0.005980152
14	0x3e60c522	0.219502
15	0x3d90fbb2	0.07079257
16	0xbe8b4a73	-0.27205238
17	0xbe4e2277	-0.20130335
18	0x3e53bcc7	0.20677482
19	0xbd0af18a	-0.033921756
20	0xbcbeaff2	-0.023277257
21	0x3e144835	0.1448067
22	0x3dea438f	0.11438667
23	0xbe10ca84	-0.14139754
24	0xbded9ae9	-0.116018124
25	0xbe1f931c	-0.15583462
26	0x3d4d286c	0.050087377
27	0x3d96c89b	0.07362481
28	0x3ed198a2	0.40936762
29	0xbe58e409	-0.21180739
30	0xbc8a9844	-0.016918309
31	0xbf20aefa	-0.62766993
32	0xbe88eac5	-0.26741615
33	0x3d63a46b	0.055576723
34	0xbdf940e4	-0.1217058
35	0x3d2ded82	0.042462833
36	0x3c8e1899	0.017345713
37	0x3f1cfe48	0.613255
38	0xbc9c1e60	-0.019057453
39	0x3e58bffc	0.21166986
40	0x3d2bfb05	0.041987438
41	0x3deec8ec	0.116594166
42	0xbe7612e3	-0.24030642
43	0xbe80b162	-0.25135332
44	0xbe8934e8	-0.26798177
45	0xbe2b3558	-0.16719568
46	0xbd0038c9	-0.031304155
47	0xbdfa1a65	-0.122120656
48	0x3e922528	0.28543973
49	0x3e64dda0	0.22350168
50	0x3e4d6100	0.20056534
51	0xbe50edf9	-0.2040328
52	0x3cdb856c	0.026797019
53	0x3b5023d5	0.0031759639
54	0xbd126aad	-0.035746265
55	0x3d2673ba	0.04063771
56	0xbeba0ed1	-0.3633943
57	0xbebe740e	-0.37197918
58	0xbee142c4	-0.4399625
59	0xbdee7381	-0.11643124
60	0x3df35d58	0.11883038
61	0xbdaaf1ba	-0.08346887
62	0x3e3332ce	0.17499849
63	0xbd1684cb	-0.036747735
64	0xbcb60d6f	-0.022223203
65	0x3eceec49	0.40414646
66	0x3e727054	0.23675662
67	0x3e242f34	0.16033632
68	0x3de72379	0.11286063
69	0xbe20b14b	-0.15692632
70	0x3e871183	0.26380548
71	0x3dc0f543	0.0942178
72	0x3e677f8d	0.2260725
73	0x3e75d801	0.2400818
74	0x3dbcca30	0.09218252
75	0xbd37cd41	-0.04487348
76	0xbe0c04cc	-0.13673705
77	0x3e7bd2f0	0.24592185
78	0xbdc7a928	-0.09749061
79	0x3dea3af1	0.114370234
80	0xbe2accf4	-0.16679746
81	0x3d1b512f	0.03791922
82	0xbc4198b9	-0.011816197
83	0x3db12fe9	0.08651716
84	0x3e59753a	0.21236125
85	0xbf3437b9	-0.70397526
86	0xbd93f569	-0.07224543
87	0xbf2303ff	-0.6367797
88	0xbda1ad76	-0.07894413
89	0x3d05c454	0.032657936
90	0x3dd4b44a	0.1038595
91	0x3e0cb208	0.13739789
92	0xbd86fef0	-0.06591594
93	0xbda66f9c	-0.081267565
94	0x3cd53acc	0.026029013
95	0x3ee050be	0.438116
96	0x3e8959ff	0.26826474
97	0x3d819e9f	0.06329083
98	0xbdb521b4	-0.08844319
99	0xbeb1fd39	-0.34763506
100	0xbd2ed978	-0.042687863
101	0x3ee53641	0.44767955
102	0x3d87bc8d	0.0662776
103	0x3d494a1e	0.04914295
104	0x3ded85a9	0.11597759
105	0x3e05f34e	0.13081095
106	0xbd9946ad	-0.074841835
107	0xbac6a407	-0.0015155085
108	0xbbd2e980	-0.006436527
109	0x3d8c63d3	0.068549775
110	0xbdb33efa	-0.08752246
111	0x3df80e35	0.12112085
112	0x3e408d94	0.18804008
113	0xbf3905b9	-0.7227436
114	0xbe5a833d	-0.21339126
115	0x3f553d8c	0.8329704
116	0x3d9114ce	0.07084046
117	0x3dc9113f	0.098177426
118	0x3e472299	0.19446792
119	0x3d60d1cf	0.05488759
120	0xbd6d7a48	-0.057977945
121	0x3e9f70b6	0.3114068
122	0x3dc786fa	0.097425416
123	0x3d739ab4	0.05947371
124	0x3d1b21ad	0.037873913
125	0x3d3ee2ab	0.046602886
126	0x3eaaae56	0.33336133
127	0x3e9f4e22	0.31114298
128	0xbe2d989a	-0.16952744
129	0xbf1228cf	-0.5709352
130	0xbe9da3e0	-0.3078909
131	0x3dfbae17	0.122890644
132	0x3ef60c21	0.4805613
133	0x3e0fcee7	0.1404377
134	0xbe8e08e8	-0.2774117
135	0x3919333b	0.00014610302
136	0x3ce2a030	0.027664274
137	0x3b52785b	0.0032115194
138	0x3daf4fb3	0.08560123
139	0x3dcf5852	0.10124268
140	0xbd994f79	-0.07485861
141	0x3e98bd12	0.2983175
142	0xbf065392	-0.5247127
143	0xbd1a4082	-0.037659176
144	0x3d9215c3	0.07133057
145	0xbd4f1ed6	-0.050566517
146	0xbe3b12d1	-0.18268897
147	0x3cc29cad	0.02375635
148	0x3dbacd24	0.09121159
149	0x3e7e9435	0.24861224
150	0x3de8999c	0.11357424
151	0xbd56705b	-0.052353244
152	0xbd1491f1	-0.036271993
153	0x3d6c5bcc	0.05770473
154	0x3d9aac90	0.07552445
155	0xbe1603ea	-0.1464993
156	0xbe038836	-0.12844929
157	0xbdcb0e4f	-0.099148385
158	0x3e78771c	0.24264187
159	0xbdd3642d	-0.103218414
160	0x3e8b1080	0.27161026
161	0x3eae07d1	0.33990338
162	0xbe01360e	-0.12618276
163	0xbd04f21e	-0.032457463
164	0x3cd67443	0.026178485
165	0x3d5dc468	0.054142386
166	0xbd005fea	-0.03134147
167	0xbdb01802	-0.08598329
168	0xbe42cfaa	-0.1902453
169	0x3f29bd9e	0.6630496
170	0xbe85fefb	-0.26171097
171	0x3eb0f24e	0.34559864
172	0x3df6018a	0.12012012
173	0xbc6c0b18	-0.014406942
174	0x3e968196	0.2939574
175	0x3dddaed8	0.108243644
176	0x3db6faf6	0.08934586
177	0x3d52b12b	0.05143849
178	0xbe3c010e	-0.18359777
179	0x3db5b716	0.088728115
180	0x3d96fcc2	0.073724285
181	0x3d6f3e98	0.058409303
182	0xbe20808d	-0.15674038
183	0xbd50694e	-0.050881676
184	0xbdcd1bd2	-0.10015072
185	0xbe540333	-0.20704345
186	0x3d0175b7	0.031606402
187	0xbe1cdc42	-0.15318397
188	0x3e45dcfd	0.19322582
189	0x3e92f03e	0.28698915
190	0x3dd00f4b	0.10159167
191	0x3e25ff54	0.16210681
192	0x3d3e3f1d	0.04644691
193	0x3e0e10bd	0.13873573
194	0xbd8170f5	-0.06320373
195	0x3dc10e2b	0.094265305
196	0xbed6a75f	-0.4192457
197	0x3f65bdaf	0.8974256
198	0x3ec17776	0.37786454
199	0xbf0087e5	-0.5020736
200	0xbea437db	-0.32073864
201	0x3d9a58e7	0.07536488
202	0xbe9c54c3	-0.30533418
203	0x3c3307b3	0.010927129
204	0x3e5ea8e8	0.2174412
205	0x3d8edb80	0.0697546
206	0x3c7a8319	0.015290045
207	0x3d28f0e1	0.041245345
208	0x3ad976f5	0.0016591238
209	0xbdd687fa	-0.10475154
210	0xbe033d34	-0.12816316
211	0xbeee6a1c	-0.4656533
212	0xbce9afd1	-0.028526219
213	0x3da302cf	0.0795952
214	0x3d4f201b	0.050567728
215	0x3e8cdfdb	0.27514538
216	0xbcb0fe87	-0.021605743
217	0x3d805391	0.06265939
218	0x3da29008	0.07937628
219	0xbbad0ab4	-0.005280817
220	0x3d7cf1df	0.061754104
221	0xbccc6352	-0.024949703
222	0xbc24e0a1	-0.010063321
223	0xbc6708a1	-0.014101178
224	0xbeba0503	-0.3633195
225	0xbf36d0f5	-0.71412593
226	0x3ed0ed9f	0.4080629
227	0x3f0fe9e3	0.5621626
228	0x3d0fbd08	0.035092384
229	0xbe5e70bb	-0.21722691
230	0xbd9151a0	-0.07095647
231	0xbdce25ba	-0.100657895
232	0x3d6ce70b	0.057837527
233	0xbe995a24	-0.29951584
234	0x3d91c37d	0.071173646
235	0xbe1d5dde	-0.15367839
236	0x3cf12a13	0.029439008
237	0xbda5644e	-0.08075772
238	0x3e40ad19	0.18816032
239	0xbd5452b5	-0.051836688
240	0xbd7b978e	-0.06142383
241	0xbde6e8cc	-0.11274871
242	0xbe54dd55	-0.20787556
243	0x3d5ab33a	0.05339358
244	0x3dea957c	0.11454293
245	0x3f01cfee	0.507079
246	0x3dbcb674	0.09214488
247	0x3e042c9b	0.1290764
248	0xbcff343d	-0.031152839
249	0x3d43d602	0.047811516
250	0x3c5ecb99	0.013598346
251	0xbc234a33	-0.009966421
252	0xbf0983d8	-0.537168
253	0xbe837981	-0.25678638
254	0x3e45b7a8	0.1930834
255	0xbf741a0b	-0.9535224

l4.bias f4 [200]
0	0x3e03ad1f	0.12859009
1	0xbe597cb3	-0.21238975
2	0xbc422f22	-0.011852058
3	0x3e141dd2	0.144645
4	0x3e44a2c1	0.1920271
5	0xbddbf247	-0.1073957
6	0x3d508184	0.050904766
7	0xbdfe3780	-0.124129295
8	0xbdd1a962	-0.10237385
9	0xbe71b61a	-0.23604622
10	0xbdb7981c	-0.089645594
11	0xbe9cfeeb	-0.30663237
12	0x3e3cd504	0.18440634
13	0xbdc91226	-0.09817915
14	0xbdd8d393	-0.105872296
15	0x3dacb5c3	0.08433106
16	0x3e009e79	0.12560453
17	0xbdc5ce44	-0.09658483
18	0x3dcae6f6	0.099073336
19	0x3cdd62d3	0.027024662
20	0x3ea751c2	0.32679564
21	0x3dca5629	0.09879715
22	0x3e11063b	0.14162533
23	0xbc7ef23f	-0.015560686
24	0x3ea277f2	0.31732136
25	0xbe096620	-0.13417864
26	0xbc259ef8	-0.010108702
27	0xbe076bfd	-0.13224788
28	0x3e4af5e6	0.19820365
29	0xbe06f4f8	-0.13179386
30	0x3d2c4638	0.042059153
31	0xbd963e76	-0.07336132
32	0x3e898e8d	0.2686657
33	0xbe437936	-0.19089207
34	0x3dcb8bf4	0.09938803
35	0x3d374ed9	0.04475293
36	0xbdbd4c46	-0.09243064
37	0xbe067b16	-0.13132891
38	0x3e5bd54d	0.21468087
39	0x3e7c6992	0.24649647
40	0x3ec90c9b	0.3926743
41	0xbe803950	-0.25043726
42	0xbe0c3caa	-0.13695017
43	0xbe78afba	-0.24285784
44	0x3d75c78f	0.060004767
45	0x3eccea7a	0.4002264
46	0xbe52bb8e	-0.20579359
47	0x3d479818	0.048729032
48	0x3d4cdf16	0.05001744
49	0x3e7d41f5	0.24732192
50	0xbd9a97be	-0.07548474
51	0x3dab43df	0.08362555
52	0xbdcf5e68	-0.101254284
53	0x3e737c25	0.23777826
54	0xbe24a9cf	-0.16080402
55	0x3e9cdd21	0.30637458
56	0x3e01cec3	0.1267653
57	0x3eb3e3f8	0.35134864
58	0x3d2cc06e	0.042175703
59	0xbdc80d05	-0.09768108
60	0x3e31a0ba	0.17346469
61	0x3d914ae5	0.07094363
62	0xbe31be55	-0.17357762
63	0xbe0bcbac	-0.13651913
64	0x3d14df57	0.036345806
65	0xbe8796c3	-0.2648221
66	0x3e848418	0.2588203
67	0xbcab9b34	-0.02094803
68	0xbe77d113	-0.24200849
69	0xbe8c4155	-0.27393594
70	0xbda1ee85	-0.07906822
71	0xbda5262b	-0.080639206
72	0x3e273220	0.16327715
73	0x3cb70ecb	0.022345921
74	0xbd811989	-0.063036986
75	0x3d596ccd	0.053082276
76	0x3e9c8365	0.30568996
77	0x3e65488c	0.22390956
78	0x3d39121d	0.04518329
79	0xbdcf8100	-0.10132027
80	0x3af2d8f3	0.0018527791
81	0xbde90c51	-0.11379302
82	0x3c0d48d0	0.008623317
83	0xbdaed20d	-0.08536158
84	0x3e654540	0.22389698
85	0xbe0f25a6	-0.13979205
86	0xbd9a93d5	-0.07547728
87	0x3dee570b	0.11637696
88	0x3dd28da4	0.10280922
89	0xbe9ddb6a	-0.30831462
90	0x3e3b4e15	0.18291505
91	0xbcb23834	-0.021755315
92	0x3e2005ea	0.15627256
93	0xbdafdc32	-0.08586921
94	0x3e3463bd	0.17616172
95	0xbe85ed3c	-0.26157558
96	0xbd0ed38a	-0.034869708
97	0xbdb6eebf	-0.08932256
98	0xbe961723	-0.29314527
99	0xbe734195	-0.23755486
100	0xbe09456e	-0.13405392
101	0x3c10f402	0.0088472385
102	0x3df8aa21	0.121418245
103	0xbd6e9c62	-0.058254607
104	0xbd0de0ec	-0.03463833
105	0x3e31c0dc	0.17358726
106	0xbd905de8	-0.07049161
107	0xbd5c5570	-0.053792417
108	0xbe45761c	-0.19283336
109	0x3dd98d11	0.106226094
110	0xbdc3be5c	-0.095577925
111	0x3c9c65c6	0.019091498
112	0x3e1f501b	0.15557902
113	0x3e4a453f	0.19752978
114	0x3e85c057	0.26123306
115	0xbdcedc84	-0.10100654
116	0xbe3e38e1	-0.18576385
117	0x3afb91ea	0.0019193266
118	0x3e2faefb	0.17156594
119	0xbdb247a7	-0.08705073
120	0xbd4ec1d8	-0.050477833
121	0xbda76c18	-0.08174914
122	0x3d51da1b	0.051233392
123	0xbd03a385	-0.032138366
124	0xbe09ad48	-0.13445008
125	0xbe016168	-0.12634814
126	0xbe098e03	-0.1343308
127	0x3e1085b3	0.14113502
128	0xbe7df1eb	-0.24799316
129	0x3eabe9eb	0.33576903
130	0x3e624f59	0.22100581
131	0xbce447b0	-0.027866215
132	0x3e7214f1	0.23640801
133	0xbe1aa09e	-0.15100333
134	0x3e082d77	0.13298593
135	0xbe81a1f8	-0.25318885
136	0x3c96dc28	0.018415526
137	0xbeaa4738	-0.3325746
138	0xbe4f1216	-0.20221743
139	0x3ec1a23a	0.37819082
140	0xbd897dc5	-0.06713442
141	0xbdfc4758	-0.12318295
142	0xbe99acbf	-0.30014607
143	0xbe038ccb	-0.12846677
144	0xbdad247f	-0.08454227
145	0xbd0bf48d	-0.03416877
146	0x3d20fa54	0.03930123
147	0xbe311baf	-0.17295717
148	0x3e8fed2f	0.28110644
149	0x3e0b395e	0.13596103
150	0x3ddea046	0.108704135
151	0xbe550988	-0.20804417
152	0x3da11626	0.078655526
153	0xbea02528	-0.31278348
154	0xbe8c8fc5	-0.27453437
155	0xbda4e838	-0.08052105
156	0x3cffdc8c	0.031233095
157	0x3d6b816b	0.05749647
158	0x3cb58ab1	0.02216086
159	0x3ed37c81	0.41305926
160	0x3dcb0d5c	0.099146575
161	0xbe6ce8e9	-0.23135723
162	0xbc0012c5	-0.007816975
163	0xbe351f1c	-0.17687649
164	0xbd390680	-0.045172215
165	0x3cab3648	0.020899907
166	0x3ed3a518	0.41336894
167	0xbe1accc1	-0.1511717
168	0xbd728b6d	-0.059214998
169	0xbe27792f	-0.16354822
170	0x3e44c172	0.19214419
171	0x3dab7706	0.08372311
172	0xbd1fd7a0	-0.039023995
173	0xbd99f892	-0.07518114
174	0x3dab263b	0.08356901
175	0x3c8c6631	0.017138572
176	0x3b2cf474	0.0026390823
177	0x3c0c5771	0.0085657695
178	0xbdd7bf0b	-0.105344854
179	0x3d998287	0.07495599
180	0x3ead7aa9	0.33882645
181	0xbdc3e40a	-0.095649794
182	0x3e826d0c	0.2547382
183	0x3e3cc2ab	0.18433635
184	0x3d1764bf	0.036961313
185	0x3dcff87b	0.10154816
186	0xbd975742	-0.0738969
187	0xbe2ef7d8	-0.17086732
188	0x3dfb648b	0.122750364
189	0xbdebe08e	-0.1151744
190	0x3e494660	0.19655752
191	0x3da6a7a5	0.081374444
192	0xbde0bf01	-0.10973931
193	0x3eb1b422	0.34707743
194	0xbe28c516	-0.16481432
195	0x3c2d38e2	0.010572644
196	0xbd5c9217	-0.05385026
197	0x3e9bbbc7	0.304167
198	0xbeaee320	-0.34157658
199	0xbe24a00b	-0.16076677

l5.weight f4 [200, 200]
0	0x3d95871f	0.07301163
1	0xbe5045d5	-0.20339139
2	0x3dda52d7	0.10660332
3	0xbd1c93a7	-0.03822675
4	0xbdfe6f25	-0.12423543
5	0x3e1f3756	0.15548453
6	0xbdaa305f	-0.08310007
7	0x3e878275	0.26466718
8	0x3cd4b3fa	0.025964726
9	0xbd4e6ee1	-0.05039871
10	0xbd6845fe	-0.056707375
11	0x3cf1324e	0.029442932
12	0x3cfb47fd	0.030673975
13	0xbdb1813e	-0.08667229
14	0x3d0f910c	0.035050437
15	0x3d8df1d7	0.06930893
16	0x3e1b5366	0.15168533
17	0xbf578166	-0.8418182
18	0x3d939f62	0.07208134
19	0x3b0d3787	0.002154799
20	0x3dcfe6ca	0.101514414
21	0xbd2f050d	-0.042729426
22	0xbc1bd23a	-0.009510571
23	0x3dbda620	0.092602015
24	0xbd85e61b	-0.0653803
25	0xbe6b148b	-0.22957055
26	0xbd1a907d	-0.03773545
27	0x3d8d9bb0	0.06914461
28	0xbcd008db	-0.025394848
29	0xbd33a4ea	-0.043858446
30	0x3dcf6409	0.10126502
31	0xbd318136	-0.043336116
32	0x3df3e68b	0.11909207
33	0xbe547edf	-0.20751522
34	0x3dbfdba4	0.09368065
35	0xbe138952	-0.14407852
36	0x3d5b4bd0	0.053539097
37	0x3e7108c6	0.23538503
38	0x3cc7f1ad	0.024407232
39	0x3d809c1f	0.06279778
40	0xbc1bdcc9	-0.0095130885
41	0xbd801fb7	-0.06256049
42	0x3d2141c8	0.039369375
43	0x3c1c5915	0.009542723
44	0x3e252f68	0.16131365
45	0xbd329687	-0.043600585
46	0xbdd62907	-0.10457044
47	0xbc654d10	-0.013995424
48	0xbd953055	-0.07284609
49	0xbd5c8ae3	-0.05384339
50	0x3db6eecc	0.08932266
51	0x3e0ae2e0	0.13563108
52	0xbf4777ce	-0.7791718
53	0xbd8d3f0b	-0.0689679
54	0x3b677758	0.0035318937
55	0xbda57cd3	-0.08080449
56	0xbd404375	-0.046939332
57	0x3e11e210	0.14246392
58	0xbef17f3a	-0.4716738
59	0xbd5684ea	-0.05237285
60	0x3db8a0e2	0.09015061
61	0xbdf760b1	-0.12078989
62	0x3dda2eb2	0.10653438
63	0x3de006bd	0.10938785
64	0xbe0675f6	-0.13130936
65	0x3c77396f	0.015089377
66	0x3e00edf2	0.12590769
67	0xbe4403f3	-0.19142132
68	0xbd9883bd	-0.07447002
69	0x3e09d50e	0.1346018
70	0xbca77171	-0.020439835
71	0xbce3f846	-0.027828347
72	0x3cb2b4de	0.02181476
73	0x3e70304a	0.23455921
74	0x3d74511d	0.05964767
75	0x3d6820da	0.056671955
76	0x3d79121d	0.06080829
77	0xbbfda333	-0.007740402
78	0xbcb26db0	-0.021780819
79	0x3cbcf845	0.023067603
80	0x3ce1492d	0.027500713
81	0xbd18118f	-0.03712612
82	0x3e116b90	0.14201188
83	0x3aaf9c2e	0.0013397986
84	0x3d0d247e	0.03445863
85	0xbdb3c8d3	-0.087785386
86	0xbba2dd60	-0.0049702376
87	0x3d05f41d	0.032703508
88	0xbd6ce633	-0.057836723
89	0x3da35f77	0.07977193
90	0x3c8df6ba	0.017329562
91	0xbfcf2013	-1.6181663
92	0xbd0afc1b	-0.033931833
93	0x3c417d3f	0.011809646
94	0x3e074436	0.13209614
95	0xbe2e681b	-0.170319
96	0xbec21408	-0.37905908
97	0x3d2befa4	0.041976586
98	0xbe90b9b4	-0.2826668
99	0x3d93bf71	0.07214249
100	0xbdc8a83f	-0.097977154
101	0xbd432b04	-0.047648445
102	0xbddef964	-0.10887411
103	0xbd106f78	-0.035262555
104	0xbd030c68	-0.031994253
105	0x3e0d01f1	0.13770272
106	0xbde82fc3	-0.11337235
107	0xbe9222b5	-0.28542104
108	0xbe3a0b24	-0.18168312
109	0xbd600f74	-0.054702237
110	0xbc0ed9ca	-0.008718917
111	0xbe05d200	-0.1306839
112	0x3c55da04	0.013052467
113	0x3e3fbbaa	0.18723932
114	0x3d90a36b	0.070624195
115	0xbe61a003	-0.22033696
116	0xbcaa2355	-0.0207688
117	0xbe9b7343	-0.30361375
118	0xbd0310c9	-0.03199843
119	0xbcd8c356	-0.026460331
120	0x3db10b92	0.08644785
121	0x3c24a375	0.010048737
122	0x3d0e3ac6	0.03472402
123	0x3bbe1362	0.0058006505
124	0x3c2a6979	0.010401123
125	0x3dfe38f6	0.12413208
126	0xbd94bc19	-0.07262439
127	0xbdc64aa4	-0.09682205
128	0x3db7a456	0.089668915
129	0x3ac7e361	0.0015250259
130	0x3d05daa8	0.03267923
131	0x3d0c11c2	0.034196623
132	0xbd74e953	-0.059792828
133	0x3e3e672c	0.18594044
134	0x3dd2c6f0	0.102918506
135	0xbe88d26f	-0.26723048
136	0xbd3bd5b5	-0.045858104
137	0x3d7b4596	0.06134566
138	0xbe5602e4	-0.2089954
139	0x3e0a31c3	0.13495545
140	0xbc13592d	-0.008993429
141	0x3e1abe1a	0.1511158
142	0xbde597d7	-0.11210602
143	0xbd29eb15	-0.041483957
144	0x3d2ffba0	0.042964578
145	0x3dbe9f6a	0.093077496
146	0xbd753b14	-0.059870794
147	0x3df17f0d	0.11791811
148	0xbdfbe78f	-0.12300026
149	0x3d725b10	0.059168875
150	0xbce00ac9	-0.027348893
151	0xbe797246	-0.24359998
152	0x3db5da4d	0.08879528
153	0xbde4ea1b	-0.111774646
154	0x3db429f8	0.087970674
155	0x3dee5965	0.116381444
156	0x3cb7c7e0	0.022434175
157	0x3ddfd583	0.10929396
158	0x3e1b28d1	0.15152289
159	0x3db28e90	0.08718598
160	0x3d626c03	0.05527879
161	0xbdb9d74c	-0.09074268
162	0x3e8b70ed	0.27234593
163	0x3d022a34	0.03177853
164	0x3dd27fe4	0.102782995
165	0xbc68bea3	-0.014205608
166	0x3d9139ed	0.070911266
167	0xbd124500	-0.035710335
168	0x3e127b20	0.14304781
169	0xbccc9c88	-0.024976984
170	0xbe00add8	-0.12566316
171	0x3c69bfe4	0.014266942
172	0x3cc83499	0.024439143
173	0xbe58aec8	-0.21160424
174	0xbd0824b1	-0.033238117
175	0xbf18bfc2	-0.596676
176	0x3d455e19	0.04818544
177	0xbdde6f26	-0.10861044
178	0x3cffee9f	0.031241713
179	0xbd670581	-0.056401733
180	0x3db41e52	0.08794846
181	0x3de1b0fe	0.11020087
182	0x3dd2cf9e	0.10293506
183	0x3d66042e	0.05615633
184	0xbc8032b2	-0.015649173
185	0x3bec0f5d	0.00720398
186	0x3b420f27	0.0029611082
187	0xbab2c061	-0.0013637656
188	0xbcaa1269	-0.020760732
189	0x3df59093	0.11990466
190	0xbcaae98f	-0.020863323
191	0x3d5702be	0.05249285
192	0xbb2cb7d1	-0.002635468
193	0xbd6f1e86	-0.05837872
194	0xbef44282	-0.4770699
195	0xbc5f452c	-0.013627332
196	0x3d8f8bef	0.07009112
197	0x3e37d36b	0.17951743
198	0x3cba6ea0	0.022757828
199	0xbe904558	-0.28177905
200	0x3dd05399	0.10172195
201	0xbe27ee97	-0.16399609
202	0xbc5ed086	-0.013599521
203	0x3ccb9818	0.024852797
204	0x3ebaa3d0	0.36453104
205	0x3dd88f2f	0.10574185
206	0x3dd620ca	0.10455473
207	0x3c0894d2	0.008336263
208	0x3d801913	0.062547825
209	0xbe200c59	-0.1562971
210	0xbd80ae8c	-0.06283292
211	0xbe5ae8f5	-0.21377929
212	0xbe6ca4bd	-0.23109718
213	0xbe643b8a	-0.22288337
214	0x3e6d5c7e	0.23179814
215	0xbd29d906	-0.041466735
216	0xbd83d931	-0.0643791
217	0x3e691683	0.22762494
218	0xbca9eab5	-0.0207418
219	0xbe091321	-0.13386203
220	0x3e2c31ee	0.16815922
221	0xbe0d9429	-0.1382605
222	0xbdfe7f4e	-0.12426625
223	0x3c5b5d06	0.013388878
224	0x3e2655c7	0.16243659
225	0x3e91a3c0	0.28445244
226	0x3e3cd9d4	0.1844247
227	0xbdfd2499	-0.12360496
228	0xbe6824fd	-0.2267036
229	0xbe51ac13	-0.20475797
230	0xbe52b5ed	-0.20577212
231	0x3d37e9c0	0.044900656
232	0xbe275dd2	-0.16344383
233	0x3dd0e56e	0.1020001
234	0x3e06ead9	0.13175525
235	0x3d82f4c8	0.063943446
236	0x3c179134	0.009250928
237	0x3f038798	0.51378775
238	0x3a919273	0.0011106267
239	0x3da428dd	0.080156066
240	0x3dd424c4	0.10358575
241	0x3e079bd4	0.13243037
242	0x3d2a4d73	0.041577768
243	0x3d36897a	0.0445647
244	0xbe621ec4	-0.22082049
245	0x3e48294b	0.19547002
246	0x3d53b0eb	0.051682394
247	0x3cee51be	0.029091712
248	0xbbee6020	-0.0072746426
249	0x3e8e7ab4	0.2782799
250	0xbc3e0b56	-0.011599382
251	0x3d0a7bb4	0.03380938
252	0xbde5dbf0	-0.112235904
253	0xbe35b15f	-0.17743443
254	0xbccfad71	-0.025351258
255	0xbe92c1c9	-0.2866347
