HardcoreVersion_eval/ppo_actor4600.pth (torch, 186564 bytes, 6 tensors)

l1.weight f4 [200, 24]
000000 38 f8 40 3d 8f 58 cf 3f a1 f2 36 3e 0f e2 90 3f
       0.04711172 1.6198901 0.17865993 1.1318988
000010 f3 a7 1a be 28 c6 5b 3e 36 4e 5f be 60 ee 8b 3e
       -0.1510313 0.2146231 -0.21807179 0.27330303
000020 36 e4 80 3e 71 98 12 bf 6c cc ce 3e 5d d3 a6 be
       0.2517411 -0.5726386 0.40390337 -0.32583132
000030 18 b3 09 3f 13 08 14 3e a8 26 27 be de 55 65 3e
       0.537889 0.14456205 -0.1632334 0.22396037
000040 ac 8f d4 3e 18 cd 0c bf e8 be cc be 17 ed 53 3f
       0.41515863 -0.5500045 -0.399894 0.82783645
000050 c3 a9 68 3e ec 64 9a be 2b f1 00 bd 29 31 82 3e
       0.22721009 -0.30155122 -0.031479996 0.2542813
000060 30 78 03 3f 5a f2 35 c0 d1 dd 3f bf 0c 92 da bf
       0.51355267 -2.842917 -0.7494784 -1.707582
000070 dc df a0 3e ce 6a bb be d4 fd 9a 3c 7c 52 8e be
       0.3142079 -0.36604923 0.018919863 -0.27797306
000080 45 46 09 be 95 c3 81 3e 92 00 07 be fa 53 ea 3e
       -0.13405712 0.2534453 -0.13183811 0.45767194
000090 e0 a9 b3 bc 15 89 9e 3d a6 2e 27 3f 65 97 09 bf
       -0.021931589 0.0774099 0.65305555 -0.53746635
0000a0 b3 15 a1 bf df 20 96 bf 14 d6 90 3e 98 d9 8a 3f
       -1.2584747 -1.1728781 0.2828833 1.0847654
0000b0 4b 8f a4 3e 54 04 09 bd 91 b4 7c 3e c5 5b 0f 3e
       0.32140574 -0.033451393 0.24678256 0.13999851
0000c0 51 b7 73 3d a8 eb 51 3f c5 a9 6e 3e 22 e1 a6 bf
       0.059500996 0.8200021 0.2330695 -1.3037455
0000d0 54 fa f4 be 8e f2 30 3f 8a 03 00 3e 0e b2 d3 3d
       -0.47847235 0.6912011 0.1250135 0.103366956
0000e0 dc 88 c4 3d b7 94 8c bd 81 06 42 3e e9 c4 a2 be
       0.09596416 -0.068643026 0.18947794 -0.31790856
0000f0 77 96 0b 3d 7d 4c ab be 50 02 ae be 2f 51 68 be
       0.03407904 -0.33456793 -0.3398614 -0.22687219
000100 ed 61 39 3d d0 16 cc 3e ea 78 4a 3f 57 3b 16 be
       0.045259405 0.39861155 0.7909075 -0.14671074
000110 49 b9 e8 be 71 10 12 bf c6 8c c6 3e 09 3b 90 3e
       -0.4545386 -0.5705634 0.38779277 0.2817004
000120 85 a4 83 be 67 63 b9 3f b4 e1 65 3d e7 27 f2 bf
       -0.25711456 1.448346 0.05612345 -1.8918427
000130 f5 92 84 be 7b e6 93 3e ce 48 ad 3e be a1 9a 3e
       -0.2589337 0.2888678 0.33844608 0.30201524
000140 09 c5 77 be 56 6b 50 be a5 2c c1 3d 49 d9 25 bf
       -0.24196257 -0.20353445 0.094323434 -0.64784676
000150 c1 2d c6 bc e7 5e f6 bd 0d 14 e6 bd 70 4a e8 be
       -0.024191739 -0.1202982 -0.11234293 -0.4536929
000160 79 54 a1 be 41 f4 dd 3e 2b c2 1c 3f 88 d0 e2 3c
       -0.3150976 0.43350413 0.61233777 0.027687326
000170 fc 0f 7f 3d 92 50 c0 3e 10 9a 38 bf 8c 4d 3d be
       0.062271103 0.3756147 -0.7211008 -0.18486613
000180 71 23 0e be 4f 98 14 40 c7 72 9c 3e a0 11 65 bf
       -0.13880707 2.3217962 0.30556318 -0.8948002
000190 f7 cd 49 be ee 21 52 3c 22 0b 8f 3c cf f6 3e 3c
       -0.19707476 0.012825472 0.017461363 0.011655523
0001a0 52 d9 be 3c ec ae 9a be 57 c3 a3 bd 20 cd 96 be
       0.023296986 -0.3021158 -0.079962425 -0.29453373
0001b0 53 f2 dd be 2f 55 b6 be 04 31 c2 3e cd ba 01 3f
       -0.4334894 -0.35611865 0.3792802 0.5067566
0001c0 0a 94 f6 3e 93 2f da be fa 65 db be dd e3 af be
       0.4815982 -0.4261442 -0.4285124 -0.34353533
0001d0 bc d7 70 3e 5a e0 d8 be 8b 79 76 be 4a 01 b2 bd
       0.23519796 -0.42358667 -0.24069802 -0.08691652
0001e0 01 40 33 3e 19 71 c3 bf a8 22 f7 3c 7a 04 ab bf
       0.17504884 -1.526889 0.030167893 -1.3360741
0001f0 2e dc 97 be a2 e7 50 be b5 8b ba bc 00 d6 68 be
       -0.2966017 -0.20400861 -0.022771696 -0.22737885
000200 1d 41 79 3e 08 36 10 be 75 84 66 3e 3f a1 a4 3d
       0.24341245 -0.14083111 0.22511466 0.08038568
000210 ad 17 4a be bc 03 87 3e c8 d1 3e be f7 29 ac be
       -0.19735594 0.26370037 -0.18634713 -0.33625767
000220 60 50 2f bf 07 51 00 bf ef 01 7d 3e a7 a1 b4 3c
       -0.6848202 -0.5012364 0.24707769 0.022049738
000230 0c 34 9e 3d 45 91 a7 be 50 3e ec 3e 1a dd fd bd
       0.07724771 -0.3272802 0.4614129 -0.123956874
000240 3c ea b7 be c3 47 6f bf 60 69 21 3e 7a b2 54 3f
       -0.35920894 -0.93468875 0.15762854 0.83084834
000250 90 cf 75 3e 59 94 f6 be 69 e2 75 3e 70 d5 89 be
       0.2400496 -0.48160055 0.2401215 -0.26920652
000260 1e 74 4a be 15 42 d7 be 3a a3 91 3e e7 07 bc be
       -0.19770858 -0.42042604 0.28444844 -0.3672478
000270 32 07 a8 3e ee 3b 1d 3e 36 97 8c be 2d 36 bf be
       0.3281799 0.15354893 -0.27459115 -0.3734602
000280 ef 7c 5e 3d c5 97 1d be 5e bb c8 bd a1 b2 fb bd
       0.054318365 -0.15389927 -0.098013625 -0.1228993
000290 eb 1c 3c 3f 39 73 d3 3d 52 2e 32 bf 1a f2 bf 3e
       0.73481625 0.10324711 -0.6960193 0.37489396
0002a0 77 c8 e9 3e 1c 07 a2 3f d3 a5 77 bf b2 62 0c bf
       0.45660755 1.265842 -0.967374 -0.548381
0002b0 33 05 33 3f d6 bb 98 bd 2e 01 70 3e 02 0e 45 bd
       0.6992981 -0.07457702 0.2343795 -0.048109062
0002c0 ed 73 cb be aa a5 7c 3e cc 9d 16 3e 60 7e e7 be
       -0.39736882 0.24672571 0.14708632 -0.45213604
0002d0 90 40 1b 3e da 7c 77 3e fd 3e 93 3d 63 b8 fd bd
       0.15161347 0.24168721 0.071897484 -0.123886846
0002e0 3a ba 14 3d e1 0e 11 be ae 75 8a be ae 39 ae be
       0.036310412 -0.14165832 -0.27042907 -0.3402838
0002f0 86 05 04 bd 2a 59 6e 3c bd bc 48 3c b3 e6 1e 3c
       -0.03223183 0.014547626 0.01225203 0.009698558
000300 1c bb 03 3f f5 74 1f 40 16 be b1 3e 49 36 85 3f
       0.5145738 2.4915135 0.34715337 1.0407192
000310 26 6e 1f be aa 8a 9b 3d 94 5e 2c 3e 2e 2b 31 bd
       -0.15569362 0.075948074 0.16832954 -0.04325407
000320 03 20 d6 be 8d 57 84 be 7e a0 17 3f 31 1a 92 bd
       -0.41821298 -0.25848046 0.59229267 -0.07133902
000330 8a 22 8a be 7f a0 00 3e 99 a9 ae be 00 3c d0 be
       -0.26979476 0.12561224 -0.34113768 -0.40670776
000340 19 43 16 be 8d 0d a8 3e a7 b7 09 3f a3 26 f6 3e
       -0.14674033 0.32822838 0.53795856 0.48076352
000350 c2 0b 72 be 0c a0 c6 be a9 40 c7 bd 28 34 b0 3e
       -0.23637298 -0.3879398 -0.0972913 0.34414792
000360 a8 f8 36 3d 23 ea 95 bf 94 d2 5d ba 0c a7 b6 3d
       0.04467073 -1.1712078 -0.00084618595 0.089185804
000370 99 32 b3 be d4 b6 82 3e 74 f9 35 bf d1 ef 8a 3d
       -0.3499954 0.25530112 -0.7108376 0.067840226
000380 2d c2 83 3c 5d e1 17 3e b9 50 37 3f 77 63 b1 3e
       0.016083801 0.14832063 0.7160755 0.34646198
000390 ef 52 b6 bc 49 ee 50 bf 39 d8 b3 be 4f 1b 3e 3e
       -0.022256343 -0.81613594 -0.35125902 0.18565105
0003a0 37 52 48 3e 61 3c cc 3e 5f 8f 00 3f 36 97 c7 3e
       0.19562612 0.39889815 0.50218767 0.38982552
0003b0 49 9c 88 bd cc 35 9e be 70 01 b2 be 66 b8 c8 be
       -0.06670434 -0.3090042 -0.34766722 -0.39203185
0003c0 a2 97 ad 3e 0d 8c ae 3e e2 90 70 be bb 33 78 bf
       0.3390475 0.34091225 -0.23492768 -0.96953934
0003d0 f0 20 27 be 41 5b a3 be dd a8 4f be 7d f9 1d 3d
       -0.16321158 -0.3190556 -0.2027926 0.03856801
0003e0 6d 38 13 3d 6d ba 25 3f 77 81 48 bd 9c b8 83 3d
       0.035942484 0.6473759 -0.048951592 0.06431696
0003f0 74 1d 56 3e 15 33 55 bd 20 5a 4c bd ff 25 97 be
       0.20909673 -0.05205067 -0.049890637 -0.29521176

l1.bias f4 [200]
000000 52 c7 43 be 1d 9c 1c 3e 48 95 b3 bd 81 ae 69 3e
       -0.19119003 0.15293927 -0.087687075 0.22820474
000010 b9 8e db 3e 7e 97 a1 3e dd a7 94 3e e3 86 fc 3e
       0.42882326 0.31560892 0.2903432 0.4932166
000020 8c 16 69 bd e8 26 a8 3e cc 5b f0 be 99 ce 23 3f
       -0.056906268 0.32842183 -0.46945035 0.6398712
000030 49 d0 b9 be b6 65 05 3e db 04 5e 3e 3a 5c a7 be
       -0.3629172 0.13027081 0.2168154 -0.3268755
000040 b0 f1 01 3f 31 63 b0 be 0b 66 4f be e3 ac 47 3f
       0.5075941 -0.34450677 -0.2025377 0.7799818
000050 31 78 3d be be c6 d0 3e 7c 62 3b 3d 6b f4 64 3e
       -0.1850288 0.40776628 0.04574822 0.22358863
000060 00 7c 68 bd 36 fb 36 3e 74 15 7d bd df bd 12 bf
       -0.05675888 0.17869267 -0.061788037 -0.5732097
000070 8e c3 fd bd 08 fb 6f be 4a 36 7d 3e c2 40 d5 3e
       -0.12390815 -0.23435605 0.24727741 0.4165097
000080 49 e1 da bd 34 f7 18 be 7d 4a a5 3e c0 e9 b8 be
       -0.10687501 -0.1493805 0.32283393 -0.36115837
000090 f1 b0 35 3e 39 3d 47 3f d1 bf c2 3d 53 c0 5e be
       0.17743279 0.77827793 0.09509242 -0.21753053
0000a0 f5 b0 8e 3e de 17 83 bb ae 83 aa 3e 55 86 03 bf
       0.27869383 -0.004000648 0.3330359 -0.5137685
0000b0 63 2a aa 3d b5 83 ee 3d db 13 b6 bb a6 0a 5f 3e
       0.08308866 0.11646215 -0.005556566 0.21781406
0000c0 8a ba c2 bd 5c 9a da 3d 53 ce 37 bd d1 e8 4e 3e
       -0.09508236 0.10673973 -0.0448745 0.20206
0000d0 a4 26 da 3e 7f f2 d0 bd 42 23 45 3d 85 31 b8 3e
       0.42607605 -0.102025025 0.048129328 0.3597528
0000e0 8c 02 99 3e 0a e4 9f be 87 74 47 bd f2 4c 4f bd
       0.29884756 -0.31228667 -0.048695114 -0.05061049
0000f0 e5 87 b3 3c ab 70 7d 3e 59 3c 2d 3e 56 c3 76 be
       0.021915385 0.2475001 0.16917552 -0.24097952
000100 7c 54 86 3d 4e 02 4f 3e 6f 9a ca 3e 2c eb 6e be
       0.06559083 0.20215723 0.39570948 -0.23331898
000110 08 a2 68 be 76 a5 64 be 60 31 3f bc c4 84 25 3d
       -0.2271806 -0.22328743 -0.011669487 0.04040982
000120 f6 27 41 be 15 91 40 be 04 2d 17 be fb e7 d1 be
       -0.188629 -0.18805344 -0.14763266 -0.409973
000130 e7 fc 94 3e 2d 88 42 bd b3 8c 62 bd a4 73 c9 bd
       0.290992 -0.04749315 -0.055309962 -0.0983651
000140 77 01 1a 3e 93 37 e7 3c fa fa 09 3e f5 80 5e 3d
       0.15039621 0.028224742 0.13474646 0.0543222
000150 6b fa 26 bd e9 70 e7 be 3d 4a 73 bd 51 6c 34 3e
       -0.04076616 -0.4520333 -0.05939697 0.17619444
000160 10 af 6f be 4d 0c aa be 00 22 a4 be cc 02 6b 3e
       -0.23406625 -0.3321251 -0.3205719 0.22950286
000170 90 93 21 3e 89 c5 da 3a 66 bb ae 3e e0 21 48 be
       0.15778947 0.001669095 0.3412735 -0.19544172
000180 65 f8 0e 3d 60 42 12 3f 22 1b 0b 3e aa 95 9c 3e
       0.034904856 0.5713253 0.13584569 0.30582935
000190 6d 7e 0a be bb d4 0c be 50 37 4d be 9b 0d 41 bd
       -0.1352479 -0.13753025 -0.20040631 -0.047132116
0001a0 ad bc 93 3e e9 71 b6 be 1b 80 d2 3d dc 09 cd bd
       0.28854886 -0.35633782 0.102783404 -0.10011646
0001b0 f0 3d b9 be be a3 b5 be f7 de fb 3e e0 fb 40 3e
       -0.36180067 -0.35476488 0.49193546 0.18846083
0001c0 1b 85 16 3e 89 3c 7d be 20 2d a7 be 80 cc 32 be
       0.14699213 -0.24730124 -0.32651615 -0.17460823
0001d0 6d 26 00 be 34 79 71 be ba bb 3e 3e c3 48 42 bf
       -0.12514658 -0.23581392 0.186263 -0.75892276
0001e0 ad 05 34 be 09 3d 0c bd 60 21 1b bf 5b f7 04 3f
       -0.1758029 -0.034237895 -0.605978 0.51939934
0001f0 8f ae 8c 3d 8a df 6a bd cd c4 96 3e 91 21 a5 3e
       0.06869232 -0.05734209 0.29447022 0.32252172
000200 99 b3 b5 3e 65 27 6e be b6 d3 22 be 84 18 02 bf
       0.35488585 -0.23257215 -0.15901074 -0.5081866
000210 51 f6 ea be 31 2b 83 be 65 7f 28 be 84 3a a8 bc
       -0.4589105 -0.2561889 -0.16454847 -0.020535715
000220 fd e2 b0 3e af 8a 06 3e 4d 36 64 be 44 b6 3a bf
       0.34548178 0.13138841 -0.22286339 -0.72934365
000230 c3 ab c0 be 27 7a 8a 3e 55 e2 e1 3e ae b5 16 3f
       -0.37631044 0.2704632 0.4411799 0.5887097
000240 b2 f4 99 3e 79 78 48 3e 44 d2 ee 3d de 8e 07 3c
       0.300695 0.19577207 0.11661199 0.008273808
000250 08 23 75 3e 6b c7 4e 3d 50 0d 80 bd de d8 e9 3e
       0.23939145 0.05048315 -0.06252539 0.4567327
000260 83 97 1e 3e c6 30 03 3f 82 0d 61 bc e8 9f bb bd
       0.15487485 0.512463 -0.013736131 -0.09161359
000270 a4 e7 42 3a 3e 1f 95 3e 39 c2 1b 3e 32 bc 42 be
       0.000743503 0.29125398 0.15210809 -0.19017103
000280 be e1 66 3e 64 c0 4d be da 15 04 3d f4 10 ab 3e
       0.22547051 -0.20092922 0.0322474 0.33411372
000290 bd ab 84 3d e6 de 06 bf 6a 1b 3c 3e 0b 60 13 3f
       0.06478069 -0.52683866 0.18369833 0.57568425
0002a0 88 05 2a 3e 4c 1a 4d 3e 33 80 f9 be 33 70 1e 3f
       0.16603673 0.20029563 -0.4873062 0.6188995
0002b0 1c 74 5b 3e be f8 8f 3d 1b ec 3a bf cd 2e 01 3f
       0.21431011 0.07029866 -0.7301652 0.5046204
0002c0 61 0e 26 be b5 63 b5 be 58 01 4d be 74 74 02 be
       -0.16216423 -0.35427633 -0.20020044 -0.12739736
0002d0 78 9d 7a be c5 56 c7 3e 11 33 ad bd 39 f4 7d be
       -0.24474132 0.38933387 -0.08457006 -0.24800195
0002e0 34 26 3c be b1 91 99 3e 48 02 0d 3e 16 60 4d be
       -0.18373948 0.29993966 0.13770401 -0.20056185
0002f0 91 d1 2f 3e 58 78 23 be 3d d0 28 3d 44 d1 08 3d
       0.17169787 -0.15963876 0.041214217 0.033402696
000300 79 92 f5 3c 38 05 0d 3e 40 5a 57 be 71 05 4f 3d
       0.02997707 0.13771522 -0.21030521 0.0505423
000310 9b f7 40 bf c1 97 d7 3e cf 05 60 3e b8 dd 07 3b
       -0.75377816 0.42107967 0.21877216 0.002073152

l2.weight f4 [200, 200]
000000 59 45 5a bd 00 64 b0 3d 96 15 bd 3d 5c 14 a3 bb
       -0.05328879 0.086128235 0.09232633 -0.0049767923
000010 d1 81 89 be 9b 80 eb bc 51 d7 e5 be 67 97 6a be
       -0.26856855 -0.028747847 -0.44890836 -0.22909318
000020 29 72 c0 3e d5 59 92 bd bc cd 6c bd fa 3e ee be
       0.37587097 -0.0714604 -0.05781339 -0.46532422
000030 0b e3 39 3f ae 3b 43 3f 63 77 43 3e 19 54 12 3f
       0.72612065 0.7626294 0.19088511 0.5715957
000040 39 22 a0 bd 94 a0 46 3f 75 08 e5 3c 6e 84 0a 3e
       -0.078190275 0.7758877 0.027958134 0.1352708
000050 6c 84 9c be 7c b6 a4 3e d7 8d 02 bf 07 d8 3f bd
       -0.3056978 0.32170475 -0.5099768 -0.04683688
000060 f7 ad 2a 3f 8a 18 ad bd bb cf b3 3e f1 53 0a 3e
       0.666717 -0.08451946 0.35119423 0.13508584
000070 0d b4 55 3e 6e 6b a6 3e 2c 71 29 bd 65 b9 07 3f
       0.20869465 0.32503837 -0.041367695 0.53017265
000080 db bd 46 bf 61 85 87 be c8 e8 65 3d ef 7d 83 3d
       -0.77633446 -0.26468948 0.0561302 0.06420504
000090 9f 00 54 be 43 2e af bd 28 fd 86 be 74 3d a2 bc
       -0.20703362 -0.085537456 -0.26365018 -0.019804694
0000a0 88 f0 30 3e a9 e6 37 3e a4 4e 91 be f0 2b 19 3f
       0.17279255 0.17959084 -0.2838031 0.5983267
0000b0 e9 1e c9 be 52 0b 72 bc 8c 78 ad 3d 46 27 8a be
       -0.39281395 -0.014773207 0.08470258 -0.26983088
0000c0 71 ed e6 3e a9 98 56 be c3 f6 64 be 9f f6 b8 be
       0.45103028 -0.20956673 -0.22359757 -0.36125657
0000d0 11 e6 c9 be 18 8a 1a 3e c0 ac fb be ba a8 f6 be
       -0.3943334 0.15091741 -0.49155235 -0.48175603
0000e0 a6 24 9b be 9c 67 84 be 6b 55 be bd 6b 36 ed bd
       -0.30301398 -0.25860298 -0.09293636 -0.11582645
0000f0 aa 50 8c 3b 3d 93 5e 3d 46 b9 cf bd a8 0d 6f 3e
       0.004282077 0.054339636 -0.1014276 0.23345053
000100 b1 8a 94 be b9 6d 05 be 41 0e f7 3d 48 58 3b bf
       -0.29012063 -0.13030137 0.120632656 -0.7318158
000110 05 70 4b 3d 9a fe 89 3e ef b0 c7 3e 47 6c 27 3e
       0.049667377 0.26952058 0.39002177 0.16349898
000120 63 46 e7 3e ad 38 e8 3d 51 e7 7d 3e 1e 96 1e be
       0.45170888 0.11338935 0.24795271 -0.15486953
000130 29 9a 26 be e0 4f 20 3f 96 72 21 3f 4b ca 28 3e
       -0.16269745 0.6262188 0.6306547 0.16483419
000140 e7 27 10 3d 13 47 6c 3d 48 d1 06 be 29 30 4c be
       0.035194304 0.05768497 -0.13165772 -0.19940247
000150 81 7e 92 3e 99 cc ef bd 2a 49 af be 98 d6 87 3e
       0.2861214 -0.11708946 -0.34235507 0.2653091
000160 90 65 00 be 52 29 cf be 62 ff 14 be bc c0 ba bd
       -0.12538743 -0.40461212 -0.14550546 -0.091187924
000170 b0 71 81 be b9 e0 3e 3e 94 92 2c 3d a9 7d 5e be
       -0.2528205 0.18640412 0.042131975 -0.21727623
000180 ce b9 08 be de c9 16 be fe e7 8c 3e 3d 9f 92 bc
       -0.13352129 -0.14725444 0.27520746 -0.017898196
000190 64 7c 21 3e 66 93 db 3d 39 93 a4 be d7 87 13 3f
       0.15770108 0.107214734 -0.32143572 0.5762915
0001a0 32 75 05 3f e8 5c fd bd 27 2c b9 be 76 f6 78 3d
       0.5213195 -0.12371236 -0.36166498 0.06078192
0001b0 a7 74 9a 3a ad 9e 7e 3d 9c a0 3a be 29 0a a1 3e
       0.0011784033 0.062163044 -0.1822533 0.31453064
0001c0 c7 e7 d8 be 29 b7 4e be 29 03 74 bf 78 48 27 3e
       -0.42364332 -0.20187058 -0.9531732 0.16336238
0001d0 b1 e2 6e 3e 95 8c a6 3d 24 da aa 3c bc 14 e9 bb
       0.23328663 0.08132283 0.02085597 -0.0071130674
0001e0 f8 60 72 be a5 82 1f 3e 5e ab 9f 3d 13 47 7b 3e
       -0.23669803 0.1557718 0.077963576 0.24538831
0001f0 02 5e 4f bc 30 0f 38 bd 46 d5 d8 be e6 50 eb 3d
       -0.012656691 -0.04493636 -0.42350215 0.114900395
000200 46 9b c4 3c 12 90 b0 3d 0e bf 6c 3e 0d fb b7 be
       0.023999821 0.08621229 0.23119757 -0.35933724
000210 d8 f8 c4 3d 4f 5b 81 3e 72 5f 37 3e 79 9a 4b 3e
       0.09617776 0.25264975 0.17907503 0.19883145
000220 af 13 dd bc 6a 7d 3a 3e 61 5a 12 be 3b 21 76 bd
       -0.026986925 0.18211904 -0.1429229 -0.060090285
000230 bf 74 c5 be 22 67 26 bf 23 29 d5 bd d6 60 a6 bd
       -0.38565633 -0.6500112 -0.10408237 -0.08123939
000240 bd 2e 89 bd ef 0b 61 bd b7 87 91 3e b2 a8 18 3f
       -0.06698368 -0.05494302 0.28423855 0.5963241
000250 f2 f6 62 bd c0 09 d0 3d a1 70 69 3e 20 42 6f bf
       -0.055411287 0.1015811 0.22796871 -0.93460274
000260 56 e1 3e bd 2a 2a 26 3d 17 54 f3 bc 3d 20 da be
       -0.046601616 0.040567555 -0.029703183 -0.4260272
000270 2c 2d 56 be 3c 3a aa 3e d2 65 5e 3e 01 35 7d 3c
       -0.20915669 0.33247554 0.21718529 0.015454532
000280 3d 24 b8 3d 3b 5e 1c be 9c ed 8f 3e 27 26 ff 3d
       0.08991287 -0.15270321 0.2811097 0.12458449
000290 4f 43 69 be 29 bc 1e bf 3e 7c d8 bc c2 2b 94 be
       -0.22779582 -0.6200586 -0.02642643 -0.28939635
0002a0 e5 3b 8c 3e 5e ae e1 3d df 0d 44 bc 31 00 10 3f
       0.27389446 0.11019586 -0.011966198 0.5625029
0002b0 e8 75 38 3d a9 dd 2c 3d fc 0a 05 bf 30 22 80 be
       0.04503432 0.04220358 -0.51969886 -0.25026083
0002c0 7f ab 5a 3d 59 52 03 be ef 6c 9f 3d 22 2f 7d 3e
       0.053386208 -0.12824382 0.07784449 0.24725011
0002d0 d9 b8 14 be 99 57 b5 3e 93 af cb 3e bc 7e 7e 3e
       -0.14523639 0.35418394 0.3978239 0.24853033
0002e0 48 3c 33 3e 59 61 52 3e 0f 94 da 3e 81 c4 19 3e
       0.17503464 0.20544948 0.42691085 0.15016367
0002f0 75 75 41 3d 00 be 94 3d d5 63 8d 3e 9d f7 8d bd
       0.047231156 0.07262802 0.27615228 -0.06931994
000300 dd 12 0f be a1 51 52 be 8c c0 03 be 5d 2f 8f bc
       -0.1397204 -0.20538951 -0.1286642 -0.01747864
000310 83 37 81 be be ad 17 3f 7e f5 11 3e 5a ae 87 3e
       -0.25237665 0.59249485 0.14253804 0.26500207
000320 73 86 c4 bd 73 3a b2 bd 3c 83 59 be 8b 04 3d 3e
       -0.09595957 -0.087025546 -0.21241468 0.18458764
000330 a0 11 3c 3e c0 fe cc be 83 cb d2 be b6 5a 6e 3d
       0.18366098 -0.4003811 -0.41170892 0.058191977
000340 0a c7 11 be e3 4f ed 3d 02 b5 ee 3e 70 9f ea 3d
       -0.14236084 0.11587503 0.46622473 0.114561915
000350 c8 bb 14 be cc 02 21 be 4c 4b 07 3e b9 95 1d be
       -0.14524758 -0.15723723 0.13212317 -0.15389146
000360 33 5b 78 3e 2d b8 01 3e ba a5 99 be cd d6 87 be
       0.2425354 0.12667914 -0.30009252 -0.26531067
000370 76 9e e5 3e c2 11 0c bd 65 16 2d 3e 0e 99 8f 3d
       0.4484746 -0.034196623 0.16903074 0.07011615
000380 26 48 12 be df 45 ea 3d 1c b6 47 3e a0 76 0e bd
       -0.14285335 0.11439108 0.19503063 -0.0347811
000390 ee 6f 00 3e fe b8 0f 3e c8 59 a4 bd 24 62 d9 be
       0.12542698 0.14035413 -0.08024937 -0.42457688
0003a0 3f 67 7e bd 42 dc 98 3e 5f 5e 27 be 34 6f 2b 3e
       -0.062110182 0.29855543 -0.16344593 0.1674164
0003b0 f7 70 90 3d d1 4e da be ed 29 bc 3e dd c3 de bd
       0.07052796 -0.42638257 0.36750737 -0.10877202
0003c0 4f 47 36 3e ee b4 b2 be fc e4 2e 3c 60 d8 89 3e
       0.1780064 -0.34903663 0.010674711 0.26922894
0003d0 8d 2f 8a be d6 e4 b5 bd 09 c4 0a be 9c 8d bf bb
       -0.26989403 -0.088815376 -0.13551344 -0.0058457386
0003e0 8d e9 8b bd d2 5e 15 3d 10 0e 92 3d d8 a5 4a 3e
       -0.06831656 0.03646738 0.071315885 0.19789827
0003f0 b9 b1 ef bd db 14 04 3d f2 5e 68 3c 7c 8e d9 bd
       -0.1170382 0.03224645 0.014182793 -0.1062288

l2.bias f4 [200]
000000 fe 3a 00 be eb c6 51 3d 6a 84 c6 be 79 e2 86 3d
       -0.12522504 0.051215094 -0.387729 0.06586165
000010 5f ee 72 bd e3 7c c3 3d 15 84 6a 3e a8 2f 42 3b
       -0.05930936 0.095453046 0.22901948 0.0029630456
000020 50 87 83 bd 56 07 12 3c 14 74 f9 3c 98 41 be be
       -0.06422293 0.008912882 0.030450858 -0.3715942
000030 d4 fa 27 3d df c0 7b be eb b8 24 3e 4a 23 11 bd
       0.041010693 -0.24585293 0.16086166 -0.035434045
000040 c5 85 a3 bd 78 0d 8b bd 95 ae 21 be f9 a6 ac 3d
       -0.07984499 -0.06789678 -0.15789254 0.08430285
000050 d6 60 55 3e b3 93 cc 3d 15 e2 b4 bd eb df b6 3d
       0.20837721 0.09989109 -0.08832184 0.08929428
000060 1e 44 9c 3d 29 cd f0 bc a7 53 b7 3c 01 4c 37 be
       0.0763018 -0.029394703 0.022378756 -0.17900087
000070 51 ca 6c 3e 53 17 88 3d c1 39 25 bb 73 a2 b1 3d
       0.23124053 0.06645074 -0.0025211426 0.08673563
000080 83 1d fd bc 97 6f 1a 3e 11 62 c0 3c a0 41 bc 3c
       -0.030897861 0.1508163 0.023484262 0.022980511
000090 2a 16 8c 3c 48 67 cf be 00 72 77 be 9b 9f 23 3e
       0.017100412 -0.40508485 -0.24164581 0.15978853
0000a0 14 8b 1d 3e 8a c0 84 3b f3 15 35 bd 1a b6 ba be
       0.15385085 0.0040512728 -0.044210386 -0.36467057
0000b0 97 4c ab 3a 48 c1 22 be a2 10 2e 3e 2b 50 c2 bd
       0.001306909 -0.15894043 0.16998532 -0.09487947
0000c0 9c d7 14 3e ae 0c 16 3e 45 2a 5c 3d e9 59 d9 bd
       0.14535373 0.14653274 0.05375125 -0.10612852
0000d0 ab 61 35 bd 4f 1d 35 3d 2d 4b 2d bd ce fc 8a bc
       -0.044282597 0.044217404 -0.04230802 -0.01696625
0000e0 b6 bb 0d be c7 b2 a7 bc 60 de c5 3e 0e 0c bd bd
       -0.13841137 -0.02047099 0.3864622 -0.09230815
0000f0 cc fa 57 3d 83 2d 7b 3e 68 d9 b1 bc f9 0a 3b 3e
       0.052729413 0.2452908 -0.021710113 0.18265904
000100 03 20 bd 3e 8e 16 cb bd a5 57 2a 3e 57 7e c3 bd
       0.36938486 -0.09916411 0.16634996 -0.09545582
000110 41 83 18 bd f0 e9 f6 bd de 49 16 3e 80 0d ba 3d
       -0.03723455 -0.12056339 0.14676616 0.09084606
000120 db f4 34 3d 13 0f d7 bb 6b e0 22 3d 20 ec c7 3c
       0.044178825 -0.0065630763 0.039764803 0.024404585
000130 b3 59 76 bc 79 58 0c 3e d1 76 34 3e 46 ac 17 3e
       -0.015036034 0.13705625 0.1762345 0.14811811
000140 1a c3 44 be 33 f3 d4 3d 6b 07 47 be 76 21 48 3e
       -0.1921505 0.10397949 -0.19436423 0.19544014
000150 bf 3a 6f be 17 e0 78 be 86 2b 0e bd 35 c3 4e be
       -0.23362254 -0.24304233 -0.034709476 -0.20191653
000160 54 10 dc 3e 68 bf f7 3c e3 89 59 3e 94 25 3e 3e
       0.42981207 0.030242637 0.21244006 0.18569022
000170 ec dd 0a be 6e 26 a1 bb 77 87 b8 3e e5 0d 24 be
       -0.13561219 -0.0049179113 0.3604085 -0.16020925
000180 8e 6a 12 3e af 31 4b be ff 05 f6 bc bc ed 1d bd
       0.1429846 -0.19843172 -0.030032156 -0.0385568
000190 95 6e 19 3e e2 05 96 3d af 36 0e 3d d8 94 be 3d
       0.1498359 0.07325341 0.03472012 0.093057334
0001a0 f5 55 8d 3e fb b1 bd bb 36 69 85 3d fc 20 ba 3d
       0.27604643 -0.005789039 0.06514208 0.090883225
0001b0 1f ce 5f bd b7 c2 4b bd 08 a6 78 be 93 41 8a 3d
       -0.05463993 -0.04974624 -0.24282086 0.067507885
0001c0 ef e8 c6 bd d1 25 b5 be b2 5a 95 3d cc c7 13 3d
       -0.09712397 -0.35380414 0.072926894 0.036079213
0001d0 3a 58 01 3d 64 34 31 3d fa 8b 7f bd 34 ab d8 3d
       0.03157828 0.043262854 -0.06238935 0.105795294
0001e0 c0 cd 51 bd e6 27 76 bd 53 9c 2f bd ac b1 17 3c
       -0.05122161 -0.060096644 -0.04287369 0.009258669
0001f0 e6 d0 21 3d a8 2d 28 3e 19 b8 93 3d 90 db 02 be
       0.03950586 0.16423666 0.07212848 -0.12779069
000200 ce d3 d1 3d 28 b2 a8 bd 67 ef ad 3c 5f 2c e6 bc
       0.10245477 -0.082371056 0.02123232 -0.02809733
000210 e0 5d 38 3d 65 4a 11 3e b3 e3 61 3e e4 b4 0a 3e
       0.0450114 0.14188536 0.22059517 0.13545567
000220 a3 ff b5 3d 04 c4 fc bd 24 8f eb 3d 72 97 a1 bc
       0.088866495 -0.123420745 0.11501911 -0.019725535
000230 e9 bd fa 3d 43 0f 9a 3e f3 ff f5 bc b1 de a1 bc
       0.12243254 0.3008977 -0.030029273 -0.019759508
000240 ea 4e c3 bb 7f c0 ad 3e 4c af 55 bb 0b 41 09 bc
       -0.005960335 0.33935925 -0.0032605706 -0.008377324
000250 53 3d 39 3e 65 c7 94 bd 0d 73 af bc 91 1b 17 bd
       0.180898 -0.07264594 -0.021417165 -0.036891524
000260 1e ca 81 be b4 59 d4 bb f5 a6 f2 3d 67 91 c0 bc
       -0.25349516 -0.00648042 0.11848251 -0.023506833
000270 1a af 05 bd 88 fa af 3e ec e8 61 bd 4e 88 49 3d
       -0.032637693 0.34370828 -0.055153772 0.049202256
000280 28 67 6d 3d db a6 b1 3d 73 01 8e 3e 8e 59 54 be
       0.057959706 0.08674403 0.2773548 -0.20737287
000290 5b ac 84 3e 28 a2 33 3d ae a3 16 bd 7e 40 de bc
       0.25912747 0.043855816 -0.03677719 -0.027130362
0002a0 14 dc ab 3c cb 15 0f bc 01 66 8c bc f0 df 47 be
       0.020978965 -0.008733223 -0.017138483 -0.19519019
0002b0 d4 a8 db be 04 95 cc 3d be 2a d5 bd fe bc 0e 3e
       -0.42902243 0.0998936 -0.10408543 0.13939282
0002c0 8e ba 3c be 7a b7 57 3d f3 27 31 be 42 de 24 bd
       -0.1843054 0.05266521 -0.17300396 -0.040251024
0002d0 8d 95 f7 3c bc 0e 51 bd a6 56 3d be 98 37 64 be
       0.030222679 -0.051039442 -0.18490085 -0.22286832
0002e0 98 52 7c 3c c5 ea 0a be 41 27 cd bd 33 71 d0 3c
       0.015400551 -0.1356612 -0.10017253 0.025444603
0002f0 e2 17 08 3e bc 2a 44 bd 0b ca 3b 3d 9d 08 95 3d
       0.1329036 -0.047892317 0.04584698 0.072770335
000300 15 98 e0 bd e7 62 8f bc e9 78 0f be d3 3f 3c be
       -0.10966507 -0.017503215 -0.14010967 -0.18383722
000310 be b0 47 be ed 77 1c be 80 9a 88 bd 53 76 c7 bc
       -0.19501016 -0.15280123 -0.066700935 -0.024348414

l3.weight f4 [4, 200]
000000 70 ff 17 3e 43 35 c1 3e ba cc a6 3e 6e 35 de 3e
       0.14843535 0.37735948 0.3257807 0.4340014
000010 1a 8f e5 bd 01 84 2f 3e 4d 9f b1 3e 41 1d 90 3a
       -0.11208935 0.17140199 0.3469185 0.0010995046
000020 6e 90 0f 3f 9e 1b d1 3d d3 c2 42 3e ee cc 39 3f
       0.5607976 0.10210346 0.19019632 0.7257832
000030 5c d7 54 3d 78 f5 af 3e fb f6 be 3e 81 f9 05 3f
       0.051963195 0.34366965 0.37297806 0.5233384
000040 21 1f 12 3f 30 fd 42 bf b2 7c d8 be e8 26 00 3f
       0.5707875 -0.76167583 -0.42282635 0.50059366
000050 64 fc 4f 3f 2a 6f 2b 3f 02 63 70 bd c4 73 c9 3e
       0.8124449 0.669665 -0.05868817 0.39346135
000060 c6 02 91 bd a0 8b 1e 3f 59 14 e9 bd 91 f4 ec bd
       -0.07080607 0.619318 -0.11380834 -0.11570085
000070 32 0b 80 bc e0 f6 09 bf d5 f8 3f bf ff 83 8d be
       -0.015630338 -0.53892326 -0.7498906 -0.27639768
000080 96 3c ed 3e b3 e8 b8 3e 01 b1 d9 bd 29 41 f6 3d
       0.46335286 0.36115035 -0.10629464 0.12024147
000090 2d 42 58 bd 5f 2b 7c be 89 30 5e be bd 68 a6 be
       -0.052797485 -0.2462592 -0.21698202 -0.32501784
0000a0 b1 f1 2c be 3a 62 f0 3e 67 2e 3f 3d 5d f5 5d be
       -0.16889073 0.4694994 0.046675112 -0.2167563
0000b0 d0 d4 50 bd fc 8b 92 3d 8a ee fa 3d 9e bb 88 3e
       -0.050984204 0.07155606 0.12252529 0.2670564
0000c0 27 61 80 3e ce 73 a5 be 90 1c a2 bd b0 71 c2 3e
       0.2507412 -0.32314914 -0.07915604 0.37977362
0000d0 79 13 ac be a6 3d f1 be 5b c0 ad 3d 16 19 15 bf
       -0.33608606 -0.47117347 0.084839545 -0.58241403
0000e0 f5 c2 f5 3e c7 e8 8a 3e b1 0d 0b 3f f5 78 58 be
       0.48000303 0.2713072 0.54317766 -0.21139891
0000f0 2a 80 6b 3f 10 73 db be 53 43 9f 3b fc d5 9a 3e
       0.9199244 -0.42861223 0.0048603206 0.30241382
000100 0b f8 ab be 24 7f 69 3e 50 40 f0 3e b2 26 f7 be
       -0.3358768 0.22802407 0.46924067 -0.4827171
000110 47 15 e8 3e 9b 71 6d be ef 8c 12 be c6 12 a1 3e
       0.45328733 -0.23187868 -0.14311574 0.31459635
000120 5f 47 dd 3e 6e 0c b8 be 7d 98 42 3d c5 ef 41 bf
       0.43218514 -0.35946983 0.047508705 -0.75756484
000130 4e c1 77 3d d0 5b 32 bd c2 7b 1e bf 1e df 17 bf
       0.060487084 -0.04354459 -0.6190759 -0.59324825
000140 f2 8e ab 3e e7 a7 d8 bc 79 73 11 bf c1 35 ab bd
       0.33507496 -0.02644725 -0.5681682 -0.08359862
000150 22 e7 cd 3d 79 15 09 3f 89 b8 f8 3d 21 3f 00 3f
       0.10053851 0.5354839 0.12144572 0.5009633
000160 06 7c 07 bf 3d 71 29 bd 3a 66 1d bf c8 8f a3 3e
       -0.5292362 -0.041367758 -0.6148411 0.31945634
000170 55 5f 44 bf 2d ec ca 3e b5 bf 5e 3e 8d 76 cf be
       -0.76707965 0.39633313 0.21752818 -0.40520135
000180 15 c9 d5 3d 1d 92 44 3e ae 57 5d be 88 ae 02 3f
       0.10438744 0.19196363 -0.21615478 0.51047564
000190 37 da 0c 3d d6 8d 25 3f 3f 8b e4 3e e5 10 08 3d
       0.034387793 0.6466955 0.44637486 0.033219237
0001a0 c6 1d 42 be 6c 4c 3e be cf 35 d0 3e 0a 0b b7 3e
       -0.1895667 -0.1858384 0.40666053 0.3575061
0001b0 60 aa f5 3e 47 5d 2a bf b8 57 a0 be 42 f9 25 be
       0.47981548 -0.6654858 -0.31316924 -0.16208366
0001c0 79 3d 33 3e 69 76 49 bf 5e 35 bb 3e 33 45 88 3e
       0.17503919 -0.78696305 0.36564153 0.26615295
0001d0 82 cc 08 bf 60 16 09 3f 3e a0 12 3e 3e 18 13 bf
       -0.53437054 0.53549767 0.1431894 -0.57458866
0001e0 5d 3e a2 3e 16 82 84 bf b1 7a fa 3c bd db 45 3f
       0.31688204 -1.0352199 0.030576082 0.7728842
0001f0 88 32 38 3f 16 cf c5 be 8c c6 60 3e 23 c6 38 be
       0.71952105 -0.38634557 0.2195074 -0.18044333
000200 75 8a ba bd c7 da 3b 3e f0 b7 b0 3d 2b ee 35 bf
       -0.0910844 0.18345176 0.08628833 -0.7106654
000210 aa cf 21 3f 01 f2 fb bd 40 11 c3 bd dd 93 c0 bd
       0.63207495 -0.12302018 -0.095247746 -0.09403203
000220 a0 d2 1c 3e a9 da 62 3e 76 fb d3 be e5 2a 5b be
       0.15314722 0.22153725 -0.41402787 -0.21403082
000230 5e 63 7a be e1 c1 36 3e 71 56 79 3e aa 15 98 3e
       -0.24451968 0.17847396 0.24349381 0.29704028
000240 03 73 8c be 0d 10 c9 3e 12 bf 3a bf 6b 17 92 bd
       -0.27431497 0.39270058 -0.729478 -0.07133373
000250 b7 73 95 3e 03 cf d0 be 4c 83 4c 3f 1d b2 c3 be
       0.29189846 -0.40782937 0.79887843 -0.38221827
000260 44 af a3 3e 68 ef 3a 3f 57 3b 8e be 07 d5 12 3e
       0.31969655 0.73021555 -0.27779648 0.14339076
000270 f0 8e a7 3e e3 09 0d 3f 62 b3 8d be 8c 47 0c 3f
       0.3272624 0.5509321 -0.2767592 0.5479667
000280 4e 8a 27 3f d8 ff 0a 3f 01 3b 65 3e 35 7b 36 3f
       0.6544541 0.54296637 0.2238579 0.7128175
000290 41 23 9f 3e 09 8a 74 bf c2 20 ae bd dd b0 44 3f
       0.31081584 -0.95523125 -0.08502342 0.7683237
0002a0 16 51 a7 bd a3 cb 38 be f4 71 fa bd 5b 4e 90 3d
       -0.08169763 -0.18046431 -0.12228766 0.07046195
0002b0 1c f8 b6 be ae 0a ed bd 93 a1 9c be ac 6d e5 3d
       -0.35736167 -0.115743026 -0.3059202 0.11202559
0002c0 f3 08 eb 3c 68 77 f3 be 1f d4 a3 be 58 fa 6c 3e
       0.02869079 -0.47552037 -0.31997773 0.23142374
0002d0 9a 4d 23 bf ed 1b 3a be 3f e8 cc bd bf 4c 16 bf
       -0.63790286 -0.18174715 -0.10005235 -0.58710855
0002e0 d9 3f 3a bd f3 01 34 3f e9 fc 40 be ad a6 04 3f
       -0.045471046 0.70315474 -0.18846478 0.5181683
0002f0 d6 ab 50 3e d9 18 8b 3e 01 83 9e be ac d9 f3 bd
       0.2037805 0.27167395 -0.30959323 -0.11906752
000300 25 a8 09 bf 5e 6d 2b 3e 80 91 e4 3c ad 05 16 3f
       -0.53772193 0.16740939 0.027901411 0.5860241
000310 e0 18 62 be d0 94 2a 3e 8b 26 c4 3e e5 1a dd bb
       -0.22079802 0.1665833 0.38310656 -0.006747591
000320 3c d0 64 3c a2 ad 88 3d 84 54 e9 be 90 5b db be
       0.013965663 0.06673743 -0.45572293 -0.42843294
000330 25 36 d6 be 02 65 8f 3d a9 6e ed be 69 16 0f be
       -0.41838184 0.070016876 -0.4637349 -0.13973393
000340 e2 c7 a3 be 35 42 0c 3f e1 26 3a 3f 61 bf 6b 3e
       -0.31988436 0.54788524 0.72715575 0.23022224
000350 7d 46 2b 3e 58 e0 2d 3f 90 4c 03 3f 9a 32 16 3f
       0.16726108 0.67920446 0.512887 0.5867096
000360 37 0b 74 3a b4 92 1f 3f d0 52 66 3e b2 bb a6 be
       0.00093095325 0.62333226 0.22492528 -0.32565075
000370 62 23 69 3b fc 23 95 be b3 59 9f 3e 4e c8 38 3f
       0.0035574068 -0.29129016 0.31123123 0.7218064
000380 26 26 2c 3f 3e c0 1b 3f 32 ea ff bd 45 9a df 3e
       0.6724571 0.60840213 -0.12495841 0.43672386
000390 dd f5 7c 3e ae 28 5c 3f b8 93 15 3e c3 c6 07 bf
       0.24703164 0.8599957 0.14607131 -0.5303766
0003a0 d6 ca 31 3f 64 03 89 be 9b 6d 2e be bb a9 f9 3e
       0.6945013 -0.267604 -0.17033999 0.48762307
0003b0 74 a2 df bc 32 ef 85 be 6a 87 ed 3e d3 a7 2b bf
       -0.027299143 -0.26159054 0.46392375 -0.67052954
0003c0 fa 77 a0 3e c9 36 18 bf a1 80 22 be d9 42 11 3f
       0.31341535 -0.59458596 -0.1586938 0.56742626
0003d0 0b ca 43 bf 16 0c 58 bb c5 e8 83 bd 6e e8 0a bf
       -0.7648017 -0.0032966188 -0.06440882 -0.5426091
0003e0 0c 47 37 3e 34 3f f3 be 2d df cf 3e 73 00 7d bb
       0.17898196 -0.47509158 0.40599957 -0.0038605004
0003f0 e7 a3 ee 3d b0 7c 70 3e 38 d3 d9 bd 85 9b 6f 3f
       0.11652356 0.23485065 -0.1063599 0.9359668

l3.bias f4 [4]
000000 c8 1b 12 3d f7 fd 89 bd fe 60 0e bd 9c 65 a9 bd
       0.035671026 -0.06737893 -0.034760468 -0.082713336
