HardcoreVersion_eval/ppo_actor1700.pth (torch, 186564 bytes, 6 tensors)

l1.weight f4 [200, 24]
0	0x3db96521	0.09052492
1	0x3faeae30	1.3646908
2	0x3e7c21d6	0.24622282
3	0x3f6c2252	0.9223987
4	0xbe44c5f1	-0.19216134
5	0x3e029ca1	0.12755062
6	0xbea632f6	-0.32460755
7	0x3e901766	0.28142852
8	0x3e976770	0.29571104
9	0xbed337de	-0.4125356
10	0x3eade965	0.33967128
11	0xbe0f572f	-0.13998102
12	0x3ea10e1b	0.31456074
13	0x3de60ccb	0.11232909
14	0x3d9edad4	0.07756582
15	0x3d4bdfaa	0.04977385
16	0x3d86e870	0.06587303
17	0xbdf3654c	-0.11884555
18	0xbe0ace2b	-0.1355521
19	0x3e571b75	0.21006568
20	0x3d71657e	0.05893468
21	0xbd124df5	-0.035718877
22	0xbdb8857a	-0.09009834
23	0x3e10b4c5	0.14131458
24	0x3dcf07d2	0.101089135
25	0xbff4e283	-1.9131626
26	0xbf3da633	-0.74081725
27	0xbf962555	-1.1730143
28	0x3e6ef787	0.23336612
29	0xbebef76d	-0.37298146
30	0x3e42f4cd	0.19038697
31	0xbec9b5ac	-0.39396417
32	0xbbb90baa	-0.0056471424
33	0x3e66fb55	0.22556813
34	0xbbed55c8	-0.007242892
35	0x3efec3c2	0.49758726
36	0x390f02fc	0.00013638654
37	0x3e453e0a	0.19261947
38	0x3e089af2	0.13340357
39	0xbef40ba8	-0.47665143
40	0xbf0e21d0	-0.55520344
41	0xbf14b363	-0.5808622
42	0x3d034e10	0.032056868
43	0x3ebc146c	0.3673433
44	0x3eae296e	0.34015983
45	0x3d4ba0c8	0.04971388
46	0x3e1cb132	0.1530197
47	0x3d693f0b	0.056944888
48	0xbe28320e	-0.16425344
49	0x3f30f5b2	0.691249
50	0x3d66ef02	0.05638028
51	0xbf0ba835	-0.5455354
52	0xbe7b2eff	-0.24529646
53	0x3ecb61fb	0.3972319
54	0xbdbc85a9	-0.09205181
55	0x3e3e869b	0.18606035
56	0x3d3107cf	0.043220337
57	0xbd62fd44	-0.055417314
58	0x3e8a70e2	0.27039248
59	0xbe6f5158	-0.23370874
60	0x3cb92fa2	0.02260572
61	0xbed932b1	-0.42421487
62	0xbe02607e	-0.12732121
63	0xbde21275	-0.11038677
64	0x3d5fc442	0.054630525
65	0x3e78866c	0.24270028
66	0x3eefeabd	0.4685878
67	0xbd42c17a	-0.047547795
68	0xbebf74a9	-0.37393692
69	0xbee5e5c7	-0.4490187
70	0x3e701614	0.23445922
71	0x3e14ccf5	0.1453131
72	0xbe12b715	-0.14327653
73	0x3efa4c8e	0.48886532
74	0x3d1be03d	0.038055647
75	0xbf917034	-1.1362367
76	0xbe98078a	-0.29693252
77	0x3daf625d	0.08563683
78	0x3dfa134c	0.12210712
79	0x3eb4ca9b	0.35310826
80	0xbe466f88	-0.19378483
81	0xbee70ac6	-0.45125407
82	0x3dca6a74	0.098835856
83	0xbef0b3b3	-0.470121
84	0xbc893d4a	-0.016752858
85	0xbe5fb053	-0.21844606
86	0xbd0a7bc5	-0.033809442
87	0xbe801a70	-0.2502017
88	0xbdf04b74	-0.117331415
89	0x3e8f39cd	0.27973786
90	0x3e9e334a	0.30898505
91	0x3d9ed6f9	0.077558465
92	0x3df28bfa	0.11843105
93	0xbdac7f20	-0.08422685
94	0xbe990ac1	-0.29891017
95	0xbe1c31fa	-0.1525344
96	0x3da51945	0.080614604
97	0x3fcdd55e	1.608074
98	0x3e7f1fa2	0.2491441
99	0xbf004cc1	-0.5011712
100	0xbecd5d02	-0.40110022
101	0xbcce5760	-0.025188148
102	0xbd8ee138	-0.06976551
103	0xbe0c54e4	-0.13704258
104	0xbb57c2a7	-0.0032922418
105	0xbe67919c	-0.2261414
106	0xbe271f65	-0.1632057
107	0xbe995473	-0.29947242
108	0xbf1280ab	-0.5722758
109	0xbeb54b7a	-0.35409147
110	0x3ec8921c	0.39173973
111	0x3ea5207f	0.32251355
112	0x3eac30b9	0.33630922
113	0xbe42d4e9	-0.19026531
114	0xbea421b4	-0.32056963
115	0xbe460d28	-0.19340956
116	0x3cfd8d6f	0.03095123
117	0xbea3bf6c	-0.3198198
118	0xbda07ba9	-0.07836086
119	0xbc7f5ccc	-0.015586089
120	0xbd39e2f7	-0.045382466
121	0xbf8f011f	-1.1172217
122	0x3dccc70c	0.09998903
123	0xbf7f7c6e	-0.9979924
124	0xbeb81f15	-0.35961214
125	0xbe8ee336	-0.27907723
126	0xbce61ca0	-0.028089821
127	0xbe7e4d3e	-0.24834153
128	0x3e8f4fee	0.2799067
129	0xbdfdc065	-0.12390212
130	0x3e543a30	0.20725322
131	0x3dd8a96a	0.10579188
132	0xbe7e18ee	-0.24814197
133	0x3e989916	0.29804295
134	0xbe7ad9a3	-0.24497084
135	0xbea92cfc	-0.33042133
136	0xbee28940	-0.44245338
137	0xbe914fc6	-0.28381175
138	0x3e3b27c0	0.18276882
139	0xbb93adae	-0.004506788
140	0x3d6a96f8	0.05727288
141	0xbe21744a	-0.15767017
142	0x3e79d909	0.24399199
143	0xbc008d6e	-0.007846219
144	0xbece57d3	-0.4030138
145	0xbed66b3f	-0.41878697
146	0x3e27f3c7	0.16401587
147	0x3f524ef2	0.8215171
148	0x3df41e49	0.11919839
149	0xbf02b16f	-0.5105199
150	0x3dcba45e	0.0994346
151	0xbe77cf14	-0.24200088
152	0xbe3d4b30	-0.18485713
153	0xbec74adc	-0.389243
154	0x3ec5c48d	0.3862652
155	0xbed4db43	-0.41573533
156	0x3ea4da8c	0.32197988
157	0x3e86952b	0.2628568
158	0xbc5cee87	-0.013484604
159	0xbe9136c9	-0.2836211
160	0xbd5ec61a	-0.054388143
161	0xbe3d1810	-0.1846621
162	0x3d2c4267	0.042055514
163	0xbda0c076	-0.07849209
164	0x3eab2cce	0.3343262
165	0x3d2b1dd5	0.041776497
166	0xbe8f3a37	-0.27974102
167	0x3e5ffd7a	0.21874037
168	0x3e4195a8	0.18904746
169	0x3faf2806	1.3684089
170	0xbf6c2dbd	-0.9225729
171	0xbf070db0	-0.5275526
172	0x3f15ce57	0.58517975
173	0xbe43b893	-0.19113378
174	0x3e47ecd4	0.19523937
175	0x3cdf0b67	0.027227117
176	0xbe933b98	-0.28756404
177	0x3e819de2	0.25315768
178	0x3e12258d	0.14272137
179	0xbefab25f	-0.4896421
180	0x3e0a2176	0.13489327
181	0x3e4a9d6a	0.19786611
182	0x3df43104	0.119234115
183	0xbe551b44	-0.20811182
184	0xbcd14abe	-0.025548335
185	0xbe29e764	-0.16592175
186	0xbe8971ed	-0.2684473
187	0xbe76169d	-0.24032064
188	0xbdece89f	-0.115678065
189	0xbd81b4f2	-0.06333341
190	0xbd8412c8	-0.06448895
191	0x3c0d2c0a	0.008616457
192	0x3e9be3cb	0.3044723
193	0x3fdc9997	1.7234372
194	0x3eb48ebe	0.35265154
195	0x3ec670e0	0.38757992
196	0xbdb36367	-0.08759194
197	0x3dad96e5	0.084760465
198	0x3db46914	0.088091046
199	0xbdd1b644	-0.102398425
200	0xbee7c18e	-0.45264858
201	0xbe4ee639	-0.2020501
202	0x3f0b557e	0.54427326
203	0x3dc03aa1	0.093861826
204	0xbda42aca	-0.08015974
205	0xbdb7ee4d	-0.08980999
206	0xbe821cc4	-0.2541257
207	0xbe807820	-0.25091648
208	0xbd6cecfc	-0.057843193
209	0x3e88d4a3	0.2672473
210	0x3eea8357	0.4580333
211	0x3eea143d	0.45718566
212	0xbe588be1	-0.2114711
213	0xbe9810c7	-0.297003
214	0xbc623b39	-0.013808065
215	0x3e6c0413	0.23048429
216	0xbeb1299b	-0.34602055
217	0xbf822e55	-1.017039
218	0x3e1c11e3	0.15241198
219	0x3e8b45d6	0.27201718
220	0xbd75d2e9	-0.060015593
221	0x3e7dd94b	0.24789922
222	0xbf4f83e2	-0.8106061
223	0x3d7f9bb6	0.062404357
224	0xbe43eaa3	-0.19132476
225	0x3e9bba45	0.3041555
226	0x3eed5b7a	0.46358854
227	0x3e76b4bd	0.24092384
228	0xbe9471e2	-0.28993136
229	0xbedf1101	-0.4356766
230	0xbe832551	-0.25614408
231	0x3e3b1fb7	0.18273817
232	0x3e6fa31b	0.23402064
233	0x3ee6ff7e	0.451168
234	0x3f1442e8	0.5791459
235	0x3ea7f2ed	0.32802525
236	0xbc902ab9	-0.017598497
237	0xbe9ac1f9	-0.30226114
238	0xbe8f842b	-0.28030524
239	0xbe82b655	-0.25529733
240	0x3e0919ee	0.13388798
241	0x3efc5f47	0.4929144
242	0xbe5755fe	-0.21028897
243	0xbf4ab30b	-0.7917945
244	0xbd706413	-0.05868919
245	0xbe687a3d	-0.2270288
246	0xbe08073d	-0.13284011
247	0x3dc4d3b1	0.096106894
248	0x3c8e0e81	0.0173409
249	0x3f0f8d42	0.5607492
250	0xbc14b547	-0.009076423
251	0xbe3b732b	-0.18305652
252	0x3de8a1da	0.11358996
253	0xbe09b387	-0.1344739
254	0xbde2ae16	-0.110683605
255	0xbe92c31a	-0.28664476

l1.bias f4 [200]
0	0xbdd128a1	-0.102128275
1	0x3dc5554b	0.09635409
2	0x3cd1a2e1	0.025590362
3	0x3ddca403	0.1077347
4	0x3e85ea8f	0.26155517
5	0x3e5b8a50	0.21439481
6	0x3e3b66a0	0.18300867
7	0x3e9c7cbf	0.30563924
8	0xbc33f1c6	-0.010982936
9	0x3e3cf055	0.18451054
10	0xbe6bc6ff	-0.2302513
11	0x3ebb1a62	0.36543566
12	0xbdffe8d4	-0.1249558
13	0x3dc9614e	0.098330125
14	0x3e8b9cd9	0.27268103
15	0xbdd12a4d	-0.10213146
16	0x3e675a33	0.22593002
17	0xbe4d6854	-0.2005933
18	0xbe497b12	-0.19675854
19	0x3ed2ef88	0.41198373
20	0xbe2f6c59	-0.17131175
21	0x3e8cb0cf	0.27478644
22	0x3e173328	0.14765608
23	0x3e937e61	0.28807357
24	0xbe0b456e	-0.13600704
25	0xbc54b787	-0.012983209
26	0xbe1bab70	-0.15202117
27	0xbeb04e4e	-0.34434742
28	0xbd4c4769	-0.04987279
29	0xbe3a0c3f	-0.18168734
30	0x3e5321fe	0.20618436
31	0x3e5a6c17	0.21330296
32	0xbd11f8c7	-0.035637643
33	0xbe01d349	-0.12678255
34	0x3e888b27	0.26668665
35	0xbe415247	-0.18879043
36	0x3e7fa1ae	0.2496402
37	0x3eccc85d	0.39996615
38	0x3b3bd8dd	0.0028663196
39	0xbe5f1851	-0.2178662
40	0x3e290bdf	0.16508435
41	0x3d48052b	0.048833054
42	0x3ea51dcd	0.322493
43	0xbe9ec927	-0.31012842
44	0x3d1ac2cc	0.03778343
45	0x3e48506a	0.19561926
46	0x3dc184fb	0.09449192
47	0x3d4f5967	0.05062237
48	0xbd823185	-0.06357101
49	0x3c8af479	0.016962277
50	0xbde59cf2	-0.112115756
51	0x3dc2e911	0.0951711
52	0x3e87072d	0.26372662
53	0x3cde0228	0.027100638
54	0x3dcaaf5b	0.09896728
55	0x3e4cba98	0.19993055
56	0x3dae67ea	0.08515914
57	0xbe4e363d	-0.20137878
58	0xbd76b4c1	-0.060230974
59	0x3d9d5b9c	0.07683489
60	0xbc828daa	-0.015936691
61	0x3e0e223b	0.13880245
62	0x3da76ed1	0.081754334
63	0xbbffb312	-0.0078033293
64	0x3ca62b61	0.020284357
65	0x3e1b7062	0.1517959
66	0x3e830b63	0.25594625
67	0xbd5bc2cc	-0.05365257
68	0xbe61b93f	-0.22043322
69	0xbc2e992c	-0.010656636
70	0x3e2d4490	0.16920686
71	0x3e2b8d27	0.16753064
72	0xbd97b0fb	-0.07406803
73	0xbe130cd9	-0.1436037
74	0xbe286d1a	-0.16447869
75	0xbe54855a	-0.20753995
76	0x3e3818d1	0.17978217
77	0x3df6b27d	0.12045763
78	0xbb25fafb	-0.0025326598
79	0xbdfe971a	-0.12431164
80	0x3dedb158	0.11606091
81	0xbcc1f890	-0.023678094
82	0x3dc4ea0e	0.09614955
83	0x3ba38e65	0.00499134
84	0xbe190c81	-0.14946176
85	0xbe949e5c	-0.2902707
86	0xbddbaa57	-0.10725849
87	0x3e8393a5	0.2569858
88	0x3d429242	0.047502764
89	0xbe8ff929	-0.28119782
90	0xbe08749e	-0.13325736
91	0x3e8e20d6	0.27759427
92	0x3df16821	0.11787439
93	0x3e2e2417	0.17005955
94	0x3d86937f	0.065711014
95	0xbe38bb09	-0.18040098
96	0x3de6bfe7	0.11267071
97	0x3eb13ea5	0.34618106
98	0x3db21bb9	0.08696694
99	0x3dba30bd	0.09091327
100	0xbe041839	-0.12899865
101	0xbdf0fadf	-0.117666
102	0xbe083a51	-0.13303496
103	0x3d880324	0.06641224
104	0x3e9084c8	0.28226304
105	0xbe9d90fc	-0.30774677
106	0x3e3731c4	0.17890078
107	0xbe498841	-0.19680883
108	0xbe48b026	-0.19598445
109	0xbe2b3a92	-0.16721562
110	0x3e8fb0d2	0.2806459
111	0x3e1277af	0.14303468
112	0x3e33a41a	0.17543069
113	0xbe0d2159	-0.13782252
114	0xbe85cc11	-0.26132253
115	0xbdeb1c37	-0.11479991
116	0xbdcc5199	-0.09976501
117	0xbe427183	-0.18988614
118	0x3e59fd05	0.21287926
119	0xbe05210d	-0.13000889
120	0xbce26eda	-0.027640749
121	0xbe42df4f	-0.19030498
122	0xbec0ed14	-0.37680876
123	0x3e8e578d	0.2780117
124	0xbba12803	-0.0049181
125	0xbd23b3fb	-0.039966565
126	0x3e831db0	0.25608587
127	0x3e3a6fa5	0.18206652
128	0x3e80d361	0.2516127
129	0xbe8b8225	-0.2724773
130	0xbd999e00	-0.07500839
131	0xbe876f13	-0.2645193
132	0xbe8ed345	-0.2789556
133	0xbda0f9f1	-0.078601725
134	0xbe785032	-0.24249342
135	0xbdfc5be4	-0.12322214
136	0x3e6b6e1e	0.22991225
137	0x3e37e15b	0.1795706
138	0xbe55fe2c	-0.2089774
139	0xbec09229	-0.3761151
140	0xbd17cf48	-0.037062913
141	0x3df2d8d8	0.11857766
142	0x3e2eb76f	0.17062162
143	0x3ecf4e9b	0.4048966
144	0x3e23012c	0.15918416
145	0x3e43f097	0.19134746
146	0x3e61605c	0.22009414
147	0xbd8c95fd	-0.068645455
148	0xbc06d4ff	-0.008229493
149	0xbe431577	-0.19051157
150	0x3dd2cb84	0.10292724
151	0x3e88d51f	0.26725098
152	0x3d93f962	0.072253
153	0x3eb00418	0.34378123
154	0xbdb6994c	-0.08915958
155	0xbc857b83	-0.016294247
156	0x3db53814	0.08848587
157	0x3e38f8cb	0.18063657
158	0x3db1845d	0.086678244
159	0xbe490e03	-0.19634251
160	0x3e3fd5e9	0.18733944
161	0xbd319789	-0.043357406
162	0x3e2e01eb	0.16992919
163	0x3e3fbbda	0.18724003
164	0x3d59ca38	0.053171366
165	0xbe9da689	-0.3079112
166	0x3c18ecb9	0.009333783
167	0x3ebadd3a	0.36496907
168	0xbd2a16d5	-0.04152568
169	0x3d9f0784	0.07765105
170	0xbe9d3ef5	-0.30712095
171	0x3ea5495c	0.3228253
172	0x3e5ce5b6	0.21572003
173	0xbe1ab2b4	-0.15107232
174	0xbefeecd4	-0.4979006
175	0x3eadefd8	0.3397205
176	0x3d7b04db	0.061283927
177	0xbe12fdea	-0.14354673
178	0xbe6c32d6	-0.23066267
179	0xbbf92086	-0.007602754
180	0xbe45205d	-0.19250627
181	0x3e65fbb2	0.22459295
182	0xbdf666ed	-0.1203135
183	0xbe8bb463	-0.27286062
184	0xbe37f7a4	-0.17965561
185	0x3e0c6766	0.13711318
186	0x3e226776	0.1585978
187	0xbe80d73c	-0.2516421
188	0x3e8a33a7	0.26992533
189	0xbe176002	-0.14782718
190	0xbc40f207	-0.011776454
191	0x3db3f36a	0.08786662
192	0x3dfd7b0b	0.12376984
193	0x3de61854	0.11235109
194	0x3cb4f4b2	0.022089336
195	0x3e66f9f8	0.22556293
196	0xbf06f2d7	-0.52714294
197	0x3ec180ee	0.37793678
198	0x3cd7ba8c	0.02633407
199	0xbc890887	-0.016727699

l2.weight f4 [200, 200]
0	0xba997332	-0.0011707305
1	0xbecbab53	-0.39779148
2	0xbd037272	-0.032091565
3	0x3dece549	0.1156717
4	0xbd6c3490	-0.057667315
5	0xbef184f1	-0.4717174
6	0x3d8709ff	0.065937035
7	0x3ea06e48	0.31334138
8	0x3e475f84	0.1947003
9	0xbdbc443b	-0.091927014
10	0xbe36f30d	-0.17866154
11	0xbe00c7ec	-0.12576264
12	0xbe8ac5b5	-0.27103963
13	0x3e97060b	0.29496798
14	0x3e8965c1	0.26835445
15	0x3de8babf	0.11363744
16	0x3f101b56	0.5629171
17	0x3f0970c5	0.536877
18	0x3d79644e	0.060886674
19	0x3d16189b	0.03664456
20	0xbd9ca880	-0.07649326
21	0x3e14114a	0.1445972
22	0xbe9e9070	-0.30969572
23	0x3e42ac9f	0.19011162
24	0x3ee27bad	0.44234982
25	0xbd2ed493	-0.042683195
26	0x3b9d6772	0.0048035914
27	0xbe0e4de6	-0.13896903
28	0xbe7653e3	-0.24055438
29	0x3e7509fc	0.2392959
30	0xbe309835	-0.17245562
31	0x3d710a8d	0.058847953
32	0xbf16065b	-0.5860345
33	0xbea2fd48	-0.31833863
34	0x3e148506	0.1450387
35	0x3d46bc54	0.048519447
36	0xbdacbc1f	-0.08434319
37	0x3daaf9f9	0.0834846
38	0xbddc19c4	-0.10747102
39	0xbe44b6e6	-0.19210395
40	0xbd59a312	-0.05313403
41	0x3e8730a3	0.26404294
42	0xbe864508	-0.26224542
43	0x3e8bf05e	0.27331823
44	0xbe042f16	-0.12908587
45	0xbe0e90e2	-0.13922456
46	0x3d2a1056	0.041519485
47	0xbdfb3863	-0.12266614
48	0x3e1b12c1	0.15143873
49	0x3e510efd	0.20415874
50	0xbd230d10	-0.03980738
51	0xbe5172ec	-0.20453995
52	0x3d2230fd	0.0395975
53	0xbe833419	-0.25625685
54	0xbe756cee	-0.23967335
55	0xbea47729	-0.32122162
56	0xbea09fba	-0.31371862
57	0xbd4f0044	-0.050537363
58	0xbcafe371	-0.021470757
59	0x3db4c3ba	0.088263944
60	0xbdc9e2a0	-0.098576784
61	0x3e5125cd	0.20424576
62	0xbe95839c	-0.29201972
63	0x3e6f0f57	0.23345695
64	0x3c0cec4b	0.0086012585
65	0x3e433f5b	0.19067137
66	0x3ea1b15b	0.31580624
67	0xbf30dbc4	-0.69085336
68	0xbd1e6608	-0.038671523
69	0xbdb459a6	-0.088061616
70	0x3dec1230	0.115269065
71	0xbd059c51	-0.032619778
72	0xb9fad329	-0.00047841042
73	0x3e3b4611	0.18288447
74	0x3dc5362c	0.09629473
75	0xbea71fba	-0.32641393
76	0xbc963d54	-0.01833979
77	0x3ea696b5	0.32536855
78	0x3e4f3f77	0.20239054
79	0xbc94dc9d	-0.018171603
80	0xbdbd03e6	-0.09229259
81	0x3ecd8283	0.40138635
82	0xbdf06ad9	-0.117391296
83	0xbd9d4aae	-0.0768026
84	0x3ea15ece	0.31517643
85	0x3dae0c39	0.08498425
86	0xbc34d179	-0.01103627
87	0x3e1963ef	0.14979528
88	0x3e7b66b7	0.24550901
89	0xbe66c336	-0.22535405
90	0x3c82f783	0.015987163
91	0xbd9e82ef	-0.07739817
92	0xbdbd7c42	-0.09252216
93	0x3f082e73	0.53195876
94	0xbd36aa78	-0.044596165
95	0xbdce9be4	-0.100883275
96	0xbd8a7802	-0.06761171
97	0xbe2a24b8	-0.1661557
98	0x3e8680dc	0.26270187
99	0x3b7935b7	0.0038026401
100	0x3e2fa4a0	0.17152643
101	0x3ef0add3	0.47007617
102	0x3cf6d903	0.030132776
103	0x3ef2cca2	0.47421747
104	0x3e942bad	0.28939572
105	0x3da827da	0.08210726
106	0xbe9ad642	-0.3024159
107	0x3d8fbc7c	0.070183724
108	0x3db5da0b	0.08879479
109	0x3dfbfaf7	0.12303727
110	0xbc113fad	-0.008865279
111	0x3d27d2fb	0.04097269
112	0xbe2024f7	-0.15639101
113	0xbe130cab	-0.14360301
114	0xbdcc74e8	-0.099832356
115	0xbd00ca06	-0.031442665
116	0x3e9057fd	0.2819213
117	0xbe45477f	-0.19265555
118	0x3e6cf35b	0.23139708
119	0x3d3a9561	0.045552615
120	0xbe49acbc	-0.19694799
121	0xbc5998c1	-0.013281048
122	0xbeedba47	-0.4643118
123	0x3d49fec2	0.04931522
124	0x3ef7ed0d	0.48423043
125	0xbbe515f0	-0.0069911405
126	0xbea5cd19	-0.3238304
127	0xbdc73f12	-0.097288266
128	0x3dc13f85	0.094359435
129	0x3e42ba76	0.19016442
130	0x3f0cae88	0.54953814
131	0x3d83e886	0.06440835
132	0x3efc080a	0.49224883
133	0x3e40d7b8	0.1883229
134	0x3d5a6017	0.053314295
135	0x3e40629e	0.1878762
136	0xbe838803	-0.25689706
137	0x3e54949c	0.20759815
138	0x3eb1edbc	0.3475169
139	0xbcabe911	-0.020985158
140	0xbeb8e9dc	-0.3611592
141	0xbf6c0d2c	-0.922076
142	0xbee81bc9	-0.45333698
143	0x3db00188	0.08594042
144	0xbda7d24a	-0.08194406
145	0x3f80807e	1.0039213
146	0x3e605568	0.2190758
147	0x3ebd22ac	0.36940515
148	0x3d37e068	0.044891745
149	0xbd0c24db	-0.034214836
150	0x3d319958	0.04335913
151	0xbd58beff	-0.052916523
152	0x3c6511a4	0.013981257
153	0x3eb6dab7	0.3571374
154	0xbdf637e7	-0.12022381
155	0xbe3bef1b	-0.1835293
156	0xbe8a6629	-0.27031067
157	0x3e133b6c	0.14378136
158	0x3ef6bfab	0.48193106
159	0xbd552061	-0.052032832
160	0x3dc7add1	0.0974995
161	0xbebbb644	-0.36662495
162	0x3e883f4b	0.2661079
163	0xbda74257	-0.0816695
164	0xbe2b4757	-0.16726433
165	0xbefab4e0	-0.48966122
166	0xbe713625	-0.23555811
167	0xbeb25cba	-0.3483637
168	0x3eb2d344	0.34926808
169	0x3d4e081d	0.050300706
170	0x3e68f0b5	0.22748072
171	0x3ea72268	0.32643437
172	0x3e0fe2aa	0.14051309
173	0xbdc11c75	-0.09429256
174	0x3e0a7931	0.13522793
175	0x3d3a3bc0	0.04546714
176	0xbe9fff70	-0.3124957
177	0xbe3aef92	-0.18255451
178	0x3e992948	0.29914308
179	0x3ea968ce	0.33087772
180	0xbdbf4bdd	-0.09340642
181	0xbe551520	-0.2080884
182	0xbda2a78b	-0.079421125
183	0x3e983f23	0.2973567
184	0xbe3d30e8	-0.18475688
185	0xbc7a3dbd	-0.015273509
186	0x3e9d4814	0.30719054
187	0x3e04bb94	0.1296218
188	0x3d6d1fd3	0.057891678
189	0x3e8a56b3	0.2701927
190	0x3e802d4b	0.25034556
191	0x3e8f8070	0.28027678
192	0xbddf7480	-0.109108925
193	0x3e1b6ba1	0.15177776
194	0x3dc3bc9c	0.09557459
195	0xbe4107fc	-0.18850702
196	0xbeb73d7c	-0.35789096
197	0x3e9e5d9a	0.30930787
198	0x3ce86e4f	0.028372912
199	0x3e8510d7	0.2598941
200	0xbe5be224	-0.21472985
201	0x3e42fbaa	0.19041315
202	0xbd47a2d3	-0.048739266
203	0xbe1d621c	-0.15369457
204	0xbdf20414	-0.11817184
205	0xbd838aeb	-0.06422981
206	0xbd8c46cb	-0.0684944
207	0x3d77e97a	0.060525395
208	0xbe110fe8	-0.14166224
209	0x3d7c8076	0.061645947
210	0x3eb06c1b	0.34457478
211	0x3dd62d70	0.10457885
212	0x3e15c2c6	0.14625081
213	0xbe1bba37	-0.15207754
214	0xbe8a32f0	-0.26991987
215	0xbd1a314c	-0.03764467
216	0x3e043242	0.12909797
217	0xbc72844b	-0.014802049
218	0xbdc8ce4e	-0.098049745
219	0xbe49fdce	-0.19725725
220	0x3ed92347	0.42409727
221	0xbdc50ec4	-0.09621957
222	0x3e0c89ca	0.13724437
223	0xbc1f57f9	-0.009725564
224	0xbd83c4bf	-0.06434011
225	0x3d838697	0.06422155
226	0x3d58e483	0.0529523
227	0xbd91c139	-0.071169324
228	0xbd31c324	-0.04339899
229	0xbd38b041	-0.045089964
230	0xbd44900f	-0.047988947
231	0xbe46e8ce	-0.19424745
232	0xbd0a0a31	-0.033701126
233	0x3acdd424	0.0015703482
234	0xbda965eb	-0.082713924
235	0x3e456e88	0.19280446
236	0x3dae6132	0.08514632
237	0xbe019f27	-0.12658368
238	0x3d897256	0.06711261
239	0xbdf7b0c9	-0.12094266
240	0xbdb284f4	-0.08716765
241	0xbe339c2c	-0.17540044
242	0xbda67643	-0.081280254
243	0x3c07492c	0.008257192
244	0xbe086327	-0.13319074
245	0xbe179745	-0.14803798
246	0x3e03839a	0.12843171
247	0x3e18f8a5	0.149386
248	0xbdd78fad	-0.10525451
249	0x3c857cae	0.016294803
250	0x3e701e27	0.23449002
251	0x3e66eac3	0.22550492
252	0x3dc0bc08	0.09410864
253	0x3dbbde91	0.091733105
254	0xbdbafdec	-0.09130463
255	0xbd66b297	-0.05632266

l2.bias f4 [200]
0	0xba4b39bd	-0.0007752439
1	0x3d1642c7	0.036684778
2	0xbe7df6eb	-0.24801223
3	0x3e044738	0.12917793
4	0x3afadb42	0.001913883
5	0x3db4a4e2	0.088205114
6	0x3e53779e	0.20651099
7	0x3d5c2fdb	0.053756576
8	0xbd9b7d4b	-0.07592257
9	0xbd05c3db	-0.032657485
10	0x3c5e11ba	0.013554031
11	0xbe6eea4b	-0.23331563
12	0xbd24c18b	-0.04022364
13	0xbe3f10db	-0.18658774
14	0x3d617b20	0.05504906
15	0xbd9c4988	-0.076312125
16	0xbd26e8da	-0.04074941
17	0xbbe00920	-0.0068370253
18	0xbde7a539	-0.113108106
19	0x3d767fe1	0.06018055
20	0x3e074012	0.13208035
21	0x3db593c5	0.088660754
22	0xbc7d8e3f	-0.015475809
23	0xbceb312f	-0.028709976
24	0x3d9a309f	0.07528805
25	0xbcd1beb2	-0.025603626
26	0x3d0d38fc	0.034478173
27	0xbe09cd1f	-0.13457154
28	0x3e0d560a	0.13802353
29	0x3c181913	0.009283322
30	0x3dfec016	0.12438981
31	0x3e064ca5	0.13115175
32	0x3de79808	0.113082945
33	0x3d9a4be1	0.07534004
34	0xbb86eec7	-0.00411782
35	0xbd2d2b09	-0.04227737
36	0xbc9958e4	-0.018719144
37	0xbe8d5f96	-0.2761199
38	0xbde3fe3c	-0.11132476
39	0x3e651094	0.22369605
40	0x3e187461	0.14888145
41	0x3d8c28f7	0.06843751
42	0x3bd6e266	0.0065577505
43	0xbe3829fe	-0.17984769
44	0x3d2bd05f	0.041946765
45	0xbdcfb0eb	-0.10141166
46	0x3df6ff08	0.12060362
47	0xbce5c75e	-0.028049167
48	0x3e12d3f5	0.14338668
49	0x3e80f4f5	0.25186887
50	0x3cf44e11	0.029822381
51	0x3cc82565	0.024431894
52	0xbd902d00	-0.07039833
53	0x3d7b41a3	0.061341893
54	0xbd0df15e	-0.034654014
55	0x3ceec116	0.029144805
56	0xbd259705	-0.040427227
57	0x3c88c745	0.016696582
58	0x3ec4e8fc	0.38459003
59	0xbcef3a39	-0.029202567
60	0x3d817c41	0.06322528
61	0x3da58260	0.08081508
62	0x3ca90893	0.020633971
63	0x3df08a27	0.117451005
64	0x3e331907	0.17490016
65	0xbd3196a2	-0.043356545
66	0x3d8d6cdf	0.06905531
67	0x3da82fa0	0.08212209
68	0xbc97f173	-0.01854775
69	0xbd8b4533	-0.06800308
70	0x3ca74b14	0.020421542
71	0x3d189e3b	0.037260275
72	0x3d33d39f	0.04390299
73	0x3ca15975	0.019695977
74	0x3bad0b8b	0.005280917
75	0x3d83eeb8	0.06442016
76	0xbcee3f31	-0.029082866
77	0x3d8ba166	0.06817894
78	0x3de0ff7a	0.10986228
79	0x3dec3e01	0.11535264
80	0xbc225e98	-0.009910248
81	0x3e0fff85	0.14062317
82	0x3c798dc7	0.015231556
83	0x3c2e5304	0.01063991
84	0xbe0893b2	-0.13337591
85	0xbe531efc	-0.20617288
86	0x3d2a79bb	0.041619997
87	0xbd7573fe	-0.059925072
88	0x3e9df03e	0.30847353
89	0x3bd7f120	0.0065900236
90	0x3d493555	0.049123127
91	0x3e013479	0.12617673
92	0xbdb531b0	-0.08847368
93	0xbdab5607	-0.08366018
94	0x3df36ddb	0.11886188
95	0xbe4072cd	-0.18793793
96	0x3dc555b4	0.09635487
97	0xbe0d9c86	-0.1382924
98	0x3d186abb	0.03721116
99	0x3cb5a7ba	0.022174705
100	0x3de5a0c9	0.11212308
101	0x3c8a605d	0.016891653
102	0x3d2e54e9	0.042561445
103	0x3e1b0f76	0.15142617
104	0x3e2a7271	0.16645218
105	0xbdc5c3ff	-0.09656524
106	0x3c82364a	0.015895028
107	0x3dbd0c89	0.092309065
108	0xbceda8ac	-0.029011093
109	0xbb1b2ccb	-0.0023677822
110	0xbe00ea27	-0.12589322
111	0x3db25192	0.087069646
112	0xbdbaa09a	-0.091126636
113	0xbe40d34a	-0.188306
114	0x3e55f4b5	0.2089413
115	0x3d606020	0.054779172
116	0x3d739876	0.05947157
117	0x3d9903cb	0.074714266
118	0x3d5d406e	0.054016523
119	0x3d8074f9	0.06272311
120	0xbd7e45f4	-0.06207843
121	0xbd286ba2	-0.04111827
122	0xbe0514ae	-0.1299617
123	0xbd1fe6df	-0.039038535
124	0x3dc662aa	0.096867874
125	0xbd10bce8	-0.035336405
126	0xbc287489	-0.01028169
127	0xbcaf6542	-0.021410588
128	0x3d6d1bcb	0.057887834
129	0x3c832653	0.016009485
130	0xbd54dbff	-0.051967617
131	0xbcacff33	-0.021117782
132	0x3cee1975	0.029064873
133	0x3cd9a242	0.026566628
134	0x3e25f7da	0.16207829
135	0x3e10f373	0.14155369
136	0x3a19df81	0.00058697915
137	0xbe4b8916	-0.19876513
138	0x3d2bfed6	0.041991077
139	0x3b553b3e	0.0032536532
140	0xbda7226c	-0.08160862
141	0x3e3791f5	0.17926772
142	0xbad1a0b7	-0.0015993331
143	0xbb9fc5b0	-0.004875861
144	0xbd6afb2b	-0.05736844
145	0x3e392223	0.18079428
146	0x3ac5023e	0.0015030575
147	0xbd5993dd	-0.05311953
148	0x3dc79f19	0.09747142
149	0xbd94d7f2	-0.07267751
150	0xbdf9692c	-0.12178263
151	0x3d6b13e7	0.057392027
152	0x3ceab972	0.02865288
153	0x3d2a8e86	0.041639827
154	0xbb3b4e93	-0.002858077
155	0xbcdcd4d1	-0.026956948
156	0xbc34331e	-0.010998515
157	0x3e11c84a	0.1423656
158	0xbc396d0d	-0.011317504
159	0x3d11695f	0.03550088
160	0x3d516728	0.051123768
161	0xbd1b4209	-0.037904773
162	0x3e15afe0	0.14617872
163	0xbd05d24d	-0.03267126
164	0x3e172509	0.14760222
165	0xbdf67d3a	-0.12035604
166	0xbba26df2	-0.004956954
167	0x3d6d1387	0.05787995
168	0x3c869ab5	0.016431192
169	0xbd07cb1e	-0.033152692
170	0xbc95da96	-0.018292706
171	0xbe4b4e24	-0.19854027
172	0xbe7eb128	-0.24872267
173	0x3dd72e49	0.10506875
174	0xbd3b6c41	-0.045757536
175	0x3dfd8709	0.123792715
176	0xbdfb7b1f	-0.12279343
177	0x3e8b229d	0.27174845
178	0xbdaa438e	-0.08313666
179	0xbda20d91	-0.07912744
180	0xbcf6dd27	-0.03013475
181	0xbcb0ecd1	-0.021597298
182	0xbe17bc80	-0.14818001
183	0xbe424a9c	-0.18973774
184	0x3d25acb4	0.040447906
185	0x3cc80f56	0.024421375
186	0xbd5ea16a	-0.054353155
187	0xbd37604b	-0.044769567
188	0x3db6571c	0.089033335
189	0xbc9a346d	-0.018823827
190	0xbb46340e	-0.003024343
191	0x3cef3664	0.02920074
192	0x3d62c98a	0.055367984
193	0xbd43f7a9	-0.04784361
194	0xbdf604b3	-0.12012615
195	0xbdbe9f05	-0.09307674
196	0xbe083824	-0.13302666
197	0xbd09c9c2	-0.033639677
198	0xbe094377	-0.13404642
199	0xbce39666	-0.027781677

l3.weight f4 [4, 200]
0	0x3e0ea000	0.13928223
1	0x3e8db60d	0.27677956
2	0x3e850f13	0.25988063
3	0x3e8b89a5	0.27253452
4	0xbe836860	-0.2566557
5	0x3eb03e9a	0.3442276
6	0x3e6caad9	0.23112048
7	0xbe24c87a	-0.160921
8	0x3f007d3e	0.50191104
9	0x3e3ed204	0.18634802
10	0x3e531d6d	0.20616694
11	0x3ed86e7c	0.42271793
12	0x3e58c666	0.21169433
13	0xbc109a71	-0.008825884
14	0x3e08fdfc	0.13378137
15	0x3eb196a3	0.3468524
16	0x3e4c2e46	0.19939527
17	0xbea36248	-0.3191092
18	0xbe739156	-0.2378591
19	0x3ed42a01	0.41438296
20	0x3eef5892	0.4674726
21	0x3e524c50	0.20536923
22	0xbdf1b8a2	-0.11802794
23	0x3dd272c8	0.10275799
24	0xbdcbd1ee	-0.0995215
25	0x3e966b52	0.29378754
26	0xbe5cb2d6	-0.21552595
27	0xbd859955	-0.065233864
28	0xbe585b1b	-0.21128504
29	0xbe2d8205	-0.1694413
30	0xbf0921cb	-0.5356719
31	0x3e8797a1	0.2648287
32	0x3e3e7425	0.18598993
33	0x3d816a19	0.06319065
34	0xbd11b78c	-0.035575435
35	0xbe2a3d90	-0.16625047
36	0x3d7ac892	0.061226435
37	0xbe134294	-0.14380866
38	0xbe351ea8	-0.17687476
39	0xbeac5d45	-0.3366491
40	0xbdebd84a	-0.11515863
41	0x3e91be09	0.28465298
42	0x3db12c1d	0.08650992
43	0xbcd482f5	-0.025941351
44	0xbdaf150d	-0.08548937
45	0x3d087369	0.03331319
46	0x3e32ebd9	0.17472781
47	0x3ea5daa0	0.3239336
48	0xbc1b3c4e	-0.009474827
49	0xbe9326fd	-0.28740683
50	0xbdc83bf1	-0.09777058
51	0x3e359556	0.17732748
52	0xbe8d8f05	-0.27648178
53	0xbec70a75	-0.38875166
54	0x3d8f4f19	0.069975086
55	0xbe86fec5	-0.2636625
56	0x3eda600d	0.42651406
57	0x3dc5ebfb	0.0966415
58	0x3ee50890	0.44733095
59	0xbd945292	-0.072423115
60	0x3f0b5e85	0.544411
61	0xbe72e1c8	-0.23718941
62	0x3de66b53	0.11250939
63	0x3d1f5c1f	0.038906213
64	0xbe63ae00	-0.22234344
65	0x3e878bce	0.2647385
66	0x3f015965	0.5052703
67	0xbea1f9ea	-0.31635982
68	0x3e7a6d31	0.24455716
69	0xbe7e3b1b	-0.24827234
70	0xbd2c7e51	-0.042112652
71	0x3e92d70f	0.28679702
72	0x3e9711a5	0.2950565
73	0xbea1b335	-0.31582037
74	0x3ba4c799	0.0050286767
75	0xbf00b963	-0.5028288
76	0xbe483f08	-0.19555295
77	0xbdfd57f0	-0.12370288
78	0xbee15131	-0.44007257
79	0xbdb55e91	-0.08855928
80	0x3e45cfce	0.19317552
81	0xbdc7bcb4	-0.09752789
82	0xbe5c8f44	-0.21539026
83	0x3e9566be	0.2917995
84	0xbe3a8eac	-0.18218488
85	0x3e705c98	0.23472822
86	0x3e352d9e	0.17693183
87	0x3e8c5229	0.27406433
88	0xbeb953e9	-0.3619683
89	0xbe03afac	-0.12859982
90	0xbedff32c	-0.43740213
91	0x3e282dbf	0.16423701
92	0xbf0a360f	-0.53988737
93	0x3df7fa6a	0.121083096
94	0x3e8687e0	0.2627554
95	0xbe8a1a22	-0.26973063
96	0x3e44e1b4	0.19226724
97	0x3e927bb4	0.28610003
98	0xbe913e2b	-0.28367743
99	0x3df43086	0.119233176
100	0xbeb9c376	-0.36281937
101	0x3f16820a	0.58792174
102	0x3e5ffbfa	0.21873465
103	0x3d159e6d	0.03652804
104	0xbe4232d5	-0.18964703
105	0xbd1a118a	-0.037614383
106	0x3ecb0c1d	0.3965768
107	0x3ea14dd6	0.31504697
108	0x3eea0719	0.4570854
109	0xbed08e4b	-0.4073356
110	0xbd82a4c0	-0.0637908
111	0x3cdbf796	0.026851457
112	0x3d3b6a6b	0.045755785
113	0xbea77661	-0.32707503
114	0x3e519509	0.20467009
115	0x3ec9bb7d	0.39400855
116	0xbed25bd5	-0.41085687
117	0x3e8e3e1a	0.27781755
118	0x3c33e3ae	0.010979576
119	0xbec12353	-0.37722263
120	0x3e5f48a5	0.21805055
121	0xbed89974	-0.42304575
122	0x3e3c0219	0.18360175
123	0x3e8ee24d	0.2790703
124	0x3e9721a3	0.2951785
125	0xbe1d7015	-0.15374787
126	0x3e2b1c46	0.16710004
127	0xbe66f30e	-0.22553656
128	0x3e18feb6	0.14940915
129	0x3e06a249	0.13147844
130	0x3e21602b	0.15759341
131	0xbeaa5a1e	-0.3327188
132	0x3eeb81df	0.4599752
133	0x3b1aa2de	0.0023595612
134	0xbc8a2190	-0.016861707
135	0x3db5720f	0.088596456
136	0xbe92f66e	-0.28703636
137	0x3c292138	0.010322861
138	0xbe36e2cd	-0.17859955
139	0xbe3da848	-0.18521225
140	0xbe0b606b	-0.13611
141	0x3eb538d8	0.3539493
142	0x3ea6b070	0.32556486
143	0x3e4932eb	0.1964833
144	0xbde9f94b	-0.11424502
145	0x3e8343c3	0.25637636
146	0xbec072c1	-0.3758755
147	0x3c516327	0.012779987
148	0x3e86efeb	0.26354918
149	0xbebc6105	-0.3679277
150	0x3ef02811	0.46905568
151	0xbee42794	-0.44561446
152	0x3e6899a9	0.22714867
153	0x3e6a95a8	0.22908652
154	0xbda05ea0	-0.07830548
155	0x3dcfff2d	0.10156093
156	0x3e64c335	0.2234009
157	0x3e4c2e5f	0.19939564
158	0xbeb94539	-0.36185625
159	0x3ee97d0f	0.45603225
160	0x3efda2c2	0.49538237
161	0x3e6ab7e3	0.2292171
162	0x3e0b1c71	0.13585068
163	0x3e720f10	0.23638558
164	0x3e56f218	0.20990789
165	0xbee45094	-0.44592726
166	0xbdc99bc7	-0.09844165
167	0x3ebb137c	0.36538303
168	0xbe8dd543	-0.27701768
169	0x3d5fed9d	0.054669965
170	0x3c75d666	0.01500473
171	0xbdd0e003	-0.10198977
172	0xbe8138b8	-0.25238585
173	0x3c988030	0.018615812
174	0xbe8b8972	-0.272533
175	0x3e0efaf5	0.1396292
176	0x3e526b8d	0.2054884
177	0xbeceabcb	-0.40365443
178	0xbe309ad6	-0.17246565
179	0x3e6986f0	0.22805381
180	0xbece649b	-0.4031113
181	0x3d76b05b	0.06022678
182	0xbda582fe	-0.080816254
183	0xbeb11e60	-0.34593487
184	0xbcfb3bc0	-0.03066814
185	0x3ed8cf85	0.42345825
186	0x3e557e60	0.2084899
187	0x3ebf34e2	0.37345034
188	0x3e3006d7	0.17190109
189	0x3db8f30f	0.09030735
190	0xbed6dace	-0.4196381
191	0xbe436189	-0.19080175
192	0xbe55ec22	-0.20890859
193	0x3ed83b4c	0.4223274
194	0x3c9f0148	0.01940979
195	0x3e73b1f5	0.23798354
196	0xbd5cf928	-0.05394855
197	0xbbf56583	-0.007488908
198	0x3f0ce110	0.5503092
199	0x3dcbda4f	0.099537484
200	0x3d8fd62d	0.07023273
201	0x3e878d33	0.26474914
202	0xbe749a98	-0.23887098
203	0xbe8d7a42	-0.27632338
204	0xbee922d2	-0.45534378
205	0x3d9c9b79	0.076468416
206	0xbe42c68a	-0.19021049
207	0x3d3fb74a	0.046805657
208	0xbe37cbd5	-0.1794885
209	0x3eec3c2f	0.46139666
210	0x3f08bae8	0.53410196
211	0x3e42e9ca	0.19034496
212	0x3bf4e780	0.007473886
213	0x3edd6bc8	0.43246293
214	0x3f09e5a3	0.5386602
215	0x3f195e34	0.5990937
216	0xbdecb0c3	-0.11557152
217	0x3ef2f90c	0.47455633
218	0xbc91d804	-0.0178032
219	0xbe3c5cc5	-0.18394764
220	0x3e2cc011	0.16870143
221	0xbe535e80	-0.20641518
222	0x3db30cd1	0.08742679
223	0x3ef67ea1	0.48143485
224	0x3efd21b5	0.4943978
225	0x3eea3b68	0.45748448
226	0x3e902298	0.28151393
227	0x3e84e8ca	0.25958854
228	0x3d381827	0.04494491
229	0x3f0009b5	0.5001481
230	0x3d8c0ae5	0.068380155
231	0xbeecc23e	-0.46241945
232	0x3efeeefa	0.497917
233	0xbe75a4d1	-0.23988654
234	0xbe5b5cbd	-0.21422096
235	0x3e9ba32c	0.30397928
236	0xbe06ac0d	-0.1315157
237	0xbe81aeed	-0.2532877
238	0x3ec19494	0.3780867
239	0xbeb689f6	-0.3565213
240	0xbc85c94d	-0.01633134
241	0xbedf0d14	-0.43564665
242	0xbe7a83f0	-0.24464393
243	0x3ec08918	0.37604594
244	0xbee5078f	-0.4473233
245	0xbd982511	-0.07428945
246	0xbea95988	-0.3307612
247	0xbebe9bde	-0.37228292
248	0x3e5dfdff	0.21678923
249	0xbefa5855	-0.48895517
250	0x3f298026	0.66211164
251	0xbe3f160b	-0.18660752
252	0x3e3f5223	0.18683676
253	0x3e07023e	0.13184449
254	0x3da89b74	0.08232775
255	0x3ecf35e9	0.40470818

l3.bias f4 [4]
0	0x3d7a7cef	0.061154302
1	0xbc90b61d	-0.017664963
2	0xbd12b7e6	-0.03581991
3	0x3bd68278	0.006546315
