HardcoreVersion_eval/ppo_q_critic4200.pth (torch, 373698 bytes, 10 tensors)

l1.weight f4 [200, 28]
-0.1379367 0.29928353 -0.35262 -0.12552696 -0.26957625 0.016742792 -0.05604619 0.01393539
-0.0050595175 -0.16245332 0.015815165 -0.33120263 0.024866657 0.0025064936 -0.078821816 -0.024226097
0.21096438 0.16110095 0.3227983 -0.0933324 0.099652715 0.2627991 -0.32670853 -0.20440286
0.00048799405 0.010631751 -0.010478975 0.0016122883 0.3882344 0.0046673687 -0.4184532 -1.3977002
0.1240052 0.07249068 0.051249392 0.038667116 -0.029237105 0.13901936 -0.20160455 -0.29031458
0.06718166 0.4191426 0.105160385 0.20070855 -0.49299574 -0.36894912 0.11365267 0.06224402
0.1901621 -0.0988192 -0.02173461 -0.12561229 0.00928762 -0.010726797 -0.13607182 0.07355961
0.1011946 -2.8526273 -0.08910602 -0.16399431 0.024447 -0.1014369 0.06498878 -0.026543492
-0.016692381 0.1656265 -0.34604955 -0.048355453 0.31271002 0.23424014 0.105272025 0.03908065
-0.04613113 -0.29178154 -0.10944198 -0.071499445 0.16123892 0.069560446 0.028524574 -0.13888466
-0.009890295 -0.0014263189 -0.09032031 0.14198983 -0.10803686 -0.594387 0.3081758 0.014836656
-0.040508144 0.04361984 -0.050549597 -0.018968582 0.029884132 0.13171978 -0.18804452 0.10502164
-0.011354233 -0.12178631 0.04114602 0.020157615 0.17675664 0.13016269 -0.082865655 0.16450132
0.16593386 -0.07828429 0.2279765 0.12094796 0.028275887 0.016831571 -0.085905656 0.06303018
0.124842204 -1.6551629 -0.32577577 0.26144004 -0.12929332 -0.026970016 -0.2171099 0.03121167
-0.00751303 -0.049096603 -0.65118045 0.5700224 -0.1391029 0.07431236 -0.44899562 -0.26537365
0.1765308 0.11894654 0.42936808 -0.031700067 -0.12662563 -0.041242342 -0.03568684 -0.0035691222
-0.023052659 -0.03326538 -0.39619732 0.31343734 0.73036623 -0.0068319817 0.19225596 -0.7370346
-0.035842985 0.002784367 0.0008844402 0.009166309 0.003652181 0.61724305 -0.007911088 0.35055962
0.022698775 -0.025499241 0.41875643 -0.6557136 -1.111365 0.5538191 -0.21897116 -0.06787852
0.48203668 -0.2408718 0.052044623 -0.17650642 -0.0020126742 0.0038267488 0.0029298586 -0.005902507
0.17671418 0.43013594 -0.6299298 0.13064855 0.124723695 -0.0001611878 -0.13456851 -0.0014671325
-0.2047601 -0.05677243 0.015065321 0.04452759 0.0011639716 -0.005823659 0.8348383 0.32129392
-0.8587105 -0.5965318 -0.43429795 0.3555481 0.40635192 0.39418414 -0.10143747 -0.07124471
0.008486709 -0.027760379 -0.009067165 0.0016046221 0.060270183 0.042375386 -0.29007336 -0.044554982
-0.010563915 0.10024628 0.053252228 -0.041505724 -0.10336265 0.0057606413 -0.16988334 0.0005222219
-0.15221366 0.04625483 -0.07526936 -0.15471569 0.02369078 -0.16804716 0.10686805 -0.2117033
-0.17012927 -0.2349032 -0.07969035 -0.24572723 0.08690465 0.09439377 -0.057701968 -0.0020052153
0.039663456 0.3619059 0.16052885 -0.105953075 -0.08877839 -0.0032199523 -0.110551804 0.0004677542
0.011644556 0.076759465 0.035848327 0.040199835 0.011328022 -0.016094431 -0.21649145 -0.32253954
-0.044774454 -0.12884574 0.15862785 0.21737367 -0.3926988 -0.5505767 0.25639185 -0.07993092
-0.0032689886 -0.0072878567 0.009519328 0.00048244066 0.36958903 2.0431278 -0.09557179 0.9206797
00000000: 473f 0dbe b13b 993e 9c8a b4be 248a 00be
00000010: e605 8abe 2e28 893c b190 65bd 4351 643c
00000020: 4fca a5bb 2a5a 26be ce8e 813c 6493 a9be
00000030: 29b5 cb3c fc43 243b 556d a1bd cf75 c6bc
00000040: 0c07 583e a6f7 243e d245 a53e 0f25 bfbd
00000050: b916 cc3d 9b8d 863e 5746 a7be fc4e 51be
00000060: 74d9 ff39 cc30 2e3c 02b0 2bbc 6b53 d33a
00000070: a9c6 c63e baf0 983b 7f3f d6be d7e7 b2bf
00000080: 70f6 fd3d fe75 943d e2ea 513d 6961 1e3d
00000090: a782 efbc 175b 0e3e 6c71 4ebe 1da4 94be
000000a0: 8a96 893d dc99 d63e 545e d73d 8b86 4d3e
000000b0: f069 fcbe e6e6 bcbe bbc2 e83d 96f3 7e3d
000000c0: dbb9 423e b961 cabd c80c b2bc 82a0 00be
000000d0: 1a2b 183c 73bf 2fbc 6956 0bbe 6ca6 963d
000000e0: 1d3f cf3d 7291 36c0 387d b6bd 20ee 27be
000000f0: 1345 c83c 26be cfbd d618 853d bd71 d9bc
00000100: 76be 88bc fe99 293e 682d b1be 5e10 46bd
00000110: 871b a03e a6dc 6f3e dc98 d73d 0813 203d
00000120: fff3 3cbd 6464 95be 1e23 e0bd 4d6e 92bd
00000130: d11b 253e b575 8e3d 5eac e93c c837 0ebe
00000140: e70a 22bc 52f3 baba dbf9 b8bd c865 113e
00000150: 6e42 ddbd bf29 18bf 38c9 9d3e 7215 733c
00000160: deeb 25bd b8aa 323d 180d 4fbd 0064 9bbc
00000170: 91cf f43c 8de1 063e be8e 40be 9615 d73d
00000180: 1b07 3abc 1a6b f9bd bb88 283d 9521 a53c
00000190: b1ff 343e 5e49 053e 78b5 a9bd 0973 283e
000001a0: 91ea 293e 8453 a0bd ac72 693e 90b3 f73d
000001b0: d5a2 e73c 5de2 893c 4eef afbd f815 813d
000001c0: 45ad ff3d 61dc d3bf 15cc a6be 78db 853e
000001d0: 7865 04be 39f0 dcbc 0f52 5ebe 9eaf ff3c
000001e0: dd2f f6bb 8519 49bd c3b3 26bf fdec 113f
000001f0: fe70 0ebe 1431 983d c1e2 e5be 0edf 87be
00000200: 7dc4 343e 3e9a f33d 22d6 db3e eed7 01bd
00000210: 26aa 01be bbed 28bd 5d2c 12bd efe7 69bb
00000220: eed8 bcbc 4741 08bd 60da cabe dc7a a03e
00000230: 48f9 3a3f d1de dfbb bfde 443e 4dae 3cbf
00000240: 18d0 12bd ed79 363b c7d9 673a 492e 163c
00000250: 6e59 6f3b a403 1e3f 829d 01bc 8d7c b33e
00000260: c8f2 b93c c9e3 d0bc 3e67 d63e d9dc 27bf
00000270: 3541 8ebf 17c7 0d3f fa39 60be e503 8bbd
00000280: 83cd f63e 19a7 76be be2c 553d 19be 34be
00000290: 12e7 03bb 31ca 7a3b df02 403b d169 c1bb
000002a0: 90f4 343e c73a dc3e 1443 21bf bcc8 053e
000002b0: 236f ff3d 8504 29b9 54cc 09be cc4c c0ba
000002c0: a2ac 51be 358a 68bd 89d4 763c 9062 363d
000002d0: 6890 983a 64d4 bebb f6b7 553f a380 a43e
000002e0: 74d4 5bbf 4fb6 18bf 4d5c debe 670a b63e
000002f0: 5c0d d03e 81d2 c93e 73be cfbd bfe8 91bd
00000300: d60b 0b3c bc69 e3bc 728e 14bc 2f52 d23a
00000310: dedd 763d d091 2d3d 7f84 94be 497f 36bd
00000320: 4514 2dbc ec4d cd3d 021f 5a3d e801 2abd
00000330: ccaf d3bd c3c3 bc3b e6f5 2dbe b8e5 083a
00000340: e6dd 1bbe b475 3d3d d226 9abd ca6d 1ebe
00000350: 2b13 c23c 8e14 2cbe a3dd da3d c0c8 58be
00000360: 5e36 2ebe 778a 70be b234 a3bd eb9f 7bbe
00000370: 11fb b13d 8551 c13d e658 6cbd ee69 03bb
00000380: 2676 223d bb4b b93e ad61 243e edfd d8bd
00000390: 72d1 b5bd d605 53bb fc68 e2bd e83c f539
000003a0: cfc8 3e3c 1134 9d3d b2d5 123d 95a8 243d
000003b0: 2b99 393c 78d8 83bc efaf 5dbe e723 a5be
000003c0: 6b65 37bd 23f0 03be 576f 223e 3497 5e3e
000003d0: d10f c9be 98f2 0cbf cb45 833e d2b2 a3bd
000003e0: 873c 56bb f9ce eebb f5f6 1b3c 17f0 fc39
000003f0: c63a bd3e 9bc2 0240 25bb c3bd aab1 6b3f

l1.bias f4 [200]
0.3926608 -0.14051104 -0.64520794 -0.20918599 -0.033387132 0.008091735 0.11481223 -0.17642406
0.6671861 -0.29672757 0.12690204 -0.20477462 0.18734108 -0.5540319 -0.1573923 0.09581015
0.42594177 -0.06597959 0.22163811 0.37714702 -0.17853056 0.12845524 -0.12154727 -0.17182633
0.21210107 0.21895924 0.7222721 -0.0151059115 -0.17151192 0.3374407 0.32464316 0.35489145
-0.15633748 -0.14143892 -0.31635153 -0.26062903 0.13001832 0.11229595 0.34819275 0.16083916
0.11498881 0.041936543 0.17087919 -0.1466299 -0.060386915 -0.38060045 -0.33924448 0.6153572
0.076884 0.1793769 -0.04769148 0.5622738 0.335253 0.20949578 0.4935133 -0.22049582
0.37978554 -0.023764044 0.15457362 0.07434473 0.21352717 0.015883321 -0.088673875 -0.1313393
0.017839277 0.40417197 -0.5009052 -0.246693 -0.2557236 0.16289258 0.6036562 -0.11826522
0.44104597 -0.083606005 0.107437976 -0.0070672827 -0.33479956 -0.17560153 0.34897316 -0.39961836
-0.0116321305 0.19475663 -0.29893667 -0.29241532 0.23571238 0.30379343 -0.023775294 -0.07192628
0.24503797 0.19929574 -0.028789641 0.0062434403 0.950629 0.20743653 0.045538645 0.110362425
0.26749352 0.03487043 0.2717333 0.17016135 0.00474268 -0.11637736 -0.31890652 -0.27599004
-0.12569368 -0.54856753 0.14888366 -0.011812997 -0.10347493 0.34322622 0.60852623 0.26080856
0.07449535 0.15444037 0.27308849 0.33059472 -0.3131799 -0.09462381 -0.43923768 0.20741233
-0.31864157 -0.36557505 0.5088868 0.6212842 0.4065089 0.21194705 -0.49245834 -0.0660518
-0.59963393 -0.3999667 0.017834874 0.2678793 -0.20377678 0.29342273 -0.15512566 -0.066822425
0.025448423 -0.05733256 0.08942073 0.0075969445 -0.124541916 -0.021169247 0.20466228 -0.09280168
0.21154836 -0.019885324 -0.30199236 -0.23418601 0.14637014 0.1453953 0.2528564 -0.24744603
-0.11921075 -0.1137691 0.20301153 -0.15192264 0.3841071 0.03126468 0.12542991 -0.034600317
-0.0121847885 0.07172253 -0.2397185 -0.3521363 -0.07364985 0.28147194 0.46217722 0.12463126
0.03454925 0.33754534 -0.35830823 -0.15495594 0.2106763 0.111239865 -0.4191884 -0.40173072
0.13209489 -0.26795873 -0.24532132 -0.60985136 -0.06818017 0.1255536 -0.2892378 0.23403506
-0.2178496 -0.2189884 -0.0956125 0.43602702 0.5294759 -0.5025942 -0.15403749 -0.010998005
0.33266413 -0.07113721 0.2888387 0.19247225 -0.054556664 0.492625 -0.16142139 -0.12775053
00000000: d60a c93e 20e2 0fbe 592c 25bf da34 56be
00000010: f2c0 08bd 3293 043c ad22 eb3d 82a8 34be
00000020: b5cc 2a3f adec 97be 9cf2 013e 70b0 51be
00000030: 57d6 3f3e 09d5 0dbf 722b 21be 1d38 c43d
00000040: 0a15 da3e 4f20 87bd 1af5 623e 6a19 c13e
00000050: b7d0 36be c589 033e c6ed f8bd 3ef3 2fbe
00000060: 0631 593e da36 603e d3e6 383f c97e 77bc
00000070: d2a0 2fbe 07c5 ac3e a137 a63e 55b4 b53e
00000080: ef16 20be 5dd5 10be d4f8 a1be 2b71 85be
00000090: 8623 053e 6bfb e53d 5246 b23e 05b3 243e
000000a0: 417f eb3d a7c5 2b3d f4fa 2e3e 2626 16be
000000b0: 4558 77bd 10de c2be 74b1 adbe 0d88 1d3f
000000c0: 5c75 9d3d 94ae 373e 2458 43bd 2df1 0f3f
000000d0: 48a6 ab3e 1086 563e c6ad fc3e a8c9 61be
000000e0: 4073 c23e d0ac c2bc 8c48 1e3e 0d42 983d
000000f0: dea6 5a3e bd1d 823c a69a b5bd cf7d 06be
00000100: ad23 923c a1ef ce3e 533b 00bf 179d 7cbe
00000110: 34ee 82be 50cd 263e 3689 1a3f 0935 f2bd
00000120: c7d0 e13e a039 abbd 7108 dc3d aa94 e7bb
00000130: d96a abbe e3d0 33be 9cac b23e c79a ccbe
00000140: b194 3ebc 486e 473e 3a0e 99be 76b7 95be
00000150: 965e 713e d08a 9b3e 68c4 c2bc 164e 93bd
00000160: 3ceb 7a3e 2f14 4c3e 41d8 ebbc c695 cc3b
00000170: 6c5c 733f 3e6a 543e bb86 3a3d b205 e23d
00000180: e9f4 883e 4cd4 0e3d a120 8b3e c73e 2e3e
00000190: 7c68 9b3b 4157 eebd b747 a3be 914e 8dbe
000001a0: d8b5 00be ec6e 0cbf f574 183e 4d8b 41bc
000001b0: aaea d3bd 59bb af3e 60c8 1b3f b388 853e
000001c0: 0591 983d 9e25 1e3e 41d2 8b3e b643 a93e
000001d0: 1e59 a0be 21ca c1bd c3e3 e0be e663 543e
000001e0: fd24 a3be a72c bbbe 6846 023f 7b0c 1f3f
000001f0: ef21 d03e a608 593e 8023 fcbe 2b46 87bd
00000200: 9c81 19bf 6fc8 ccbe 711a 923c 7a27 893e
00000210: dcaa 50be 813b 963e 43d9 1ebe 32da 88bd
00000220: 3679 d03c 8cd5 6abd 3722 b73d caef f83b
00000230: d50f ffbd 216b adbc fd92 513e cf0e bebd
00000240: 22a0 583e 8ce6 a2bc be9e 9abe 75ce 6fbe
00000250: 0ee2 153e 81e2 143e 6576 813e 7e62 7dbe
00000260: c424 f4bd c6ff e8bd 41e2 4f3e 9c91 1bbe
00000270: b0a9 c43e 650f 003d b370 003e 10b9 0dbd
00000280: b5a2 47bc 43e3 923d c478 75be 364b b4be
00000290: bcd5 96bd 171d 903e 7ea2 ec3e ad3e ff3d
000002a0: 8483 0d3d bed2 ac3e 2d74 b7be c5ac 1ebe
000002b0: 87bb 573e bad1 e33d dd9f d6be a6af cdbe
000002c0: e243 073e e331 89be 8335 7bbe 381f 1cbf
000002d0: 0ca2 8bbd 1f91 003e fa16 94be e3a6 6f3e
000002e0: f713 5fbe 7f3e 60be 7dd0 c3bd ef3e df3e
000002f0: bc8b 073f 03aa 00bf 01bc 1dbe fa30 34bc
00000300: f452 aa3e 63b0 91bd abe2 933e 7217 453e
00000310: cf76 5fbd 5839 fc3e a64b 25be 09d1 02be

l2.weight f4 [200, 200]
-0.09257924 -0.11429496 -0.3480328 -0.3108491 0.083344735 -0.24845263 -0.27287048 -0.17544973
0.21543968 0.14391467 -0.05854317 -0.17544955 -0.08840879 -0.14059897 -0.15930434 0.17749164
0.3993731 -0.051435087 -0.020016195 0.2275772 0.13297439 -0.026489371 -0.01078494 0.116860494
0.280767 0.3741586 0.26836845 0.26730818 -0.07628075 -0.030370604 0.21291988 -0.2292786
-0.14980283 -0.09509943 0.4021477 0.07363262 0.06433872 0.09340149 -0.18585496 -0.13770504
-0.38749337 -0.05441893 -0.0996616 -0.077171795 -0.92200136 -0.70592225 -0.108459316 0.23050223
-0.15837684 -0.09650047 -0.12871505 0.074172065 -0.02466654 0.43099514 0.021015095 -0.19905223
-0.03278766 0.038412545 -0.44135034 0.027289663 0.1803996 0.31427148 0.4259488 0.03770634
-0.074622236 -0.23960026 -0.070045665 -0.055001847 -0.08016781 -0.14727332 0.33293632 -0.874009
-0.016621958 -0.13825797 -0.07858206 0.09436157 -0.02915707 0.27225983 -0.020316007 -0.27564743
0.034612373 -0.043407902 0.048569467 -0.008077671 0.035896275 -0.11357052 0.056135338 -0.11804071
0.11605513 -0.10064901 -0.12439514 -0.1448818 -0.7369353 0.15874328 -0.00020439178 0.1785146
-0.06148406 0.08297968 -0.3471682 0.11113078 -0.0033990506 -0.1838727 -0.1328653 -0.6646194
-0.12269752 0.42214116 0.37199482 0.31172982 0.75037986 -0.25680834 0.15607694 0.14535938
-0.41138095 0.11162052 -0.21319318 -0.13165848 0.16512758 0.31565395 -0.28453484 0.03269585
-0.17828833 0.18171446 0.053264145 0.30904183 0.30543637 0.16391432 0.2693212 0.16593523
-0.021052822 -0.1394076 0.21214041 0.17732653 -0.1226529 0.12947655 0.065206744 0.31456766
0.09802973 0.097778566 0.6651369 -0.191725 -0.8397365 0.31867442 0.011398814 -0.23444346
0.27654466 -0.12802348 0.0023236268 0.20844421 0.12743786 -0.21982387 0.15661524 -0.06957785
0.008999591 0.0061553307 -0.06403574 -0.028921243 0.50513744 0.06317497 -0.012114597 0.10774757
-0.46738368 -0.2339598 -0.15569544 -0.1364026 -0.044843696 0.24029443 0.3020004 0.3898367
-0.0052587003 -0.17886908 0.20666893 0.14170817 -0.09930239 0.22648157 0.064650856 -0.10584348
-0.004421558 -0.149799 0.23105898 0.1762997 -0.25093263 -0.051034592 0.32120436 -0.19997114
-0.06033647 -0.14210914 0.07217736 0.19302067 0.058930356 0.054386158 0.039667167 0.013093486
0.12673743 0.04564251 0.118048154 -0.097867034 -0.07048246 0.27540398 -0.098855935 0.09127682
0.05465452 -0.17200729 -0.4441555 0.17904013 0.13422246 0.34648687 -0.25003085 0.26662675
-0.0208382 0.050779067 0.085284464 0.13979869 -0.30633736 0.12150861 0.024398843 0.74096954
0.042473204 0.015127157 0.045431685 0.44978094 -0.15611821 0.039623823 0.084718 -0.016147906
-0.07162926 -0.19674179 0.077101536 -0.22756748 -0.04404708 0.07139432 0.07211323 -1.4972599
0.04654029 0.027218662 0.3525101 0.056910902 -0.0982604 0.12334924 0.1420324 0.14238322
-0.14380684 -0.073749766 -0.4750556 -0.44555622 -0.20943674 0.2004302 0.12934606 -0.24006
-0.5323938 0.12640701 -0.0252387 0.09507909 -0.3251672 -0.37529448 -0.08290833 -0.022520946
00000000: 2f9a bdbd 7a13 eabd 5b31 b2be 9d27 9fbe
00000010: a5b0 aa3d 5e6a 7ebe aeb5 8bbe 18a9 33be
00000020: 389c 5c3e 5e5e 133e f7ca 6fbd 0ca9 33be
00000030: ab0f b5bd 2df9 0fbe ad20 23be 5ec0 353e
00000040: a27a cc3e 99ad 52bd 01f9 a3bc ff09 693e
00000050: 702a 083e 3d00 d9bc 51b3 30bc 8e54 ef3d
00000060: b1c0 8f3e b791 bf3e 9767 893e 9edc 883e
00000070: 1539 9cbd c6cb f8bc ab07 5a3e 02c8 6abe
00000080: ea65 19be 7dc3 c2bd 4ee6 cd3e b3cc 963d
00000090: 05c4 833d 4849 bf3d c350 3ebe 8d02 0dbe
000000a0: 8865 c6be 62e6 5ebd 621b ccbd 3f0c 9ebd
000000b0: 4808 6cbf 52b7 34bf eb1f debd c708 6c3e
000000c0: 8a2d 22be 0aa2 c5bd e1cd 03be 86e7 973d
000000d0: 7c11 cabc 65ab dc3e d927 ac3c 59d4 4bbe
000000e0: 5a4c 06bd 7956 1d3d acf8 e1be 928e df3c
000000f0: acba 383e 31e8 a03e f615 da3e f771 1a3d
00000100: 8bd3 98bd c559 75be 1a74 8fbd 9e49 61bd
00000110: 052f a4bd d1ce 16be a176 aa3e 0ebf 5fbf
00000120: c62a 88bc 7f93 0dbe a2ef a0bd a440 c13d
00000130: cfda eebc a465 8b3e c16d a6bc a921 8dbe
00000140: b4c5 0d3d 7ccc 31bd c7f0 463d 3558 04bc
00000150: f907 133d a997 e8bd 2bee 653d 54bf f1bd
00000160: 50ae ed3d 1121 cebd e1c2 febd e55b 14be
00000170: cba7 3cbf 998d 223e 0052 56b9 88cc 363e
00000180: b6d6 7bbd 40f1 a93d 08c0 b1be 8998 e33d
00000190: 9bc2 5ebb 2049 3cbe d70d 08be 7f24 2abf
000001a0: d648 fbbd e322 d83e 1b76 be3e 0d9b 9f3e
000001b0: e518 403f 627c 83be a2d2 1f3e 17d9 143e
000001c0: 86a0 d2be 4d99 e43d 504f 5abe 7bd1 06be
000001d0: 3417 293e 659d a13e 8dae 91be 15ec 053d
000001e0: 3791 36be 5b13 3a3e 812b 5a3d bb3a 9e3e
000001f0: 2862 9c3e 28d9 273e 78e4 893e edea 293e
00000200: f876 acbc dec0 0ebe 563b 593e 1695 353e
00000210: 7231 fbbd 8095 043e 1d8b 853d 030f a13e
00000220: d0c3 c83d 2140 c83d 6946 2a3f 8f53 44be
00000230: f9f8 56bf 4b29 a33e 17c2 3a3c f211 70be
00000240: 4397 8d3e 9618 03be fd47 183b 6672 553e
00000250: 127f 023e 8219 61be bf5f 203e d57e 8ebd
00000260: 0573 133c a8b2 c93b 2c25 83bd 3eec ecbc
00000270: b050 013f e161 813d 4d7c 46bc c2aa dc3d
00000280: ea4c efbe 2893 6fbe a06e 1fbe 20ad 0bbe
00000290: 06ae 37bd be0f 763e cc9f 9a3e ad98 c73e
000002a0: 2d51 acbb 7529 37be 05a1 533e f21b 113e
000002b0: 0d5f cbbd c9ea 673e ab67 843d 77c4 d8bd
000002c0: b8e2 90bb e964 19be ba9a 6c3e e987 343e
000002d0: 3e7a 80be a609 51bd e674 a43e 3cc5 4cbe
000002e0: 6023 77bd 0f85 11be b9d1 933d 36a7 453e
000002f0: f560 713d 05c4 5e3d 0a7a 223d 1086 563c
00000300: 75c7 013e a4f3 3a3d 3bc3 f13d 836e c8bd
00000310: 1c59 90bd c001 8d3e fb74 cabd 57ef ba3d
00000320: 6bdd 5f3d ae22 30be 5a68 e3be 4c56 373e
00000330: 9d71 093e ba66 b13e 0b04 80be 4d83 883e
00000340: dfb4 aabc b6fd 4f3d 9fa9 ae3d 6327 0f3e
00000350: 40d8 9cbe 82d9 f83d 15e0 c73c 2eb0 3d3f
00000360: 62f8 2d3d e5d7 773c 9316 3a3d b049 e63e
00000370: 74dd 1fbe 974c 223d a180 ad3d 9d48 84bc
00000380: 5db2 92bd ae76 49be 69e7 9d3d 7307 69be
00000390: b66a 34bd 2f37 923d 1ab0 933d 36a6 bfbf
000003a0: 08a1 3e3d acf9 de3c 347c b43e 681b 693d
000003b0: c03c c9bd 879e fc3d f170 113e e8cc 113e
000003c0: 1a42 13be 1e0a 97bd 7d3a f3be f21f e4be
000003d0: 9676 56be 933d 4d3e 4b73 043e 4ad2 75be
000003e0: f64a 08bf d770 013e 64c1 cebc d3b8 c23d
000003f0: 517c a6be 9926 c0be d8cb a9bd d97d b8bc

l2.bias f4 [200]
0.2524943 -0.15053491 0.10755703 0.09173393 0.06494576 0.12092738 0.012089051 -0.1626616
-0.16913624 -0.124371424 0.012953031 0.081015445 0.016478593 0.038774043 -0.0008420841 -0.086680934
-0.17779094 0.051764306 0.012581824 0.13848633 -0.067330614 -0.057152275 0.121684544 0.1838936
-0.047462054 0.07742628 -0.04808699 -0.27391773 -0.1193675 0.06639101 -0.013188786 -0.12871365
-0.11080964 0.10860657 -0.06583884 -0.024112727 -0.13637087 -0.09213194 -0.024702214 0.011484982
0.03952436 0.15298744 -0.09079585 -0.12001798 -0.16173792 -0.0018736827 -0.04417222 0.08463547
0.1452056 -0.11564645 -0.09392918 -0.08968519 -0.03916079 0.09087924 0.04072931 0.1043324
-0.070486605 -0.19008413 -0.11486511 -0.06628894 0.09780399 -0.14006521 -0.025139326 -0.03516821
0.13128918 -0.1420275 0.027910603 -0.089889504 -0.047366492 -0.08503999 0.08978879 -0.13151711
0.14960897 -0.12708206 -0.09954861 0.13475366 -0.06745218 -0.18000987 0.1425415 -0.04352509
0.03990104 0.117684476 0.0127167115 0.14769094 0.08314587 0.07645245 0.16640823 -0.1623892
0.018521313 -0.0077485647 -0.058830258 0.049886808 0.025052402 0.14233561 -0.42360523 0.12370664
-0.19901073 -0.008987924 -0.042797796 0.074553326 0.021569166 -0.09007719 -0.1280544 0.15010537
-0.03600666 0.040703416 -0.20464864 -0.08070068 -0.20646885 0.037305098 -0.06731941 -0.020422991
-0.014224406 0.13907821 -0.0817094 -0.051160734 0.07933422 0.009716176 -0.29879722 -0.016455505
-0.08402966 -0.109722815 -0.15120804 0.08975564 -0.023625309 0.042982884 -0.083208844 0.09481071
-0.08834484 0.0020652309 -0.12410686 -0.04491967 0.03750532 0.14854942 -0.07460485 -0.002701594
0.039456673 0.02309985 0.15717733 -0.02988699 -0.005064193 0.06583108 0.029727738 -0.023737784
0.13083242 0.03534048 0.029860888 0.14199972 0.053099692 -0.10140901 0.011368924 -0.20046166
-0.14391758 0.049319517 -0.16887073 -0.2119842 -0.024329966 0.12036502 0.019950075 -0.016490739
0.05711396 -0.0038877064 -0.19843385 -0.03595458 -0.21237311 0.033395663 -0.030085234 -0.14840823
-0.10250832 -0.048667282 -0.04950249 0.050687082 -0.08276999 0.08105341 0.08359269 -0.12138973
-0.042860996 0.008118596 0.04378254 0.12301332 0.0721673 -0.005715939 0.12260045 -0.054834947
0.035287056 0.024217157 -0.001241334 0.065553404 0.15805982 0.2212778 -0.09572157 0.05449777
-0.026106521 -0.08607004 0.09432858 -0.054360796 0.12860037 -0.07128043 0.15137705 -0.017363686
00000000: ef46 813e d325 1abe dc46 dc3d 00df bb3d
00000010: 4802 853d c6a8 f73d 2811 463c c390 26be
00000020: 0d32 2dbe 72b6 febd f338 543c 6deb a53d
00000030: 1dfe 863c 88d1 1e3d 4fbf 5cba c685 b1bd
00000040: d40e 36be cf06 543d ff23 4e3c 5ccf 0d3e
00000050: a2e4 89bd 8118 6abd bf35 f93d 9b4e 3c3e
00000060: 9267 42bd ab91 9e3d ddf6 44bd f23e 8cbe
00000070: f376 f4bd 03f8 873d c715 58bc 83cd 03be
00000080: 2af0 e2bd 1f6d de3d 84d6 86bd 0e88 c5bc
00000090: cea4 0bbe acaf bcbd 4c5c cabc 822b 3c3c
000000a0: 4ce4 213d bda8 1c3e 2df3 b9bd fdcb f5bd
000000b0: a09e 25be 5c96 f5ba eeed 34bd 5c55 ad3d
000000c0: c7b0 143e 0cd8 ecbd f15d c0bd deac b7bd
000000d0: 1167 20bd e51e ba3d c7d3 263d 3aac d53d
000000e0: 485b 90bd 6aa5 42be 663e ebbd 7fc2 87bd
000000f0: 754d c83d 416d 0fbe fdf0 cdbc 8a0c 10bd
00000100: ac70 063e a86f 11be c7a4 e43c fd17 b8bd
00000110: 5e03 42bd 7229 aebd 2fe3 b73d 6cac 06be
00000120: 1833 193e cd21 02be 24e0 cbbd ddfc 093e
00000130: 5e24 8abd 8254 38be 66f6 113e 5d47 32bd
00000140: 466f 233d 8f04 f13d c159 503c 4b3c 173e
00000150: 6248 aa3d 1a93 9c3d eb66 2a3e 5b49 26be
00000160: 02ba 973c ace7 fdbb fff7 70bd 1c56 4c3d
00000170: b23a cd3c 6dc0 113e c9e2 d8be e859 fd3d
00000180: 78c9 4bbe 1642 13bc be4c 2fbd 6aaf 983d
00000190: d2b1 b03c 647a b8bd b120 03be 39b5 193e
000001a0: b87b 13bd a0b8 263d 6a8f 51be 6646 a5bd
000001b0: 926c 53be 3bcd 183d c2de 89bd 1e4e a7bc
000001c0: 7c0d 69bc 856a 0e3e 4257 a7bd eb8d 51bd
000001d0: fb79 a23d 9930 1f3c f3fb 98be b2cd 86bc
000001e0: be17 acbd 5bb6 e0bd 48d6 1abe ced1 b73d
000001f0: dd89 c1bc d20e 303d 6669 aabd 1e2c c23d
00000200: 24ee b4bd d358 073b bd2b febd b0fd 37bd
00000210: 2e9f 193d 571d 183e 6dca 98bd 3a0d 31bb
00000220: 529d 213d e63b bd3c 18f3 203e 90d5 f4bc
00000230: 88f1 a5bb 72d2 863d 9687 f33c be75 c2bc
00000240: eff8 053e 2ec1 103d d29e f43c 6068 113e
00000250: 107f 593d 87af cfbd b944 3a3c d245 4dbe
00000260: 215f 13be 4303 4a3d 73ec 2cbe 6312 59be
00000270: a34f c7bc f081 f63d 576e a33c 9617 87bc
00000280: 54f0 693d e4c8 7ebb 3e32 4bbe 1c45 13bd
00000290: 5678 59be e4c9 083d 4f75 f6bc 54f8 17be
000002a0: e2ef d1bd 5857 47bd 1fc3 4abd 429d 4f3d
000002b0: 5083 a9bd 55ff a53d a532 ab3d 2e9b f8bd
000002c0: 038f 2fbd dc03 053c 5255 333d 68ee fb3d
000002d0: 73cc 933d c64c bbbb f215 fb3d 9c9a 60bd
000002e0: 2989 103d 0f63 c63c 42b4 a2ba dd40 863d
000002f0: 6fda 213e a696 623e ac09 c4bd 0e39 5f3d
00000300: 58dd d5bc 7d45 b0bd 582f c13d 6da9 5ebd
00000310: d1af 033e 79fb 91bd 9602 1b3e 4a3e 8ebc

l3.weight f4 [1, 200]
-1.3087156 0.79616815 -2.408815 -1.2457535 -1.151298 -1.0902377 0.18861659 0.84390587
0.83634347 1.2943716 -0.88560075 0.83435565 -2.9579875 -2.9608934 -2.1699364 0.74275565
0.71380085 -2.2749693 1.2745621 -1.1189783 0.8992764 0.39579034 -0.37202865 -1.0311732
-1.2294275 -1.0826356 0.5092297 2.432583 -4.068483 0.84791803 0.41015175 -2.121913
1.1869781 -2.628456 0.5530255 0.62859136 0.9818016 0.6492377 0.40772936 1.6907637
-0.9528283 -1.4505379 -3.0350614 0.435577 1.4697748 -2.0262644 -1.4344853 -3.0104713
-1.1031533 0.50889266 0.5271802 1.3199103 0.02716969 -1.6704913 -1.4675865 -0.9115736
0.47291538 2.143045 1.3829821 0.8408125 -1.8363413 -1.7067173 -1.038707 0.4090768
-1.1890692 1.5114354 1.51096 0.61674094 1.3811257 0.8964962 -1.2128265 -1.7541335
-0.74866843 2.986598 0.39493424 -0.5853799 0.67290443 1.4637017 -2.6242528 0.53557014
-0.67137235 -1.1190021 -1.2011591 2.0189888 -1.0256499 -0.8115668 -1.2884505 0.8476723
-2.488562 0.30484825 0.03469094 -0.98244226 0.6110477 -1.3603466 3.4976254 -0.97885895
1.0053385 0.29089886 1.4028778 -3.154575 0.37043232 0.67526186 0.5455 -2.1020372
0.5267587 -1.5882245 0.96789145 -1.4691131 0.94920486 1.453951 0.7699409 1.3299099
0.039407067 2.5138724 0.39438745 -1.7312753 -3.1881766 0.30470678 1.8999401 0.18272743
0.7219398 0.2579632 0.48037988 1.1005473 -1.8316544 -3.4539945 -1.4949939 -1.4128503
0.7924866 0.03194127 -2.0844724 0.40970346 -0.9508981 -4.980885 0.6986287 -1.274843
-3.3098829 1.7887309 -1.0079908 0.7120438 -1.3983471 -0.8066143 2.0192554 -1.938471
-4.8099804 -1.7599789 -0.95367366 -1.7301309 -1.2115836 3.0503864 0.17678434 -1.7536409
1.0454823 -0.8204019 0.7065028 0.7289129 -1.2632718 -2.0858874 -1.8638762 -1.1751175
-1.2295903 0.20166512 0.97932124 0.41171557 2.6885288 0.15885183 0.26517692 -1.7506546
1.2244235 1.0042931 0.25842246 -3.7748287 -0.04865811 -1.0919886 -1.0335808 1.1536938
-1.5574385 0.1984215 -1.6414206 -0.969963 0.26457086 1.5837501 3.1141624 -0.0021321776
-1.0010644 -0.8454608 0.2300814 1.2696229 -0.46561673 2.4701278 0.618879 -0.002500175
-2.3753397 0.79574025 -1.1976914 0.82872707 1.5955927 0.66881114 2.3842652 -1.4422864
00000000: fe83 a7bf add1 4b3f 062a 1ac0 da74 9fbf
00000010: bc5d 93bf e98c 8bbf b524 413e 370a 583f
00000020: 9b1a 563f f8ad a53f bbb6 62bf 5598 553f
00000030: ab4f 3dc0 477f 3dc0 3de0 0ac0 3c25 3e3f
00000040: a7bb 363f 1999 11c0 da24 a33f ae3a 8fbf
00000050: fa36 663f 08a5 ca3e 8a7a bebe 7cfd 83bf
00000060: e15d 9dbf ce93 8abf e15c 023f 71af 1b40
00000070: 0331 82c0 2811 593f 69ff d13e 6ccd 07c0
00000080: e6ee 973f a038 28c0 1493 0d3f 5deb 203f
00000090: 5a57 7b3f 7134 263f e7c1 d03e f26a d83f
000000a0: 8eec 73bf 3aab b9bf 723e 42c0 f303 df3e
000000b0: 9521 bc3f 51ae 01c0 379d b7bf 90ab 40c0
000000c0: 2134 8dbf ca46 023f 48f5 063f d2f2 a83f
000000d0: f892 de3c a9d2 d5bf e0d9 bbbf e35c 69bf
000000e0: f721 f23e a627 0940 8f05 b13f 7d3f 573f
000000f0: 3b0d ebbf b675 dabf 5af4 84bf 8472 d13e
00000100: 6b33 98bf b776 c13f 2367 c13f bce2 1d3f
00000110: bac8 b03f c680 653f e63d 9bbf 7287 e0bf
00000120: bca8 3fbf 6c24 3f40 d234 ca3e 75db 15bf
00000130: 7743 2c3f 945a bb3f c2f3 27c0 201b 093f
00000140: 0fdf 2bbf 763b 8fbf 95bf 99bf 1d37 0140
00000150: 7f48 83bf d8c2 4fbf f2eb a4bf 0d01 593f
00000160: 9a44 1fc0 1215 9c3e 1618 0e3d 5681 7bbf
00000170: 9f6d 1c3f d61f aebf 18d9 5f40 8096 7abf
00000180: efae 803f b2f0 943e 8091 b33f 8fe4 49c0
00000190: 4ea9 bd3e f6dd 2c3f e3a5 0b3f c787 06c0
000001a0: a8d9 063f f14a cbbf bcc7 773f e60b bcbf
000001b0: 17ff 723f 111b ba3f d91a 453f 7d3a aa3f
000001c0: 4e69 213d 49e3 2040 27ed c93e 6e9a ddbf
000001d0: 160b 4cc0 8702 9c3e 3d31 f33f e61c 3b3e
000001e0: 0cd1 383f c113 843e 5af4 f53e bcde 8c3f
000001f0: a773 eabf 3f0e 5dc0 f65b bfbf 47d8 b4bf
00000200: 67e0 4a3f d9d4 023d ff67 05c0 a7c4 d13e
00000210: 0f6e 73bf 6963 9fc0 55d9 323f 0e2e a3bf
00000220: 1fd5 53c0 22f5 e43f d805 81bf 8148 363f
00000230: 0afd b2bf 467e 4ebf 7b3b 0140 d11f f8bf
00000240: 5ceb 99c0 fd46 e1bf f523 74bf ee74 ddbf
00000250: 2c15 9bbf 8839 4340 f406 353e 4e77 e0bf
00000260: 5dd2 853f dc05 52bf 5edd 343f 099a 3a3f
00000270: e4b2 a1bf 2e7f 05c0 7f93 eebf 406a 96bf
00000280: 3763 9dbf 4d81 4e3e ccb4 7a3f 62cc d23e
00000290: db10 2c40 0eaa 223e 45c5 873e 7315 e0bf
000002a0: e9b9 9c3f ad8c 803f f34f 843e cb96 71c0
000002b0: ba4d 47bd 48c6 8bbf 604c 84bf 3dac 933f
000002c0: 255a c7bf 012f 4b3e 121a d2bf 7f4f 78bf
000002d0: d575 873e 53b8 ca3f 704e 4740 01bc 0bbb
000002e0: e122 80bf 1e70 58bf 759a 6b3e 0183 a23f
000002f0: 5165 eebe 9316 1e40 db6e 1e3f fad9 23bb
00000300: 9105 18c0 a2b5 4b3f f44d 99bf 7527 543f
00000310: 623c cc3f 3537 2b3f cd97 1840 d79c b8bf

l4.weight f4 [200, 28]
-0.29689145 -4.308821 -0.07595849 1.3255814 0.046029054 -0.35838616 -0.08886599 -0.14664453
-0.04362949 -0.24931006 -0.15822123 -0.11079674 -0.061442535 0.046591014 0.26623017 0.12718114
-0.22181787 -0.2175029 0.0697476 0.12778857 0.15177326 0.19836666 0.027297178 -0.27544397
-0.04551232 -0.06627398 -0.00862123 -0.01519102 0.477951 0.26123875 0.05579726 -0.58342296
-0.19799614 0.029086776 -0.119459406 0.019046737 0.03302582 0.5310123 0.06232588 0.22843091
0.013467226 0.02309265 -0.07318694 -0.118184194 -0.19690356 -0.23437269 0.07306737 -0.3288074
0.33263302 0.2659325 0.53704894 -0.49450707 0.009356792 -0.008473379 0.03522301 -0.012179141
-0.0999961 -0.9553007 -0.45970058 -1.1796538 0.044730652 -0.053675756 0.06941756 -0.023486923
-0.0026106716 0.4052934 0.06840809 0.15182589 0.043458983 -0.008926838 0.41808164 0.10437737
0.29941064 0.27543926 0.16396657 0.13085218 -0.37665683 0.27854213 -0.26881605 0.051373888
-0.025765955 0.023455566 0.01214215 0.012336727 0.23846737 -1.6305344 -0.25723046 -0.7320672
-0.0138678895 -0.09844599 0.022615016 -0.01081094 -0.012793101 0.05961932 -0.2100174 0.28788158
0.049823534 -0.024655184 -0.058154803 -0.35879302 -0.43239143 0.5798964 0.31479132 0.034390356
-0.08898156 0.06330471 -0.22686157 0.10016427 0.008514141 -0.01472012 -0.1230744 0.055441767
0.4005124 -0.16871293 -0.17428355 0.48931107 0.13767119 -0.017961897 0.07441282 -0.011723691
-0.006796852 0.33834025 0.04879177 0.2597363 0.013865813 0.021282937 0.36017635 0.31287587
-0.060925107 -0.61746854 -0.37173963 0.04327738 0.49513263 0.13252223 -0.49261504 -0.05826914
0.017829113 0.013624531 0.029439948 0.019589769 0.282437 1.7135481 -0.44432577 -0.0059792977
-0.07598395 0.08435522 -0.05289196 0.040510803 0.006286525 0.17542924 0.12914349 0.05149727
0.02539891 0.07445585 0.04563195 0.15163091 -0.25905672 -0.30036044 0.6664989 -0.4462288
0.23740782 0.40838733 -0.26691988 0.07304064 0.005784318 -0.0022007246 0.029720368 -0.013705818
-0.4744699 0.20472308 -0.29224452 0.027889505 -0.07277702 -0.002319545 0.04993596 0.000936144
0.012294427 0.31172517 -0.005997331 0.07563912 -0.024638556 0.020416263 -0.2808574 -0.20318449
-0.3518558 -0.24642436 0.11904958 -0.3874259 -0.13071842 0.3698404 0.17069061 0.17684318
0.018692221 0.015565657 -0.028272169 0.026056081 -0.19974095 1.144271 0.30221623 -0.7770773
-0.22685553 0.018565949 -0.1134747 -0.0026090632 0.0060138796 0.04939868 0.057078075 -0.054110855
0.028290747 -0.0013628476 -0.21169344 -0.57795495 0.026599204 0.32706055 -0.22391832 0.40228012
-0.074228965 0.16469455 0.2834573 -0.07146429 -0.012461118 -0.022070967 0.011628213 -0.018862152
-0.38350776 -0.8436232 0.42862362 0.3895722 0.04775312 -0.12178466 0.041759416 -0.040737245
-0.012247361 -0.29880813 -0.011490073 -0.19603771 -0.028094646 -0.038621012 0.18774852 -0.10467952
-0.07370444 -0.14919735 -0.28058782 0.12492438 0.004881913 0.55646265 0.1083355 0.14728442
-0.024569564 -0.016136242 0.004979856 -0.0052895164 -0.4675428 -0.92084605 0.23567486 -1.3800454
00000000: 2802 98be dde1 89c0 2090 9bbd a7ac a93f
00000010: f688 3c3d 647e b7be 5fff b5bd fc29 16be
00000020: d6b4 32bd 234b 7fbe bf04 22be 67e9 e2bd
00000030: 2bab 7bbd 38d6 3e3d 524f 883e c63b 023e
00000040: 3924 63be 15b9 5ebe d4d7 8e3d 02db 023e
00000050: 736a 1b3e a120 4b3e 559e df3c fe06 8dbe
00000060: 206b 3abd a7ba 87bd 0f40 0dbc c2e3 78bc
00000070: feb5 f43e 16c1 853e ab8b 643d 355b 15bf
00000080: 80bf 4abe 6447 ee3c 22a7 f4bd e707 9c3c
00000090: 1546 073d 6cf0 073f 6c49 7f3d cbe9 693e
000000a0: a4a5 5c3c cc2c bd3c 09e3 95bd 8e0a f2bd
000000b0: 16a1 49be 65ff 6fbe 58a4 953d 7259 a8be
000000c0: e04e aa3e 4e28 883e 0a7c 093f 0830 fdbe
000000d0: 3b4d 193c edd3 0abc 0146 103d 058b 47bc
000000e0: c1ca ccbd 968e 74bf e05d ebbe e5fe 96bf
000000f0: 7d37 373d 1cdb 5bbd cb2a 8e3d a667 c0bc
00000100: cd17 2bbb 9e82 cf3e 8a19 8c3d 3f78 1b3e
00000110: 0c02 323d df41 12bc cc0e d63e cdc3 d53d
00000120: 5a4c 993e 6006 8d3e dae6 273e 1dfe 053e
00000130: 2ad9 c0be 139d 8e3e 42a2 89be 6d6d 523d
00000140: 2013 d3bc e325 c03c deef 463c fc1f 4a3c
00000150: ca30 743e 5ab5 d0bf b6b3 83be c268 3bbf
00000160: 2536 63bc 0d9e c9bd 2043 b93c 5e20 31bc
00000170: 289a 51bc 6333 743d cd0e 57be 3765 933e
00000180: c313 4c3d abf9 c9bc bb33 6ebd b8b3 b7be
00000190: 6962 ddbe 1774 143f 542c a13e e7dc 0c3d
000001a0: f73b b6bd e6a5 813d 664e 68be ed22 cd3d
000001b0: e57e 0b3c a82c 71bc 6e0e fcbd e816 633d
000001c0: f60f cd3e 15c3 2cbe 6377 32be fb86 fa3e
000001d0: adf9 0c3e d424 93bc c065 983d b914 40bc
000001e0: 21b8 debb ef3a ad3e e1d9 473d 28fc 843e
000001f0: 6f2d 633c 8e59 ae3c 0969 b83e 4431 a03e
00000200: 9b8c 79bd 6b12 1ebf a854 bebe 9f43 313d
00000210: 0682 fd3e e8b3 073e 0a38 fcbe 9fab 6ebd
00000220: 5c0e 923c 6d39 5f3c 0c2c f13c b97a a03c
00000230: 959b 903e 8b55 db3f ab7e e3be fced c3bb
00000240: 799d 9bbd 6ec2 ac3d 3da5 58bd a8ee 253d
00000250: 32ff cd3b b9a3 333e 313e 043e cdee 523d
00000260: 6011 d03c 4f7c 983d 91e8 3a3d 2245 1b3e
00000270: 15a3 84be d8c8 99be ac9f 2a3f 1a78 e4be
00000280: 091b 733e 2518 d13e b9a9 88be 5596 953d
00000290: 608a bd3b 083a 10bb 2178 f33c 5e8e 60bc
000002a0: b8ed f2be eda2 513e 13a1 95be 8878 e43c
000002b0: 1e0c 95bd 8203 18bb a689 4c3d 8f67 753a
000002c0: 906e 493c 719a 9f3e 4285 c4bb afe8 9a3d
000002d0: ccd6 c9bc 0240 a73c 8bcc 8fbe 980f 50be
000002e0: 7226 b4be ab56 7cbe 44d0 f33d b05c c6be
000002f0: 0ddb 05be b95b bd3e 85c9 2e3e 6116 353e
00000300: 6e20 993c 1907 7f3c 099b e7bc 9073 d53c
00000310: e488 4cbe 7977 923f 16bc 9a3e 8aee 46bf
00000320: d14c 68be 9e17 983c 6c65 e8bd d1fc 2abb
00000330: 1410 c53b 4556 4a3d b3ca 693d 58a3 5dbd
00000340: ffc1 e73c 94a1 b2ba 2ac6 58be dbf4 13bf
00000350: 93e6 d93c 7b74 a73e d84a 65be a9f7 cd3e
00000360: 5b05 98bd b0a5 283e 5121 913e df5b 92bd
00000370: b829 4cbc 2cce b4bc 4384 3e3c cd84 9abc
00000380: 215b c4be b1f7 57bf 8e74 db3e 0276 c73e
00000390: c798 433d 3c6a f9bd ec0b 2b3d 19dc 26bd
000003a0: 28a9 48bc 61fd 98be dc40 3cbc 1cbe 48be
000003b0: be26 e6bc 1131 1ebd 2641 403e 3762 d6bd
000003c0: 5af2 96bd 31c7 18be 35a9 8fbe 5ad8 ff3d
000003d0: 74f8 9f3b 5674 0e3f 01df dd3d bad1 163e
000003e0: 1c46 c9bc 2730 84bc 0f2e a33b ae53 adbb
000003f0: c561 efbe 91bc 6bbf c054 713e 54a5 b0bf

l4.bias f4 [200]
0.020421015 -0.2724388 -0.09366759 0.17302322 0.3586854 -0.100162305 0.12537274 -0.30362827
-0.22639804 -0.2036926 -0.11516359 -0.46895224 0.11226334 -0.29060817 -0.06572772 0.22252001
0.22685504 0.008211288 -0.03535568 0.0065086936 0.45915404 0.27642673 0.110808946 -0.14893176
0.5425325 -0.14404027 0.04265286 -0.07660486 0.16144897 -0.2752556 0.030748729 -0.21363683
0.45130864 -0.22134714 0.15973943 0.016305568 -0.070649765 -0.28653052 0.3276091 0.48742566
0.35292387 -0.2735539 -0.30571645 -0.5131536 0.029130628 0.39452928 -0.27324927 0.06344543
-0.018577648 0.0723848 -0.20274207 -0.023867272 -0.07927185 0.3833524 -0.3078319 0.40802908
0.30345115 0.40790027 -0.21938495 -0.32719418 0.1477276 0.05401508 -0.21449333 -0.18930891
0.03118061 -0.4528752 0.4241401 0.041486796 -0.3930948 -0.1863823 -0.026425505 -0.26440758
0.2567379 0.19964232 0.025208583 0.20881952 0.45144525 0.27266258 -0.058985993 -0.31404585
0.06289429 -0.24127378 -0.09807767 -0.24578796 0.24298456 -0.23961891 -0.21506768 0.10681572
0.10494255 -0.29863456 0.029803706 0.17550923 0.3136696 -0.19452396 -0.0092184385 -0.37421906
-0.20712028 -0.22184367 -0.4217976 -0.42128304 0.17194454 0.17889562 0.363075 -0.2458869
-0.12830333 0.24118927 -0.22815856 -0.09929457 -0.30314982 0.23146164 -0.16825996 0.07091641
0.36761147 0.2437964 0.42133078 -0.27095565 -0.16147527 -0.024839815 0.21947724 0.035197005
0.08947385 -0.2426131 0.12759729 -0.08701465 -0.35323536 -0.3557649 -0.09704039 0.30801222
-0.16104028 0.44019374 0.273207 0.07559154 0.37915674 -0.23926531 0.1966632 -0.46991885
0.15286604 -0.52907264 -0.38127214 0.5533049 -0.12338091 -0.10243662 -0.4811708 -0.2887887
-0.12717158 0.103535615 0.25110164 -0.25005516 0.47366232 0.27203372 0.22278325 -0.4589735
-0.04946905 -0.39928073 -0.4533133 -0.20155294 0.0681342 0.1313542 0.052899126 0.5665118
0.213221 -0.08570826 0.03462678 -0.2696372 -0.12546766 0.049258552 0.7033545 -0.22627144
0.043977622 -0.12994759 -0.024380893 0.07134423 -0.022421528 -0.18737009 0.19571081 0.18993025
0.08423628 -0.1415721 -0.30545363 0.15637271 0.48562863 -0.32472834 0.334382 0.13946559
-0.15007839 0.18888438 -0.08679293 -0.20596395 0.2524708 -0.30619144 -0.07085299 0.2411128
-0.26514181 0.53719795 -0.1102617 0.12585841 0.033608485 0.49336898 -0.48490894 -0.32029238
00000000: f949 a73c 197d 8bbe cbd4 bfbd 002d 313e
00000010: 9da5 b73e e521 cdbd b661 003e 2a75 9bbe
00000020: e3d4 67be cb94 50be e3da ebbd 821a f0be
00000030: 52ea e53d 98ca 94be 419c 86bd 49dc 633e
00000040: b04c 683e a388 063c 1ed1 10bd e146 d53b
00000050: 3d16 eb3e ce87 8d3e cdef e23d 9181 18be
00000060: 69e3 0a3f 4b7f 13be c4b4 2e3d 02e3 9cbd
00000070: e152 253e 4dee 8cbe c2e4 fb3c 9dc3 5abe
00000080: ed11 e73e d3a8 62be bc92 233e 4193 853c
00000090: d3b0 90bd 21b4 92be 61bc a73e db8f f93e
000000a0: 70b2 b43e 420f 8cbe de86 9cbe 095e 03bf
000000b0: 5ba3 ee3c beff c93e 54e7 8bbe adef 813d
000000c0: 2730 98bc 7b3e 943d 9e9b 4fbe 4c85 c3bc
000000d0: 4859 a2bd c446 c43e 259c 9dbe 30e9 d03e
000000e0: f35d 9b3e 4ed8 d03e 73a6 60be ff85 a7be
000000f0: e745 173e eb3e 5d3d 24a4 5bbe 32da 41be
00000100: 7b6e ff3c 42df e7be e428 d93e 0fee 293d
00000110: b943 c9be 00db 3ebe 4d7a d8bc 6e60 87be
00000120: 2673 833e 096f 4c3e 3b82 ce3c c9d4 553e
00000130: d523 e73e 6e9a 8b3e 4c9b 71bd 9eca a0be
00000140: b9ce 803d 7910 77be f2dc c8bd d7af 7bbe
00000150: f2d0 783e a95e 75be b43a 5cbe 33c2 da3d
00000160: 1fec d63d a1e6 98be e726 f43c b1b8 333e
00000170: 4d99 a03e 4a31 47be ef08 17bc a499 bfbe
00000180: 5717 54be fd2a 63be dbf5 d7be 69b2 d7be
00000190: 3b12 303e 6a30 373e f7e4 b93e c7c9 7bbe
000001a0: f361 03be 52fa 763e 66a2 69be f45a cbbd
000001b0: 7436 9bbe 4804 6d3e 574c 2cbe 9f3c 913d
000001c0: 9237 bc3e c3a5 793e abb8 d73e b3ba 8abe
000001d0: c659 25be de7c cbbc a4be 603e bc2a 103d
000001e0: 113e b73d 926f 78be dda8 023e bd34 b2bd
000001f0: 44db b4be d126 b6be 1dbd c6bd c7b3 9d3e
00000200: bee7 24be 1361 e13e cae1 8b3e bdcf 9a3d
00000210: d520 c23e f701 75be 1462 493e 3499 f0be
00000220: ea88 1c3e 4e71 07bf 1a36 c3be 64a5 0d3f
00000230: 21af fcbd 4aca d1bd 055c f6be 1ddc 93be
00000240: 4439 02be 7b0a d43d 6590 803e 3b07 80be
00000250: de83 f23e 0148 8b3e 4b21 643e 93fe eabe
00000260: 0fa0 4abd 866e ccbe ae18 e8be e563 4ebe
00000270: f289 8b3d b781 063e c1ac 583d eb06 113f
00000280: 9b56 5a3e d087 afbd cfd4 0d3d e30d 8abe
00000290: 987a 00be 56c3 493d 0a0f 343f b3b3 67be
000002a0: e121 343d fb10 05be 70ba c7bc ec1c 923d
000002b0: 5aad b7bc f2dd 3fbe 6a68 483e 137d 423e
000002c0: 1284 ac3d 47f8 10be 6b64 9cbe 2b20 203e
000002d0: 51a4 f83e cb42 a6be 1e34 ab3e 11d0 0e3e
000002e0: 26ae 19be e86a 413e 7ec0 b1bd 37e8 52be
000002f0: da43 813e 20c5 9cbe 5f1b 91bd 46e6 763e
00000300: abc0 87be ce85 093f e3d0 e1bd 07e1 003e
00000310: 0da9 093d dc9a fc3e fc45 f8be 5dfd a3be

l5.weight f4 [200, 200]
0.015820544 -0.15402876 0.15043452 -0.20634976 -0.18031675 0.09356594 -0.010788342 0.23713881
-0.029428408 -0.060609147 0.086012684 0.19638711 -0.09516829 -0.055070125 -0.09073063 0.09088606
0.36216655 -0.4844683 0.098558486 -0.013882266 0.03484032 -0.04346172 -0.01833458 0.094493054
-0.18195508 -0.0049095056 -0.09326504 0.042902913 0.018050231 0.07821631 0.22211578 0.060270153
-0.06310684 -0.27823892 0.028472602 -0.103389554 0.050393574 0.27031943 0.13428248 -0.14619695
0.018145066 -0.09082299 0.070515014 0.0058253575 0.22135231 -0.2301749 -0.096049026 0.1699616
-0.02739502 0.110852994 0.10353041 0.23501988 -0.31128046 -0.10216318 -0.03828048 -0.011987703
-0.045343276 0.18400365 -0.4409197 -0.20595905 -0.0150676705 -0.2769307 0.10134735 0.1971227
-0.21592002 -0.04800273 0.2009477 -0.39723763 0.107754156 0.2598457 -0.07904576 0.029026074
0.07796083 0.28567022 -0.022879692 0.2048333 0.13886373 0.01787206 -0.0057578227 0.065287106
0.08062251 -0.007819979 0.13560124 0.05814308 0.06883918 -0.046939228 -0.054801714 0.10439808
-0.2319471 0.14164324 0.049219582 -1.4420942 0.4533344 -0.04351864 0.13210233 -0.29477927
-0.28805044 0.12069263 -0.3115011 -0.0076120375 0.2847642 -0.013096765 -0.14864643 -0.08342863
-0.2073007 0.14873745 -0.20602345 -0.32989746 -0.23290299 -0.12573937 0.08658843 -0.18520623
-0.12314613 0.14376989 0.051915288 -0.13338846 -0.18556128 -1.9066075 -0.057121128 0.07472912
-0.23056078 0.0710303 0.09647413 0.030127438 -0.037625954 0.06792067 -0.07884753 -0.24743327
0.31483537 0.06923477 0.05942417 -0.30353937 -0.06271167 0.23712513 0.10487052 -0.22531503
-0.11043186 0.14321975 -0.23565654 0.14538659 0.02466834 -0.031480778 -0.20857485 -0.1454235
0.060241703 0.15134293 -0.065662734 0.08757306 0.06732392 0.013882099 -0.056935724 -0.36211774
0.052601174 -0.08652028 0.09609468 0.19691138 -0.016873728 0.107296854 0.16269743 -0.023676053
-0.05507321 -0.1963313 0.1968194 0.026302272 -0.16265532 0.0036693846 -0.5521451 -0.28207174
0.09127747 0.1389012 -0.2922749 0.5873416 0.0010492143 -0.08515998 0.35099548 -0.52162063
-0.11518471 -0.12574692 -0.012108354 0.0030423074 0.05877701 0.024761776 0.12406802 0.027641594
-0.06810972 -0.2655358 -0.023770476 -0.06746489 -0.29308426 -0.07342367 0.13005583 -0.043261033
-0.07057541 -0.09237926 0.16998805 -0.0022226314 0.05616508 0.3151073 -0.16968448 -0.19660358
-0.08569771 0.026979933 0.119278036 0.01707419 0.30064258 0.16927409 -0.0075474908 0.08491597
0.08612267 -0.21039 0.1352641 0.06441144 -0.18973675 -0.22616386 0.41544116 -0.035973776
0.17160586 -0.12332434 0.08284907 0.040886804 0.33574677 -0.18746625 -0.17019029 0.05862308
-0.22990143 -0.357326 0.08552508 -0.062363397 -0.15164344 -0.20753717 -0.2270952 -0.019394312
-0.33747122 -0.017512662 0.18735072 -0.44586697 0.043557048 0.3778695 -0.3110127 -0.057710793
0.048186563 0.1850962 -0.043355882 -0.113137424 -0.22982626 0.10250238 0.081414565 -0.10477088
0.018312309 0.51001984 -0.0014220357 0.047973443 0.47329244 -0.10841517 -0.084238075 -0.8641786
00000000: 169a 813c b7b9 1dbe 820b 1a3e 5a4d 53be
00000010: f4a4 38be 809f bf3d 96c1 30bc 84d4 723e
00000020: d813 f1bc 4c41 78bd 6b27 b03d b419 493e
00000030: 98e7 c2bd 3691 61bd fbd0 b9bd 7822 ba3d
00000040: e56d b93e 3b0c f8be 08d9 c93d 7272 63bc
00000050: b9b4 0e3d eb04 32bd 6732 96bc 9385 c13d
00000060: 6f52 3abe ebdf a0bb be01 bfbd f7ba 2f3d
00000070: 14de 933c df2f a03d 5272 633e d6dd 763d
00000080: 293e 81bd 5575 8ebe 603f e93c e7bd d3bd
00000090: 7e69 4e3d 4f67 8a3e 5981 093e a7b4 15be
000000a0: f6a4 943c 6701 babd 2d6a 903d a4e2 be3b
000000b0: 2eaa 623e f8b2 6bbe 5ab5 c4bd 6a0a 2e3e
000000c0: 856b e0bc e506 e33d c007 d43d 0da9 703e
000000d0: 2760 9fbe ee3a d1bd fecb 1cbd 1268 44bc
000000e0: dfb9 39bd 746b 3c3e 3ac0 e1be eee6 52be
000000f0: 64de 76bc dcc9 8dbe 338f cf3d 88da 493e
00000100: 231a 5dbe 839e 44bd 3cc5 4d3e bb62 cbbe
00000110: 36ae dc3d 7f0a 853e bee2 a1bd 17c8 ed3c
00000120: eda9 9f3d 5e43 923e 316e bbbc d2bf 513e
00000130: 4b32 0e3e 6d68 923c 1eac bcbb 3fb5 853d
00000140: 6a1d a53d 5f1f 00bc 0ddb 0a3e 7027 6e3d
00000150: 8efb 8c3d 5943 40bd c377 60bd a9ce d53d
00000160: 8a83 6dbe ed0a 113e 799a 493d 8b96 b8bf
00000170: 721b e83e 9a40 32bd d545 073e 4fed 96be
00000180: 597b 93be b32d f73d 127d 9fbe 666e f9bb
00000190: 9dcc 913e d093 56bc c536 18be a1dc aabd
000001a0: a246 54be a14e 183e d0f7 52be 52e8 a8be
000001b0: 1f7e 6ebe d2c1 00be 4655 b13d b4a6 3dbe
000001c0: 0a34 fcbd 6a38 133e 20a5 543d fc96 08be
000001d0: c703 3ebe b70b f4bf d8f7 69bd 950b 993d
000001e0: 2018 6cbe 5578 913d 3b94 c53d d1cd f63c
000001f0: ac1d 1abd fe19 8b3d d07a a1bd 265f 7dbe
00000200: 1a32 a13e f6ca 8d3d c266 733d 8369 9bbe
00000210: fa6e 80bd eed0 723e 5bc6 d63d fcb8 66be
00000220: 192a e2bd 33a8 123e f34f 71be 39e0 143e
00000230: 4215 ca3c fdf1 00bd a594 55be e6e9 14be
00000240: 01c0 763d a4f9 1a3e 2f7a 86bd 8159 b33d
00000250: 20e1 893d be71 633c 6f35 69bd 7f67 b9be
00000260: 5474 573d 8b31 b1bd 4acd c43d 23a3 493e
00000270: c63a 8abc 74be db3d 289a 263e 48f4 c1bc
00000280: 7294 61bd 130b 49be 068b 493e dd77 d73c
00000290: 1e8f 26be 0f7a 703b 6259 0dbf b56b 90be
000002a0: afef ba3d 1e3c 0e3e 0ea5 95be 055c 163f
000002b0: ca85 893a 5b68 aebd aeb5 b33e ee88 05bf
000002c0: f6e5 ebbd cdc3 00be 1e62 46bc 7361 473b
000002d0: 29c0 703d 35d9 ca3c 6017 fe3d a070 e23c
000002e0: 1c7d 8bbd 4ff4 87be 4dba c2bc 082b 8abd
000002f0: 240f 96be 265f 96bd 5b2d 053e 7b32 31bd
00000300: d789 90bd 5631 bdbd 5911 2e3e 91a9 11bb
00000310: 5b0d 663d be55 a13e c5c1 2dbe 7352 49be
00000320: 4882 afbd 0505 dd3c 0b48 f43d 2cdf 8b3c
00000330: d3ed 993e 3056 2d3e f150 f7bb 6de8 ad3d
00000340: 1561 b03d 7a70 57be ac82 0a3e 25ea 833d
00000350: 5a4a 42be 8097 67be b4b4 d43e 3d59 13bd
00000360: 72b9 2f3e 7991 fcbd c6ac a93d ec78 273d
00000370: 00e7 ab3e 27f7 3fbe 5d46 2ebe c11e 703d
00000380: 486b 6bbe 6ff3 b6be c627 af3d c370 7fbd
00000390: 6b48 1bbe a084 54be a58b 68be d2e0 9ebc
000003a0: 07c9 acbe b776 8fbc ded8 3f3e ad48 e4be
000003b0: e068 323d 1c78 c13e 0e3d 9fbe 2762 6cbd
000003c0: 465f 453d dc89 3d3e f095 31bd 98b4 e7bd
000003d0: 9357 6bbe c5ec d13d aebc a63d 1d92 d6bd
000003e0: b203 963c a990 023f 9a63 baba cd7f 443d
000003f0: 6353 f23e c608 debd 0385 acbd cf3a 5dbf

l5.bias f4 [200]
0.115170084 0.23144405 -0.20947312 -0.10793225 0.14242996 -0.4321989 -0.22768329 -0.013863138
-0.078886114 -0.20533809 -0.020421024 -0.010047355 0.06554397 -0.023220506 0.11417679 0.07268782
0.09166138 0.14434351 -0.09897029 -0.048756678 0.15008593 0.10654533 0.043125857 -0.006814446
0.09797404 -0.18693352 -0.13246778 -0.037370298 -0.2609223 -0.11505791 -0.078893274 -0.08442066
-0.14315486 -0.057685982 0.023086581 -0.14010516 -0.012886505 -0.043472826 0.12444073 -0.044556767
0.03957293 -0.2477133 -0.2362079 0.13556664 0.07520328 0.11309286 -0.010757934 -0.27631488
-0.14153229 -0.03377613 -0.038501035 0.025661388 0.00011257868 0.036863342 -0.093143426 0.18901908
0.15963165 0.2185157 -0.096684255 0.04193209 -0.007871743 0.09789952 0.10850778 0.13224937
-0.03143474 0.013765558 0.12905008 -0.033537354 -0.13979453 -0.033838194 0.050892185 -0.09376013
-0.04660059 0.04285034 0.1743892 0.1508746 -0.23814996 -0.23364694 0.021160265 -0.05357512
0.050800875 -0.23690435 -0.11237542 -0.036534328 -0.059314013 -0.025190307 -0.18983394 -0.049192052
-0.07030647 -0.07547451 0.16964532 -0.049246255 0.018357933 0.085893564 0.10361709 -0.18589437
-0.032510582 0.016016902 -0.0112116 0.029637631 0.40552965 0.019194925 0.006776975 0.11727156
-0.13947254 -0.087295875 0.022219978 -0.23839086 0.16555648 -0.02863366 0.15158233 0.009397497
0.14903238 0.103741765 0.08433895 0.0038052346 0.12572226 -0.018561084 0.03910483 -0.20116651
-0.12665337 0.19567873 -0.23464754 -0.08917461 0.029475272 -0.15135553 -0.14100753 -0.034621026
-0.08233817 0.0969906 0.0050191544 -0.020652747 -0.013151802 -0.035497982 -0.14267349 0.0047768247
0.043128554 -0.048386674 0.19759357 -0.12515564 -0.22261696 -0.1257461 0.04259811 -0.14014319
-0.09325553 -0.040866878 0.103216626 -0.32039493 0.029922923 0.1080193 0.07946171 0.012976135
0.013727012 0.0759131 0.1992371 0.1022237 0.18537447 0.033723846 0.012133441 -0.0640726
0.14367194 0.1034036 0.14989966 0.20609574 -0.014634659 0.14229818 -0.09859911 0.09411491
0.20052734 -0.053177904 -0.15420277 -0.04533538 -0.056110922 -0.03171132 0.02951337 -0.016003422
-0.29949874 -0.041715037 -0.06472644 -0.103436 0.029500026 0.12119679 -0.01208146 -0.1360544
0.22080372 -0.016796116 -0.07621034 -0.10991891 -0.0026145624 -0.19000071 0.034197517 -0.14373195
0.0991037 0.07288838 -0.06242559 -0.02651679 0.049159892 -0.011781334 0.02665795 0.08879358
00000000: 4bde eb3d abff 6c3e 1f80 56be 950b ddbd
00000010: 29d9 113e 2d49 ddbe cf25 69be 3722 63bc
00000020: 0b8f a1bd 2644 52be fe49 a7bc a99d 24bc
00000030: eb3b 863d ee38 bebc 85d5 e93d 5add 943d
00000040: f6b8 bb3d c9ce 133e efb0 cabd 15b5 47bd
00000050: 20b0 193e 7034 da3d bda4 303d b74b dfbb
00000060: 9da6 c83d 806b 3fbe a2a5 07be 9911 19bd
00000070: 9c97 85be 7ba3 ebbd cc92 a1bd bde4 acbd
00000080: 3097 12be 2348 6cbd 1220 bd3c ba77 0fbe
00000090: eb21 53bc 9010 32bd c8da fe3d 2881 36bd
000000a0: 3a17 223d 8ea8 7dbe 7ce0 71be fbd1 0a3e
000000b0: 2d04 9a3d 3b9d e73d 0c42 30bc 2579 8dbe
000000c0: d7ed 10be d758 0abd 43b3 1dbd d537 d23c
000000d0: 3818 ec38 04fe 163d fbc1 bebd 388e 413e
000000e0: 7b76 233e 94c2 5f3e 6502 c6bd fcc0 2b3d
000000f0: 7cf8 00bc 8b7f c83d 5439 de3d 616c 073e
00000100: b7c1 00bd ef88 613c b425 043e 775e 09bd
00000110: 4c26 0fbe eb99 0abd 5374 503d 5005 c0bd
00000120: 43e0 3ebd d783 2f3d 1593 323e df7e 1a3e
00000130: 95dd 73be 2541 6fbe 4b58 ad3c 9671 5bbd
00000140: 9414 503d 0e97 72be 1625 e6bd 05a5 15bd
00000150: 40f3 72bd e75b cebc d463 42be 9b7d 49bd
00000160: d7fc 8fbd 6192 9abd 81b7 2d3e 71b6 49bd
00000170: 6063 963c f7e8 af3d 3235 d43d 185b 3ebe
00000180: d129 05bd e135 833c dcb0 37bc 9eca f23c
00000190: 95a1 cf3e ad3e 9d3c 6311 de3b 122c f03d
000001a0: e4d1 0ebe 2ec8 b2bd ac06 b63c bc1c 74be
000001b0: a387 293e 2391 eabc 6638 1b3e f6f7 193c
000001c0: f29b 183e 9076 d43d e6b9 ac3d 3e61 793b
000001d0: 56bd 003e 6a0d 98bc 632c 203d 98fe 4dbe
000001e0: 6cb1 01be 0160 483e 7247 70be 2ea1 b6bd
000001f0: 2076 f13c f2fc 1abe 4764 10be c7ce 0dbd
00000200: eaa0 a8bd 02a3 c63d b877 a43b f32f a9bc
00000210: a87a 57bc 5566 11bd 0019 12be e986 9c3b
00000220: 91a7 303d 1b31 46bd f855 4a3e cd28 00be
00000230: b3f5 63be 96c3 00be 5b7b 2e3d b281 0fbe
00000240: c1fc bebd 0764 27bd 3d63 d33d ce0a a4be
00000250: eb20 f53c 3939 dd3d d2bc a23d db99 543c
00000260: 43e7 603c 5478 9b3d cf04 4c3e a95a d13d
00000270: ced2 3d3e 0422 0a3d 57cb 463c 7f38 83bd
00000280: bd1e 133e 44c5 d33d 4c7f 193e c30a 533e
00000290: 35c6 6fbc 9db6 113e 55ee c9bd 51bf c03d
000002a0: 0a57 4d3e 13d1 59bd 55e7 1dbe 97b1 39bd
000002b0: 91d4 65bd bbe3 01bd 06c6 f13c 9c19 83bc
000002c0: e657 99be 63dd 2abd 4c8f 84bd 41d6 d3bd
000002d0: 0aaa f13c 0636 f83d 51f1 45bc d851 0bbe
000002e0: 5f1a 623e 0298 89bc 2b14 9cbd 2a1d e1bd
000002f0: 1459 2bbb 8c8f 42be b212 0c3d 782e 13be
00000300: e1f6 ca3d 8146 953d fab1 7fbd bd39 d9bc
00000310: e25b 493d 7f06 41bc c661 da3c 69d9 b53d
