HardcoreVersion_eval/ppo_q_critic2200.pth (torch, 373698 bytes, 10 tensors)

l1.weight f4 [200, 28]
-0.23624115 0.068361774 -0.37935254 -0.08965288 -0.28651252 0.018055188 -0.17642623 0.026632532
0.06948324 -0.19248255 -0.003325365 -0.3295499 0.056625985 -0.0071706506 -0.07817509 -0.05993801
0.23246224 0.088239655 0.25739017 -0.120016895 0.13345486 0.24720398 -0.24074735 -0.18408166
0.056635827 0.023545882 -0.049871262 0.06372969 0.31334776 0.43082026 -0.35936153 -1.0417578
0.12215726 0.07123077 0.11574552 0.021520834 -0.028536001 0.023803266 -0.24556811 -0.13237248
-0.04556539 0.3441625 0.17536114 0.08018879 -0.3545141 -0.3605817 -0.026572611 0.11383318
0.14906453 -0.13968907 -0.07220991 -0.08591294 0.06553734 0.00032096877 -0.14041449 -0.011584853
0.13617967 -2.3425293 -0.29466414 0.017619194 0.03456601 -0.14068347 0.021210888 -0.033011086
-0.07200607 0.16558143 -0.4181511 -0.018069157 0.42844906 0.17360082 0.04622478 -0.07993268
-0.12436269 -0.29237142 -0.007983162 0.02216586 0.04033427 -0.11664795 0.026889708 -0.037700795
-0.028201517 -0.049825568 -0.106682114 0.25725713 -0.019688286 -0.5447132 0.34921303 0.01934633
-0.021082101 0.06412766 -0.111251 -0.0810093 0.039277706 0.14349468 -0.23026179 0.089521065
0.003062749 -0.07629844 0.045090046 0.036686182 0.19395673 0.15230636 -0.050666556 0.17689452
0.16080084 -0.05737913 0.20769031 0.061285544 0.07888597 0.039036922 -0.11567692 0.08935847
-0.15969904 -1.4940941 -0.11365865 0.032319766 0.0034337756 -0.043104917 0.03246981 -0.015296747
-0.046626102 -0.15219025 -0.5376422 0.56462103 -0.116302095 -0.07617306 -0.31046563 -0.20374493
0.2338571 0.15331155 0.33478636 0.105160035 -0.0015097776 -0.14018969 -0.023158321 0.0691745
0.0069008386 -0.055040047 -0.4039335 0.3393051 0.15849362 -0.9769479 0.3689304 -0.92836773
0.004669092 0.08624814 0.03239733 0.044701718 -0.010008696 0.5375383 -0.12719938 0.38844284
-0.01585599 0.00018103115 0.13385208 -0.6718963 -0.6815477 0.36326534 -0.15058547 -0.083727434
0.40186587 -0.19370633 0.023560673 -0.10782258 0.056725025 0.03248516 -0.053618256 0.019832617
0.19678627 0.10902125 -0.6591758 0.23113415 0.13128033 0.02732366 -0.061046712 0.030344816
-0.40191785 0.021428913 0.018423082 0.14716008 -0.016436752 -0.055826556 0.51979524 0.11406947
-0.54685825 -0.6733473 -0.20979993 0.377726 0.4359454 0.37395197 -0.12750687 -0.015601852
0.017477231 0.026003478 0.024385005 -0.0039603454 0.109306425 0.115809925 -0.2838761 -0.078189805
0.02824723 0.10996732 0.08917471 0.016877849 -0.10336265 -0.032658875 -0.19910412 0.05846325
-0.15190528 0.05207747 -0.030234694 -0.12777172 0.014856934 -0.20652847 0.081819065 -0.19440983
-0.1475323 -0.20629379 -0.05337447 -0.19980288 0.12475521 0.09201942 -0.04980257 0.0025764685
0.16766448 0.11000303 0.16906051 -0.27409044 -0.15799835 0.076754965 -0.13564572 0.043464787
0.07924151 0.014011515 0.007252043 0.037413955 0.0124009475 0.07688986 -0.2759041 -0.3627949
-0.0058164084 -0.11294435 0.1291211 0.064167686 -0.40349156 -0.4229669 0.24671188 0.053149227
0.033861034 -0.0053757383 0.027276393 -0.00046719203 0.15662387 1.6931617 -0.18988612 0.62017465
00000000: 33e9 71be 4201 8c3d 7f3a c2be ee9b b7bd
00000010: c5b1 92be 79e8 933c 14a9 34be 782c da3c
00000020: 3b4d 8e3d 251a 45be 5eee 59bb c4ba a8be
00000030: a6f0 673d c7f7 eabb 431a a0bd 8f81 75bd
00000040: 950a 6e3e feb6 b43d a5c8 833e 6bcb f5bd
00000050: 64a8 083e 0a23 7d3e 7986 76be e77f 3cbe
00000060: f8fa 673d 4be3 c03c cf45 4cbd b684 823d
00000070: 1e6f a03e 7994 dc3e 3cfe b7be 5258 85bf
00000080: 962d fa3d 70e1 913d fd0b ed3d 764c b03c
00000090: 55c4 e9bc 11ff c23c 3576 7bbe a78c 07be
000000a0: c6a2 3abd 1136 b03e df91 333e 053a a43d
000000b0: df82 b5be 2a9e b8be ceae d9bc 5f21 e93d
000000c0: 5fa4 183e a70a 0fbe cae2 93bd 20f3 afbd
000000d0: 7138 863d b347 a839 d1c8 0fbe 65ce 3dbc
000000e0: af72 0b3e 00ec 15c0 38de 96be 2156 903c
000000f0: 1795 0d3d 540f 10be 75c2 ad3c a236 07bd
00000100: eb77 93bd 2e8e 293e e717 d6be c505 94bc
00000110: ad5d db3e 6ac4 313e 3256 3d3d bfb3 a3bd
00000120: deb1 febd b5b1 95be cfcb 02bc 2d95 b53c
00000130: 8c35 253d 1fe5 eebd ce47 dc3c 266c 1abd
00000140: de06 e7bc e515 4cbd 277c dabd 35b7 833e
00000150: 5449 a1bc 5372 0bbf 0dcc b23e 327c 9e3c
00000160: 5fb4 acbc 5d55 833d 90d7 e3bd 34e8 a5bd
00000170: a9e1 203d 45f0 123e bfc9 6bbe d256 b73d
00000180: 67b8 483b 5b42 9cbd 57b0 383d 4044 163d
00000190: 989c 463e 33f6 1b3e bc87 4fbd d623 353e
000001a0: faa8 243e 6106 6bbd c5ac 543e 8d06 7b3d
000001b0: f88e a13d 2ee5 1f3d 05e8 ecbd 9301 b73d
000001c0: 2588 23be 7a3e bfbf dec5 e8bd bb61 043d
000001d0: 3209 613b c88e 30bd 10ff 043d 359f 7abc
000001e0: 03fb 3ebd c3d7 1bbe eba2 09bf 018b 103f
000001f0: cb2f eebd 9f00 9cbd 5af5 9ebe 83a2 50be
00000200: 3c78 6f3e b4fd 1c3e 1e69 ab3e 255e d73d
00000210: bbe3 c5ba e38d 0fbe 85b6 bdbc 5cab 8d3d
00000220: 6e20 e23b ac71 61bd 5fd0 cebe 66b9 ad3e
00000230: 274c 223e 4219 7abf 72e4 bc3e 82a9 6dbf
00000240: 2fff 983b dda2 b03d 10b3 043d 2619 373d
00000250: 83fb 23bc 1c9c 093f 8e40 02be fbe1 c63e
00000260: 6ce4 81bc 2ed3 3d39 8510 093e 6501 2cbf
00000270: e979 2ebf eafd b93e 1433 1abe 4a79 abbd
00000280: 5dc1 cd3e f45a 46be 5002 c13c 16d2 dcbd
00000290: 8058 683d 290f 053d d19e 5bbd 0378 a23c
000002a0: 5782 493e 8846 df3d bfbf 28bf 6eae 6c3e
000002b0: 5a6e 063e ded5 df3c 1e0c 7abd b195 f83c
000002c0: 2dc8 cdbe b08b af3c 01ec 963c 22b1 163e
000002d0: 5ea6 86bc 63aa 64bd 4d11 053f 419d e93d
000002e0: e7fe 0bbf 7d60 2cbf cbd5 56be 4d65 c13e
000002f0: 3c34 df3e a276 bf3e 2991 02be e99e 7fbc
00000300: 692c 8f3c 3f05 d53c 10c3 c73c c9c5 81bb
00000310: 0cdc df3d c12d ed3d 3558 91be fa21 a0bd
00000320: bc66 e73c 8c36 e13d 3ba1 b63d 6a43 8a3c
00000330: ccaf d3bd 50c5 05bd f3e1 4bbe 2977 6f3d
00000340: 0f8d 1bbe 2f4f 553d c0ae f7bc 97d6 02be
00000350: 7f6a 733c 337c 53be c190 a73d 5f13 47be
00000360: b512 17be ae3e 53be 309f 5abd 2099 4cbe
00000370: a97f ff3d ad74 bc3d c8fd 4bbd f8d9 283b
00000380: 3db0 2b3e 4549 e13d 331e 2d3e 9555 8cbe
00000390: 52ca 21be b531 9d3d b6e6 0abe 2208 323d
000003a0: 5f49 a23d 8e90 653c 8ca2 ed3b 603f 193d
000003b0: 582d 4b3c 6e78 9d3d 4d43 8dbe 41c0 b9be
000003c0: 9297 bebb 5e4f e7bd 5238 043e 596a 833d
000003d0: 7296 cebe 1e8f d8be 0aa2 7c3e 01b3 593d
000003e0: deb1 0a3d f626 b0bb be72 df3c 74f1 f4b9
000003f0: 0262 203e 86b9 d83f 8271 42be c4c3 1e3f

l1.bias f4 [200]
0.2126883 0.043100648 -0.44939798 -0.13006538 -0.05294199 0.038057745 0.15138122 -0.13450058
0.51665056 -0.20133668 0.11669909 -0.08931775 0.12217157 -0.34634084 0.0057762633 0.27536547
0.2968464 -0.05287775 0.24596165 0.35486984 -0.16373368 0.10921065 -0.04806193 -0.13875785
0.1562357 0.19303283 0.46036458 -0.0011525593 -0.018334186 0.13202602 0.23255765 0.1971586
-0.06987737 -0.08219928 -0.2650613 -0.1397033 0.17925923 0.17916456 0.26458526 0.09036197
0.087403975 -0.014930556 0.045433674 -0.123418085 -0.048796892 -0.27242643 -0.18427725 0.44965965
0.04766711 0.13452439 0.034190267 0.37229785 0.24989355 0.29471967 0.3919352 -0.15999718
0.19976799 0.03618886 0.047668513 0.033649687 0.18663922 0.013009245 -0.20940927 -0.053637747
-0.09787902 0.14200804 -0.35047325 -0.110840924 -0.15350161 0.113127396 0.49116758 -0.06974432
0.35151625 0.0129985055 0.19563156 0.08928802 -0.22747414 -0.12914237 0.21064812 -0.28060624
0.035851732 0.1867813 -0.20474577 -0.18973568 0.23196526 0.27593654 -0.0027386502 -0.10805984
0.14002857 0.07875051 0.06276391 0.021686776 0.54496163 0.08205887 -0.046972796 0.1798456
0.13605721 0.025463255 0.13845766 0.12686615 0.1410445 -0.048728753 -0.23765433 -0.11405472
-0.1540278 -0.3392917 0.19068585 -0.06495658 0.019184701 0.16118486 0.51544195 0.077414125
-0.08526061 0.12442846 0.24421014 0.32358357 -0.1917277 -0.14143799 -0.27961752 0.14033626
-0.22279574 -0.26555502 0.2641459 0.45773187 0.2510574 0.14622785 -0.37322018 0.10273198
-0.41579002 -0.30966556 -0.04095112 0.10388827 -0.15587397 0.15288678 -0.061486866 -0.025554905
-0.04420895 -0.055756565 -0.011245928 0.0466426 -0.20981838 -0.13425864 0.1421806 -0.0105846515
0.06945728 -0.08468008 -0.1726532 -0.12100608 0.1632929 0.08917317 0.24064045 -0.16139887
-0.038418915 -0.055290803 0.20015931 0.015025152 0.44247854 0.12018773 0.11610288 -0.01359617
-0.005115427 0.10841058 -0.08657338 -0.27721924 -0.16110219 0.24361342 0.33468124 0.2329153
0.05634713 0.23104198 -0.27427074 -0.08968804 0.11815039 0.19419022 -0.3969104 -0.29222715
0.07002889 -0.19615099 -0.19921118 -0.35291043 -0.005960425 0.14733227 -0.15776211 0.22069553
-0.1023709 -0.13019839 0.0022265092 0.32346126 0.4266889 -0.3750781 0.0386023 0.06335261
0.2742348 0.03655381 -0.018588904 0.15710649 -0.045960333 0.40558088 -0.096391514 0.067505375
00000000: f6ca 593e 4e8a 303d 7e17 e6be dc2f 05be
00000010: b3d9 58bd 70e2 1b3d ae03 1b3e 85ba 09be
00000020: 3643 043f 342b 4ebe efff ee3d 39ec b6bd
00000030: 1735 fa3d 9653 b1be cf46 bd3b b4fc 8c3e
00000040: 40fc 973e 5796 58bd 5fdd 7b3e 80b1 b53e
00000050: cda9 27be d5a9 df3d 96dc 44bd 8a16 0ebe
00000060: 40fc 1f3e 66aa 453e e8b4 eb3e 7911 97ba
00000070: 9331 96bc d431 073e 9823 6e3e f2e3 493e
00000080: de1b 8fbd 1958 a8bd 1db6 87be 620e 0fbe
00000090: bb8f 373e ea76 373e b877 873e b20f b93d
000000a0: db00 b33d 4a9f 74bc a918 3a3d 9fc2 fcbd
000000b0: 40df 47bd 7a7b 8bbe 2db3 3cbe ca39 e63e
000000c0: 963e 433d c3c0 093e 180b 0c3d d39d be3e
000000d0: 18e4 7f3e 7fe5 963e bbab c83e 4dd6 23be
000000e0: fb8f 4c3e c53a 143d 0f40 433d 41d4 093d
000000f0: 5a1e 3f3e ba24 553c 626f 56be 41b3 5bbd
00000100: cc74 c8bd 8e6a 113e 3b71 b3be 9100 e3bd
00000110: 872f 1dbe 56af e73d 517a fb3e 1cd6 8ebd
00000120: f0f9 b33e aff7 543c a453 483e a3dc b63d
00000130: fbee 68be e63d 04be 24b4 573e 9fab 8fbe
00000140: 44d9 123d 9943 3f3e e0a8 51be 124a 42be
00000150: 4d88 6d3e 8e47 8d3e ed7a 33bb 7a4e ddbd
00000160: a663 0f3e f347 a13d 5d8a 803d 77a8 b13c
00000170: 9b82 0b3f 7b0e a83d 8c66 40bd 7229 383e
00000180: 9552 0b3e 5198 d03c d8c7 0d3e 33e9 013e
00000190: f86d 103e cd97 47bd a85b 73be 8595 e9bd
000001a0: 77b9 1dbe a4b7 adbe 2743 433e f507 85bd
000001b0: 3c29 9d3c a50d 253e 01f4 033f 4c8b 9e3d
000001c0: 1d9d aebd 59d4 fe3d 3912 7a3e bfac a53e
000001d0: 4454 44be 1fd5 10be 072a 8fbe 4fb4 0f3e
000001e0: 9124 64be d4f6 87be 223e 873e d55b ea3e
000001f0: 988a 803e c1bc 153e b716 bfbe 2565 d23d
00000200: 6ee2 d4be 7c8c 9ebe 5dbc 27bd 60c3 d43d
00000210: 6d9d 1fbe 5a8e 1c3e a7d9 7bbd 8558 d1bc
00000220: 7214 35bd ff60 64bd d740 38bc 500c 3f3d
00000230: a1da 56be 197b 09be cb97 113e 3f6b 2dbc
00000240: 9e3f 8e3d c06c adbd 00cc 30be 09d2 f7bd
00000250: 4136 273e 6ca0 b63d 736a 763e bf45 25be
00000260: 275d 1dbd 9c78 62bd 90f6 4c3e 0e2c 763c
00000270: 8c8c e23e fc24 f63d 59c7 ed3d 78c2 5ebc
00000280: 509f a7bb 5e06 de3d 624d b1bd aeef 8dbe
00000290: f9f7 24be cc75 793e 575b ab3e 5981 6e3e
000002a0: 40cc 663d 4596 6c3e 376d 8cbe 5dae b7bd
000002b0: d5f8 f13d cdd9 463e d737 cbbe cc9e 95be
000002c0: 4f6b 8f3d cedb 48be 04fe 4bbe adb0 b4be
000002d0: ab4f c3bb 45de 163e 648c 21be 02fe 613e
000002e0: d6a7 d1bd ba52 05be a0ea 113b b79c a53e
000002f0: f876 da3e 3d0a c0be 721d 1e3d 03bf 813d
00000300: 8168 8c3e 73b9 153d c247 98bc 86e0 203e
00000310: e740 3cbd 4ca8 cf3e ea68 c5bd 4240 8a3d

l2.weight f4 [200, 200]
-0.02141423 -0.00010362068 -0.18115559 -0.18387677 -0.15650398 -0.42561 -0.15197317 -0.24550568
0.20433602 0.19756894 -0.012418395 0.04346598 0.032640453 -0.039111428 -0.02265472 0.19176348
0.34775177 -0.16355672 0.0850087 -0.034404263 0.06387609 0.01023532 -0.07834467 -0.22723566
0.1661669 0.16701807 0.30422762 0.30639014 -0.15773387 0.06276217 0.28644618 -0.25200948
0.014022694 0.07817913 0.3887565 0.04160771 0.024275467 0.10720979 0.21208115 -0.025938153
-0.23923765 -0.030598057 0.09770337 -0.21053416 -0.5299201 -0.46593958 -0.058176816 0.13176933
0.15282167 -0.107308514 -0.09017635 0.015899492 0.0033013716 -0.01915065 0.21467602 -0.16499378
-0.15711465 -0.008994158 -0.2551941 0.003512937 0.092516914 -0.5580075 0.24112159 0.07258182
-0.115310214 -0.22081493 -0.0031435485 0.041542184 -0.037540004 -0.084206045 0.40895432 -0.16030416
0.0660026 -0.122347064 -0.15958445 -0.098503105 -0.038247813 0.26492167 0.13992998 -0.27216798
0.20109041 -0.037253577 -0.35115713 -0.06691833 -0.10748798 0.037547976 0.09562548 -0.10319063
0.09948716 -0.096388675 -0.078825206 -0.10448245 -0.08860335 0.050782785 0.30205378 0.2050253
0.0027383904 0.047417026 -0.24708475 0.05165986 0.076738805 -0.23354821 -0.14144617 -0.27548546
-0.09612855 0.23663917 -0.43374684 0.28092176 0.41259402 -0.08434864 0.19093814 -0.0067918305
-0.36240184 0.045071617 0.063219704 -0.1378586 0.10647962 0.25558433 -0.22686683 -0.04705537
-0.108874604 -0.287487 0.09899989 0.1751811 0.13479577 0.14705522 -0.039054714 -0.036962643
0.08867173 0.016662076 0.11423345 0.082488656 -0.1322466 0.21782282 0.068397224 0.035723336
-0.24530467 0.00992374 0.41461757 0.03248897 -0.654214 0.3120558 0.06652829 -0.017962165
0.073782735 0.062897846 -0.06620464 0.2380988 0.1935902 -0.2971491 0.1112538 -0.04369332
-0.06691537 0.024841897 -0.043081407 0.0017876973 -0.08003471 0.032564968 -0.009078989 -0.06345979
-0.25087753 -0.17330375 0.033720482 -0.13719648 0.05880001 0.14417021 0.19623263 0.2728268
-0.010246455 -0.023856869 0.17247055 -0.049038827 -0.065260634 0.18361756 -0.07108316 -0.17368774
0.13770248 -0.049990248 -0.22138724 0.19091524 -0.10337825 -0.049548283 0.30008662 -0.026316587
-0.2701798 -0.2830473 0.26509136 0.19219159 0.04984293 0.0064833653 0.0588347 0.013684779
0.14341074 0.055221967 0.07873514 -0.029956684 -0.042513564 0.25233614 -0.14068091 0.21358463
0.095836364 -0.2290663 -0.043724716 0.12715222 0.21226296 0.23815471 -0.30691218 0.35542226
-0.07304463 0.27380088 0.022938594 0.07079456 -0.2870515 0.18186983 -0.025354007 0.51780593
0.07069809 -0.051224515 0.08844035 0.38405982 0.044044346 -0.013613501 0.0854906 0.051916998
-0.09184918 -0.009789449 0.03364666 0.0024076651 0.037775457 0.14161082 0.018290749 -0.8489397
-0.031477567 0.015442029 0.29071835 -0.006072233 -0.008238826 0.099839605 0.14117864 0.14448106
-0.057901386 0.14037357 -0.3652547 -0.3934433 -0.13718079 0.04610427 0.07217331 -0.1843292
-0.2779998 0.062044274 -0.0017230754 0.12640646 -0.31289092 -0.22627278 -0.18780075 -0.024579845
00000000: e56c afbc ee4e d9b8 da80 39be 314a 3cbe
00000010: 9442 20be 8ee9 d9be db9e 1bbe d765 7bbe
00000020: 763d 513e 834f 4a3e 8676 4bbc 6209 323d
00000030: ffb1 053d 4e33 20bd 6496 b9bc a55d 443e
00000040: 850c b23e 6a7b 27be 0b19 ae3d 7ceb 0cbd
00000050: 78d1 823d 0bb2 273c 2c73 a0bd 77b0 68be
00000060: a827 2a3e c906 2b3e b9c3 9b3e 2bdf 9c3e
00000070: fd84 21be 7489 803d 13a9 923e 6307 81be
00000080: 71bf 653c 611c a03d 180b c73e d96c 2a3d
00000090: 58dd c63c ce90 db3d cd2b 593e 407c d4bc
000000a0: b7fa 74be c7a8 fabc b418 c83d 4496 57be
000000b0: d8a8 07bf a28f eebe d04a 6ebd 8aee 063e
000000c0: 497d 1c3e 91c4 dbbd 61ae b8bd a73f 823c
000000d0: d35b 583b d3e1 9cbc 08d4 5b3e 21f4 28be
000000e0: aae2 20be 3c5c 13bc cda8 82be 4e39 663b
000000f0: 8279 bd3d 94d9 0ebf 94e8 763e c7a5 943d
00000100: c327 ecbd 4f1d 62be fe03 4ebb 2328 2a3d
00000110: 8cc3 19bd 3874 acbd 7662 d13e c626 24be
00000120: 5f2c 873d 1991 fabd 1b6a 23be ffbb c9bd
00000130: bda9 1cbd d0a3 873e ce49 0f3e 9a59 8bbe
00000140: a5ea 4d3e 3597 18bd deca b3be 7a0c 89bd
00000150: a822 dcbd e8cb 193d 4bd7 c33d 9c55 d3bd
00000160: edbf cb3d 6d67 c5bd 1c6f a1bd e5fa d5bd
00000170: ac75 b5bd 9c01 503d cba6 9a3e 27f2 513e
00000180: 9176 333b 5b38 423d c903 7dbe 4a99 533d
00000190: 3c29 9d3d 4327 6fbe 44d7 10be 6e0c 8dbe
000001a0: 0cdf c4bd 8a51 723e 1114 debe fad4 8f3e
000001b0: 863f d33e fbbe acbd 4a85 433e 018e debb
000001c0: bc8c b9be 049d 383d 5579 813d ce2a 0dbe
000001d0: fd11 da3d f3db 823e c74f 68be 22bd 40bd
000001e0: a6f9 debd 7f31 93be 74c0 ca3d ad62 333e
000001f0: e707 0a3e a595 163e d6f7 1fbd 2466 17bd
00000200: 8699 b53d e87e 883c 3af3 e93d d0ef a83d
00000210: a76b 07be f20c 5f3e d813 8c3d a252 123d
00000220: 2631 7bbe 2f97 223c c148 d43e 2713 053d
00000230: 927a 27bf c7c5 9f3e fc3f 883d 6425 93bc
00000240: 671b 973d 96d0 803d 4c96 87bd 2cd0 733e
00000250: 823c 463e ed23 98be 08d9 e33d c4f7 32bd
00000260: ed0a 89bd 3c81 cb3c 2176 30bd 2b51 ea3a
00000270: 3de9 a3bd d862 053d 0ac0 14bc 35f7 81bd
00000280: 0573 80be 8a76 31be 7d1e 0a3d 3c7d 0cbe
00000290: 47d8 703d 5ba1 133e 35f1 483e f4af 8b3e
000002a0: bfe0 27bc 7b6f c3bc 1f9c 303e f0dc 48bd
000002b0: 5ea7 85bd 3e06 3c3e 0c94 91bd 33db 31be
000002c0: e101 0d3e 93c2 4cbd 56b3 62be 497f 433e
000002d0: fab7 d3bd 24f3 4abd f4a4 993e e295 d7bc
000002e0: 0255 8abe 93eb 90be 0eba 873e dfcd 443e
000002f0: 1a28 4c3d 6972 d43b a8fc 703d 2036 603c
00000300: 44da 123e 6e30 623d e43f a13d b867 f5bc
00000310: b422 2ebd 3432 813e a80e 10be eeb5 5a3e
00000320: db45 c43d 5b90 6abe b018 33bd 3134 023e
00000330: 765b 593e d4de 733e 9823 9dbe e8f9 b53e
00000340: 6c98 95bd a12f 8c3e b8e9 bb3c bdfc 903d
00000350: 6af8 92be 163c 3a3e 35b3 cfbc ee8e 043f
00000360: 29ca 903d ccd0 51bd 3720 b53d 7da3 c43e
00000370: d867 343d 290b 5fbc b215 af3d eba6 543d
00000380: 6c1b bcbd ed63 20bc 15d1 093d ebc9 1d3b
00000390: 70ba 1a3d 6d02 113e 7bd6 953c 1d54 59bf
000003a0: 9fee 00bd 9000 7d3c 09d9 943e 95f9 c6bb
000003b0: 24fc 06bc b578 cc3d 2291 103e d8f2 133e
000003c0: 012a 6dbd 17be 0f3e aa02 bbbe 6671 c9be
000003d0: 1f79 0cbe d5d7 3c3d 9acf 933d cbc0 3cbe
000003e0: fd55 8ebe 2322 7e3d d1d8 e1ba b270 013e
000003f0: 3d33 a0be 0db4 67be d74e 40be ac5b c9bc

l2.bias f4 [200]
0.1832009 -0.11009043 0.040918216 0.037209455 0.016150434 0.04819721 0.038709544 -0.07869855
-0.11321386 -0.09184212 -0.014037669 0.034329288 0.030881189 0.016338749 0.110828385 -0.06503158
-0.105917 -0.03650334 0.0027927188 0.060141645 -0.050396178 -0.049890846 0.09973328 0.11353393
-0.009982836 0.040972956 -0.015027171 -0.13840833 -0.112874225 0.08228478 -0.0035740633 -0.009140928
-0.0857103 0.046182457 -0.031545695 -0.019569194 -0.062248625 -0.040837847 -0.008744225 -0.037939392
0.01996919 0.10176516 -0.09333179 -0.059401628 -0.079620555 0.026928844 -0.049354654 0.012567045
0.099538684 -0.05740844 -0.07300063 -0.07403947 -0.035986174 0.1046977 0.005219406 0.036582716
-0.03136722 -0.07043928 -0.046873342 -0.030366024 0.09823323 -0.03975645 -0.058723215 -0.014890994
0.10409035 -0.0355729 0.0216192 -0.04686545 -0.00867591 0.012007596 0.08262923 -0.13365914
0.11135008 -0.037336964 -0.08505037 0.088763595 -0.036070816 -0.089563444 0.05205763 -0.017937412
0.014932247 0.057432786 -0.041522264 0.11357727 0.02586059 0.039397266 0.10977162 -0.09817663
0.016916487 0.015379253 -0.054351736 0.07173132 0.0029110739 0.079040065 -0.29784274 0.0881032
-0.10185324 -0.0086241765 0.01530176 0.06163284 0.011323346 -0.049358074 -0.08381586 0.07115942
0.0034716788 -0.009924734 -0.14495674 -0.0060953335 -0.123875 0.055453237 -0.033940505 -0.052897945
-0.011105578 0.10795989 -0.041759312 -0.0076945345 0.072183326 0.006156638 -0.15838405 0.009817311
-0.04098173 -0.088291354 -0.11439188 0.104708344 -0.047940914 0.03290452 -0.00072670466 0.0679412
-0.08584774 0.0020652309 -0.021381518 0.0090577435 0.01476752 0.034017224 -0.033626094 0.029939422
0.048900932 0.04425087 0.077608 -0.060274027 0.05338677 0.045084175 0.06629034 -0.06438826
0.091550805 0.05252036 0.059307102 0.06907386 0.014245247 0.07255636 0.04370584 -0.077031136
-0.11826322 0.08573504 -0.14090449 -0.13497706 -0.07141391 0.06861936 0.05141265 0.045835767
0.10530439 0.018687783 -0.07795674 -0.0093216775 -0.08297707 0.045365218 -0.039756678 -0.117589906
-0.069533624 -0.046332326 -0.011160394 -0.069579564 -0.07959616 0.048540607 0.03997917 -0.05372121
0.044992115 0.03250165 -0.024420148 0.07767725 0.056700606 -0.021731263 0.018144151 -0.051207807
-0.0022551573 -0.0002693017 0.025801996 0.021667972 0.12852491 0.19720937 -0.029484687 0.05449777
-0.006884689 -0.025428643 0.13276994 -0.01130711 0.07510726 -0.055545636 0.10987618 -0.020412179
00000000: 0499 3b3e 1777 e1bd dc99 273d f168 183d
00000010: ea4d 843c 706a 453d e68d 1e3d b52c a1bd
00000020: abdc e7bd b917 bcbd 40fe 65bc de9c 0c3d
00000030: 8cfa fc3c d7d8 853c fef9 e23d 472f 85bd
00000040: 03eb d8bd 8784 15bd 0c06 373b 1657 763d
00000050: 396c 4ebd 585a 4cbd f640 cc3d 7a84 e83d
00000060: 0d8f 23bc 42d3 273d 8634 76bc eaba 0dbe
00000070: 9a2a e7bd ec84 a83d d53a 6abb d5c3 15bc
00000080: e288 afbd d129 3d3d 0f36 01bd 934f a0bc
00000090: 6af8 7ebd 9645 27bd f043 0fbc 5666 1bbd
000000a0: 6d96 a33c 416a d03d bd24 bfbd 1f4f 73bd
000000b0: 1a10 a3bd e199 dc3c 1b28 4abd 02e6 4d3c
000000c0: f0da cb3d 1d25 6bbd 5b81 95bd 01a2 97bd
000000d0: 3d66 13bd bf6b d63d 8d07 ab3b c2d7 153d
000000e0: ea7a 00bd 7842 90bd 43fe 3fbd 2bc2 f8bc
000000f0: 812e c93d a9d7 22bd c187 70bd 5bf9 73bc
00000100: 522d d53d e4b4 11bd c01a b13c fcf5 3fbd
00000110: 6725 0ebc 82bb 443c 8439 a93d f1dd 08be
00000120: 830b e43d a5ee 18bd e32e aebd b0c9 b53d
00000130: febe 13bd 0a6d b7bd 623a 553d 7bf1 92bc
00000140: 62a6 743c a43e 6b3d 4013 2abd 339b e83d
00000150: 97d9 d33c 075f 213d f1cf e03d d410 c9bd
00000160: 7294 8a3c 43f9 7b3c ed9f 5ebd dfe7 923d
00000170: b7c7 3e3b c2df a13d d87e 98be 736f b43d
00000180: 6e98 d0bd 6b4c 0dbc 3cb4 7a3c b872 7c3d
00000190: 8e85 393c b12b 4abd a6a7 abbd 08bc 913d
000001a0: 1b85 633b 5a9b 22bc 8a6f 14be 5dbb c7bb
000001b0: 2db2 fdbd ef22 633d 3305 0bbd 84ab 58bd
000001c0: 2cf4 35bc 131a dd3d d00b 2bbd 6f22 fcbb
000001d0: dad4 933d 9fbd c93b 6e2f 22be c9d8 203c
000001e0: 75dc 27bd 19d2 b4bd 4a46 eabd 5471 d63d
000001f0: b15d 44bd e4c6 063d 5380 3eba c224 8b3d
00000200: f1d0 afbd d358 073b 4b28 afbc ee66 143c
00000210: 78f3 713c a555 0b3d 84bb 09bd 8543 f53c
00000220: 584c 483d 6640 353d f1f0 9e3d e6e1 76bd
00000230: 16ac 5a3d 2faa 383d 3bc3 873d fedd 83bd
00000240: fd7e bb3d 971f 573d 01ec 723d 9976 8d3d
00000250: e564 693c 6e98 943d e504 333d 80c2 9dbd
00000260: fd33 f2bd da95 af3d 4449 10be 6d37 0abe
00000270: 7541 92bd 4f88 8c3d 1296 523d 49be 3b3d
00000280: d4a9 d73d 1f17 993c c9a7 9fbd f3b9 18bc
00000290: e2ef a9bd e1d0 393d e6d7 22bd fad2 f0bd
000002a0: a567 8ebd f7c6 3dbd 16da 36bc bb7f 8ebd
000002b0: 5003 a3bd 84d2 463d 33c1 233d c60a 5cbd
000002c0: a749 383d 7320 053d c30c c8bc 4015 9f3d
000002d0: e53e 683d c305 b2bc 0ba3 943c 47bf 51bd
000002e0: 43cb 13bb 1031 8db9 b55e d33c 0881 b13c
000002f0: 099c 033e 41f1 493e df89 f1bc 0e39 5f3d
00000300: f598 e1bb bb4f d0bc d8f4 073e 7541 39bc
00000310: d6d1 993d d283 63bd c306 e13d 7137 a7bc

l3.weight f4 [1, 200]
-0.92248863 0.5492401 -1.8011847 -0.8299461 -0.75237393 -0.6636655 0.21565378 0.3537704
0.64377856 0.7079202 -0.86079454 0.56468326 -1.1619877 -1.6873281 -1.1095057 0.61487883
0.42450166 -0.9876557 0.9647833 -0.9093411 0.6023912 0.40231413 -0.32562205 -0.8043184
-0.8341774 -0.8448343 0.41946587 0.9138566 -2.9021258 0.80378 0.39935154 -1.3837298
0.523445 -1.4377395 0.4444643 0.5804448 0.75466865 0.5792123 0.38489684 1.2474611
-0.844963 -1.0491614 -1.995746 0.3492377 1.3017231 -1.1727068 -1.2217395 -1.8689646
-0.73665303 0.4199735 0.41074738 1.1418542 0.030339228 -1.3750966 -1.3132883 -0.6369298
0.4396138 0.84477305 1.179909 0.7650237 -0.9089288 -1.0825975 -0.6815372 0.39075387
-0.9721609 1.2032583 1.3635422 0.48456305 1.1800714 0.47179115 -0.74886674 -0.92049104
-0.6047956 1.14578 0.3872237 -0.46388817 0.5547201 1.1304592 -2.1299722 0.51155853
-0.4895161 -0.89232206 -1.1305138 1.2279891 -0.83381176 -0.62128484 -1.2455176 0.42367482
-1.693268 0.17552543 0.037891265 -0.7375883 0.006832878 -1.1524476 2.6019316 -0.84378904
0.45114866 0.28079537 0.5067173 -2.6341238 0.36002606 0.5443218 0.4683442 -1.6092457
0.33161074 -0.82465506 0.6475818 -1.1220351 0.5649161 1.134559 0.40704665 0.96637976
0.041883383 2.1030147 0.33161268 -1.3959222 -2.0902083 0.27403125 0.64161587 0.20239593
0.5496318 0.29702032 0.40953168 0.85163826 -1.6106402 -2.437997 -0.943836 -1.2571995
0.7135992 0.03194127 -1.3329902 0.3594692 -0.80812347 -1.7064369 0.6441327 -0.90574914
-1.3295242 1.0339868 -0.60041887 0.45151672 -0.91593456 -0.6236997 1.9116014 -1.7244399
-3.2275538 -1.211899 -0.82777923 -1.226101 -1.0280323 1.1963012 0.20323306 -1.4171442
0.85725355 -0.62145543 0.49226698 0.34146464 -1.0175678 -1.9082701 -1.3303595 -0.927973
-1.0360024 0.21760954 0.3811064 0.42063084 0.71957916 0.16054034 0.23740733 -1.0342695
1.0798571 0.5414647 0.28244016 -2.089335 -0.0518326 -0.711758 -0.7404144 0.6368351
-0.9863746 0.23613586 -1.4265453 -0.934332 0.24050027 1.2278969 1.3264344 -0.0060250876
-0.5715716 -0.6855708 0.22014418 1.053699 -0.35688525 1.6565977 0.5443053 -0.002500175
-1.5616022 0.58917654 -0.87920904 0.75478065 1.1869484 0.39385572 1.415099 -0.85174525
00000000: 3728 6cbf 009b 0c3f 388d e6bf 5977 54bf
00000010: 949b 40bf fbe5 29bf 58d4 5c3e 6521 b53e
00000020: acce 243f 423a 353f 085d 5cbf 158f 103f
00000030: 03bc 94bf 5efa d7bf 4804 8ebf b368 1d3f
00000040: 4858 d93e 01d7 7cbf 0afc 763f 94ca 68bf
00000050: 4f36 1a3f 1efc cd3e efb7 a6be d0e7 4dbf
00000060: a68c 55bf 1047 58bf 3bc4 d63e 82f2 693f
00000070: 6ebc 39c0 87c4 4d3f ce77 cc3e 0f1e b1bf
00000080: 7e00 063f d907 b8bf d390 e33e 0898 143f
00000090: f731 413f 4247 143f 3311 c53e ceac 9f3f
000000a0: 7f4f 58bf ec4a 86bf 9b74 ffbf 49cf b23e
000000b0: dd9e a63f 421b 96bf f661 9cbf 3b3a efbf
000000c0: 4b95 3cbf c406 d73e 7b4d d23e 4728 923f
000000d0: f989 f83c 2a03 b0bf d519 a8bf d50d 23bf
000000e0: 0f15 e13e 0c43 583f 4207 973f 98d8 433f
000000f0: 8faf 68bf 8e92 8abf 3979 2ebf e410 c83e
00000100: 89df 78bf 5e04 9a3f 8d88 ae3f a618 f83e
00000110: 940c 973f 9c8e f13e bbb5 3fbf 4da5 6bbf
00000120: e2d3 1abf eba8 923f 2f42 c63e c082 edbe
00000130: 2302 0e3f e3b2 903f 7751 08c0 80f5 023f
00000140: dba1 fabe 386f 64bf adb4 90bf bf2e 9d3f
00000150: b074 55bf 860c 1fbf 1f6d 9fbf e8eb d83e
00000160: 01bd d8bf f0bc 333e df33 1b3d 96d2 3cbf
00000170: 56e6 df3b 6783 93bf 0c86 2640 8f02 58bf
00000180: f5fc e63e 69c4 8f3e 3ab8 013f 7c95 28c0
00000190: 5655 b83e ac58 0b3f d0ca ef3e c3fb cdbf
000001a0: e2c8 a93e 981c 53bf ecc7 253f d99e 8fbf
000001b0: 579e 103f 3b39 913f 6b68 d03e aa64 773f
000001c0: e98d 2b3d cb97 0640 23c9 a93e 94ad b2bf
000001d0: f9c5 05c0 d34d 8c3e f040 243f e140 4f3e
000001e0: abb4 0c3f 0c13 983e 23ae d13e f704 5a3f
000001f0: 7529 cebf 2508 1cc0 3c9f 71bf eaeb a0bf
00000200: 70ae 363f d9d4 023d 6c9f aabf 590c b83e
00000210: 2ee1 4ebf 866c dabf e1e5 243f 2ddf 67bf
00000220: d92d aabf ae59 843f 0db5 19bf 332d e73e
00000230: b07a 6abf c9aa 1fbf 5baf f43f 72ba dcbf
00000240: 3e90 4ec0 821f 9bbf 57e9 53bf e1f0 9cbf
00000250: 9096 83bf 6620 993f 541c 503e fb64 b5bf
00000260: f874 5b3f b417 1fbf 6b0a fc3e 74d4 ae3e
00000270: a93f 82bf 3242 f4bf 3849 aabf a38f 6dbf
00000280: ba9b 84bf 09d5 5e3e 6120 c33e ed5c d73e
00000290: 5736 383f b064 243e e81a 733e f162 84bf
000002a0: c238 8a3f 6e9d 0a3f ff9b 903e aab7 05c0
000002b0: 6c4e 54bd c635 36bf cc8b 3dbf a007 233f
000002c0: 0c83 7cbf 99cd 713e 0999 b6bf 6230 6fbf
000002d0: b445 763e ba2b 9d3f 9ac8 a93f 196e c5bb
000002e0: 8452 12bf 9181 2fbf 7a6d 613e 9cdf 863f
000002f0: aab9 b6be 650b d43f 9857 0b3f fad9 23bb
00000300: 95e2 c7bf 46d4 163f d813 61bf 4e39 413f
00000310: eded 973f 75a7 c93e f721 b53f fa0b 5abf

l4.weight f4 [200, 28]
-0.2625 -2.6077611 -0.022618677 0.6545232 -0.12961346 -0.4010245 -0.22097409 -0.18321002
-0.03794836 -0.14037241 -0.12360176 -0.00943204 -0.013142333 0.0035964581 0.30138808 0.14176223
-0.3080911 -0.27932316 0.1815856 -0.0034029863 0.015529424 0.17656566 0.11775058 -0.18971792
-0.11552875 -0.14026028 0.026369441 0.023284076 0.40478936 -0.2658551 0.004145813 -0.7348535
-0.3368904 0.04102686 -0.15411758 0.028944293 0.013616878 0.6083154 0.03669035 0.23959225
0.025457498 0.038077187 -0.1320221 -0.19267514 -0.2630359 -0.15441017 -0.037256252 -0.18959162
0.32165125 0.20235759 0.26977846 -0.2765784 0.017366195 0.0032762047 0.013104388 0.018824529
-0.33191532 -0.517142 -0.45842087 -0.33389792 0.18003595 -0.114760175 0.12981968 -0.027685959
0.024652002 0.4092464 0.15050508 0.14288202 0.123485185 -0.1628523 0.312672 0.088073574
0.26023546 0.32174632 0.11142186 -0.0046236706 -0.20194441 0.27374196 -0.2043232 0.12384658
-0.08741733 0.027643103 -0.012354886 0.035279833 0.2573575 -0.60616446 -0.18503693 -0.6033594
-0.05000343 0.029660946 0.1300425 0.075897016 -0.015039813 -0.04114167 -0.009156258 0.42302662
0.16352963 0.083498396 -0.11387513 -0.4286656 -0.099439785 0.5211164 0.11035113 0.05080508
0.04953384 0.15581222 -0.17255588 0.052359086 0.03632376 0.05173007 -0.11681175 0.109959066
0.19919568 -0.6199051 -0.18838775 0.711822 0.10471682 0.084612556 0.17008859 0.05500602
-0.040388145 0.2990708 0.09094264 0.1227181 0.035336316 0.046717167 0.34790945 0.32949618
-0.15818192 -0.5883308 -0.3123403 0.13326232 0.45238948 0.15499614 -0.33245715 -0.018462207
0.053294376 0.016672842 0.091177784 0.078937374 0.016779331 0.60758764 -0.53730005 -0.122929916
-0.008640148 -0.013234719 -0.16080602 0.037689425 0.058076352 0.26077795 0.13173923 -0.02902234
-0.0053715096 0.07197977 0.0778154 -0.10657049 -0.20575033 -0.13485412 0.3207939 -0.13499981
0.24537478 0.39875603 -0.17585534 -0.044460103 0.028927594 0.054948077 0.0060953186 -0.023654668
-0.17223704 0.4932437 -0.25337926 0.19563122 0.1383519 -0.03381723 0.1810473 0.063140385
0.066737235 0.14392377 -0.1273824 0.07755936 0.07674825 0.019471247 -0.16787478 -0.09467575
-0.07361655 -0.17439637 0.027578766 -0.14643285 0.09633533 0.30697837 0.091703646 0.14356688
0.0026841573 0.12090727 -0.06652953 0.10961539 -0.33280164 0.84477794 0.38532975 -0.58814096
-0.33743384 0.044919148 -0.234798 0.015521957 0.11311767 0.04544213 0.026007624 0.010903374
0.01364946 -0.055882785 -0.15925284 -0.52737594 -0.027188508 0.15004455 -0.036877014 0.28478757
-0.061308816 0.08780892 0.16789083 -0.028964397 0.04620264 -0.010874802 0.021891026 -0.04630509
-0.41655797 -0.75789326 0.41455424 0.4850497 0.07652027 -0.19303384 -0.07263936 -0.08587053
0.05066239 -0.2848733 0.06447122 -0.17482474 0.025706433 -0.057858698 0.19442491 -0.040848725
-0.067629136 -0.12351978 -0.22374956 0.105317414 0.045801938 0.5471755 0.10778876 0.122834854
-0.06174367 0.023766926 -0.017345337 0.018383825 -0.56443226 -0.6410678 0.29563645 -1.2497654
00000000: 6666 86be 8fe5 26c0 ce4a b9bc d58e 273f
00000010: 64b9 04be 1553 cdbe 0847 62be 689b 3bbe
00000020: bd6f 1bbd c9bd 0fbe eb22 fdbd d888 1abc
00000030: f152 57bc 8eb2 6b3b 8a4f 9a3e 1e2a 113e
00000040: 1ebe 9dbe 7203 8fbe 93f1 393e a304 5fbb
00000050: 206f 7e3c a1cd 343e 3727 f13d 6a45 42be
00000060: 569a ecbd 64a0 0fbe ba04 d83c 3fbe be3c
00000070: 8d40 cf3e 291e 88be 9ad9 873b 5c1f 3cbf
00000080: e67c acbe c80b 283d 00d1 1dbe 951c ed3c
00000090: 5319 5f3c 8fba 1b3f 9f48 163d ac57 753e
000000a0: 3e8c d03c d3f6 1b3d cd30 07be a24c 45be
000000b0: a4ac 86be b31d 1ebe 039a 18bd 4e24 42be
000000c0: 79af a43e d436 4f3e 6720 8a3e af9b 8dbe
000000d0: 8d43 8e3c 98b5 563b c9b3 563c e635 9a3c
000000e0: cef0 a9be 6b63 04bf 24b6 eabe abf4 aabe
000000f0: 585b 383e 6207 ebbd 73ef 043e aacd e2bc
00000100: fff2 c93c bf88 d13e 011e 1a3e aa4f 123e
00000110: cde5 fc3d c1c2 26be 8b16 a03e eb5f b43d
00000120: 953d 853e efbb a43e 2531 e43d 2982 97bb
00000130: 84ca 4ebe e827 8c3e 1a3a 51be 47a3 fd3d
00000140: db07 b3bd ca73 e23c 266c 4abc 9681 103d
00000150: 5dc4 833e 982d 1bbf 527a 3dbe c375 1abf
00000160: 66d0 4cbd 83fb f23c dc29 053e e56f 9b3d
00000170: 8c69 76bc 2b84 28bd 2104 16bc f296 d83e
00000180: 5074 273e 3501 ab3d 5d37 e9bd 0f7a dbbe
00000190: 16a7 cbbd e267 053f c6ff e13d fd18 503d
000001a0: ffe3 4a3d 3d8d 1f3e 7db2 30be 7b76 563d
000001b0: 39c8 143d e9e2 533d 003b efbd 3832 e13d
000001c0: f4f9 4b3e 1ab2 1ebf b8e8 40be f739 363f
000001d0: c675 d63d 5949 ad3d b42b 2e3e fe4d 613d
000001e0: 0a6e 25bd cf1f 993e 2340 ba3d a153 fb3d
000001f0: d0bc 103d 805a 3f3d 3021 b23e b9b3 a83e
00000200: 71fa 21be d99c 16bf 11eb 9fbe eb75 083e
00000210: 989f e73e 4fb7 1e3e d337 aabe 0e3e 97bc
00000220: 344b 5a3d 7c95 883c 6bbb ba3d eba9 a13d
00000230: cf74 893c dd8a 1b3f 7f8c 09bf aec2 fbbd
00000240: 688f 0dbc 6fd6 58bc 55aa 24be 3a60 1a3d
00000250: 78e1 6d3d b084 853e a6e6 063e 42c0 edbc
00000260: 7d03 b0bb 216a 933d ae5d 9f3d a141 dabd
00000270: 37b0 52be 3317 0abe 193f a43e 643d 0abe
00000280: 8743 7b3e c029 cc3e 6c13 34be cc1b 36bd
00000290: 90f9 ec3c 3c11 613d 3dbb c73b 6fc7 c1bc
000002a0: e85e 30be 708a fc3e edba 81be 8d53 483e
000002b0: 1fac 0d3e f083 0abd 7764 393e bf4f 813d
000002c0: 88ad 883d c160 133e 8870 02be 71d7 9e3d
000002d0: 302e 9d3d 2a82 9f3c 5ee7 2bbe 5ce5 c1bd
000002e0: 46c4 96bd f694 32be ddec e13c 7ef2 15be
000002f0: 754b c53d 452c 9d3e 1fcf bb3d 3203 133e
00000300: b0e8 2f3b 3b9e f73d a240 88bd 097e e03d
00000310: fa64 aabe 5e43 583f f149 c53e 6890 16bf
00000320: 21c4 acbe 24fd 373d e36e 70be ce4f 7e3c
00000330: 3daa e73d 8721 3a3d f10d d53c 11a4 323c
00000340: fca1 5f3c 59e5 64bd 2d13 23be 1c02 07bf
00000350: 6fba debc 47a5 193e 5a0c 17bd adcf 913e
00000360: f41e 7bbd 2ad5 b33d 93eb 2b3e be46 edbc
00000370: fb3e 3d3d 3a2c 32bc cf54 b33c 68aa 3dbd
00000380: 1647 d5be 4b05 42bf 7440 d43e 6f58 f83e
00000390: a9b6 9c3d aaaa 45be f2c3 94bd e3dc afbd
000003a0: 5e83 4f3d eada 91be 7d09 843d 4205 33be
000003b0: 4c96 d23c 3efd 6cbd 5317 473e fe50 27bd
000003c0: 2581 8abd f0f7 fcbd 9b1e 65be a8b0 d73d
000003d0: d09a 3b3d b213 0c3f 5ac0 dc3d d790 fb3d
000003e0: eee6 7cbd dbb2 c23c cf17 8ebc ad99 963c
000003f0: a27e 10bf 051d 24bf a95d 973e 50f8 9fbf

l4.bias f4 [200]
0.09177246 -0.22391549 -0.00043877517 0.17505504 0.2202798 -0.10337938 0.04275693 -0.17851059
-0.11633249 -0.19863114 -0.07485376 -0.3503231 0.13387106 -0.121839136 -0.082576916 0.10152637
0.1061618 -0.057663966 0.07504327 0.054165907 0.382986 0.07700991 0.1594594 -0.082297206
0.39698154 -0.15389705 -0.0046724235 -0.1578795 0.22907057 -0.15861186 0.08269512 -0.12244429
0.35427338 -0.2205191 0.12458714 0.074387446 -0.12139555 -0.12937452 0.247153 0.27288866
0.44422638 -0.26766172 -0.17433508 -0.31447423 0.027476883 0.43277064 -0.22725613 0.047685444
0.032058943 0.22282541 -0.110216774 0.06182248 -0.17061213 0.28505012 -0.21501115 0.31304413
0.17147331 0.38227168 0.029669499 -0.16397317 0.16246769 0.026177214 -0.23024228 -0.19763781
0.01997098 -0.3167009 0.2580795 -0.002347168 -0.28698334 -0.31064972 -0.11112591 -0.07068019
0.24150711 0.090600565 -0.100326486 0.058040477 0.3419239 0.27777407 0.06898094 -0.124522924
0.012658693 -0.19093707 -0.006083404 -0.1165337 0.23872894 -0.15499799 -0.11123303 0.13487598
0.08317151 -0.3043135 0.16541284 0.07895585 0.17957157 -0.10406734 0.16977896 -0.32925716
-0.031199113 -0.118894026 -0.3213388 -0.3071084 -0.06647988 -0.03192767 0.19310892 -0.106176525
-0.07171154 0.16772841 -0.10937347 -0.056751683 -0.2274901 0.1387111 -0.101562746 0.004055998
0.2256525 0.21272738 0.29284438 -0.15566716 -0.1578982 -0.02400243 0.20069374 -0.09966883
-0.065513864 -0.12900248 0.029513126 -0.07258022 -0.1704833 -0.18916734 -0.15994076 0.14891082
-0.25116503 0.36924762 0.2553055 -0.025141366 0.25194463 -0.18283342 0.1164096 -0.31185964
0.08049752 -0.38807645 -0.24162641 0.41763547 -0.074296735 -0.11461771 -0.35515052 -0.1537906
-0.12713933 -0.030756008 0.059373293 -0.18453252 0.33369178 0.18261501 0.17881688 -0.28889564
0.08218523 -0.32725003 -0.3486072 -0.09300226 0.0355942 0.09243482 0.004227048 0.4482104
0.11616601 -0.21841742 -0.022831049 -0.20929144 -0.08319633 0.050107453 0.46848544 -0.19902836
-0.027892202 -0.13827021 0.17304501 0.06113917 -0.05065334 -0.09126572 0.101855256 0.073895566
0.010725443 -0.01792071 -0.14974838 0.102423474 0.34661368 -0.16729683 0.2857564 0.15605475
-0.00464311 0.11957618 -0.04711108 -0.17858307 0.14266075 -0.15786904 0.15383458 0.093380414
-0.13683593 0.3653425 -0.17744045 0.0046969606 -0.055694155 0.3486557 -0.41392377 -0.20890492
00000000: 33f3 bb3d 1a4a 65be 680b e6b9 a141 333e
00000010: 0791 613e 92b8 d3bd e421 2f3d 7bcb 36be
00000020: bb3f eebd f665 4bbe ee4c 99bd 8d5d b3be
00000030: 7f15 093e cc86 f9bd 161e a9bd 0fed cf3d
00000040: 5c6b d93d 0d31 6cbd 49b0 993d 12dd 5d3d
00000050: be16 c43e 5fb7 9d3d 5349 233e 708b a8bd
00000060: 2a41 cb3e 3097 1dbe 211b 99bb 2aab 21be
00000070: 7a91 6a3e 266b 22be 0f5c a93d 12c4 fabd
00000080: 5263 b53e c2cf 61be 8b27 ff3d 7258 983d
00000090: 3b9e f8bd c17a 04be ad15 7d3e 10b8 8b3e
000000a0: a471 e33e f50a 89be e584 32be c402 a1be
000000b0: 3317 e13c 1d94 dd3e d5b5 68be d051 433d
000000c0: 3d50 033d 582c 643e 55b9 e1bd 9239 7d3d
000000d0: f2b4 2ebe 17f2 913e e22b 5cbe 5247 a03e
000000e0: b396 2f3e 1db9 c33e 730d f33c 95e8 27be
000000f0: ee5d 263e 9971 d63c a2c4 6bbe 9161 4abe
00000100: 2e9a a33c 9f26 a2be ff22 843e f2d2 19bb
00000110: 7bef 92be 7b0d 9fbe fb95 e3bd c7c0 90bd
00000120: a44d 773e ca8c b93d f977 cdbd dabb 6d3d
00000130: a610 af3e 6738 8e3e e145 8d3d e005 ffbd
00000140: 6866 4f3c 0285 43be 4b57 c7bb 38a9 eebd
00000150: 5c75 743e cbb7 1ebe 25ce e3bd ee1c 0a3e
00000160: d355 aa3d fbce 9bbe fc61 293e 9bb3 a13d
00000170: 9ce1 373e 4221 d5bd 89da 2d3e 6594 a8be
00000180: 4895 ffbc b67e f3bd 8586 a4be 503d 9dbe
00000190: 9a26 88bd 97c6 02bd 58be 453e 1473 d9bd
000001a0: 80dd 92bd ffc0 2b3e 33ff dfbd 7474 68bd
000001b0: 2af3 68be 480a 0e3e 2100 d0bd 2de8 843b
000001c0: 7311 673e 35d5 593e b3ef 953e 3667 1fbe
000001d0: 11b0 21be bea0 c4bc a982 4d3e 2c1f ccbd
000001e0: 222c 86bd 3a19 04be 83c5 f13c f0a4 94bd
000001f0: 2d93 2ebe 15b5 41be 83c7 23be 147c 183e
00000200: b498 80be 060e bd3e 67b7 823e 44f5 cdbc
00000210: e3fe 803e af38 3bbe 2868 ee3d 11ac 9fbe
00000220: e2db a43d f5b1 c6be ea6c 77be 51d4 d53e
00000230: e328 98bd b1bc eabd 4ad6 b5be 487b 1dbe
00000240: d030 02be 06f4 fbbc 6931 733d 18f6 3cbe
00000250: a6d9 aa3e 6eff 3a3e c61b 373e 21ea 93be
00000260: bb50 a83d 518d a7be a57c b2be f877 bebd
00000270: 39cb 113d 784e bd3d 0c83 8a3b d57b e53e
00000280: 72e8 ed3d d1a8 5fbe 2e08 bbbc 7f50 56be
00000290: d662 aabd 793d 4d3d 53dd ef3e 17ce 4bbe
000002a0: 307e e4bc b596 0dbe b632 313e 116d 7a3d
000002b0: e079 4fbd 86e9 babd 7d99 d03d 8f56 973d
000002c0: c5b9 2f3c 74ce 92bc a457 19be 66c3 d13d
000002d0: 5977 b13e dc4f 2bbe aa4e 923e d1cc 1f3e
000002e0: 3b25 98bb 5be4 f43d 8cf7 40bd 7bde 36be
000002f0: a915 123e 6ca8 21be d086 1d3e 3b3e bf3d
00000300: b81e 0cbe 2c0e bb3e f3b2 35be f6e8 993b
00000310: 8e1f 64bd 0083 b23e d1ed d3be 2ceb 55be

l5.weight f4 [200, 200]
0.066053994 -0.185623 0.10740079 -0.035726577 -0.15213276 0.14355877 -0.0676545 0.27517506
0.023511603 -0.10222623 -0.03626926 0.080133766 0.027519163 -0.10268342 0.0070015537 0.064283825
0.17848407 -0.83166564 0.07622382 0.024034949 0.063605554 -0.035095777 -0.0036326102 0.10223935
-0.10418097 0.08018636 -0.044754773 0.07087155 -0.02279309 -0.027727498 0.13700303 -0.04022714
0.1338683 -0.15381049 0.07199351 -0.1515182 0.06408083 0.13651519 0.011867313 0.06811898
-0.01798916 -0.06921617 0.045343727 -0.03517299 0.17617118 -0.1363654 -0.1154044 -0.0130413445
-0.0683704 -0.062484995 0.08596315 0.13394234 -0.75723356 -0.09300041 0.0008744853 -0.15610671
-0.025741702 0.11619474 -0.37427616 -0.049080886 0.06754883 -0.09194177 0.05528757 0.12705126
-0.10373535 0.0004747891 0.17660709 -0.10502329 0.0070105707 0.15725867 -0.01721294 -0.03483847
0.034091722 0.23812358 0.05248214 0.052628312 0.07963885 -0.009183944 -0.024116503 0.057185918
0.024650412 -0.000714337 0.13101682 0.0094883535 0.036352135 -0.13664562 -0.010199875 -0.0091185765
-0.08092048 0.08669593 0.006165322 -1.2733828 -0.0020780445 0.010758443 0.14804392 -0.19202611
-0.3766865 0.04322206 -0.2881999 0.07259439 -0.13183859 -0.028455412 -0.10376925 -0.03885689
-0.027017323 0.13499337 -0.14730474 -0.3058558 -0.18407723 -0.044313457 -0.009556012 -0.21208715
0.013040629 0.16624413 0.05779132 -0.19700748 0.054936275 -0.56806576 -0.03735147 0.0013827344
0.025520064 0.013691128 0.05084035 0.00023200401 0.011212426 0.12547374 -0.06920551 -0.1326766
0.12307155 -0.0004827872 0.042217247 -0.2239076 -0.064774916 0.183636 0.09981994 -0.23276533
-0.05265984 0.07368634 -0.20476115 0.17103472 -0.00026278687 0.12852047 -0.15680704 -0.040773448
0.041949492 0.10497026 -0.062178727 0.11569887 -0.08590263 0.07101153 -0.020655295 -0.29022646
0.079880804 -0.03292732 0.04009597 0.16516493 0.05508744 0.11009529 0.16258413 0.053253006
0.009730931 -0.12432874 0.27679634 0.017362006 0.09358175 -0.023167033 0.01892534 -0.047647975
0.17370458 -0.09721142 -0.08177314 -0.12692167 -0.06862121 -0.22909051 0.07291331 -0.6235529
0.14481159 -0.11742236 0.032402653 -0.007547122 0.08738885 0.10585085 0.09985378 0.036087524
-0.022598116 -0.036851745 -0.026426852 -0.0067101954 -0.04710962 0.06341401 0.0006267763 0.057576
-0.031783957 -0.057865072 -0.21766289 -0.0073411656 0.07191378 0.2417273 0.009426464 -0.2817929
0.066035084 -0.036097188 0.051849656 0.03355458 0.38211617 0.13491596 0.117904335 -0.044562567
0.06752085 -0.07719238 0.017627595 -0.13068749 -0.13192475 -0.22862089 0.25205228 -0.018321931
-0.1064237 0.2677257 -0.006849507 -0.10849689 0.23404194 -0.24194337 -0.15605661 0.09591111
0.17826322 0.13417257 0.10641689 -0.1308046 -0.32080093 -0.25331467 -0.2752842 0.0090907635
-0.14667057 0.12624496 0.23874223 -0.10008254 0.01877264 0.37307248 -0.09752912 0.0717297
0.18918253 0.19869217 0.0006448375 -0.030947395 -0.20397002 0.23826168 0.111906305 0.008791995
0.004287025 0.41381314 -0.023153346 0.048664354 -0.096734494 -0.18057752 -0.08214509 -0.4675444
00000000: 5147 873d f513 3ebe f2f4 db3d 0856 12bd
00000010: b1c8 1bbe 1201 133e 718e 8abd bfe3 8c3e
00000020: 689b c03c fc5b d1bd 138f 14bd 2c1d a43d
00000030: de6f e13c af4b d2bd 4a6d e53b 3da7 833d
00000040: 87c4 363e 0ae8 54bf 3c1b 9c3d f1e4 c43c
00000050: a143 823d 97c0 0fbd 1611 6ebb dd62 d13d
00000060: d55c d5bd bf38 a43d c850 37bd 1a25 913d
00000070: 93b8 babc c724 e3bc 864a 0c3e 37c5 24bd
00000080: c614 093e 7f80 1dbe 5571 933d 9627 1bbe
00000090: cf3c 833d a3ca 0b3e 1e6f 423c f781 8b3d
000000a0: 015e 93bc 35c1 8dbd 58ba 393d 8e11 10bd
000000b0: 3866 343e 5fa3 0bbe 2459 ecbd 5dab 55bc
000000c0: c805 8cbd 44f0 7fbd 730d b03d 2e28 093e
000000d0: 0fda 41bf 0077 bebd b73d 653a 70da 1fbe
000000e0: 43e0 d2bc 82f7 ed3d 20a1 bfbe 0a09 49bd
000000f0: 0a57 8a3d f74b bcbd 3875 623d ba19 023e
00000100: 3373 d4bd 1ded f839 7dd8 343e 7316 d7bd
00000110: eeb8 e53b 6b08 213e 2702 8dbc c9b2 0ebd
00000120: c3a3 0b3d abd6 733e 83f7 563d c990 573d
00000130: b219 a33d 4178 16bc f98f c5bc c83b 6a3d
00000140: a9ef c93c 5842 3bba 4629 063e 0a75 1b3c
00000150: fae5 143d d4ec 0bbe 601d 27bc 1566 15bc
00000160: a3b9 a5bd a38d b13d 7806 ca3b 35fe a2bf
00000170: cd2f 08bb 2e44 303c d398 173e 7ea2 44be
00000180: 0edd c0be 9d09 313d f08e 93be 5eac 943d
00000190: b200 07be 531b e9bc f984 d4bd 6728 1fbd
000001a0: 6f53 ddbc b43b 0a3e 0ed7 16be 2299 9cbe
000001b0: be7e 3cbe 0782 35bd d290 1cbc 602d 59be
000001c0: 5da8 553c e73b 2a3e 97b6 6c3d 54bc 49be
000001d0: dc04 613d c26c 11bf dbfd 18bd de3c b53a
000001e0: 740f d13c c150 603c f93d 503d 1a46 7339
000001f0: 53b4 373c 307c 003e 9ebb 8dbd 60dc 07be
00000200: f00c fc3d 9a1e fdb9 feeb 2c3d 0948 65be
00000210: b6a8 84bd 130b 3c3e 666e cc3d 095a 6ebe
00000220: d8b1 57bd dde8 963d e8ac 51be ba23 2f3e
00000230: a8c6 89b9 df9a 033e 0692 20be 0f02 27bd
00000240: 3bd3 2b3d a6fa d63d 1faf 7ebd 87f3 ec3d
00000250: b8ed afbd 7e6e 913d 4b35 a9bc 9098 94be
00000260: 8c98 a33d ccde 06bd ac3b 243d ff20 293e
00000270: 5ea3 613d a479 e13d 747c 263e d31f 5a3d
00000280: 7c6e 1f3c 11a0 febd 40b8 8d3e c43a 8e3c
00000290: caa7 bf3d cac8 bdbc 5109 9b3c 862a 43bd
000002a0: 9ddf 313e c816 c7bd ad78 a7bd c1f7 01be
000002b0: 4789 8cbd b496 6abe 9353 953d 2aa1 1fbf
000002c0: 7d49 143e 227b f0bd a5b8 043d d94d f7bb
000002d0: edf8 b23d 55c8 d83d 2380 cc3d 83d0 133d
000002e0: af1f b9bc dbf1 16bd 207d d8bc 33e1 dbbb
000002f0: 04f6 40bd 34df 813d 3f4e 243a d0d4 6b3d
00000300: e52f 02bd ed03 6dbd 05e3 5ebe 298e f0bb
00000310: 8847 933d 5d87 773e 7571 1a3c 2947 90be
00000320: 673d 873d a5da 13bd 4e60 543d 8770 093d
00000330: bba4 c33e 6927 0a3e d477 f13d 3d87 36bd
00000340: 5f48 8a3d 0a17 9ebd bf67 903c f1d2 05be
00000350: 4817 07be 981b 6abe ff0c 813e e017 96bc
00000360: abf4 d9bd 5813 893e d471 e0bb 9e33 debd
00000370: b1a8 6f3e 01c0 77be 4ecd 1fbe 0b6d c43d
00000380: a28a 363e 8964 093e 19f1 d93d a4f1 05be
00000390: 0540 a4be 76b2 81be 0df2 8cbe 6df1 143c
000003a0: cf30 16be 5c46 013e d878 743e 13f8 ccbd
000003b0: 14c9 993c 5b03 bf3e 59bd c7bd 05e7 923d
000003c0: 11b9 413e f675 4b3e 500a 293a 6485 fdbc
000003d0: 84dd 50be dffa 733e 222f e53d 4d0c 103c
000003e0: 2c7a 8c3b 51df d33e 16ac bdbc 4654 473d
000003f0: bc1c c6bd 50e9 38be af3b a8bd fb61 efbe

l5.bias f4 [200]
0.08677483 0.14188047 -0.13334884 -0.046556804 0.056004446 -0.279823 -0.13772123 -0.035643026
-0.0533246 -0.001604085 -0.0036548025 0.014970731 0.047185186 -0.029371165 0.051933516 0.05049271
0.0022005117 0.12244733 -0.033151496 -0.026389338 0.0974461 0.08349216 0.05753537 0.0028788936
0.08631356 -0.12954096 -0.019345073 -0.044488557 -0.10401305 -0.055340506 -0.06314564 -0.04169258
-0.08306501 -0.06314045 -0.009481513 -0.037025318 -0.05631197 -0.012890263 0.13323249 0.030325774
0.05168097 -0.081674345 -0.12132713 0.1007874 0.018398598 0.06733996 0.072190255 -0.18505499
-0.1111036 -0.04944133 0.05283897 0.075715095 0.03991951 0.044242963 -0.033702843 0.028296396
0.075726874 0.066925265 -0.070100605 -0.011087401 -0.06315639 0.024119237 0.07648151 0.062449798
-0.024690093 -0.03723853 0.09729182 -0.018964589 -0.07138451 -0.07013017 -0.022614654 -0.002207579
-0.03720922 0.009829367 0.10045683 0.039752483 -0.060532015 -0.18691133 0.035516012 -0.032941252
-0.020119417 -0.084253184 0.0010518146 -0.10411803 -0.026849926 -0.01118146 -0.057642948 -0.04284128
-0.04279316 -0.043185357 0.063164055 -0.0345612 -0.028634792 0.004977153 0.054371927 -0.08811229
-0.00612273 0.056199647 0.058272254 0.03910249 0.06399873 0.043491863 0.069004275 0.04707996
-0.0848574 -0.067492604 0.055926625 -0.12166484 0.10909459 -0.017831385 0.09049242 -0.04417318
0.10271786 0.0690446 0.07154756 0.09273676 0.12792301 0.048494 0.05891663 -0.16770217
-0.04538885 0.08248362 -0.13732964 -0.044888087 0.062282883 -0.09135171 -0.019879593 -0.0033998906
-0.10201352 0.06038844 -0.05778145 -0.06138955 -0.0012830305 -0.0034180814 -0.10089659 -0.05436227
0.049670022 0.022390729 0.07916005 -0.12912714 -0.060541667 -0.054040834 0.009693326 -0.07580254
-0.081298925 0.0007776889 0.08494168 -0.24279971 0.044688076 0.09043131 0.01889376 0.062212113
-0.008204807 -0.025082834 0.16406828 0.08092176 0.10615685 -0.0030052443 0.026238313 -0.055494912
0.093142845 0.09322682 0.10532805 0.1473954 -0.06663092 0.01252179 -0.097699836 0.0026867331
0.057630707 -0.049084365 -0.11710373 -0.0059257317 -0.04127833 -0.021680785 0.030399445 -0.039255753
-0.16072655 -0.03366009 0.011400188 -0.056466144 0.056770578 0.046124585 0.0060958783 -0.083678626
0.17939793 0.03074795 -0.04823574 -0.14140949 -0.06818086 -0.09921186 0.03884108 -0.063552
0.069608584 0.0014769417 -0.080967695 -0.023347577 0.1469556 0.03512192 0.04483008 0.03416105
00000000: 01b7 b13d 1d49 113e 998c 08be 59b2 3ebd
00000010: eb64 653d f644 8fbe cb06 0dbe 6cfe 11bd
00000020: e56a 5abd 2940 d2ba 6985 6fbb cc47 753c
00000030: 4145 413d cc9b f0bc 3db8 543d 72d1 4e3d
00000040: 7636 103b aac5 fa3d ddc9 07bd 742e d8bc
00000050: d291 c73d f0fd aa3d 35aa 6b3d d2ab 3c3b
00000060: 2ac5 b03d 63a6 04be 8f79 9ebc a239 36bd
00000070: cb04 d5bd baac 62bd 8052 81bd d7c5 2abd
00000080: fd1d aabd c84f 81bd 5958 1bbc dca7 17bd
00000090: 61a7 66bd af31 53bc 196e 083e c26d f83c
000000a0: 6daf 533d e144 a7bd 5c7a f8bd a069 ce3d
000000b0: a8b8 963c 88e9 893d 7cd8 933d 0e7f 3dbe
000000c0: 498a e3bd fe82 4abd ad6d 583d 8410 9b3d
000000d0: a482 233d 1c38 353d fe0b 0abd d8cd e73c
000000e0: b116 9b3d 1d10 893d e890 8fbd eea7 35bc
000000f0: 2358 81bd b595 c53c 57a2 9c3d 5ccb 7f3d
00000100: e142 cabc 6e87 18bd ef40 c73d a05b 9bbc
00000110: 0b32 92bd 68a0 8fbd 5e42 b9bc 08ad 10bb
00000120: b268 18bd 5a0b 213c 4fbc cd3d 80d3 223d
00000130: 6bf0 77bd af65 3fbe 3d79 113d 68ed 06bd
00000140: 7ad1 a4bc ef8c acbd 0bdd 893a d53b d5bd
00000150: 60f4 dbbc 7132 37bc 031b 6cbd 577a 2fbd
00000160: e147 2fbd 21e3 30bd 285c 813d 0b90 0dbd
00000170: 8393 eabc 6317 a33b 19b5 5e3d 3774 b4bd
00000180: 2fa1 c8bb 9a31 663d e3ae 6e3d ef29 203d
00000190: c411 833d 8624 323d 1d52 8d3d ebd6 403d
000001a0: b7c9 adbd 9039 8abd 5113 653d 6a2b f9bd
000001b0: fc6c df3d 2013 92bc 1754 b93d f0ee 34bd
000001c0: be5d d23d 4167 8d3d 8787 923d c5ec bd3d
000001d0: 40fe 023e a5a1 463d 9052 713d 1eba 2bbe
000001e0: a9e9 39bd 2ced a83d 24a0 0cbe 92dc 37bd
000001f0: 561c 7f3d 9b16 bbbd 87da a2bc b3d0 5ebb
00000200: 77ec d0bd de59 773d 3eac 6cbd 9c73 7bbd
00000210: 5c2b a8ba e401 60bb dfa2 cebd f9aa 5ebd
00000220: cb72 4b3d c36c b73c aa1e a23d e839 04be
00000230: 8afa 77bd ec59 5dbd c2d0 1e3c 5d3e 9bbd
00000240: 0d80 a6bd d2dd 4b3a e7f5 ad3d 7da0 78be
00000250: d80a 373d 0d34 b93d 16c7 9a3c 21d2 7e3d
00000260: 746d 06bc 847a cdbc 8401 283e 4fba a53d
00000270: c368 d93d a2f3 44bb bbf1 d63c a24e 63bd
00000280: adc1 be3d b4ed be3d 3cb6 d73d d2ee 163e
00000290: cb75 88bd 3228 4d3c da16 c8bd e713 303b
000002a0: 2d0e 6c3d b00c 49bd 15d4 efbd a42c c2bb
000002b0: 7713 29bd e79b b1bc 4208 f93c a4ca 20bd
000002c0: 8095 24be 2adf 09bd dbc7 3a3c 0b49 67bd
000002d0: 4488 683d 22ed 3c3d efbf c73b b35f abbd
000002e0: 17b4 373e 20e3 fb3c d792 45bd a6cd 10be
000002f0: 68a2 8bbd 962f cbbd d317 1f3d 8d27 82bd
00000300: f28e 8e3d f195 c13a 64d2 a5bd 6b43 bfbc
00000310: 877b 163e 01dc 0f3d bf9f 373d 75ec 0b3d
