HardcoreVersion_eval/ppo_q_critic1100.pth (torch, 373698 bytes, 10 tensors)

l1.weight f4 [200, 28]
00000000: 7556 b1be 9651 82be 3ee0 f3be 05d1 d63b
00000010: db75 4bbe 9a96 0abd 3c5d 12be 3e11 613d
00000020: d905 053e 7b91 3ebe 3a6a 2d3d 40cb 82be
00000030: 0cf5 d13d 0bd1 c0bc 8087 12bc d18d 83bd
00000040: 237f 183e 2190 893d 7541 353e 6214 95bd
00000050: 1a5b 4f3e 93ca 253e 8711 80bd 2f31 33be
00000060: 4552 113e b0f3 873d 47af 93bd 79d9 f63d
00000070: 7b9a 8b3e 0e95 d83e 9a2d b2be 84d4 f8be
00000080: 940b ec3c 08b2 b63c 0761 563d 1c23 aebc
00000090: fb7b 413c f505 acbd 05a8 87be c74f 96bd
000000a0: 0774 0abd 5ed6 b43e b97a de3d de72 453c
000000b0: 2ca3 36be d586 a0be 7878 2dbd f619 743d
000000c0: 6e1c f63d d9d0 26be fe0f 51bd 7db3 a9bc
000000d0: efaa 0dbd 8162 dcbb c074 ffbd 1f4d 803b
000000e0: 678e a0bd 4d73 f4bf ba7a 2ebe 9d3c 9e3e
000000f0: eb97 e43d 49b6 ffbc 7a1a e3bd 9659 453d
00000100: 0d44 ebbb 1d60 adbb c8bd a0be eb91 283e
00000110: 9804 ad3e f8a0 d53d bdd3 c2bd db16 09be
00000120: 88ca 153e 1107 cabd 663f c23d e511 6bbc
00000130: df5d aabd a72e 18be 7280 823c 35f0 233d
00000140: 64d4 49bd a79e 183d 7247 f7bd eaca a03e
00000150: d98c 90bc 202b 00bf 909f c03e 33d0 0d3e
00000160: bf5e 36bd 931e c53d 3a19 f4bd 5ef0 fbbd
00000170: cc1f 0a3d f61f 293e 52ee 66be 6a98 c93d
00000180: 9827 2bbd 1781 53bd 013f b73d 68ba 973d
00000190: 4c25 3f3e 0401 313e 2cec 01bd 3655 2e3e
000001a0: 915c 2d3e a4fa 95bc 0d6e 213e ae01 013d
000001b0: 3560 853d 0de0 8c3c d555 08be 6027 a43d
000001c0: dd46 05be 31b7 4fbf 5119 30be 850c 133e
000001d0: d11f d43b d1af 07be eb55 a93d 22d7 3e3d
000001e0: 993a 14bd c4c3 5abe b48f b2be 7c0d cb3e
000001f0: 5660 c73d b1e5 49bd 6892 e4bd 7131 80bd
00000200: b4c3 303e 7d4d 2c3d 1720 883e c4c8 c33d
00000210: c9e1 78bb 241a 07be 8f3c 993d 7f55 f93d
00000220: 036e acbd 2c9a b1bc d2a6 c2be bbb9 973e
00000230: d686 3fbd e9a4 15bf 77a3 ca3e d75b 6fbf
00000240: 099e d83d 5f16 bc3d d5ba cb3d 0142 923c
00000250: 1ba6 c0bd e467 e33e 71ea 26be bfe1 863e
00000260: 0dbd 9e3d ae62 9fbd 4635 32be 794f d2be
00000270: 7cbb 80be 2d36 503e 628f e9bd df70 743c
00000280: 72f7 5f3e c325 44be 214a 1d3d a9a7 3abd
00000290: b74f 213d 697e cc3d 2ea4 35be de78 cb3d
000002a0: 3044 b03e da22 f9bc a3bd 4fbf dfab bebe
000002b0: 7791 db3d b32c c0bd 3a58 de3c 18b9 19bd
000002c0: 4d89 babe 58c0 a1bc f6e1 b83d 4ab8 0a3e
000002d0: 6030 f53c 4ccc 07bd b2b4 a13e 168f aa3d
000002e0: 06e1 b2be 488d 14bf 679e 67be 624f b23e
000002f0: 0857 e63e c36b 8a3e dcfd 91bd 2e55 593c
00000300: ad8b d93c 7f25 8fbc 7008 aebb 6825 26bd
00000310: 0cdc df3d c12d ed3d 3558 91be fa21 a0bd
00000320: bc66 e73c 8c36 e13d 3ba1 b63d 6a43 8a3c
00000330: ccaf d3bd 50c5 05bd f3e1 4bbe 2977 6f3d
00000340: 0f8d 1bbe 2f4f 553d c0ae f7bc 97d6 02be
00000350: 7f6a 733c 337c 53be c190 a73d 5f13 47be
00000360: b512 17be ae3e 53be 309f 5abd 2099 4cbe
00000370: a97f ff3d ad74 bc3d c8fd 4bbd f8d9 283b
00000380: fe40 9538 8b06 aa3e 7603 7e3c 5d75 2fbf
00000390: 7ceb 4dbe e907 003e 9803 8dbe 0142 2d3c
000003a0: b604 353d ad87 06be 9d45 76bb eb9f 1ebd
000003b0: 0449 143c e1e0 d53d 0026 3abe 4239 91be
000003c0: deff a33d 4f5c 98bd dc09 013d 00c2 00bd
000003d0: 8ecd 9cbe 0781 4ebe 7fc3 5b3e f2c6 da3c
000003e0: 8961 8c3d 8ff4 92bd 0d12 b23c 5a7d a93b
000003f0: ad4c 1c3e 2946 ba3f 82c4 0bbe 1482 493f
-0.34636274 -0.2545287 -0.4763202 0.006555679 -0.19869177 -0.03383503 -0.14293379 0.054948084
0.12990512 -0.18610184 0.042337634 -0.25545692 0.10251817 -0.02353718 -0.0089434385 -0.06423534
0.14892249 0.067169435 0.17700751 -0.07279278 0.20249596 0.16190557 -0.06253343 -0.17499231
0.1419154 0.066382766 -0.07211166 0.12053198 0.27266297 0.4230122 -0.34800416 -0.48599637
0.028814115 0.022301689 0.052338626 -0.021256976 0.011809344 -0.08399574 -0.26495376 -0.07339435
-0.03380206 0.353198 0.10863251 0.012051312 -0.17835683 -0.3135287 -0.042351216 0.05959507
0.12017141 -0.16290607 -0.051040642 -0.02071547 -0.034586843 -0.00672561 -0.1247344 0.0039154436
-0.07839661 -1.9097687 -0.17039004 0.3090562 0.111617886 -0.03121485 -0.110890344 0.04818114
-0.007179743 -0.0052909986 -0.31394792 0.16461913 0.33792567 0.10431093 -0.09513042 -0.13387625
0.14628041 -0.09864629 0.094847485 -0.014347528 -0.08318686 -0.14861546 0.015930388 0.040024
-0.049274817 0.037260678 -0.12074174 0.3140481 -0.017645286 -0.50065804 0.37621737 0.13848953
-0.04452395 0.09624972 -0.11918874 -0.12301706 0.03372173 0.16516098 -0.2255185 0.09843524
-0.041785806 -0.05163678 0.08947564 0.07408601 0.18666571 0.17285544 -0.03171937 0.17024693
0.16929843 -0.018307991 0.15764637 0.031495742 0.06512491 0.01719668 -0.13313992 0.08015323
-0.13015313 -0.811389 -0.17197157 0.14360245 0.0064735194 -0.13250662 0.08268341 0.046591885
-0.036188696 -0.21363741 -0.34875262 0.39658725 0.097351715 -0.049291316 -0.11160737 -0.0625943
0.17262155 0.042066086 0.26586983 0.095597774 -0.0037976375 -0.13193566 0.07482254 0.1217451
-0.084194206 -0.02167996 -0.380179 0.2963389 -0.04675945 -0.5845476 0.3957784 -0.9349951
0.10577018 0.091839544 0.09947745 0.017853739 -0.09406682 0.444152 -0.1630037 0.26344106
0.07750902 -0.077824935 -0.17403135 -0.41076258 -0.2514304 0.20333166 -0.11404301 0.014919489
0.21871737 -0.1915503 0.038400773 -0.04557005 0.039382663 0.09985048 -0.17738411 0.09935163
0.34427023 -0.030412126 -0.8114874 -0.37240502 0.107211046 -0.09383526 0.02714168 -0.037530035
-0.36432877 -0.019745037 0.09027474 0.13546863 0.029930294 -0.033153817 0.31583172 0.08328073
-0.34937304 -0.5802808 -0.2261902 0.3482619 0.44988275 0.2703534 -0.07128498 0.013264937
0.02655586 -0.017473934 -0.0053110644 -0.040563017 0.109306425 0.115809925 -0.2838761 -0.078189805
0.02824723 0.10996732 0.08917471 0.016877849 -0.10336265 -0.032658875 -0.19910412 0.05846325
-0.15190528 0.05207747 -0.030234694 -0.12777172 0.014856934 -0.20652847 0.081819065 -0.19440983
-0.1475323 -0.20629379 -0.05337447 -0.19980288 0.12475521 0.09201942 -0.04980257 0.0025764685
7.1169794e-05 0.33208117 0.015503755 -0.6853846 -0.20109361 0.12503017 -0.27541804 0.010574819
0.044193946 -0.13137694 -0.0037578114 -0.03872673 0.009050611 0.10443283 -0.18178558 -0.28363997
0.08007787 -0.074394815 0.031503543 -0.031435013 -0.30625576 -0.20166408 0.21461295 0.026706193
0.06854541 -0.07175552 0.021737123 0.005172414 0.15263624 1.4552661 -0.1364918 0.7871411

l1.bias f4 [200]
00000000: a550 0b3e 9775 a93d 0cbf 76be fda9 12bd
00000010: 7327 1cbd 5bd5 733d 8060 dd3d 85ba 09be
00000020: b4e9 ad3e 4cad ddbd 189b 033e 3a2e 8b3c
00000030: 0af3 923d 2957 4cbe 3fa7 0c3e 4b5b 943e
00000040: 7dc9 6d3e 8762 15ba 3fd6 083e 1f7f ab3e
00000050: 1612 96bd f0f0 603d dac3 363d fafb ddbd
00000060: b666 dc3d aa84 143e 06d6 873e ea31 ac3d
00000070: c1a7 5c3c c682 7f3d 85c7 1e3e ddef a93d
00000080: 1c73 5139 dc62 8fbd 0d79 f5bd 027e 32be
00000090: 40c2 153e 70e0 653e 68f5 533e 7ba0 963d
000000a0: a3e1 933c 69b8 d9bd 774b 82bd 9139 53bd
000000b0: e7c4 abbc 1989 56be a1e9 e2bd 8f0c ab3e
000000c0: d032 213c 1848 f33d b69b d93d 98b4 6e3e
000000d0: b664 393e fc3e 7a3e 2982 9b3e 3e61 a5bd
000000e0: a97f f93d ab09 d83d 0a2d 18bd 0850 21bd
000000f0: 15dd 483e 74be 09bc 5c4f 2cbe 7d0e c13c
00000100: c9d7 94bd 8a84 8c3d a857 5dbe 740a fabd
00000110: b9bb 79bd bdeb e63d e258 ba3e 1ed7 bebd
00000120: 9bcd 563e 238e b13d aa6e 103e 767d b03c
00000130: c9e3 1ebe 9925 c9bd 9474 303e 907e 26be
00000140: 38fd 1d3c 8a84 113e 2f12 b5bd 176c 83bd
00000150: 9df7 1c3e 2e2f 4f3e 05ac 8bbd a817 11be
00000160: 3a16 753d 0457 433c ea41 f83d b4bf 3a3d
00000170: d856 ca3e 3b34 093e 089b c0bd 90d3 963d
00000180: 57c6 9e3d e227 0fbc eca0 663d 6939 963d
00000190: a730 3f3e 8fcd 003d 87d2 2cbe 8c12 0ebe
000001a0: a5da 1fbd ed80 4fbe 0bf5 3b3e a5b0 093d
000001b0: 886e a33d 03e8 313e 733f d33e f0be 853d
000001c0: e0a0 01be 9fef e93d 876f 523e f48f 7f3e
000001d0: bd5c 89bd 385b 09be 68b7 54be d7de 243e
000001e0: fb3d e0bd 0cda 14be 303c 6e3e 91ab c83e
000001f0: 77c9 b43d 5832 103e 1e31 96be 5330 463d
00000200: 9df7 74be 2c67 7dbe 2d28 ae3b 17c7 d93a
00000210: 4d16 a6bd 0835 8a3d b222 09bb 4a58 e43d
00000220: 265e 14bd 10a5 823d 941c bfbd 31b1 543d
00000230: 57bc 1abe 2753 09be 8452 003e 88f5 00bd
00000240: 230d fa3c d46a d4bd 3d20 94bd ede2 1dbe
00000250: 6100 243e 9745 8f3d a6cc 663e 9189 b0bd
00000260: 54d9 1f3d e45b edbc 6c38 0d3e 15ac e33d
00000270: 597d c03e 1d04 3e3e 18a8 363e 6a08 21bd
00000280: 8efd c43c 0b80 063e 58f5 47bc 0445 46be
00000290: edf3 26be 535d 333e c1ee 5c3e ce51 473e
000002a0: f60f a63d 905a 6c3e c7f9 1bbe daef d9bd
000002b0: 41b5 9c3d 62a7 423e bf3f 7dbe e727 6cbe
000002c0: 894d 1f3d ea7e e6bd dac7 02be 9629 69be
000002d0: d316 ecbc a035 b03d 101a ebbd 7727 263e
000002e0: 84ac 393d a052 f3bc 5fac cc3c c8d3 8c3e
000002f0: 7db6 af3e 8989 42be f15e faba c0e0 123e
00000300: e3b2 5d3e b0ad db3d 3e7f 97bd a678 ad3d
00000310: d634 d6bb 92f1 953e e79d cebb 949d 873d
0.13604982 0.082743816 -0.24096316 -0.035806645 -0.03812356 0.059529644 0.108094215 -0.13450058
0.33967364 -0.108240694 0.12852132 0.016989816 0.07175262 -0.19955124 0.13735674 0.289759
0.23221393 -0.00056985806 0.13362978 0.33495423 -0.07327668 0.054917276 0.044620372 -0.10839076
0.10761778 0.14503732 0.26530474 0.08407958 0.01346773 0.062380575 0.15505798 0.082977034
0.00019974675 -0.07001278 -0.11985979 -0.1743088 0.14624882 0.22448897 0.20699084 0.07354828
0.018051928 -0.106308766 -0.0636205 -0.05156857 -0.020967914 -0.20950736 -0.110797174 0.3340802
0.009838775 0.11878985 0.10625403 0.23311079 0.18104824 0.24438089 0.30372742 -0.08075188
0.12182552 0.10548719 -0.037152328 -0.039382964 0.19615586 -0.008407224 -0.16827148 0.023566479
-0.0726772 0.06861217 -0.2161547 -0.12209025 -0.060970042 0.11275432 0.36395937 -0.09318374
0.2097687 0.086696886 0.14104715 0.0215442 -0.1551658 -0.09821624 0.17231971 -0.16259217
0.009642892 0.14210716 -0.08841359 -0.06417101 0.15328832 0.20232841 -0.068199195 -0.1416918
0.05983565 0.011922602 0.12121947 0.04559298 0.39519382 0.1339883 -0.0940457 0.07364571
0.07752674 -0.008737536 0.05630581 0.07335169 0.18670903 0.031446036 -0.16877185 -0.13874263
-0.039026875 -0.20264025 0.18355195 0.033615727 0.079800665 0.17373662 0.41259345 0.06530559
-0.12659025 0.11422657 0.20550357 0.24957258 -0.067071415 -0.13413703 -0.20773089 0.16100632
-0.10949322 -0.14536303 0.23265147 0.39193395 0.08827489 0.14081705 -0.29334348 0.04838593
-0.23922582 -0.24746388 0.005314848 0.001661512 -0.08109722 0.06748396 -0.002092522 0.11149652
-0.0362226 0.063791394 -0.09331623 0.051926795 -0.15110908 -0.13410626 0.12531477 -0.031484157
0.030523842 -0.10371938 -0.072327115 -0.15418597 0.1601577 0.06995695 0.22539005 -0.08619989
0.03902562 -0.02897448 0.13791054 0.111168064 0.37595633 0.18556257 0.1783756 -0.039314665
0.024046686 0.13134782 -0.012204491 -0.19362265 -0.16303988 0.17516069 0.21575452 0.194648
0.08108513 0.23081422 -0.15232001 -0.10641451 0.07651759 0.19009164 -0.24731348 -0.23062097
0.038892303 -0.11254676 -0.1277155 -0.2276977 -0.028819477 0.08603978 -0.114795804 0.16225992
0.04533054 -0.029702485 0.024984537 0.27505326 0.34318915 -0.18997778 -0.0019101781 0.14343548
0.21650271 0.10726488 -0.073973164 0.084702775 -0.0065370603 0.29285866 -0.0063054445 0.066218525

l2.weight f4 [200, 200]
00000000: 51f5 2c3c 038f b83d 8849 20be e0d2 b2bd
00000010: c623 fbbc b895 3bbe 77d4 ce3d d765 7bbe
00000020: 8889 72bb 47a5 1b3e e94c 09bd c1b5 9a3d
00000030: dcef 413d ca06 d43c aea6 323d 9d2e 123e
00000040: 08b8 683e 7a34 41be 6f79 383e a59e fd3d
00000050: a175 fa3d 117d 1c3d 1100 b1bd 49a5 16be
00000060: c88d 5f3d 5ecb c43d bdfe 893c e142 e93d
00000070: ff21 033c 18a9 07bd 6725 503e d392 8bbe
00000080: 4621 883d 38f8 cb3d 5973 bc3d ca09 433c
00000090: 058a 8a3d 3c0c 713d a0ab 3b3e 04d3 ab3d
000000a0: 4ad9 fdbd 4356 d3ba acc7 653e 683b 6dbd
000000b0: 2587 f3be 99e7 5ebe 67d9 4f3d 4455 1e3e
000000c0: b4c4 5d3e fd17 fdbd fe94 1bbd 0bc3 ab3c
000000d0: 5951 0fbd 9f36 38bd e9a1 023e f883 d6bd
000000e0: 7398 aabd 8027 8f3c 23de 283d 20bd ec3d
000000f0: b481 ec3c 8b46 f9be 56d2 083e da91 d63b
00000100: 5f6d b4bd b476 5d3d 5dea 813b d2f4 513b
00000110: 92a3 cfba 2ae0 77bd 5d94 c83e 0a87 95bd
00000120: 1203 543d 8eda 94bd c3d7 893d 8fb4 053d
00000130: 8bb8 993c 39e4 da3d b73b b53c d814 33be
00000140: f73d 043e 0d6b cbbc 26c5 9fbe 5a96 4dbd
00000150: 43c3 16be 0c93 553d 7e0c 403e f605 e2bd
00000160: 4695 243d d8fc f2bc 4c8e 5a3a 2961 61bd
00000170: dfa7 e7bd 0166 6dbd 778d 443e eb2d 333e
00000180: 7beb c2bc baff a4bc beb4 27be d879 6c3d
00000190: f739 f93d a082 33be f926 31bd 9636 22bd
000001a0: 8dbe 8ebc be21 723e f6c8 97bd 67b7 be3d
000001b0: 889b 413e 4882 cbba dcb5 4c3e 2757 65bd
000001c0: 768d 21be 8d33 64bd 334d 9f3d 7139 a7bd
000001d0: 5fbc e23d fc3e 5a3e 4bc2 fbbd 92d3 1bbd
000001e0: 61db 8dbc 2c55 73be 5b93 69be 65cc 083c
000001f0: 12cd ea3d 0bb1 103e ac34 9d3d 29ac 9f3c
00000200: 7612 91bd a0bf 363e de66 123e e9fd 943d
00000210: 5187 a2bd e825 cb38 a47f 183e 4698 ddbc
00000220: 362e 85bd 4fcf 2d3d d005 0d3e c473 a1bc
00000230: 86ec 80be bb77 593e 45b5 01bd f118 b8bd
00000240: d3de cf3b deec f83d 745c ccbd 2591 7b3e
00000250: 53e0 b13d 99a7 6ebe cef3 42bd 35e7 22bd
00000260: babc 95bc 9997 4cbd a624 583d 950c 89bc
00000270: 295b 543b 0b73 a4ba ffc0 4b3d 755a cbbd
00000280: 5921 2fbe 1dd2 c1bd a9b1 373d 0a8d c5bd
00000290: f176 cfbc ebfe 043d 5df6 ce3d 503c ba3d
000002a0: f922 67ba 0a31 4d3e a8e0 b83d 8e51 903d
000002b0: 8806 b0bd 39f1 df3d b12c acbd 8be2 723d
000002c0: 7d04 153d 38ad 8c3d 2ded 15be a86b da3d
000002d0: 8fdf bcbd 41da 29bd f266 413e 45d8 1bbe
000002e0: c4d5 65bd 5908 9bbe 955d 703c 883c bc3d
000002f0: bc1e 9ebd 8294 cabc 25a4 a9bd a834 c6bb
00000300: 7281 f0bc 6586 323d 32e2 ef3d eebe 1d3b
00000310: 01f7 d03c b019 2c3e 4ca9 21be 621b e53d
00000320: 33da 7b3c dc68 35be 6b11 103e 2739 d33d
00000330: f24a 9f3c 785e cc3d 519a fdbd e8f9 b53e
00000340: f510 26be 4713 803e 9385 0ebd 542a 6b3d
00000350: 40f1 f4bd d7b2 2c3e 26c8 31bd 3993 bb3d
00000360: 7c12 7abd b7f8 953c 40ed 413e 53b5 663e
00000370: 5e7d c93d 6900 183d c3ac a93d 94c4 753c
00000380: 2964 38bd dd21 96bc 511a 373c c01c e23c
00000390: 1f3a 6bbd 05f4 8c3d 3f50 353c 4cd4 26bf
000003a0: feeb 37bd 2079 043d 0967 413e 9ad1 84bc
000003b0: 66f8 533c 4b22 b43d 0095 ad3d 34da 553d
000003c0: 26ef f8bb 97d7 273e b521 f5be 15b9 95be
000003d0: f819 9fbe dbe6 1fbd 6854 b03d 1328 babd
000003e0: e1ff 06be d51f 3b3d e245 c3bc 3c39 763d
000003f0: 35d3 71be 6d17 75bd bf5a c3be 19f7 05bd
0.010556535 0.09011652 -0.1565305 -0.087316275 -0.030656707 -0.18318832 0.10099118 -0.24550568
-0.0037008245 0.15199767 -0.033520613 0.07554198 0.04734789 0.025882144 0.04361599 0.14275594
0.22726452 -0.18867674 0.18015073 0.12383775 0.12229467 0.03820521 -0.08642591 -0.14711489
0.054578573 0.09609102 0.016845101 0.11389709 0.008003711 -0.033120245 0.20326768 -0.27260455
0.066469714 0.09959453 0.09201688 0.011904189 0.067646064 0.05884956 0.18327188 0.083898574
-0.1239496 -0.001612373 0.2243945 -0.057917982 -0.47564045 -0.21768035 0.05074444 0.15462214
0.21657068 -0.12358091 -0.037983887 0.020967027 -0.03498969 -0.044973966 0.12757076 -0.1047439
-0.08329859 0.01747489 0.04122747 0.1155951 0.028870441 -0.48686633 0.13361487 0.0065481486
-0.088099234 0.054068282 0.003964706 0.0032036793 -0.0015841594 -0.060516514 0.39175692 -0.07301147
0.05176074 -0.072682485 0.067306064 0.032642897 0.018764755 0.10688061 0.0221232 -0.1748842
0.12914263 -0.02483132 -0.312051 -0.050192215 -0.14722924 0.052142188 0.18754765 -0.11036293
0.04018142 -0.02966158 0.0008337244 -0.0550243 -0.11311316 -0.057958607 0.1919459 0.17497985
-0.023793926 -0.020141471 -0.16377541 0.057733387 0.12169259 -0.17530298 -0.043250058 -0.03960284
-0.017424846 0.23645684 -0.07411377 0.09312325 0.18906987 -0.0015526498 0.19991249 -0.055991318
-0.1577662 -0.055713225 0.077783965 -0.08165253 0.11071085 0.21313089 -0.12292918 -0.038043566
-0.017316522 -0.23762959 -0.22810118 0.008349513 0.11464895 0.14130037 0.07676062 0.019491272
-0.07083599 0.17846537 0.14297053 0.07274992 -0.07935966 9.686855e-05 0.14892441 -0.027050149
-0.06502955 0.042434033 0.13771749 -0.019708522 -0.25180453 0.2123708 -0.031667013 -0.08989132
0.0063437014 0.12154554 -0.099785715 0.24567087 0.086853646 -0.23306121 -0.04759579 -0.039771277
-0.018278468 -0.049949262 0.052769326 -0.016729632 0.0032402968 -0.0012546493 0.049744602 -0.09929363
-0.17102565 -0.09463904 0.044847164 -0.09646042 -0.02532527 0.03246967 0.10105584 0.09093535
-0.0008817162 0.20038238 0.09027225 0.07046805 -0.08594996 0.109346814 -0.08406962 0.05929808
0.036381233 0.06868976 -0.14641257 0.10665065 -0.09222328 -0.04146791 0.18886927 -0.15219219
-0.056112066 -0.30279806 0.014670749 0.09191233 -0.07720706 -0.024729017 -0.08283261 -0.0060487576
-0.0293586 0.0435852 0.11713065 0.0024070102 0.025508406 0.16806674 -0.15787238 0.111868635
0.015371847 -0.17715782 0.14069144 0.10313635 0.019444916 0.09978956 -0.12382949 0.35542226
-0.16217406 0.25014707 -0.034795355 0.057413414 -0.11960077 0.16865097 -0.043403767 0.0915894
-0.061052784 0.018307073 0.1893816 0.22530107 0.09838365 0.037109766 0.08284905 0.015000481
-0.045017395 -0.018326694 0.011175708 0.0276016 -0.057428475 0.068824805 0.011066495 -0.6516769
-0.044902794 0.032342076 0.18886961 -0.016213227 0.012937641 0.08795603 0.08475685 0.052210048
-0.007596868 0.16390835 -0.4787728 -0.2924277 -0.310745 -0.03903852 0.08609849 -0.09089675
-0.13183548 0.045684654 -0.023837034 0.060113177 -0.23615725 -0.059836794 -0.3815517 -0.032706354

l2.bias f4 [200]
00000000: 46d9 db3d fb2a 60bd 5928 29bd 0afe 133d
00000010: af59 1cbd 4621 7b3c 1fce a93d 1c04 bebc
00000020: 6db2 5dbd a4bc 54bd ee00 80bd 2a76 613d
00000030: a18f 2abb 8746 a1bd 5a48 923d 5780 edbc
00000040: 3873 1dbd 26e7 b4bd 03c8 b13c 65fa 563a
00000050: 1236 73bb f9a2 39bc f8cd 203d bbfb 313d
00000060: 1787 9c3c e52d 553c 8ac0 cc3c b963 efbc
00000070: b48d 01bd a8c7 c03d e540 dc3c b73f 223d
00000080: 0ce7 26bb a8a5 29bc 1078 4e3b 4978 c13c
00000090: 91eb 193c 73c5 3b3b 565d 4c3d 31f8 d3bc
000000a0: 0ac3 1abd 94c2 f13c 8abb a0bd b14a b0bb
000000b0: bc7a 92bd ccbd 4c3a d366 f2bb fd3c 76bc
000000c0: ed8e a23d 3812 ecbb 1c95 dbbc 8014 85bb
000000d0: 3d66 13bd c8bd 163d 1184 69bd 3e31 29bd
000000e0: 5d94 133c 7366 793c 8f05 83bb 2e0d 433c
000000f0: 5beb c73c 8b0c 1abd 47c9 8abd 6974 253d
00000100: 9072 423d c16e 30bd c465 1a3d b9a5 e4ba
00000110: 45c3 cb3b 2b05 9d3d 3f9c 2b3b df2d debd
00000120: 950d 2c3d 2435 2b3c a707 24bd 3094 4e3c
00000130: f8b5 1e3c 7c0b 0abd 1d9f a63b 2e50 da3c
00000140: 7445 04bd 35ce fbbb b164 d8bd 2e83 853d
00000150: 71d7 10bd c961 73bb 09f9 b33c 993b f2bc
00000160: 92b9 613c 898b 763d 72b4 58bd dd5c 123d
00000170: 09b4 c63b 3119 6abb 1dea f9bd 1ab1 1abc
00000180: 83ce 2cbd 1e6c 073d c229 a63d 34e4 963c
00000190: 726d 1f3d 881c 16bc 275f 3ebd 389c 1b3d
000001a0: 35f7 8e3d 2b5b a0bd aafe 80bd 41b8 023d
000001b0: 2000 85bd 5292 833d 6164 e53c 30b3 c9bc
000001c0: 2cf4 35bc 4486 043d e9ce 373c e01f 90bd
000001d0: 6353 febc 2706 0a3d 3f83 80bd 107b 343d
000001e0: 3b61 533c a213 1fbd 6e24 88bd 3975 e33d
000001f0: 6fac 55bd 8bff eabb 3092 5d3c 0fd5 023c
00000200: e4a3 0abd 3197 ab3b 4f1e 23bd 3bf9 413d
00000210: 4b23 34bc c255 e4bb 0430 883c 32b8 893d
00000220: 35ba 983b 88c0 ff3c 588a 1dbc a99a adbc
00000230: 338c 203d 1652 2cbc 055c 953d 222d 0dbe
00000240: db31 803c c07e a73c bc91 403d 30a5 f93c
00000250: e9c4 2fbd e9ea cf3d d1d6 ae3d 539d 5dbd
00000260: a606 62bd 9ca6 523d 03fa 96bd c83b 9ebd
00000270: cc40 b3bd 7cbf f03c a109 37bc 6e93 1c3c
00000280: f81d 7e3d bb58 7c3d 87ff 313a 1158 ce3c
00000290: 96bc d73c 2462 a93d 6da7 07bc 4fc9 a5bd
000002a0: 6847 7dbc a042 8ebb 59d8 c93c 9ac7 1abd
000002b0: 4591 9cbd 686b bfbc 4e4e 80bc b450 3f3c
000002c0: 36ee 453d 6289 9f3d 7801 afbd 6791 053d
000002d0: ee4e b03d 1d42 7c3b 3e7d 113d 47bf 51bd
000002e0: 0d1e 23bd cabe 13bd 1585 8c3d 4d9e 9ebb
000002f0: 4bae b03d e2b6 e93d ea4c 043c f247 6c3d
00000300: 235d 1ebc c48c b93c d068 e13d a25e e43c
00000310: 0ff7 283d 2efb ce3b 51df 563d 39fb 1bbc
0.10734801 -0.05472849 -0.041298244 0.036130942 -0.038171466 0.015327757 0.082912676 -0.023195319
-0.05412524 -0.051937714 -0.06250177 0.05504433 -0.002602555 -0.0787478 0.07142706 -0.028991861
-0.03843996 -0.088331506 0.021701818 0.0008200764 -0.0037111086 -0.01133036 0.039258927 0.04345296
0.019107385 0.01301143 0.024994154 -0.029222356 -0.03162928 0.094130814 0.026886413 0.039611544
-0.0025467305 -0.010354437 0.0031504668 0.023616927 0.009394542 0.0028651624 0.0498937 -0.025875183
-0.03778366 0.029511727 -0.0784827 -0.0053799977 -0.07152316 0.00078102644 -0.0073975115 -0.015029189
0.07937417 -0.0072043203 -0.0268045 -0.0040612817 -0.035986174 0.036802083 -0.057010714 -0.041306727
0.0090075405 0.01522218 -0.0039984654 0.011904998 0.024404218 -0.03760962 -0.06776672 0.04039422
0.047472537 -0.043074373 0.037694708 -0.0017444409 0.0062183463 0.07667001 0.002618566 -0.10848593
0.04200514 0.010449681 -0.04004636 0.012608573 0.009686939 -0.03370236 0.0050848857 0.02664956
-0.0322928 -0.007684494 -0.1056608 0.06519161 -0.03536171 -0.0037137142 0.021969335 -0.029569434
0.013777154 0.060191665 -0.05290646 0.035733093 0.0060639423 -0.0035720582 -0.12202857 -0.009441638
-0.042189132 0.033062093 0.081134334 0.018419363 0.038922735 -0.009162076 -0.046477463 0.03799078
0.06980745 -0.07829889 -0.06298573 0.031914 -0.064941645 0.06424393 0.028001966 -0.024621576
-0.011105578 0.03235461 0.011218765 -0.0703733 -0.031045621 0.033697274 -0.06275033 0.044062674
0.0129015995 -0.038837083 -0.066475734 0.11106343 -0.0521664 -0.0071715764 0.013523623 0.007985367
-0.033847705 0.0052365293 -0.039823826 0.047356825 -0.010994743 -0.006968231 0.016624458 0.067245856
0.0046608695 0.031219736 -0.009615503 -0.021191912 0.039196204 -0.010517618 0.07292942 -0.13786748
0.015648773 0.020446181 0.047013983 0.030474275 -0.042912398 0.101522274 0.08537067 -0.054105114
-0.05518212 0.051428422 -0.07371905 -0.07726246 -0.087525934 0.029388182 -0.011171729 0.009556634
0.0620403 0.061608057 0.00067900907 0.025188478 0.026335042 0.08270672 -0.0082796635 -0.08095037
-0.015458919 -0.0043414384 0.024639295 -0.03778801 -0.076448955 -0.023366645 -0.015662339 0.011676956
0.04832288 0.077898756 -0.08545202 0.03260937 0.08608805 0.0038491555 0.03551983 -0.051207807
-0.03982358 -0.036070623 0.06861321 -0.0048406483 0.08626994 0.11411835 0.008074978 0.0576858
-0.00966576 0.02265013 0.110063195 0.027877156 0.04125124 0.006316564 0.052459065 -0.009520345

l3.weight f4 [1, 200]
00000000: c364 06bf 4f73 b43e 78d3 59bf 011a 09bf
00000010: aa1a efbe a7cd febe 63e8 533e b1d2 9c3e
00000020: 0b8f fd3e 9618 4b3c 895b 23bf e0a4 c73e
00000030: 3c1f 16bf b951 8ebf 5349 10bf ff1c ea3e
00000040: 5f42 9c3e 396f 3cbf 7763 593f 86b2 24bf
00000050: aef5 d63e 0af6 ae3e e204 a4be 2fa0 15bf
00000060: bbe5 21bf ba82 1ebf 10c9 b83e bbc3 1e3f
00000070: 9fed dcbf 1902 2f3f 99c4 ac3e 3f6c 91bf
00000080: e81e 893e 3608 77bf 58b6 ae3e 0ae8 e03e
00000090: af7a 003f 61dc ee3e d5bd b03e 978d 653f
000000a0: d1c9 5dbf 7ecf 42bf 6e56 89bf 807d 973e
000000b0: 1ca4 883f 9c45 2cbf 8a21 33bf 80cd 8cbf
000000c0: 061c f5be 3a28 ac3e 9db9 703e 976c 5e3f
000000d0: f989 f83c 25ec 7fbf 5595 84bf 1cd3 dcbe
000000e0: 1db7 c03e 5605 273f 96ce fc3e 75b1 2d3f
000000f0: dd66 b3be 4447 5dbf d1ef e1be b4b9 ab3e
00000100: 7fe7 0bbf 4a10 5e3f 91b7 973f b5e0 b23e
00000110: 1a12 3b3f a920 753e 3cd6 14bf b566 1dbf
00000120: af29 cbbe 17e5 6e3f 9a78 b43e b279 acbe
00000130: 3183 ea3e 7c38 743f 1a18 f5bf ca5e f23e
00000140: 371d c2be 649c 19bf 167c 2fbf 6fd8 233f
00000150: 9d4e 2dbf 0d40 d0be 69e8 8abf 3396 b23e
00000160: 6e13 a7bf ba4f 043e 12d5 2a3d 8310 05bf
00000170: 6209 183c a3f9 52bf 0932 8e3f 1350 14bf
00000180: bd5b cd3e e1ef 803e 0d1d b03e 0be1 d9bf
00000190: f1e8 9f3e f4ba c23e 59df c13e 686d 27bf
000001a0: b574 833e 093d 34bf 6b15 dd3e f87b 58bf
000001b0: e175 f73e 202a 543f 83c3 443e 5ab7 333f
000001c0: e98d 2b3d 3d38 783f 6490 913e bde9 69bf
000001d0: 4133 53bf 6125 833e ad29 8a3e 796b 3a3e
000001e0: 9342 d63e 54f4 8e3e e2de ad3e 0f97 423f
000001f0: 8efa 6dbf 9d2f 93bf 22c0 1abf e8ad 4cbf
00000200: cba8 1a3f 6256 0f3d 07c3 9bbf c3ba 833e
00000210: 4ca9 20bf a49a 98bf 1447 0b3f 2745 1abf
00000220: ad8d 54bf 1891 433f 92e4 93be 16d5 913e
00000230: dfcc 30bf d98e f2be 912b b13f a7d0 bebf
00000240: 35df 76bf 1934 5abf 21cd 12bf 1bed 42bf
00000250: 8970 3abf f9e2 753f 0136 483e 4be7 67bf
00000260: 037d 313f 638d 84be 87fa 933e d491 4f3e
00000270: 3951 31bf 1951 90bf ee28 33bf 3045 07bf
00000280: e961 39bf 8c7e 4f3e 3a0d a53e c0a7 c63e
00000290: 5da1 c03e 2077 073e ea99 423e 38d7 5abf
000002a0: 82db 653f 389e da3e f271 853e ab19 80bf
000002b0: f316 5dbd 4c23 fbbe 76fa 2abf 2e2d d93e
000002c0: 9cbc 0dbf 5060 733e ee5f 9bbf 0d90 3cbf
000002d0: 5254 4e3e 077f 753f 98c2 623f 196e c5bb
000002e0: 9796 f3be ba0d edbe 413a 433e eced 603f
000002f0: 28b0 b2be 3543 673f 4cd7 d63e a200 443a
00000300: 3684 9bbf 298d cc3e 6c61 1fbf b9f1 243f
00000310: 9aa2 243f ad39 a83e 3531 6b3f 7f3a 1dbf
-0.524975 0.35244223 -0.850883 -0.53555304 -0.4670003 -0.49766275 0.20694117 0.30629495
0.49523196 0.012395998 -0.63811547 0.38992977 -0.5864141 -1.111869 -0.56361884 0.45725247
0.30519387 -0.7360721 0.84917396 -0.64334905 0.41984314 0.34172088 -0.32034975 -0.58447546
-0.63241166 -0.6191822 0.360909 0.6201741 -1.7260016 0.68362576 0.33743742 -1.1361159
0.26781392 -0.96496904 0.34123492 0.43927032 0.501872 0.4665251 0.3451983 0.89669174
-0.8663607 -0.7609786 -1.0729501 0.29587936 1.0675082 -0.67293715 -0.6997305 -1.1000214
-0.47872943 0.3362444 0.23508306 0.86884445 0.030339228 -0.999697 -1.0358073 -0.43129814
0.37639704 0.65242517 0.49376363 0.678489 -0.35039416 -0.8643687 -0.44128278 0.33540118
-0.5465011 0.86743605 1.1852895 0.34937063 0.73074496 0.2393824 -0.58139396 -0.61484843
-0.3968024 0.93318313 0.35248262 -0.33686596 0.45803216 0.9539869 -1.914798 0.47337943
-0.37912914 -0.6000426 -0.68548715 0.64002126 -0.6769808 -0.40673867 -1.0852176 0.34880218
-1.3052804 0.12921038 0.041707106 -0.5197832 0.009279581 -0.82412165 1.110902 -0.57934684
0.40109053 0.25183013 0.34397164 -1.7021803 0.31232408 0.3803326 0.37865713 -0.65401316
0.25674978 -0.7040563 0.43180403 -0.8456416 0.48332122 0.8287678 0.19215207 0.7020165
0.041883383 0.9696081 0.28430474 -0.9137228 -0.8250008 0.25614455 0.2698492 0.1820506
0.41847667 0.27920783 0.3395911 0.7601175 -0.9296044 -1.1498905 -0.6044942 -0.7995286
0.6041381 0.03499449 -1.2168893 0.25728425 -0.62758327 -1.1922193 0.5440533 -0.6026177
-0.8302868 0.7639327 -0.28885323 0.28482884 -0.6906261 -0.4737461 1.384142 -1.4907426
-0.96434337 -0.85235745 -0.5734425 -0.76143044 -0.72827965 0.9604946 0.19551851 -0.905873
0.6933138 -0.2588912 0.28902075 0.20270473 -0.6926456 -1.1274749 -0.6998433 -0.52839947
-0.72415024 0.20263118 0.32236654 0.38799858 0.3762311 0.13229036 0.19004026 -0.8548465
0.8978807 0.42698836 0.26063496 -1.0007833 -0.053976964 -0.49050367 -0.66788423 0.42417282
-0.5536592 0.23767209 -1.213865 -0.73657304 0.20149353 0.95896953 0.88578176 -0.0060250876
-0.47575828 -0.46299535 0.19065191 0.8786304 -0.34900022 0.90336925 0.41961133 0.0007476901
-1.2149723 0.39951447 -0.6225803 0.6443134 0.6431061 0.32856503 0.9187196 -0.6141738

l4.weight f4 [200, 28]
00000000: a5d7 96be 89a3 03c0 cad4 d7bd beea 1c3f
00000010: f97e 1cbe dcc8 b8be 6e7c a1be 7bda 40be
00000020: c000 d3bd 84e1 03be 93a9 54be 48b1 063d
00000030: b7d2 2dba d980 9ebb 39b7 5d3e 483a a63d
00000040: d4d0 13be 9cf5 d6bd 64d3 243e 8f77 43bd
00000050: a8b5 58bd 523b c73d f55f ca3d e2fb f0bd
00000060: 7224 a5bd 9f4e 1fbe 0cd7 d33d f426 de3d
00000070: 4356 b03e 2f3f 94be 82c3 b5bc 62c2 cabe
00000080: e323 85be f42f 813d 7d6a 9ebd a361 903d
00000090: e7c3 283c 26f1 0c3f 1ce5 11bd d915 203e
000000a0: 48d0 b03d 2d03 083e 0251 b8be 5daf 30be
000000b0: 21df 57be 79f6 4fbe ab45 22bd 6c87 97bd
000000c0: c23e 8d3e 6a42 173e a88d 143e 3d36 43be
000000d0: 60ff 2c3d 0e40 c83c 4358 61bd e61c ec3d
000000e0: aa74 aebe 5e01 f0bd 8a1e d2be e807 423b
000000f0: 397a ef3d 90a0 28be b560 133e a0e4 a33b
00000100: dc42 a5bd 5280 c33e a818 923e 15a6 773e
00000110: 8ae2 0b3e 616c 19be dc4a 8a3e 7cd2 c43d
00000120: 7f69 533e d124 3e3e dc0d a53d 59ec 483d
00000130: 4be9 6bbd d783 8d3e f0d1 0abd 5f8a d13d
00000140: f931 2abe 1691 1fbd 671f 223b bb8f 8b3d
00000150: ffc3 ab3e f869 b2be d755 d1bb bd63 05bf
00000160: 6685 dcbd 10de 4b3d 373d fe3d aedd 473e
00000170: a058 a2bd b695 a7bd 9bbd cbbb 8cac c93e
00000180: f254 b13e 92fa 103d 4bc3 13be e0f2 5cbe
00000190: 59af 8e3c 550a a23e a9ea b13d 6adb 073e
000001a0: bdaa 613d 46e1 063e 7e3f a2bc f8e5 21bd
000001b0: cb75 b5bc 5f6d 8bbc 157e 40bd f777 023c
000001c0: ee1d 073e 229b 46bf afd3 89be 17f0 523f
000001d0: c4dd 533d 3708 d73d 2abc 2b3e 144d 963d
000001e0: 8e61 09bd 27e8 9b3e 1e3a c83d 5813 3e3d
000001f0: 9fb3 a03d 416b b53d 1329 903e 1f38 5b3e
00000200: 3408 29be c328 02bf b03e 8abe e296 203e
00000210: 1795 f33e f076 223e 7547 60be cedc 04bd
00000220: 0db0 faba 6b50 99bc 3bda 853d 239f 0b3e
00000230: 211f 2abe bddb 0d3e 1497 08bf 5cc8 4e3e
00000240: ee06 033e dcfb b4bd 966b 1abe 8022 ab3a
00000250: 7637 ec3d ab59 5c3e 813f 143d b89f f7bd
00000260: fb12 bdba ce52 a73d 10af ab3d a914 0dbe
00000270: 5e74 e7bd 5a79 7dbd 5215 373e c4f9 a3bd
00000280: aa87 883e a7b8 853e f69a 6dbd f27e c7bc
00000290: 8189 903b cf5c 533d 5763 04bd 3343 f3bd
000002a0: 0669 4abe c64f 373f 8b97 66be 0b4b 033f
000002b0: 1408 9e3d 2093 053d 9ff2 973e b6dc ba3d
000002c0: 180d 523d 647c 3f3b 7270 4abe 2e39 b63d
000002d0: 02c0 873d 3042 a93d 47c6 f4bd 0353 5abd
000002e0: 13ae 0dbe 5b34 15be f35e 473c 4ec1 09be
000002f0: 172c 893e 8525 913e ecb8 fc3d 4ad0 313e
00000300: 8410 df3d 5d91 0a3e 0d64 8ebc 0d28 933d
00000310: d297 e7be 1059 5c3f 33c9 f33e e3f4 e2be
00000320: bb37 99be c8af 753d 9983 d3be 36be cfbb
00000330: 67f7 603e fc6c 4b3d 4a9b 133d a09d 193d
00000340: 0261 063b 19f5 86bd 3180 b2bc 166d b8be
00000350: c12f 32bd abfd 1b3d aeed 27bc bd8b 573e
00000360: 75ad a6bd 6a1f b7ba 57a3 8ebb fcbe 363c
00000370: ed82 db3c 20f5 573c 5da3 5b3c c99e 03bd
00000380: 758e aabe f820 55bf 6320 cf3e c691 ff3e
00000390: 5c0b a43c f257 74be 52b1 dcbc e4cf e0bd
000003a0: 5bbc 4f3d cd6f 9dbe 8ca8 bc3d b43a 3dbe
000003b0: 85b0 cd3c 16c5 afbd bd23 773e 0f5e dcbc
000003c0: 65b6 c9bc f3d2 b3bd 3578 74be 9845 663d
000003d0: 140b 273e ebb2 d73e 5c83 9c3d 137f 093e
000003e0: f5ea 04bd 95d9 4c3d 02a3 a03c 741f fcbc
000003f0: 17e7 bdbe 40d9 85be c188 243e 9e3c 3fbf
-0.294614 -2.0568564 -0.10538633 0.6129569 -0.15282811 -0.36090744 -0.31540245 -0.18833344
-0.103028774 -0.12878996 -0.20767812 0.032883912 -0.0006630825 -0.004837137 0.21651925 0.08116585
-0.1443513 -0.10496065 0.16096264 -0.04772144 -0.052907616 0.09728111 0.098815836 -0.11766793
-0.08063592 -0.15557335 0.10343751 0.108472735 0.34440812 -0.28954455 -0.022187952 -0.39601427
-0.26003942 0.063079745 -0.07735155 0.07049873 0.010300613 0.55055463 -0.035618886 0.15633334
0.086334765 0.13282461 -0.35999304 -0.17254396 -0.2108121 -0.20308866 -0.03961722 -0.073988765
0.27586943 0.14771429 0.14507163 -0.19063659 0.042235732 0.024444606 -0.055015814 0.115289494
-0.34073383 -0.11719011 -0.41038924 0.0029606763 0.11693234 -0.164675 0.1439236 0.0050016195
-0.08069393 0.38183838 0.28534436 0.24184449 0.13660637 -0.1498275 0.27010238 0.09610459
0.20645712 0.18568732 0.08059284 0.049053524 -0.057595532 0.27639648 -0.03389162 0.1023147
-0.16620626 -0.038956724 0.0024737956 0.06814524 0.3354797 -0.34846473 -0.0063884067 -0.52105314
-0.10767631 0.049772322 0.124140196 0.19518158 -0.0792706 -0.08182852 -0.006217671 0.39389455
0.3463512 0.035395212 -0.14429967 -0.21577024 0.017417597 0.31648508 0.08687336 0.13267294
0.05509447 0.13171872 -0.019805666 -0.039525956 -0.022150895 -0.017019926 -0.04699524 0.007963172
0.13195011 -0.77580464 -0.26919314 0.823976 0.051725164 0.10499614 0.16770998 0.0733892
-0.0335403 0.30450556 0.0977671 0.046405166 0.0784676 0.08858348 0.28156337 0.21408127
-0.16507035 -0.5084345 -0.27000952 0.15682557 0.47574684 0.15865684 -0.21902259 -0.03243714
-0.0019125954 -0.018715104 0.06535765 0.13634925 -0.16613437 0.13853355 -0.53355527 0.20193619
0.12795612 -0.08837101 -0.15080103 0.0013056546 0.11534016 0.2151858 0.036193375 -0.12091011
-0.0014425212 0.081700906 0.08383 -0.13777412 -0.11301492 -0.061883308 0.17879227 -0.080066234
0.26666003 0.2611744 -0.05800911 -0.024352524 0.004410923 0.05160218 -0.0323213 -0.118780516
-0.19766626 0.716061 -0.22518747 0.5128638 0.077163845 0.032611012 0.29677293 0.091241285
0.05128202 0.002921843 -0.19769457 0.08897625 0.066284195 0.082645774 -0.11951881 -0.053301822
-0.13835935 -0.14570753 0.012168634 -0.13452646 0.2679145 0.28348938 0.123399585 0.17364612
0.10891822 0.13532014 -0.017381692 0.071853735 -0.45233017 0.860734 0.4761444 -0.4432746
-0.2992533 0.05998209 -0.4131134 -0.0063398136 0.21969377 0.049664482 0.036036767 0.03750384
0.0020504599 -0.065897174 -0.021789642 -0.36020726 -0.043502573 0.038083714 -0.010249538 0.210494
-0.08138553 -0.0013971154 -0.0043529677 0.011153933 0.026795829 0.013181001 0.013405648 -0.03213385
-0.3331181 -0.8325343 0.40454397 0.49915904 0.020024948 -0.23861673 -0.026940022 -0.10977152
0.05071674 -0.3074936 0.09211835 -0.18479425 0.025108585 -0.08582513 0.24134727 -0.02690032
-0.024623105 -0.0878047 -0.2387398 0.056218714 0.1631282 0.4212869 0.07642242 0.13427381
-0.032450635 0.05001219 0.019608978 -0.030776717 -0.3709037 -0.2614231 0.16067792 -0.7470187

l4.bias f4 [200]
00000000: 5984 1a3e 79d0 38be dd70 06bd 1103 d63d
00000010: ff91 e23d 6f3c 0dbe 2b92 2b3d 3989 8abd
00000020: 96e1 c7bd fd14 65be 2efb b9bd db2a 4dbe
00000030: 9d70 073e edbf 58bd 0020 f1bd 2341 c13d
00000040: 7ab4 1d3e 90ad d8bd 2cf4 e43d 9ee7 113c
00000050: 53e5 703e ee0f d23d cd0f f83d 4891 d93c
00000060: 7a7c 763e 4c24 f3bd 069a 32bd 23fe 85bd
00000070: 1306 493e aaf5 bcbd dc73 2e3d cd61 64bd
00000080: e9cc 213e c28b 12be d397 2a3d 793f e33b
00000090: 40ce d9bc 2050 43be 3ed4 1f3e 068e 213e
000000a0: ccbc a93e 8058 6abe f7d4 ecbd 3ba1 71be
000000b0: 0211 bb3d dbb0 c13e 5328 2ebe 3a9e 0d3d
000000c0: ba30 743d dcbc 503e c02d 03bd 5bbe d93d
000000d0: ea71 f7bc a307 483e 6abb 1bbe dc3b 973e
000000e0: 35cb f03d c9b8 6f3e 5974 563d 709e 27bd
000000f0: d585 3b3e 5a6e d23d 8807 06be 34b7 9abd
00000100: 7455 943d e926 66be 95dd 823e bf57 cabc
00000110: 3857 2fbe 4d62 48be 88b5 cdbd ba8b e9bd
00000120: 8d19 c83d 1048 a5bc 6304 ddbc cbfe 853d
00000130: d154 893e a3c6 dc3d 7884 e23c 5f5c e6bd
00000140: e68d 36bb 19b5 82bd a8bf 263b 8d58 8cbd
00000150: 0a68 2b3e fc97 d4bd 7346 34bd 0f8e f83d
00000160: 2109 633d 0f22 8cbe 0f6e 453e 546c 133d
00000170: d236 063e b2ea acbd 9cc1 423e d792 09be
00000180: f8cd 99bd 9d56 0ebe 2e40 88be 6b4d 4fbe
00000190: 4ed4 1abe c219 743d ef11 0f3d ef49 e4bc
000001a0: 801f b4bb 9f9e 233e 7f61 bfbc 3f7a a9bd
000001b0: 956e 35be fa85 873d 2077 a3bd 6bc5 073d
000001c0: 3fda c03d 4900 2f3e cdbe 613e 9c89 b2bc
000001d0: 48b1 74be 1139 99bb 62b5 023e c222 c9bd
000001e0: fa72 5fbd 1a24 44bd cee5 983d e638 91bc
000001f0: 20cb c7bd 1e69 9dbd 2ada 01be 704c c13d
00000200: d106 3bbe 308c 773e 2a90 323e 388e 27bc
00000210: 0d1d 4a3e 7723 fcbd 2ff8 203e 29af 5cbe
00000220: f669 7cbb d764 7dbe 8b41 38be 2d4f a13e
00000230: 83d3 b4bc 9095 31be ff4d 75be 3f55 bfbd
00000240: 8204 55bd 8c8c 3dbc 0bdc e43c d17a 32be
00000250: 9c66 7b3e b8be cb3d 4f89 093d fd8a febd
00000260: af80 bf3d c60c 8ebe 2cce 59be 780c aabd
00000270: e4e9 203d ae44 663d 92d8 f13c bf89 b83e
00000280: 7beb ad3d b3b2 6bbe ad42 8cbc ce23 33be
00000290: a875 fe3b 047e 803c b051 8d3e 7f6d c6bd
000002a0: f4b2 8abd 3b3a 17be a6fa 5e3e 19cb b13d
000002b0: d33f 21bd a48d 37bd 221d 193d 4d33 0ebc
000002c0: 23f5 dbbc 08b9 2b3c 3460 77bd 9dbc 8a3d
000002d0: 36a5 9d3e a105 0dbc 7df9 483e 22d4 1b3e
000002e0: 111e 0f3d 476a e23d c3b3 09be c76b 1abe
000002f0: c31f 7b3d 9092 bcbd 9eaf 5a3e afcb d23d
00000300: 53eb 18be f63a ae3e 0ac5 32be d9a3 903a
00000310: 54cf adbc d231 8f3e 581a 7dbe d6c0 efbd
0.15089549 -0.18048276 -0.03282248 0.104498036 0.11063003 -0.13792585 0.041887444 -0.067644544
-0.09759824 -0.22371288 -0.09081112 -0.2003588 0.13226552 -0.05291741 -0.11773682 0.09436252
0.15400878 -0.105799794 0.111793846 0.0089053195 0.2352498 0.102569446 0.12112389 0.026558533
0.24070922 -0.118721575 -0.04360392 -0.06542613 0.19631223 -0.09226544 0.04259096 -0.055757333
0.15800823 -0.14311126 0.041648697 0.0069350568 -0.026587605 -0.19073534 0.15608308 0.15776834
0.33151853 -0.22885323 -0.11564057 -0.23596661 0.09134103 0.37830243 -0.1700757 0.034574725
0.05961678 0.20384544 -0.032026052 0.106320105 -0.030205686 0.19534163 -0.15208212 0.29537857
0.11757509 0.23410334 0.05235705 -0.040922582 0.18312772 0.10274954 -0.1308881 -0.075544745
0.072428614 -0.2247578 0.2555968 -0.024700044 -0.17123115 -0.19568749 -0.1004439 -0.11403604
0.097704984 -0.020175964 -0.02697963 0.065427385 0.26822522 0.107800744 0.027651057 -0.11248087
-0.0027855574 -0.06382198 0.0025443826 -0.06852827 0.16738907 -0.10380551 -0.044012498 0.121364705
0.055428628 -0.27369735 0.19280265 0.03599198 0.1310685 -0.08443202 0.19019169 -0.13434921
-0.075099885 -0.13900228 -0.26611465 -0.20244376 -0.1512005 0.059594877 0.034929212 -0.027867286
-0.005496919 0.15978478 -0.02336192 -0.0827527 -0.17717965 0.06617351 -0.07981706 0.033147257
0.09416627 0.17089953 0.22045441 -0.021794133 -0.23895752 -0.0046759923 0.12764505 -0.09821083
-0.05455301 -0.04788599 0.07465707 -0.017727327 -0.0975554 -0.07686065 -0.12680879 0.094384074
-0.18264319 0.24174571 0.17437807 -0.010226779 0.19737644 -0.12311452 0.15719675 -0.21551193
-0.0038515306 -0.24745499 -0.17993753 0.3150572 -0.022073513 -0.1734221 -0.23955534 -0.09342431
-0.052006252 -0.0115691535 0.027936956 -0.17429663 0.24550861 0.09948486 0.033578213 -0.12428854
0.09350716 -0.2774412 -0.21270055 -0.083031595 0.039285555 0.05621784 0.029522214 0.36042592
0.0849218 -0.23017387 -0.017121637 -0.17494127 0.0077654906 0.015685089 0.27601385 -0.096888535
-0.06772414 -0.14768307 0.21775302 0.08681316 -0.03936751 -0.044812813 0.0373813 -0.008679223
-0.026850289 0.010481127 -0.06039448 0.067742564 0.30790108 -0.008607299 0.19626422 0.15217641
0.034940783 0.11055427 -0.1344748 -0.15080176 0.061309587 -0.09207642 0.21356055 0.10292756
-0.14933519 0.3402936 -0.17457977 0.0011035159 -0.021217026 0.27967697 -0.2471708 -0.117067024

l5.weight f4 [200, 200]
00000000: c22b e13d d876 5bbe 14ed d83d 9d6d c13a
00000010: a876 18be fa8a 193e 909d bbbd cf96 823e
00000020: b296 1a3d e7dd 5dbd 5b56 b2bd 2275 6dbc
00000030: 1639 8e3d e48c b6bd 3e4d 863c 4242 4e3d
00000040: 43f0 193e cf15 51bf 4da0 913d 77de 87bc
00000050: 36b4 c53d de5c 48bd 713a 393c 00b7 ad3d
00000060: b695 fb3b 630d 07bf f688 15bb 5724 5c3d
00000070: 9763 d43c 05ef 33bd f48f 613d 2511 9ebd
00000080: b55c d83d 4106 25be acec ce3d d8ee bdbd
00000090: e152 8b3c c5c3 993e 7410 463d 6781 bb3d
000000a0: fd40 0dbb b729 b6bd c119 343c 0822 86bc
000000b0: af0f 333e 7620 d83b bc89 60bd 2481 983a
000000c0: db98 a4bd 7a72 17be 581f ca3d b4fe 083e
000000d0: f544 24bf c8e7 b0bc 15ac 7a3c 25e4 a2bc
000000e0: 82d9 57bd 0ac8 2f3e e342 bcbe 5c3d 13bd
000000f0: 6206 c53d b5bc 03be f4ca cb3d 0f96 cb3d
00000100: ff66 a7bd 3728 ab3c 6f3a f23d 3110 39be
00000110: 4ec8 a2bd 49c4 c43d 78e3 46bd c0a7 b2bc
00000120: 9804 193d 295d 603e f459 583d 8b56 913d
00000130: fa43 d33d c821 e4bc 8642 13bd 489a b63c
00000140: 95f6 83bb b981 63bd e550 283e 10bb 053c
00000150: e97d 043d 886c 7dbd e031 013b d868 4f3d
00000160: 2b77 7b3b fcf1 a83c 054a 063d 2d28 aabf
00000170: 132c 5cbe 6814 5b3c 6d62 f53d 976b 16be
00000180: 2625 b2be 8446 0d3d 82f6 94be 8245 c03d
00000190: 4c7c 1bbe f5bd 66bd 8ace 08be c8de 1ebd
000001a0: 6b3f 8ebc 1528 083e bb88 cbbd 430c 80be
000001b0: 097d 4abe 2d02 9cbd d771 fdbc 6ab8 a4be
000001c0: 1ba5 743c 5fce 3c3e 8188 883d 0e53 6abe
000001d0: eeae 7bbd cbd0 03bf 2be4 81bc 550e 9a3b
000001e0: c585 fd3d 636c 043c 4072 a03b e1d3 0ebc
000001f0: 1563 033c 5c4c e03d 0639 9ebd a9b8 02bd
00000200: ae85 bf3d 1aef aa3c 0f5b 483d c628 4b3e
00000210: e7e5 65bd eefc 3c3e dc2b cb3d f978 9cbe
00000220: 4936 91bc b3f4 573d 8731 50be 6732 063e
00000230: ef1a 0cbd 3849 303e d8fc d1bd 82eb 8bbc
00000240: 71ed ac3c 1920 ef3d e90a 72bd f38c 993d
00000250: f7db 16be 30ba 373d fe47 e4bb 4b3a 75be
00000260: 64fc a73d 37d2 4abe b1f5 7c3d 1afd ca3d
00000270: dc49 563d a054 dd3d 96fb 053e 0bd0 f73d
00000280: 59d9 95bc 1b0a 9ebd b084 a63e 4652 a73d
00000290: eb54 c03d db9b 363c ab15 533d 56ef 90bd
000002a0: 8d62 bf3d 6e43 813d b859 23be a406 013e
000002b0: cb40 cd3d 0721 28be 4e35 17bd 2c3f f0be
000002c0: 5bda 303e 2250 cdbd e960 8d3c adab 64bd
000002d0: b618 da3d a255 d93d f43a c73d 0569 bd3d
000002e0: 2043 30bd ab4e bebd 7a90 5fbd 3480 683d
000002f0: 9ace da3a 98d2 fc3d 3573 b1bd 1745 2e3d
00000300: fac4 1b3d d42c 09bd 8125 4cbf 0516 ccbc
00000310: 6a5b 783d f70e 0e3e 15ec 22bc 62a1 84be
00000320: 3257 cd3d ff01 16be d632 e4bc ed2c c63c
00000330: cfbf 943e 2f40 9e3d 4184 c33d bb52 243d
00000340: 4a44 b53d 6de7 e4be 2310 b2bd 4e2d 54be
00000350: 903b 7dbe 50fe 27be 7f99 3c3e a132 2fbd
00000360: 646c 1fbd 71bb 313e 2116 953a 5ed5 d8bd
00000370: aa30 c63d 1080 ccbd 2d1d cbbd 086c 64bd
00000380: 9bba 1b3e 2d71 723e c16a 3f3e 355d bebd
00000390: be87 22be 4824 d3bd 77d2 4cbe 809f 683d
000003a0: 326d 58be 7d37 f53d d0cf 8d3d 6a43 4b3d
000003b0: 8bc8 383d ed8f a63e dca2 063d 9988 0c3d
000003c0: 9aea d33c 6955 ef3d 9cb8 5a3d 5a98 7f3d
000003d0: 12c0 10be 2dd5 bd3d 012a d1bd 3762 1bbc
000003e0: 843b b6bc 50bb c53d 51b2 893c 1304 633d
000003f0: 62cd 48be 6104 31be 97c3 0fbd d792 4bbd
0.10994674 -0.21432054 0.10592094 0.0014757399 -0.14889014 0.14994422 -0.09160912 0.25505683
0.03774137 -0.0541667 -0.08707877 -0.014493259 0.06944482 -0.089135915 0.016394254 0.050356157
0.15033059 -0.816739 0.07110653 -0.016585572 0.09653513 -0.04891669 0.011305437 0.0848217
0.007677759 -0.527548 -0.002281723 0.053745594 0.025926394 -0.04392912 0.055068925 -0.07718114
0.105645575 -0.16115667 0.10103735 -0.092740715 0.017007293 0.30032173 0.048355535 0.09155541
-0.0021553629 -0.08894675 0.010992468 -0.01637365 0.17486452 0.0065956665 -0.054818854 0.0011635167
-0.08036967 -0.14789763 0.098692596 0.13378412 -0.6416772 -0.021594897 0.015299817 -0.019884178
-0.052697666 0.17166153 -0.3676978 -0.03594719 0.09620358 -0.12864955 0.099508196 0.09940731
-0.08173942 0.0208932 0.118275516 -0.18072583 -0.07948361 0.09607751 -0.048556775 -0.021808505
0.037357897 0.21910538 0.05282016 0.07096585 0.103157 -0.02784814 -0.035952114 0.022290364
-0.0040271976 -0.055543635 0.16437109 0.008162275 0.03234664 -0.06187108 0.0019713566 0.050637096
0.003837059 0.0206232 0.032785434 -1.3293511 -0.21501188 0.013371564 0.11981664 -0.1468948
-0.34793967 0.034491077 -0.2909432 0.093882576 -0.15184134 -0.0563335 -0.13360038 -0.03878668
-0.017364224 0.1329654 -0.09938189 -0.25009355 -0.1977426 -0.076176025 -0.030938072 -0.32171947
0.014931942 0.184381 0.06666661 -0.22883245 -0.061446123 -0.5149047 -0.01585587 0.0047014155
0.1237903 0.008082482 0.004896432 -0.008717508 0.0080192285 0.109520644 -0.0772572 -0.031914387
0.09351669 0.020865966 0.048914965 0.19839773 -0.056127455 0.1845586 0.09920475 -0.30561045
-0.01772608 0.052723598 -0.20331393 0.13105164 -0.034205373 0.1721543 -0.10253304 -0.017080072
0.021109315 0.11676044 -0.059092436 0.07497587 -0.14732347 0.044855297 -0.00696659 -0.23948018
0.082024366 -0.19806753 0.061757747 0.099115565 0.05231653 0.108071566 0.13084254 0.12100228
-0.018292116 -0.07716771 0.32523108 0.08169989 0.09391197 0.011145557 0.051534336 -0.070769
0.09344969 0.06311689 -0.15952194 0.1260019 0.10022124 -0.16418849 -0.03691607 -0.46923196
0.17270796 -0.1002505 0.017258124 -0.055827785 0.106492445 0.10612036 0.09728041 0.092485465
-0.043032765 -0.092923485 -0.054581143 0.05676289 0.0016693652 0.12344855 -0.08664552 0.042546358
0.03802965 -0.033490017 -0.79744726 -0.024912843 0.060634054 0.13872896 -0.009943982 -0.25904375
0.10026397 -0.14649199 -0.027856272 0.024191344 0.29052588 0.07727086 0.0954671 0.04011796
0.08850916 -0.44707814 -0.08694484 -0.20720407 -0.24729753 -0.16405606 0.18417929 -0.042772893
-0.03892173 0.1735666 0.0011374393 -0.105875716 0.09677251 -0.099853635 -0.09917674 -0.05576709
0.15207903 0.23675986 0.18693067 -0.092951216 -0.15872094 -0.103096545 -0.20002161 0.056792736
-0.21135405 0.11973474 0.06924403 0.049624838 0.045113128 0.32531682 0.03287016 0.034309957
0.025868703 0.116862126 0.053398713 0.062401153 -0.14135769 0.09269176 -0.1021309 -0.009483865
-0.022245176 0.09654868 0.01680866 0.055423807 -0.19609597 -0.17286827 -0.03509864 -0.049700584

l5.bias f4 [200]
00000000: c9c7 533d d6d9 413d fcaa 14bc 1012 9eba
00000010: e55c d93c e246 f7bd 2c94 dbbd 7ecf 70bd
00000020: eda5 0abd 9e94 343c 4d05 7f3b 5076 fc3c
00000030: f5c9 ac3b 827b 7dbc fc5d adbc c9c7 443d
00000040: cc93 8dbd 891d a73d 895b 0fbc 843b f53c
00000050: a264 433d ec6d b53d d87a a03d f1eb ac3c
00000060: 3802 ee3c 9859 d0bd ac2d 603c a3cd 02bd
00000070: 2b08 b2bd c9ec 9ebd e43f 2cbd 5b0f 6abc
00000080: ec31 c2bd a439 cebc 2dc7 60bd 1156 84bc
00000090: d52c 28bd b7c0 703c db9e 943d 3ae1 0cbc
000000a0: 7eb0 c63c 775e 59bd 30f8 aabd 13c0 803d
000000b0: d4cf c93c 8128 ac3c cf32 cb3d 345a 98bc
000000c0: c8b0 a5bd 8c85 42bc 5933 c43d 1c69 1b3d
000000d0: f2cc 923d 8acd 00bc 1b17 193c 3f38 613c
000000e0: 676a a33c dd33 1b3d 8518 38bd 9127 013d
000000f0: 193c d0bd d5e6 0cbd d2b1 513d fd2f fb3c
00000100: c87b e6bc ed07 babd fa3f d43b 089e a9ba
00000110: dea4 02bd 1d2e d5bd 9080 53bd 22c4 50bd
00000120: bd6b d7ba 8f41 d9bc f8c3 373d e29e cbbb
00000130: db47 dd3c 745c 0abe f3b7 433b 131c aabc
00000140: c76b 45bd dbc7 8dbd 11d5 2a3c 1683 ddbd
00000150: 5ad4 a53b c813 10bc 510f 41bc 33a0 c1bc
00000160: a583 6fbc 3f51 c9bc 2a46 3d3d baea 96bc
00000170: 3645 14bd eade 14bd 0537 a139 f2da db3c
00000180: ad42 4f3c ae41 633c 12fc 153d 287b 5a3d
00000190: ca68 943d f352 843d a5ad da3c 493a 2f3b
000001a0: 6e32 55bd 281f 3fbd ee11 4a3d 7043 33bd
000001b0: 378f b93d 707d 4a3b 5e27 c73c dc06 5bbd
000001c0: 1aba 8b3d a156 3d3c a600 c73c f1ff 463d
000001d0: e970 803d 4ffa 7abc a89d 8c3d 9956 15be
000001e0: 2fc7 7ebc b458 a13d 2e1a 44bd 7215 50bb
000001f0: 1256 a23c 1585 62bd d858 673c 3a7b bc3c
00000200: 406c 26bd d226 b73c b27b 3abd be90 8dbd
00000210: 0559 533c 0d54 e13c 7049 89bd 16df 65bd
00000220: 2d7e cd3c b70b 603d 6171 8e3c ab27 abbd
00000230: b7b8 96bd 4845 66bc c781 b5bc d690 24bd
00000240: 3a1e 75bd 5664 37bc 2fbc 773c f4c4 d1bd
00000250: f011 6d3d 72c0 1c3c 104c ebbc eeac a63d
00000260: 03dd e93c 79b4 22bd 3b06 073e 54e2 583d
00000270: 8ce9 2e3d e923 3fbd 8d2a 2b3d e7df 1abd
00000280: f13d 1c3d be89 133d 4f21 7e3d 25f6 8e3d
00000290: 6218 a2bc e640 60bd 8481 f8bd f0d2 54bd
000002a0: f10c 31bc 5b70 35bd 95cb 25bd 3f97 0f3d
000002b0: dd69 f4bc 491c 81bb 83a7 273c 62f8 80bd
000002c0: ca33 bbbd c0a1 0bbc 6bd8 c13c 8ebc 83bc
000002d0: c7f4 a63d 542f 9d3b 5fa2 9d3c 8d41 60bd
000002e0: 00c4 083e 0fa4 513d df46 bcbc c36d bbbd
000002f0: 8b61 cabd ddab 153c d317 1f3d a5d9 d3bc
00000300: ff52 4a3d dff4 83bd 8ae9 82bd 6b43 bfbc
00000310: fba1 b83d fa2b 5d3d 9c0c 493d d2fa 45bc
0.0517042 0.047326885 -0.009073969 -0.0012059826 0.026533553 -0.12074067 -0.10721621 -0.05879163
-0.033849645 0.011021761 0.0038913072 0.030818135 0.0052730986 -0.015471341 -0.02116298 0.048042092
-0.06912956 0.0815993 -0.008749851 0.029935606 0.047703393 0.088588566 0.078359306 0.0211086
0.029053792 -0.10173339 0.013682764 -0.03193439 -0.08692964 -0.07760007 -0.04205312 -0.014285888
-0.09482178 -0.02517397 -0.05487745 -0.01615432 -0.04105838 0.014694384 0.07256862 -0.00859862
0.02425408 -0.053068604 -0.08348119 0.06286635 0.024635233 0.021015408 0.099218 -0.0185977
-0.08090359 -0.01187266 0.09580106 0.037942037 0.071679965 -0.007861504 0.009343888 0.01374632
0.019948198 0.037891258 -0.04494526 0.031531874 -0.10167713 -0.034399826 0.051194973 0.030662531
-0.028135195 -0.09083543 0.006477353 -0.0012940774 -0.03189551 -0.10409186 -0.05163628 -0.050968297
-0.0016435307 -0.026520519 0.044864625 -0.0062140087 0.027011802 -0.1351183 0.002986428 -0.02076534
-0.048198488 -0.06922885 0.010426776 -0.10816018 0.0050607147 -0.008793779 -0.011783437 -0.02363596
-0.014618789 -0.024574874 0.04620949 -0.018422473 -0.036198817 -0.0363454 0.00030749306 0.0268378
0.012650174 0.01387064 0.036617346 0.053340107 0.072465494 0.06461134 0.026694128 0.0026737622
-0.052050047 -0.046660572 0.049333505 -0.043765485 0.09060519 0.003089752 0.024310764 -0.05347334
0.068226054 0.0115562985 0.024292301 0.04858393 0.06271536 -0.015318467 0.06866008 -0.14583816
-0.015550419 0.07878247 -0.04787653 -0.0031751064 0.019816432 -0.0553027 0.014120303 0.023007978
-0.04063058 0.022357378 -0.04552812 -0.06912373 0.012899642 0.027505899 -0.0670346 -0.056120954
0.02508458 0.054698672 0.017388048 -0.083571754 -0.0735945 -0.014054604 -0.02215661 -0.04017719
-0.05984328 -0.011193356 0.01512055 -0.10242644 0.057878435 0.009567367 -0.028722793 0.081384525
0.02854777 -0.039722893 0.1318597 0.05295022 0.042703196 -0.046665106 0.041788626 -0.037811186
0.03814501 0.036020033 0.062043484 0.06980542 -0.019787017 -0.054749392 -0.12134078 -0.05195898
-0.010806308 -0.044296604 -0.040477354 0.03505635 -0.029835636 -0.0039401394 0.010232809 -0.06297375
-0.09140737 -0.008522451 0.023662766 -0.01608112 0.08152156 0.0047969017 0.019242464 -0.054750014
0.13356018 0.05118185 -0.022983013 -0.09151795 -0.09881886 0.009135214 0.03884108 -0.025860617
0.049395557 -0.0644319 -0.063922 -0.023347577 0.0901527 0.053997017 0.04908429 -0.012083726
