HardcoreVersion_eval/ppo_q_critic1400.pth (torch, 373698 bytes, 10 tensors)

l1.weight f4 [200, 28]
0	0xbe964634	-0.29350436
1	0xbe911264	-0.28334343
2	0xbedfd499	-0.43716887
3	0xbd44eeee	-0.048079424
4	0xbe703e9b	-0.23461382
5	0xbc84ac72	-0.01619551
6	0xbe3a3af2	-0.18186548
7	0x3d5df161	0.054185275
8	0x3e03281b	0.12808268
9	0xbe40b4a1	-0.18818904
10	0x3cc17e04	0.02361966
11	0xbe9407f3	-0.28912315
12	0x3db9789a	0.09056206
13	0xbd81b087	-0.06332498
14	0xbd418f07	-0.047255542
15	0xbd577cb4	-0.05260916
16	0x3e5545ff	0.20827483
17	0x3d939268	0.07205659
18	0x3e5bd0f9	0.21466435
19	0xbdbe8afa	-0.093038514
20	0x3e3fb15f	0.18720005
21	0x3e281b73	0.16416721
22	0xbdbf63dc	-0.093452185
23	0xbe3f2560	-0.18666601
24	0x3df2ed25	0.11861638
25	0x3d795de6	0.060880564
26	0xbdb01f66	-0.08599739
27	0x3e00df64	0.12585217
28	0x3e84219d	0.25806895
29	0x3ecb97f5	0.39764372
30	0xbebd1074	-0.36926615
31	0xbef2d3e9	-0.474273
32	0x3ccc07bc	0.024906032
33	0x3d41229e	0.047152154
34	0x3d9bbf85	0.07604889
35	0xbaba04f9	-0.0014192156
36	0x397c90fe	0.00024086607
37	0xbd6d1888	-0.057884723
38	0xbe813df4	-0.2524258
39	0xbde1d8d0	-0.11027682
40	0xbc7d91b3	-0.015476632
41	0x3ec22871	0.3792148
42	0x3dfb37d3	0.12266507
43	0xbbe29ea0	-0.006915882
44	0xbe6d04c8	-0.23146355
45	0xbe9480af	-0.29004428
46	0xbca257c0	-0.019817233
47	0x3d972e01	0.073818214
48	0x3dff6929	0.124712296
49	0xbe250890	-0.16116548
50	0xbd62109a	-0.055191614
51	0xbd32b38d	-0.043628264
52	0xbc697a0f	-0.014250292
53	0x3be0b875	0.0068579265
54	0xbe05831b	-0.13038294
55	0x3c45f035	0.012081196
56	0x3d278b35	0.040904243
57	0xbff791de	-1.934139
58	0xbe8d5ee4	-0.27611458
59	0x3e94837e	0.2900657
60	0x3d629a4e	0.055322938
61	0xbdcc6aeb	-0.099813305
62	0xbd95bbcf	-0.07311212
63	0xbc3e9bd0	-0.011633828
64	0xbc362a69	-0.01111851
65	0x3db11277	0.086461
66	0xbec0794c	-0.37592542
67	0x3d1d000f	0.038330134
68	0x3ec554bc	0.3854121
69	0x3e11a53b	0.14223187
70	0xbd28160e	-0.041036658
71	0xbdc00c84	-0.09377387
72	0x3d8b4199	0.06799621
73	0xbe431dde	-0.19054362
74	0x3d1a5833	0.03768177
75	0x3c076805	0.008264546
76	0xbd83f2eb	-0.06442817
77	0xbe2c7d8e	-0.1684477
78	0xba425e71	-0.00074145856
79	0x3ba04160	0.004890606
80	0xbd344232	-0.04400844
81	0x3d112906	0.035439514
82	0xbdaa40cd	-0.08313141
83	0x3e811b6f	0.25216243
84	0xbc05a8c7	-0.008157915
85	0xbf0157a0	-0.5052433
86	0x3ec3bd7f	0.38230512
87	0x3dd8ab0f	0.10579502
88	0xbd52b2d8	-0.05144009
89	0x3d93304e	0.07186948
90	0xbdeac74a	-0.114637926
91	0xbdef612a	-0.116884544
92	0x3d02cfdf	0.031936523
93	0x3e242b94	0.16032249
94	0xbe676772	-0.22598055
95	0x3dc1fa09	0.094715185
96	0xbca78353	-0.020448362
97	0xbd590062	-0.05297888
98	0x3d8967ec	0.06709275
99	0x3d7f3f3b	0.06231616
100	0x3e44e2b7	0.1922711
101	0x3e26e840	0.16299534
102	0xbd238812	-0.03992469
103	0x3e35c8c1	0.17752363
104	0x3e1d2392	0.153456
105	0xbc9742bb	-0.018464437
106	0x3e2f4fa2	0.17120221
107	0x3d1e9306	0.03871443
108	0x3d8277d8	0.06370515
109	0x3d0dfd6f	0.03466552
110	0xbe04d11f	-0.12970398
111	0x3d87a47a	0.06623168
112	0xbe1a41db	-0.15064184
113	0xbf825ecd	-1.0185181
114	0xbdeee320	-0.116644144
115	0xbc976366	-0.018480014
116	0xbc6200b9	-0.013794118
117	0xbdc726da	-0.09724207
118	0x3dca6479	0.09882445
119	0xbcfd27e6	-0.030902814
120	0xbd43b4ca	-0.047779836
121	0xbe3c67fc	-0.18399042
122	0xbecb9ba0	-0.3976717
123	0x3ef4a186	0.47779483
124	0xbc34f1cc	-0.011043977
125	0xbda603d1	-0.08106197
126	0xbe3eb12e	-0.18622276
127	0xbdf930b6	-0.12167494
128	0x3e3f201e	0.18664595
129	0x3d62b800	0.055351257
130	0x3e94cf27	0.29064295
131	0x3e0bbcdb	0.13646261
132	0x3b94ffbe	0.0045470884
133	0xbe0d935d	-0.13825746
134	0x3d57c84a	0.052681245
135	0x3dbe0b01	0.092794426
136	0xbd5d29d3	-0.053994965
137	0x3d2a59fb	0.04158972
138	0xbebd3b08	-0.369591
139	0x3e901d5e	0.28147405
140	0xbdaf341b	-0.0855486
141	0xbf37507e	-0.71607196
142	0x3ecd1135	0.4005219
143	0xbf76fe87	-0.9648213
144	0x3cfdf05e	0.030998405
145	0x3d95b7a6	0.07310419
146	0x3dc96140	0.09833002
147	0x3d0f4d2d	0.03498571
148	0xbd9c8e11	-0.076442845
149	0x3efccbd3	0.49374256
150	0xbe38ea08	-0.18058026
151	0x3eb5e4f8	0.35526252
152	0x3cbe9143	0.023262626
153	0xbd5d9bfc	-0.054103836
154	0xbde92f84	-0.11386016
155	0xbf04fd59	-0.5194908
156	0xbec8df9b	-0.39233097
157	0x3e88af3b	0.2669619
158	0xbddd4226	-0.108036324
159	0x3bbff19c	0.0058576595
160	0x3e7c550c	0.24641818
161	0xbe3241d9	-0.17407931
162	0x3c2cfb22	0.010557922
163	0xbd3bba98	-0.045832247
164	0x3ca46505	0.020067701
165	0x3dc438eb	0.09581169
166	0xbe171679	-0.14754666
167	0x3d175902	0.03695012
168	0x3ec580ee	0.38574928
169	0xbcd95d4f	-0.02653375
170	0xbf3c190d	-0.73475724
171	0xbe50e822	-0.20401052
172	0x3e18772b	0.14889209
173	0xbdb9628f	-0.09052002
174	0xbb7bfd52	-0.0038450551
175	0xbc5e1c64	-0.013556574
176	0xbecac141	-0.39600566
177	0xbd06159f	-0.032735463
178	0x3d4f0453	0.050541233
179	0x3dd5bc7c	0.10436341
180	0x3c075a95	0.0082613425
181	0xbd184e5f	-0.037184115
182	0x3ec8a898	0.39191127
183	0x3de2f7f9	0.11082453
184	0xbeca5509	-0.39518002
185	0xbf23bcc1	-0.6395989
186	0xbe6944b3	-0.22780113
187	0x3ec4738e	0.3836941
188	0x3ee34c37	0.44394085
189	0x3e80fdfc	0.25193775
190	0xbdb89e50	-0.09014571
191	0x3d11ea39	0.035623763
192	0x3c187767	0.0093058115
193	0xbc91ae19	-0.017783212
194	0x3c1809dd	0.009279695
195	0xbd451764	-0.04811801
196	0x3ddfdc0c	0.109306425
197	0x3ded2dc1	0.115809925
198	0xbe915835	-0.2838761
199	0xbda021fa	-0.078189805
200	0x3ce766bc	0.02824723
201	0x3de1368c	0.10996732
202	0x3db6a13b	0.08917471
203	0x3c8a436a	0.016877849
204	0xbdd3afcc	-0.10336265
205	0xbd05c550	-0.032658875
206	0xbe4be1f3	-0.19910412
207	0x3d6f7729	0.05846325
208	0xbe1b8d0f	-0.15190528
209	0x3d554f2f	0.05207747
210	0xbcf7aec0	-0.030234694
211	0xbe02d697	-0.12777172
212	0x3c736a7f	0.014856934
213	0xbe537c33	-0.20652847
214	0x3da790c1	0.081819065
215	0xbe47135f	-0.19440983
216	0xbe1712b5	-0.1475323
217	0xbe533eae	-0.20629379
218	0xbd5a9f30	-0.05337447
219	0xbe4c9920	-0.19980288
220	0x3dff7fa9	0.12475521
221	0x3dbc74ad	0.09201942
222	0xbd4bfdc8	-0.04980257
223	0x3b28d9f8	0.0025764685
224	0x3e0414f0	0.12898612
225	0x3e458ae9	0.19291271
226	0x3dbdf9b2	0.09276141
227	0xbef7fd2c	-0.48435342
228	0xbe540ad7	-0.2070726
229	0x3dc81df3	0.09771337
230	0xbe822fb6	-0.25427026
231	0xbc067d97	-0.008208654
232	0x3d97d073	0.074128054
233	0xbdabca4a	-0.08388193
234	0xb87a1550	-5.9624494e-05
235	0x3ac64865	0.0015127776
236	0xba1188af	-0.00055516785
237	0x3df9b38a	0.121924475
238	0xbe2d25c6	-0.1690894
239	0xbe862149	-0.2619727
240	0x3d71f23d	0.059068907
241	0xbdb64aa7	-0.089009576
242	0x3cdc9d23	0.026930397
243	0xbd17ed82	-0.03709174
244	0xbeb163b3	-0.34646377
245	0xbe8ecf04	-0.27892315
246	0x3e58197c	0.21103472
247	0x3d51948a	0.05116705
248	0x3d859cfe	0.065240845
249	0xbd41af15	-0.04728611
250	0x3c34e031	0.0110397795
251	0xbce260b7	-0.027634008
252	0x3d9e9d19	0.07744808
253	0x3fc2f30e	1.5230424
254	0xbe3d2f83	-0.18475156
255	0x3f2ce495	0.6753629

l1.bias f4 [200]
0	0x3e14a99c	0.14517826
1	0x3db15ba8	0.0866006
2	0xbe942bdb	-0.2893971
3	0xbd79504a	-0.060867585
4	0xbd9602ba	-0.07324739
5	0x3d75a92b	0.059975784
6	0x3e18c96f	0.14920591
7	0xbe09ba85	-0.13450058
8	0x3ed1a8a9	0.4094899
9	0xbe05aba9	-0.13053764
10	0x3de6edc3	0.11275818
11	0xbc1b5769	-0.009481289
12	0x3da8cce2	0.08242203
13	0xbe6bd017	-0.23028599
14	0x3dec77d2	0.115462914
15	0x3e9fbfda	0.3120106
16	0x3e8507a6	0.25982398
17	0x3aae71fa	0.0013309114
18	0x3e464e7e	0.1936588
19	0x3ea7193d	0.32636443
20	0xbdde6d40	-0.108606815
21	0x3d89964d	0.06718121
22	0x3cbd185e	0.023082908
23	0xbded6b3c	-0.11592719
24	0x3dd1cfc4	0.10244706
25	0x3e1bedae	0.15227386
26	0x3eb778d1	0.35834363
27	0x3d768085	0.06018116
28	0x3bf762a1	0.0075495993
29	0x3d968774	0.073500544
30	0x3e33dfef	0.17565893
31	0x3deb2c02	0.11483003
32	0xbc5b11b5	-0.013370921
33	0xbdaa930d	-0.08328829
34	0xbe3dcc19	-0.18534888
35	0xbe2ccec6	-0.16875753
36	0x3e48062a	0.19533601
37	0x3e6115d6	0.21980986
38	0x3e7c82b4	0.24659234
39	0x3d5cedc1	0.053937677
40	0x3d4aeee9	0.04954425
41	0xbda0a506	-0.07843976
42	0xbd2c037c	-0.04199551
43	0xbd899f61	-0.06719852
44	0xbc9c7725	-0.019099781
45	0xbe6ff3e0	-0.23432875
46	0xbe0f9fb3	-0.14025764
47	0x3ec5dae0	0.3864355
48	0x3cf1ec32	0.029531572
49	0x3dbe59ea	0.092944935
50	0x3dc1620d	0.0944253
51	0x3e975798	0.29559016
52	0x3e4e5415	0.20149262
53	0x3e89a65a	0.2688473
54	0x3e9c3aae	0.3051352
55	0xbdd7a689	-0.10529811
56	0x3e07c7e6	0.13259849
57	0x3d9932bc	0.0748038
58	0xbc15bd43	-0.009139362
59	0xbc8028b7	-0.015644414
60	0x3e275614	0.1634143
61	0xba6651aa	-0.00087859726
62	0xbe369d7a	-0.1783351
63	0xbbc377ec	-0.0059652235
64	0xbdc8a31b	-0.09796735
65	0x3dadf2fa	0.0849361
66	0xbe804d74	-0.25059092
67	0xbe05a88d	-0.13052578
68	0xbd987ce2	-0.074456945
69	0x3d9a233d	0.075262524
70	0x3ed7901a	0.42102128
71	0xbdb1e5bc	-0.086863965
72	0x3e873b11	0.26412252
73	0x3d886a95	0.06660954
74	0x3e22f55c	0.1591391
75	0x3d460c3e	0.04835152
76	0xbe353689	-0.17696585
77	0xbde76b86	-0.11299805
78	0x3e36f8c1	0.1786833
79	0xbe47d5a6	-0.19515094
80	0x3cc4bdca	0.02401628
81	0x3e34ed40	0.17668629
82	0xbdece0bb	-0.115663014
83	0xbddd04c0	-0.107919216
84	0x3e26b0d0	0.16278386
85	0x3e693529	0.22774185
86	0xbd649df1	-0.055814687
87	0xbe187162	-0.14887002
88	0x3da61cff	0.08110999
89	0xbc36b4f6	-0.011151543
90	0x3dd82c5f	0.10555338
91	0x3cc721fa	0.024308193
92	0x3edc1cf7	0.42990848
93	0x3dcb09e2	0.09913994
94	0xbd9596cf	-0.07304155
95	0x3de8c98e	0.113665685
96	0x3daceb7b	0.08443352
97	0x3ccf6db9	0.025320875
98	0x3d5bbf41	0.05364919
99	0x3db899d8	0.09013718
100	0x3e3bbf8b	0.18334787
101	0x3bde8521	0.0067907725
102	0xbe3e05fa	-0.18556967
103	0xbe0f8e7f	-0.14019202
104	0xbd95b3c4	-0.07309678
105	0xbe6e1866	-0.23251495
106	0x3e5c8091	0.21533419
107	0x3c84ec75	0.016226033
108	0x3d90a49d	0.070626475
109	0x3e29c24e	0.16578028
110	0x3ee48057	0.44629166
111	0x3d72d9c0	0.059289694
112	0xbe0c281b	-0.13687174
113	0x3dc2ff5a	0.09521361
114	0x3e40bc84	0.18821913
115	0x3e884822	0.26617533
116	0xbdd509bb	-0.104022466
117	0xbdfaad74	-0.12240115
118	0xbe5650e7	-0.209293
119	0x3e248537	0.16066442
120	0xbe15c205	-0.14624794
121	0xbe51db37	-0.2049378
122	0x3e682d63	0.22673564
123	0x3edc654d	0.43046036
124	0x3df44467	0.11927109
125	0x3e1a2b4f	0.15055583
126	0xbeadfb23	-0.33980665
127	0x3dae1b75	0.08501331
128	0xbe94dcb2	-0.29074627
129	0xbe87aed2	-0.26500565
130	0x3c8017b1	0.015636297
131	0x3d51680c	0.051124617
132	0xbddc901f	-0.107696764
133	0x3dd6bed3	0.104856156
134	0xbbd51845	-0.0065031373
135	0x3dbdda78	0.09270185
136	0xbd838e54	-0.06423631
137	0x3d18bfa2	0.03729213
138	0xbdba5cdb	-0.09099742
139	0x3d6bc205	0.05755808
140	0xbe38d8ca	-0.18051448
141	0xbe11e446	-0.14247236
142	0x3e006caa	0.12541452
143	0xbd2c6f16	-0.042098127
144	0x3d15b085	0.036545295
145	0xbdb5403d	-0.08850143
146	0xbdd3606b	-0.10321125
147	0xbe131bfd	-0.14366145
148	0x3e2dceee	0.16973469
149	0x3da8c6dc	0.082410544
150	0x3e71a02e	0.2359626
151	0xbdf246fc	-0.118299454
152	0x3c8e9242	0.017403726
153	0xbd31edbd	-0.043439616
154	0x3e198b36	0.14994511
155	0x3da8f0b6	0.08249037
156	0x3ec5ae61	0.38609603
157	0x3e2fe536	0.17177281
158	0x3e1fc88d	0.15603848
159	0x39a66ddd	0.00031743842
160	0x3c97d94e	0.018536236
161	0x3df915f2	0.12162389
162	0xbd009de4	-0.031400576
163	0xbe61c36a	-0.22047201
164	0xbe2fc5fd	-0.1716537
165	0x3e462286	0.19349107
166	0x3e816495	0.2527205
167	0x3e848e40	0.25889778
168	0x3cff4310	0.031159908
169	0x3e805401	0.2506409
170	0xbe3a29db	-0.18180029
171	0xbdd48e38	-0.103786886
172	0x3daa7eb1	0.08324946
173	0x3e7963f2	0.24354532
174	0xbe9cff09	-0.30663326
175	0xbe7e227c	-0.24817842
176	0x3d094a1b	0.033517938
177	0xbe0997c5	-0.13436802
178	0xbe161b46	-0.14658841
179	0xbe8abe5e	-0.27098364
180	0xbd01c5dc	-0.031682834
181	0x3dc716ac	0.09721121
182	0xbdf797aa	-0.120894745
183	0x3e3d993e	0.18515489
184	0xbc226596	-0.009911915
185	0xbd77b23c	-0.060472712
186	0x3cbfd4a8	0.023416832
187	0x3e934d48	0.28769898
188	0x3ebfd94f	0.3747048
189	0xbe83b15c	-0.25721252
190	0xbbf70877	-0.007538851
191	0x3de626ab	0.11237844
192	0x3e68cd31	0.22734524
193	0x3dc08fbf	0.094024174
194	0xbd4d103d	-0.050064314
195	0x3dc2b73c	0.095076054
196	0xbd1cb8e8	-0.038262278
197	0x3eabec17	0.3357856
198	0xbcfa7ef8	-0.030578122
199	0x3ddaddf4	0.106868654

l2.weight f4 [200, 200]
0	0xbc01d2db	-0.007923807
1	0x3e436c48	0.19084275
2	0xbdfac8ec	-0.12245354
3	0xbdec5b29	-0.11540825
4	0xbdec5c7c	-0.115410775
5	0xbe5ce8c1	-0.21573164
6	0x3ca42e23	0.020041531
7	0xbe7b65d7	-0.24550568
8	0x3de9f82a	0.11424287
9	0x3e1fad98	0.15593565
10	0xbd9ff66e	-0.078106746
11	0x3d874d39	0.06606526
12	0x3db07119	0.08615322
13	0x3bd2362f	0.0064151506
14	0x3d727ccc	0.059201047
15	0x3e1682df	0.14698361
16	0x3e8f7c34	0.28024447
17	0xbe862b6a	-0.26204997
18	0x3e706369	0.23475422
19	0x3df78c1a	0.12087269
20	0x3e3212fb	0.17390053
21	0x3d2d0606	0.042242073
22	0xbdda6960	-0.1066463
23	0xbea245bd	-0.3169383
24	0xbca496ee	-0.0200915
25	0x3d80262a	0.06257279
26	0x3e3da793	0.18520956
27	0x3e1b96d0	0.15194249
28	0xbdb1bfcb	-0.0867916
29	0xbd41a413	-0.047275614
30	0x3e6894ac	0.22712964
31	0xbe8ba416	-0.27273625
32	0x3d82437e	0.06360529
33	0x3e129d18	0.14317739
34	0x3d390c03	0.04517747
35	0x3b81b3b1	0.0039581885
36	0x3daf46d1	0.08558429
37	0x3d7fe9f4	0.062478974
38	0x3e75b086	0.2399312
39	0x3bb483bb	0.0055088676
40	0xbdfe52cf	-0.12418138
41	0xbbaa419a	-0.0051958086
42	0x3e4d6cfd	0.20061107
43	0xbdb4994e	-0.08818303
44	0xbf110116	-0.5664228
45	0xbec14ed5	-0.37755457
46	0x3cb4e767	0.022082997
47	0x3e6216ed	0.22079058
48	0x3e59e591	0.21278979
49	0xbe2c7043	-0.168397
50	0xbd1f95e4	-0.038961306
51	0x3de01dde	0.10943197
52	0x3c103b55	0.008803208
53	0xbc0017ca	-0.007818172
54	0x3e4caa44	0.19986826
55	0xbde7cb10	-0.11318028
56	0xbdfb9f3e	-0.122862324
57	0x3c0e41fd	0.008682725
58	0x3daae67a	0.08344741
59	0x3e0ec6a8	0.13942969
60	0xbd850c5e	-0.064964995
61	0xbf018290	-0.5058985
62	0x3e172c3a	0.14762965
63	0x3ca6754a	0.0203196
64	0xbdc78d1e	-0.09743713
65	0xbbae19a2	-0.0053131143
66	0x3bc0a212	0.0058786953
67	0xbcc55343	-0.024087554
68	0x3a40e785	0.0007358718
69	0xbd832ca5	-0.06405
70	0x3edcee88	0.43150735
71	0xbe95c0ba	-0.292486
72	0x3d81f237	0.06345027
73	0xbd98f09a	-0.07467766
74	0x3d3d9c92	0.046291895
75	0xbcdb353e	-0.026758786
76	0x3bccda9a	0.0062516453
77	0x3da9f19a	0.08298035
78	0x3d86659b	0.065623485
79	0xbe3b859a	-0.18312684
80	0x3e331c2d	0.17491217
81	0xbbe17726	-0.0068806587
82	0xbec0a107	-0.37622854
83	0xbd9c55c3	-0.07633545
84	0xbd941a94	-0.07231632
85	0x3d9a4f7d	0.075346924
86	0x3e45b945	0.19308956
87	0xbe02224f	-0.127084
88	0x3d69145d	0.056904186
89	0xbdb2c87c	-0.087296456
90	0xbc64e7e8	-0.013971306
91	0xbd82c9c6	-0.063861415
92	0xbdf7ba1f	-0.12096047
93	0xbd4563c5	-0.04819085
94	0x3e34741c	0.17622417
95	0x3e294f3d	0.16534133
96	0x3c6ee17f	0.01458013
97	0xbd2cda4d	-0.042200375
98	0xbdf9fde3	-0.12206628
99	0x3dbbbc91	0.091668256
100	0x3e002d6f	0.12517332
101	0xbe4e1eb6	-0.20128903
102	0xbdcb9738	-0.09940952
103	0xbe3cc569	-0.18434681
104	0xbd1c568d	-0.03816848
105	0x3e45ab94	0.19303733
106	0xbe141d22	-0.14464238
107	0x3e7fa069	0.24963535
108	0x3e70e500	0.23524857
109	0xbb68f2ab	-0.0035545032
110	0x3e53799d	0.2065186
111	0xbd4ae784	-0.049537197
112	0xbe6767b7	-0.22598158
113	0x3c9d22af	0.019181577
114	0x3d811611	0.06303037
115	0xbdf18124	-0.1179221
116	0x3e2c517d	0.1682796
117	0x3e492b2f	0.1964538
118	0xbe3c843d	-0.1840982
119	0xbd472bc7	-0.048625734
120	0xbd8a4ac4	-0.06752542
121	0xbe971104	-0.2950517
122	0xbdd04992	-0.101702824
123	0x3d7e858f	0.06213909
124	0x3e0b0334	0.1357544
125	0x3e11df6b	0.14245383
126	0xbdf56383	-0.11981871
127	0x3c96d23f	0.0184108
128	0xbd828cba	-0.06374498
129	0x3e0a625b	0.13514082
130	0x3e166128	0.146855
131	0x3daa0349	0.08301408
132	0xbd664963	-0.05622233
133	0x3e080951	0.13284804
134	0x3e02381b	0.12716715
135	0xbcd2d552	-0.025736485
136	0xbe17e0a9	-0.14831795
137	0x3cffece0	0.03124088
138	0x3e28f54d	0.16499825
139	0xbcd8b1ad	-0.02645191
140	0xbed7017b	-0.41993317
141	0x3e554092	0.20825413
142	0x3d2a1c87	0.041531112
143	0xbe0dfbf2	-0.13865641
144	0x3d594382	0.053042896
145	0x3e280b0d	0.16410466
146	0xbe141093	-0.14459448
147	0x3e813c22	0.2524119
148	0x3dc390d9	0.09549112
149	0xbe6af7a1	-0.22946025
150	0xbc2e17a9	-0.010625758
151	0xbda5d83f	-0.08097886
152	0xbcc6481b	-0.024204304
153	0x3d827ed3	0.06371846
154	0x3d2bf8ae	0.041985206
155	0xbce9075a	-0.028445888
156	0xbd18e6ae	-0.03732937
157	0x3d29c77c	0.04145001
158	0x3d393de2	0.04522503
159	0xbd86dc29	-0.06584961
160	0xbe4555e8	-0.19271052
161	0xbe05d3e7	-0.13069116
162	0x3d8da222	0.0691569
163	0xbde07f60	-0.10961795
164	0x3b341ec4	0.0027484158
165	0x3db1c8b1	0.08680857
166	0x3e21ac02	0.15788272
167	0x3e5b4d53	0.21416216
168	0xbd61484e	-0.055000596
169	0x3e3d306a	0.184755
170	0x3e0aa98a	0.13541237
171	0x3d8f4abe	0.06996678
172	0xbd6b977d	-0.057517517
173	0x3e480d95	0.19536431
174	0xbdf8a54a	-0.121409014
175	0x3cf66bc3	0.030080682
176	0x3df39a35	0.11894647
177	0x3d00518b	0.031327765
178	0xbe5d2dab	-0.21599452
179	0x3e1c989c	0.15292591
180	0xbd94db29	-0.07268364
181	0x3c811c6f	0.015760629
182	0x3e68a496	0.22719035
183	0xbdca9d67	-0.09893303
184	0xbde13976	-0.10997288
185	0xbebdf60e	-0.37101787
186	0x3dd8c0e7	0.10583668
187	0x3e253e13	0.1613696
188	0x3d472fbb	0.048629504
189	0xbd4b2548	-0.0495961
190	0x3d92e189	0.07171924
191	0xbb4ee763	-0.0031571023
192	0x3d06cdc9	0.032911096
193	0x3ce9d004	0.028541572
194	0x3dbca835	0.092117704
195	0x3c83871d	0.016055638
196	0x3c8102f0	0.015748471
197	0x3e86ba89	0.2631419
198	0xbe1bc5cc	-0.15212172
199	0x3dfc454c	0.12317905
200	0x3d662f8f	0.0561977
201	0xbe5953f1	-0.21223427
202	0x3e07f889	0.13278402
203	0x3dd3e749	0.103468485
204	0x3dc6f4ba	0.09714647
205	0x3df36f92	0.11886515
206	0xbe47f640	-0.1952753
207	0x3eb5f9e8	0.35542226
208	0xbde0dc53	-0.109795235
209	0x3e89e24b	0.2693046
210	0xbc5b3495	-0.013379236
211	0x3d90bb78	0.07067007
212	0xbe30626d	-0.17225046
213	0x3e38600a	0.18005386
214	0xbd85000d	-0.0649415
215	0x3e96443f	0.29348943
216	0xbce71b1a	-0.028211165
217	0xbb09a190	-0.002100084
218	0x3e25940b	0.16169755
219	0x3e8f9bc6	0.28048533
220	0x3d628f92	0.0553127
221	0x3c4c0807	0.012453086
222	0x3da1c9db	0.07899829
223	0x3b5c9227	0.003365645
224	0xbd943342	-0.07236339
225	0x3b1ae615	0.0023635675
226	0x3cfdb548	0.03097023
227	0x3d909517	0.07059687
228	0xbccb3eaa	-0.024810154
229	0x3df160d4	0.117860466
230	0x3c9d2d0d	0.019186521
231	0xbf3d3802	-0.73913586
232	0xbd3d5d66	-0.04623165
233	0x3d201e38	0.03909132
234	0x3e6efc73	0.23338489
235	0x3b05ccff	0.0020416377
236	0x3b4e81e3	0.0031510524
237	0x3dbe7e31	0.09301413
238	0x3db36bc3	0.08760788
239	0x3de1658a	0.11005695
240	0xbc24bb33	-0.010054397
241	0x3e259679	0.16170682
242	0xbf0404e6	-0.51569974
243	0xbe91c931	-0.2847381
244	0xbe6faeed	-0.23406573
245	0xbd4bdb4f	-0.049769696
246	0x3dbb499e	0.09144901
247	0xbe09a7e6	-0.13442954
248	0xbe105308	-0.14094174
249	0x3d24c5a0	0.040227532
250	0xbc608be9	-0.013705232
251	0x3db7017f	0.08935832
252	0xbe8eec86	-0.27914828
253	0xbe3bf5aa	-0.18355432
254	0xbe9c76b9	-0.30559328
255	0xbcaf9f78	-0.021438345

l2.bias f4 [200]
0	0x3e10de32	0.14147261
1	0xbd8cf7ea	-0.06883223
2	0xbcbef11b	-0.023308327
3	0x3d1ec2e2	0.038760073
4	0xbce956eb	-0.028483829
5	0x3c3b6e9d	0.0114399465
6	0x3d8d7230	0.06906545
7	0xbcf0d324	-0.029397555
8	0xbd8e5505	-0.0694981
9	0xbd54bca4	-0.051937714
10	0xbd4fc75c	-0.050727233
11	0x3d74c7cb	0.05976085
12	0xbbaac5ec	-0.0052115824
13	0xbd5861b7	-0.052827563
14	0x3dc26ab2	0.09493007
15	0xbd22a32c	-0.039706394
16	0xbd3ac564	-0.045598403
17	0xbd974d0f	-0.07387745
18	0x3cae40bb	0.0212711
19	0x3c6bfbbc	0.01440328
20	0xbc83babc	-0.016080253
21	0xbcc0caa4	-0.023534127
22	0x3d6057ac	0.05477111
23	0x3d6ad377	0.057330575
24	0x3c7a8088	0.015289433
25	0x3cdb7139	0.026787387
26	0x3c4cc50b	0.012498151
27	0xbd6279e1	-0.055292014
28	0xbce7e7f7	-0.028308852
29	0x3dc8b9fa	0.09801097
30	0x3c86c91e	0.016453322
31	0x3d197731	0.037467185
32	0xbcc212e9	-0.023690658
33	0xbba98db2	-0.005174362
34	0x39c22b7f	0.0003703497
35	0x3c690fcd	0.014224959
36	0xbc463f54	-0.01210006
37	0xbc11e0ca	-0.008903692
38	0x3d1a1ef2	0.037627168
39	0xbd4289c9	-0.047494683
40	0xbcbf0073	-0.023315644
41	0x3d4a7f2a	0.04943768
42	0xbda11a12	-0.07866301
43	0xbca25c39	-0.019819366
44	0xbdb76790	-0.089553
45	0x3bac15ca	0.005251621
46	0xbc4f5af0	-0.0126559585
47	0xbcba1b13	-0.022717988
48	0x3dbd7a7d	0.092518784
49	0xbca69933	-0.020336723
50	0xbd24c386	-0.04022553
51	0xbccda86d	-0.025104726
52	0xbd13663d	-0.035986174
53	0x3d81295e	0.06306718
54	0xbd28b6bf	-0.041189905
55	0xbc94dd85	-0.018172035
56	0xbaf88b20	-0.0018962361
57	0xbc0466af	-0.008081122
58	0xbc5a04b6	-0.013306787
59	0x3b1f676b	0.0024323117
60	0x3d5b5de3	0.053556334
61	0xbd1e68ed	-0.038674284
62	0xbd82af44	-0.063810855
63	0x3cfd1555	0.030893961
64	0x3d8f4394	0.069953114
65	0xbd3f11f8	-0.046647996
66	0x3ceb0521	0.02868897
67	0xbc75916d	-0.0149882855
68	0x3bb2b0e5	0.0054532164
69	0x3d80abff	0.06282806
70	0x3cb80ddc	0.022467546
71	0xbde0b41e	-0.109718546
72	0x3d717249	0.05894688
73	0x3c685dbf	0.014182507
74	0xbd4046c4	-0.046942487
75	0x3d026805	0.031837482
76	0x3a7a9602	0.0009559096
77	0xbd5287bd	-0.05139898
78	0x3af07e80	0.0018348247
79	0x3c70231a	0.014656806
80	0xbc7b9919	-0.015356326
81	0x3c14f982	0.00909269
82	0xbdb45d72	-0.08806886
83	0x3dc173ac	0.09445891
84	0xbca3aba1	-0.0199793
85	0x3c1bd529	0.009511271
86	0x3d4677a8	0.048453957
87	0xbd24c13d	-0.04022335
88	0x3a93801a	0.0011253387
89	0x3d43ad92	0.04777295
90	0xbd5e9fed	-0.054351736
91	0x3d5d1b86	0.053981327
92	0x3b3ec7b7	0.0029110739
93	0x3c32114b	0.010868381
94	0xbe39b0cf	-0.18133853
95	0x3c80d3f1	0.015726062
96	0xbd628a99	-0.05530796
97	0x3cb73a13	0.02236656
98	0x3d8ddfce	0.06927453
99	0x3d40e4ba	0.04709313
100	0x3cf4d260	0.02988547
101	0xbcadd007	-0.02121736
102	0xbd5d28d9	-0.053994033
103	0x3d09ec26	0.033672474
104	0x3d583435	0.052784164
105	0xbd88123e	-0.066441044
106	0xbda4ef21	-0.08053423
107	0x3ccd18ce	0.025036242
108	0xbdb16273	-0.08661356
109	0x3d66cad5	0.05634578
110	0x3c882890	0.016620904
111	0xbd426575	-0.04746004
112	0xbc35f42c	-0.011105578
113	0x3d857f49	0.06518418
114	0xbb542559	-0.0032370894
115	0xbd5a2eb9	-0.053267214
116	0xba838017	-0.0010032681
117	0x3cee5cb8	0.029096946
118	0xbdab09bf	-0.08351468
119	0x3d0ab285	0.033861656
120	0x3a42a0c9	0.00074244716
121	0xbd5501da	-0.05200372
122	0xbda2704c	-0.07931575
123	0x3df205b4	0.11817494
124	0xbd585791	-0.052817885
125	0xb8d583dc	-0.00010181192
126	0x3c996e1e	0.018729266
127	0x3ce77123	0.02825219
128	0xbd4c32ec	-0.04985325
129	0x3bab9731	0.0052365293
130	0xbd07c7c3	-0.033149492
131	0x3d151e66	0.036405943
132	0x3b4b1bf7	0.003099201
133	0xbb086937	-0.0020814666
134	0x3bb8a986	0.005635443
135	0x3d657996	0.056024157
136	0xbc06ff11	-0.0082395235
137	0x3d0b2e6c	0.03397982
138	0x3c8b54ea	0.017008264
139	0xbd2d054d	-0.042241383
140	0x3d11d8f4	0.035607293
141	0x3c35d500	0.011098146
142	0x3d92057a	0.07129951
143	0xbe0337b2	-0.12814215
144	0x3d21b6f4	0.03948112
145	0x3cbee7e6	0.023303937
146	0x3d352b02	0.04423047
147	0x3d348daf	0.044080433
148	0xbcef68fd	-0.029224867
149	0x3def45c7	0.11683231
150	0x3d94d0bd	0.07266376
151	0xbd80fd64	-0.062983304
152	0xbd9f4030	-0.07775915
153	0x3da246b5	0.079236425
154	0xbdcd1cfa	-0.100152925
155	0xbdb7395e	-0.08946489
156	0xbdaba44e	-0.08380948
157	0x3d4e40e0	0.05035484
158	0x3b716134	0.003683162
159	0x3cc69f7f	0.024245976
160	0x3da8b734	0.08238068
161	0x3d3e8d14	0.04652126
162	0xbc9712a6	-0.01844151
163	0x3c886be4	0.016653009
164	0x3aab8cf9	0.0013088278
165	0x3d9f6d4b	0.07784518
166	0xbc6c8826	-0.014436757
167	0xbdbfedcf	-0.0937153
168	0xbd00b75c	-0.031424865
169	0xbc843fac	-0.016143642
170	0x3c9b1aa3	0.0189336
171	0xbd8da6e7	-0.069166
172	0xbd9c9145	-0.076448955
173	0xbc1e2409	-0.009652146
174	0xbb38d892	-0.0028205258
175	0xbc094b81	-0.008379818
176	0x3d504ba0	0.05085337
177	0x3d77462b	0.06036965
178	0xbd836681	-0.064160354
179	0x3d33181b	0.04372416
180	0x3da1ede7	0.079067044
181	0x3b9db936	0.0048133386
182	0x3d14aaf7	0.036295857
183	0xbd51bf47	-0.051207807
184	0xbcfb2a16	-0.030659717
185	0xbcf40b44	-0.029790528
186	0x3d821423	0.06351497
187	0x3c1a0f10	0.009403005
188	0x3dd0799b	0.101794444
189	0x3e120828	0.14260924
190	0xbb400eb7	-0.0029305646
191	0x3d6c47f2	0.0576858
192	0x3c473314	0.012158174
193	0x3c765a58	0.015036188
194	0x3dfb88d4	0.12281957
195	0x3c97885a	0.018497635
196	0x3d7ec190	0.062196314
197	0xbc016c0c	-0.007899296
198	0x3da3a109	0.079896994
199	0xbc92b081	-0.01790643

l3.weight f4 [1, 200]
0	0xbf36fdfe	-0.7148131
1	0x3eced9a0	0.4040041
2	0xbf841c3d	-1.0321118
3	0xbf129a8a	-0.5726706
4	0xbf14ff24	-0.58201814
5	0xbf187c59	-0.5956474
6	0x3e542a6e	0.2071931
7	0x3ea3d17f	0.3199577
8	0x3f08061d	0.5313433
9	0x3c4b1896	0.012395998
10	0xbf344317	-0.7041487
11	0x3ee6ed3c	0.4510287
12	0xbf3c2918	-0.73500204
13	0xbf945611	-1.1588765
14	0xbf674485	-0.9033893
15	0x3f039b0b	0.5140845
16	0x3eb09f53	0.34496555
17	0xbf4f837f	-0.8106002
18	0x3f648115	0.89259464
19	0xbf3c13b7	-0.7346758
20	0x3ef148d3	0.47125873
21	0x3eba5053	0.36389408
22	0xbea60161	-0.32422927
23	0xbf252caf	-0.64521307
24	0xbf3396b2	-0.7015182
25	0xbf22ad9a	-0.63546145
26	0x3ebece92	0.37266976
27	0x3f373d98	0.7157836
28	0xc015928e	-2.33707
29	0x3f3a2d5c	0.7272546
30	0x3eb212bd	0.3477992
31	0xbf977526	-1.1832626
32	0x3ebf4832	0.37359768
33	0xbf95619f	-1.1670417
34	0x3ec589f2	0.38581806
35	0x3efb0b7c	0.490322
36	0x3f175ebd	0.59128934
37	0x3f00d693	0.50327414
38	0x3eb808ff	0.35944363
39	0x3f8b3082	1.0874178
40	0xbf7a16dd	-0.97691137
41	0xbf590f4b	-0.8478896
42	0xbf956617	-1.167178
43	0x3e9f8113	0.31153163
44	0x3f8bc49b	1.0919374
45	0xbf495d9b	-0.78658456
46	0xbf5864f5	-0.8452905
47	0xbfb5c9c0	-1.4202194
48	0xbf187b68	-0.59563303
49	0x3eb824f0	0.3596568
50	0x3e86c803	0.26324472
51	0x3f73f669	0.9529787
52	0x3cf889f9	0.030339228
53	0xbfa0f644	-1.2575154
54	0xbf946456	-1.159312
55	0xbefad972	-0.48994023
56	0x3ecde750	0.4021554
57	0x3f2f78a5	0.68543464
58	0x3f24e4fe	0.64411914
59	0x3f3eabb5	0.74480754
60	0xbf01c89b	-0.50696725
61	0xbf767167	-0.9626679
62	0xbf0e8534	-0.55672
63	0x3eb24538	0.34818435
64	0xbf1bd491	-0.60871226
65	0x3f7c871a	0.9864365
66	0x3fa17c80	1.2616119
67	0x3ec66fec	0.38757265
68	0x3f5ab773	0.8543617
69	0x3e97890e	0.29596752
70	0xbf1bf45a	-0.60919726
71	0xbf41d902	-0.7572175
72	0xbee5e384	-0.44900143
73	0x3f7c5392	0.9856502
74	0x3ebdea2f	0.3709273
75	0xbebaad13	-0.3646017
76	0x3ef98adc	0.48738754
77	0x3f816c52	1.0111182
78	0xbff56bde	-1.9173543
79	0x3efb1b12	0.4904409
80	0xbed89eb5	-0.42308584
81	0xbf2d33f1	-0.6765738
82	0xbf54ffd9	-0.8320289
83	0x3f5a6eb5	0.85325176
84	0xbf39b8a4	-0.72547364
85	0xbeee6778	-0.46563315
86	0xbf932a51	-1.1497289
87	0x3ec23a5f	0.3793516
88	0xbfbf76b3	-1.4958099
89	0x3e0949ee	0.13407108
90	0x3d1b33df	0.037891265
91	0xbf17678b	-0.5914237
92	0x3bdfe656	0.006832878
93	0xbf61ebb8	-0.88250303
94	0x3fcd1a01	1.6023561
95	0xbf334f1d	-0.7004259
96	0x3ecbc5ef	0.3979945
97	0x3e87d96d	0.2653307
98	0x3ec3dcc3	0.38254365
99	0xbff9f9ec	-1.9529395
100	0x3ea5b774	0.32366526
101	0x3ed88fa6	0.42297095
102	0x3ed1f714	0.41008818
103	0xbf75c31e	-0.9600085
104	0x3e8ac8f3	0.27106437
105	0xbf2b0372	-0.6680213
106	0x3ef9288d	0.4866375
107	0xbf714001	-0.9423829
108	0x3f0b3680	0.54380035
109	0x3f6d68c3	0.9273798
110	0x3e8643a2	0.26223475
111	0x3f4d8f8c	0.8029716
112	0x3d2b8de9	0.041883383
113	0x3fc4da49	1.5379115
114	0x3e9ceb85	0.30648437
115	0xbf83267f	-1.0246123
116	0xbf6a33f4	-0.91485524
117	0x3e84aefe	0.25914758
118	0x3e983108	0.29724908
119	0x3e456f93	0.19280843
120	0x3eeb9a2e	0.46016067
121	0x3e91a9f2	0.2844997
122	0x3eb891cb	0.3604873
123	0x3f425cd5	0.759229
124	0xbf9a4664	-1.2052732
125	0xbfa62cd1	-1.2982427
126	0xbf2bccb6	-0.6710924
127	0xbf815b0d	-1.0105911
128	0x3f21f779	0.6326824
129	0x3d0f5662	0.03499449
130	0xbf9a8ba1	-1.2073861
131	0x3e95766e	0.29191917
132	0xbf2b8539	-0.67000157
133	0xbfa48e5d	-1.2855946
134	0x3f10bb28	0.5653558
135	0xbf34bdce	-0.7060212
136	0xbf82e6df	-1.0226706
137	0x3f4fab40	0.8112068
138	0xbec445ca	-0.38334495
139	0x3eb33ce6	0.350074
140	0xbf44f865	-0.7694152
141	0xbf0a1734	-0.53941655
142	0x3fc759e9	1.5574313
143	0xbfc6f013	-1.5542015
144	0xbfd4f518	-1.6637297
145	0xbf6a72f7	-0.9158167
146	0xbf27c565	-0.65535575
147	0xbf667184	-0.9001696
148	0xbf595cb9	-0.8490711
149	0x3f8d9dfa	1.1063836
150	0x3e4a87d9	0.19778384
151	0xbf8868a9	-1.065694
152	0x3f44deaa	0.7690226
153	0xbec803e8	-0.3906548
154	0x3ecfacac	0.40561426
155	0x3e8370e4	0.25672066
156	0xbf481cc7	-0.7816891
157	0xbfab9564	-1.3404965
158	0xbf4e1813	-0.80505484
159	0xbf35d783	-0.7103197
160	0xbf561223	-0.83621424
161	0x3e51f666	0.2050415
162	0x3ebbf702	0.3671189
163	0x3eced980	0.40400314
164	0x3eefdf65	0.46850124
165	0x3e132417	0.14369236
166	0x3e5506f8	0.2080344
167	0xbf68cba3	-0.90935725
168	0x3f80355d	1.0016285
169	0x3ef0cec9	0.47032765
170	0x3e89c05f	0.2690458
171	0xbfab1d2f	-1.3368281
172	0xbd5d16f3	-0.053976964
173	0xbf13ec9d	-0.5778292
174	0xbf3ba8b0	-0.7330427
175	0x3f009ff5	0.50244075
176	0xbf300752	-0.6876117
177	0x3e713b7d	0.23557849
178	0xbfab4315	-1.3379847
179	0xbf5426de	-0.82871807
180	0x3e5df924	0.21677071
181	0x3f8403ad	1.0313622
182	0x3f63840c	0.8887336
183	0xbbc56e19	-0.0060250876
184	0xbefcd513	-0.49381313
185	0xbf00d954	-0.50331616
186	0x3e520b9d	0.20512243
187	0x3f713c3a	0.94232523
188	0xbeb4d8cf	-0.35321662
189	0x3f7afd06	0.98042333
190	0x3ef0a138	0.46998
191	0x3a4400a2	0.0007476901
192	0xbfbb3f53	-1.46287
193	0x3eeef8ff	0.46674344
194	0xbf3d6bbb	-0.7399251
195	0x3f2d3c00	0.6766968
196	0x3f4dd510	0.8040323
197	0x3eadf687	0.33977148
198	0x3f9519e9	1.1648532
199	0xbf3a6b22	-0.7281972

l4.weight f4 [200, 28]
0	0xbe6fe177	-0.23425852
1	0xc013df76	-2.310514
2	0xbde18655	-0.1101195
3	0x3f0f6f6f	0.5602941
4	0xbe2f9160	-0.171453
5	0xbec2e2d9	-0.38063696
6	0xbe9cafac	-0.30602777
7	0xbe42f775	-0.1903971
8	0xbdd78ec8	-0.1052528
9	0xbe25f844	-0.16207987
10	0xbe3f3d5a	-0.18675748
11	0xbc8ddba1	-0.017316641
12	0x3c1eae52	0.009685116
13	0xbbf345db	-0.007424099
14	0x3e564c0a	0.20927444
15	0x3d9bb445	0.07602743
16	0xbe6533e6	-0.22383079
17	0xbe1680e8	-0.14697611
18	0x3e4d12cd	0.20026703
19	0xbcd404b8	-0.025881156
20	0xbd310c76	-0.043224774
21	0x3dea1a33	0.11430778
22	0x3ddb34e5	0.10703448
23	0xbe012690	-0.12612367
24	0xbdd5bb7b	-0.1043615
25	0xbe101375	-0.14069922
26	0x3d8e4f93	0.06948771
27	0x3db24c3b	0.08705946
28	0x3edffad9	0.4374607
29	0xbe757983	-0.23972134
30	0xbcc36b1f	-0.02385479
31	0xbf0c016c	-0.5468967
32	0xbe876fdb	-0.26452526
33	0x3d80bbce	0.06285821
34	0xbdb8648c	-0.09003553
35	0x3d75ac7a	0.05997894
36	0x3bef5a52	0.007304468
37	0x3f18cf78	0.5969157
38	0xbc1a5438	-0.009419493
39	0x3e38ba9f	0.1803994
40	0x3d7c42df	0.06158721
41	0x3e109bda	0.14121953
42	0xbe92ca7a	-0.28670102
43	0xbe68605d	-0.2269301
44	0xbe7991f3	-0.24372081
45	0xbe375d1f	-0.17906617
46	0xbcc90b4f	-0.024541525
47	0xbded3abc	-0.11583468
48	0x3e8eaa30	0.27864218
49	0x3e53df12	0.20690563
50	0x3e2ebfb1	0.17065312
51	0xbe3f2979	-0.18668164
52	0x3cffe4df	0.031237064
53	0x3c6b72d0	0.014370635
54	0xbd61eccb	-0.055157464
55	0x3d92e70a	0.071729735
56	0xbebc62d0	-0.36794138
57	0xbe8b1a33	-0.27168426
58	0xbed9c0cf	-0.42529914
59	0xbd932434	-0.071846396
60	0x3e186c5f	0.1488509
61	0xbdfa9c86	-0.12236886
62	0x3e291546	0.16512021
63	0xbd4a071b	-0.049323183
64	0xbd2d846f	-0.042362627
65	0x3ec6267b	0.38701233
66	0x3e781f94	0.24230796
67	0x3e321b07	0.17393123
68	0x3e043ecf	0.12914585
69	0xbe371b0b	-0.1788141
70	0x3e8f313c	0.2796725
71	0x3dbcb6f1	0.09214581
72	0x3e605e1b	0.21910898
73	0x3e5d5cd0	0.21617436
74	0x3da22b28	0.07918388
75	0xbd18fa39	-0.037348006
76	0xbe0070fe	-0.12543103
77	0x3e8674fe	0.26261133
78	0xbd76e3d0	-0.060275853
79	0x3dd20c14	0.1025621
80	0xbe2cf684	-0.16890913
81	0x3c3d5e0e	0.011558069
82	0xbc51907e	-0.012790797
83	0x3dbca17b	0.092104875
84	0x3e8b1a9d	0.27168742
85	0xbf144d4f	-0.57930464
86	0xbd34ca59	-0.044138286
87	0xbf197715	-0.5994733
88	0xbd963dfd	-0.07336042
89	0x3cda36a8	0.02663739
90	0x3dece7d2	0.11567654
91	0x3e3482b4	0.17627984
92	0xbd739c5f	-0.0594753
93	0xbdaec4ab	-0.08533605
94	0x3cf4177d	0.029796356
95	0x3ee3afbc	0.44470012
96	0x3ea1d327	0.3160641
97	0x3d4f1942	0.050561197
98	0xbdba5253	-0.09097733
99	0xbe9d3c08	-0.30709863
100	0xbd1a9539	-0.037739966
101	0x3eca04b7	0.39456722
102	0x3d80a870	0.06282127
103	0x3d679031	0.056533996
104	0x3dbe9ebb	0.09307619
105	0x3e039c1a	0.12852517
106	0xbd581cc7	-0.05276182
107	0xbc88f715	-0.01671938
108	0xbc9a3c84	-0.018827684
109	0x3d71f708	0.059073478
110	0xbdbb539e	-0.09146808
111	0x3d74d673	0.059774827
112	0x3e310032	0.17285231
113	0xbf40dd0f	-0.7533731
114	0xbe6680ac	-0.22510022
115	0x3f596921	0.8492604
116	0x3d6b779a	0.057487108
117	0x3dd010fb	0.10159489
118	0x3e4b2238	0.19837272
119	0x3d80ab6d	0.06282697
120	0xbd6f1d86	-0.058377765
121	0x3e9e8303	0.3095933
122	0x3dc97753	0.098372124
123	0x3d7a181c	0.06105815
124	0x3d458616	0.048223577
125	0x3d43abd2	0.047771282
126	0x3ea0e490	0.3142438
127	0x3e8ffaf5	0.28121153
128	0xbe373563	-0.17891459
129	0xbf0e86c7	-0.55674404
130	0xbe9ff776	-0.31243485
131	0x3e027a55	0.12741978
132	0x3ef9c72c	0.4878477
133	0x3e0b85c0	0.1362524
134	0xbe7708b0	-0.24124408
135	0xbb97a714	-0.0046280716
136	0x3d02fbef	0.031978544
137	0xbbde37f5	-0.006781573
138	0x3d71c559	0.059026096
139	0x3df145b4	0.11780873
140	0xbe093b64	-0.13401562
141	0x3e4ff111	0.20306803
142	0xbf02891f	-0.5099048
143	0x3e1db094	0.1539939
144	0x3e02e663	0.12783198
145	0xbd680377	-0.05664393
146	0xbe4aa230	-0.19788432
147	0x3c0f1b14	0.008734483
148	0x3db575f3	0.08860388
149	0x3e83eca2	0.25766474
150	0x3db10435	0.086433806
151	0xbda84fa9	-0.08218319
152	0xbc911226	-0.01770885
153	0x3d947969	0.0724972
154	0x3db3fac6	0.087880656
155	0xbe075871	-0.13217331
156	0xbdc711df	-0.097202055
157	0xbda42027	-0.08013945
158	0x3e4802b2	0.19532278
159	0xbdc4ef29	-0.09615929
160	0x3e882d9b	0.26597294
161	0x3e96d9e6	0.29463118
162	0xbdaea70c	-0.085279554
163	0xbcc6bbb4	-0.024259426
164	0x3cbf4197	0.023346705
165	0x3d60dd48	0.05489853
166	0xbd278c87	-0.0409055
167	0xbdb55cbb	-0.088555776
168	0xbe2e692e	-0.1703231
169	0x3f2a2d57	0.66475433
170	0xbe7c41d6	-0.2463449
171	0x3ed8c421	0.42337134
172	0x3dc515b0	0.09623277
173	0x3ce46035	0.027877906
174	0x3e9b95af	0.30387637
175	0x3dbaf952	0.09129585
176	0x3daecc55	0.08535067
177	0x3c703b1d	0.014662531
178	0xbe46bb5a	-0.19407406
179	0x3da4e8a7	0.080521874
180	0x3d8ad1eb	0.0677832
181	0x3d8043f1	0.06262959
182	0xbe164580	-0.1467495
183	0xbd6e5ad7	-0.0581921
184	0xbdf8f57a	-0.12156196
185	0xbe444da9	-0.1917025
186	0x3c97a9dd	0.018513614
187	0xbe17a787	-0.1481
188	0x3e6ec514	0.23317367
189	0x3e8ed104	0.2789384
190	0x3dff9e7b	0.124813996
191	0x3e302fde	0.1720576
192	0x3d845925	0.064623155
193	0x3dfe1ea3	0.12408187
194	0xbd29bdae	-0.04144066
195	0x3d98e513	0.074655674
196	0xbee29362	-0.4425307
197	0x3f59eff4	0.85131764
198	0x3eceb16a	0.4036973
199	0xbf0006ac	-0.5001018
200	0xbea3ec96	-0.32016438
201	0x3d967270	0.07346046
202	0xbea4dabd	-0.32198134
203	0x3b945751	0.0045270105
204	0x3e5afb6f	0.21384977
205	0x3dad9d55	0.08477274
206	0x3ca95abf	0.020673154
207	0x3d4f1950	0.05056125
208	0x3ae0dff0	0.0017156582
209	0xbdb03320	-0.08603501
210	0xbde841c9	-0.113406725
211	0xbedb342a	-0.42813236
212	0xbd2da776	-0.04239603
213	0x3d825206	0.06363301
214	0x3d06c95f	0.032906886
215	0x3e845a4a	0.25850135
216	0xbce8a8e8	-0.028400853
217	0x3d15dee1	0.036589507
218	0x3d35828d	0.044313956
219	0xba8b8f63	-0.0010647591
220	0x3d55cd3a	0.052197672
221	0xbc7588f8	-0.014986269
222	0xbc3725e5	-0.011178468
223	0xbca781f5	-0.02044771
224	0xbeb679fe	-0.35639948
225	0xbf47f7d7	-0.7811255
226	0x3ed1919e	0.4093141
227	0x3f0b5d65	0.54439384
228	0x3cb91818	0.022594497
229	0xbe6d00a3	-0.23144774
230	0xbd4ced8e	-0.050031237
231	0xbdd1586b	-0.102219425
232	0x3d50280b	0.050819438
233	0xbe9b2b1a	-0.3030632
234	0x3d9c4349	0.07630021
235	0xbe30e072	-0.17273119
236	0x3cd177d8	0.025569841
237	0xbd895367	-0.06705361
238	0x3e479a4c	0.19492453
239	0xbd3b6216	-0.04574784
240	0xbd303829	-0.04302231
241	0xbdd7dbc4	-0.10539964
242	0xbe6816b8	-0.22664917
243	0x3d5bd8a0	0.053673387
244	0x3e0deaf9	0.13859166
245	0x3ef29cbb	0.473852
246	0x3db97017	0.090545826
247	0x3e050f41	0.129941
248	0xbc410545	-0.0117810415
249	0x3d1f9caf	0.038967784
250	0x3b5f9192	0.0034113866
251	0xbcce8d44	-0.025213845
252	0xbedf17ed	-0.4357294
253	0xbe6ae34e	-0.22938272
254	0x3e426f1a	0.18987694
255	0xbf620f40	-0.8830452

l4.bias f4 [200]
0	0x3e133c21	0.14378406
1	0xbe4386b6	-0.19094357
2	0xbcd67d37	-0.026182754
3	0x3dffeb02	0.12495996
4	0x3e268341	0.16261007
5	0xbdf7e257	-0.12103718
6	0x3d5a91ac	0.05336158
7	0xbdcbfa2a	-0.099598244
8	0xbdc33388	-0.09531313
9	0xbe66ae1f	-0.2252736
10	0xbdb84404	-0.08997348
11	0xbe87239e	-0.2639436
12	0x3e310dd3	0.1729043
13	0xbda46402	-0.080268875
14	0xbdf901d1	-0.121585496
15	0x3db7fe02	0.08983995
16	0x3e17f394	0.14839011
17	0xbe0751b8	-0.13214767
18	0x3ddccaf2	0.10780896
19	0x3ca57e32	0.020201776
20	0x3e963431	0.29336694
21	0x3dd44d63	0.10366323
22	0x3e0ac764	0.13552624
23	0x3c3a5c7a	0.011374587
24	0x3e8ff15c	0.2811383
25	0xbdfa4056	-0.12219302
26	0xbcc6d271	-0.024270268
27	0xbdcd0e78	-0.10012525
28	0x3e44b350	0.19209027
29	0xbde9a115	-0.11407677
30	0x3d372c51	0.044719998
31	0xbd5b6155	-0.05355962
32	0x3e659fb4	0.22424203
33	0xbe3bca78	-0.18338954
34	0x3d97f620	0.074199915
35	0x3cc30b4a	0.023809094
36	0xbd86b4c6	-0.065774485
37	0xbe1635a1	-0.14668895
38	0x3e436e83	0.19085126
39	0x3e60420d	0.21900196
40	0x3ec486d5	0.3838412
41	0xbe7e7d3b	-0.24852459
42	0xbdf3ae9a	-0.11898537
43	0xbe6ee8b9	-0.23330964
44	0x3d996329	0.074896164
45	0x3ec8b950	0.39203882
46	0xbe432219	-0.19055976
47	0x3d37f969	0.04491559
48	0x3d7978c3	0.060906183
49	0x3e6db128	0.23212111
50	0xbd6ab143	-0.057297956
51	0x3dc7a213	0.0974771
52	0xbd87e83d	-0.06636093
53	0x3e613d14	0.21995956
54	0xbe1872e3	-0.14887576
55	0x3e9db03f	0.30798528
56	0x3df3fc6d	0.11913381
57	0x3ea2938b	0.3175319
58	0x3ce5b410	0.028039962
59	0xbd75cd36	-0.060010158
60	0x3e30f991	0.17282702
61	0x3db1e077	0.086853914
62	0xbe205afc	-0.15659708
63	0xbde5a6c6	-0.1121345
64	0x3d529bae	0.051418
65	0xbe7a1ef4	-0.2442587
66	0x3e89f520	0.26944828
67	0xbcf3831b	-0.029725602
68	0xbe5c4056	-0.21508917
69	0xbe66301c	-0.2247929
70	0xbdb80c5d	-0.08986733
71	0xbdaedb24	-0.085378915
72	0x3e0d124b	0.1377651
73	0x3baf1a2c	0.005343696
74	0xbd4d7427	-0.0501596
75	0x3d888202	0.06665422
76	0x3e9722e1	0.29518798
77	0x3e39cbe5	0.18144186
78	0x3d219bde	0.039455287
79	0xbda906fe	-0.08253287
80	0xbc34aa6f	-0.011026963
81	0xbdbe3a6d	-0.092884876
82	0x3c3309ef	0.010927661
83	0xbd945fbb	-0.07244822
84	0x3e5707f4	0.20999128
85	0xbe0a7f7d	-0.13525195
86	0xbd6c3cd1	-0.057675187
87	0x3dde4206	0.10852437
88	0x3db53a5e	0.08849023
89	0xbe9e2328	-0.30886197
90	0x3e429428	0.1900183
91	0xbc65f462	-0.014035316
92	0x3e11ae44	0.14226633
93	0xbd9d50f1	-0.07681454
94	0x3e398338	0.18116462
95	0xbe5cbb64	-0.21555859
96	0xbd3af697	-0.045645323
97	0xbddf1e35	-0.108944334
98	0xbe8fc9d9	-0.28083685
99	0xbe610ba8	-0.21977103
100	0xbe12ba4e	-0.14328882
101	0x3cfec3af	0.031099169
102	0x3dd40874	0.10353175
103	0xbd394abb	-0.045237284
104	0xbc8776eb	-0.016536197
105	0x3e2c002c	0.1679694
106	0xbd47eb91	-0.048808638
107	0xbd8cc6ad	-0.06873832
108	0xbe41f2f4	-0.18940336
109	0x3dae0b19	0.084982105
110	0xbdc1e699	-0.09467811
111	0x3c1a7366	0.009426927
112	0x3e053cee	0.13011524
113	0x3e3f99e6	0.18711051
114	0x3e7dfda6	0.2480379
115	0xbd8226ce	-0.06355058
116	0xbe59d946	-0.2127429
117	0xbba75520	-0.0051065832
118	0x3e1c65e5	0.15273245
119	0xbdaf65d9	-0.08564348
120	0xbd3ea278	-0.04654166
121	0xbd868556	-0.065684006
122	0x3d81bdbd	0.06335018
123	0xbc8968b5	-0.016773561
124	0xbde6df98	-0.11273116
125	0xbde00f5f	-0.10940432
126	0xbe0933db	-0.13398688
127	0x3dde921a	0.108677104
128	0xbe6462a4	-0.22303253
129	0x3ea146bc	0.3149928
130	0x3e552406	0.20814523
131	0xbcc2a27f	-0.023759125
132	0x3e6576ed	0.22408648
133	0xbe0e1464	-0.13874966
134	0x3e17863e	0.14797303
135	0xbe743587	-0.23848544
136	0x3c27a9f8	0.010233395
137	0xbe9a7eab	-0.30174765
138	0xbe41a3b3	-0.18910103
139	0x3eb84c11	0.35995534
140	0xbd7c7f3a	-0.06164477
141	0xbe2689b2	-0.16263464
142	0xbe8f6bb6	-0.28011864
143	0xbdea43b4	-0.114386946
144	0xbd8ceea9	-0.06881458
145	0xbd0e9619	-0.034811113
146	0x3d161fed	0.03665154
147	0xbe287ff9	-0.16455068
148	0x3e87dc89	0.26535442
149	0x3ded24d0	0.11579287
150	0x3db1cb38	0.08681339
151	0xbe291e04	-0.16515356
152	0x3db85c54	0.09001985
153	0xbe9844bd	-0.29739943
154	0xbe801672	-0.25017124
155	0xbd8d3425	-0.068947114
156	0x3cd6ab94	0.026204862
157	0x3d4cb51c	0.049977407
158	0x3d11d3f6	0.035602532
159	0x3ece664e	0.40312427
160	0x3dbacdf4	0.09121314
161	0xbe6d44f7	-0.23170839
162	0xbc84fa1b	-0.01623254
163	0xbe319e74	-0.17345601
164	0xbceab1ed	-0.028649295
165	0x3c5108f4	0.012758482
166	0x3ec1e3a7	0.37868997
167	0xbe071368	-0.13190997
168	0xbd868e0c	-0.06570062
169	0xbe2f88d1	-0.17142035
170	0x3e55b706	0.20870599
171	0x3da6a72a	0.08137353
172	0xbd14272b	-0.036170166
173	0xbd8f72fa	-0.07004352
174	0x3dab7f72	0.08373918
175	0xbc469380	-0.012120128
176	0xbc1b8c0a	-0.009493837
177	0x3c7edf8d	0.015556228
178	0xbdafdd77	-0.08587163
179	0x3d883e2c	0.06652483
180	0x3ea74c74	0.32675517
181	0xbd7dc7cf	-0.06195813
182	0x3e68a01f	0.22717331
183	0x3e35ee07	0.17766581
184	0x3d27f3a2	0.04100383
185	0x3df7a810	0.12092602
186	0xbdbd909f	-0.092561
187	0xbe24ee00	-0.16106415
188	0x3dc9a21b	0.09845372
189	0xbdc6c48d	-0.09705458
190	0x3e550945	0.20804317
191	0x3da9af80	0.08285427
192	0xbdecefaf	-0.115691535
193	0x3ead01f8	0.33790565
194	0xbe3a244d	-0.1817791
195	0x3ca0b08a	0.01961543
196	0xbd5003b4	-0.05078478
197	0x3e9a01b3	0.3007942
198	0xbe9d2325	-0.30690876
199	0xbe056cb8	-0.13029754

l5.weight f4 [200, 200]
0	0x3d989d00	0.074518204
1	0xbe5519ec	-0.2081067
2	0x3dde9607	0.10868459
3	0xbbe2ec69	-0.006925155
4	0xbdfd34e9	-0.123636074
5	0x3e212e7d	0.1574039
6	0xbda60169	-0.08105738
7	0x3e886419	0.26638868
8	0x3cf236f9	0.029567229
9	0xbceff478	-0.029291376
10	0xbd87662c	-0.066112846
11	0x3b6ba7da	0.0035958202
12	0x3d4fa4c1	0.05069423
13	0xbdb4e987	-0.08833604
14	0x3ccbd77d	0.024883026
15	0x3d883b3c	0.06651923
16	0x3e21b946	0.15793332
17	0xbf5dd681	-0.8665543
18	0x3d90cf10	0.07070744
19	0xbbaeb0bf	-0.0053311284
20	0x3de447ce	0.11146508
21	0xbd577245	-0.05259921
22	0xb9a3dc32	-0.0003125384
23	0x3da9ed33	0.08297195
24	0xbd428364	-0.047488585
25	0xbf0460a2	-0.5170995
26	0xbcc12143	-0.02357543
27	0x3d547f13	0.051879
28	0xbb7c0e53	-0.0038460686
29	0xbd42f915	-0.047600824
30	0x3db12896	0.08650319
31	0xbd5e8b38	-0.054331988
32	0x3dfc0277	0.12305158
33	0xbe369ff8	-0.1783446
34	0x3dbfbfe9	0.09362776
35	0xbe015da1	-0.12633373
36	0x3d37639d	0.044772733
37	0x3e9b9143	0.30384263
38	0x3d5133e3	0.051074874
39	0x3d7c179e	0.06154596
40	0x3a146918	0.0005661412
41	0xbda21ac7	-0.079152636
42	0x3d023da9	0.031797085
43	0x3c1e5c35	0.009665539
44	0x3e261cdd	0.16221948
45	0xbca500dc	-0.020142011
46	0xbdb92e32	-0.09042014
47	0xbbf8609b	-0.0075798756
48	0xbd9da403	-0.076972984
49	0xbd9e61f5	-0.077335276
50	0x3dad2e92	0.08456148
51	0x3e0985f6	0.13430008
52	0xbf4cb400	-0.7996216
53	0xbd566e02	-0.052351005
54	0x3c08e5fc	0.008355614
55	0xbcb63d94	-0.02224616
56	0xbd6836d7	-0.056692924
57	0x3e334120	0.17505312
58	0xbed734e2	-0.42032534
59	0xbd39912e	-0.04530447
60	0x3dbe86cb	0.093030535
61	0xbe07b419	-0.13252296
62	0x3dd51555	0.104044594
63	0x3db25575	0.08707706
64	0xbdfc237d	-0.12311456
65	0x3c8af3bd	0.016961927
66	0x3e01ab86	0.12663087
67	0xbe45b9d2	-0.19309166
68	0xbdb44265	-0.08801726
69	0x3dd79407	0.10526281
70	0xbd05f3fa	-0.032703377
71	0xbcade069	-0.021225171
72	0x3ce06c3f	0.027395366
73	0x3e5ce7f3	0.21572857
74	0x3d5ebf71	0.05438179
75	0x3d8228c0	0.06355429
76	0x3d9c099d	0.07619021
77	0xbbcf315c	-0.006323023
78	0xbcf650ec	-0.030067883
79	0x3cac95a2	0.021067444
80	0x3c57552a	0.013142863
81	0xbd4f3e76	-0.050596677
82	0x3e1cc841	0.15310766
83	0x38f77d6e	0.00011801241
84	0x3d0c4fb8	0.034255713
85	0xbdb1785a	-0.08665533
86	0xbb8a7a63	-0.0042260154
87	0x3d2f8c05	0.042858142
88	0xbc9453ca	-0.01810636
89	0x3d42b02c	0.04753129
90	0x3cd092d3	0.025460636
91	0xbfc546dd	-1.5412251
92	0xbd979cb3	-0.07402935
93	0x3c497e83	0.012298229
94	0x3dfdad45	0.12386564
95	0xbe343a03	-0.17600255
96	0xbec17507	-0.37784597
97	0x3d3553e0	0.044269443
98	0xbe944042	-0.28955275
99	0x3dd2964d	0.10282574
100	0xbdd5d758	-0.10441464
101	0xbd7cf68b	-0.06175856
102	0xbdbf6511	-0.09345449
103	0xbd1df20e	-0.03856092
104	0xbca82d29	-0.020529347
105	0x3e09ecb5	0.13469203
106	0xbddf0e98	-0.108914554
107	0xbe88b087	-0.2669718
108	0xbe430d31	-0.19048001
109	0xbd852abf	-0.06502294
110	0xbcbd6a53	-0.023121988
111	0xbe189935	-0.14902194
112	0x3c73b16c	0.014873844
113	0x3e45cd19	0.1931652
114	0x3d96652b	0.07343515
115	0xbe7cf2a9	-0.24701943
116	0xbd9bcdbb	-0.07607599
117	0xbe890a97	-0.26765892
118	0xbcc4a8b2	-0.024006221
119	0xbbf6e242	-0.0075342963
120	0x3dc69bb2	0.09697665
121	0x3be5f947	0.0070182416
122	0x3c73fe52	0.014892178
123	0x3bff9b39	0.0078004864
124	0x3c34e761	0.011041493
125	0x3dfc6b79	0.12325186
126	0xbda0e7b8	-0.07856697
127	0xbd7ba546	-0.061436914
128	0x3dc224b5	0.094796576
129	0x3c95c7eb	0.018283805
130	0x3d3c64c3	0.04599453
131	0x3e3123b6	0.17298779
132	0xbd663436	-0.056202136
133	0x3e3a894d	0.18216439
134	0x3dcfbd67	0.101435475
135	0xbe93790b	-0.28803286
136	0xbd232781	-0.039832596
137	0x3d703a7a	0.058649518
138	0xbe4eec94	-0.20207435
139	0x3e08d3dc	0.13362068
140	0xbcc390f2	-0.023872826
141	0x3e31bef3	0.17357998
142	0xbde45063	-0.11148145
143	0xbd3367e3	-0.043800246
144	0x3d007885	0.031364936
145	0x3dbd7da7	0.09252482
146	0xbd829692	-0.06376375
147	0x3dd80c2a	0.10549195
148	0xbe0e6891	-0.13907076
149	0x3d6f2e8a	0.058393992
150	0xbc8268a5	-0.015919039
151	0xbe6dadbc	-0.23210806
152	0x3db7e29b	0.089787684
153	0xbe27a18d	-0.1637022
154	0x3daf6323	0.08563831
155	0x3dd4b4c1	0.103860386
156	0x3d18a91a	0.037270643
157	0x3de7bb5f	0.11315035
158	0x3e0ef3e3	0.13960223
159	0x3ddb9551	0.10721839
160	0x3cd64575	0.026156167
161	0xbd9c9fb6	-0.0764765
162	0x3e996c8b	0.29965624
163	0x3d546498	0.051853746
164	0x3dc55050	0.09634459
165	0xbbf6a739	-0.0075272587
166	0x3dc99093	0.098420285
167	0xbd4fefed	-0.05076592
168	0x3dfb8843	0.12281849
169	0x3c8623ce	0.016374495
170	0xbe197a77	-0.14988123
171	0x3e1b86c5	0.15188129
172	0x3db58a5e	0.08864282
173	0xbe488877	-0.19583307
174	0xbca95597	-0.020670695
175	0xbf0462e1	-0.5171338
176	0x3d91b1da	0.071140006
177	0xbddaaa77	-0.10677045
178	0x3c94f739	0.018184291
179	0xbd85a93c	-0.065264195
180	0x3dc094c2	0.09403373
181	0x3de571e3	0.11203363
182	0x3de7708f	0.11300766
183	0x3d95edd0	0.0732075
184	0xbc984839	-0.018589126
185	0x3ba2740c	0.0049576815
186	0xbb366c45	-0.002783553
187	0x3cef90bb	0.029243818
188	0x3bcae73b	0.0061921156
189	0x3deea316	0.116522
190	0xbd193f27	-0.037413742
191	0x3d482edc	0.048872814
192	0x3c473a58	0.012159906
193	0xbd40b6cf	-0.04704934
194	0xbf0f4505	-0.5596469
195	0xbb296d73	-0.002585259
196	0x3d8033ae	0.06259857
197	0x3e1c5054	0.15265018
198	0x3bfba0ff	0.0076791043
199	0xbe930b7e	-0.28719705
200	0x3e0538e1	0.13009979
201	0xbe16d1f2	-0.14728525
202	0xbcc429b7	-0.023945672
203	0x3d1c330c	0.03813462
204	0x3ea52f71	0.32262757
205	0x3da0a1a7	0.07843333
206	0x3dd30664	0.10303953
207	0x3d074748	0.033026963
208	0x3d9e5178	0.07730383
209	0xbe52efbb	-0.20599262
210	0xbdbbe9b9	-0.091754384
211	0xbe5def0e	-0.21673223
212	0xbe930166	-0.28712004
213	0xbe46b98a	-0.19406715
214	0x3e4a7673	0.19771747
215	0xbd029d29	-0.03188816
216	0xbd55f894	-0.052239016
217	0x3e424cbe	0.18974587
218	0xbbd6966c	-0.0065486934
219	0xbddc0764	-0.10743597
220	0x3e028b12	0.12748364
221	0xbe07d503	-0.13264851
222	0xbdd7c32d	-0.10535274
223	0x3aed8892	0.0018122366
224	0x3e1918d5	0.14950879
225	0x3e7f8098	0.24951398
226	0x3e49699d	0.19669195
227	0xbdf44b84	-0.11928466
228	0xbe58f6b9	-0.21187867
229	0xbe244c58	-0.16044748
230	0xbe501c12	-0.20323208
231	0x3d529441	0.051410917
232	0xbe3483af	-0.17628358
233	0x3dc9bb7c	0.09850213
234	0x3ddea9f3	0.10872259
235	0x3d26265e	0.040563934
236	0x3d15df95	0.036590178
237	0x3efa9e43	0.4894887
238	0xbcbce89f	-0.023060141
239	0x3d682940	0.056679964
240	0x3da3caef	0.07997691
241	0x3e016ce5	0.12639196
242	0x3d506be9	0.05088416
243	0x3d32c0b4	0.043640807
244	0xbe3d4cf2	-0.18486384
245	0x3e0487d3	0.12942438
246	0xbc727006	-0.014797216
247	0x3d05489b	0.032539945
248	0xbc10004a	-0.008789131
249	0x3e100345	0.14063747
250	0x3c4a78f9	0.012357944
251	0x3d5c6aa3	0.053812634
252	0xbd85e6d9	-0.06538171
253	0xbe4aaea8	-0.19793189
254	0xbccce26c	-0.02501031
255	0xbe239e17	-0.15978275
