HardcoreVersion_eval/ppo_q_critic4100.pth (torch, 373698 bytes, 10 tensors)

l1.weight f4 [200, 28]
-0.14414899 0.3026032 -0.3549719 -0.12918246 -0.26932585 0.018890109 -0.05055555 0.019535774
-0.0019564931 -0.16400814 0.014175152 -0.33419293 0.023987427 0.010081511 -0.07921043 -0.02634864
0.20980793 0.16081378 0.32245716 -0.093625635 0.09979057 0.2626607 -0.32463345 -0.20190667
-0.00021869323 0.011606868 -0.007155371 0.006560621 0.36945894 0.008007239 -0.4068591 -1.4127368
0.13090624 0.09611645 0.055593047 0.04953502 -0.024307333 0.11857524 -0.20117795 -0.30218998
0.046454526 0.41311193 0.13358764 0.20266013 -0.48829958 -0.37030518 0.11593015 0.06147404
0.19206816 -0.09900236 -0.020136224 -0.12980607 0.022843193 -0.006496658 -0.13342878 0.0727756
0.102970995 -2.830143 -0.09155087 -0.1567991 0.021255236 -0.0858417 0.06659495 -0.017250637
-0.020401403 0.15310612 -0.35833427 -0.056298338 0.3035172 0.22933379 0.11506578 0.023177255
-0.04383862 -0.29857278 -0.10789558 -0.065109774 0.15072078 0.040612888 0.017592963 -0.1370914
-0.0071626785 0.00085448864 -0.10855136 0.14615493 -0.09974278 -0.5944593 0.31155926 0.019354492
-0.03899272 0.04670571 -0.05612376 -0.022280218 0.026062122 0.13056913 -0.19254157 0.10423499
-0.009089187 -0.12568797 0.040271778 0.019602546 0.17598726 0.12964313 -0.0833039 0.16390659
0.1650438 -0.08010167 0.22605494 0.11721742 0.02829735 0.017858956 -0.086654715 0.067122675
0.120101765 -1.6397536 -0.30707866 0.25758916 -0.13482061 -0.009757021 -0.21493702 0.035034727
0.0028218022 -0.041591376 -0.6339362 0.57362753 -0.14593334 0.061435297 -0.42902693 -0.24685241
0.17669243 0.119283624 0.4207938 -0.032166816 -0.123426326 -0.040068515 -0.03521917 0.0028037622
-0.012310673 -0.033243462 -0.40185037 0.31767985 0.72449315 -0.030479852 0.2058698 -0.6879509
-0.027291141 0.007856625 -0.008909714 0.011764525 0.00022453404 0.61521125 -0.0108352 0.34712312
0.027939549 -0.017721478 0.40566915 -0.6941162 -1.113802 0.5516045 -0.21972421 -0.07087116
0.47034654 -0.23797461 0.06044326 -0.17135298 -0.0014534378 -0.0034225336 0.00039618675 -0.008757508
0.1564483 0.3863946 -0.6469073 0.15237671 0.12418529 0.009778052 -0.12080842 -0.003386981
-0.22672251 -0.0562684 0.013507249 0.073022544 0.005917979 -0.013690806 0.81104916 0.29966077
-0.8204832 -0.59574044 -0.41972405 0.35757947 0.41538504 0.38925424 -0.09477962 -0.07214151
0.0076119956 -0.015512012 -0.013283349 0.0034671372 0.072005264 0.05978896 -0.32242134 -0.049431123
0.0012824197 0.10575279 0.065921724 -0.03549563 -0.10336265 -0.0088165 -0.18813796 0.027444126
-0.14483668 0.045050927 -0.05230586 -0.13728122 0.039950714 -0.15550195 0.12219616 -0.19348718
-0.15142527 -0.21546629 -0.0625477 -0.22954994 0.10138118 0.09994557 -0.07265712 0.008595734
0.040387023 0.34545228 0.15820199 -0.10574573 -0.09921453 -0.004223744 -0.10673481 0.00018476316
0.010783911 0.07750824 0.035864018 0.04043778 0.013036567 -0.020180412 -0.21564862 -0.3283238
-0.048064057 -0.12811889 0.1599948 0.21426179 -0.39344108 -0.5491796 0.25744808 -0.074277006
-0.005135122 -0.007700771 0.008013721 -0.0001604574 0.38827103 1.9900315 -0.10818267 0.91559184
00000000: cb9b 13be ceee 9a3e e0be b5be 6848 04be
00000010: 14e5 89be 6ebf 9a3c 5613 4fbd 7d09 a03c
00000020: 8238 00bb c0f1 27be e63e 683c 561b abbe
00000030: 4881 c43c ec2c 253c 1439 a2bd 1ad9 d7bc
00000040: e4d7 563e 5eac 243e 1b19 a53e ccbe bfbd
00000050: 005f cc3d 777b 863e 5b36 a6be 9fc0 4ebe
00000060: 0451 65b9 bc2a 3e3c 9a77 eabb 7afa d63b
00000070: b929 bd3e cb30 033c d64f d0be 8fd4 b4bf
00000080: 490c 063e b4d8 c43d 89b5 633d 3ce5 4a3d
00000090: 2c20 c7bc 93d7 f23d 9801 4ebe a5b8 9abe
000000a0: 1a47 3e3d 6883 d33e 33cb 083e 2386 4f3e
000000b0: 6702 fabe a498 bdbe c96c ed3d 34cc 7b3d
000000c0: 84ad 443e c0c1 cabd b9f4 a4bc e2eb 04be
000000d0: a621 bb3c ebe1 d4bb 8ea1 08be 600b 953d
000000e0: 75e2 d23d 1021 35c0 067f bbbd f18f 20be
000000f0: 761f ae3c c6cd afbd ef62 883d 3551 8dbc
00000100: d820 a7bc dac7 1c3e 9777 b7be 1699 66bd
00000110: 9b66 9b3e 7ad6 6a3e 9ca7 eb3d 3ade bd3c
00000120: 2090 33bd 88de 98be 5cf8 dcbd 4658 85bd
00000130: 8c56 1a3e b359 263d 1e1f 903c b061 0cbe
00000140: e7b4 eabb c3ff 5f3a 2d50 debd a3a9 153e
00000150: f145 ccbd 7c2e 18bf b284 9f3e 508d 9e3c
00000160: d5b6 1fbd 7d4e 3f3d 07e2 65bd 0185 b6bc
00000170: 3b80 d53c eab3 053e 9e29 45be 2879 d53d
00000180: d0ea 14bc 59b4 00be 05f4 243d 8595 a03c
00000190: 0136 343e 2bc1 043e 3c9b aabd 21d7 273e
000001a0: 3e01 293e 580c a4bd f27a 673e b00f f03d
000001b0: d8cf e73c f24c 923c 0778 b1bd 9d77 893d
000001c0: eaf7 f53d 72e3 d1bf 6a39 9dbe bae2 833e
000001d0: 6a0e 0abe eadb 1fbc 7318 5cbe 9380 0f3d
000001e0: fced 383b b85b 2abd a549 22bf 41d9 123f
000001f0: 8d6f 15be 94a3 7b3d 6ba9 dbbe e1c6 7cbe
00000200: dcee 343e f94a f43d 4972 d73e 5ac1 03bd
00000210: f1c6 fcbd e21e 24bd fa41 10bd 53bf 373b
00000220: b4b2 49bc 4c2a 08bd 55bf cdbe efa6 a23e
00000230: 6278 393f e2b0 f9bc 88cf 523e 8d1d 30bf
00000240: ac91 dfbc 13b9 003c 0dfa 11bc ffbf 403c
00000250: e670 6b39 7c7e 1d3f 1f86 31bc 1fba b13e
00000260: 7be1 e43c a22c 91bc deb3 cf3e 99b1 31bf
00000270: 1091 8ebf f435 0d3f 62ff 60be e624 91bd
00000280: 43d1 f03e 9eaf 73be 5a93 773d 2877 2fbe
00000290: 4881 beba 964c 60bb 49b7 cf39 a77b 0fbc
000002a0: fc33 203e 83d5 c53e b89b 25bf a408 1c3e
000002b0: db54 fe3d 1f34 203c 686a f7bd 1df8 5dbb
000002c0: f229 68be b279 66bd 824d 5d3c d88c 953d
000002d0: 9beb c13b 674f 60bc eba0 4f3f 236d 993e
000002e0: 300b 52bf 7282 18bf 12e6 d6be a814 b73e
000002f0: 59ad d43e 554c c73e d11b c2bd eebe 93bd
00000300: 0c6e f93b 1826 7ebc 67a2 59bc e938 633b
00000310: 7f77 933d 45e5 743d 6914 a5be 4a78 4abd
00000320: dd16 a83a eb94 d83d f801 873d de63 11bd
00000330: ccaf d3bd 1573 10bc 3da7 40be 81d2 e03c
00000340: 1150 14be 5287 383d ab3e 56bd 7393 0cbe
00000350: 5ca3 233d e73b 1fbe fb41 fa3d 8121 46be
00000360: 3a0f 1bbe 32a3 5cbe 0219 80bd 240f 6bbe
00000370: f0a0 cf3d 43b0 cc3d 42cd 94bd 1fd5 0c3c
00000380: dd6c 253d 1fdf b03e b4ff 213e 3891 d8bd
00000390: fd30 cbbd 5567 8abb c897 dabd fcbc 4139
000003a0: 00af 303c a4bc 9e3d 26e6 123d 16a2 253d
000003b0: 5397 553c 6451 a5bc fed2 5cbe 0f1a a8be
000003c0: d1de 44bd 9931 03be add5 233e 7167 5b3e
000003d0: 1c71 c9be 0997 0cbf 3cd0 833e 8b1e 98bd
000003e0: 8744 a8bb c056 fcbb fb4b 033c 7540 28b9
000003f0: 76cb c63e 5ab9 fe3f e08e ddbd 3a64 6a3f

l1.bias f4 [200]
0.38338774 -0.13309489 -0.6417634 -0.2068732 -0.02831698 0.01140518 0.115704566 -0.16133152
0.663613 -0.29205343 0.13226032 -0.1960421 0.18209457 -0.54492533 -0.15095335 0.10472056
0.42463875 -0.06683247 0.22636795 0.3692746 -0.18966056 0.12769675 -0.11772165 -0.1645241
0.207911 0.21681105 0.7135422 -0.017278546 -0.16345283 0.32665256 0.32078913 0.35254285
-0.1519934 -0.1338847 -0.31703717 -0.25271675 0.12988342 0.11983169 0.35217494 0.14909865
0.10749339 0.0428164 0.16117068 -0.14491779 -0.06534267 -0.37540632 -0.335826 0.61048776
0.07701479 0.17787105 -0.04431475 0.5586574 0.3303283 0.21701986 0.49083173 -0.21653834
0.37204966 -0.02528644 0.14069104 0.07739228 0.21914248 0.013661585 -0.05580225 -0.12775302
0.014752215 0.400038 -0.4944727 -0.23777734 -0.2519018 0.15790759 0.5989516 -0.11810693
0.43689167 -0.07876521 0.11167735 -0.0032962284 -0.33143237 -0.1721181 0.34246907 -0.39344963
-0.0014760685 0.19524121 -0.289982 -0.28704005 0.23255506 0.31291705 -0.01973024 -0.07515515
0.23864922 0.19096714 -0.022880513 0.012273215 0.94259083 0.19800289 0.03901412 0.11970164
0.257815 0.035004172 0.25820836 0.1607702 0.012005384 -0.11517745 -0.31621382 -0.26490262
-0.13012221 -0.5428924 0.14690769 -0.01712224 -0.094061784 0.33507273 0.60513437 0.2529387
0.06727353 0.15561448 0.27163514 0.33103693 -0.3039848 -0.098477684 -0.4291206 0.20766586
-0.31595054 -0.36233556 0.49914977 0.6151387 0.41412532 0.20865308 -0.495739 -0.057339728
-0.594375 -0.39571917 0.015094965 0.2616515 -0.20288944 0.29411516 -0.14893995 -0.05761104
0.01909768 -0.06020495 0.08088941 0.005459307 -0.1360839 -0.046995185 0.1925396 -0.084291115
0.21641988 -0.02482771 -0.2951345 -0.22611862 0.14308667 0.14800237 0.2441226 -0.24359412
-0.114422046 -0.11171629 0.19590394 -0.14428225 0.38691068 0.040690996 0.13351823 -0.039169747
-0.018984532 0.07436877 -0.2339364 -0.34796438 -0.07981933 0.282203 0.4555794 0.12806916
0.03587096 0.33831942 -0.35238403 -0.15973696 0.21010087 0.118013665 -0.41695195 -0.3885434
0.12616752 -0.26354083 -0.25245452 -0.59900135 -0.060586795 0.12009416 -0.2845628 0.23348098
-0.21492624 -0.21451639 -0.09105988 0.43028897 0.5248406 -0.49535936 -0.13823788 -0.005744834
0.32761282 -0.067834385 0.26313207 0.18687655 -0.049191304 0.489549 -0.156654 -0.12002182
00000000: 664b c43e 074a 08be 9b4a 24bf 91d6 53be
00000010: 03f9 e7bc cbdc 3a3c 84f6 ec3d 1734 25be
00000020: 8be2 293f 0788 95be 406f 073e 43bf 48be
00000030: 0077 3a3e 3a80 0bbf 8493 1abe bc77 d63d
00000040: 406a d93e 76df 88bd 00cd 673e 8f11 bd3e
00000050: 6136 42be f0c2 023e 0c18 f1bd 0179 28be
00000060: 9fe6 543e b703 5e3e b4aa 363f bd8b 8dbc
00000070: 2e60 27be 013f a73e 793e a43e 7f80 b43e
00000080: 28a4 1bbe 1219 09be b252 a2be 1764 81be
00000090: 2900 053e 516a f53d 4650 b43e 51ad 183e
000000a0: 7f25 dc3d 4060 2f3d ed09 253e 5465 14be
000000b0: 61d2 85bd 4235 c0be 63f1 abbe ed48 1c3f
000000c0: eeb9 9d3d d423 363e 6283 35bd 2c04 0f3f
000000d0: ca20 a93e 743a 5e3e 4c4e fb3e 3abc 5dbe
000000e0: 4b7d be3e 8225 cfbc 5011 103e d87f 9e3d
000000f0: e366 603e d7d4 5f3c e690 64bd b0d1 02be
00000100: 46b3 713c c8d1 cc3e 872b fdbe e77b 73be
00000110: 46f9 80be 87b2 213e e454 193f 0ce2 f1bd
00000120: 44b0 df3e a84f a1bd 18b7 e43d 8905 58bb
00000130: 81b1 a9be ba3f 30be 1b58 af3e 3b72 c9be
00000140: a478 c1ba 50ed 473e 8578 94be eaf6 92be
00000150: ea22 6e3e aa36 a03e 50a1 a1bc f1ea 99bd
00000160: 7660 743e e48c 433e ea6f bbbc 9815 493c
00000170: a24d 713f 45c1 4a3e 45cd 1f3d 2226 f53d
00000180: 5400 843e 8960 0f3d e333 843e f1a0 243e
00000190: 3bb2 443c 28e2 ebbd c7e6 a1be 51a1 87be
000001a0: c23e 05be fffa 0abf f86e 163e f143 8cbc
000001b0: 77a3 c0bd a78e ab3e 16ea 1a3f 2e81 813e
000001c0: b4c6 893d 6759 1f3e c313 8b3e ac7d a93e
000001d0: e5a3 9bbe abae c9bd b2b5 dbbe 5ca6 543e
000001e0: 45c4 a1be 0c84 b9be 8f90 ff3e bb79 1d3f
000001f0: 3c08 d43e 27a9 553e 81d1 fdbe 10dd 6abd
00000200: f628 18bf b49b cabe df50 773c 2ff7 853e
00000210: 40c2 4fbe 4396 963e b783 18be 8ef9 6bbd
00000220: bd72 9c3c 7799 76bd 59a9 a53d fde3 b23b
00000230: 9459 0bbe 067e 40bd 1a29 453e d2a0 acbd
00000240: 2c9d 5d3e 7b63 cbbc df1b 97be a48b 67be
00000250: 5085 123e ef8d 173e 46fb 793e bd70 79be
00000260: 1b56 eabd 83cb e4bd 0b9b 483e babe 13be
00000270: 2819 c63e 9aab 263d 01b9 083e 7570 20bd
00000280: 7385 9bbc a74e 983d 068d 6fbe 6328 b2be
00000290: 5178 a3bd e97c 903e b441 e93e 9024 033e
000002a0: 6eed 123d 3438 ad3e ae6b b4be 1692 23be
000002b0: af24 573e 26b1 f13d ba7a d5be 29ef c6be
000002c0: 0f32 013e d3ee 86be b841 81be 2758 19bf
000002d0: dc29 78bd edf3 f53d 37b2 91be a315 6f3e
000002e0: a015 5cbe 2faa 5bbe 9a7d babd d64e dc3e
000002f0: f45b 063f be9f fdbe 3b8e 0dbe 293f bcbb
00000300: debc a73e c1ec 8abd 3fb9 863e 915c 3f3e
00000310: d27c 49bd 2ba6 fa3e e869 20be 00ce f5bd

l2.weight f4 [200, 200]
-0.062924534 -0.06736196 -0.30862582 -0.30402523 0.075540446 -0.23920545 -0.25462028 -0.17992643
0.27767977 0.1392075 -0.06459675 -0.16651821 -0.0775141 -0.125535 -0.14843957 0.17108642
0.41744462 -0.030573826 -0.02959917 0.20257345 0.106452145 -0.026652873 -0.0131701445 0.065101005
0.2725977 0.3761225 0.27755532 0.26340914 -0.08688417 -0.042912513 0.23505132 -0.20457783
-0.14831626 -0.11300572 0.4197874 0.07818409 0.09682334 0.10822444 -0.14062484 -0.13448602
-0.3564515 -0.043599594 -0.104293324 -0.056776762 -0.9045203 -0.7105848 -0.121281356 0.22934894
-0.13503648 -0.09894837 -0.14170484 0.08166844 -0.009998405 0.38183215 0.028690994 -0.20415786
-0.007244795 0.047231812 -0.5267285 0.058553487 0.19303644 0.27032873 0.4363669 0.009314412
-0.11347135 -0.2272275 -0.061815362 -0.07231883 -0.077775344 -0.1538656 0.3454781 -0.7718371
0.018478833 -0.14129114 -0.08096599 0.06444396 -0.033231772 0.26503015 -0.0071204933 -0.27985469
0.04417933 -0.051217787 0.037886772 -0.018161539 0.016710006 -0.111252286 0.049683247 -0.14857624
0.1237842 -0.10010944 -0.108074464 -0.15661661 -0.6472152 0.18636042 0.021361157 0.18485904
-0.05887488 0.09220735 -0.32999206 0.122457914 0.011447061 -0.18836664 -0.13827068 -0.6865987
-0.11547635 0.4338127 0.37241712 0.32383013 0.72817284 -0.24722517 0.15732704 0.12965786
-0.43449014 0.09224634 -0.19363332 -0.12882443 0.21437 0.31689385 -0.29082194 0.031533983
-0.18552715 0.12265814 0.06192879 0.31883126 0.31528738 0.169354 0.23368154 0.15354341
-0.024212021 -0.14114845 0.225995 0.18780999 -0.13781242 0.11994258 0.059703298 0.31205493
0.022364631 0.08982581 0.59551674 -0.1842657 -0.8700324 0.32048643 -0.006467284 -0.23260117
0.2592766 -0.09011642 -0.012590404 0.21584973 0.12947412 -0.2629009 0.17158374 -0.05861699
0.0031231656 0.050530024 -0.06279148 -0.01869474 0.46653828 0.063543126 -0.013018376 0.0966454
-0.47522312 -0.2502497 -0.15715957 -0.13889703 -0.077840805 0.26836768 0.3095494 0.36679313
-0.009581382 -0.11522813 0.20638704 0.1086078 -0.09622848 0.23137288 0.032810867 -0.115797356
0.06412435 -0.14621568 0.20153755 0.18198758 -0.27554163 -0.10954284 0.2889195 -0.18839717
-0.059073824 -0.13880737 0.08458108 0.20062652 0.08993194 0.07015193 0.030851625 0.018912684
0.14603013 0.048224445 0.15367022 -0.094988406 -0.1296256 0.27633253 -0.10587352 0.08983879
0.050032016 -0.21205156 -0.3950332 0.17898838 0.14110476 0.35221252 -0.2530495 0.2798017
-0.022398483 0.06465254 0.078269966 0.14200194 -0.30617708 0.1296844 0.021674406 0.72807467
0.04138427 0.011276285 0.0484055 0.45902416 -0.18717577 0.032236535 0.08612245 0.0027468288
-0.06757567 -0.20539774 0.072247185 -0.22266288 -0.033943377 0.079553634 0.07374292 -1.4374117
0.04614284 0.022006353 0.35693172 0.05315413 -0.08824484 0.123020776 0.13488488 0.14780293
-0.14955957 -0.054113723 -0.45983228 -0.45182785 -0.22543995 0.18394202 0.12808502 -0.24397533
-0.532107 0.13283822 -0.021349894 0.10617429 -0.32890174 -0.36307532 -0.07916317 -0.020919371
00000000: 94de 80bd 11f5 89bd 3404 9ebe 32a9 9bbe
00000010: f3b4 9a3d 46f2 74be 975d 82be a23e 38be
00000020: 0b2c 8e3e 698c 0e3e 4d4b 84bd c083 2abe
00000030: b6bf 9ebd 3f8c 00be 8b00 18be 4731 2f3e
00000040: 4dbb d53e f675 fabc f579 f2bc 6a6f 4f3e
00000050: 9503 da3d 2057 dabc 97c7 57bc ad53 853d
00000060: ed91 8b3e 2193 c03e bb1b 8e3e 90dd 863e
00000070: 54f0 b1bd 08c5 2fbd 4bb1 703e da7c 51be
00000080: 38e0 17be 8b6f e7bd 60ee d63e fb1e a03d
00000090: 514b c63d c6a4 dd3d f5ff 0fbe b4b6 09be
000000a0: d080 b6be 7d95 32bd bd97 d5bd c08e 68bd
000000b0: a48e 67bf e3e8 35bf 5c62 f8bd 73da 6a3e
000000c0: 0147 0abe 71a5 cabd 131b 11be c841 a73d
000000d0: 5ad0 23bc 817f c33e 6009 eb3c c20e 51be
000000e0: bf65 edbb 2576 413d aed7 06bf c8d5 6f3d
000000f0: 58ab 453e 8768 8a3e 7b6b df3e 7a9b 183c
00000100: ab63 e8bd 53ae 68be 1b32 7dbd e51b 94bd
00000110: ae48 9fbd f28e 1dbe 81e2 b03e 1e97 45bf
00000120: ec60 973c a0ae 10be 7fd1 a5bd 32fb 833d
00000130: 0a1e 08bd 08b2 873e 0753 e9bb 1d49 8fbe
00000140: 63f5 343d bec9 51bd 292f 1b3d 82c7 94bc
00000150: 6ce3 883c 3dd8 e3bd a980 4b3d 5f24 18be
00000160: 9282 fd3d 2e06 cdbd 2556 ddbd 1b60 20be
00000170: e5af 25bf 44d5 3e3e 98fd ae3c b04b 3d3e
00000180: c926 71bd 35d7 bc3d b8f4 a8be 37cb fa3d
00000190: 748c 3b3c 2fe3 40be d496 0dbe efc4 2fbf
000001a0: dd7e ecbd b31c de3e 75ad be3e 10cd a53e
000001b0: 8969 3a3f 9828 7dbe 571a 213e 08c5 043e
000001c0: 7e75 debe a6eb bc3d d047 46be 8dea 03be
000001d0: cf83 5b3e e93f a23e 9de6 94be c729 013d
000001e0: d4fa 3dbe 3134 fb3d 0ba9 7d3d da3d a33e
000001f0: 596d a13e 236b 2d3e 374a 6f3e 7c3a 1d3e
00000200: 4a58 c6bc 3889 10be 3c6b 673e 4351 403e
00000210: b31e 0dbe 75a4 f53d 728b 743d aac5 9f3e
00000220: 0836 b73c 98f6 b73d c973 183f 26b0 3cbe
00000230: 72ba 5ebf cc16 a43e 83eb d3bb 002f 6ebe
00000240: e7bf 843e f58e b8bd fb47 4ebc b607 5d3e
00000250: dd94 043e f29a 86be a6b3 2f3e 5e18 70bd
00000260: 06ae 4c3b 92f8 4e3d d298 80bd b625 99bc
00000270: 1bde ee3e e622 823d 074b 55bc 06ee c53d
00000280: 7250 f3be bb20 80be 70ee 20be 063b 0ebe
00000290: 006b 9fbd 7d67 893e 427d 9e3e 4fcc bb3e
000002a0: 3bfb 1cbc bafc ebbd 2057 533e c46d de3d
000002b0: 7013 c5bd 03ed 6c3e b064 063d 2a27 edbd
000002c0: a153 833d 90b9 15be dc5f 4e3e f45a 3a3e
000002d0: cb13 8dbe ff57 e0bd 42ed 933e 30eb 40be
000002e0: 65f7 71bd 8523 0ebe d838 ad3d 0a71 4d3e
000002f0: 3d2e b83d d1ab 8f3d 8cbc fc3c c6ee 9a3c
00000300: ec88 153e ff86 453d ba5b 1d3e 4889 c2bd
00000310: 93bc 04be 757b 8d3e 37d4 d8bd 66fd b73d
00000320: 5fee 4c3d 0b24 59be cb41 cabe bb48 373e
00000330: c47d 103e 3355 b43e b48f 81be 2b42 8f3e
00000340: 067d b7bc 8d68 843d 014c a03d f568 113e
00000350: 3ec3 9cbe fdcb 043e 868e b13c 1a63 3a3f
00000360: 8d82 293d 2bc0 383c d844 463d 3705 eb3e
00000370: 01ab 3fbe 750a 043d f860 b03d 2404 343b
00000380: 1d65 8abd c953 52be 55f6 933d bd01 64be
00000390: 3608 0bbd 04ed a23d 8706 973d 1bfd b7bf
000003a0: 4600 3d3d ab46 b43c c1bf b63e 25b8 593d
000003b0: b6b9 b4bd 51f2 fb3d 431f 0a3e a759 173e
000003c0: 2526 19be 5aa6 5dbd 236f ebbe fb55 e7be
000003d0: bbd9 66be 4c5b 3c3e b828 033e abd4 79be
000003e0: 2a38 08bf be06 083e f9e5 aebc e871 d93d
000003f0: cf65 a8be 02e5 b9be 4d20 a2bd 1a5f abbc

l2.bias f4 [200]
0.26136464 -0.15149435 0.10667954 0.09134391 0.06766412 0.11924289 0.011402585 -0.15881486
-0.16722137 -0.12285259 0.013051891 0.07745642 0.015447385 0.04208393 0.0038112612 -0.08799732
-0.17610918 0.05250643 0.007441646 0.13659418 -0.0689359 -0.05780654 0.12189221 0.18264095
-0.040898055 0.07822204 -0.0490138 -0.2680379 -0.116858 0.06538929 -0.012111279 -0.1202348
-0.11240761 0.10849009 -0.067396134 -0.025956463 -0.13515064 -0.090403385 -0.025520679 0.012129168
0.038932964 0.1528635 -0.091662586 -0.11808996 -0.17154214 0.0007558366 -0.04465772 0.08472347
0.13853315 -0.11390702 -0.09395245 -0.09082078 -0.03916079 0.09208985 0.03937577 0.10245626
-0.06948772 -0.18660198 -0.11112329 -0.06681219 0.098967135 -0.13574572 -0.024346989 -0.034254856
0.12910117 -0.14464226 0.027700277 -0.088974096 -0.046043616 -0.08161124 0.087964036 -0.13467097
0.15050893 -0.122074455 -0.10019201 0.13386512 -0.06853069 -0.18769673 0.14000812 -0.042029932
0.037820406 0.11461925 0.0112369135 0.14379841 0.080710776 0.0745048 0.1656744 -0.15980159
0.02621039 -0.0085471785 -0.058830258 0.051393747 0.022314481 0.14202406 -0.41988236 0.123153634
-0.19438949 -0.009609312 -0.0415119 0.07610487 0.019327408 -0.089134134 -0.12712283 0.14926058
-0.03395712 0.036975816 -0.20403056 -0.07605209 -0.20346771 0.032827515 -0.06663976 -0.020781359
-0.014224406 0.13959198 -0.08076624 -0.050911434 0.07703938 0.00787962 -0.29404002 -0.017652636
-0.0840866 -0.11144289 -0.15239146 0.08893093 -0.026705302 0.039999783 -0.07752078 0.09606244
-0.08808706 0.0020652309 -0.11920559 -0.04419468 0.03450042 0.14423919 -0.07162676 0.002691891
0.038827635 0.024909154 0.15766829 -0.03180978 -0.0010941318 0.064618774 0.032894522 -0.025686324
0.12748803 0.036530357 0.028252762 0.13767785 0.0537645 -0.08645513 0.011919875 -0.18843934
-0.14687727 0.04704175 -0.16928525 -0.21066388 -0.02480142 0.12044344 0.022316169 -0.011759409
0.061868273 -0.0043985955 -0.19126295 -0.034523316 -0.20771039 0.032979257 -0.034302957 -0.14633106
-0.103273 -0.05004996 -0.049114183 0.053474814 -0.08276999 0.08265473 0.08196763 -0.1183545
-0.03017337 0.008529931 0.043809634 0.122126 0.07074504 -0.013613958 0.11725536 -0.054834947
0.034228608 0.023878679 -0.004325791 0.060874812 0.15963769 0.22051108 -0.09394669 0.05449777
-0.024881221 -0.08553916 0.095749676 -0.055359516 0.124734126 -0.073838234 0.14887317 -0.01308706
00000000: 96d1 853e 5621 1bbe cd7a da3d 8412 bb3d
00000010: 7c93 8a3d 9e35 f43d e8d1 3a3c 5da0 22be
00000020: 143c 2bbe 249a fbbd 99d7 553c 79a1 9e3d
00000030: 0717 7d3c 3360 2c3d 5ac6 793b f037 b4bd
00000040: f755 34be fb10 573d 0dd9 f33b 58df 0b3e
00000050: 442e 8dbd 8dc6 6cbd 9fa2 f93d 3b06 3b3e
00000060: b884 27bd e032 a03d b2c2 48bd 433c 89be
00000070: 3f53 efbd d2ea 853d 636e 46bc aa3d f6bd
00000080: f635 e6bd 0d30 de3d fc06 8abd a6a2 d4bc
00000090: ee64 0abe 6925 b9bd be10 d1bc 6bb9 463c
000000a0: 2c78 1f3d 4088 1c3e 98b9 bbbd 26d9 f1bd
000000b0: bea8 2fbe 5623 463a 03eb 36bd 8083 ad3d
000000c0: a2db 0d3e 1548 e9bd 246a c0bd 3f00 babd
000000d0: 1167 20bd 9a99 bc3d 7d48 213d 96d4 d13d
000000e0: 944f 8ebd 9714 3fbe 9c94 e3bd d4d4 88bd
000000f0: 48af ca3d ed00 0bbe 5673 c7bc d24e 0cbd
00000100: 1933 043e 1a1d 14be b1eb e23c 0d38 b6bd
00000110: 3b98 3cbd cb23 a7bd 7d26 b43d 30e7 09be
00000120: 031f 1a3e 2c02 fabd 7831 cdbd f013 093e
00000130: d259 8cbd 9233 40be 4a5e 0f3e 9427 2cbd
00000140: 92e9 1a3d 7fbd ea3d 081b 383c e43f 133e
00000150: b14b a53d f995 983d 8da6 293e 07a3 23be
00000160: 2cb7 d63c 7709 0cbc fff7 70bd 4082 523d
00000170: dccc b63c c16e 113e d2fa d6be f937 fc3d
00000180: 0a0e 47be 6070 1dbc 6208 2abd dfdc 9b3d
00000190: 8354 9e3c f58b b6bd 7d2c 02be c4d7 183e
000001a0: 9f16 0bbd f473 173d 63ed 50be 33c1 9bbd
000001b0: d759 50be 2576 063d 6d7a 88bd ab3d aabc
000001c0: 7c0d 69bc 33f1 0e3e c568 a5bd 8288 50bd
000001d0: d3c6 9d3d 8619 013c 6a8c 96be 439c 90bc
000001e0: 9835 acbd 2b3c e4bd 820c 1cbe 6b21 b63d
000001f0: 14c5 dabc d0d6 233d 37c3 9ebd 62bc c43d
00000200: fd66 b4bd d358 073b 0f22 f4bd 7b05 35bd
00000210: 5050 0d3d 70b3 133e 0db1 92bd 706a 303b
00000220: ba09 1f3d 480e cc3c cc73 213e f94a 02bd
00000230: f968 8fba d956 843d 68bc 063d 206c d2bc
00000240: 398c 023e dba0 153d 5672 e73c 6cfb 0c3e
00000250: 2a38 5c3d 630f b1bd 944b 433c 3ef6 40be
00000260: ff66 16be daae 403d 1d59 2dbe 46b8 57be
00000270: 592c cbbc 0dab f63d 66d0 b63c 89aa 40bc
00000280: 9669 7d3d 1822 90bb 6fda 43be 5268 0dbd
00000290: 08b2 54be 4215 073d 4281 0cbd cfd7 15be
000002a0: cb80 d3bd 3001 4dbd f42b 49bd 6808 5b3d
000002b0: 5083 a9bd e246 a93d a5de a73d d863 f2bd
000002c0: 252e f7bc 20c1 0b3c bb71 333d 321d fa3d
000002d0: c7e2 903d 140d 5fbc 9423 f03d 9c9a 60bd
000002e0: 4c33 0c3d 389d c33c 5dbf 8dbb de57 793d
000002f0: 1078 233e a8cd 613e 1f67 c0bd 0e39 5f3d
00000300: b4d3 cbbc 282f afbd 6818 c43d a9c0 62bd
00000310: 9b74 ff3d 8038 97bd 3572 183e 1c6b 56bc

l3.weight f4 [1, 200]
-1.33267 0.79424334 -2.3596022 -1.236239 -1.1343182 -1.0436066 0.18967037 0.77089506
0.8243996 1.3061559 -0.8936989 0.8273933 -2.941028 -2.8241007 -2.1322246 0.73858166
0.7050048 -2.1391551 1.2572345 -1.1063453 0.88850975 0.3956809 -0.3639971 -1.02905
-1.2004515 -1.0787523 0.5098124 2.3821259 -4.0612426 0.84328276 0.41245964 -2.095966
1.1634707 -2.6415637 0.55577105 0.6333251 0.97635996 0.6463839 0.40946028 1.6687337
-0.9616894 -1.4292922 -2.9877496 0.431395 1.4616292 -1.9932958 -1.4102687 -2.9837935
-1.0632118 0.50938004 0.5256038 1.3221215 0.02716969 -1.659634 -1.4607891 -0.90555817
0.47793427 2.0637512 1.3853596 0.8343671 -1.8160778 -1.6593688 -1.0279746 0.41063595
-1.1806406 1.4988075 1.5028319 0.6141674 1.4067467 0.8770339 -1.1929854 -1.732845
-0.7576926 2.9273195 0.39740318 -0.5792283 0.6687026 1.4410334 -2.6504781 0.5350942
-0.6597352 -1.1186715 -1.1721035 2.0092192 -1.0192024 -0.80240524 -1.2877979 0.8149228
-2.3965986 0.29784814 0.03469094 -0.9621523 0.40324727 -1.356858 3.4745176 -0.98410547
0.95218784 0.28967085 1.3482963 -3.1561904 0.36947158 0.67419785 0.54499584 -2.1053505
0.528429 -1.531927 0.9635692 -1.4622691 0.9217857 1.4531063 0.73791593 1.3199122
0.039407067 2.51784 0.39613312 -1.7400895 -3.1694682 0.30518797 1.8685939 0.18391825
0.71772164 0.2610014 0.47973892 1.1084654 -1.8436816 -3.499501 -1.4754483 -1.390574
0.79358494 0.03194127 -2.071952 0.4126296 -0.94362104 -4.8796806 0.6945562 -1.2694912
-3.3145838 1.7025019 -0.9860182 0.7101505 -1.3587493 -0.80835056 1.9621441 -1.9280376
-4.8036513 -1.7516537 -0.9421549 -1.7125914 -1.203804 2.939004 0.17879125 -1.7460954
1.0355237 -0.818239 0.70166457 0.7087135 -1.2443274 -2.086476 -1.8844718 -1.1509649
-1.2235392 0.20226412 0.9441385 0.4112687 2.585906 0.15816508 0.26631695 -1.717364
1.2102673 0.96050364 0.25911215 -3.7111478 -0.04865811 -1.066217 -0.9980759 1.1299944
-1.5283587 0.20095366 -1.620199 -0.958107 0.26230532 1.5534192 3.0562434 -0.0021321776
-0.9692599 -0.8377941 0.23001726 1.2537441 -0.45363435 2.449893 0.62314254 -0.002500175
-2.324108 0.78328097 -1.195041 0.8295751 1.5851873 0.6529434 2.2976544 -1.4224275
00000000: ee94 aabf 8853 4b3f b903 17c0 143d 9ebf
00000010: 5731 91bf e794 85bf f338 423e 6159 453f
00000020: da0b 533f 1e30 a73f 73c9 64bf 0cd0 533f
00000030: ce39 3cc0 11be 34c0 5e76 08c0 b013 3d3f
00000040: 327b 343f ebe7 08c0 0fed a03f b99c 8dbf
00000050: 6075 633f b096 ca3e d45d babe e9b7 83bf
00000060: 65a8 99bf 8e14 8abf 1183 023f c074 1840
00000070: b3f5 81c0 61e1 573f e92d d33e 4f24 06c0
00000080: 9cec 943f 610f 29c0 0347 0e3f 9821 223f
00000090: baf2 793f 6a79 253f c7a4 d13e 1199 d53f
000000a0: 4731 76bf 0cf3 b6bf 4a37 3fc0 cedf dc3e
000000b0: aa16 bb3f 5124 ffbf af83 b4bf 79f6 3ec0
000000c0: 5317 88bf bb66 023f f88d 063f 473b a93f
000000d0: f892 de3c e36e d4bf 23fb babf a9d2 67bf
000000e0: cdb3 f43e 8014 0440 7753 b13f 1599 553f
000000f0: 3d75 e8bf 3266 d4bf ac94 83bf e03e d23e
00000100: 3b1f 97bf edd8 bf3f cc5c c03f 133a 1d3f
00000110: 4710 b43f 4b85 603f bfb3 98bf ddcd ddbf
00000120: 24f8 41bf 3459 3b40 6e78 cb3e 4e48 14bf
00000130: 1830 2b3f c873 b83f 6fa1 29c0 effb 083f
00000140: 68e4 28bf a130 8fbf 7d07 96bf 0c97 0040
00000150: 3975 82bf 6e6a 4dbf 90d6 a4bf c89e 503f
00000160: df61 19c0 8d7f 983e 1618 0e3d 9d4f 76bf
00000170: 6d76 ce3e 86ad adbf 7f5e 5e40 56ee 7bbf
00000180: 95c2 733f bd4f 943e f994 ac3f 06ff 49c0
00000190: 612b bd3e 3b98 2c3f d984 0b3f 10be 06c0
000001a0: 1f47 073f 2f16 c4bf 79ac 763f a22b bbbf
000001b0: 26fa 6b3f 63ff b93f 0fe8 3c3f e2f2 a83f
000001c0: 4e69 213d 4a24 2140 f6d1 ca3e 41bb debf
000001d0: 91d8 4ac0 9941 9c3e 162e ef3f 1155 3c3e
000001e0: 9bbc 373f faa1 853e 57a0 f53e 32e2 8d3f
000001f0: c2fd ebbf d3f7 5fc0 7ddb bcbf 54fe b1bf
00000200: 6228 4b3f d9d4 023d dd9a 04c0 3044 d33e
00000210: 2691 71bf 5826 9cc0 6fce 313f b07e a2bf
00000220: 2422 54c0 95eb d93f b06b 7cbf 6ccc 353f
00000230: 7feb adbf 10f0 4ebf 8a27 fb3f f0c9 f6bf
00000240: 83b7 99c0 3036 e0bf 1031 71bf 3236 dbbf
00000250: 4016 9abf a418 3c40 0e15 373e 0e80 dfbf
00000260: 0a8c 843f 1c78 51bf 4aa0 333f 3f6e 353f
00000270: 1f46 9fbf d388 05c0 5f36 f1bf d152 93bf
00000280: ef9c 9cbf 531e 4f3e 10b3 713f d091 d23e
00000290: 7c7f 2540 07f6 213e b25a 883e 95d2 dbbf
000002a0: 0aea 9a3f 91e3 753f 59aa 843e 7283 6dc0
000002b0: ba4d 47bd cc79 88bf e781 7fbf a8a3 903f
000002c0: 42a1 c3bf ccc6 4d3e ae62 cfbf 8046 75bf
000002d0: e24c 863e 71d6 c63f 7e99 4340 01bc 0bbb
000002e0: 6b21 78bf ad79 56bf a589 6b3e b07a a03f
000002f0: c342 e8be 0ccb 1c40 4586 1f3f fad9 23bb
00000300: 2fbe 14c0 1a85 483f 1af7 98bf 095f 543f
00000310: 6be7 ca3f 4c27 273f c50c 1340 1b12 b6bf

l4.weight f4 [200, 28]
-0.2700389 -4.204224 -0.08024727 1.2942935 0.038162425 -0.3702619 -0.10189591 -0.15209725
-0.034539536 -0.26101086 -0.15809345 -0.11836682 -0.05705373 0.044891596 0.2806128 0.13180056
-0.22121128 -0.21252544 0.07356793 0.119678296 0.13747986 0.19215734 0.040657733 -0.26942664
-0.05269032 -0.0683378 -0.0057297996 -0.019030022 0.479618 0.25882846 0.06016537 -0.61225265
-0.20118012 0.029864125 -0.13119513 0.015695918 0.03421952 0.5277557 0.060773328 0.23518953
0.013232669 0.028999036 -0.07362304 -0.12168589 -0.213704 -0.2451573 0.07372874 -0.32188147
0.3316431 0.26884088 0.53022355 -0.49062976 0.008404882 -0.0060816035 0.03342886 -0.009185776
-0.10578581 -0.9380555 -0.45992303 -1.135145 0.04845703 -0.06397004 0.074585594 -0.027164165
-0.00501709 0.40984762 0.074529536 0.14461823 0.035530902 -0.03065457 0.42745066 0.088251375
0.29280716 0.27475947 0.16345946 0.12805538 -0.36903444 0.28062585 -0.27171576 0.054378755
-0.029077383 0.014698854 0.018049436 0.019250812 0.23342831 -1.5027223 -0.2504618 -0.71189266
-0.021696372 -0.10028376 -0.00058204535 -0.009837192 -0.002211908 0.045822512 -0.18560748 0.29995638
0.046104353 -0.016538741 -0.0818076 -0.37736756 -0.4167425 0.5733519 0.31114992 0.036352117
-0.07620081 0.07238952 -0.23073532 0.10298826 0.008755029 -0.016693749 -0.1306684 0.06298297
0.39968857 -0.1931096 -0.17008783 0.5265923 0.15420592 -0.015848964 0.07656323 -0.008099705
-0.00642346 0.33284155 0.051702097 0.25687632 0.011583078 0.020114558 0.36258397 0.31503257
-0.066196784 -0.61132175 -0.3676338 0.04989845 0.49225816 0.13116872 -0.48834273 -0.052436955
0.023757521 0.0151455775 0.03262037 0.019422604 0.27842024 1.6868892 -0.45053604 0.009034972
-0.07448642 0.082824305 -0.056710415 0.04127988 0.009801842 0.16983801 0.12335036 0.046913803
0.021156559 0.0733368 0.05312746 0.1386371 -0.25563204 -0.29705927 0.6600101 -0.44193652
0.23738022 0.40740758 -0.2573797 0.07304811 0.0063148825 0.0012629179 0.027166143 -0.016901502
-0.49296895 0.20688361 -0.29639578 -0.0014206353 -0.08020797 -0.0025068272 0.049618512 -0.0017366156
0.004980947 0.3080352 -0.010560012 0.08110823 -0.019078566 0.033714075 -0.27071273 -0.19815579
-0.3390344 -0.23242103 0.11621758 -0.38036874 -0.1196637 0.36492705 0.17175785 0.167524
0.016743906 0.019891404 -0.030243024 0.031012269 -0.20426151 1.1613607 0.31190634 -0.76565564
-0.23800687 0.019113703 -0.12062801 -0.006331324 0.0025773805 0.04717466 0.057357304 -0.055342775
0.02486877 -0.0087302765 -0.21194209 -0.5739047 0.02925452 0.3236957 -0.22308555 0.3956341
-0.078375675 0.16085398 0.2796853 -0.07273408 -0.012669667 -0.02234179 0.010554149 -0.02038604
-0.37871116 -0.8513366 0.43096808 0.38662782 0.045649882 -0.12094064 0.0459192 -0.04274255
-0.011164513 -0.29659724 -0.004660963 -0.19672544 -0.026568532 -0.035546284 0.18920918 -0.10121279
-0.0726304 -0.14606017 -0.27788737 0.12637646 0.007172828 0.5570361 0.109133564 0.14582878
-0.026433377 -0.0135347145 -0.00015101132 -0.0036350463 -0.5160026 -1.0233157 0.2527112 -1.3704439
00000000: 8a42 8abe 0189 86c0 ae58 a4bd 69ab a53f
00000010: 3450 1c3d f892 bdbe ceae d0bd 62bf 1bbe
00000020: 5479 0dbd 37a3 85be 40e3 21be 4e6a f2bd
00000030: 2cb1 69bd 40e0 373d 7bac 8f3e baf6 063e
00000040: 3685 62be 45a0 59be c8aa 963d e519 f53d
00000050: 85c7 0c3e e5c4 443e b988 263d 4af2 89be
00000060: ced1 57bd b0f4 8bbd 0bc1 bbbb d9e4 9bbc
00000070: 7e90 f53e 2a85 843e f76f 763d 97bc 1cbf
00000080: 2902 4ebe 9ca5 f43c 0458 06be ba94 803c
00000090: c429 0c3d ff1a 073f 74ed 783d 86d5 703e
000000a0: d6cd 583c 638f ed3c adc7 96bd 7436 f9bd
000000b0: 39d5 5abe 840a 7bbe 18ff 963d a6cd a4be
000000c0: 20cd a93e 83a5 893e bbbc 073f d333 fbbe
000000d0: a1b4 093c 3048 c7bb b3ec 083d f07f 16bc
000000e0: 3ba6 d8bd 6824 70bf 087b ebbe 6e4c 91bf
000000f0: e17a 463d b902 83bd 55c0 983d 6287 debc
00000100: 6766 a4bb 8cd7 d13e f1a2 983d cd16 143e
00000110: da88 113d 4b1f fbbc d0da da3e 23bd b43d
00000120: d2ea 953e 46ad 8c3e eb61 273e f320 033e
00000130: 15f2 bcbe 31ae 8f3e 541e 8bbe 42bc 5e3d
00000140: b133 eebc 76d3 703c 69dc 933c e1b3 9d3c
00000150: d507 6f3e 3459 c0bf 873c 80be 993e 36bf
00000160: 97bc b1bc 9261 cdbd 6794 18ba 2c2c 21bc
00000170: a9f5 10bb 63b0 3b3d e30f 3ebe e293 993e
00000180: ebd7 3c3d 417c 87bc be8a a7bd 5236 c1be
00000190: 465f d5be 31c7 123f 0b4f 9f3e f5e5 143d
000001a0: 2c0f 9cbd f540 943d e145 6cbe 82eb d23d
000001b0: 4171 0f3c 54c1 88bc f0cd 05be 37fd 803d
000001c0: fba3 cc3e 86be 45be 812b 2ebe c1ce 063f
000001d0: 28e8 1d3e b0d5 81bc 2fcd 9c3d a0b4 04bc
000001e0: e37b d2bb 356a aa3e 94c5 533d 4b85 833e
000001f0: f3c6 3d3c 49c7 a43c 9ba4 b93e f34b a13e
00000200: 2e92 87bd 957f 1cbf 7f3a bcbe 5162 4c3d
00000210: 4309 fc3e 1851 063e 0f08 fabe 22c8 56bd
00000220: 229f c23c 2825 783c f09c 053d 271c 9f3c
00000230: 198d 8e3e fceb d73f a9ac e6be 6b07 143c
00000240: 568c 98bd ca9f a93d 2e49 68bd 1715 293d
00000250: e897 203c 04ea 2d3e 1d9f fc3d b028 403d
00000260: 8550 ad3c 9b31 963d 2e9c 593d e2f6 0d3e
00000270: 34e2 82be 2718 98be 6cf6 283f 8145 e2be
00000280: cd13 733e ba97 d03e 46c7 83be 3f9a 953d
00000290: 13ed ce3b 7e88 a53a 888b de3c 0575 8abc
000002a0: 6d66 fcbe 4cd9 533e 30c1 97be 9c34 baba
000002b0: 1444 a4bd 9549 24bb c83c 4b3d 269f e3ba
000002c0: 3637 a33b cab6 9d3e e703 2dbc 121c a63d
000002d0: a74a 9cbc c517 0a3d dc9a 8abe 5ae9 4abe
000002e0: eb95 adbe c7ff 6dbe 7c03 ee3d b1bf c2be
000002f0: 3e12 f5bd b8d7 ba3e 4ae1 2f3e 698b 2b3e
00000300: 842a 893c 4cf3 a23c 38c0 f7bc 710d fe3c
00000310: ee29 51be 78a7 943f 30b2 9f3e 0202 44bf
00000320: 13b8 73be 5794 9c3c d10b f7bd ff76 cfbb
00000330: 45e9 283b 373a 413d 7eef 6a3d 1baf 62bd
00000340: 97b9 cb3c 6f09 0fbc 5907 59be 6beb 12bf
00000350: 2da7 ef3c 71bb a53e 8a70 64be 8e90 ca3e
00000360: 6d83 a0bd e8b6 243e e932 8f3e 9bf5 94bd
00000370: 6f94 4fbc 2106 b7bc 4feb 2c3c a000 a7bc
00000380: 6ee6 c1be 32f1 59bf d9a7 dc3e 15f4 c53e
00000390: 5ffb 3a3d baaf f7bd c515 3c3d d012 2fbd
000003a0: 5deb 36bc 98db 97be feba 98bb 6572 49be
000003b0: 40a6 d9bc fb98 11bd 0dc0 413e a748 cfbd
000003c0: 3fbf 94bd cc90 15be 4147 8ebe d568 013e
000003d0: 0b0a eb3b eb99 0e3f 6b81 df3d 2454 153e
000003e0: cf8a d8bc b5c0 5dbc cb58 1eb9 f539 6ebb
000003f0: bf18 04bf 02fc 82bf 5d63 813e b56a afbf

l4.bias f4 [200]
0.028272348 -0.26780277 -0.09819676 0.17230059 0.3522996 -0.09795992 0.11461887 -0.30153483
-0.2193691 -0.19330639 -0.11633739 -0.46228233 0.109591715 -0.281642 -0.0704234 0.21066727
0.22885418 -0.00040580815 -0.023158636 0.010899396 0.45348907 0.26821685 0.11994142 -0.14959443
0.532986 -0.15153606 0.04365639 -0.08200317 0.16543946 -0.2675007 0.036622364 -0.20643367
0.4560628 -0.21936138 0.1540026 0.027957698 -0.0736884 -0.27546042 0.3218865 0.47061977
0.3570068 -0.27676564 -0.30017436 -0.5024746 0.02830832 0.39807338 -0.2664117 0.06138663
-0.0137652205 0.071815036 -0.19786519 -0.017080514 -0.08837934 0.37879187 -0.2997758 0.402745
0.29964617 0.41055357 -0.20888303 -0.32194978 0.14924487 0.04500639 -0.21920563 -0.1920226
0.031750105 -0.44663492 0.415552 0.05282222 -0.39357877 -0.181725 -0.031068211 -0.25264195
0.2523718 0.20558271 0.022198336 0.20630828 0.4458733 0.27326667 -0.052576035 -0.3059504
0.05406202 -0.2433627 -0.09124529 -0.23574948 0.23730151 -0.23413478 -0.20961703 0.10488876
0.10715169 -0.30447108 0.043908656 0.16967034 0.3172667 -0.18850838 0.0011031944 -0.37192395
-0.19768928 -0.21996108 -0.41710213 -0.42109746 0.12521327 0.16445227 0.3614026 -0.23982343
-0.12967153 0.23444079 -0.22077848 -0.090953834 -0.30128562 0.23353529 -0.16423847 0.109089136
0.3676598 0.24007304 0.41485244 -0.26513678 -0.15503749 -0.022272322 0.21657923 0.027842259
0.07774405 -0.23700598 0.14130409 -0.08327999 -0.3457011 -0.34867907 -0.11419389 0.29988956
-0.17838913 0.4418133 0.27753037 0.073820986 0.3725387 -0.23724434 0.19264632 -0.4601387
0.14666662 -0.5211064 -0.37503204 0.5457475 -0.12479797 -0.11044642 -0.4753457 -0.28322718
-0.13237579 0.094000004 0.2325405 -0.24732625 0.47420484 0.2682454 0.23121007 -0.45012668
-0.042408954 -0.4063658 -0.4575133 -0.19461948 0.076087 0.12785657 0.06446515 0.5649011
0.20218265 -0.095234275 0.030678764 -0.26580313 -0.12345854 0.057042453 0.69546723 -0.22422339
0.037976462 -0.13138048 -0.011864787 0.06350542 -0.02338925 -0.1819816 0.20239939 0.18529369
0.08012426 -0.13651077 -0.2997641 0.15793449 0.47942555 -0.3185347 0.32785037 0.14021593
-0.14012408 0.18838966 -0.086911455 -0.20385341 0.25246012 -0.3024519 -0.064841285 0.23398817
-0.25510854 0.52757984 -0.11394361 0.11839677 0.023413379 0.48044607 -0.48686317 -0.31649035
00000000: 699b e73c 721d 89be 621b c9bd 916f 303e
00000010: 9d60 b43e 369f c8bd 4cbd ea3d c662 9abe
00000020: 4ba2 60be 1cf2 45be 4c42 eebd 45b0 ecbe
00000030: 9f71 e03d 6133 90be 253a 90bd 29b9 573e
00000040: c058 6a3e a6c2 d4b9 2eb7 bdbc 6193 323c
00000050: b82f e83e b853 893e d9a3 f53d 482f 19be
00000060: c571 083f 452c 1bbe 0bd1 323d 47f1 a7bd
00000070: f668 293e daf5 88be 5501 163d 5963 53be
00000080: 1081 e93e 45a0 60be dcb2 1d3e 8b07 e53c
00000090: f2e9 96bd 2609 8dbe 4fce a43e 13f5 f03e
000000a0: 98c9 b63e 3ab4 8dbe 74b0 99be 2da2 00bf
000000b0: dae6 e73c 46d0 cb3e 1d67 88be 8c70 7b3d
000000c0: 8587 61bc c313 933d 2c9d 4abe 6fec 8bbc
000000d0: 3a00 b5bd 02f1 c13e 377c 99be 9834 ce3e
000000e0: 396b 993e 1434 d23e 6fe5 55be 9ad6 a4be
000000f0: a6d3 183e 9f58 383d 7177 60be 93a1 44be
00000100: 660c 023d 55ad e4be 3bc3 d43e 1d5c 583d
00000110: 2883 c9be 1e16 3abe c382 febc 495a 81be
00000120: e036 813e 4684 523e 49d9 b53c 7a42 533e
00000130: 8149 e43e 9ce9 8b3e f859 57bd 88a5 9cbe
00000140: 2370 5d3d 1234 79be d0de babd 5068 71be
00000150: 2bff 723e 07c1 6fbe d9a5 56be ebcf d63d
00000160: 5872 db3d a2e3 9bbe 90d9 333d 10be 2d3e
00000170: c870 a23e 5708 41be 1099 903a d16c bebe
00000180: 0f6f 4abe 7a3d 61be 698e d5be 169a d7be
00000190: e837 003e 2d66 283e c309 b93e 4694 75be
000001a0: 9dc8 04be 3f11 703e c113 62be 0146 babd
000001b0: 1c42 9abe e023 6f3e 212e 28be 206a df3d
000001c0: e83d bc3e b5d5 753e 8a67 d43e 02c0 87be
000001d0: 26c2 1ebe 7274 b6bc f2c6 5d3e 7315 e43c
000001e0: 4638 9f3d b2b1 72be 05b2 103e b38e aabd
000001f0: bcff b0be 1086 b2be 7cde e9bd 208b 993e
00000200: a4ab 36be 5a35 e23e 7618 8e3e 752f 973d
00000210: 64bd be3e 2ef0 72be 1445 453e 4d97 ebbe
00000220: c62f 163e 3b67 05bf 3304 c0be 1cb6 0b3f
00000230: 1496 ffbd bc31 e2bd 8360 f3be 2703 91be
00000240: 858d 07be 1383 c03d 191f 6e3e 1843 7dbe
00000250: faca f23e 7657 893e 55c2 6c3e 0177 e6be
00000260: 03b5 2dbd 2e0f d0be 2f3f eabe 544a 47be
00000270: 80d3 9b3d d5ec 023e 4e06 843d 5c9d 103f
00000280: f808 4f3e 300a c3bd 0852 fb3c 5917 88be
00000290: d5d7 fcbd 59a5 693d 240a 323f d19a 65be
000002a0: 358d 1b3d 9b88 06be 8664 42bc 210f 823d
000002b0: d09a bfbc 6259 3abe c941 4f3e a1bd 3d3e
000002c0: 3018 a43d 7bc9 0bbe ae7a 99be 94b9 213e
000002d0: 4477 f53e fb16 a3be 01dc a73e c494 0f3e
000002e0: b07c 0fbe 38e9 403e a2fe b1bd f3be 50be
000002f0: 7442 813e fada 9abe 82cb 84bd 989a 6f3e
00000300: 969d 82be 790f 073f 445b e9bd 017a f23d
00000310: 6acd bf3c 07fd f53e 2146 f9be 060b a2be

l5.weight f4 [200, 200]
0.0037631649 -0.16125621 0.14859158 -0.19627523 -0.1754705 0.10743618 -0.017660284 0.23737071
-0.025198791 -0.061851744 0.08472736 0.17900048 -0.08112797 -0.058941115 -0.092872836 0.08708334
0.3515767 -0.49696374 0.10097172 -0.0059431246 0.041421037 -0.04851897 -0.01847039 0.092853114
-0.18222424 -0.00081765355 -0.08941735 0.040093683 0.009549414 0.07380506 0.2172544 0.051825188
-0.050883938 -0.27294293 0.030146282 -0.10127387 0.053041868 0.25921252 0.13025762 -0.14023511
0.0042339168 -0.09319286 0.06662333 0.003541083 0.2249441 -0.21332768 -0.08556855 0.14879316
-0.029982507 0.13528134 0.10351319 0.23335844 -0.32754588 -0.09986265 -0.043565303 -0.014744268
-0.04319507 0.17772855 -0.4559345 -0.21951006 -0.010510861 -0.27454847 0.10136767 0.1844894
-0.19727425 -0.055296764 0.20402089 -0.39670074 0.09544183 0.25096557 -0.07471994 0.020935629
0.08103305 0.28583115 -0.024081493 0.19608088 0.13968563 0.016511329 -0.0102065485 0.06695033
0.07466741 -0.016150724 0.13260433 0.057334766 0.065005735 -0.04355006 -0.050202087 0.10062267
-0.23621926 0.13632043 0.04427433 -1.4396774 0.44972935 -0.043843906 0.13334036 -0.28851244
-0.31337795 0.11877256 -0.31484 0.02449885 0.2596147 -0.0070061088 -0.1526733 -0.08201605
-0.20572437 0.14851168 -0.20971885 -0.32574683 -0.22876996 -0.11853454 0.09004977 -0.1493834
-0.10970594 0.1483602 0.051032696 -0.14479664 -0.15783226 -1.8740718 -0.06219537 0.065744564
-0.18727815 0.067940705 0.09172973 0.03214258 -0.04105039 0.07472942 -0.08014434 -0.25034398
0.29487333 0.064510226 0.05492644 -0.2906457 -0.059827656 0.23594195 0.10561789 -0.22068013
-0.11302814 0.13822109 -0.23789385 0.15120554 0.02918765 -0.044251986 -0.20731005 -0.14023621
0.05791706 0.14591174 -0.05954273 0.0888204 0.07169915 0.016958337 -0.049592413 -0.35008064
0.06366483 -0.081564344 0.08472644 0.18167056 -0.014750755 0.102346696 0.17313765 -0.01987702
-0.05143617 -0.19608656 0.22428522 0.019577324 -0.14373985 -0.00049344695 -0.49949357 -0.2892341
0.10132866 0.04655682 -0.29777834 0.5145024 -0.0075045894 -0.11616497 0.29908645 -0.5058215
-0.081433475 -0.12767437 -0.01045603 -0.00023560696 0.058250427 0.024139335 0.1313116 0.022388566
-0.069391124 -0.25452602 -0.018096037 -0.067753375 -0.28349683 -0.07249304 0.12324594 -0.041142713
-0.070707306 -0.10133108 0.111690804 -0.0046569686 0.05295431 0.3089329 -0.15827067 -0.18623005
-0.058859922 0.023744386 0.11760173 0.0068027135 0.30301857 0.17581624 0.004349038 0.07980194
0.08349586 -0.18373662 0.1234485 0.060719237 -0.1995153 -0.21421424 0.41365153 -0.036441986
0.20290203 -0.10086088 0.076319546 0.027516734 0.3254904 -0.1810679 -0.17139731 0.05837482
-0.22536863 -0.33517176 0.080329366 -0.06523893 -0.16621825 -0.20866185 -0.2183253 -0.017979426
-0.37472036 -0.04940211 0.1829262 -0.43687308 0.041540664 0.3826135 -0.3119128 -0.06549659
0.05983953 0.18520324 -0.037665926 -0.10367962 -0.22911671 0.084038146 0.03458057 -0.11775152
0.016707256 0.5173418 -0.0053523276 0.047194887 0.47132736 -0.113439076 -0.0846947 -0.79957813
00000000: 6e9f 763b 5920 25be 6428 183e 60fc 48be
00000010: 8aae 33be 8007 dc3d 4dac 90bc 4f11 733e
00000020: b26d cebc 4158 7dbd 8a85 ad3d e74b 373e
00000030: 6c26 a6bd 3d6c 71bd 1d34 bebd c058 b23d
00000040: dc01 b43e 0872 febe 43ca ce3d 8bbe c2bb
00000050: 1ba9 293d d4bb 46bd 374f 97bc c629 be3d
00000060: fe98 3abe cd57 56ba 7220 b7bd 4639 243d
00000070: 2575 1c3c 1b27 973d f077 5e3e a646 543d
00000080: ad6b 50bd 2dbf 8bbe 56f5 f63c ad68 cfbd
00000090: 6e42 593d 81b7 843e 4162 053e cb99 0fbe
000000a0: abbc 8a3b e6db bebd d071 883d 8411 683b
000000b0: bf57 663e 9272 5abe 903e afbd 3c5d 183e
000000c0: e09d f5bc 3187 0a3e b9fe d33d 84f5 6e3e
000000d0: 18b4 a7be ca84 ccbd 8871 32bd f191 71bc
000000e0: 50ed 30bd 79fe 353e 3f70 e9be 3fc7 60be
000000f0: bf35 2cbc 9e91 8cbe da99 cf3d caea 3c3e
00000100: 4302 4abe dc7e 62bd daea 503e 5c1c cbbe
00000110: 0277 c33d 8f7e 803e c506 99bd 3281 ab3c
00000120: a8f4 a53d 7658 923e 8d46 c5bc 6dc9 483e
00000130: c009 0f3e c442 873c 5e39 27bc 411d 893d
00000140: 3aeb 983d 864e 84bc 6ec9 073e dcd7 6a3d
00000150: ba21 853d 8c61 32bd b4a0 4dbd 4213 ce3d
00000160: 76e3 71be 9597 0b3e 0059 353d 5947 b8bf
00000170: ed42 e63e ab95 33bd 608a 083e e7b7 93be
00000180: 1373 a0be 073f f33d b532 a1be d0b1 c83c
00000190: 38ec 843e 8093 e5bb 6456 1cbe 08f8 a7bd
000001a0: 69a9 52be 7213 183e 8ac0 56be 4ac8 a6be
000001b0: ac42 6abe 3dc2 f2bd 046c b83d f6f7 18be
000001c0: 82ad e0bd bceb 173e a907 513d 9245 14be
000001d0: c89e 21be 96e1 efbf 93c0 7ebd 16a5 863d
000001e0: d8c5 3fbe 7f24 8b3d ccdc bb3d f0a7 033d
000001f0: 7424 28bd bd0b 993d b722 a4bd 162d 80be
00000200: a3f9 963e f01d 843d 8cfa 603d 83cf 94be
00000210: d80d 75bd c49a 713e 314e d83d f9f9 61be
00000220: 4c7b e7bd d489 0d3e 729a 73be a0d5 1a3e
00000230: f01a ef3c 9241 35bd 1649 54be 159a 0fbe
00000240: 703a 6d3d e369 153e 14e3 73bd 78e7 b53d
00000250: 01d7 923d 36ec 8a3c 6a21 4bbd c53d b3be
00000260: b562 823d 350b a7bd 0e85 ad3d d907 3a3e
00000270: 27ad 71bc 259b d13d ff4a 313e 22d5 a2bc
00000280: bcae 52bd eaca 48be 06ab 653e a060 a03c
00000290: 8a30 13be aa5a 01ba 9fbd ffbe 7e16 94be
000002a0: 6785 cf3d 5db2 3e3d 6776 98be 6eb6 033f
000002b0: 0fe9 f5bb e6e7 edbd dc21 993e 857d 01bf
000002c0: 98c6 a6bd 12bd 02be c54f 2bbc 430d 77b9
000002d0: 0098 6e3d dbbf c53c 8c76 063e 3a68 b73c
000002e0: ef1c 8ebd 3c51 82be 243e 94bc 48c2 8abd
000002f0: 7f26 91be 3b77 94bd 5e68 fc3d 4385 28bd
00000300: fece 90bd ab86 cfbd 26be e43d 7c99 98bb
00000310: 9ee6 583d 742c 9e3e b511 22be 17b3 3ebe
00000320: 1a17 71bd 9683 c23c 2dd9 f03d 4ce9 de3b
00000330: 4025 9b3e 2c09 343e 6082 8e3b 336f a33d
00000340: e1ff aa3d 7425 3cbe 91d2 fc3d bcb4 783d
00000350: bd4d 4cbe fa5a 5bbe 22ca d33e 3144 15bd
00000360: 8dc5 4f3e 2690 cebd 6c4d 9c3d c66a e13c
00000370: ada6 a63e dd69 39be c782 2fbe 6f1a 6f3d
00000380: 09c7 66be a29b abbe b983 a43d fd9b 85bd
00000390: 1e35 2abe 74ab 55be ab90 5fbe 9749 93bc
000003a0: 59db bfbe de59 4abd 0151 3b3e d4ad dfbe
000003b0: 8b26 2a3d ebe5 c33e 09b3 9fbe 1423 86bd
000003c0: 4c1a 753d eba5 3d3e 9647 1abd fb55 d4bd
000003d0: 929d 6abe 311c ac3d 5ba4 0d3d b527 f1bd
000003e0: a8dd 883c 8370 043f 9462 afbb 6d4f 413d
000003f0: d251 f13e bf52 e8bd 6a74 adbd 27b1 4cbf

l5.bias f4 [200]
0.1149551 0.22759503 -0.20597002 -0.10441584 0.13775998 -0.4281215 -0.22643435 -0.015735632
-0.07663115 -0.19219488 -0.021149585 -0.010027136 0.06880079 -0.024655206 0.11159238 0.07225617
0.08609659 0.1455278 -0.0977492 -0.04754939 0.14483413 0.10548895 0.042397097 -0.006878648
0.09814763 -0.18624611 -0.1253489 -0.03714561 -0.25403965 -0.108945705 -0.07913344 -0.08315296
-0.1301754 -0.06477962 0.022579852 -0.1367221 -0.012055357 -0.041522376 0.12645608 -0.034127254
0.040345505 -0.24332859 -0.23058842 0.13684943 0.07256317 0.112914056 -0.009600835 -0.27276993
-0.14034794 -0.03195701 -0.035705887 0.026918631 0.00055625406 0.04033811 -0.089776404 0.18350162
0.15521461 0.20874982 -0.095591344 0.043376777 -0.00770303 0.096151054 0.10620803 0.12939233
-0.02813628 0.011341979 0.1308149 -0.034504663 -0.13652574 -0.03396992 0.05056291 -0.082186975
-0.04675909 0.04263717 0.17120777 0.14720593 -0.23443338 -0.23239444 0.0205182 -0.056988407
0.055243824 -0.23496096 -0.104687914 -0.038061444 -0.059591286 -0.025094783 -0.18599556 -0.04959666
-0.070248514 -0.076533355 0.1687977 -0.050375592 0.017055547 0.08205653 0.102787696 -0.18181571
-0.03389322 0.016565494 -0.012181571 0.028311145 0.38731077 0.02244264 0.00963667 0.11429906
-0.13756205 -0.08797875 0.024949752 -0.23616229 0.16264613 -0.030946253 0.14750057 0.01520813
0.14767045 0.09701087 0.08350902 0.00613753 0.12893048 -0.026603226 0.038931508 -0.20045988
-0.11972582 0.19438964 -0.2399611 -0.08873485 0.028925939 -0.15009107 -0.13315237 -0.034171153
-0.08809637 0.09657846 0.004538714 -0.020305693 -0.01338545 -0.03587198 -0.14262858 0.0026111454
0.044829957 -0.04824682 0.19427943 -0.12713039 -0.22003704 -0.11983567 0.043562137 -0.1405729
-0.09451968 -0.036961064 0.103899725 -0.31734756 0.029673483 0.10769163 0.07766464 0.015574885
0.010313036 0.07416319 0.19717543 0.102767974 0.18389514 0.03617781 0.011348032 -0.064330004
0.13921547 0.11177169 0.14579101 0.21201287 -0.015114033 0.1403175 -0.097010866 0.09309787
0.19733419 -0.05431706 -0.15466405 -0.04390881 -0.056400597 -0.032377776 0.030480107 -0.019041296
-0.29583645 -0.039589785 -0.06205378 -0.10103914 0.030019822 0.12376933 -0.012497748 -0.13632853
0.21937355 -0.015422681 -0.07564836 -0.111438625 -0.006344253 -0.19022207 0.034197517 -0.13927418
0.106212065 0.06660944 -0.06706681 -0.02651679 0.061019342 -0.0116503 0.02647849 0.08647803
00000000: 946d eb3d ac0e 693e cee9 52be f9d7 d5bd
00000010: f410 0d3e be32 dbbe 68de 67be 03e8 80bc
00000020: cbf0 9cbd bcce 44be e541 adbc db48 24bc
00000030: 6ee7 8c3d b7f9 c9bc 8c8a e43d 0bfb 933d
00000040: 6953 b03d 3d05 153e bc30 c8bd 26c3 42bd
00000050: 664f 143e 970a d83d 94a8 2d3d 4866 e1bb
00000060: a001 c93d 4db7 3ebe 765b 00be ff25 18bd
00000070: 7c11 82be ed1e dfbd b710 a2bd 194c aabd
00000080: b34c 05be 2dab 84bd 62f9 b83c e100 0cbe
00000090: d583 45bc 5e13 2abd b47d 013e 05c9 0bbd
000000a0: 5441 253d 212b 79be 5f1f 6cbe 4222 0c3e
000000b0: 009c 943d 7c3f e73d d24c 1dbc 80a8 8bbe
000000c0: 5fb7 0fbe 5be5 02bd 5640 12bd 7684 dc3c
000000d0: 94d1 113a 9339 253d b1dc b7bd d9e7 3b3e
000000e0: 94f0 1e3e 83c2 553e 65c5 c3bd d9ab 313d
000000f0: b369 fcbb d8ea c43d 9883 d93d 6c7f 043e
00000100: 0e7e e6bc b5d3 393c 57f4 053e c354 0dbd
00000110: 67cd 0bbe 0b24 0bbd 0e1b 4f3d a551 a8bd
00000120: 7686 3fbd 50a4 2e3d 1751 2f3e 27bd 163e
00000130: 4e0f 70be cff8 6dbe c915 a83c ad6c 69bd
00000140: 5947 623d 9b99 70be 9e66 d6bd 51e6 1bbd
00000150: fe15 74bd 9393 cdbc 9f75 3ebe de25 4bbd
00000160: 74de 8fbd 85bd 9cbd 4ed9 2c3e a356 4ebd
00000170: 13b8 8b3c 410d a83d 5b82 d23d e62d 3abe
00000180: 9ed3 0abd 5cb4 873c 3695 47bc c6ec e73c
00000190: 994d c63e a1d9 b73c 20e3 1d3c a015 ea3d
000001a0: 11dd 0cbe 342e b4bd 6c63 cc3c 87d4 71be
000001b0: b58c 263e ff82 fdbc 640a 173e 852b 793c
000001c0: ec36 173e a3ad c63d c706 ab3d 551d c93b
000001d0: 5a06 043e 02ef d9bc a576 1f3d 5b45 4dbe
000001e0: d032 f5bd 140e 473e 5db8 75be 9eba b5bd
000001f0: 17f6 ec3c 79b1 19be 1859 08be 0df7 0bbd
00000200: df6b b4bd edca c53d 7eb9 943b 2058 a6bc
00000210: a54e 5bbc 7fee 12bd 3a0d 12be c01f 2b3b
00000220: 9e9f 373d 759e 45bd 30f1 463e 782e 02be
00000230: 6451 61be 676c f5bd 366e 323d 58f2 0fbe
00000240: 8993 c1bd 7c64 17bd 61c9 d43d 617b a2be
00000250: ce15 f33c 6e8d dc3d a40e 9f3d cd2d 7f3c
00000260: 02f8 283c dfe2 973d 5be8 493e 0478 d23d
00000270: 024f 3c3e 2f2f 143d 19ed 393c 73bf 83bd
00000280: 808e 0e3e 8ee8 e43d 3d4a 153e e719 593e
00000290: d9a0 77bc 64af 0f3e a2ad c6bd 19aa be3d
000002a0: f911 4a3e 917b 5ebd 4160 1ebe b9d9 33bd
000002b0: 5004 67bd 8f9e 04bd 6bb1 f93c 7efc 9bbc
000002c0: e077 97be e628 22bd 1b2c 7ebd 9ced cebd
000002d0: 21ec f53c c67a fd3d 5bc3 4cbc b599 0bbe
000002e0: 76a3 603e 6aaf 7cbc 87ed 9abd ef39 e4bd
000002f0: 74e3 cfbb 93c9 42be b212 0c3d e49d 0ebe
00000300: b685 d93d 886a 883d 535a 89bd bd39 d9bc
00000310: 6bef 793d e6e0 3ebc 6be9 d83c 651b b13d
