HardcoreVersion_eval/ppo_q_critic4300.pth (torch, 373698 bytes, 10 tensors)

l1.weight f4 [200, 28]
000000 0b 0f 03 be 5f e8 99 3e c9 71 b4 be a0 0a e5 bd
       -0.12798707 0.30060098 -0.3524306 -0.11183667
000010 23 0c 8e be 27 42 92 3c 3b bb 71 bd 75 b8 50 3c
       -0.27743635 0.01785381 -0.059016448 0.0127392905
000020 81 74 d9 bb 35 af 28 be 33 00 59 3c 1c 3e a7 be
       -0.006636203 -0.16473086 0.013244676 -0.32664573
000030 c1 06 c7 3c 43 c8 4a bb 8a c8 9e bd f3 55 c8 bc
       0.024295213 -0.003094212 -0.077530935 -0.024455046
000040 ce 26 58 3e a5 bd 25 3e d4 2e a5 3e fa 8b bd bd
       0.21108553 0.16185625 0.3226229 -0.09255214
000050 34 a7 cc 3d 2c 21 87 3e 2d 8b a8 be aa 69 54 be
       0.09992829 0.26392496 -0.32918683 -0.20743433
000060 55 ab 32 39 d8 cf a8 3b 55 fb 9c bb fa f4 59 3a
       0.00017039229 0.00515173 -0.0047907033 0.00083143974
000070 6c c9 c1 3e f3 c5 e2 bb a5 26 d0 be 19 99 ab bf
       0.37848985 -0.00692057 -0.40654483 -1.3406097
000080 50 77 f9 3d 78 22 8b 3d aa d0 27 3d af 6f 27 3d
       0.1218096 0.06793684 0.040970482 0.040877994
000090 6a 97 78 bc 09 18 10 3e 0d 24 51 be da 36 9a be
       -0.015172819 0.14071669 -0.20423909 -0.30119973
0000a0 8e c9 a7 3d 8b 9c da 3e af 95 b5 3d 0f a6 47 3e
       0.081927404 0.42697558 0.088664405 0.1949694
0000b0 4d 3e 01 bf c2 dc c1 be 8b c2 d3 3d 25 55 7b 3d
       -0.5048569 -0.37863737 0.103398405 0.061360497
0000c0 3b a5 4a 3e b3 d6 bb bd 34 00 e2 bc ab b7 02 be
       0.19789593 -0.0917181 -0.027587987 -0.12765376
0000d0 74 18 35 3c 6b f9 f3 bb f0 0b 0a be da 34 9e 3d
       0.011053193 -0.0074455044 -0.13481116 0.077249244
0000e0 77 c7 9c 3d bc ac 36 c0 f1 62 a9 bd 87 1d 09 be
       0.076552324 -2.8542929 -0.08270825 -0.1339017
0000f0 80 ec e9 3c f4 b7 e4 bd b9 0a 7c 3d 0a 6e 10 bd
       0.028555155 -0.11167899 0.061533663 -0.03526119
000100 ec d7 aa bc 17 ff 32 3e 77 7d ad be 42 0c 06 bd
       -0.020854913 0.17480122 -0.33884785 -0.032726534
000110 23 d1 a2 3e dd 05 71 3e 2c 23 bf 3d a0 c0 67 3d
       0.31800184 0.23537393 0.093328804 0.056580186
000120 9c 04 38 bd 63 2b 92 be 8e f0 ea bd 1c 7e ad bd
       -0.04492627 -0.28548726 -0.114716634 -0.08471319
000130 64 44 29 3e 7e ce b0 3d 99 b2 06 3d 5a b7 15 be
       0.16529995 0.08633135 0.032885168 -0.14620724
000140 d1 64 56 bc c5 30 ac 39 49 fa 91 bd 83 de 09 3e
       -0.01308556 0.00032842733 -0.07127816 0.13463788
000150 35 0d f0 bd 46 66 18 bf 20 04 9c 3e f0 ba 19 3c
       -0.11721269 -0.59531057 0.30471897 0.009382948
000160 e7 94 1a bd a6 c0 27 3d 66 8b 42 bd 31 96 74 bc
       -0.03773966 0.04095521 -0.047496222 -0.014928387
000170 96 58 05 3d e7 89 07 3e de 82 3d be 39 32 d8 3d
       0.032555185 0.132362 -0.18506953 0.10556454
000180 09 ce 1a bc 07 77 fa bd e3 02 26 3d 8f dd 97 3c
       -0.009448537 -0.12229734 0.040530097 0.018538265
000190 81 76 35 3e 73 61 04 3e ce 5a aa bd 2b 99 27 3e
       0.17720987 0.12927799 -0.08318101 0.16367023
0001a0 75 13 29 3e 92 07 a1 bd 6b 90 6a 3e d8 c0 fc 3d
       0.16511329 -0.07862772 0.22906654 0.123414695
0001b0 b6 06 ed 3c 45 68 93 3c 57 0d a7 bd 69 fc 78 3d
       0.028933864 0.017994056 -0.08156841 0.060787592
0001c0 a0 dd f8 3d 6b 87 dc bf 3b c4 b2 be 77 8f 96 3e
       0.121516466 -1.7228826 -0.34915337 0.2940633
0001d0 ad e0 f7 bd 34 b2 43 bd 9f 0d 4e be 77 63 ce 3c
       -0.121034004 -0.04777737 -0.20122384 0.025193913
0001e0 c3 05 d9 3b 76 6d 6b bd dc d7 28 bf 64 a8 10 3f
       0.0066230013 -0.057477437 -0.65954375 0.56506944
0001f0 58 21 18 be f2 96 aa 3d fc 59 f1 be 57 d6 92 be
       -0.1485647 0.08329572 -0.47138965 -0.28679153
000200 44 d0 3b 3e 1e f4 ef 3d e0 fa e0 3e 1e 74 c7 bc
       0.18341166 0.117164835 0.43941402 -0.024347361
000210 70 d3 fc bd 7c 30 ed bc 1e 13 b1 bc aa 02 13 bc
       -0.12345016 -0.028953783 -0.021615561 -0.008972803
000220 65 b3 90 bc a8 b5 43 bd 79 a1 c4 be 30 1e 9e 3e
       -0.017663667 -0.047780663 -0.38404444 0.30882406
000230 7a d4 3b 3f 23 f6 df 3c 2d f3 48 3e 36 80 4a bf
       0.7337109 0.027339047 0.19624014 -0.79101884
000240 17 ae a5 bb b6 06 ac 3b 9b af 70 3a 37 85 d2 3b
       -0.0050561535 0.0052498234 0.00091814407 0.006424572
000250 d7 08 43 3b b1 e2 1c 3f 42 ef 39 bc ee fd b1 3e
       0.0029759908 0.61283404 -0.011348547 0.34764045
000260 aa 2b bf 3c 09 48 f8 bc 09 95 e1 3e 74 89 1d bf
       0.02333625 -0.030307787 0.44059017 -0.6153786
000270 a0 d4 8e bf c8 0e 0e 3f e3 b1 59 be f0 5b 8e bd
       -1.1158638 0.55491304 -0.21259265 -0.069511294
000280 69 77 f7 3e 2f ae 80 be f2 c1 36 3d 78 07 40 be
       0.4833329 -0.25132892 0.044618554 -0.18752849
000290 e9 c5 51 bb e5 84 bd ba aa 4f f7 3b f9 65 22 bb
       -0.0032008833 -0.0014459161 0.0075473385 -0.0024780019
0002a0 fa f5 2c 3e 05 80 ee 3e 69 71 1e bf 3b eb 30 3e
       0.16890708 0.46582046 -0.618918 0.17277233
0002b0 14 5e fd 3d ee 5e 57 3b f0 49 14 be 41 3e 86 3a
       0.123714596 0.003286298 -0.1448133 0.0010241942
0002c0 a3 62 3c be 5c 52 65 bd a1 a5 a0 3b 74 c5 e8 3c
       -0.18397002 -0.055986747 0.004902557 0.028414465
0002d0 d6 9e 0e 3c 2a 7d 95 bc ef e5 54 3f bf 90 a4 3e
       0.008704862 -0.01824816 0.8316335 0.32141683
0002e0 d6 dc 66 bf 17 ef 18 bf 53 e4 e4 be 00 fd b6 3e
       -0.9018072 -0.5973982 -0.44705448 0.357399
0002f0 a8 3d cf 3e 41 16 d4 3e ef 6d d9 bd bd cd 94 bd
       0.40476727 0.41423228 -0.10616671 -0.07265804
000300 fa 35 5f 3c 82 18 c8 bc be 57 70 bc 6d 71 4b 3b
       0.013623709 -0.024425749 -0.014669357 0.0031042949
000310 9c e1 a2 3d 71 88 4f 3d 6a b3 89 be 3e ad 8f bd
       0.07953188 0.05066723 -0.26894695 -0.07015465
000320 10 e7 c1 3b 93 a4 d2 3d b0 e9 90 3d cb be 66 bd
       0.0059174374 0.10285296 0.07075822 -0.056334298
000330 cc af d3 bd 56 1f 67 bc 79 0b 1b be 2a 5d 43 bb
       -0.10336265 -0.014106592 -0.15141095 -0.0029810169
000340 fa 75 30 be de c8 7e 3d 96 ed 91 bd 24 52 1c be
       -0.17232504 0.06220328 -0.07125394 -0.15265709
000350 d7 2f 02 3d 52 c0 1f be 5b d0 f1 3d 6c 65 4e be
       0.031783905 -0.15600708 0.11807319 -0.20155877
000360 cc bf 25 be a6 19 69 be 0c 1a 8f bd e8 c7 6d be
       -0.16186446 -0.2276369 -0.0698739 -0.2322079
000370 42 bd d2 3d 3a c3 e8 3d 12 a0 90 bd 12 81 92 3c
       0.10290004 0.113653615 -0.07061781 0.017883811
000380 20 0e de 3c 9d 78 c9 3e 70 d9 26 3e b2 fd a5 bd
       0.027106345 0.39349833 0.16293883 -0.08105029
000390 57 b7 98 bd aa f1 78 ba bc 52 d6 bd 57 57 9e 3a
       -0.07456844 -0.000949646 -0.10464999 0.0012080473
0003a0 8d 8d 62 3c 5a 91 a3 3d 39 58 10 3d 73 3c 14 3d
       0.013827694 0.07986708 0.035240386 0.03619046
0003b0 db df 21 3c 59 97 83 bc 0f a5 5c be f6 a3 a1 be
       0.009880031 -0.01606338 -0.2154734 -0.31570405
0003c0 78 82 1f bd c7 39 05 be 77 92 20 3e 79 49 5e 3e
       -0.038942784 -0.13010322 0.15680872 0.21707715
0003d0 a7 bd c9 be d5 98 0d bf 5d c4 82 3e c3 c2 ae bd
       -0.39402506 -0.5531133 0.25540438 -0.085332416
0003e0 ad bf 2a bb 96 c2 30 bc cf b8 52 3c c8 ba ba 3a
       -0.002605419 -0.01078858 0.012861445 0.0014246339
0003f0 ba 54 ac 3e 10 95 07 40 e4 a3 cd bd 45 0e 68 3f
       0.3365839 2.118473 -0.10041025 0.90646774

l1.bias f4 [200]
000000 25 b3 cd 3e eb d1 1b be 99 d9 27 bf 81 97 5a be
       0.4017574 -0.15216796 -0.655664 -0.21346857
000010 ca 17 21 bd bf dd e8 39 b2 40 e2 3d e3 24 25 be
       -0.039329328 0.00044415702 0.11047496 -0.16127352
000020 ca 1d 2c 3f 96 fa 9a be 7a d2 fe 3d 2e c5 5b be
       0.67232955 -0.30269307 0.12442489 -0.21461937
000030 35 26 46 3e a6 47 10 bf e3 bb 26 be ca 51 b7 3d
       0.19350512 -0.56359327 -0.1628261 0.08951147
000040 72 84 dc 3e c1 ee 88 bd df 8c 5b 3e 53 c3 c5 3e
       0.43069798 -0.06686164 0.21440457 0.38625583
000050 0a 7a 2d be 29 03 05 3e fc 65 00 be 7e 80 39 be
       -0.16941085 0.12989487 -0.12538904 -0.18115422
000060 1e 8c 5d 3e 78 bc 69 3e a2 39 3b 3f 96 59 14 bc
       0.21635482 0.22825801 0.73134816 -0.009054562
000070 cf 03 43 be 74 86 b3 3e 84 04 a8 3e ff dd b5 3e
       -0.19044422 0.35063517 0.32815945 0.35520932
000080 91 a5 24 be c8 32 18 be ab 9d a0 be 3e 8a 89 be
       -0.16078784 -0.14863122 -0.3137029 -0.26863283
000090 42 cf 06 3e 7a 71 db 3d ee a9 af 3e f8 61 28 3e
       0.13165 0.10715003 0.34309334 0.16443622
0000a0 b9 1c f6 3d 3c 2e 30 3d 97 24 35 3e 51 79 1a be
       0.12017197 0.043012843 0.17689739 -0.15085341
0000b0 98 38 67 bd f3 2e c9 be 47 b4 b0 be 2a 27 1f 3f
       -0.056450456 -0.39293632 -0.3451254 0.62169135
0000c0 b5 33 9d 3d 3c 8a 39 3e 3e 5a 53 bd 1a d1 11 3f
       0.07675878 0.18119138 -0.051599734 0.5695969
0000d0 f8 26 ae 3e 62 aa 4f 3e 5b fc fd 3e 95 36 66 be
       0.34014106 0.2027984 0.49606594 -0.22481759
0000e0 e1 4b c6 3e e0 9a ab bc 59 ab 32 3e a9 95 8e 3d
       0.38729766 -0.020947874 0.17448176 0.06962139
0000f0 17 a2 55 3e 65 90 8d 3c b1 df 48 bd 89 17 0e be
       0.20862614 0.017280767 -0.049041454 -0.13876165
000100 5a 70 cf 3c 50 be ce 3e aa e5 01 bf 3f 76 83 be
       0.025322128 0.40379572 -0.50741065 -0.25676152
000110 33 f7 85 be bb 6b 2c 3e 93 92 1b 3f 0d 50 03 be
       -0.2616516 0.16837971 0.6077053 -0.12823506
000120 4e 8c e3 3e 10 c2 b4 bd c6 6e d3 3d ce 5b 4e bc
       0.4444298 -0.08826077 0.10323863 -0.01259513
000130 93 b3 ad be 15 42 39 be 17 48 b7 3e b0 7e cf be
       -0.33926067 -0.18091615 0.35797188 -0.40526342
000140 3c ca a3 bc b0 cb 46 3e a5 0f 9f be 90 ed 98 be
       -0.019993894 0.19413638 -0.31066623 -0.29868746
000150 42 67 72 3e e2 b8 98 3e 04 e9 0d bd 6e cf 93 bd
       0.23672202 0.29828554 -0.03464605 -0.072172984
000160 39 dc 80 3e fc ed 51 3e a2 b6 09 bd c7 d8 a0 b9
       0.25168017 0.2050094 -0.033621438 -0.0003067909
000170 75 ad 75 3f c7 ce 60 3e fe 75 34 3d fe 27 ce 3d
       0.959678 0.2195388 0.04405784 0.10066222
000180 fe 27 8f 3e 63 1a 14 3d 44 66 8e 3e c7 30 38 3e
       0.279602 0.036157977 0.27812397 0.17987357
000190 1a a3 90 ba 33 71 ec bd 72 da a4 be 01 3e 94 be
       -0.0011034936 -0.115450285 -0.3219791 -0.28953555
0001a0 41 c8 ea bd 86 f1 0d bf 1e 07 1b 3e 67 65 a4 bb
       -0.11463977 -0.5544666 0.15139434 -0.005016971
0001b0 2f a2 eb bd ce cf b2 3e 3b 98 1c 3f df d3 89 3e
       -0.115055434 0.34924167 0.61169785 0.26919457
0001c0 14 b8 a9 3d 53 ca 21 3e a7 fd 8c 3e 3b 06 aa 3e
       0.08287063 0.15799837 0.2753727 0.33207878
0001d0 a8 7b a4 be b6 04 b3 bd f7 88 e4 be 2f a2 56 3e
       -0.32125592 -0.08741133 -0.44635746 0.20960306
0001e0 db 3f a4 be 66 69 bc be cb 50 05 3f 93 c8 20 3f
       -0.32079968 -0.36799163 0.52076405 0.6280605
0001f0 a1 3c d6 3e 5d ca 5e 3e 81 8a fa be 48 63 98 bd
       0.4184313 0.21756883 -0.48933795 -0.074408114
000200 60 11 1b bf 37 06 cf be 12 33 aa 3c c4 a7 8c 3e
       -0.6057339 -0.4043443 0.020776305 0.27471745
000210 bc 08 50 be 62 77 95 3e dd 90 24 be e3 48 a0 bd
       -0.20315832 0.29192644 -0.16070886 -0.07826402
000220 1e b6 08 3d 12 d1 7e bd fe 50 c0 3d 43 a3 21 3c
       0.033376805 -0.062211104 0.09390448 0.009865585
000230 18 1f e6 bd b9 23 9e bc 7e 5c 54 3e f2 30 ce bd
       -0.112363994 -0.019304143 0.20738408 -0.10067929
000240 14 ce 58 3e 98 ea a5 bc 81 ec 9d be 5b 5e 76 be
       0.21172363 -0.020253465 -0.308445 -0.24059431
000250 37 11 13 3e da 50 13 3e 46 60 84 3e 2f 86 80 be
       0.14362036 0.14386311 0.258547 -0.25102374
000260 0b 32 fd bd 31 f7 e9 bd 4d ea 52 3e 12 91 22 be
       -0.123630606 -0.11424101 0.20597191 -0.15875652
000270 ad 69 c4 3e 8e 7d aa 3c 6b 8b 01 3e a6 27 01 bd
       0.38361874 0.020811822 0.1265084 -0.031531952
000280 87 8a b9 bb ad c3 89 3d 2f bf 7b be 30 81 b6 be
       -0.0056622657 0.06726775 -0.2458465 -0.35645437
000290 b8 5c 87 bd a1 eb 8e 3e f1 1c ef 3e 3d 95 f6 3d
       -0.066094816 0.27914146 0.46701768 0.12040184
0002a0 b0 e5 f4 3c ca 82 af 3e 4b e3 b8 be 52 3c 1d be
       0.02989468 0.34279472 -0.3611091 -0.15355042
0002b0 7e bb 59 3e 83 83 d5 3d 28 05 d8 be c6 cd d2 be
       0.21262929 0.104254745 -0.42191434 -0.41172618
0002c0 11 3b 0e 3e 80 b9 8b be 35 40 73 be eb 90 1f bf
       0.1388972 -0.27289963 -0.23754962 -0.623305
0002d0 e5 10 9e bd d7 ef 06 3e 2d ab 94 be 00 cd 6d 3e
       -0.07718066 0.13177429 -0.29036847 0.23222733
0002e0 89 b3 5e be 43 f6 64 be bf 7b c5 bd bf b6 e2 3e
       -0.21748175 -0.22359566 -0.09642743 0.4428005
0002f0 6e de 08 3f 42 5d 02 bf d5 6c 2e be 16 67 86 bc
       0.534644 -0.5092355 -0.17033704 -0.016406577
000300 79 9a ac 3e c0 2e 99 bd b1 38 9a 3e b0 97 49 3e
       0.33711603 -0.0747962 0.30121377 0.1968677
000310 22 63 69 bd 9f ef fd 3e c2 5e 2a be f0 6c 0b be
       -0.056979306 0.4959688 -0.1663771 -0.13615775

l2.weight f4 [200, 200]
000000 ba 35 bc bd 17 67 1d be cf fb ad be 37 3f a6 be
       -0.09189935 -0.15371357 -0.33981177 -0.32470104
000010 e7 db a3 3d 95 34 89 be 78 be 91 be cb ef 4d be
       0.080009274 -0.2679793 -0.2846563 -0.20111005
000020 c3 5d 40 3e 6c ca 11 3e 34 1f 82 bd b9 e7 45 be
       0.18785767 0.14237374 -0.06353608 -0.19326676
000030 7a 0c b1 bd 53 b2 38 be d5 01 24 be 7d 97 3a 3e
       -0.08644958 -0.18036775 -0.16016324 0.1822185
000040 ea 1b c7 3e bf ae 7c bd f2 61 02 bc 45 5d 79 3e
       0.38888484 -0.06169009 -0.007957922 0.24351986
000050 a1 81 29 3e e8 99 d3 bc 85 bf 99 bc a9 a6 1a 3e
       0.16553356 -0.025830224 -0.018768081 0.15102638
000060 fb 04 91 3e 9c 11 c2 3e 32 56 8c 3e f3 f0 93 3e
       0.28324112 0.3790406 0.27409512 0.28894767
000070 e4 6d aa bd 34 15 b9 bc 3d 44 62 3e bd b8 3c be
       -0.08321741 -0.022593118 0.22096343 -0.18429847
000080 9c 23 1d be 10 8e d3 bd f8 73 cc 3e 5e dc 82 3d
       -0.15345615 -0.10329831 0.39932227 0.06389688
000090 84 04 38 3d a7 f7 9f 3d e4 a5 86 be a1 7f f0 bd
       0.04492618 0.07810908 -0.2629844 -0.11743093
0000a0 6e a7 c3 be d7 4f bf bd 91 b5 cb bd 54 0c e4 bd
       -0.38213676 -0.093414 -0.099467404 -0.11135164
0000b0 6d 83 67 bf b9 63 3f bf 82 00 cc bd 88 af 70 3e
       -0.90434915 -0.7476154 -0.09961034 0.2350446
0000c0 22 c0 2e be 66 91 b1 bd ec b2 0a be ae f2 35 3d
       -0.1706548 -0.08670311 -0.13544816 0.04442089
0000d0 aa 79 29 bc d1 f1 f0 3e 5e 59 34 3d 39 81 4e be
       -0.010343948 0.4705949 0.04403054 -0.20166482
0000e0 87 1b a8 bc 03 a5 14 3d fe 9b da be 6b d9 54 3d
       -0.020520939 0.03629018 -0.42697138 0.05196516
0000f0 2e 61 33 3e ee b5 c3 3e 7d 5c e3 3e 33 11 4c 3d
       0.1751754 0.3822474 0.444065 0.04982109
000100 ce 2a 87 bd 21 6f 88 be 09 b2 7f bd 4d 90 03 bd
       -0.06599961 -0.26647285 -0.062425647 -0.032120038
000110 c7 e6 82 bd 36 81 0a be e0 2d b9 3e 1d 38 7c bf
       -0.063916735 -0.13525853 0.36167812 -0.9852312
000120 f7 b4 b5 ba 5f 99 18 be 74 a3 6f bd eb a8 ef 3d
       -0.0013863136 -0.14902256 -0.05850549 0.117021404
000130 76 c1 c8 bc 1e 53 8f 3e 8a dd 52 bd 9f 4c 8a be
       -0.024506312 0.279931 -0.051480807 -0.27011582
000140 ec 47 0c 3d c9 1c d1 bc 75 bf 47 3d 1b 08 32 b9
       0.034248278 -0.025526421 0.048766572 -0.00016978422
000150 fd f7 3b 3d 57 88 c5 bd 05 2b 41 3c 35 ab b4 bd
       0.045890797 -0.096451454 0.011790042 -0.08821718
000160 4b 13 e5 3d c2 a4 cf bd 0e 62 04 be e0 78 11 be
       0.111853205 -0.10138847 -0.1292803 -0.14206266
000170 d8 92 2f bf bb b2 12 3e 4e 15 3e 3b 18 96 33 3e
       -0.6858344 0.14325993 0.0029004398 0.17537725
000180 f9 c2 a3 bd 76 04 74 3d 4f 8b b0 be 39 40 dd 3d
       -0.079961725 0.059574567 -0.34481284 0.10803265
000190 fd 87 13 bb 0c bd 43 be 6b d4 03 be e0 db 2a bf
       -0.0022511475 -0.19115084 -0.12874 -0.6674175
0001a0 23 f8 fd bd 65 6a d6 3e c9 af c5 3e 6c fa 92 3e
       -0.12400844 0.41878048 0.38610676 0.28706682
0001b0 c4 65 40 3f 09 c2 8b be d7 05 19 3e 67 c7 11 3e
       0.7515528 -0.27296475 0.14943634 0.14236222
0001c0 c8 57 c6 be bc 3c e0 3d 1d 39 60 be 0d 06 19 be
       -0.38738847 0.10949084 -0.21896787 -0.14943714
0001d0 13 98 71 3d 16 04 a0 3e 21 f2 8e be aa 6a e9 3c
       0.05898292 0.31253117 -0.27919105 0.028493244
0001e0 3e ad 35 be 7a 22 5f 3e 99 a3 02 3d 8d 67 97 3e
       -0.17741868 0.21790496 0.0318943 0.2957119
0001f0 36 99 a3 3e 41 0a 2b 3e 66 c8 91 3e 33 c0 38 3e
       0.31952828 0.1670313 0.28473204 0.18042068
000200 39 63 ff bc b4 63 08 be 63 90 45 3e d5 1a 35 3e
       -0.031175243 -0.13319284 0.1929336 0.17686017
000210 d9 00 e8 bd 74 12 de 3d b1 3c 88 3d ef 2f 9a 3e
       -0.11328287 0.108433634 0.06652201 0.30114695
000220 58 60 2b 3e 93 56 b4 3d 6d ee 28 3f a8 48 44 be
       0.16735971 0.08805575 0.6598881 -0.19168341
000230 44 f9 50 bf db 16 b1 3e 6f 4a a0 38 6e e1 81 be
       -0.8163035 0.3458775 7.643259e-05 -0.25367302
000240 af f5 91 3e 42 45 40 be c4 fb 69 3c 1e 2b 46 3e
       0.28507754 -0.1877642 0.014281217 0.19352385
000250 c0 d1 ff 3d 91 cd 4d be bf 00 11 3e 83 1e 96 bd
       0.124911785 -0.20097949 0.14160441 -0.073300384
000260 2f f5 ad 3c fb 41 57 bc 3d 08 48 bd 99 2c 15 bd
       0.021235077 -0.01313829 -0.04883598 -0.036419485
000270 15 56 08 3f 18 a8 81 3d a9 d9 6d bc 75 4b ef 3d
       0.5325635 0.063308895 -0.014517226 0.11684314
000280 89 ac d8 be c7 95 72 be a0 a6 1c be e8 f3 08 be
       -0.42319134 -0.23689948 -0.15297937 -0.13374293
000290 f4 4f 33 bb ec a2 6c 3e 9b fd a7 3e 84 e6 dc 3e
       -0.0027360888 0.23109025 0.32810673 0.4314462
0002a0 0b e4 f8 bb c0 b7 3a be 12 57 34 3e 91 b7 01 3e
       -0.007595544 -0.18234158 0.1761134 0.12667681
0002b0 49 63 c6 bd dc 71 6a 3e 07 ff e8 3d ab c4 a4 bd
       -0.09686906 0.22894996 0.113767676 -0.08045324
0002c0 b2 8b 30 bc 40 ba 1a be a4 36 6b 3e 93 1e 23 3e
       -0.010775493 -0.15110111 0.22970062 0.15929632
0002d0 a4 c7 64 be 98 9e 03 bd 69 fc a1 3e 70 d0 4e be
       -0.22341782 -0.03213367 0.31637886 -0.201967
0002e0 b2 cd 51 bd 38 47 09 be 95 c1 83 3d 79 25 43 3e
       -0.051221557 -0.13406074 0.06433407 0.19057263
0002f0 e3 9f 5a 3d 8c 9e 2f 3d 2c e8 03 3d 36 4a 93 3b
       0.053375136 0.04287581 0.03220384 0.0044949306
000300 62 cd 01 3e 66 35 4b 3d 6b 5e f1 3d a4 31 c5 bd
       0.12676004 0.04961147 0.11785587 -0.09628609
000310 23 35 84 bd 21 1e 91 3e 37 eb ba bd fc 32 bb 3d
       -0.064554475 0.283433 -0.09126895 0.09140584
000320 5f 60 64 3d 87 91 0e be 09 8e 03 bf f5 c6 31 3e
       0.05575597 -0.13922702 -0.51388603 0.17361052
000330 19 3d fb 3d c0 47 ab 3e 1a 42 85 be d6 9d 8e 3e
       0.12267513 0.33453178 -0.26026994 0.27854794
000340 53 34 83 bc d6 11 0a 3d b2 18 bf 3d 6c d3 0a 3e
       -0.016016161 0.033708416 0.09330882 0.13557214
000350 44 a9 9f be 26 02 d5 3d 97 ff cf 3c 20 de 40 3f
       -0.31183827 0.104008004 0.02539043 0.75338936
000360 fb 48 0e 3d 6c 0e a7 3c f9 2e 13 3d 4f d4 df 3e
       0.03473757 0.02039262 0.03593347 0.43716666
000370 a7 a0 06 be 8d bf 3f 3d e1 b2 a3 3d e0 8a 08 bd
       -0.13147222 0.046813536 0.07993103 -0.033335567
000380 cd 46 a1 bd 17 03 3e be f5 83 a4 3d 10 be 6d be
       -0.07874832 -0.18555866 0.08032981 -0.23217034
000390 36 13 6c bd 63 69 89 3d 69 d5 8f 3d 8f 90 cb bf
       -0.05763551 0.06709554 0.07023127 -1.5903491
0003a0 09 e9 2f 3d c5 1b f4 3c b0 a0 b4 3e cf 97 71 3d
       0.04294685 0.029798398 0.35278845 0.058982667
0003b0 07 40 eb bd 21 28 fe 3d 16 8d 26 3e 56 33 e8 3d
       -0.114868216 0.12409998 0.16264758 0.113379166
0003c0 30 6c 13 be 21 46 bc bd 55 b6 d9 be 54 50 d8 be
       -0.14396739 -0.091930635 -0.4252192 -0.42248785
0003d0 64 6b 58 be fe 91 54 3e fb 41 01 3e e2 c9 77 be
       -0.21134716 0.20758817 0.12622826 -0.24198106
0003e0 03 7b 08 bf 39 6f e8 3d b9 4f 09 bd f4 0b a6 3d
       -0.533127 0.11349339 -0.033523295 0.08107749
0003f0 56 9e a7 be 45 94 c8 be a3 41 a7 bd 4f d3 d3 bc
       -0.32737988 -0.3917562 -0.08166816 -0.025857596

l2.bias f4 [200]
000000 5c 74 82 3e 62 8a 1d be 3a 03 db 3d a7 a2 bf 3d
       0.254794 -0.1538482 0.10693975 0.09357195
000010 c5 3f 83 3d d0 88 fc 3d 7e f9 25 3c 9d 55 2b be
       0.064086474 0.123307824 0.010130284 -0.16731878
000020 55 e7 2e be 34 a4 00 be 27 3b 58 3c c6 47 ab 3d
       -0.17080434 -0.12562639 0.013197697 0.08363299
000030 8a 94 77 3c cc 61 27 3d ef fb ae ba 63 21 ad bd
       0.015111098 0.04086475 -0.0013350229 -0.08453634
000040 c2 c9 38 be 39 ba 41 3d 6a 88 3e 3c 70 23 10 3e
       -0.18045714 0.047296736 0.011629203 0.14076018
000050 34 10 89 bd 31 e1 5e bd 27 86 f9 3d 24 c4 3e 3e
       -0.066925436 -0.054413978 0.12183791 0.18629509
000060 89 41 5e bd f0 b2 9d 3d be e4 40 bd bf e9 8e be
       -0.054261718 0.07700145 -0.047093146 -0.2791271
000070 b3 ad f7 bd 0e 5b 84 3d 17 7f 62 bc 0f e1 0e be
       -0.12093677 0.0646268 -0.013824246 -0.1395304
000080 19 ff df bd 9a 9a dc 3d 0e cc 82 bd 6d 6c b7 bc
       -0.10937328 0.107716754 -0.063865766 -0.022390569
000090 83 18 0f be 3a 32 be bd 86 c6 c2 bc 01 8f 3d 3c
       -0.13974194 -0.09286924 -0.023776304 0.011569739
0000a0 07 4f 37 3d 40 2a 1d 3e 93 cd bd bd 87 8e fb bd
       0.0447531 0.15348148 -0.09267726 -0.12283044
0000b0 c1 5b 24 be f3 f6 96 bb 9e 2a 31 bd 90 cf ae 3d
       -0.16050626 -0.0046070754 -0.043253534 0.08535683
0000c0 90 e0 1a 3e 82 44 f1 bd 4a 5c c1 bd 71 ba b7 bd
       0.15124726 -0.11780645 -0.09441431 -0.08971108
0000d0 11 67 20 bd c0 3f ba 3d bf ce 30 3d 5a 94 dd 3d
       -0.03916079 0.090941906 0.04316592 0.108193114
0000e0 da c7 94 bd 8c 05 46 be 26 7a f0 bd c1 fd 85 bd
       -0.07264681 -0.19338053 -0.11742048 -0.0654254
0000f0 34 af cc 3d 95 f7 14 be 9f cb cc bc 25 63 09 bd
       0.09994355 -0.1454757 -0.024999438 -0.033541817
000100 a6 ed 09 3e 33 76 29 be 80 5c ec 3c fe dd bb bd
       0.13469562 -0.16548996 0.028852701 -0.09173201
000110 29 64 43 bd 5e 3b b9 bd 3f 93 c1 3d 21 53 08 be
       -0.047702942 -0.090445265 0.09451913 -0.13312961
000120 2e 32 18 3e 31 82 07 be 06 77 c8 bd 4a 51 0b 3e
       0.14862892 -0.13233258 -0.09788327 0.13605228
000130 5e d1 89 bd c4 bc 2e be f1 db 16 3e fa 11 2f bd
       -0.06729387 -0.17064196 0.14732338 -0.042741753
000140 b8 71 29 3d 14 94 f3 3d 15 53 4d 3c cd da 17 3e
       0.041368216 0.11893478 0.012532015 0.1482956
000150 f1 b9 af 3d 19 41 9d 3d 59 4c 29 3e ab 47 29 be
       0.085803874 0.07678432 0.1653303 -0.16531245
000160 9b 52 8f 3c 4a 5b 01 bc ff f7 70 bd 1a a3 4a 3d
       0.017495444 -0.0078953 -0.058830258 0.049471952
000170 6d 62 f0 3c d0 b0 11 3e f2 6b db be 5a 77 01 3e
       0.029343808 0.14227605 -0.42855793 0.12643185
000180 de 69 51 be a3 96 f6 bb 86 08 34 bd 3e e9 94 3d
       -0.20450541 -0.0075252815 -0.04395344 0.0727105
000190 e3 b6 c0 3c 33 19 bc bd 0d fd 03 be db ce 1b 3e
       0.023524707 -0.09184494 -0.128895 0.15215628
0001a0 de 2d 22 bd 10 c1 3a 3d 4d bf 54 be 75 cf 9e bd
       -0.039594524 0.045594275 -0.207761 -0.07754413
0001b0 47 37 57 be 78 38 16 3d 19 cb 8c bd 02 62 be bc
       -0.2101718 0.036674947 -0.06874675 -0.023240093
0001c0 7c 0d 69 bc b5 85 0c 3e 49 59 ab bd 99 07 45 bd
       -0.014224406 0.1372288 -0.08366639 -0.04810295
0001d0 b2 f6 ac 3d 13 2a 60 3c 6d 9b 9b be d4 98 87 bc
       0.08445491 0.013681906 -0.30392018 -0.016552366
0001e0 4f e7 af bd f7 79 e2 bd 9f 3b 18 be 15 18 b3 3d
       -0.085890405 -0.11058419 -0.14866494 0.08744828
0001f0 b0 60 a7 bc e2 13 3e 3d a5 f0 ac bd 2f d8 bf 3d
       -0.020431846 0.04640568 -0.08444337 0.093674056
000200 eb 90 b4 bd d3 58 07 3b 79 0f 01 be cc dc 3f bd
       -0.088167034 0.0020652309 -0.12603559 -0.046841428
000210 14 12 22 3d ff b1 1d 3e a1 8d 9e bd 52 68 d1 b9
       0.039568022 0.15399931 -0.07741857 -0.0003994131
000220 4f b6 25 3d 4f c0 8c 3c 5d 89 26 3e b0 9a eb bc
       0.040457066 0.017181544 0.16263337 -0.028760284
000230 6e 38 dc bb 1d 6e 8d 3d 06 88 de 3c ca 7a af bc
       -0.006720594 0.06905768 0.02716447 -0.021420855
000240 3f 4c 06 3e 19 23 08 3d 79 8e fd 3c 80 59 17 3e
       0.13115023 0.033236597 0.030951725 0.14780235
000250 c6 05 59 3d 92 b6 ed bd fa 62 43 3c 87 3a 53 be
       0.05298402 -0.11607088 0.011925453 -0.20627795
000260 47 b4 11 be 83 f4 4d 3d 6e 9f 2d be b3 cf 5e be
       -0.14228927 0.050282013 -0.16955349 -0.21758918
000270 22 a6 b0 bc 2b 4d f8 3d 0b 25 aa 3c 2a 09 97 bc
       -0.021563593 0.121240936 0.020769617 -0.018436987
000280 01 ca 65 3d 4c 85 aa bb 82 1b 52 be 80 ab 0e bd
       0.05610085 -0.0052038785 -0.20518306 -0.034831524
000290 bc ff 5f be 53 08 0e 3d ef ac d8 bc 7e 04 14 be
       -0.21874899 0.034675907 -0.026449649 -0.14454839
0002a0 c3 da d4 bd 6f 7c 49 bd d2 1c 4a bd 4a cf 43 3d
       -0.10393288 -0.049190935 -0.04934389 0.047805108
0002b0 50 83 a9 bd 46 89 a9 3d f9 32 af 3d f6 24 00 be
       -0.08276999 0.08278136 0.08554644 -0.125141
0002c0 1c 94 4a bd 4e 2a ee 3b c7 51 33 3d d8 05 ff 3d
       -0.049457654 0.0072682267 0.04377916 0.124522865
0002d0 27 7c 99 3d 03 25 9d ba 7d 46 fe 3d 9c 9a 60 bd
       0.07494383 -0.001198918 0.12415788 -0.054834947
0002e0 7a 96 16 3d 0a bd b5 3c c3 6f de 3a 26 51 8f 3d
       0.0367646 0.022184867 0.0016970563 0.069979
0002f0 92 3f 23 3e 12 fe 62 3e 76 3f c4 bd 0e 39 5f 3d
       0.15942219 0.22167233 -0.09582417 0.05449777
000300 96 a3 d8 bc ca ec af bd a0 82 bf 3d 75 32 60 bd
       -0.026445191 -0.08590086 0.093510866 -0.05473562
000310 dc 1e 06 3e 09 f3 8c bd 26 6d 1e 3e 24 a1 a6 bc
       0.1309771 -0.06882293 0.15471324 -0.02034051

l3.weight f4 [1, 200]
000000 4c c4 a6 bf e1 8c 4b 3f 36 d2 1c c0 73 5e a2 bf
       -1.3028655 0.7951184 -2.4503303 -1.2685074
000010 31 eb 96 bf e9 6b 8f bf 47 3b 40 3e a5 0c 6b 3f
       -1.1790525 -1.1204807 0.18772613 0.9181617
000020 2a aa 58 3f 54 48 a6 3f 1a 1d 62 bf 8f 96 57 3f
       0.8463465 1.2990823 -0.88325655 0.8421411
000030 e2 a7 3e c0 f9 66 47 c0 e8 d0 0c c0 fe d6 3f 3f
       -2.9789968 -3.11566 -2.2002506 0.7493743
000040 14 9a 3a 3f d3 df 16 c0 5e f0 a4 3f cb 04 91 bf
       0.72891355 -2.3574111 1.2885854 -1.1329588
000050 61 cd 68 3f 95 ee ca 3e 2d a4 c0 be 5e ce 83 bf
       0.90938383 0.3963515 -0.37625256 -1.0297353
000060 e9 f6 9e bf 4d d2 8b bf a1 3b 03 3f d4 39 1f 40
       -1.2419101 -1.0923554 0.5126286 2.4879045
000070 50 41 83 c0 c6 51 5d 3f ab 8e d1 3e 75 53 09 c0
       -4.1017227 0.864529 0.4092916 -2.1457188
000080 83 11 9a 3f 64 f9 25 c0 1e cc 0d 3f 1d b6 20 3f
       1.2036594 -2.5933466 0.55389583 0.6277788
000090 7f 3c 7d 3f dd d5 27 3f 22 c2 d0 3e 5a fc d9 3f
       0.98920435 0.65560704 0.40773112 1.7030137
0000a0 ab 86 70 bf 12 00 bc bf 07 60 46 c0 8a b1 e5 3e
       -0.93955487 -1.4687521 -3.099611 0.44862014
0000b0 94 a6 bb 3f e9 4c 03 c0 52 6f ba bf bc 0c 42 c0
       1.4660211 -2.0515692 -1.4565222 -3.0320272
0000c0 1c 2b 95 bf 3c 29 03 3f 24 8c 07 3f 07 ab a8 3f
       -1.1653781 0.51234794 0.5294821 1.3177193
0000d0 f8 92 de 3c b3 37 d7 bf 0b f4 bc bf 0c cf 6e bf
       0.02716969 -1.6813873 -1.4761976 -0.9328468
0000e0 fd 51 f0 3e 0e 6c 0d 40 bd f4 b1 3f a4 a8 59 3f
       0.46937552 2.2097201 1.3902813 0.8502295
0000f0 dd 17 f2 bf 46 21 e0 bf 33 dc 86 bf e2 b0 d0 3e
       -1.8913532 -1.7510154 -1.053595 0.4075995
000100 27 23 9b bf 78 66 c3 3f 6b b6 c1 3f 63 c7 1e 3f
       -1.2120103 1.5265646 1.5133795 0.6202299
000110 a2 39 b2 3f 79 18 6d 3f e9 5a a1 bf ab 1d e7 bf
       1.3923838 0.9261547 -1.2605869 -1.8055929
000120 31 89 41 bf a8 dc 42 40 4a e8 c9 3e 8c 4b 17 bf
       -0.7559996 3.0447178 0.39435035 -0.5909965
000130 dc cc 2c 3f 22 5a bc 3f c4 00 27 c0 8a aa 08 3f
       0.6750009 1.4715006 -2.6094217 0.5338522
000140 dd b1 2c bf e9 62 8f bf 1d a5 a1 bf d6 95 01 40
       -0.674589 -1.120206 -1.2628514 2.0247703
000150 3a b7 83 bf 5c 54 51 bf 68 f2 a4 bf 65 82 62 3f
       -1.0290291 -0.8176935 -1.2886477 0.88480216
000160 d5 28 26 c0 1a 23 a1 3e 16 18 0e 3d 5d d6 7b bf
       -2.5962422 0.31472093 0.03469094 -0.9837397
000170 66 0a 4b 3f a9 7c ae bf e4 77 61 40 9c 78 7d bf
       0.7931274 -1.3631793 3.5229425 -0.9901216
000180 76 19 88 3f d2 bf 95 3e d1 0f ba 3f 61 79 4a c0
       1.063277 0.2924791 1.4536077 -3.1636584
000190 7b b6 be 3e 06 80 2d 3f ae 07 0c 3f c1 44 06 c0
       0.37248597 0.67773473 0.5469922 -2.0979464
0001a0 5c d6 04 3f cc 40 d0 bf 78 8c 77 3f 71 05 bc bf
       0.51889586 -1.6269774 0.96698713 -1.468916
0001b0 5f 33 7a 3f 2d af bb 3f 1a 92 4d 3f 0f ff ab 3f
       0.97734636 1.4662834 0.8030106 1.3437213
0001c0 4e 69 21 3d a0 84 20 40 d3 24 ca 3e bd 5c dc bf
       0.039407067 2.5080948 0.3948122 -1.7215801
0001d0 4d 12 4c c0 97 a1 9c 3e fb 8f f8 3f 69 eb 39 3e
       -3.188617 0.30592033 1.9418939 0.18156208
0001e0 bf 7c 39 3f e1 34 83 3e 3c 6d f6 3e ea cc 8b 3f
       0.7245597 0.2562628 0.48130214 1.092191
0001f0 c7 b1 e8 bf bd 4a 59 c0 ee ed c1 bf 95 4c b8 bf
       -1.8179253 -3.3951867 -1.5150735 -1.4398371
000200 16 d7 4a 3f d9 d4 02 3d a2 fa 05 c0 ca a3 d2 3e
       0.79234445 0.03194127 -2.0934224 0.41140586
000210 39 71 75 bf 46 64 a1 c0 b6 32 34 3f e9 3a a5 bf
       -0.9587589 -5.0434904 0.7038988 -1.2908603
000220 ea 1c 52 c0 ad 80 f0 3f ef 9d 82 bf 6f 8e 38 3f
       -3.2830148 1.8789269 -1.0204448 0.72092336
000230 43 c2 b6 bf 23 7e 4c bf 00 31 04 40 ba 45 f9 bf
       -1.4278034 -0.7987997 2.0654907 -1.9474404
000240 d4 a0 99 c0 23 b8 e2 bf ae c6 76 bf 4a d8 e0 bf
       -4.8008823 -1.7712444 -0.9639691 -1.7566006
000250 f4 00 9c bf b0 96 49 40 e3 e4 34 3e 13 4f e2 bf
       -1.2187791 3.1498222 0.17665438 -1.7680382
000260 db 6e 86 3f 20 15 57 bf 1c cb 37 3f 96 91 42 3f
       1.050258 -0.8401661 0.71794295 0.76003397
000270 c1 0c a4 bf 38 14 05 c0 de e5 ec bf ae bb 9a bf
       -1.2816392 -2.079359 -1.850765 -1.2088525
000280 30 86 9e bf 55 e1 4d 3e be 15 82 3f da fe d2 3e
       -1.2384701 0.20105489 1.0162885 0.4121006
000290 0a c0 32 40 ef af 22 3e 84 49 88 3e cc 34 e3 bf
       2.7929711 0.15887426 0.26618588 -1.7750487
0002a0 41 d4 9f 3f a8 f2 84 3f bf b6 83 3e 52 bf 74 c0
       1.248665 1.0386553 0.25725362 -3.8241773
0002b0 ba 4d 47 bd e8 70 93 bf 77 6b 87 bf ce 5b 97 3f
       -0.04865811 -1.1518831 -1.0579671 1.1824892
0002c0 27 15 c8 bf 86 0f 4a 3e b4 72 d4 bf 39 df 7a bf
       -1.5631455 0.19732484 -1.6597505 -0.9799686
0002d0 95 b0 88 3e d1 c2 ce 3f 35 6c 49 40 01 bc 0b bb
       0.2669722 1.6153203 3.1472294 -0.0021321776
0002e0 97 b4 83 bf a8 4b 5a bf 99 6e 6d 3e 2e 29 a5 3f
       -1.0289487 -0.8527169 0.23186721 1.2903192
0002f0 6d c9 f6 be 55 96 1f 40 46 f7 1d 3f fa d9 23 bb
       -0.4820055 2.4935505 0.61705434 -0.002500175
000300 30 bd 1c c0 9b 1b 50 3f d7 01 9a bf c6 6e 54 3f
       -2.449047 0.8129212 -1.2031811 0.82981527
000310 1d b2 cd 3f e5 8c 2e 3f 6e 76 1d 40 61 83 bb bf
       1.6069981 0.6818374 2.4603534 -1.4649469

l4.weight f4 [200, 28]
000000 12 72 a2 be 4d e9 8c c0 6c 8e 60 bd 14 26 ae 3f
       -0.31727654 -4.403479 -0.054823324 1.360537
000010 b3 29 51 3d 6a cd b4 be f0 99 97 bd 60 03 12 be
       0.051065158 -0.35312968 -0.07402408 -0.142591
000020 92 4f 6b bd a2 23 83 be b4 07 20 be 5d a9 9c bd
       -0.05744893 -0.25613123 -0.15627939 -0.07649491
000030 33 c2 8a bd a5 1e 5a 3d a8 94 86 3e 7f d2 03 3e
       -0.06775322 0.05325188 0.2628529 0.12873267
000040 c3 fa 56 be 7e 21 64 be 93 90 83 3d 6d cb 07 3e
       -0.20994096 -0.22278401 0.0642406 0.13261195
000050 5c 16 21 3e c8 61 4d 3e 65 ba ba 3c dc d7 8f be
       0.15731186 0.20056832 0.022793958 -0.28094375
000060 db 15 08 bd 8d 51 71 bd 5c ca ca bb b0 6c 84 bc
       -0.033223968 -0.058915664 -0.006188674 -0.016165107
000070 e1 63 fd 3e fe 39 8a 3e 52 7d 55 3d c2 6d 16 bf
       0.49490264 0.2699737 0.052121468 -0.5876123
000080 9e 11 3f be 8f c5 13 3d 0d 86 e5 bd 41 79 93 3c
       -0.18659064 0.03607708 -0.11207209 0.018002154
000090 6e 31 07 3d f1 18 06 3f 5c 9d 75 3d 4c 7d 6b 3e
       0.033006124 0.5238181 0.059964523 0.22997016
0000a0 8b b0 61 3c 39 dd f5 3c 42 9a 9f bd 0c 0e f6 bd
       0.013775001 0.030012714 -0.07793094 -0.12014398
0000b0 e8 c9 38 be 38 e8 63 be 69 d8 8f 3d 75 e3 ab be
       -0.18045771 -0.22256553 0.07023699 -0.33571973
0000c0 8a 94 aa 3e 2d a7 87 3e 93 62 0b 3f b9 0c ff be
       0.3331645 0.26494732 0.5444729 -0.49814394
0000d0 98 5a 2c 3c 45 84 ad bb 15 03 12 3d 27 55 28 bc
       0.010519646 -0.005295309 0.03564747 -0.010274208
0000e0 eb 25 ae bd 52 e0 7b bf c8 2a ea be eb 9f a0 bf
       -0.08503326 -0.9838916 -0.45735765 -1.2548803
0000f0 f2 fa 11 3d b5 a2 51 bd e4 58 8f 3d fe bd cb bc
       0.03563971 -0.05118056 0.069993764 -0.024870869
000100 84 a1 9b ba 85 49 c6 3e ae 06 80 3d 62 e8 25 3e
       -0.0011873697 0.38727966 0.06251274 0.16201928
000110 f7 bb 15 3d 36 ae 89 3c cf ab d3 3e a2 fe f2 3d
       0.03655621 0.016806703 0.41342017 0.118649736
000120 7d fe 9c 3e b4 41 90 3e bf 2c 27 3e 0e f7 06 3e
       0.3066291 0.28175128 0.16325663 0.13180181
000130 4a c5 c4 be 3b 95 8e 3e 15 57 87 be ba a2 51 3d
       -0.3843177 0.2784823 -0.26433626 0.05118058
000140 08 20 9e bc 2f 0e e6 3c be 19 ed ba 95 97 41 3c
       -0.019302383 0.028082935 -0.0018089337 0.011815925
000150 1c 52 47 3e 3a 56 df bf 30 be 8a be 14 a4 40 bf
       0.19464916 -1.7448189 -0.27098227 -0.75250363
000160 3d 43 4d ba 32 39 a7 bd 93 08 34 3c 7b 75 11 bc
       -0.00078301487 -0.08165206 0.010988372 -0.008878107
000170 a6 cf 82 bb 7f 7f a5 3d e6 77 68 be 82 40 8e 3e
       -0.003992039 0.080809586 -0.22701988 0.2778359
000180 32 4e 0c 3d ed bd e3 bc 91 52 32 bd 20 8e b0 be
       0.03425426 -0.027800525 -0.043535773 -0.34483433
000190 61 0f e4 be 41 92 15 3f 98 0e a0 3e 24 dc 05 3d
       -0.44542983 0.5842629 0.31261134 0.032680646
0001a0 89 ba ca bd a7 e7 51 3d f4 51 64 be 83 65 bd 3d
       -0.0989886 0.05124631 -0.22296888 0.092478774
0001b0 2d 32 11 3c 89 25 2d bc a1 51 fa bd 54 b8 6a 3d
       0.0088620605 -0.010568031 -0.12222601 0.057304695
0001c0 5d fb c9 3e ab 69 0c be a6 0c 35 be 37 0f ea 3e
       0.39449587 -0.13712184 -0.17680606 0.45714733
0001d0 bf bd 02 3e b9 d8 b6 bc 1f 85 85 3d b8 85 47 bc
       0.12767695 -0.022320138 0.065195315 -0.012177877
0001e0 ba c1 ca bb ce d1 b0 3e 3c 00 44 3d e7 82 83 3e
       -0.006187645 0.34535068 0.047851786 0.25685808
0001f0 35 74 0a 3c d4 8d a2 3c 80 45 b9 3e 96 45 9f 3e
       0.0084505575 0.01984302 0.36185837 0.31107777
000200 1a a3 52 bd d1 1c 1f bf 0c b0 bf be af c0 1f 3d
       -0.051425077 -0.62153345 -0.37439 0.039002117
000210 53 ff fe 3e cf ba 08 3e 00 94 fd be 54 b2 7a bd
       0.49804172 0.13352512 -0.49526978 -0.061205223
000220 e8 07 54 3c 7a 25 55 3c 75 be ec 3c 7f 5f a0 3c
       0.012941338 0.013009423 0.02889941 0.019576786
000230 5f 6e 8e 3e c9 cc de 3f fa fa df be b3 34 b4 bc
       0.2781858 1.7406245 -0.43746167 -0.021997785
000240 e6 fe 9d bd 33 cb b6 3d 67 95 14 bd dc f6 42 3d
       -0.07714634 0.08925476 -0.036275294 0.047598705
000250 bb 08 a8 3b 30 90 39 3e fb 16 fa 3d 17 b8 34 3d
       0.005127994 0.1812141 0.122114144 0.044120874
000260 56 3c d0 3c fc 24 7f 3d b5 1d 2f 3d 89 56 1e 3e
       0.025419395 0.06229113 0.04275294 0.15462698
000270 b0 d6 87 be 13 1a 98 be f1 46 2d 3f b5 56 e2 be
       -0.2653098 -0.29707393 0.67686373 -0.44206777
000280 9f 8b 75 3e e9 bf d4 3e e5 0b 8e be d5 4c 99 3d
       0.23979042 0.41552666 -0.2774345 0.07485358
000290 97 7e 82 3b 1f 49 0d ba 77 57 03 3d 26 3c 84 bc
       0.003982376 -0.0005389619 0.032065835 -0.016141962
0002a0 7f 65 e3 be 41 0a 6e 3e 81 66 98 be 70 ab 23 3d
       -0.44413373 0.23246099 -0.29765704 0.039958417
0002b0 93 8b 80 bd 44 88 5b bb 97 7b 13 3d 71 e9 26 3c
       -0.06276622 -0.0033497969 0.036006536 0.010187493
0002c0 fe 9d 64 3c 50 7c 9d 3e 6a 15 36 bc fa a6 b4 3d
       0.013953684 0.30758905 -0.011113504 0.08820911
0002d0 1b e3 c9 bc 80 5e a4 ba 8c de 91 be 4b cd 53 be
       -0.024644425 -0.001254037 -0.28490102 -0.20683782
0002e0 56 ca b9 be 88 ac 82 be a9 75 f9 3d ed 4a c8 be
       -0.36287183 -0.25522256 0.12180645 -0.39119664
0002f0 c6 bb 0c be ba 6a c3 3e d2 d2 32 3e af c2 3b 3e
       -0.13743505 0.38167363 0.17463234 0.18335985
000300 7e 86 29 3c a8 d5 78 3c ba 65 97 bc 63 a6 99 3c
       0.010347007 0.015187658 -0.018481124 0.018756097
000310 63 b1 46 be 06 b5 90 3f 28 73 94 3e ec a9 47 bf
       -0.19403605 1.1305244 0.28994107 -0.77993655
000320 02 4b 63 be d3 11 a7 3c bb 8c e6 bd 0f 72 25 bb
       -0.22196582 0.020394241 -0.11257311 -0.0025244986
000330 98 cb 8a 3b 5b 19 54 3d cb 17 67 3d 3e 69 59 bd
       0.004235696 0.051781993 0.056419175 -0.053078882
000340 3d 5d eb 3c 3a cc dc 3b 6e 4a 5b be fe 17 15 bf
       0.028730983 0.006738213 -0.21415111 -0.58239734
000350 03 e7 b3 3c 7d 92 a6 3e 56 78 67 be 94 88 d0 3e
       0.02196074 0.32533637 -0.22604498 0.407292
000360 27 d4 90 bd f7 f3 28 3e f2 cd 91 3e 19 90 95 bd
       -0.07071715 0.16499315 0.28477436 -0.07302875
000370 7d 80 35 bc cb 35 d4 bc 8f 84 31 3c 51 d9 ba bc
       -0.011077997 -0.025904557 0.010834827 -0.022808703
000380 a0 4f c7 be db 55 54 bf 03 9e db 3e 5a fd c2 3e
       -0.38927937 -0.82943505 0.4289399 0.38083917
000390 64 dc 58 3d 24 06 fc bd 80 d4 16 3d e0 d0 15 bd
       0.052944556 -0.12305859 0.03682375 -0.03657615
0003a0 be b6 66 bc 02 98 97 be 37 05 c1 bc b4 fd 49 be
       -0.014081655 -0.2960816 -0.023562057 -0.19725686
0003b0 ce db e0 bc 14 c5 02 bd d2 6a 41 3e 4e 53 dc bd
       -0.027448561 -0.03192623 0.18888405 -0.107580766
0003c0 85 ac 95 bd 58 c0 18 be 79 4f 8f be ad 58 00 3e
       -0.07308296 -0.14917123 -0.2799032 0.12533827
0003d0 88 ed 91 3b 9e 83 0e 3f 7c ce de 3d 8a 8b 1a 3e
       0.0044533648 0.5566958 0.108792275 0.15092292
0003e0 d9 ae 8a bc f7 02 8a bc 22 85 0d 3c f5 c3 00 bc
       -0.016929077 -0.016847117 0.008637698 -0.00785922
0003f0 a8 94 d8 be fb b3 59 bf db 4c 65 3e 3c de b1 bf
       -0.42300916 -0.85040253 0.223926 -1.3895946

l4.bias f4 [200]
000000 08 83 5f 3c 3e 59 8d be ef d0 b5 bd 6e 0e 30 3e
       0.01364208 -0.2760715 -0.088777415 0.17193004
000010 b1 01 bc 3e bb 50 cd bd e0 38 0b 3e 3d 60 9e be
       0.3672004 -0.10025164 0.13595915 -0.309328
000020 c8 9a 6c be b4 c5 5a be c8 4b e7 bd 5a 21 f1 be
       -0.2310592 -0.2136448 -0.11293751 -0.47095758
000030 eb bf df 3d 62 ee 98 be 2d 19 84 bd 4f a1 71 3e
       0.10925277 -0.29869372 -0.064501144 0.2359669
000040 3a 2b 68 3e 59 49 7e 3c 68 62 43 bd 45 7d c7 3b
       0.2267274 0.015520417 -0.04770127 0.0060879313
000050 a4 d3 ed 3e dd c8 91 3e ad c9 d3 3d 75 2c 1a be
       0.4645053 0.2847356 0.10341201 -0.15056022
000060 12 39 0d 3f 4b f8 06 be b7 4f 28 3d 8f f9 91 bd
       0.5516521 -0.13180654 0.041091647 -0.07127678
000070 1e e3 1f 3e f1 c1 90 be 08 24 e0 3c 9f 9d 61 be
       0.15613982 -0.28272966 0.027360931 -0.22032784
000080 ce b0 e7 3e a4 a4 68 be f9 ee 29 3e 50 c5 66 3b
       0.4525208 -0.22719055 0.16595067 0.0035212822
000090 c6 a8 8a bd 68 09 98 be 5e cb ab 3e bb 23 01 3f
       -0.06770472 -0.29694676 0.33553594 0.50445145
0000a0 2f f3 b2 3e 5a 8a 89 be 96 f2 9e be 2e 93 06 bf
       0.3495116 -0.26863366 -0.31044453 -0.5256833
0000b0 ad 61 02 3d ae 82 c7 3e 36 73 8d be 6d c2 8c 3d
       0.031831432 0.38966888 -0.2762696 0.06873021
0000c0 fb 04 bc bc 28 ed 92 3d ea 93 55 be 55 93 f9 bc
       -0.022951594 0.0717414 -0.20857206 -0.030465761
0000d0 e6 89 9c bd c5 ce c5 3e cd 8c a1 be 33 2e d3 3e
       -0.076434895 0.38634315 -0.31552735 0.41246185
0000e0 70 29 9e 3e fe 62 d1 3e f6 da 6a be f6 d1 a9 be
       0.3089099 0.40895838 -0.2293509 -0.33168
0000f0 e4 f7 17 3e 8b 31 87 3d 5c 83 59 be 26 ae 42 be
       0.14840657 0.066012464 -0.21241516 -0.19011745
000100 d0 06 04 3d d3 7f eb be f5 dc dd 3e 60 13 3d 3d
       0.03223306 -0.4599596 0.4333264 0.046161056
000110 90 44 cc be ce 36 3f be e9 68 b8 bc 38 93 8e be
       -0.3989606 -0.1867325 -0.022510963 -0.27846694
000120 1f 84 84 3e 87 e8 48 3e d0 07 f8 3c 64 d8 53 3e
       0.2588205 0.19619952 0.030277163 0.20688015
000130 64 93 eb 3e 90 aa 8b 3e 6e d3 87 bd 3f 39 a6 be
       0.46010888 0.27278566 -0.06632124 -0.3246555
000140 ab 9b 8e 3d e9 72 76 be 4b 80 d5 bd 00 a9 82 be
       0.06963285 -0.24067272 -0.104248606 -0.25519562
000150 cd 30 7c 3e 47 be 7c be a2 f0 60 be a1 bd d7 3d
       0.24627991 -0.2468196 -0.21966794 0.10534216
000160 7e 12 cc 3d a2 29 96 be 9f c0 7b 3c 39 76 35 3e
       0.099644646 -0.29328638 0.015365749 0.1772088
000170 f0 33 a0 3e 6f b2 4c be e7 a6 a6 bc 4b 07 c1 be
       0.31289625 -0.19989942 -0.020343257 -0.37700877
000180 95 9d 5f be 44 e9 65 be fc 52 da be 21 26 d6 be
       -0.21837457 -0.22452265 -0.42641437 -0.41825965
000190 05 80 25 3e 8e 18 44 3e 7b 62 bb 3e 4f 11 81 be
       0.16162117 0.19149992 0.36598572 -0.25208518
0001a0 01 f1 f6 bd df 08 7f 3e ba 18 72 be a9 53 d4 bd
       -0.120576866 0.24905728 -0.23642245 -0.103675194
0001b0 b0 b0 9b be 62 62 68 3e b1 30 30 be 69 ee ce 3d
       -0.3040824 0.2269378 -0.17206074 0.10104067
0001c0 3f 4a bc 3e 1c e3 7e 3e 50 a5 da 3e 3e b9 8b be
       0.36775395 0.24891323 0.42704248 -0.27289766
0001d0 5f 28 1f be 72 fe f5 bc 19 b4 63 3e f8 22 37 3d
       -0.15542744 -0.030028556 0.2223667 0.044711083
0001e0 f8 f4 c3 3d 0c 60 7e be f7 ba f3 3d e4 dc b5 bd
       0.095682085 -0.24841326 0.11900895 -0.08880022
0001f0 a9 66 ba be e0 92 b7 be 08 40 a5 bd b8 1d 9e 3e
       -0.36406448 -0.35854244 -0.080688536 0.3088205
000200 78 af 12 be 00 c7 e0 3e 73 e2 8a 3e bb aa 9d 3d
       -0.14324749 0.43901825 0.27125892 0.0769858
000210 b6 74 c5 3e 8c b8 77 be 21 63 52 3e ed 50 f6 be
       0.38565606 -0.24191493 0.20545627 -0.48108616
000220 7b be 22 3e bd e0 08 bf 3c 46 c6 be 53 09 10 3f
       0.15892975 -0.53467923 -0.3872546 0.5626423
000230 2b 26 ff bd cb d1 c8 bd 1a ca f9 be 17 40 97 be
       -0.12458452 -0.0980564 -0.48787004 -0.29541084
000240 36 5e f9 bd f3 2d e1 3d d1 89 8b 3e c1 c0 81 be
       -0.121761724 0.10995092 0.27253583 -0.25342372
000250 47 6b f4 3e 7a e7 8d 3e d9 51 5c 3e 63 b1 ef be
       0.47738096 0.27715665 0.21515597 -0.46815023
000260 9f 86 72 bd 1e c7 c6 be fc 0c e9 be 3b 3f 57 be
       -0.059210416 -0.3882379 -0.4551772 -0.21020214
000270 fd 2f 85 3d ff 2a 0a 3e fb b4 39 3d 54 60 11 3f
       0.06503294 0.13492964 0.045338612 0.5678761
000280 5a f9 64 3e 6d cf 9b bd 60 db 01 3d d4 af 8d be
       0.22360745 -0.07607923 0.031703353 -0.2767321
000290 cd ea 02 be 29 89 2c 3d 08 5a 36 3f c5 31 6b be
       -0.12784882 0.042122994 0.71231127 -0.22968204
0002a0 46 40 59 3d 1d 48 05 be 1f 7f 24 bd f0 c3 a6 3d
       0.05303981 -0.1301579 -0.040160295 0.08142841
0002b0 67 a2 ac bc 62 c3 44 be 1b b8 48 3e 7d e2 4a 3e
       -0.021073533 -0.19215158 0.1960148 0.19812961
0002c0 ef 84 ba 3d 2b 53 16 be ee ef 9f be 31 d8 19 3e
       0.09107386 -0.14680164 -0.3123774 0.15023877
0002d0 e4 02 fb 3e f5 dc a9 be 47 43 af 3e 19 95 0d 3e
       0.49025643 -0.3317639 0.34231016 0.13826407
0002e0 d7 62 23 be fb 6c 45 3e 21 58 b6 bd 6b 63 55 be
       -0.15955673 0.19279854 -0.08903528 -0.20838706
0002f0 de 8e 81 3e e6 38 9d be e1 bd 9d bd ff ca 7f 3e
       0.25304312 -0.30707473 -0.07702232 0.2497978
000300 6f d2 8c be 81 c2 0b 3f fb ab dd bd 51 a6 08 3e
       -0.27504298 0.54593664 -0.10823818 0.13344695
000310 31 76 28 3d eb 4d 02 3f 0a 05 f8 be 7d 22 a6 be
       0.04112834 0.50900143 -0.48441344 -0.32448187

l5.weight f4 [200, 200]
000000 66 a3 39 3d f3 6e 14 be 10 01 20 3e 9e fd 6d be
       0.045321845 -0.14495449 0.15625405 -0.23241279
000010 42 7c 35 be b3 d6 b0 3d ee 42 f8 ba 59 df 72 3e
       -0.17723182 0.086347006 -0.0018940845 0.23718013
000020 dd 09 d1 bc 9d ae 38 bd 9e 92 aa 3d 12 f6 54 3e
       -0.025517398 -0.0450884 0.08328746 0.20796993
000030 1b 81 df bd 45 0b 4d bd 8c 26 b8 bd 77 38 ba 3d
       -0.10913297 -0.050059576 -0.08991727 0.09092801
000040 12 ad bb 3e bd 21 07 bf e7 55 cb 3d a9 79 d8 bc
       0.3665548 -0.52785856 0.09928494 -0.0264252
000050 4c d5 1f 3d e7 87 2f bd ab 28 9b bc f8 bf ce 3d
       0.039021775 -0.042854216 -0.01894029 0.10095209
000060 19 2a 1e be d6 88 87 bb 03 06 af bd 25 5b 26 3d
       -0.15445746 -0.004136185 -0.085460685 0.040614266
000070 ae ab f4 3b ab e5 a3 3d 4f ba 60 3e 6a dc 98 3d
       0.007466755 0.0800279 0.21946071 0.07463916
000080 8e d7 8f bd 3b a1 92 be 26 f7 f2 3c a2 f7 d8 bd
       -0.07023536 -0.28638634 0.029658865 -0.10594107
000090 5c c0 69 3d 6e b4 8b 3e e2 b2 0e 3e ed 34 1c be
       0.057068214 0.27286094 0.13935426 -0.15254565
0000a0 9f 33 99 3c 7b 3d b9 bd 51 81 a0 3d 40 9f e3 3c
       0.018701373 -0.090449296 0.07837165 0.027785897
0000b0 1d a9 63 3e 28 a7 5f be 5c fc e5 bd d1 c3 4b 3e
       0.2223248 -0.21841109 -0.11229774 0.19898917
0000c0 96 9a c2 bc 9b 93 e3 3d 92 e2 dc 3d 1b 83 78 3e
       -0.023755353 0.11112138 0.10785402 0.24268763
0000d0 c2 e0 a0 be f9 08 d8 bd df 43 11 bd 80 64 24 bc
       -0.31421477 -0.105485864 -0.035465118 -0.010033727
0000e0 71 cd 72 bd 88 4e 49 3e cf 48 df be f2 f4 38 be
       -0.059277955 0.19658864 -0.43610236 -0.18062189
0000f0 70 2a 20 bc 08 a3 93 be c8 33 f0 3d ea 1a 55 3e
       -0.009775743 -0.2883532 0.117286265 0.20811048
000100 d2 a9 6b be 96 c0 4d bd 97 e9 4d 3e 5d 36 b9 be
       -0.23014 -0.050232492 0.20108639 -0.36174288
000110 ae 37 f4 3d 7b 6b 80 3e 81 20 ab bd 91 22 2a 3d
       0.119246826 0.25082 -0.08355809 0.04153687
000120 57 3d 96 3d 1a b7 8f 3e c6 9c 59 bc 88 40 65 3e
       0.073359184 0.28069383 -0.013282007 0.22387898
000130 77 ca 06 3e 4b 46 ad 3c df ad 8d 3b bb c2 93 3d
       0.13163172 0.021151682 0.0043237056 0.07214876
000140 fc 0d b0 3d dd e4 7e bb 42 71 09 3e cc f1 72 3d
       0.08596417 -0.0038893737 0.1342211 0.059312627
000150 17 1b 91 3d f7 42 06 bd 69 69 78 bd 42 69 f4 3d
       0.07085245 -0.032778706 -0.060647402 0.11934139
000160 5a 85 6c be e0 86 15 3e 0c 98 68 3d 3e 52 b4 bf
       -0.23097745 0.14602232 0.05678563 -1.4087598
000170 86 51 09 3f 53 f3 29 bd 03 39 05 3e 8e 7a 95 be
       0.5364002 -0.041491818 0.1301003 -0.29195064
000180 45 6e 8e be 65 57 03 3e b4 d0 9f be e2 64 f3 bc
       -0.27818504 0.12826307 -0.31213915 -0.02971119
000190 e0 01 90 3e 76 8d fc bc 12 e8 20 be 9c 04 b5 bd
       0.2812643 -0.030829173 -0.15713528 -0.0883877
0001a0 35 ce 4d be 7a 8a 21 3e 7a 95 46 be cf dd b0 be
       -0.20098193 0.15775481 -0.19392958 -0.34544227
0001b0 92 b7 6f be a4 f9 13 be 64 f2 b5 3d 5f 76 1d be
       -0.2340987 -0.14450699 0.08884123 -0.15377186
0001c0 44 2d 0b be 3a d5 12 3e f6 29 7e 3d 5c 34 af bd
       -0.13591486 0.14339152 0.062051736 -0.08554909
0001d0 c6 0c 76 be cb 80 fa bf 43 14 19 bd c9 ac ab 3d
       -0.2402831 -1.9570554 -0.03737284 0.083825655
0001e0 63 46 8b be 13 c1 9f 3d c8 2e e1 3d 35 38 03 3d
       -0.27202138 0.07800498 0.10995251 0.032036025
0001f0 c2 27 07 bd f5 17 7f 3d 35 70 9b bd 6c d3 7b be
       -0.0329969 0.062278707 -0.07589761 -0.2459237
000200 4d 6f a9 3e eb 36 94 3d 78 cd 7b 3d e3 f1 95 be
       0.33092728 0.07237037 0.061475247 -0.29286107
000210 2a a6 82 bd 76 66 78 3e 83 68 d4 3d 0f 48 60 be
       -0.063793495 0.24257836 0.103714965 -0.21902488
000220 f1 df df bd 9d 38 1b 3e 5f b9 65 be d6 65 19 3e
       -0.10931385 0.15158315 -0.22433995 0.14980254
000230 15 b1 bd 3c bc 22 5a bc c8 46 4e be 7a 4e 1b be
       0.023155728 -0.013313945 -0.20144188 -0.15166655
000240 0f c9 73 3d cd e3 21 3e 27 b1 97 bd 0c f6 c1 3d
       0.059517916 0.15809555 -0.07406836 0.09470758
000250 d0 d9 57 3d 0c a5 2a 3c de 33 68 bd 6f 0f bb be
       0.052697957 0.010415327 -0.05669009 -0.36535212
000260 ba 14 31 3d 48 d3 ca bd 51 14 a7 3d 0d 05 4f 3e
       0.043232657 -0.0990358 0.08158172 0.2021677
000270 27 3f 4a bc 46 07 d4 3d 79 6d 1d 3e 7f a0 9d bc
       -0.012344158 0.1035295 0.15373792 -0.01924157
000280 5e 23 80 bd ae 84 48 be 6a 69 3b 3e 03 6f f5 3c
       -0.06256746 -0.19581863 0.18301931 0.029960161
000290 58 f7 27 be 5c 1d a2 3b 95 83 18 bf f8 e1 93 be
       -0.16402948 0.0049473476 -0.5957578 -0.28883338
0002a0 4e 13 b0 3d 21 3b 4e 3e 1b 66 92 be a3 d3 04 3f
       0.08597432 0.20139743 -0.28593525 0.5188543
0002b0 8c 0c 25 bc 52 0e 8d bd 6b 84 cd 3e d0 9e 0d bf
       -0.010073792 -0.06887497 0.4014009 -0.55320454
0002c0 9b 2a 15 be 9a 6f f7 bd 25 6c a6 bc 84 9f 2d 3c
       -0.14567034 -0.12081833 -0.02031524 0.0105971135
0002d0 26 88 64 3d 76 e1 a0 3c 76 f7 fb 3d bf be 70 3d
       0.055793904 0.019638758 0.12303059 0.05877566
0002e0 3a 85 82 bd 95 ab 8f be d7 83 98 bc 74 02 82 bd
       -0.06373067 -0.28060594 -0.018617554 -0.06348124
0002f0 26 ac 90 be b4 64 92 bd 01 33 e8 3d b8 1a 4d bd
       -0.2825634 -0.07148114 0.11337853 -0.05007431
000300 d7 d7 92 bd 65 fd 9a bd ee f7 08 3e 0d 43 81 bb
       -0.071700744 -0.075678624 0.13375828 -0.0039447607
000310 10 51 6f 3d 0f 2a 94 3e 51 65 27 be 66 1a 49 be
       0.058426917 0.28938338 -0.16347243 -0.19638976
000320 46 e3 8e bd c4 b5 f4 3c c7 b4 f3 3d 6a 39 1e 3c
       -0.06976943 0.029871829 0.11899715 0.009657243
000330 aa 38 98 3e 08 20 2f 3e 54 d5 eb bc f1 88 b3 3d
       0.2973073 0.17102063 -0.028788246 0.08766354
000340 80 7f b0 3d d5 34 7d be af 95 20 3e 1d df 79 3d
       0.08618069 -0.24727185 0.156821 0.061003793
000350 3b a8 45 be ef f0 6a be 75 19 d6 3e 0a e6 32 bd
       -0.19302456 -0.22943471 0.41816297 -0.043676414
000360 45 7c 1d 3e f6 ea 80 bd de de b2 3d 3c ff 5e 3d
       0.15379436 -0.06294815 0.08733915 0.05444263
000370 85 99 ae 3e 77 04 46 be 1b ad 32 be 1f 54 64 3d
       0.341015 -0.1933764 -0.17448847 0.055744287
000380 b3 7f 6e be ee 3e b4 be d9 e8 c0 3d a2 2f 6e bd
       -0.23290901 -0.35204262 0.09419412 -0.058150895
000390 de cf 14 be 71 31 54 be 7f f0 6a be 73 48 eb bc
       -0.1453242 -0.20721985 -0.22943304 -0.02872107
0003a0 96 92 a8 be 83 bc 0a bc ef 4b 39 3e b3 2f e5 be
       -0.32924336 -0.008467796 0.18095373 -0.44762954
0003b0 ba 65 53 3d cd ae be 3e d6 95 98 be d9 09 4f bd
       0.051610686 0.37242737 -0.29801816 -0.0505465
0003c0 11 99 f6 3c 4d cc 3e 3e 59 55 36 bd 90 98 03 be
       0.030102285 0.18632622 -0.044514988 -0.12851167
0003d0 a8 7e 75 be 39 dc d4 3d 17 c1 a5 3d b1 3f 84 bd
       -0.23974097 0.10393567 0.080934696 -0.06457461
0003e0 80 cf 97 3c f6 73 ff 3e 5a 9c 9e ba 44 05 4a 3d
       0.01853156 0.4989316 -0.001210104 0.049321428
0003f0 cf 36 f4 3e 60 85 d7 bd 13 af b7 bd bb ee 53 bf
       0.47698066 -0.10523486 -0.0896894 -0.8278615
