HardcoreVersion_7500_V3/critic/ppo_q_critic4000.pth (torch, 592130 bytes, 10 tensors)

l1.weight f4 [256, 28]
000000 c7 b8 10 be c7 66 62 3d db cc 35 bf 3d 35 07 bf
       -0.14132987 0.055273797 -0.7101571 -0.5281561
000010 47 f4 bc bb 4d 27 b3 3c 20 7d 6e 3c ce af e9 3d
       -0.005766425 0.021869326 0.014556199 0.11410485
000020 dc b7 40 3d 38 86 12 be 9d 23 49 3c c5 1a d9 bd
       0.047050342 -0.14309013 0.012276557 -0.10600809
000030 1e 17 41 3d e3 f8 e2 3c e6 bb 8b bd 05 57 b6 3d
       0.047141187 0.027706569 -0.06822948 0.089033164
000040 29 a9 67 3d 3b f4 15 3f 5b d7 b0 3e 87 97 28 be
       0.056557808 0.5857579 0.34539303 -0.16464053
000050 5f 9c 01 bf eb 34 95 3e ed af 8c 3e 43 08 46 be
       -0.5062923 0.29141936 0.2747797 -0.19339089
000060 23 a3 c9 bc 22 ba 29 3e 77 0c 14 be be 2c 37 bd
       -0.024613922 0.1657491 -0.1445788 -0.044720404
000070 77 96 f1 be b4 51 b3 bf ff 3c 3d be 3a 24 9e 3e
       -0.47185108 -1.4009309 -0.184803 0.30887014
000080 98 77 9c be 76 9c 47 3d cd d3 b8 bd d0 b3 96 3d
       -0.30559993 0.048733197 -0.09024773 0.07358515
000090 7c 9d 57 bd 27 0a 52 3e 5c 7a 4f be 9a 6d 01 be
       -0.052640423 0.20511685 -0.2026152 -0.12639466
0000a0 59 4b fd bd a2 0c de 3b 94 38 2e be b9 6e 7e be
       -0.12367887 0.0067764083 -0.1701377 -0.24846925
0000b0 8c c0 18 3c 22 60 38 be c3 3f 2f bd 5a a9 43 be
       0.0093232505 -0.18005422 -0.042785417 -0.19107571
0000c0 ed 22 59 3e 54 06 cd 3e 49 d0 43 3e 53 13 74 be
       0.2120473 0.4004389 0.19122423 -0.23835497
0000d0 dd c5 49 3d 05 ba af 3d 4b 35 c7 3d fb 31 c2 bd
       0.049260963 0.08580402 0.09726962 -0.09482189
0000e0 33 05 86 3e 88 6f b6 3f 07 1c 2b bf 78 3c d7 be
       0.26175842 1.4252787 -0.6683964 -0.42038321
0000f0 c4 ee e5 3e 8a fd de 3e 1e 94 f5 3e 2a 44 69 3d
       0.44908726 0.4355281 0.47964567 0.056949772
000100 2f 23 23 bd 51 fc 41 3e 62 52 ff bd 77 32 c5 be
       -0.039828476 0.18943907 -0.12466885 -0.38515064
000110 45 83 48 be 28 6f 1e 3e e6 68 7d be e1 e7 33 3e
       -0.19581325 0.1547209 -0.24747047 0.17568924
000120 82 84 94 bd 64 72 08 bb 3e cd 11 3e 6a f9 80 3d
       -0.07251836 -0.0020820135 0.1423845 0.06297572
000130 44 69 cd bc 8f 7c fc bd 26 d6 8c bd a6 51 b3 bc
       -0.025074609 -0.12328445 -0.06876783 -0.021889519
000140 03 a4 84 3e c2 88 49 be 78 a3 92 bc 69 bf 50 bd
       0.2590638 -0.19681075 -0.017900214 -0.050963793
000150 5e f9 c2 be d3 9c 18 be 2b eb 98 3e be 57 87 be
       -0.38080877 -0.14903574 0.2986692 -0.2643413
000160 5c c5 26 be 5c f9 f5 3c 40 bc 95 3d 21 be e5 3c
       -0.16286224 0.03002613 0.073112965 0.028044762
000170 eb 61 5e 3d 2d 0d 14 be b4 b9 a8 bd e3 27 df 3d
       0.0542926 -0.14458151 -0.08238545 0.1089628
000180 2c f9 b7 3d 4b 3c 9b 3d d0 90 1a be 65 1d ac bd
       0.08983073 0.07579859 -0.15094304 -0.08404044
000190 8e 76 e2 3d 3f b2 62 3e 69 ea 92 3c a0 54 df 3d
       0.11057769 0.22138308 0.017934041 0.10904813
0001a0 a7 7a 7b 3e ae c8 1d 3d fc 79 49 3e fc 62 7c be
       0.24558507 0.03852146 0.1967544 -0.24647135
0001b0 89 9c 5c bd 8c 9c 44 3d 69 25 f1 bb 0f 8b 05 3d
       -0.05386022 0.048000857 -0.007359196 0.03260332
0001c0 bd 32 b2 3e e0 ec 48 3f 7c d7 1f bf c6 c9 cb be
       0.34804335 0.7848644 -0.6243818 -0.39802378
0001d0 6a d3 35 be 63 8c e9 3d 9b 5f 83 3e 76 52 ab 3d
       -0.1775643 0.1140373 0.2565888 0.083653376
0001e0 c6 77 84 3d 18 c3 f4 3e 3a c6 43 3e 5d 44 99 3e
       0.064681575 0.47805095 0.19118586 0.2993497
0001f0 b7 02 15 3e 9a 31 e1 3d 70 28 82 be d8 21 57 3e
       0.14551817 0.10995789 -0.25421476 0.21009004
000200 74 a4 58 3e 31 ed c7 3d 30 59 48 3d f4 14 83 bc
       0.21156484 0.097620375 0.04891318 -0.016001202
000210 f2 02 0a be f2 d2 e3 bc 78 db 07 3e 51 3a f9 3d
       -0.13477686 -0.027810548 0.13267314 0.12169326
000220 c7 8e 10 3d c9 1e 57 3c 69 21 aa bc ee be bb bc
       0.035292413 0.013129898 -0.020767884 -0.02291819
000230 4a 32 a3 3e 89 2c 3d 3f 48 13 a8 bd bd 94 55 bf
       0.31874305 0.7389608 -0.082068026 -0.8343008
000240 b0 f6 e5 3d 7e ca 89 3c be 93 14 be af 07 00 3b
       0.112286925 0.016820189 -0.14509484 0.001953583
000250 a9 0e 33 3c 80 fc 94 3e e5 fe d4 3d b6 98 18 bd
       0.010928788 0.29098892 0.1040018 -0.03725501
000260 76 5b b9 3d f4 20 05 bd 83 0b 8d 3d 88 e7 b3 bd
       0.09050648 -0.03250213 0.06886961 -0.087843955
000270 c3 ef 68 3e ce 8a 4b 3e 64 9c 55 be 31 0f e2 bd
       0.22747712 0.19877169 -0.2086044 -0.11038054
000280 94 7a 53 3e 7e 68 ae 3e a1 e3 ae 3d c7 1e 84 bc
       0.20652229 0.34064096 0.085395105 -0.016127957
000290 81 8d c4 3c d6 d3 9b bd 15 3f 8b 3d 4b da 2e bd
       0.023993256 -0.07608764 0.06799141 -0.04268865
0002a0 c3 5f 96 3e 34 0b ba be 62 33 b0 bd 1d bd 9e be
       0.29369935 -0.36336672 -0.086035505 -0.31003657
0002b0 6d a6 7b 3e c5 d8 21 3e 28 19 91 be a1 05 98 3e
       0.24575205 0.15805347 -0.28339505 0.29691795
0002c0 9d 7b 03 bf f6 47 f4 3e f7 5a 2e 3e 99 f0 d2 3e
       -0.51360494 0.47711152 0.17026888 0.41199186
0002d0 ad 24 59 3e f9 f8 0a 3d 44 5a 76 be 08 cb 66 be
       0.21205397 0.033928845 -0.24057871 -0.22538388
0002e0 d2 c6 ad bd d5 02 10 be 54 fd 40 be 40 d0 8d bd
       -0.084851876 -0.1406358 -0.18846637 -0.06924486
0002f0 be 67 7a be a9 a2 14 be 4a b3 5e 3b 98 80 59 bd
       -0.24453637 -0.14515175 0.0033981376 -0.053101152
000300 95 b8 ac 3e 42 63 e9 3b 39 11 ac 3b 0c b8 c3 3e
       0.33734575 0.007122428 0.0052510765 0.38226354
000310 3f b8 da bd e9 9e ad bf 43 7c 16 3f a5 1d af 3f
       -0.106796734 -1.356412 0.5878336 1.3680922
000320 79 3d 4d 3e f1 b0 1f 3e bb 5d 7e 3d 8f 2f 0c 3a
       0.20042981 0.15594842 0.062101107 0.0005347663
000330 10 98 8a bd cc e8 d8 bd 08 24 e4 bd 12 b6 3b 3e
       -0.06767285 -0.105912775 -0.11139685 0.18331173
000340 20 10 0c 3e 2e 3b 92 be 93 5b 58 3d 13 b7 d4 bc
       0.13678026 -0.28560776 0.052821707 -0.025966203
000350 6d d3 52 be bf 1b e6 be ec a8 e3 3d 85 f3 08 3e
       -0.20588465 -0.44943044 0.11116204 0.13374145
000360 4f f5 b3 bd 9d 02 87 3d cd e7 12 3e 7d f9 4a 3e
       -0.08787023 0.06592295 0.14346237 0.19821735
000370 03 fb 5e 3d b2 91 2f 3d ed 43 a2 bd 7e 97 95 bd
       0.054438602 0.042863555 -0.07923112 -0.073042855
000380 6e db d8 3d c2 75 ec be 78 06 1e bc 0d 0d 80 be
       0.10588728 -0.46183592 -0.009645097 -0.25009957
000390 25 02 95 be f0 ce 5d 3d c4 89 64 be 83 56 cc bd
       -0.291032 0.05415243 -0.22318178 -0.09977438
0003a0 ff d9 35 3c 5a 7a 2a 3f 00 81 d9 bc a0 c6 bb be
       0.011099338 0.66592944 -0.02655077 -0.36674976
0003b0 69 34 73 bd 4b 17 88 be a0 e6 24 bf 95 60 0a bf
       -0.059376154 -0.2658027 -0.64414406 -0.5405362
0003c0 4c cd 4e be 32 c3 72 3e 69 c2 28 be ae 8a d9 be
       -0.20195502 0.23707274 -0.16480412 -0.42488617
0003d0 68 af 95 be c2 2e 8d bc 31 e8 e2 3d 84 ac 64 3e
       -0.29235387 -0.01723421 0.11079443 0.22331434
0003e0 7b 7f 84 3d ee 61 7b be 95 9d df bd 8d 95 07 3e
       0.064696275 -0.24549076 -0.10918728 0.13240643
0003f0 7c 1b 2d 3f a4 ef b7 3f c1 71 90 be 46 57 36 3e
       0.6762006 1.4370008 -0.28211787 0.1780673

l1.bias f4 [256]
000000 f7 2c 0e 3e 96 57 3f 3e fa 97 56 3e 99 0a 96 be
       0.1388434 0.18685755 0.20956412 -0.2930496
000010 46 de 7b be 69 18 a3 be 13 f2 d5 3c aa d9 84 3e
       -0.2459651 -0.3185456 0.026116407 0.25947315
000020 a9 15 8d 3d 4b ca 55 3d f3 be 42 bd e8 22 26 bd
       0.06888897 0.052194875 -0.047545385 -0.040560633
000030 a4 cc 4b 3e 3f 68 60 3e f1 a4 b7 3e 92 65 02 be
       0.19902283 0.21914767 0.35868028 -0.12734058
000040 54 69 59 3e 25 79 88 3e 13 ee 4d 3e 59 7e 68 3c
       0.21231586 0.26654926 0.2011035 0.01419028
000050 41 1b 0b 3e af 03 a0 3d 42 2d 7f be e1 cd e8 3d
       0.13584615 0.078132026 -0.24919608 0.11367393
000060 ed ed 41 be 71 16 1d be 58 c3 ee 3c 24 7c 75 bc
       -0.18938418 -0.15340592 0.029145882 -0.014983211
000070 aa 99 e6 3c 3f 90 57 bc ee e4 ae bd 41 4d a0 bc
       0.028149445 -0.01315695 -0.085397586 -0.019568088
000080 5f 90 3a 3c 03 2e 80 bd 51 36 08 bc 64 1e b7 bd
       0.01138696 -0.06258776 -0.008313731 -0.089413434
000090 40 98 84 3e 3b 1a 64 3e cf 92 e0 3e ee 01 d6 bc
       0.25897408 0.22275631 0.43862006 -0.026123967
0000a0 c4 ad 22 bd 46 84 2d 3d 99 27 ee 3d c2 1a 4a bd
       -0.039716497 0.042362474 0.116286464 -0.049341924
0000b0 7b 70 28 3d 90 35 e5 bd 20 8d 12 3f 0e 7f b8 3d
       0.041122895 -0.11191857 0.5724659 0.09008609
0000c0 67 3a bc bc f5 13 05 3e 67 8e b1 3e 61 d7 88 3e
       -0.022977067 0.12995894 0.34678957 0.2672682
0000d0 0b 1a 01 3e b3 66 99 bd 03 e0 7b 3d f1 95 66 3e
       0.12607591 -0.074902914 0.06149293 0.22518136
0000e0 66 cf 8d 3e 3e 11 30 3e b3 d8 9b be 42 7b 56 3e
       0.27697295 0.17194077 -0.30438766 0.20945457
0000f0 75 5e a2 be 72 46 66 be f1 34 4a 3e fd 26 61 be
       -0.3171269 -0.2248781 0.19746758 -0.21987529
000100 55 b7 75 be 76 00 a6 be b2 9f 62 be 3b 0b 1c be
       -0.23995717 -0.32422227 -0.22131231 -0.15238659
000110 1b 14 92 3e fb 46 2e 3e 43 6b 8e be b0 94 5f bd
       0.28530964 0.17019264 -0.2781621 -0.05458516
000120 28 16 95 3e ed 02 7d bd c9 85 22 bb 72 71 5e 3d
       0.29118466 -0.06177037 -0.002479898 0.05430741
000130 27 94 8f 3e 25 99 85 3e 48 31 d1 3e 60 b4 b9 3d
       0.2804272 0.26093403 0.4085791 0.09067607
000140 7c 42 90 be 31 c1 ff bc 37 86 73 be c7 70 d6 3c
       -0.28175724 -0.03122005 -0.23781668 0.026176823
000150 1a e1 a7 be 65 d1 27 3d da 2d 25 be 50 93 ae be
       -0.32788926 0.04097118 -0.16130772 -0.34096766
000160 8a 55 2c be ba d3 9b 3d 9e f7 42 3e 28 d7 b8 bc
       -0.16829506 0.07608743 0.19039771 -0.022563532
000170 6c 49 fe 3c 6b 30 85 be 46 7c 2f be f5 bf 19 bd
       0.03104087 -0.26013502 -0.1713725 -0.03753658
000180 5a 3c 30 3d 67 0a 4b 3d 40 36 26 3d bb ef 4e be
       0.043026306 0.049570467 0.04057908 -0.20208637
000190 77 4a a7 3d 55 06 0d be 4a 6e 3b be 02 57 07 3e
       0.081685 -0.13771947 -0.1830379 0.13216785
0001a0 30 84 25 bb f2 6e 9a 3e 11 c7 39 3e 77 3a 1e be
       -0.0025255792 0.3016277 0.18142344 -0.1545199
0001b0 95 1c 93 3d 17 7e b3 bd 96 f6 e6 bd 77 66 11 3d
       0.07183186 -0.08764284 -0.11277501 0.03549811
0001c0 b2 98 d4 bd 58 0e 96 3e e4 21 16 be 9a 83 fa bb
       -0.10380687 0.29307818 -0.14661366 -0.0076450827
0001d0 64 4c 60 bd c9 72 0f 3e c6 da 90 bc 8e 03 2b 3e
       -0.05476035 0.14008631 -0.017682444 0.16700575
0001e0 1b 80 57 be ff 2f 0c be 13 e7 63 3e 3b 04 dd bd
       -0.21044962 -0.13690184 0.22256117 -0.107918225
0001f0 c3 c6 48 3e d5 43 6c be 83 4d d2 be 97 e6 c9 3c
       0.19607072 -0.23072751 -0.41074762 0.024646087
000200 dd 66 3a 3e be 40 dc bc 12 47 03 bb 53 82 9a 3d
       0.18203302 -0.02688634 -0.0020031375 0.075443886
000210 b1 69 d9 bd 9c 8a 19 3e 87 5d 6e 3d 7c 26 1e bc
       -0.10615862 0.14994282 0.058194663 -0.00965273
000220 48 9f 25 be 91 09 cb be 98 51 12 3e 9f 6d 0a be
       -0.16174042 -0.39655736 0.14288938 -0.1351838
000230 12 60 56 be 25 30 5f bd c6 f1 4f bd c1 1b d1 bd
       -0.20935085 -0.054489274 -0.050767682 -0.10210372
000240 c6 13 2b 3d f8 9d 5a 3d c9 59 e6 bd 5f 6b d8 3d
       0.041766904 0.053373307 -0.11247594 0.105673544
000250 1f 78 24 3e 54 4f 17 3e e5 89 01 bd 1e ee 44 be
       0.16061448 0.14776355 -0.031625647 -0.1923146
000260 e1 39 77 3e 7d 9e 98 3d 08 4a c8 bc 34 12 31 bc
       0.24143173 0.07452104 -0.024449363 -0.010807563
000270 0d cb b6 bc c6 77 6c 3e 07 37 6e be 25 32 29 3e
       -0.022313619 0.23092565 -0.23263179 0.16523035
000280 3c 3d 23 bd 0c bc 13 3d 94 d7 95 be 8e ab ac 3d
       -0.03985332 0.036068007 -0.29266036 0.08431159
000290 5d 7a 21 3e b9 cc c6 bc 40 8d 5e 3e 94 b4 82 3e
       0.15769334 -0.024267541 0.2173357 0.25528395
0002a0 d3 d8 73 3e 70 14 9d bd 81 3a d1 3d 94 eb f0 bd
       0.2381318 -0.07669914 0.10216237 -0.11763683
0002b0 12 4e 2a 3e 65 cd 12 be 66 34 49 bd 03 5e f6 bc
       0.16631344 -0.14336164 -0.049122237 -0.030074125
0002c0 8c 6c 14 be e9 27 21 bd a1 7a 19 be d3 7c f0 bd
       -0.14494532 -0.039344702 -0.14988185 -0.11742558
0002d0 95 bc 9d be e5 a3 62 be 1f 0f 55 3e c6 ea bc be
       -0.3080794 -0.22132833 0.2080655 -0.36897868
0002e0 ad a1 27 be b8 df 0f bd eb ee f9 3d 73 1c 29 be
       -0.16370268 -0.035125464 0.12203773 -0.16514759
0002f0 2b 35 8b be ac c3 53 bd 2f c6 82 be fe f1 85 3e
       -0.27189 -0.05170028 -0.25541827 0.26161188
000300 d5 5d bd bc 2d 9f 39 be c4 cf 2c be 19 a8 70 3d
       -0.023116032 -0.18127127 -0.16876131 0.05875406
000310 c7 9c 94 bd 31 4b 87 3d ae 14 3c 3e ae 4c 86 be
       -0.072564654 0.066061385 0.18367264 -0.26230377
000320 98 79 c1 be 77 ca f9 bd 39 e1 e8 3d b9 11 5b 3d
       -0.3778808 -0.1219682 0.11371083 0.0534837
000330 bd 4a aa bd b9 3b 25 bd fb 38 55 bd 46 a2 87 be
       -0.083150364 -0.04034016 -0.052056294 -0.26490992
000340 1f e6 cb 3e 74 a3 b7 3b 4d 5c 0b be 39 25 4d 3e
       0.39824006 0.005604202 -0.13609429 0.2003373
000350 ee 1d 77 be 27 56 ab 3e 5a 66 6e 3c e7 d8 cc bd
       -0.24132511 0.33464167 0.01455077 -0.10002308
000360 11 f5 c6 be e1 28 41 3e cc 7b 64 be aa c3 98 3e
       -0.38858846 0.1886325 -0.2231285 0.2983678
000370 c3 16 34 3e 75 01 ad 3d ea 6b 85 bd b2 51 c2 3e
       0.17586808 0.084475435 -0.065147236 0.37952954
000380 b3 0d 19 be 18 43 7e be 35 04 3f bd 0d 62 5a 3b
       -0.14946632 -0.24830282 -0.04663487 0.0033322603
000390 2d 3a 88 3d 39 4c dc 3d 8e fd 70 3e 25 f4 5d 3d
       0.06651721 0.10756726 0.23534223 0.054187912
0003a0 6d 81 f1 3d 2e bb 49 3e 6e 94 bc 3e ea 9d dc 3d
       0.11792264 0.1970031 0.36831993 0.10772307
0003b0 1f 0a 8a 3e bc f0 a5 3e 9c 87 bb 3c 58 e3 81 3d
       0.26960847 0.32410228 0.022891812 0.063421905
0003c0 df e3 dd 3b 49 65 d8 3d 70 f5 ee bd 0d 6f 0e bc
       0.006771549 0.105661936 -0.11667907 -0.008693469
0003d0 cd 9e 97 3e d5 09 78 3e f8 1f 35 3d dc b2 8d 3d
       0.29613343 0.242225 0.04421994 0.0691888
0003e0 47 5e 40 39 f2 5a 71 3d 7f d9 6f be 89 f9 2f bd
       0.00018345668 0.058924623 -0.23422812 -0.042962585
0003f0 b6 6c 2a 3e 40 2d ca bd 9a 6a f4 bd d9 68 c1 3d
       0.16643032 -0.09871912 -0.11934395 0.09443826

l2.weight f4 [256, 256]
000000 32 d9 86 bd 48 b0 cf bd 10 7a 17 be a5 57 a6 3c
       -0.065843955 -0.10141045 -0.14792657 0.020305464
000010 c4 5f 0c 3e 74 fa 45 3e 44 8c a6 bd 18 f2 a6 be
       0.13708407 0.19333822 -0.08132222 -0.32606578
000020 85 0d 40 be 26 3a d4 3d 40 37 76 be d2 88 a7 3c
       -0.18755157 0.103626534 -0.24044514 0.020450983
000030 ee bb 89 3d 54 62 8b 3d 70 11 7e bd a4 20 9b 3c
       0.06725298 0.06805864 -0.06202835 0.018936463
000040 aa ea 0d 3e 66 e8 87 3d 86 30 08 3e 16 9d 8c be
       0.13859048 0.06636123 0.1329976 -0.27463597
000050 4e c2 42 3e 9e d1 b5 bd 62 44 79 be 8b 1c af be
       0.19019434 -0.08877872 -0.24342492 -0.34201464
000060 93 1c ab bd bd f2 69 bd 79 ee 85 3d dd fa 6e be
       -0.083550595 -0.05711626 0.06539626 -0.23337884
000070 c8 f1 00 3e ba f7 ef be fd da f8 3e 28 13 5c 3c
       0.12592232 -0.46868688 0.48604575 0.013432302
000080 a4 5c b1 be c9 81 49 be 58 f6 2b 3d 36 94 2a bb
       -0.34640992 -0.19678415 0.04198298 -0.0026028282
000090 5e 31 b8 be d0 bf ca bd 62 04 0f 3e f6 7f 2b bd
       -0.35975164 -0.098998666 0.13966516 -0.04187008
0000a0 8a 3d 28 be 86 68 8c be dc 13 c5 bd 8f f5 a9 bd
       -0.16429725 -0.27423495 -0.096229285 -0.0829879
0000b0 30 5f fb bd 49 27 1e bf 82 5d 56 3e 13 9b 0e 3c
       -0.12274015 -0.61778694 0.20934108 0.008703965
0000c0 a6 b5 ba be 70 a8 a3 bd dc e7 2b be e0 e3 e9 bb
       -0.36466712 -0.07991111 -0.16787666 -0.0071377605
0000d0 91 37 bb 3d 00 91 d6 be 43 fe d5 bd c5 c5 bc bc
       0.09141458 -0.419075 -0.10448887 -0.023043523
0000e0 ab 45 ae 3d c6 25 39 bd d2 10 0a bd 18 4b 3e bd
       0.08509382 -0.04520204 -0.033707447 -0.046458334
0000f0 1d 91 a1 bb 3b f3 26 3d 7e 15 1a bd 0f 0b dd bc
       -0.004930629 0.040759306 -0.037618153 -0.026982812
000100 05 8e e5 3d 83 d7 58 3d 0d 8c d2 3b 1b a3 ba 3e
       0.11208729 0.052939903 0.0064253868 0.36452565
000110 57 8d a0 bd 90 70 04 3d 5c 37 2d 3b 95 03 82 bc
       -0.078394584 0.03233391 0.0026430702 -0.015870849
000120 16 44 45 be b1 0d 20 bd 12 5e 25 3d 9a bb 2a bd
       -0.19264254 -0.039075557 0.040372916 -0.041682817
000130 d1 f5 15 3e e7 bd dc bc fc 79 5c bc 12 21 97 3b
       0.14644553 -0.026946021 -0.013456818 0.0046120966
000140 4d d5 58 3d f0 1f 53 3d 8e 63 08 3e 9d 07 4d be
       0.052937794 0.05154413 0.13319227 -0.20022435
000150 a3 7d fa bb bc c2 aa 3d 4e 36 4c 3d 6e b5 39 3d
       -0.0076443716 0.08337924 0.049856476 0.04533904
000160 f5 b3 20 be ad 25 d4 bd a7 99 57 be 78 71 48 3c
       -0.15693648 -0.103587486 -0.21054707 0.012234084
000170 47 5e 6e be 5b 9a 32 3d 90 a1 a5 3d 66 35 6b bc
       -0.23278151 0.043604236 0.08087456 -0.014355993
000180 d1 f6 7f be c6 d6 33 3d 9c 67 1a 3d 9c 70 85 3d
       -0.24996497 0.043905996 0.037696466 0.06515619
000190 d3 4d 45 3e 4a 17 3d 3e 70 cb b5 3d a0 48 93 bd
       0.19267969 0.18465915 0.08876693 -0.071915865
0001a0 75 7b 08 bf 82 3e 3b bd 0a a1 81 be 4b 48 95 3e
       -0.5331338 -0.04571391 -0.25318176 0.29156718
0001b0 d8 4a 6e be b6 c9 51 be b6 d5 44 3e fd 73 68 bd
       -0.23270738 -0.20487103 0.19222149 -0.05675124
0001c0 20 b5 17 3d cf cd 0b bc dd 62 ec bd 6f 5e 0b 3d
       0.03703797 -0.008532955 -0.11542294 0.034025606
0001d0 5f 98 16 3e e6 a3 5e 3e 65 66 81 bd a5 b4 0d bf
       0.14706562 0.2174221 -0.06318358 -0.55353767
0001e0 03 31 00 bd 24 e5 27 be d8 49 6f bd b6 2e 83 bd
       -0.03129674 -0.16396004 -0.058420032 -0.06405394
0001f0 f1 06 b9 3d d3 cf 56 3e 99 e0 c1 3d c6 51 d0 3d
       0.09034527 0.20977716 0.09466667 0.10171847
000200 6a 86 e5 bd 08 57 c2 bb 46 d6 92 bf ac ea 22 bd
       -0.11207278 -0.005930785 -1.1471641 -0.03977458
000210 99 62 80 3e 61 3e b8 3d 13 93 25 bd de 15 2b 3e
       0.25075224 0.08996273 -0.040423464 0.1670756
000220 71 36 1c 3e 70 f3 70 3e 04 31 4c bb a1 36 ad bd
       0.15255143 0.23530364 -0.0031157145 -0.08457685
000230 70 c4 78 3e 6a 03 46 bb 45 d0 a5 3d 4d 96 93 3d
       0.24293685 -0.0030214437 0.08096365 0.07206402
000240 94 d6 9c bd b0 3f b5 3d 45 55 2e 3c 12 75 29 bc
       -0.07658115 0.08850038 0.010640447 -0.010342853
000250 96 32 64 bf 0c ab 0a 3d e6 77 90 be 83 56 f8 3d
       -0.8913969 0.03385453 -0.28216475 0.12125876
000260 a4 d6 ee be d4 c6 68 be 5e fc 1b 3e 89 cb 05 be
       -0.46648133 -0.22732097 0.15232989 -0.13065924
000270 66 3e 88 3d 1a 29 aa bd bd 68 e5 3d ce 89 90 bd
       0.066525266 -0.08308621 0.11201618 -0.07057534
000280 d2 40 69 39 de b2 9b bc 51 00 57 3c 5c 9f 19 bf
       0.00022244759 -0.019006189 0.013122634 -0.6000879
000290 36 93 f6 bc 8c 8b 27 3e b8 ed 84 3e af 19 7f bd
       -0.030099493 0.16361827 0.25962615 -0.062280353
0002a0 b2 00 17 3d 11 8c fb bd cd 7b 24 be ec 0e 91 3d
       0.036865897 -0.12282575 -0.16062851 0.07082924
0002b0 4d be f7 3d ed 9f 6c bd f2 9a d6 bc c9 79 22 3d
       0.12096844 -0.057769705 -0.02619693 0.039666925
0002c0 93 18 84 bd 13 66 c2 bc 2e 64 f5 bd d3 98 c9 3c
       -0.0645 -0.023730313 -0.119819984 0.024609005
0002d0 3e 95 41 3e c3 02 96 bd 16 25 e7 bd 43 ea bc 3d
       0.18904588 -0.073247455 -0.112863705 0.092243694
0002e0 e7 96 19 be 81 b2 2c bd 96 96 55 3e c2 ea cf bd
       -0.14998971 -0.042162422 0.20858225 -0.101521984
0002f0 41 35 4c 3e b1 d8 5a 3d db cd a1 bd 24 38 b3 bb
       0.1994219 0.05342931 -0.07900592 -0.005469339
000300 e3 ea 13 3d ea fd f2 3d b1 bc b5 3e 7a 23 18 3e
       0.036112677 0.118648365 0.35495523 0.14857283
000310 c4 e2 bd bf 58 22 21 3b ea 07 d7 bc ee 9b 16 be
       -1.4834828 0.002458712 -0.02624889 -0.1470792
000320 1a 64 2c 3e d1 bd 26 3d 8a 03 da bc 76 59 9b bd
       0.1683506 0.040708367 -0.026613016 -0.07585423
000330 22 6b ad 3d c1 b1 dd 3c 50 92 d9 be 83 c8 7c 3d
       0.084676996 0.027062299 -0.4249444 0.06171466
000340 f3 a2 e5 be f0 73 0e 3e ea e7 23 3e a6 42 29 bc
       -0.44850883 0.13911414 0.16006437 -0.010330832
000350 eb 2e 68 3c 3f c8 00 3d 7e 36 3b be 0c 42 02 3e
       0.014171342 0.03144097 -0.18282506 0.12720507
000360 0c d2 03 3e d5 37 ff bc 29 b5 dd 3d 3f fc fe bd
       0.12873095 -0.031154552 0.10825569 -0.12450456
000370 be b6 14 be 29 23 35 be f5 2d ec 3e 65 ea ad bd
       -0.14522836 -0.17689194 0.46128812 -0.08491973
000380 20 fb 0d 3e 9c b3 87 3d 42 4c 90 bd 02 48 cc 3d
       0.13865328 0.06626055 -0.07045795 0.09974672
000390 96 77 82 bd 21 2a 26 be 8b f0 97 be 3b e6 a4 be
       -0.063704655 -0.16227008 -0.29675707 -0.32206902
0003a0 79 e4 27 bd ed f9 b3 3e 4c e1 8b 3d da d8 c6 3d
       -0.040989373 0.35151616 0.06830081 0.0970933
0003b0 4e cb 78 3e f5 85 2e 3d 20 a0 ca 3d 95 ec d3 bd
       0.24296305 0.04260822 0.09893823 -0.10347859
0003c0 83 ca 70 3e 4b 62 58 be 11 39 34 be b5 9c 7a 3d
       0.23514752 -0.21131246 -0.17599894 0.061184604
0003d0 a1 bb d7 be 39 de 84 3c 30 9a 4e bd ce 59 92 be
       -0.42135337 0.016219245 -0.050440013 -0.2858414
0003e0 16 e5 45 be 83 b6 6b 3e 13 ec 98 bd fc fe ef 3d
       -0.1932567 0.23018841 -0.074669026 0.11718556
0003f0 2b 9c 1e bd d5 9a 1a 3b 6e d8 e4 3c 10 60 b6 bd
       -0.038723152 0.0023590822 0.027935233 -0.08905041

l2.bias f4 [256]
000000 5d a7 1b 3d ae 64 eb 3d 6f c9 b3 3c 3d c3 d8 bd
       0.038001407 0.114938125 0.021946637 -0.10584114
000010 75 c2 ab bb b6 b3 b4 3d b3 c9 08 3e 44 55 ac bd
       -0.005241687 0.0882334 0.13358192 -0.084147006
000020 e1 84 41 3d d1 fe 33 3c c7 16 71 bc 17 0f 2b 3b
       0.047245864 0.010986046 -0.014714903 0.0026101524
000030 f8 7e 98 3d bf 88 69 3d 79 f5 bf bb 52 90 dc bc
       0.07446092 0.057015177 -0.00585812 -0.026924286
000040 98 67 73 bc c4 f6 22 bc 20 24 0f 3d f9 a0 94 3d
       -0.014856242 -0.009946529 0.03494656 0.072572656
000050 aa d4 b8 bd fd 1c 06 3e dd 9f 0c bc 17 f3 ee bc
       -0.090249375 0.13096996 -0.008583036 -0.029168649
000060 77 26 a7 3b 1b 0d 06 3e f0 c8 78 bc b5 7e 19 3d
       0.005101021 0.13090937 -0.015184626 0.037474353
000070 3e f7 9c 3d 75 66 58 bd 6f 28 ba bd 48 62 45 3d
       0.07664345 -0.052832086 -0.09089743 0.04818943
000080 b2 8b 49 3d 86 a7 89 bd 73 52 45 be bc 76 d6 bd
       0.04920549 -0.06721406 -0.19269733 -0.104718655
000090 04 cd 7d 3d f4 ce ea 3d 65 28 86 3d 6d 31 19 bd
       0.061963096 0.114652544 0.065506734 -0.03740065
0000a0 76 52 09 3d df 17 50 be 2c cc 65 3d 22 a5 dd bd
       0.033525907 -0.20321606 0.056102917 -0.10822512
0000b0 50 f4 b4 bd f1 c0 8c bc ef cd a1 3d f2 36 ab 3d
       -0.088356614 -0.017181845 0.07900607 0.08360089
0000c0 aa 69 73 3c 09 6d 92 3c 6a ca 0e 3c c3 84 78 3c
       0.014856735 0.017874258 0.008715251 0.015168372
0000d0 d0 79 00 3d 97 33 99 3d 02 c2 34 be 4a db c3 bd
       0.03136617 0.07480543 -0.17652133 -0.095633104
0000e0 28 5d 60 3d 7c 2b 52 3d fa 22 1e bd d1 21 fd 3d
       0.05477634 0.051311 -0.038607575 0.123599656
0000f0 fd 6c 60 3d 5e fc 43 3c f6 c7 05 be 8c f2 18 3d
       0.05479144 0.0119620245 -0.1306456 0.037340686
000100 7f 9c fa 3d b8 fe 2d bd 02 23 b4 bd 82 ee 79 3d
       0.122368805 -0.042479247 -0.0879574 0.061018474
000110 8c d5 a0 bd fa 7f b7 3d c8 6f 63 3d 04 6d 91 3d
       -0.07853231 0.089599565 0.055526525 0.07100871
000120 f9 bc ce 3b be af 89 3c c7 64 03 3e cc f2 bf bc
       0.0063091484 0.016807433 0.12831412 -0.023431204
000130 30 f7 0b 3c eb 68 ba 3d 2a 0b c7 bc a9 a2 95 3d
       0.008542821 0.09102043 -0.024297316 0.073064156
000140 34 60 0b bd a1 b8 95 bd db 47 27 bd 8c 9f fc 3c
       -0.034027293 -0.07310606 -0.04084001 0.030837797
000150 9b fc 73 bc 7f c2 8a bd 77 9a 77 3d 6d 97 58 bd
       -0.014891769 -0.067753784 0.060450044 -0.052878786
000160 9d ea 33 be 4b b9 a8 bd 04 a4 18 bd 53 21 c9 bc
       -0.17569967 -0.08238467 -0.037265792 -0.024552023
000170 23 ed 1a 3d 82 8e 61 bc 7e f4 37 3d e9 48 55 3c
       0.037823807 -0.013766887 0.0449109 0.013017871
000180 e3 e4 cb 3c 78 8c 5b ba 30 e2 3f 3d 11 f6 c9 3d
       0.024889415 -0.00083751185 0.04684657 0.098613866
000190 a2 c9 91 bd 62 57 89 bd d3 f7 2d 3e 01 5b b3 3b
       -0.071185365 -0.0670612 0.16989069 0.005473495
0001a0 dd ed a6 bc 53 e7 30 bd 3c a2 d8 3d ae ca 99 bd
       -0.020377094 -0.043189358 0.10577819 -0.07509361
0001b0 31 c5 09 bd 7b d4 85 bd 93 10 b4 bc 6d 5c ef 3d
       -0.033635322 -0.06534668 -0.02198056 0.11687551
0001c0 ca b1 45 bd c8 05 15 bd 24 aa 1d 3d 73 35 1a 3d
       -0.048265256 -0.036382467 0.038492337 0.03764863
0001d0 0c 82 2d 3d 42 95 b1 3d 93 4c 4d 3e 3c 6e 35 be
       0.04236035 0.08671047 0.20048742 -0.17717832
0001e0 68 aa 3b 3d 33 88 e3 3c f8 bd b4 ba f8 7b 14 be
       0.04581681 0.027774906 -0.0013789525 -0.14500415
0001f0 c8 14 03 be 50 78 4f bd a9 bf 63 3d 24 67 95 bb
       -0.12800896 -0.05065185 0.055602703 -0.0045594145
000200 73 c5 fc 3d 4c 8c b5 3d 8a f1 57 3c 34 08 00 3e
       0.12342348 0.0886465 0.013180146 0.12503129
000210 ce ce 47 bd 71 d4 9a bd 1e 6e 5b bc 43 f9 0d bd
       -0.04878121 -0.07560051 -0.013392953 -0.034661543
000220 57 73 1d bd 81 fc 92 bb a5 58 75 3d 15 c0 86 bd
       -0.038440075 -0.004485667 0.05989899 -0.065796055
000230 24 c0 49 3d bd 48 ff 3d 14 cc 80 bc d3 5a c2 3c
       0.049255505 0.124650456 -0.015722312 0.023724949
000240 fe 72 14 3c a1 8a 24 bc f0 ff 56 bd f8 53 d1 bd
       0.009060619 -0.010042817 -0.052490175 -0.10221094
000250 9b 60 1c 3d 54 b4 22 bc 4b 64 a0 3c de 7e c6 3c
       0.038178068 -0.009930689 0.019579073 0.024230417
000260 13 ee a6 bd c1 4f b0 bd 89 7f ff 3d cb 88 d0 bc
       -0.08150878 -0.08608962 0.12475497 -0.025455853
000270 5b 1c be ba ee dd 49 3d 92 00 95 3d 59 57 af 3c
       -0.00145043 0.049283914 0.072754994 0.021403955
000280 71 b9 19 bd 01 bb ee bc 7b 73 62 3d 90 33 b0 bb
       -0.037530366 -0.029141905 0.055285912 -0.0053772405
000290 38 78 3f bd 63 7e 1a bd 1c 0c 3d bc 01 1f 88 bd
       -0.04674551 -0.037718188 -0.011538532 -0.066465385
0002a0 71 b5 7c bd 57 44 2a bd ad 7b a4 3d e0 17 19 bd
       -0.061696474 -0.04156908 0.08031402 -0.037376285
0002b0 57 10 00 be b0 33 b7 3b fb 91 fa bc 6e f6 5a be
       -0.12506233 0.0055908784 -0.030587187 -0.21383068
0002c0 e1 c4 a2 bd de e1 2f be 3e f5 09 bd 1a 0d 3d bc
       -0.07947708 -0.17176005 -0.033681147 -0.011538768
0002d0 a3 7b eb bd 95 24 23 bd 9f 78 b3 bd 7a 5a 75 bc
       -0.11498191 -0.03982981 -0.08763241 -0.014975185
0002e0 22 17 c0 3c 51 6a 2b 3e c8 95 7f 3c d0 7a 48 3d
       0.02344853 0.16739775 0.0155996755 0.048945248
0002f0 a0 97 b1 3c 76 df 7c 3c 5e 56 0b 3d ae e7 9a bc
       0.021678746 0.015434137 0.034017913 -0.018909302
000300 25 2f 93 3c 26 42 d5 3d 8c 8c 78 bd 68 c0 7c bd
       0.017966816 0.104130074 -0.06068091 -0.06170693
000310 df 1b 03 be 5d c9 b2 bd ab 8f df bc c3 f2 69 3c
       -0.128036 -0.08729813 -0.027290186 0.01427907
000320 41 f6 b8 bd 44 17 ba 3c 7c ab d4 bc 04 b9 e4 3c
       -0.09031344 0.022716172 -0.025960676 0.027920254
000330 24 97 0b 3e 12 85 c9 3c 37 f0 d4 3d 67 f7 41 bd
       0.13631874 0.024599586 0.1039738 -0.047355082
000340 f7 77 11 bd 17 fb db 3c a0 f5 0d ba 2a b1 1b bd
       -0.035514798 0.026853127 -0.0005415324 -0.038010754
000350 cb c2 a5 bc 8c 06 46 3d 50 6d 21 3d 1c 65 15 bd
       -0.020234486 0.048346087 0.03941089 -0.03647338
000360 91 5e da bd 03 cc 9b 3c 16 8f d9 bc d4 5a 02 be
       -0.10662568 0.019018179 -0.026557487 -0.1272996
000370 96 fd a6 3c 7f 24 9f bc c3 32 fa bd c4 89 90 bd
       0.020384591 -0.019426582 -0.12216713 -0.07057527
000380 04 52 76 3d e9 20 b5 bc d4 6a 00 be c6 0e c0 3a
       0.06013681 -0.02211042 -0.12540752 0.001465284
000390 2e af c5 3d 79 2d c4 bc 31 e9 b5 3d af 16 1a bd
       0.096525535 -0.023947464 0.08882368 -0.03761929
0003a0 5f 9b 9c 3d 4c c4 d6 bb f3 88 c7 bb 80 7d f8 3b
       0.07646822 -0.006554162 -0.0060893237 0.00758332
0003b0 9d 82 40 bd 97 05 12 3d db b4 c9 bc 07 2c 04 bd
       -0.046999563 0.035649862 -0.024622371 -0.03226855
0003c0 0c cd 86 bc 6e f8 41 bd c8 9b 16 bd 04 58 85 3d
       -0.016455196 -0.04735606 -0.03676966 0.06510928
0003d0 28 36 14 3d 59 0a 41 3b 82 1b 43 3d e8 8b 01 be
       0.03618446 0.002945563 0.047633655 -0.12651026
0003e0 04 d9 78 bc b7 d3 e6 3d a1 2d 87 3d b0 42 0d bd
       -0.015188459 0.1127085 0.066005 -0.034487426
0003f0 e1 94 86 3c f6 65 96 3c 41 07 15 3a 56 ad 33 bd
       0.016428413 0.018359166 0.000568498 -0.043866478

l3.weight f4 [1, 256]
000000 da 5b a8 bf 59 bd 41 bf ce ab dd 3e ea b1 56 3f
       -1.3153031 -0.75679547 0.4329514 0.83865225
000010 ad 45 60 3f 53 b9 87 3f 8f 0d 7a 3f cc b0 15 c0
       0.87606317 1.0603431 0.9767694 -2.3389158
000020 07 28 44 bf 7f a9 a0 bf 73 c6 83 3f aa 26 2b bf
       -0.76623577 -1.2551726 1.0294937 -0.6685587
000030 a8 93 87 bf 84 91 27 c0 cd 14 6b bf 3b 52 8b 3f
       -1.0591936 -2.6182566 -0.91828614 1.088447
000040 87 65 e4 bf 7f ba 34 3f f0 85 a9 bf 3a 28 7d 3f
       -1.7843484 0.7059707 -1.3244 0.98889506
000050 10 4d 4d 3f 00 35 99 bf dc bb 06 c0 97 42 20 3c
       0.80195713 -1.1969299 -2.105216 0.009781501
000060 04 ab 7a bf 6b 1d 9b be 21 de 2b 3e aa 2f be bf
       -0.979172 -0.30295882 0.16783954 -1.4858296
000070 13 1e 5e bf 9a f8 36 bf 40 55 49 3f a7 e4 1c c0
       -0.8676464 -0.71473086 0.78645706 -2.4514558
000080 a4 83 99 3e 98 6a 2e 3f 8e 60 b3 3f 0e 7c 10 3f
       0.29983246 0.681314 1.4013841 0.5643929
000090 32 e4 6b 3f d7 96 c0 be 10 41 23 bf fe 73 61 3f
       0.92145073 -0.37615082 -0.6377115 0.88067615
0000a0 e1 d3 c4 3e 43 48 65 3f e6 34 d9 bf b9 87 86 bf
       0.384429 0.8956339 -1.6969268 -1.0510169
0000b0 be 47 cf 3e ff af 03 bf b1 78 02 bf 8b 17 a4 bf
       0.40484422 -0.51440424 -0.5096541 -1.2819685
0000c0 68 b0 28 bf 58 2a a7 3f 7c c7 c1 bf 96 a6 9c be
       -0.65894175 1.3059797 -1.5139003 -0.30595845
0000d0 81 e1 5d bf ba 79 8a 3f fb 5f 8f 3f f1 f5 11 3f
       -0.86672217 1.0818398 1.1201166 0.570159
0000e0 48 56 4c 3f 19 48 87 bf 1a 6a 46 3f 5d b6 47 c0
       0.79819155 -1.0568877 0.7750565 -3.1205056
0000f0 48 2a 63 3f 43 d9 08 3f c7 79 f7 3e 23 2b 91 3f
       0.8873639 0.53456515 0.48335096 1.1341289
000100 0e 40 2d bf b9 e0 bd bf 68 a6 9c bf e5 cc 5c bf
       -0.67675865 -1.4834205 -1.2238283 -0.86250144
000110 a5 f8 3d 3f f5 9b 8f bf 83 9d 6c bf 61 30 71 3f
       0.74207526 -1.1219469 -0.92427844 0.94214445
000120 32 dd e3 3e ce fc a3 bf 95 b3 ab 3f a5 86 1c 3f
       0.44504696 -1.2811525 1.3414179 0.6114295
000130 4b c1 d2 3e f2 f7 77 bf 64 dd 6d 3f 5c e2 77 3e
       0.41163096 -0.9686271 0.9291594 0.24207443
000140 d3 41 a9 3f 73 76 32 3f d8 bd 41 bf 52 60 2e bf
       1.3223213 0.6971199 -0.75680304 -0.68115723
000150 4f 64 6c bf e4 48 1f 3f 8a 29 9f bf 25 db 6f 3f
       -0.9234056 0.622206 -1.2434552 0.93693763
000160 ae b3 85 3f 5c 6e 71 c0 ce cf 99 bc a8 05 2b 3f
       1.0445459 -3.7723608 -0.018775847 0.66805506
000170 59 32 52 bf ae 74 1f 3f ae 24 3d bf fb 8a 94 bf
       -0.82108074 0.62287414 -0.73884094 -1.1604913
000180 72 ad 2d bf 3a 3d 83 bf 10 d5 88 bf 9c 31 23 bf
       -0.6784278 -1.025306 -1.0690022 -0.6374757
000190 00 ce 96 3e 25 b9 de 3e c8 96 76 3f 40 a8 22 bf
       0.2945404 0.4350063 0.96323824 -0.6353798
0001a0 7c 25 d1 bf b2 90 4f 3f 61 af e5 be e0 7c ff 3e
       -1.6339564 0.8108016 -0.44860366 0.4989996
0001b0 8a 13 22 3f 02 fb 81 bf 84 3b ab bf 44 2d 83 bf
       0.63311064 -1.0154727 -1.3377538 -1.0248189
0001c0 0f 1e 3f bf de 87 82 3f 81 9b 07 bf 49 3b 52 3f
       -0.7465524 1.0197713 -0.52971655 0.8212171
0001d0 16 53 7c 3f 08 b9 84 3f f9 c9 11 c0 72 f2 fb 3f
       0.9856428 1.0368967 -2.2779524 1.9683363
0001e0 50 90 16 3f 15 d4 20 bf 5d d8 20 bf 71 f1 b3 3f
       0.58813953 -0.6282361 -0.62830144 1.4058057
0001f0 55 93 85 3f 15 1e 97 bf 9c bc 61 bf 77 46 6b bf
       1.0435587 -1.1806055 -0.8817842 -0.91904396
000200 81 df 4d bf 88 66 7f 3e 1d 5b dc 3e 53 4c 06 bf
       -0.80419165 0.24941456 0.43038264 -0.5246021
000210 90 ab 36 3f 1b 80 85 3e 87 a6 0f bf 33 29 a7 bc
       0.71355534 0.260743 -0.56113476 -0.020405388
000220 63 02 a2 3e 84 d5 38 3f 11 93 42 3f fd da 77 3f
       0.31642446 0.722008 0.76005656 0.96818525
000230 76 db 9d 3f 21 7f 81 bf 72 09 49 c0 2f d8 8d bf
       1.2332599 -1.0116922 -3.1412015 -1.1081599
000240 42 e5 a9 bf 19 81 73 3f c3 8b 7d bf 92 7b 57 c0
       -1.3273089 0.9511886 -0.99041384 -3.3669171
000250 93 02 d3 bf 15 7f 0c 3f ea 37 bf 3e 5a 38 d4 3e
       -1.648516 0.5488141 0.37347347 0.41449243
000260 dc 8d fd 3e 59 f1 a7 3f ad c8 02 bf a6 7f c3 3e
       0.49522293 1.3120528 -0.51087457 0.38183326
000270 f3 ca 4b 3e d5 fd c3 3f f7 56 88 be 75 05 c9 3f
       0.19901638 1.5311838 -0.2662885 1.570479
000280 5a bf ea bf 72 3d 91 bf 5e d6 60 bf 60 86 ee bf
       -1.8339646 -1.1346877 -0.878271 -1.8634758
000290 ee e7 04 3f 5d 47 7f bf 9a 72 ba 3e 88 63 9e 3f
       0.51916397 -0.99718267 0.3641556 1.2374125
0002a0 2b ce 25 3f 83 28 86 bf 91 fd 25 3f 71 36 1b 3f
       0.6476771 -1.0481113 0.64840037 0.60629946
0002b0 9b c2 24 3f be 9a c4 be a2 b2 d8 3e 01 ad c7 3f
       0.64359444 -0.3839931 0.42323786 1.5599672
0002c0 b6 93 55 3f be e8 45 3f b5 56 62 bf 96 2c 08 3f
       0.83428514 0.7730826 -0.88413554 0.5319303
0002d0 27 c6 22 3f 4b 62 32 c0 cb b2 f0 3e 8b a6 98 bf
       0.63583606 -2.7872493 0.47011408 -1.1925825
0002e0 e4 e4 d5 3e 7e 7e 28 bf 73 83 0e bf c0 29 66 bf
       0.41776192 -0.6581801 -0.55669326 -0.89907455
0002f0 d1 fe 0a bf b5 1c 02 3e 04 39 e9 3e 02 37 9d 3e
       -0.5429507 0.12706263 0.45551312 0.3070603
000300 2a 35 10 bf f8 93 91 be aa 4e b8 3e e1 dd 5b bf
       -0.5633112 -0.28433204 0.35997516 -0.85885435
000310 79 61 da bf b4 ac a3 3f 3a b0 7d bf 82 c5 86 b9
       -1.7060996 1.278708 -0.99097025 -0.00025705626
000320 07 1c f6 3e be c6 76 bf 59 8c 47 3f 0e 64 10 c0
       0.48068258 -0.96397007 0.7794853 -2.2561069
000330 b0 45 18 c0 fa 56 fd be be 68 5f bf 23 76 0e c0
       -2.3792534 -0.4948042 -0.872692 -2.2259605
000340 8d c8 73 bf 98 50 d2 3e 22 08 0b 3f 60 f5 0f 3f
       -0.9522789 0.41077113 0.54309285 0.5623379
000350 e3 a8 6c 3b c8 af af be 99 cd 9f bf ef 76 63 bf
       0.0036111407 -0.34313798 -1.2484618 -0.88853353
000360 5d 6d 36 c0 30 99 9e 3e 15 45 48 bd ed ee 68 3f
       -2.850425 0.30976248 -0.048894007 0.9098957
000370 e0 96 8f 3f de 53 9a 3f df 6b 69 3f 9b 4d 19 3f
       1.1217918 1.2056844 0.91180223 0.5988404
000380 2b 52 78 3e 9d 79 ce 3e 26 be cf 3f 74 6a 36 bf
       0.24250095 0.4032716 1.6229904 -0.71256185
000390 49 42 32 bf 67 b4 bb 3e 7d e5 d8 be 59 64 9b bf
       -0.69632393 0.36661074 -0.42362586 -1.2139999
0003a0 ee 0b 57 bf c7 30 13 3f b3 89 e1 be 24 7c 4d bf
       -0.8400258 0.57496303 -0.4405037 -0.8026755
0003b0 c4 7f 42 3f 8f 0e 8b bf 29 ab 5b bf 84 8e d8 3e
       0.75976205 -1.0863818 -0.85808045 0.4229623
0003c0 8e d8 69 bf 72 72 02 c0 34 55 06 3f e9 ad c0 3e
       -0.9134606 -2.0382352 0.5247376 0.37632683
0003d0 0e 5a 4f 3f b4 10 11 bf 3a cc e8 3d f1 ea 24 3f
       0.8099679 -0.5666611 0.11367078 0.6442099
0003e0 97 82 0b c0 eb b5 80 3f b9 f2 87 3f 4e 03 0f 40
       -2.1798456 1.0055517 1.0620948 2.2345767
0003f0 f3 e9 df bf 2b 67 e6 be de ca 90 bf 34 e5 a9 bf
       -1.7493271 -0.45000586 -1.131191 -1.3273072

l4.weight f4 [256, 28]
000000 72 44 80 3d c6 bf 26 3f 83 74 c9 be f2 2f 53 be
       0.06263055 0.65136373 -0.39346704 -0.20623758
000010 12 e5 d6 3d 58 22 c8 bb 80 cb 17 bd 37 7e 81 3b
       0.104929104 -0.0061076097 -0.037059307 0.0039518136
000020 46 68 c6 3c ea 30 5c bc 51 19 de 3c a9 26 38 be
       0.024219643 -0.013439396 0.027111681 -0.17983498
000030 a3 a2 95 3c 1d 8a c2 bb 97 3a 03 3d 71 b6 a4 3d
       0.018266028 -0.0059368745 0.032038298 0.080426104
000040 8a 45 44 3e 37 15 06 be ba 7d 36 3e 77 1f a2 3e
       0.19167152 -0.1309403 0.17821398 0.3166463
000050 2b 66 a8 3e 04 29 aa be 64 be b5 3d 7a c1 29 be
       0.32890448 -0.33234417 0.08874205 -0.16577712
000060 df fb 94 bc c5 1c af bc 78 56 5b 3d ee 36 1d bd
       -0.018186508 -0.021376023 0.05354926 -0.038382463
000070 18 b4 61 3d ac 34 9e bf ea 7f cc be f1 73 65 3f
       0.05510339 -1.2359824 -0.3994134 0.8963004
000080 a8 d4 ba 3b a7 22 59 3d 56 a2 8a 3e 6c cb 38 3d
       0.00570162 0.053011563 0.27076977 0.045115873
000090 59 67 e3 3b e5 a8 5b 3d a0 64 07 be c7 cb 8b 3d
       0.0069398102 0.053627867 -0.13221979 0.06825977
0000a0 8e 84 0a 3a 69 9c ad bb ca e9 64 3e f1 c4 52 3d
       0.00052840344 -0.0052981866 0.22354808 0.05145735
0000b0 e9 30 0f be d7 2f 0f 3e ad ae be 3d 3b 61 0a be
       -0.13983501 0.13983093 0.093106605 -0.13513653
0000c0 14 19 a9 3d 55 53 f2 bb 67 e1 88 bc 2e 22 25 3d
       0.082567364 -0.007395188 -0.016709043 0.0403158
0000d0 e2 ea 28 3c d1 a6 bd 3d a0 55 9a 3b eb 4b 03 3d
       0.010309907 0.09260333 0.0047099143 0.032054823
0000e0 6a 58 0d 3e 79 f8 2a be d6 58 81 3c c2 68 f9 be
       0.13803259 -0.16696347 0.01578943 -0.48712736
0000f0 30 1a d7 3d 8f 52 1d 3d d6 9e cf 3d 1b 18 12 3d
       0.10503042 0.038408812 0.101377174 0.03566752
000100 70 5f 31 bd 1d 10 96 bd 1d 40 af bc f7 7e 56 3d
       -0.043303907 -0.07327292 -0.021392876 0.052367177
000110 e0 9e 8b 3b dd 99 a9 bc ab a5 87 3e ea ed e8 3d
       0.0042608827 -0.02070325 0.26493582 0.113735035
000120 44 7c 9e be 94 94 1f bf db 3c 3d be ea 13 75 3d
       -0.30954182 -0.6233609 -0.18480246 0.059833445
000130 86 84 52 3d b7 df 84 3e b9 35 a9 3e 04 32 70 bd
       0.051395915 0.2595193 0.330488 -0.05864145
000140 15 5d c9 bb 88 7a d2 bb f9 e7 66 bc 15 81 82 3b
       -0.0061451294 -0.0064232983 -0.0140933925 0.003982673
000150 cb 3d 07 3f 21 d6 e7 3e 83 4b bc 3c 94 49 67 3e
       0.52828664 0.45280555 0.022985226 0.22586662
000160 79 fc 0c bd 1b 11 08 3d 3d 61 24 be 66 5a 93 bb
       -0.034420464 0.033219438 -0.16052718 -0.0044968603
000170 76 13 7a 3d c5 34 d5 3e ba 1d c7 3a b5 99 2c 3e
       0.061053716 0.41641822 0.0015191354 0.1685551
000180 17 bd 8c bc 57 a4 2e bd cd a2 6a bc 0e ed ec bd
       -0.017180009 -0.042637195 -0.014321041 -0.11568652
000190 24 fb 17 3e 82 23 ac 3e 3e 7b e0 3e 85 bd bc 3e
       0.14841896 0.3362084 0.43844026 0.36863342
0001a0 ac bb fd be 7b d7 4f be ec f3 39 be 7e 53 11 3e
       -0.49557245 -0.20297043 -0.18159455 0.14192006
0001b0 cd f0 d5 3c 74 fa 69 bc 55 48 02 3d 82 d8 bf bc
       0.0261158 -0.014280904 0.031807262 -0.023418669
0001c0 be 8d f3 3e 56 a9 56 3f 42 bc 9b 3e 88 b9 a0 3e
       0.47569078 0.83852136 0.30417067 0.3139155
0001d0 d5 15 31 3e 70 23 a1 3d 01 dd 60 3d 45 87 2c 3d
       0.17293485 0.07868087 0.054898266 0.04212119
0001e0 57 7d 7e 3d d9 01 61 3d 25 1f b3 3d 02 eb f0 3d
       0.062131252 0.054933403 0.08746175 0.11763574
0001f0 ab 0d fc bc d0 d5 77 3d 16 0d 3f 3e c3 86 a4 3d
       -0.030768236 0.060506642 0.18657336 0.08033516
000200 6b ba 78 3e 61 44 5a bd ec ef 65 be 69 e6 29 3d
       0.24289863 -0.053287867 -0.22454804 0.041479502
000210 50 f5 93 3e 80 88 60 3e 7b aa d0 be bb 4c 13 3d
       0.28898096 0.2192707 -0.40755066 0.035961848
000220 36 40 5f 3d be ea 8f 3c f0 2b 88 bd b0 75 80 3c
       0.054504596 0.017567988 -0.066490054 0.015681118
000230 e2 01 77 3e ce a1 1c bf 46 f3 66 3e de c4 a8 bd
       0.24121812 -0.61184394 0.22553739 -0.082406744
000240 57 f4 3d be 16 4d 0e bd 99 07 01 be 83 f8 af 3d
       -0.1855024 -0.034741484 -0.12600555 0.08592322
000250 f4 db f6 bb 55 86 d8 bd ab 8a 04 3d ba 6a 57 be
       -0.0075335447 -0.10572497 0.032358807 -0.21036807
000260 28 c0 38 be 30 fb 15 bc f3 16 db bd 14 16 a4 3d
       -0.18042052 -0.009154126 -0.106977366 0.080120236
000270 ea 8f 1d 3e ab f1 7e 3c ef e9 d7 3d 8e 19 2b 3d
       0.1538693 0.015560548 0.10542666 0.041772418
000280 37 cc 4a 3e 50 07 1b 3e 6f b1 8a 3e c3 50 86 bd
       0.19804464 0.15139508 0.27088496 -0.06558373
000290 2f 5a bf bc 6a 6a 9e bd 13 f2 cf bc 4f b4 78 3d
       -0.023358433 -0.077351406 -0.025383985 0.06071883
0002a0 02 3c af 3d ab 1c ea 3d 04 8d 23 3f d7 ae 20 3f
       0.085563675 0.11431249 0.6388705 0.62766784
0002b0 6c bb 8a 3d 37 2a e0 3d 8d 26 02 3e 02 e1 37 3d
       0.06774029 0.10945552 0.12710018 0.04489232
0002c0 2e 41 82 bd ea bd f7 3d f4 a2 28 bd 6d 2a 38 be
       -0.06360088 0.1209677 -0.04117103 -0.17984934
0002d0 0f 49 20 bd 79 f3 a9 bd d8 61 6b 3d 2b 38 19 be
       -0.039132174 -0.08298392 0.057466358 -0.14962833
0002e0 fd 15 45 3e 23 9d 18 3e 2b 6c 4e 3e 20 d4 12 be
       0.19246669 0.14903693 0.2015845 -0.14338732
0002f0 99 65 98 3d 7f e7 5a 3e 38 0c 57 3d d5 89 b6 3c
       0.07441253 0.21377371 0.052501887 0.02228252
000300 53 9a 18 3d ec 39 55 bd 58 ad 35 3d 2a 11 17 bd
       0.03725655 -0.05205719 0.044354767 -0.036881603
000310 b0 80 c1 3e fb b8 17 3f 36 63 17 3e 48 1e f9 bc
       0.37793493 0.5926663 0.1478394 -0.030409947
000320 0a b8 9c be 46 50 60 3e a4 1a 25 bb 8d db f1 3c
       -0.3060916 0.21905622 -0.002519288 0.029523635
000330 ed e4 96 3c ca 47 43 3e 70 46 94 be 93 a9 7c 3e
       0.018419707 0.19070354 -0.2895999 0.24674062
000340 e1 bf 2e be 2d df d3 ba 21 38 89 be b2 51 df bd
       -0.17065383 -0.0016164534 -0.26800635 -0.10904254
000350 28 f9 b4 bc 2a 2c 2b 3f 12 a9 95 3c e3 e6 58 be
       -0.022091463 0.66864264 0.018269096 -0.21181826
000360 27 2f 99 3e 63 45 4a bd d5 8e 97 be 97 8c 00 be
       0.29918787 -0.04938258 -0.2960116 -0.12553631
000370 7d 98 fa bc 18 f8 3c be d0 ea e4 bd 18 42 91 3e
       -0.03059029 -0.18454015 -0.111775994 0.28370738
000380 49 08 d2 3d d7 7f a2 bc 7c 6f 2d 3f cf 3e b9 3e
       0.102554865 -0.01983635 0.67748237 0.36180732
000390 6a 13 bd bc 30 32 47 3d 9b b4 c5 bd 5c 1a 0d 38
       -0.023080546 0.048631847 -0.096535884 3.364157e-05
0003a0 10 64 bd bd b6 a6 90 bd 03 81 60 3d b0 bb 59 3e
       -0.09247601 -0.070630476 0.054810535 0.21263003
0003b0 05 6f 75 bd 44 2d 77 bd 48 2c 41 3e 39 c2 8c 3e
       -0.05992033 -0.060345903 0.18864548 0.2749193
0003c0 b2 bc a3 3e 6b e7 c3 bd e6 d9 4f be 2d 0c df 3b
       0.319799 -0.09565624 -0.20297965 0.0068068714
0003d0 7f f9 1d be 31 b4 27 be c3 69 31 3b 4a 75 db bd
       -0.15427206 -0.16377331 0.0027071096 -0.107157305
0003e0 24 c0 30 3d c2 12 02 3c d2 71 dd 3c b7 c1 bd 3b
       0.04315199 0.0079390425 0.027031813 0.005790915
0003f0 b1 1b 4a bd e4 ca 77 3f 87 f9 11 bf a6 6e e4 be
       -0.049342815 0.9679396 -0.57021374 -0.44615668

l4.bias f4 [256]
000000 0a a7 9e 3d ea 3c 29 3e 84 b6 44 be 19 5d db bd
       0.07746704 0.16527143 -0.19210249 -0.10711116
000010 6e a8 61 be 24 fc 87 be 16 99 60 be ff e9 a1 be
       -0.22036907 -0.26559556 -0.21933398 -0.31623837
000020 82 72 4c 3d 4c 9f 1e 3e ed 95 3c bd 27 35 f1 3b
       0.04991389 0.15490454 -0.046041418 0.0073610726
000030 95 02 a3 be a1 fd 68 bd 06 ab 47 3e 25 31 93 be
       -0.31837907 -0.056882504 0.19498834 -0.28748432
000040 23 cf 60 be 56 d9 f4 bd d4 65 64 be 9a 67 ef 3a
       -0.21954016 -0.11955516 -0.2230447 0.0018265129
000050 bf 1c 95 be 40 88 db 3e f1 f0 36 be 22 58 ab bd
       -0.29123494 0.42877388 -0.1786535 -0.083664194
000060 ec b7 eb be 35 26 d0 bd da 6e e5 3c 55 ec 10 3b
       -0.4603876 -0.101635374 0.02800696 0.002211352
000070 8a f2 5d be 69 cf a3 3e 3f 13 9f be ea f6 cb 3d
       -0.21674553 0.3199418 -0.3106937 0.099592045
000080 8e 07 41 3e 23 da 27 be 1d 14 b2 bd 8e 6f d6 3d
       0.18850538 -0.16391806 -0.086952426 0.10470496
000090 ba 47 17 be cd cd 88 3d e3 b3 b4 bd 0a 3d 30 3e
       -0.14773455 0.066798784 -0.08823373 0.17210785
0000a0 5a 4d 00 3e bf 1d 63 3e 45 72 68 3e e0 99 e2 3c
       0.12529507 0.22179316 0.2269984 0.027661264
0000b0 5a c9 28 3e 71 36 f8 bd 13 f0 5b 3e cb 8f 4e 3e
       0.1648306 -0.12119759 0.214783 0.2017204
0000c0 54 77 d9 be 94 d4 57 be 70 ec 88 bd 65 7f b2 3e
       -0.42473853 -0.21077186 -0.06685722 0.3486282
0000d0 0d 27 9d bd 0a 2a b1 3d 15 47 4d 3e 97 c9 bd 3b
       -0.07673464 0.086505964 0.20046647 0.0057918536
0000e0 f9 8d 11 be f7 f8 88 be db b3 8f be 05 1e 17 bc
       -0.14214315 -0.26752445 -0.28066906 -0.009223466
0000f0 89 b2 ab 3d 0c 07 85 3e d1 a3 b9 be 4c 3d 03 3e
       0.08383662 0.2598194 -0.36257794 0.12816352
000100 68 a7 70 bd cb 42 9d bd ad 24 6e 3e bc 7d 90 be
       -0.0587534 -0.076787554 0.23256178 -0.28220928
000110 18 a8 28 3e 4f 32 6c 3d a3 37 0b 3e c8 3e 2c 3e
       0.16470373 0.057665166 0.13595442 0.16820824
000120 0b 42 3b 3c 12 9f 03 be 4e fc da 3e 16 82 e9 ba
       0.01142932 -0.1285365 0.42770618 -0.0017815258
000130 2e ea 22 3e cc 36 02 3e 8a 3e 06 be a6 8a 17 3e
       0.15909645 0.12716216 -0.13109794 0.14798984
000140 4a 35 87 be 6b 29 86 be 5e 69 3c 3c 18 ce f3 3d
       -0.26407844 -0.26203474 0.011499731 0.11904544
000150 ce 53 39 be 48 9b f7 bd 00 f0 63 be d2 52 d2 3e
       -0.18098375 -0.120901644 -0.22259521 0.41078812
000160 ed 5e 75 3d 23 4e 19 3e 46 fb 31 3c a2 36 35 be
       0.05990498 0.14971213 0.010863131 -0.17696622
000170 6b 24 51 3d 17 73 00 be 1b 89 4d be 6f cc 05 be
       0.05106012 -0.12543903 -0.20071833 -0.13066266
000180 85 e5 41 3c 86 ee 71 3d 36 7d b9 3c 96 ef 85 be
       0.011834507 0.059065364 0.022642713 -0.26159352
000190 b7 64 8f 3d 7b 24 33 be c8 df 61 bd ad 75 37 3e
       0.07001632 -0.17494385 -0.055145055 0.17915983
0001a0 a3 7d 22 bc 68 0b e9 3d 01 a2 13 be a2 a6 d7 bd
       -0.009917649 0.11379129 -0.14417268 -0.105298296
0001b0 c3 a8 e7 bd 1a c8 c4 bb c4 79 52 be 78 2f 41 3e
       -0.113114856 -0.0060052993 -0.20554262 0.18865764
0001c0 e8 b8 1a be 3b 92 9b bd 54 fe 6d 3d 2e 89 c7 3a
       -0.15109599 -0.075962506 0.058103874 0.0015223378
0001d0 fa 74 a6 be d8 b1 dd 3d 99 a6 40 be 61 63 72 be
       -0.3251112 0.10824937 -0.18813552 -0.23670723
0001e0 10 1d a8 3e 89 37 49 3e d2 8d 48 bd 19 c1 a1 3c
       0.32834673 0.19650091 -0.048963375 0.019745396
0001f0 c9 05 8b 3e 32 88 d7 3c ba 26 44 bd 80 b3 b4 be
       0.2715285 0.02631006 -0.047888495 -0.35293198
000200 7f ef c4 3e 00 5c 20 3e b2 ad 93 be 54 2e 11 3d
       0.3846397 0.15660095 -0.28843457 0.035444573
000210 16 31 a1 bd 45 40 2d be 01 72 c9 3d 99 15 1c be
       -0.078706905 -0.16919048 0.09836198 -0.15242614
000220 e7 12 bb be cb 41 e6 bd 66 08 87 be ec d9 b6 be
       -0.3653786 -0.11243018 -0.26373595 -0.35713136
000230 ee 9d be be 87 5e 90 bd 14 ee f3 3d a9 e9 e2 3d
       -0.37229866 -0.0704928 0.11910644 0.110797234
000240 e2 21 84 3e fc 9a 66 3e 9d 79 83 3e 48 6a 58 bd
       0.258071 0.2252006 0.2567872 -0.052835733
000250 76 99 fc bd 9d cb 0c be 5f 40 83 be c0 11 2d be
       -0.12333958 -0.13749547 -0.2563505 -0.16901302
000260 84 9c 93 3d a0 e1 4b 3e 3a a7 e0 bc 39 15 3d be
       0.07207587 0.19910288 -0.02742349 -0.18465127
000270 fc 49 2e be 49 4d 5e 3d 40 8e ff bd 0b 7d 33 3e
       -0.1702041 0.054272924 -0.12478304 0.17528169
000280 5c 17 82 bd 31 29 41 3d 37 cc 37 3e 83 8e 0b bd
       -0.06352112 0.047158424 0.17948996 -0.034071457
000290 b2 50 f7 bd c3 9a 4d 3d 48 12 34 be 3b af 91 39
       -0.12075938 0.05019642 -0.17585099 0.00027787112
0002a0 a9 94 34 bd 23 6e 9d 3d 12 94 4a be 9e 0b 93 bc
       -0.044087086 0.076870225 -0.19783047 -0.017949875
0002b0 77 49 26 3d 0c 09 9f bd 33 48 ba bd bd ed 67 3e
       0.040597405 -0.077653974 -0.09095802 0.22649284
0002c0 4a d0 07 3c b9 c2 29 3d d3 b9 c7 3d 34 7a 8d bd
       0.008289406 0.041445468 0.0975224 -0.06908074
0002d0 21 b2 da be e8 82 ad bd 49 20 e9 bd 04 05 f2 3e
       -0.42714027 -0.08472234 -0.11383111 0.47269452
0002e0 e0 2c 9e 3e b8 2f 62 bd c0 f3 df 3d 1f ba 26 be
       0.30893612 -0.05522129 0.109351635 -0.16281937
0002f0 6d f5 b2 bd 12 30 80 be bb cd ae 3e 7d 4b 8d bc
       -0.087382175 -0.25036675 0.34141335 -0.01724791
000300 17 81 a7 3e 88 a3 c7 bd 60 c5 88 3d d6 96 11 3d
       0.32715675 -0.09747988 0.06678271 0.03554424
000310 40 1f 16 3e db 07 c6 3d d0 3c 31 3d 4e 57 97 3d
       0.14660358 0.09669467 0.043270886 0.07389699
000320 6c 46 94 bd 3b 1e 0a be 56 5e 47 3d aa 6c 82 3e
       -0.072399944 -0.13488095 0.04867395 0.2547353
000330 d0 1f a0 be 85 eb 43 be 75 85 e9 3d 48 7f 98 3e
       -0.3127427 -0.19132812 0.11402408 0.29784608
000340 8c 8e 02 3e 2f f4 2a be d1 64 d3 bd f5 ee f1 3e
       0.1274969 -0.16694711 -0.103219636 0.47252622
000350 e4 52 47 bd 0f af 5e be 2d 2b ef 3d 7c b3 40 bb
       -0.048663035 -0.21746467 0.11678157 -0.0029403856
000360 51 39 7d be 47 a3 c0 bc e0 93 9b be 83 08 5c bd
       -0.24728896 -0.023515357 -0.30386257 -0.053719055
000370 e1 a4 ff bd 22 f7 7e 3e cc 44 3e ba c4 64 53 3d
       -0.1248262 0.24898961 -0.00072581763 0.05160977
000380 b4 c4 a9 be e9 e3 97 be 65 80 20 3e da 41 62 be
       -0.33157885 -0.2966607 0.15673979 -0.22095433
000390 a9 d6 cf 3a 18 30 5e 3d 6e 88 5f 3e bb 52 f3 bb
       0.001585682 0.054245085 0.21829388 -0.0074256337
0003a0 b3 7d 2a 3e 7b ea 3a be c3 d1 2a be 7a d2 0c 3a
       0.16649513 -0.1825351 -0.1668158 0.00053719396
0003b0 9f aa 94 be ed af 6d 3e 3f 0d c1 3d 04 21 88 bc
       -0.29036424 0.23211642 0.094263546 -0.016617306
0003c0 3b 06 b7 3d 76 b6 51 3e d3 21 97 3e 7f c5 d5 3d
       0.08936735 0.2047976 0.29517993 0.1043806
0003d0 ef 1b 0e 3f 16 de 79 bd d7 73 74 3e 7a 68 26 3c
       0.55511373 -0.061002813 0.23872314 0.010156745
0003e0 c5 ad 77 bd a4 c6 da 3d f9 37 54 3e d0 1d a5 be
       -0.060468454 0.10682419 0.20724477 -0.32249308
0003f0 d3 92 89 bd 7a 1b 95 be 5f 7f 83 be 6b 71 9e bd
       -0.067174576 -0.29122525 -0.25683114 -0.077364765
