HardcoreVersion_7500_V3/critic/ppo_q_critic4400.pth (torch, 592130 bytes, 10 tensors)

l1.weight f4 [256, 28]
0	0xbd812f57	-0.063078575
1	0x3d254eb2	0.040358253
2	0xbf34d132	-0.70631707
3	0xbf1d8902	-0.6153718
4	0x3d846789	0.0646506
5	0xbcdea39e	-0.027177628
6	0x3d933cd2	0.07189335
7	0xbbae6ceb	-0.0053230426
8	0xbbf0c072	-0.00734716
9	0xbe1aa070	-0.15100265
10	0x3d82dd3c	0.06389853
11	0xbd64c15e	-0.05584847
12	0x3cd143fc	0.025545113
13	0xbc03fb7d	-0.008055565
14	0xbd318563	-0.043340098
15	0x3dff1bec	0.124564976
16	0x3cb4e063	0.022079652
17	0x3f18666d	0.5953129
18	0x3ed6746a	0.41885692
19	0xbe0fbeb4	-0.14037591
20	0xbf144df5	-0.57931453
21	0x3e9a6d35	0.30161443
22	0x3e9a0445	0.30081382
23	0xbe58bf2b	-0.21166675
24	0xbd20f0a6	-0.039292
25	0x3d52fa71	0.05150837
26	0xbda82339	-0.08209843
27	0xbd865549	-0.065592356
28	0xbee0e4e9	-0.43924645
29	0xbfb31161	-1.3989679
30	0xbe0c6857	-0.13711677
31	0x3ea19d23	0.31565198
32	0xbec02206	-0.37525958
33	0x3caea032	0.021316621
34	0xbe177a48	-0.1479274
35	0x3d390541	0.045171026
36	0xbdaa83ee	-0.08325945
37	0x3e3b452d	0.18288107
38	0xbe1284fe	-0.14308545
39	0xbdeb3372	-0.11484422
40	0xbe08545b	-0.13313429
41	0xbd3df657	-0.046377506
42	0xbe0f17f9	-0.13973989
43	0xbe8b7df3	-0.2724453
44	0xbcabd884	-0.020977266
45	0xbe8945ed	-0.26811162
46	0xbd29463b	-0.041326743
47	0xbe8191f5	-0.2530667
48	0x3e320eab	0.17388408
49	0x3ec2fbb2	0.38082653
50	0x3e3676bf	0.17818736
51	0xbe7a1034	-0.24420244
52	0x3d3e4d79	0.046460602
53	0x3d4c8034	0.04992695
54	0x3dde0a56	0.10841815
55	0xbe0c3d9a	-0.13695374
56	0x3e6f0b97	0.23344265
57	0x3fc56f8e	1.5424669
58	0xbf39e382	-0.72612774
59	0xbe960ee1	-0.29308227
60	0x3f0de470	0.5542669
61	0x3ef249fb	0.47322068
62	0x3eeb4c50	0.4595666
63	0x3de30648	0.110851824
64	0xbde58ba2	-0.112082735
65	0x3e498dc3	0.19682984
66	0x3d2a21fb	0.041536313
67	0xbee19387	-0.44057867
68	0xbe119444	-0.14216715
69	0x3e499aa1	0.19687892
70	0xbe55c1b6	-0.20874676
71	0x3e042729	0.12905563
72	0xbc4a2a8e	-0.012339247
73	0xbcd2d566	-0.025736522
74	0x3db4be52	0.08825363
75	0xbcb2c699	-0.021823214
76	0xbda0b866	-0.07847671
77	0xbdcbb1a8	-0.099459946
78	0xbbc995eb	-0.006151905
79	0x3c40e455	0.011773189
80	0x3e1ea90d	0.15494175
81	0xbde4581c	-0.11149618
82	0xbd9bdd64	-0.07610586
83	0xbd4563a2	-0.04819072
84	0xbed5ac4a	-0.4173301
85	0x3cda7ca7	0.026670767
86	0x3ea175b2	0.31535107
87	0xbe3dec80	-0.18547249
88	0xbe1a4fc8	-0.15069497
89	0x3b455d45	0.0030115407
90	0x3cbedee1	0.023299636
91	0x3cbc5c57	0.02299325
92	0xbd02c370	-0.031924665
93	0xbe22c643	-0.15895943
94	0xbd3bb521	-0.045827035
95	0x3dc29fb2	0.09503116
96	0x3d4d4973	0.050118875
97	0x3d7d6160	0.061860442
98	0xbded705c	-0.115936965
99	0xbdc5df9d	-0.096617915
100	0x3df4e827	0.11958342
101	0x3e7cc8d1	0.2468598
102	0x3d05fc72	0.032711454
103	0x3dbcfc14	0.092277676
104	0x3e90b580	0.28263474
105	0x3d6ce5b2	0.057836242
106	0x3e7bbaaa	0.24582925
107	0xbe82c425	-0.2554027
108	0xbca2b5b4	-0.019862033
109	0x3cd830bb	0.026390424
110	0xbbb9462b	-0.0056541166
111	0x3d7c46f8	0.06159112
112	0x3ebc9148	0.3682959
113	0x3f51d9fd	0.8197325
114	0xbf277251	-0.6540881
115	0xbf17fdb1	-0.5937148
116	0xbe41de32	-0.18932417
117	0x3cc55c25	0.02409179
118	0x3ea2f6db	0.3182896
119	0x3d4e7c56	0.050411545
120	0xbccb4eea	-0.024817903
121	0x3ee899ce	0.45429844
122	0x3e089cfb	0.13341133
123	0x3e6cbbc3	0.231185
124	0x3a8c42e1	0.0010701084
125	0x3d710c27	0.05884948
126	0xbe900fcc	-0.28137052
127	0x3e317ac0	0.17331982
128	0x3e1b1d5a	0.15147915
129	0x3dbd1c7b	0.09233948
130	0x3d9c8781	0.07643033
131	0xbc0bd001	-0.008533479
132	0xbe16fde6	-0.14745292
133	0xbc011b30	-0.007880017
134	0x3e2b2950	0.16714978
135	0x3e0d6912	0.13809612
136	0x3d80a9e5	0.06282405
137	0xbd541149	-0.051774297
138	0x3c324ec8	0.010883041
139	0xbda376d5	-0.0798165
140	0x3eade775	0.3396565
141	0x3f5b78b1	0.85731035
142	0xbd9ee652	-0.07758774
143	0xbf50d33e	-0.8157233
144	0x3d9c9eeb	0.07647499
145	0x3cea7b8e	0.028623369
146	0xbdce869d	-0.10084269
147	0xbcbec113	-0.023285424
148	0xbd350d5b	-0.04420219
149	0x3e8332ac	0.25624597
150	0x3dc608fe	0.09669684
151	0x3b9a655a	0.004711789
152	0x3dabde43	0.083920024
153	0xbdc0309d	-0.09384272
154	0x3daac432	0.083382025
155	0xbdeefb60	-0.1166904
156	0x3e46885c	0.19387954
157	0x3e85a676	0.26103562
158	0xbe52c189	-0.2058164
159	0xbe0bb136	-0.1364182
160	0x3e5d9a03	0.21640782
161	0x3eab295f	0.3343
162	0x3dcc3706	0.099714324
163	0xbcfb1327	-0.030648781
164	0xbcd9e1c9	-0.02659692
165	0xbd8446ff	-0.06458854
166	0x3db8773e	0.09007119
167	0x3bd1baa1	0.0064004217
168	0x3e9236de	0.28557485
169	0xbea07b6e	-0.3134417
170	0xbd8fe166	-0.07025413
171	0xbec604ef	-0.3867564
172	0x3e293d42	0.16527274
173	0x3e5056c0	0.20345592
174	0xbdacdb13	-0.084402226
175	0x3d6e53c9	0.058185373
176	0xbed361eb	-0.41285643
177	0x3f0f0f38	0.55882597
178	0x3e670d5b	0.22563688
179	0x3ed7ee28	0.42173886
180	0x3d9e793e	0.07737969
181	0x3ddf73e7	0.109107785
182	0xbe8629cf	-0.26203772
183	0xbe88f3bb	-0.26748452
184	0xbdeae2dc	-0.11469051
185	0xbe283acf	-0.16428684
186	0xbe5223f4	-0.20521528
187	0xbdeae775	-0.11469928
188	0xbea14fbd	-0.31506148
189	0xbdfe3fa0	-0.12414479
190	0x3dde97b3	0.10868778
191	0xbc5211b1	-0.012821601
192	0x3e85cd42	0.26133162
193	0xbbd22531	-0.006413125
194	0x3d5428bf	0.05179667
195	0x3ee04ced	0.4380869
196	0xbde5d0f5	-0.11221496
197	0xbfac2609	-1.3449107
198	0x3f16cfbc	0.5891073
199	0x3fb3350c	1.4000564
200	0x3e3f8370	0.18702483
201	0x3d727d88	0.059201747
202	0x3c8714d0	0.016489416
203	0xbd7778cc	-0.060417935
204	0xbd6a735c	-0.05723892
205	0xbdcbb197	-0.09945982
206	0xbcde139f	-0.027108965
207	0x3e7692cd	0.24079438
208	0x3e0a9041	0.13531591
209	0xbe9013ec	-0.281402
210	0x3da00902	0.07814218
211	0x3d215236	0.039385043
212	0xbe4123f0	-0.18861365
213	0xbf0457a0	-0.51696205
214	0x3de46737	0.11152499
215	0x3e063fe9	0.13110317
216	0xbdccdeec	-0.100034565
217	0x3da65d02	0.081232086
218	0x3dec69e6	0.11543636
219	0x3e74749f	0.23872612
220	0x3ccf3884	0.025295503
221	0xbd6e33f0	-0.058155
222	0x3cd2c14f	0.025726942
223	0xbd647a77	-0.055780854
224	0x3e7d854c	0.2475788
225	0xbf12892a	-0.57240546
226	0xbd9e7c07	-0.077385
227	0xbeb5fbac	-0.35543573
228	0xbea83527	-0.32853052
229	0x3cd9cb73	0.02658627
230	0xbe2c68c1	-0.16836835
231	0xbd35b15c	-0.044358596
232	0x3d1c55c7	0.03816774
233	0x3f261e1a	0.6488968
234	0xbd1bc9cc	-0.038034245
235	0xbecb6f34	-0.3973328
236	0x3cb4c264	0.022065349
237	0xbe42432e	-0.1897094
238	0xbf405612	-0.7513133
239	0xbf2a889a	-0.6661469
240	0xbe876142	-0.2644139
241	0x3e621155	0.22076924
242	0xbe0040e2	-0.12524751
243	0xbefd5c14	-0.49484313
244	0xbea917c6	-0.3302595
245	0xba9f6d21	-0.001216326
246	0x3de828cf	0.113359086
247	0x3e864747	0.26226255
248	0x3d773395	0.060351927
249	0xbda965cd	-0.0827137
250	0xbd66ff7e	-0.056396
251	0x3dc87169	0.09787256
252	0x3f227cd4	0.6347172
253	0x3fd5edda	1.6713212
254	0xbe961580	-0.29313278
255	0x3e6f7d80	0.23387718

l1.bias f4 [256]
0	0x3df14717	0.117811374
1	0x3e76be1d	0.2409596
2	0x3e88376c	0.26604784
3	0xbea466e3	-0.32109746
4	0xbe7611e2	-0.24030259
5	0xbebaadbb	-0.3646067
6	0x3d9724a4	0.073800355
7	0x3e892a42	0.26790053
8	0x3d753596	0.059865557
9	0x3d721a13	0.059106898
10	0xbd859258	-0.065220535
11	0xbd5cb304	-0.05388166
12	0x3e8120a1	0.25220206
13	0x3e5d3590	0.21602464
14	0x3ec45005	0.383423
15	0xbe2332d9	-0.15937366
16	0x3e825709	0.25457028
17	0x3e844c3c	0.25839412
18	0x3e36ed55	0.17863972
19	0x3d650faa	0.05592314
20	0x3dd154d7	0.1022126
21	0x3e106442	0.14100745
22	0xbe691847	-0.22763167
23	0x3dcaa89a	0.098954394
24	0xbe69a3f1	-0.22816445
25	0xbe17f861	-0.14840843
26	0x3ce6ba56	0.028165024
27	0x3c2f22f0	0.010689482
28	0x3d262225	0.040559907
29	0xbc78b12c	-0.01517896
30	0xbd960429	-0.07325012
31	0xbcf3a361	-0.029740991
32	0x3c973dd3	0.018462097
33	0xbd536727	-0.051612046
34	0xbd04d0a0	-0.032425523
35	0xbdc489a5	-0.09596566
36	0x3e8cda48	0.27510285
37	0x3e41f964	0.18942791
38	0x3ef1c05f	0.4721708
39	0xbc8ef179	-0.017449128
40	0xbd07aa8a	-0.033121623
41	0x3d28e487	0.041233566
42	0x3e01dc72	0.1268175
43	0xbd13580a	-0.035972632
44	0x3d4a8586	0.049443744
45	0xbdc27d43	-0.09496548
46	0x3f189400	0.5960083
47	0x3d892b2f	0.0669769
48	0xbdced597	-0.10099333
49	0x3e12e057	0.14343391
50	0x3ec0a2c6	0.37624186
51	0x3e898bb5	0.268644
52	0x3e1ffca4	0.15623719
53	0xbd7759ec	-0.06038849
54	0x3da6628e	0.081242666
55	0x3e5eaf01	0.21746446
56	0x3e81320a	0.2523349
57	0x3e35a286	0.17737779
58	0xbeb4650c	-0.35233343
59	0x3e5e9edf	0.21740292
60	0xbeab348c	-0.33438528
61	0xbe7421ae	-0.23840973
62	0x3e69ed37	0.22844397
63	0xbe8c03bd	-0.27346602
64	0xbe81ee50	-0.2537713
65	0xbeadddfe	-0.3395843
66	0xbe74b1e5	-0.23895986
67	0xbddeeb65	-0.10884742
68	0x3eaa0cf0	0.33212996
69	0x3e706081	0.23474313
70	0xbe98b136	-0.298227
71	0xbdc91424	-0.09818295
72	0x3ea63d1f	0.32468507
73	0xbd8dedf5	-0.06930152
74	0xbcf98e01	-0.03046322
75	0x3d742804	0.059608474
76	0x3e9767c3	0.2957135
77	0x3e881b92	0.26583534
78	0x3ee069ff	0.4383087
79	0x3dcc5bc8	0.099784434
80	0xbe9bcbf8	-0.30429053
81	0xbd0db14b	-0.034592908
82	0xbe8144c4	-0.25247777
83	0x3d232e76	0.03983923
84	0xbeaebcdc	-0.34128463
85	0x3cf4f3c5	0.029901395
86	0xbe26111d	-0.16217466
87	0xbeb2cff4	-0.3492428
88	0xbe4bab84	-0.19889647
89	0x3d7aaed7	0.061201897
90	0x3e507bd5	0.20359738
91	0xbd0d3781	-0.03447676
92	0x3c4faa56	0.012674889
93	0xbe8a21fd	-0.26979056
94	0xbe3aca7a	-0.18241301
95	0xbd6922f2	-0.056918092
96	0x3cd30b9b	0.02576237
97	0x3d1c43fe	0.03815078
98	0x3d8c228c	0.06842527
99	0xbe71478a	-0.23562446
100	0x3dcf2e52	0.10116257
101	0xbe3cb1ac	-0.18427151
102	0xbe31cf47	-0.17364226
103	0x3e1528a4	0.14566284
104	0x3b1a0d20	0.0023506358
105	0x3ebd8e05	0.37022415
106	0x3e2aa5e1	0.1666484
107	0xbe461498	-0.19343793
108	0x3de44a09	0.111469336
109	0xbdcdc083	-0.10046484
110	0xbde3dc56	-0.1112601
111	0x3d7c72a1	0.061632756
112	0xbde678e3	-0.11253526
113	0x3ea800ea	0.32813197
114	0xbe0c3836	-0.13693318
115	0xbc590f2b	-0.013248245
116	0xbdac0b66	-0.084006116
117	0x3e0ae196	0.13562617
118	0xbce78d8d	-0.028265739
119	0x3e5ff685	0.21871383
120	0xbe5f520f	-0.21808647
121	0xbe12e34b	-0.14344518
122	0x3e3a0571	0.18166138
123	0xbe05bef3	-0.13061123
124	0x3e663128	0.22479689
125	0xbe8a9845	-0.27069297
126	0xbee7b614	-0.45256102
127	0x3c869fc1	0.016433598
128	0x3e7dd356	0.2478765
129	0xbcf630f0	-0.030052632
130	0x3cc884ba	0.024477351
131	0x3d2f4bde	0.042796962
132	0xbddb8971	-0.10719574
133	0x3e2823f2	0.16419962
134	0x3d5536ed	0.052054334
135	0xbd0dbce1	-0.034603957
136	0xbe42cd3a	-0.190236
137	0xbed7bbe4	-0.42135537
138	0x3e42459b	0.18971865
139	0xbe06f37a	-0.13178816
140	0xbe824ffc	-0.25451648
141	0xbd5839d8	-0.05278954
142	0xbd954028	-0.072876275
143	0xbddf2d42	-0.10897304
144	0xbc8c16fc	-0.017100804
145	0x3da439c6	0.08018832
146	0xbe072147	-0.13196288
147	0x3e0f2d85	0.13982208
148	0x3e3548d9	0.1770357
149	0x3e11ca12	0.1423724
150	0xbcd6d41c	-0.026224189
151	0xbe64fd3e	-0.22362229
152	0x3e9be5d6	0.30448788
153	0x3daaaf03	0.08334162
154	0xbd1dd1cd	-0.03853016
155	0xbc317249	-0.01083047
156	0xbac8e015	-0.0015325571
157	0x3ea04382	0.31301504
158	0xbe8599d9	-0.2609394
159	0x3e3fa09e	0.18713614
160	0xbd03ff4d	-0.032225896
161	0x3babb545	0.005240115
162	0xbeb0ae5f	-0.34508035
163	0x3dde0245	0.10840277
164	0x3e3ba5c4	0.18324953
165	0xbd00a36c	-0.03140585
166	0x3e6d8599	0.23195495
167	0x3e94a197	0.29029533
168	0x3e7f8d3a	0.24956217
169	0xbdc7020d	-0.09717188
170	0x3e1087ef	0.14114355
171	0xbe0a1c8a	-0.1348745
172	0x3e091d58	0.133901
173	0xbe07117c	-0.13190264
174	0xbd8e6dd1	-0.069545396
175	0xbd84551a	-0.06461544
176	0xbe3d6956	-0.18497214
177	0xbd46cb97	-0.048534002
178	0xbe3c87bb	-0.18411152
179	0xbe283bbc	-0.16429037
180	0xbeb0a100	-0.34497833
181	0xbe84fed2	-0.25975662
182	0x3e775cc2	0.24156478
183	0xbecf3a50	-0.40474176
184	0xbe2b6758	-0.16738641
185	0xbd2cf7ed	-0.042228628
186	0x3e0ab20f	0.13544486
187	0xbe364ae4	-0.17802006
188	0xbe981f8b	-0.29711565
189	0xbd3fca9b	-0.04682408
190	0xbe67a5c4	-0.22621828
191	0x3e87c17a	0.26514798
192	0x3bec800d	0.0072174133
193	0xbe3fec82	-0.18742564
194	0xbe165d26	-0.14683971
195	0x3d952ca4	0.07283905
196	0xbdb46901	-0.088090904
197	0x3d9ddb6d	0.07707868
198	0x3e61e456	0.2205976
199	0xbe8d6817	-0.27618477
200	0xbeee590a	-0.46552306
201	0xbe196efb	-0.14983742
202	0x3ddddf72	0.108336344
203	0x3d467a61	0.048456553
204	0xbd99ba3d	-0.07506225
205	0xbd06cb0b	-0.03290848
206	0xbc5e3d11	-0.013564364
207	0xbe910615	-0.28324953
208	0x3edc46d9	0.43022802
209	0x3c6f1dc4	0.014594499
210	0xbe09a33b	-0.13441174
211	0x3e47cefc	0.19512552
212	0xbe80118b	-0.25013384
213	0x3eb7ce56	0.3589961
214	0x3c47d095	0.012195726
215	0xbe0578bd	-0.13034339
216	0xbee70601	-0.45121768
217	0x3e5c8d04	0.21538168
218	0xbe6bb620	-0.23018694
219	0x3ea48828	0.3213513
220	0x3e3ed8bc	0.18637365
221	0x3db2af4d	0.08724842
222	0xbde85793	-0.113448285
223	0x3ecc5692	0.39909798
224	0xbe27700e	-0.16351339
225	0xbe951cf1	-0.29123643
226	0xbd5c725a	-0.05381999
227	0xbc2e9220	-0.010654956
228	0x3d74eb9b	0.059795003
229	0x3dd96a52	0.10615982
230	0x3e91c7a6	0.28472632
231	0x3d42f71f	0.047598954
232	0x3de529be	0.11189602
233	0x3e53a22e	0.20667335
234	0x3ecd7c7e	0.40134043
235	0x3de1960e	0.11014949
236	0x3ea67f41	0.32518962
237	0x3eac4471	0.33645967
238	0x3cffa4a9	0.031206446
239	0x3d989a71	0.07451332
240	0x3ca40156	0.020020168
241	0x3df501c5	0.11963228
242	0xbe0ece23	-0.13945822
243	0xbca83560	-0.020533264
244	0x3ead85e5	0.33891216
245	0x3e8bce16	0.2730567
246	0x3d6bae08	0.057539016
247	0x3d7c8a61	0.061655406
248	0x3ce1f309	0.027581709
249	0x3dc9625f	0.09833216
250	0xbe8edee7	-0.27904436
251	0xbd549194	-0.051896647
252	0x3e2c0988	0.16800511
253	0xbddd716d	-0.1081265
254	0xbe162df9	-0.14665975
255	0x3ded8332	0.11597289

l2.weight f4 [256, 256]
0	0xbda84be9	-0.08217604
1	0xbdfcb4f2	-0.123392
2	0xbe3ee30f	-0.18641303
3	0x3c74cd88	0.014941581
4	0x3e3f2270	0.1866548
5	0x3e3f9cc1	0.1871214
6	0xbeb3faa6	-0.35152167
7	0xbead4e75	-0.3384892
8	0xbdfef499	-0.12448997
9	0x3d7f6663	0.062353503
10	0xbe763740	-0.24044514
11	0x3d036287	0.032076385
12	0x3d9eb8f2	0.07750119
13	0x3e14a5df	0.145164
14	0xbd1eefae	-0.038802795
15	0xb922078b	-0.00015452334
16	0x3e5e886c	0.21731728
17	0xbdea2507	-0.11432844
18	0x3dbaaa72	0.09114541
19	0xbe43371f	-0.19063996
20	0x3e1d1534	0.1534012
21	0xbae4ff06	-0.0017471022
22	0xbdaddc36	-0.084892675
23	0xbea288c4	-0.3174497
24	0xbd75c40f	-0.06000143
25	0xbd88ad26	-0.066736504
26	0xbbcb334c	-0.0062011834
27	0xbe9ac185	-0.3022577
28	0x3e37d598	0.17952573
29	0xbe86d6de	-0.26335806
30	0x3ef83d55	0.48484293
31	0x3d58df6a	0.05294744
32	0xbea183fc	-0.3154601
33	0xbe79ed8b	-0.24407022
34	0x3c637990	0.013883963
35	0xbd85a37e	-0.06525324
36	0xbf07f9e9	-0.5311571
37	0x3c1e7171	0.009670601
38	0x3e04f2fd	0.12983318
39	0xbdc7efd9	-0.09762544
40	0xbe9790df	-0.29602715
41	0xbeab8b0a	-0.33504516
42	0xbe745353	-0.2385991
43	0xbdbb4831	-0.09144629
44	0xbe255e8e	-0.16149351
45	0xbf05959c	-0.5218141
46	0x3e03dca0	0.1287713
47	0xbdf4967f	-0.11942767
48	0xbef9794a	-0.4872535
49	0xbd6ef631	-0.058340255
50	0xbe45cb70	-0.19315886
51	0x3ba2c660	0.004967496
52	0x3cd9cf8a	0.02658822
53	0xbeb5b54d	-0.35489884
54	0xbd907072	-0.07052697
55	0x3d7b126f	0.061296877
56	0x3dbbcc4e	0.091698274
57	0xbdf291de	-0.11844228
58	0xbe27a274	-0.16370565
59	0xbdcf330d	-0.10117159
60	0xbcde541e	-0.02713972
61	0xbbc607c9	-0.0060434085
62	0xbdfd46b6	-0.12367003
63	0x3d9ef364	0.07761267
64	0x3dd557d4	0.104171425
65	0x3ce15843	0.027507907
66	0xbdb2eb7b	-0.087363206
67	0x3ea69fff	0.32543942
68	0xbceebedc	-0.029143743
69	0x3caa2cb4	0.02077327
70	0xbc8f8094	-0.017517366
71	0xbc0442fd	-0.008072612
72	0xbe390e52	-0.18071869
73	0xbd2366b3	-0.039892863
74	0xbdaada9d	-0.083424784
75	0xbd0169e2	-0.03159512
76	0x3e200961	0.15628578
77	0x3db20828	0.08692962
78	0x3c9c38cc	0.019070052
79	0x3c249c08	0.010046966
80	0x3dcbb9f8	0.0994758
81	0x3d76e705	0.06027891
82	0x3e117ace	0.14207003
83	0xbe3f6a0b	-0.18692796
84	0xbda61239	-0.081089444
85	0x3df3d6eb	0.11906227
86	0x3dd6355c	0.10459396
87	0x3d9a8204	0.0754433
88	0xbe80f065	-0.25183406
89	0xbdd3d1bb	-0.10342737
90	0xbe36c727	-0.17849408
91	0x3c0a9742	0.008458914
92	0xbda6b82a	-0.08140595
93	0x3d048025	0.03234877
94	0x3e157ec0	0.14599133
95	0xbd0c3156	-0.034226738
96	0xbe7f283c	-0.24917692
97	0x3d9bf4d8	0.076150596
98	0x3db55399	0.088538356
99	0x3d49e53a	0.049290873
100	0x3e5e16b1	0.21688344
101	0x3e69e52a	0.22841325
102	0x3d5a81da	0.053346492
103	0xbd9cbf43	-0.07653668
104	0xbf20327d	-0.6257704
105	0xbdc29d9a	-0.09502716
106	0xbed23b07	-0.4106066
107	0x3e9db1f9	0.30799845
108	0xbe7086fa	-0.2348899
109	0xbe02f7af	-0.12789796
110	0x3e1f89a3	0.15579848
111	0xbd1f1b50	-0.038844407
112	0x3d4e8b0a	0.050425567
113	0x3dd65e0d	0.104671575
114	0xbdec1f09	-0.11529357
115	0x3c55bcd9	0.013045513
116	0x3e8cc78b	0.2749599
117	0x3e89ab12	0.2688833
118	0xbdb82878	-0.08992094
119	0xbefaf400	-0.49014282
120	0xbd4018b5	-0.046898562
121	0x3d270e3f	0.04078507
122	0xbe816222	-0.25270182
123	0xbd7432f0	-0.05961889
124	0x3df95839	0.1217503
125	0x3deca2f8	0.11554521
126	0x3d421c77	0.047390427
127	0x3e00ba05	0.12570961
128	0xbd78cff7	-0.060745206
129	0xbddf6cff	-0.10909461
130	0xbf86243d	-1.0479809
131	0xba5bf1a4	-0.0008390194
132	0x3e587647	0.21138869
133	0x3d8c8449	0.06861169
134	0xbca9ff51	-0.020751627
135	0x3e03b872	0.12863329
136	0x3e0518e5	0.12997778
137	0x3dedc443	0.116096996
138	0xbcb76108	-0.022385135
139	0xbc61afe7	-0.013774849
140	0x3ea1fd3a	0.3163851
141	0xbdaa631d	-0.083196856
142	0xb99fc192	-0.00030471064
143	0x3e3aba8a	0.18235222
144	0x3a60a172	0.0008568979
145	0xbcb8d91c	-0.022564463
146	0x3c25e0b9	0.010124379
147	0xbd8a6b92	-0.06758799
148	0xbf9e312a	-1.2358754
149	0x3c0987d8	0.008394204
150	0xbe95d65e	-0.29265112
151	0x3e0d5141	0.13800527
152	0xbec517c2	-0.38494688
153	0xbeb3f3d1	-0.35146955
154	0x3e2d2458	0.16908395
155	0xbe2e5666	-0.17025146
156	0x3a1d4b49	0.0006000293
157	0xbe4d685f	-0.20059346
158	0x3dba9d0c	0.091119856
159	0xbda4e8df	-0.08052229
160	0xbdad31e4	-0.084567815
161	0xbda2df05	-0.07952694
162	0x3e17b838	0.14816368
163	0xbf011f8d	-0.5043877
164	0x3c8ad0ee	0.016945329
165	0x3e1c4326	0.1525999
166	0x3e7f041a	0.24903908
167	0xbd161bea	-0.036647715
168	0x3d52b325	0.051440377
169	0xbe44011d	-0.1914105
170	0xbdb228f1	-0.08699215
171	0x3d29a8c2	0.041420706
172	0x3d6735a1	0.05644763
173	0x3da62d01	0.081140526
174	0xbd2a577c	-0.041587338
175	0x3d4c8657	0.049932804
176	0xbd7a5f52	-0.06112606
177	0xbc5a1a6a	-0.013311962
178	0xbe40ea15	-0.18839295
179	0x3e120519	0.14259757
180	0x3e41abd0	0.18913198
181	0xbda2aea3	-0.079434656
182	0xbe0db4e2	-0.13838533
183	0x3df3e8d2	0.11909641
184	0xbe0d884c	-0.13821524
185	0xbd3c6b26	-0.046000622
186	0x3e82d9ed	0.2555689
187	0xbe136782	-0.14394954
188	0x3e0f7ec6	0.14013204
189	0x3db1d40b	0.08683022
190	0x3e859c49	0.260958
191	0xbc81a71b	-0.015826752
192	0x3d17a192	0.03701932
193	0x3d8d0981	0.06886578
194	0x3eadee7c	0.33971012
195	0x3d7c96fd	0.06166743
196	0xc001511a	-2.020575
197	0x3d01f94c	0.03173189
198	0xbc4f11a7	-0.012638486
199	0xbe3f85d9	-0.18703403
200	0x3df0c42a	0.11756165
201	0x3cb9d4b6	0.022684436
202	0x3cfc86e3	0.030826038
203	0xbe5fd6d8	-0.218593
204	0x3dae787d	0.08519075
205	0xbd8f0904	-0.069841415
206	0xbef58005	-0.47949234
207	0x3d443524	0.04790224
208	0xbeec4bfa	-0.46151716
209	0x3e24bde0	0.16088057
210	0x3e185f29	0.1488005
211	0x3d2bb062	0.04191626
212	0x3c82dd5a	0.01597469
213	0x3c3cc351	0.011521176
214	0xbe433633	-0.19063644
215	0x3da3a37f	0.07990169
216	0x3de8843e	0.11353348
217	0xbc345d35	-0.01100855
218	0x3decf89f	0.11570858
219	0xbe0c6166	-0.1370903
220	0xbde650d4	-0.112458855
221	0xbe7b70d4	-0.2455476
222	0x3effd66f	0.49968287
223	0xbda47994	-0.08031002
224	0x3e03d9ae	0.12876007
225	0x3e183520	0.14864016
226	0xbd60fd94	-0.05492933
227	0xbcd2f3af	-0.025750963
228	0xbd0f6404	-0.03500749
229	0xbe1299db	-0.14316504
230	0xbe8c0fab	-0.27355704
231	0xbeb44a2c	-0.3521284
232	0xbdb11f7a	-0.08648582
233	0x3eb73ff5	0.35790983
234	0x3d63db70	0.055629194
235	0x3defb6c2	0.1170478
236	0x3e17cec7	0.14824973
237	0x3d40f111	0.0471049
238	0x3da2211c	0.07916471
239	0xbcb7e99e	-0.022450265
240	0x3e489479	0.19587888
241	0xbe6b7fec	-0.22998017
242	0xbebc0562	-0.36722857
243	0x3d4c8794	0.049933985
244	0xbeff0ef1	-0.49816087
245	0x3d0ec1b3	0.034852695
246	0xbdd1f9e6	-0.102527425
247	0xbe81f3dd	-0.25381365
248	0xbe210903	-0.15726094
249	0x3e2bf42a	0.1679236
250	0xbd9605cf	-0.07325327
251	0x3e1de39c	0.15418857
252	0xbd1caa26	-0.038248204
253	0xbb4e9b81	-0.0031525793
254	0xbbb67944	-0.005568655
255	0xbdf014a9	-0.117226906

l2.bias f4 [256]
0	0x3d37ee92	0.044905253
1	0x3df0937a	0.11746879
2	0x3c479449	0.01218135
3	0xbe021451	-0.12703063
4	0x3be18539	0.0068823365
5	0x3d94b0ed	0.072603084
6	0x3e0d9f13	0.13830213
7	0xbd923fdc	-0.071410865
8	0x3d561415	0.052265245
9	0x3c9f8f7e	0.019477602
10	0xbc8c91b5	-0.017159322
11	0x3b629001	0.0034570696
12	0x3dc1a79a	0.094557956
13	0x3d5d4d48	0.05402878
14	0xbc2e9a92	-0.01065697
15	0xbcc2b3b2	-0.023767326
16	0xbbdfd901	-0.006831289
17	0xbca7989c	-0.020458512
18	0x3cba5fea	0.022750814
19	0x3d310856	0.04322084
20	0xbddd9676	-0.10819714
21	0x3e073e1f	0.13207291
22	0xbd981bbd	-0.07427166
23	0xbceef317	-0.029168649
24	0x3cc7dec1	0.02439821
25	0x3e2040a5	0.1564966
26	0xbc67a8a7	-0.014139331
27	0x3d848d0a	0.064722136
28	0x3d86eabb	0.0658774
29	0xbd506718	-0.050879568
30	0xbdf341bf	-0.118777744
31	0x3d8b89cd	0.06813393
32	0x3d78d8cf	0.06075364
33	0xbdb0d195	-0.086337246
34	0xbe562848	-0.20913804
35	0xbddd2bc5	-0.10799364
36	0x3d8ccb29	0.06874687
37	0x3df7ecc7	0.121057086
38	0x3d9ce8b3	0.07661571
39	0xbd5f43b2	-0.05450792
40	0x3c588aa5	0.013216649
41	0xbe60904e	-0.21930048
42	0x3d8cbfe4	0.06872538
43	0xbdce1576	-0.10062687
44	0xbdd79227	-0.10525923
45	0xbc8d2dbb	-0.01723372
46	0x3d6d1645	0.057882566
47	0x3dc912b2	0.09818019
48	0x3ccc115a	0.024910618
49	0xbb6f33e4	-0.0036499435
50	0xbcceb5a9	-0.025233107
51	0x3cf0d9f1	0.029400798
52	0x3d08f996	0.03344115
53	0x3da5457d	0.080698945
54	0xbe4746f5	-0.19460662
55	0xbdd7abcc	-0.105308145
56	0x3d46c0ec	0.04852383
57	0x3d75534c	0.05989389
58	0x3c052c88	0.008128293
59	0x3e1f9b0d	0.15586491
60	0x3d454723	0.048163544
61	0xbb19af9d	-0.002345062
62	0xbe158c19	-0.14604224
63	0x3d501f9a	0.050811388
64	0x3e11e8e0	0.14248991
65	0xbd94972b	-0.072553955
66	0xbdfaf8c0	-0.122544765
67	0x3d789438	0.060688227
68	0xbddad59e	-0.106852755
69	0x3dcc9432	0.099892035
70	0x3d45f3e0	0.04832828
71	0x3dd30d41	0.10305262
72	0x3c400f39	0.011722379
73	0x3c941aa2	0.018079106
74	0x3dff4711	0.12464727
75	0xbd020e48	-0.0317519
76	0x3bf7e018	0.007564556
77	0x3da0ec62	0.078575864
78	0xbd129877	-0.035789933
79	0x3d9ba5d3	0.07599988
80	0xbc7e5cb8	-0.015525036
81	0xbdb14f5c	-0.08657715
82	0xbd2c3d00	-0.04205036
83	0x3d09ff4b	0.033690732
84	0xbc58859a	-0.013215447
85	0xbd90f1fd	-0.070774056
86	0x3d67a7c0	0.056556463
87	0xbc72a26f	-0.014809235
88	0xbe425b69	-0.18980183
89	0xbdabc8b5	-0.08387891
90	0xbd18a404	-0.037265792
91	0xbd1829ac	-0.037149116
92	0x3d2d54f0	0.04231733
93	0xbca444c7	-0.020052327
94	0x3d2f084e	0.04273253
95	0x3b682758	0.0035423841
96	0x3c9ac825	0.018894264
97	0x3ba32da3	0.0049798056
98	0x3d92da8c	0.07170591
99	0x3de7ea36	0.11323969
100	0xbdb11abe	-0.08647679
101	0xbdae7809	-0.08518989
102	0x3e3377b1	0.17526127
103	0x3b7786c1	0.0037769529
104	0xbd5f46b7	-0.0545108
105	0xbd3e89d5	-0.046518166
106	0x3dffee1e	0.12496589
107	0xbd8c85c7	-0.068614535
108	0xbd15147e	-0.036396496
109	0xbdd73ec7	-0.10510021
110	0xbd000da1	-0.031262998
111	0x3de3b194	0.11117855
112	0xbd4146eb	-0.047186773
113	0xbcfef806	-0.031124126
114	0x3d8059a3	0.06267097
115	0x3d87b3b4	0.066260725
116	0x3d2e1b35	0.042506415
117	0x3dda5324	0.10660389
118	0x3e5b1fbb	0.21398823
119	0xbe58a85d	-0.21157975
120	0x3d29a57b	0.04141758
121	0x3cf05536	0.029337507
122	0xbac910d0	-0.0015340094
123	0xbe0088a5	-0.12552126
124	0xbe0a9772	-0.13534334
125	0xbd69c295	-0.057070334
126	0x3d4d5127	0.05012622
127	0x3b920a27	0.0044567767
128	0x3e050a99	0.12992324
129	0x3dbee913	0.09321799
130	0x3cab4f81	0.020911934
131	0x3dfe7257	0.12424152
132	0xbd5d38d6	-0.05400928
133	0xbda3c5f3	-0.0799674
134	0xbd0d7ff6	-0.03454586
135	0xbd0df943	-0.034661543
136	0xbd001924	-0.031273976
137	0xbc617226	-0.013760125
138	0x3d7e92e1	0.062151793
139	0xbd92091f	-0.07130646
140	0x3cc02754	0.023456253
141	0x3e1a2b5d	0.15055604
142	0xbbfe6871	-0.007763915
143	0x3caf8c89	0.021429317
144	0x3c6381b2	0.013885902
145	0xbc97adf5	-0.018515566
146	0xbd8e801c	-0.06958029
147	0xbd9591a0	-0.073031664
148	0x3ba29e8a	0.004962747
149	0x3c27da3a	0.0102449
150	0x3cc1bcfa	0.023649681
151	0x3caa9d08	0.020826831
152	0xbda3324c	-0.07968578
153	0xbde449b7	-0.111468725
154	0x3e0bb3e2	0.13642839
155	0xbc45781c	-0.012052562
156	0xb9f01d52	-0.00045798213
157	0x3d071de3	0.032987487
158	0x3daed306	0.08536343
159	0x3d02576d	0.031821657
160	0x389eb0b1	7.5669384e-05
161	0xbce18a55	-0.027531782
162	0x3d59bebd	0.053160418
163	0x39a6f714	0.00031846075
164	0xbd8f5aad	-0.06999717
165	0xbd8e0d97	-0.06936186
166	0xbc7c7844	-0.015409533
167	0xbdce1945	-0.100634135
168	0xbd7486ef	-0.059698995
169	0xbc977b61	-0.018491449
170	0x3d7c7f93	0.0616451
171	0xbd80e3cb	-0.06293448
172	0xbe13beb0	-0.1442821
173	0x3b4a6a45	0.0030886095
174	0xbcf7e01b	-0.030258229
175	0xbe73be61	-0.23803093
176	0xbdae3e89	-0.085080214
177	0xbe2e4cb6	-0.1702145
178	0xbcdd4d64	-0.027014442
179	0xbcf31114	-0.02967123
180	0xbe0f44bb	-0.13991062
181	0xbd9d29ab	-0.07673963
182	0xbdc557e0	-0.096359015
183	0xbcd238ee	-0.025661912
184	0x3bbcc659	0.0057609496
185	0x3e49d69b	0.19710772
186	0x3c9a065a	0.018801857
187	0x3d7740e1	0.060364608
188	0x3ceb6fde	0.028739866
189	0x3c9145cc	0.017733477
190	0x3d0a4963	0.033761393
191	0xbc6f3d33	-0.014601993
192	0x3c40ed4d	0.011775327
193	0x3de21288	0.11038691
194	0xbd984df4	-0.074367434
195	0xbd634790	-0.05548817
196	0xbdec707c	-0.11544892
197	0xbdc672f0	-0.09689891
198	0xbcac76b1	-0.02105269
199	0x3c69f2c3	0.01427907
200	0xbdcd1ddf	-0.10015463
201	0x3cf36510	0.029711276
202	0xbce400e6	-0.02783246
203	0x3cb93236	0.02260695
204	0x3dcb81f6	0.099368975
205	0x3d26595f	0.040612575
206	0x3dde8608	0.10865408
207	0xbd3aaf28	-0.0455772
208	0xbd8dd565	-0.069254674
209	0x3c7422ae	0.014900846
210	0x3c2195d5	0.009862383
211	0xbd1ec3e0	-0.03876102
212	0xbca5c2cb	-0.020234486
213	0x3d86ed5b	0.06588241
214	0x3d09fcc1	0.03368831
215	0xbbba8bec	-0.0056929495
216	0xbdf3edd2	-0.11910595
217	0x3c375e37	0.011191896
218	0xbcd98f16	-0.026557487
219	0xbe17448e	-0.14772245
220	0x3cb8c860	0.022556484
221	0xbc48146e	-0.012211902
222	0xbdfc6fca	-0.123260096
223	0xbd8951f4	-0.067050844
224	0x3d7a3a23	0.0610906
225	0xbcfa6028	-0.030563429
226	0xbe041395	-0.12898095
227	0x3c84791a	0.016171027
228	0x3de8232c	0.113348335
229	0xbd01bd8d	-0.03167491
230	0x3ddd7d56	0.108149216
231	0xbd3c009c	-0.04589902
232	0x3d9dbcd6	0.07702033
233	0xbbf2578d	-0.007395691
234	0x3b13dd42	0.00225623
235	0x3cc6202d	0.024185264
236	0xbd309b77	-0.043117013
237	0x3d640341	0.055667166
238	0xbd2ea40d	-0.04263692
239	0xbd08a9b4	-0.033364967
240	0x38e3ca41	0.00010861876
241	0xbd061cb4	-0.032742217
242	0xbd9aeb1d	-0.075643755
243	0x3d7ab262	0.061205275
244	0x3d73cc01	0.059520725
245	0xbc88cb32	-0.016698454
246	0x3d4a905f	0.04945409
247	0xbdf9980b	-0.12187203
248	0xbc7c5c42	-0.015402855
249	0x3e164b1b	0.14677088
250	0x3da00eac	0.078152984
251	0xbd514f1a	-0.051100828
252	0x3c593166	0.013256406
253	0x3d109d52	0.035306282
254	0x3b0d8f80	0.0021600425
255	0xbd33e490	-0.043919146

l3.weight f4 [1, 256]
0	0xbfa71928	-1.3054552
1	0xbf5fe3f1	-0.87457186
2	0x3ee05bef	0.4382014
3	0x3f6bbd93	0.9208614
4	0x3f6aa821	0.91662794
5	0x3f8507d2	1.0393012
6	0x3f7927d4	0.973264
7	0xc010d786	-2.2631545
8	0xbf58da4e	-0.84708107
9	0xbfe4b6ca	-1.7868283
10	0x3f91de1b	1.1395906
11	0xbf47a6c8	-0.77988863
12	0xbf8e60b2	-1.1123259
13	0xc02d879c	-2.711402
14	0xbf8470ef	-1.0346965
15	0x3f9f5afb	1.244964
16	0xc0193958	-2.394125
17	0x3f3a4ee2	0.72776616
18	0xbfbe5ac4	-1.487145
19	0x3f839386	1.0279396
20	0x3f59f74c	0.8514297
21	0xbfa072ee	-1.2535074
22	0xc00fcd7b	-2.2469165
23	0x3c204297	0.009781501
24	0xbf8a9185	-1.0825659
25	0xbea44028	-0.32080197
26	0x3e33f4a0	0.17573786
27	0xbfc4521d	-1.5337559
28	0xbf818050	-1.0117283
29	0xbf445343	-0.7668955
30	0x3f6e4795	0.93077976
31	0xc02d78ee	-2.710506
32	0x3ea23b3b	0.31685814
33	0x3f332dce	0.6999177
34	0x3fc4598d	1.5339829
35	0x3f135e57	0.57565826
36	0x3f66f852	0.90222657
37	0xbecc3659	-0.39885214
38	0xbf332980	-0.699852
39	0x3f7fe664	0.99960923
40	0x3ecc5e46	0.39915675
41	0x3f95ad07	1.1693429
42	0xbfe09815	-1.7546412
43	0xbf86ebc1	-1.0540696
44	0x3ed599c5	0.4171888
45	0xbf0d1a33	-0.551181
46	0xbf19097f	-0.59780115
47	0xbfcbcca8	-1.5921831
48	0xbf2e1ccb	-0.68012685
49	0x3fa64a98	1.2991514
50	0xbfe40718	-1.7814665
51	0xbeaa73b1	-0.3329139
52	0xbf59da0b	-0.8509833
53	0x3f87b995	1.060351
54	0x3faa3376	1.3296955
55	0x3f2311f4	0.6369927
56	0x3f87bd9f	1.0604743
57	0xbf83f339	-1.0308601
58	0x3f676bbb	0.9039876
59	0xc0850438	-4.156765
60	0x3f862db7	1.0482701
61	0x3f0edc63	0.55805033
62	0x3f042699	0.51621395
63	0x3fbedcaa	1.4911091
64	0xbf401698	-0.75034475
65	0xbfbe6ba1	-1.4876596
66	0xbfc4c23e	-1.5371778
67	0xbf6567b9	-0.89611393
68	0x3f5fa100	0.8735504
69	0xbf97fe11	-1.187441
70	0xbf87f681	-1.0622102
71	0x3f84cb64	1.037457
72	0x3f061c79	0.52387196
73	0xbfaf9201	-1.3716432
74	0x3fc866ea	1.5656407
75	0x3f0e081e	0.55481136
76	0x3ed7996c	0.4210924
77	0xbfb26ff2	-1.3940413
78	0x3f812bbe	1.0091474
79	0x3e7dca53	0.24784212
80	0x3fa00885	1.25026
81	0x3f41664f	0.75546736
82	0xbf565ef0	-0.83738613
83	0xbf2ff902	-0.6873933
84	0xbf56cc0f	-0.8390512
85	0x3f2594be	0.6468009
86	0xbfac2e8a	-1.3451703
87	0x3f8aff06	1.0859077
88	0x3f8ddc5b	1.1082872
89	0xc08f55d7	-4.4792285
90	0xbc99cfce	-0.018775847
91	0x3f2e5673	0.6810066
92	0xbf665e87	-0.8998799
93	0x3f22a35f	0.63530535
94	0xbf654b6c	-0.8956821
95	0xbfd81332	-1.6880858
96	0xbf673347	-0.9031262
97	0xbf86a51e	-1.051914
98	0xbf9522d8	-1.1651258
99	0xbf2f0a6e	-0.6837529
100	0x3e9d025a	0.30665857
101	0x3ef9cf75	0.4879109
102	0x3f8c86a8	1.0978594
103	0xbf1bfb32	-0.6093017
104	0xbfd3ff5c	-1.6562304
105	0x3f5de19c	0.8667238
106	0xbeedf16a	-0.46473247
107	0x3f0d8a6b	0.55289334
108	0x3f236c9f	0.6383762
109	0xbfa8ad8b	-1.3177961
110	0xbfa329cb	-1.2747129
111	0xbf982cc7	-1.1888665
112	0xbf49c0e4	-0.7880995
113	0x3f84fb3b	1.038917
114	0xbf1429a1	-0.5787602
115	0x3f620366	0.88286436
116	0x3f8c3efb	1.095672
117	0x3f8a0049	1.0781337
118	0xc011b0af	-2.276409
119	0x400f3be3	2.2380302
120	0x3f2ec653	0.6827137
121	0xbf34a896	-0.7056974
122	0xbf399b61	-0.72502714
123	0x3fdfd260	1.7486076
124	0x3f999e9b	1.2001528
125	0xbfabc2d2	-1.341883
126	0xbf764e43	-0.9621317
127	0xbf77dbd6	-0.9681982
128	0xbf517f46	-0.8183483
129	0x3e837287	0.25673315
130	0x3ef17f89	0.47167614
131	0xbf2c48b9	-0.67298466
132	0x3f3b27e2	0.7310773
133	0x3e8768bc	0.26447093
134	0xbf272468	-0.65289927
135	0xbca72933	-0.020405388
136	0x3ea68dd5	0.32530084
137	0x3f3ba3ae	0.7329663
138	0x3f5dcaf0	0.86637783
139	0x3f83752c	1.0270133
140	0x3f9adbaa	1.2098286
141	0xbf8974e6	-1.07388
142	0xc05a72dc	-3.4132605
143	0xbf90fa6f	-1.1326426
144	0xbfad9da9	-1.3563739
145	0x3f95a800	1.1691895
146	0xbf98638d	-1.190538
147	0xc07fcf83	-3.9970405
148	0xbfd8ccef	-1.6937541
149	0x3f23e79f	0.640253
150	0x3ecab61f	0.39592072
151	0x3ed7ccdf	0.42148492
152	0x3eff50da	0.49866372
153	0x3fbb027a	1.4610131
154	0xbf04f69a	-0.51938784
155	0x3ec5b4c0	0.38614464
156	0x3e534b64	0.20634228
157	0x3fd7585f	1.6823844
158	0xbea0afca	-0.31384116
159	0x3fd3aed6	1.6537731
160	0xc03e5e66	-2.9745116
161	0xbf8d58a4	-1.1042676
162	0xbf74f0eb	-0.9568011
163	0xc01ed97a	-2.4820237
164	0x3f1deb42	0.616871
165	0xbf91136e	-1.1334054
166	0x3ebf8040	0.37402534
167	0x3f9d34ec	1.2281775
168	0x3f2bc3d9	0.67095715
169	0xbf9917ea	-1.1960423
170	0x3f1f232c	0.62163043
171	0x3f365e6a	0.71237814
172	0x3f20eff6	0.6286615
173	0xbf0c4f48	-0.54808474
174	0x3ee0b652	0.438891
175	0x3fc6b1e2	1.5523036
176	0x3f64adcc	0.89327693
177	0x3f5142d2	0.81742585
178	0xbf687013	-0.9079601
179	0x3f041d9f	0.516077
180	0x3f313a3d	0.6922949
181	0xc035c4c5	-2.8401349
182	0x3f032eb1	0.5124312
183	0xbf9b7f31	-1.2148191
184	0x3ee9129f	0.4552202
185	0xbf361580	-0.71126556
186	0xbf169400	-0.5881958
187	0xbf6c63aa	-0.92339575
188	0xbf247302	-0.6423799
189	0x3e083dfd	0.13304897
190	0x3eed05f6	0.4629361
191	0x3ea127fb	0.31475815
192	0xbf118cc2	-0.56855404
193	0xbeb24117	-0.34815285
194	0x3ec4448b	0.38333544
195	0xbf6be95c	-0.92152953
196	0xc003affc	-2.0576162
197	0x3faf41ed	1.3691994
198	0xbf9b90df	-1.2153586
199	0xb986c582	-0.00025705626
200	0x3f00e590	0.50350285
201	0xbf92c765	-1.14671
202	0x3f4895b0	0.78353405
203	0xc02bda40	-2.685196
204	0xc01cbd12	-2.44904
205	0xbf1537d6	-0.58288324
206	0xbf73022d	-0.94925195
207	0xc02c844b	-2.6955745
208	0xbf8a0a73	-1.0784439
209	0x3ed39eda	0.41332132
210	0x3f1c631c	0.6108873
211	0x3f22db56	0.6361593
212	0x3b6ca8e3	0.0036111407
213	0xbeb9608c	-0.36206472
214	0xbfb09fe2	-1.3798792
215	0xbf743d8f	-0.9540643
216	0xc053e418	-3.3107967
217	0x3ecf8c6e	0.40536827
218	0xbd484515	-0.048894007
219	0x3f7a783e	0.97839725
220	0x3f9874dc	1.1910663
221	0x3f9b236c	1.2120185
222	0x3f6ea915	0.9322675
223	0x3f1c05d6	0.60946405
224	0x3e7e5542	0.24837211
225	0x3ee2c7c5	0.44293037
226	0x3fdb3107	1.7124337
227	0xbf547aca	-0.8299986
228	0xbf4d37f8	-0.80163527
229	0x3ec2fd24	0.38083756
230	0xbee8191b	-0.45331654
231	0xbfa2375b	-1.2673143
232	0xbf5c0266	-0.8594116
233	0x3f115bb8	0.56780577
234	0xbef94e3a	-0.48692495
235	0xbf7e276d	-0.9927891
236	0x3f43337a	0.7625042
237	0xbf99e192	-1.2021964
238	0xbf8a9777	-1.0827473
239	0x3ee0bfa8	0.43896222
240	0xbf876a5c	-1.0579333
241	0xc01af8fa	-2.4214463
242	0x3f16f2d1	0.5896426
243	0x3ec56279	0.3855169
244	0x3f7bfb84	0.9843066
245	0xbf3fbaa2	-0.74894154
246	0x3df5c2b0	0.12000024
247	0x3f33b412	0.7019664
248	0xc0326bec	-2.787837
249	0x3f92adff	1.1459349
250	0x3f87bb44	1.0604024
251	0x4014ecbc	2.3269491
252	0xc00fa6a6	-2.2445464
253	0xbee25434	-0.44204867
254	0xbfbbdc10	-1.4676533
255	0xbfa0cf9a	-1.2563355

l4.weight f4 [256, 28]
0	0x3dbf83ab	0.093512855
1	0x3f222ce4	0.6334975
2	0xbed34599	-0.41264036
3	0xbe4777fb	-0.19479363
4	0x3e05de23	0.1307302
5	0x3bb6c1a1	0.0055772816
6	0xbc0a0b82	-0.008425595
7	0xbc0a90e2	-0.008457394
8	0x3b9e130e	0.004824049
9	0x3a87c873	0.0010359421
10	0x3c77fa12	0.015135305
11	0xbe0340cb	-0.12817685
12	0x3c9b6e22	0.018973414
13	0x3987dbd8	0.00025913003
14	0x3cbb53cb	0.022867104
15	0x3d61abb0	0.055095375
16	0x3e545469	0.20735325
17	0xbe18aab5	-0.1490887
18	0x3e419a7d	0.18906589
19	0x3ea90dda	0.3301838
20	0x3ebbe05f	0.3669462
21	0xbebbce27	-0.3668072
22	0x3dbe9903	0.093065284
23	0xbe59fa6b	-0.21286933
24	0xbc4cfe02	-0.012511732
25	0xbce0f5ca	-0.027460951
26	0x3bdd6761	0.0067567085
27	0xbd1c0ac8	-0.03809622
28	0x3d8d71b5	0.069064535
29	0xbfab9c43	-1.3407062
30	0xbed28f95	-0.4112517
31	0x3f5bbd49	0.858357
32	0xbb257d00	-0.0025251508
33	0x3d49c794	0.0492626
34	0x3e800a14	0.2500769
35	0x3b21ab07	0.002466859
36	0xbc58f3a1	-0.013241679
37	0x3d94f7f7	0.07273858
38	0xbe02e718	-0.12783468
39	0x3d04698a	0.032327212
40	0x3bd7f889	0.006590907
41	0x3bc8a193	0.006122777
42	0x3e802721	0.25029853
43	0x3d7938e7	0.060845282
44	0xbe2ac90d	-0.16678257
45	0x3e1a924a	0.15094867
46	0x3e0092d1	0.12556006
47	0xbdeb0459	-0.114754386
48	0x3dca45d3	0.09876599
49	0xbc1a52f3	-0.009419191
50	0xbcd7abd6	-0.026327055
51	0x3d18c90e	0.037301116
52	0xba4d17b6	-0.00078236626
53	0x3dd0a6ef	0.1018809
54	0x3cf32010	0.029678375
55	0x3dbf5aab	0.093434654
56	0x3ddbeac0	0.107381344
57	0xbeaf7c1b	-0.34274372
58	0xbbb00c9b	-0.0053725964
59	0xbedea89a	-0.43488008
60	0x3d593e20	0.053037763
61	0x3d95a419	0.0730669
62	0x3db15bfe	0.08660124
63	0x3d5cd818	0.05391702
64	0xbd2d6e43	-0.042341482
65	0xbdb60103	-0.08886912
66	0xbcf0929c	-0.029366784
67	0x3d37450b	0.04474358
68	0x3c541678	0.01294481
69	0xbca6f33f	-0.02037966
70	0x3e84f473	0.2596775
71	0x3e3707b3	0.17874031
72	0xbe72731d	-0.23676725
73	0xbf244095	-0.64161044
74	0xbe4323e9	-0.19056667
75	0x3db276f8	0.08714098
76	0x3d422a85	0.04740383
77	0x3e83424a	0.25636512
78	0x3ebae608	0.36503625
79	0xbdd39463	-0.10331037
80	0x3a14e412	0.0005679737
81	0x3c8fc745	0.017551074
82	0xbc1f2fef	-0.009716018
83	0x3b17396b	0.0023074995
84	0x3f01ca1d	0.50699025
85	0x3f27e5ea	0.65585196
86	0x3c58a118	0.0132220015
87	0x3e7a2b89	0.2443067
88	0xbcd2838d	-0.025697494
89	0x3d9e5d8b	0.07732686
90	0xbe33ff96	-0.17577967
91	0x3d292a4e	0.04130011
92	0x3d964ab8	0.0733847
93	0x3ebc8c54	0.36825812
94	0x3d45a324	0.048251286
95	0x3e2650e0	0.16241789
96	0xbd2eebbc	-0.042705283
97	0xbd42ae72	-0.047529645
98	0xbda6a6e4	-0.081373006
99	0xbe46ed83	-0.19426541
100	0x3dfd11c8	0.12356907
101	0x3e9b738a	0.30361587
102	0x3eedbc7e	0.4643287
103	0x3ef4bcdf	0.47800347
104	0xbf069b36	-0.52580583
105	0xbe6b7843	-0.22995095
106	0xbe5aa370	-0.21351409
107	0x3e26ee6e	0.16301891
108	0xbbb447d0	-0.005501725
109	0xbd0dac36	-0.03458806
110	0x3c82b709	0.015956419
111	0x3c95aae5	0.018269965
112	0x3ef6acd0	0.4817872
113	0x3f616d84	0.8805773
114	0x3eaacd21	0.33359626
115	0x3e4ea874	0.20181447
116	0x3e58388b	0.2111532
117	0x3d8389b4	0.06422749
118	0x3d8b21df	0.0679357
119	0x3d3af467	0.045643236
120	0xbcce821d	-0.025208527
121	0x3d95164d	0.07279644
122	0x3db71618	0.08939761
123	0x3df9716e	0.12179838
124	0x3c229ef4	0.009925593
125	0x3dac7ca9	0.084222145
126	0x3e7ec476	0.24879631
127	0x3dec7ade	0.115468726
128	0x3e88f785	0.26751342
129	0xbd1b482e	-0.037910633
130	0xbe5ed972	-0.21762636
131	0x3c83d989	0.01609494
132	0x3eac65f5	0.33671537
133	0x3e928dc7	0.28623793
134	0xbf01304c	-0.5046432
135	0x3c85fb69	0.016355233
136	0xbcd2f9de	-0.025753912
137	0x3c87768f	0.016536025
138	0xbb1854aa	-0.0023243823
139	0xbbd31d87	-0.006442729
140	0x3e75b922	0.23996404
141	0xbf1cfc2b	-0.6132228
142	0x3e61ad41	0.22038747
143	0xbd9fa508	-0.07795149
144	0xbe3773be	-0.17915246
145	0xbca29238	-0.019845113
146	0xbdfd468a	-0.1236697
147	0x3dba6615	0.09101502
148	0xbc04d091	-0.008106367
149	0xbdd8448e	-0.10559951
150	0x3cb9fb89	0.02270295
151	0xbe381534	-0.17976838
152	0xbe2483ad	-0.16065855
153	0xbbed6b0c	-0.007245427
154	0xbde9735b	-0.113989554
155	0x3d95d9c9	0.0731693
156	0x3e1a803b	0.15087979
157	0x3c0c35be	0.008557735
158	0x3dcb717a	0.09933753
159	0x3d00fb62	0.031489737
160	0x3e50b098	0.20379865
161	0x3e19a55c	0.15004486
162	0x3e960d96	0.2930724
163	0xbd713b22	-0.058894284
164	0xbd1d036f	-0.038333353
165	0xbd08a29b	-0.033358198
166	0xbce43ccc	-0.027861021
167	0x3d0441b8	0.032289237
168	0x3dd1ced1	0.10244525
169	0x3e2f6f44	0.17132288
170	0x3f21736b	0.6306674
171	0x3f23e565	0.64021903
172	0x3d97e46a	0.074166134
173	0x3dc5c0f4	0.096559435
174	0x3df9452d	0.12171397
175	0x3d4b8de8	0.04969588
176	0xbd4f6312	-0.05063159
177	0x3e0f95ea	0.14022031
178	0xbd1c08b2	-0.03809423
179	0xbe0e3a1c	-0.13889354
180	0xbd341712	-0.043967314
181	0xbd9174c4	-0.071023494
182	0x3d88e3e8	0.06684095
183	0xbe1e1501	-0.154377
184	0x3e35fff5	0.17773421
185	0x3e18ba30	0.14914775
186	0x3e56965a	0.20955792
187	0xbe17ded5	-0.14831097
188	0x3dabb71a	0.08384533
189	0x3e66bf0c	0.22533816
190	0x3d8ab17a	0.06772132
191	0x3d05ea53	0.032694172
192	0x3d2d385c	0.042290077
193	0xbd62416d	-0.055238176
194	0x3cffd474	0.031229235
195	0xbc38060f	-0.011231913
196	0x3ea12ee1	0.31481078
197	0x3ef2f09e	0.474492
198	0x3dd66f15	0.10470406
199	0xbdaf6312	-0.08563818
200	0xbe89a9eb	-0.2688745
201	0x3e85a6f5	0.2610394
202	0x3d859824	0.06523159
203	0x3ce2d813	0.027690923
204	0x3d9ebf95	0.07751385
205	0x3e9b9cd0	0.30393076
206	0xbe9e2325	-0.30886188
207	0x3eaf7a4e	0.34273
208	0xbde76415	-0.11298386
209	0x3c37bcdd	0.011214462
210	0xbe829225	-0.25502124
211	0xbdfd5851	-0.12370361
212	0xbd43341d	-0.04765712
213	0x3f3605d2	0.7110263
214	0x3c0483a1	0.008088023
215	0xbe7b3be2	-0.24534562
216	0x3ea05f8c	0.31322896
217	0xbd8f2fae	-0.06991516
218	0xbe87629e	-0.26442426
219	0xbdd115ab	-0.10209211
220	0x3d5d3dbd	0.054013956
221	0xbd2526a2	-0.040320046
222	0xbe33e106	-0.17566308
223	0x3e9265f6	0.28593415
224	0x3e024277	0.12720667
225	0xbe5ca3e2	-0.21546891
226	0x3f2d2865	0.6763976
227	0x3e905431	0.28189233
228	0xbd668180	-0.056275845
229	0x3d26bced	0.040707517
230	0xbd90b2df	-0.07065367
231	0xbd581176	-0.052751027
232	0xbda5563b	-0.08073088
233	0xbe0b0ed1	-0.13579871
234	0x3dadf8fa	0.08494754
235	0x3e7906c8	0.24318993
236	0x3d336f0a	0.043807067
237	0xbc1472c9	-0.00906057
238	0x3e229f47	0.15881072
239	0x3e88bfae	0.2670874
240	0x3ed235e4	0.4105674
241	0xbd5b343e	-0.05351662
242	0xbe9a36ec	-0.30120027
243	0xbd83f2f7	-0.06442826
244	0xbe4eb03c	-0.20184416
245	0xbe4af4c2	-0.1981993
246	0xbc8d11f6	-0.017220479
247	0xbe0cf458	-0.13765085
248	0x3df76396	0.120795414
249	0xbd3881a9	-0.04504553
250	0x3cb05ee7	0.021529628
251	0xbc3732eb	-0.011181573
252	0x3caacd16	0.020849746
253	0x3f764e91	0.9621363
254	0xbf04014a	-0.51564467
255	0xbf073d7b	-0.52828187

l4.bias f4 [256]
0	0x3dc69929	0.09697182
1	0x3e41681a	0.18887368
2	0xbe72ea0b	-0.23722093
3	0xbdba33c5	-0.090919055
4	0xbe892628	-0.26786923
5	0xbe916322	-0.28395945
6	0xbe6f8f65	-0.23394544
7	0xbe974786	-0.29546756
8	0x3d10a982	0.035317905
9	0x3e315a1c	0.1731953
10	0xbd3bf9c9	-0.04589251
11	0x3c1c71d2	0.009548621
12	0xbebed929	-0.37275055
13	0xbda51868	-0.08061296
14	0x3e53310b	0.20624177
15	0xbea96d12	-0.33091027
16	0xbe5c96cd	-0.21541901
17	0xbdc4369b	-0.09580728
18	0xbe226abd	-0.1586103
19	0xbb2bdc12	-0.0026223701
20	0xbea54db6	-0.3228585
21	0x3ee598f0	0.44843245
22	0xbe0937b5	-0.13400157
23	0xbdd094cf	-0.10184633
24	0xbef01f1b	-0.46898732
25	0xbd961412	-0.07328047
26	0x3ca46be2	0.020070974
27	0x3c8c9261	0.017159643
28	0xbe6ec4f9	-0.23317327
29	0x3eb2e360	0.34939098
30	0xbeb256df	-0.34831902
31	0x3dd812d1	0.10550464
32	0x3e71d65d	0.2361693
33	0xbe5867f0	-0.21133399
34	0xbdc3af77	-0.09554952
35	0x3dc72a25	0.09724835
36	0xbe0c21f0	-0.13684821
37	0x3d48d7cf	0.049033936
38	0xbd76856a	-0.060185827
39	0x3e5b24a3	0.21400695
40	0x3e275a40	0.16343021
41	0x3e50dcb3	0.2039669
42	0x3e6d01f2	0.23145273
43	0x3ba780a7	0.005111772
44	0x3e416e89	0.18889822
45	0xbde10ee3	-0.109891675
46	0x3e7aa2c5	0.24476154
47	0x3e747381	0.23872186
48	0xbef1aed0	-0.47203684
49	0xbe85c9ba	-0.26130468
50	0xbd44287b	-0.047890168
51	0x3ec50393	0.3847929
52	0xbd4d9a58	-0.05019602
53	0x3deabc19	0.11461658
54	0x3e4498d7	0.19198929
55	0xbc09871d	-0.00839403
56	0xbe3e44a2	-0.18580869
57	0xbe98a1f8	-0.29811072
58	0xbe9fad5b	-0.31186947
59	0xbce30723	-0.027713364
60	0x3dc11205	0.09427265
61	0x3e7f68f4	0.2494238
62	0xbed4d7e4	-0.4157096
63	0x3df0f7b0	0.11765993
64	0xbd436e0a	-0.047712363
65	0xbd6eb83c	-0.05828117
66	0x3e75abd9	0.23991336
67	0xbe988b0e	-0.2979359
68	0x3e4a0b5e	0.19730899
69	0x3da915c2	0.08256103
70	0x3e00b0bc	0.12567419
71	0x3e5848ca	0.21121517
72	0x3bb63875	0.0055609294
73	0xbe13d566	-0.14436874
74	0x3ee2fb90	0.44332552
75	0x3b6fae57	0.003657242
76	0x3e32baa2	0.17454007
77	0x3df19043	0.11795094
78	0xbe0273f5	-0.12739547
79	0x3e2484d8	0.16066301
80	0xbe8dcd6c	-0.27695787
81	0xbe9b1e23	-0.3029643
82	0xbb66502d	-0.0035143003
83	0x3e13b8c3	0.1442595
84	0xbe4fb6e8	-0.20284617
85	0xbe0c3a01	-0.13694002
86	0xbe902e0c	-0.2816013
87	0x3ede13e7	0.4337456
88	0x3da6d14f	0.08145391
89	0x3e23e54f	0.16005443
90	0xb982b9c2	-0.00024933933
91	0xbe35a570	-0.1773889
92	0x3ce86ef7	0.028373225
93	0xbe018563	-0.12648539
94	0xbe5e1781	-0.21688654
95	0xbdb60f08	-0.08889586
96	0x3b7c4f4e	0.0038499418
97	0x3d4ff3d1	0.05076963
98	0x3be47baa	0.0069727497
99	0xbe8d45e7	-0.27592394
100	0x3d7dc5e2	0.061956294
101	0xbe3a345c	-0.18184036
102	0xbd7323cd	-0.059360314
103	0x3e4f2bc5	0.2023154
104	0xbcaeb80d	-0.021327997
105	0x3e012707	0.12612544
106	0xbe1077a6	-0.14108142
107	0xbdf649ba	-0.12025781
108	0xbdd8a03a	-0.10577436
109	0xbc0c571b	-0.008565689
110	0xbe67b7da	-0.22628728
111	0x3e52a447	0.2057048
112	0xbe1a8341	-0.15089132
113	0xbd93bd3f	-0.0721383
114	0x3d098c16	0.033580862
115	0x3cd1a928	0.025593355
116	0xbeb17d2e	-0.34665817
117	0x3de42ec9	0.11141736
118	0xbe3811f5	-0.179756
119	0xbe8da39a	-0.2766388
120	0x3eb0e37f	0.34548566
121	0x3e5b4927	0.21414624
122	0xbd41c178	-0.047303647
123	0x3cf04da2	0.029333893
124	0x3e9a2e19	0.30113295
125	0x3cbb965a	0.022898842
126	0xbd757c43	-0.05993296
127	0xbebf63bc	-0.3738078
128	0x3ed5d0e8	0.41760945
129	0x3e3c1aad	0.18369551
130	0xbe8a6c5d	-0.270358
131	0x3cacbe4f	0.02108684
132	0xbd8bc71e	-0.06825088
133	0xbe41ce65	-0.1892639
134	0x3df0ede4	0.11764124
135	0xbe31f30f	-0.17377876
136	0xbecd1a9b	-0.4005936
137	0xbe0b586e	-0.13607952
138	0xbea045c4	-0.31303227
139	0xbebfd91e	-0.37470335
140	0xbec8d59a	-0.39225465
141	0xbda0720e	-0.07834254
142	0x3dbee79d	0.093215205
143	0x3df55eac	0.11980948
144	0x3e8fb12c	0.2806486
145	0x3e6af7bc	0.22946066
146	0x3e9c4a03	0.30525216
147	0xbd78ba66	-0.06072464
148	0xbe21e2d8	-0.1580919
149	0xbe1e75d0	-0.1547463
150	0xbe7d1ac6	-0.24717245
151	0xbe265a63	-0.16245417
152	0x3d2ac156	0.041688286
153	0x3e43c1d6	0.19116911
154	0xbced9e25	-0.029006073
155	0xbe389c82	-0.18028453
156	0xbe34ae0b	-0.17644517
157	0x3d60e78a	0.054908313
158	0xbe1d88b5	-0.15384181
159	0x3e41622b	0.18885104
160	0xbd914357	-0.07092922
161	0x3d4672b8	0.048449248
162	0x3e3de426	0.18544063
163	0xbd198d67	-0.037488367
164	0xbe0a3a45	-0.1349879
165	0x3d96d018	0.073639095
166	0xbe4b4daf	-0.19853853
167	0xbc956588	-0.01823689
168	0xbbfa7459	-0.0076432643
169	0x3dc6e222	0.097111
170	0xbe76ad77	-0.24089609
171	0xbc9cb20d	-0.01912787
172	0x3da82bfa	0.08211513
173	0xbdab3391	-0.08359445
174	0xbdceb7b0	-0.10093629
175	0x3e7a1063	0.24420314
176	0x38aa09e6	8.1080754e-05
177	0x3cb2ba05	0.021817217
178	0x3e1673c7	0.14692603
179	0xbd80f571	-0.06296814
180	0xbefdac67	-0.49545595
181	0xbddb6d70	-0.10714233
182	0xbe2a920d	-0.16657276
183	0x3f144d21	0.5793019
184	0x3ea2085f	0.31647012
185	0xbd39ad50	-0.0453313
186	0x3df4681e	0.11933921
187	0xbe5c012f	-0.21484827
188	0xbd942c13	-0.07234969
189	0xbe8347c4	-0.2564069
190	0x3eb86358	0.36013293
191	0xbd21c0d6	-0.039490543
192	0x3eb36582	0.35038382
193	0xbdbe72bb	-0.09299227
194	0x3ddcf90a	0.10789688
195	0x3d934fa6	0.07192926
196	0x3e4b523a	0.19855586
197	0x3dafaea8	0.08578235
198	0x3d4d2589	0.050084624
199	0x3dafb11a	0.08578701
200	0xbcfb740e	-0.030694988
201	0xbe2eeac5	-0.17081745
202	0x3d397eed	0.04528706
203	0x3e87a210	0.2649083
204	0xbeb8615f	-0.36011788
205	0xbe546745	-0.20742519
206	0x3e1cb424	0.15303093
207	0x3e9ccb2b	0.30623755
208	0x3dde16e7	0.10844212
209	0xbe35ca10	-0.17752862
210	0xbde32be4	-0.11092356
211	0x3f033cd0	0.5126467
212	0x3b9ffca1	0.0048824106
213	0xbe73356f	-0.23750852
214	0x3e14bfb8	0.1452626
215	0xbd31981e	-0.04335796
216	0xbe87ac2b	-0.2649854
217	0xbd7d5b9d	-0.061854947
218	0xbe8780e2	-0.26465517
219	0xbdc73e78	-0.09728712
220	0xbe0ea14a	-0.13928714
221	0x3e8ca3e8	0.274688
222	0x3d0e42eb	0.034731787
223	0x3d8fe8e2	0.07026841
224	0xbeb4e42b	-0.35330328
225	0xbead65fc	-0.3386687
226	0x3e4b2ef8	0.19842136
227	0xbe678eeb	-0.22613113
228	0xbce9fc30	-0.028562635
229	0x3da661da	0.081241325
230	0x3e8d90e1	0.27649596
231	0xbc80b837	-0.01571284
232	0x3e81b48f	0.25333068
233	0xbe2862e7	-0.16443978
234	0xbe35e77d	-0.17764087
235	0xbc91fef5	-0.017821768
236	0xbea57474	-0.3231541
237	0x3e797743	0.24361901
238	0x3da8bcdc	0.08239147
239	0xbc768b71	-0.015047894
240	0x3d866881	0.06562901
241	0x3e5f240a	0.21791092
242	0x3ea766fc	0.32695758
243	0x3dc5dc74	0.09661189
244	0x3f1fd134	0.62428594
245	0xbd1e21ed	-0.038606573
246	0x3e844b81	0.25838855
247	0x3b64e270	0.0034925006
248	0xbd31d869	-0.043419275
249	0x3dd75fe8	0.105163395
250	0x3e473ec6	0.1945754
251	0xbeac2cf0	-0.33628035
252	0xbd885672	-0.06657113
253	0xbea08bb9	-0.313566
254	0xbe939b39	-0.28829363
255	0xbdc2514e	-0.09488164
