HardcoreVersion_7500_V3/critic/ppo_q_critic7500.pth (torch, 592130 bytes, 10 tensors)

l1.weight f4 [256, 28]
0	0x3dc87dc1	0.09789611
1	0x3f2aea92	0.66764176
2	0xbf286134	-0.6577332
3	0xbf574d3f	-0.84102243
4	0x3d94b18f	0.07260429
5	0xbc0fdd1f	-0.008780747
6	0x3ccdd583	0.025126224
7	0x3bb3cd09	0.0054870886
8	0x3d02c6c6	0.031927846
9	0x3a09b5fa	0.0005253252
10	0xbcd5005f	-0.026001154
11	0x3d3bb96e	0.045831136
12	0xbbd982fe	-0.00663793
13	0x3a9f5600	0.0012156367
14	0xbe04053f	-0.12892626
15	0x3def857f	0.11695384
16	0xbddb07c6	-0.10694842
17	0x3f150964	0.58217454
18	0x3f22590c	0.63417125
19	0x3e497ea4	0.19677216
20	0xbf6fef37	-0.9372439
21	0x3ee3eaca	0.44515067
22	0x3ecbbd06	0.3979265
23	0xbed0101e	-0.40637296
24	0xbd20f46b	-0.039295595
25	0xbbf0de2a	-0.007350703
26	0xbd84527e	-0.06461047
27	0xbd2b5237	-0.041826453
28	0xbf098e14	-0.5373242
29	0xbfa463f2	-1.2843001
30	0xbe8b2f99	-0.27184752
31	0x3ec82898	0.3909347
32	0xbf1e4af1	-0.618331
33	0xbe3f2c52	-0.1866925
34	0xbc7614a3	-0.015019569
35	0xbd72de20	-0.059293866
36	0xbba9131e	-0.0051597496
37	0x3cbff05c	0.023430042
38	0x3da7387b	0.0816507
39	0x3c76e6b9	0.015069657
40	0xbd76253d	-0.060094107
41	0xbaa06960	-0.0012238435
42	0xbe82b9f8	-0.25532508
43	0xbec99932	-0.3937469
44	0x3db4eef7	0.088346414
45	0xbe21c0da	-0.15796223
46	0xbce7c1da	-0.028290678
47	0xbf064cff	-0.52461237
48	0x3e428b50	0.18998456
49	0x3eebca3d	0.46052733
50	0x3e845d7d	0.25852576
51	0xbea83b0f	-0.32857558
52	0xbd31d3d7	-0.043414917
53	0x3bb45ce3	0.005504237
54	0x3d16afff	0.036788937
55	0xbdf95bd0	-0.12175715
56	0x3ed21315	0.41030183
57	0x3f3eb1a6	0.7448982
58	0xbf218f77	-0.63109535
59	0xbf9702ce	-1.1797731
60	0x3f54980f	0.83044523
61	0x3e58fed8	0.21190965
62	0x3f238d36	0.63887346
63	0x3cc702b1	0.024293276
64	0xbde6e044	-0.11273244
65	0x3d0bf230	0.034166515
66	0x3daaaafd	0.08333395
67	0xbef38211	-0.4756017
68	0x3d202a97	0.039103117
69	0x3d86d0bf	0.06582784
70	0xbe8ecac2	-0.27889067
71	0x3cac9f98	0.021072194
72	0xbd02ae9a	-0.031904794
73	0x3d49f91e	0.049309842
74	0xbb9c5098	-0.0047703497
75	0x3d9dadcf	0.07699167
76	0x3a92410d	0.0011158303
77	0xbdc08552	-0.09400429
78	0xbb2ae90a	-0.0026078844
79	0xbc14a169	-0.009071686
80	0x3e247a07	0.16062175
81	0xbd899fc2	-0.067199245
82	0x3d388b7c	0.045054898
83	0xba9a08ee	-0.0011751929
84	0xbe9dc00d	-0.30810586
85	0xbdded9ba	-0.10881372
86	0x3e8939e1	0.2680197
87	0xbe4ffd66	-0.20311508
88	0xbe272574	-0.16322881
89	0xbcb05f7a	-0.021529902
90	0xbddb4d60	-0.107081175
91	0xbc06f591	-0.0082372585
92	0xbc595dce	-0.013266994
93	0xbe1fdeef	-0.15612386
94	0x3ba10e2c	0.0049150195
95	0xbcba3363	-0.022729581
96	0xbc5fd065	-0.013660525
97	0x3c7fa671	0.015603648
98	0xbdcb18ae	-0.09916817
99	0xbbb5f4bb	-0.005552856
100	0x3dae9f55	0.08526484
101	0x3eaca08b	0.33716235
102	0x3dba3a82	0.09093191
103	0x3e086af0	0.13322043
104	0x3eb34494	0.35013258
105	0x3e0942ad	0.13404341
106	0x3eb7fb54	0.35933936
107	0xbeebebde	-0.4607839
108	0xbca5e68c	-0.020251535
109	0xb9bd63f1	-0.0003612335
110	0x3b12004d	0.0022278011
111	0xbc5bf2f7	-0.013424627
112	0x3eff3497	0.4984481
113	0x3e072825	0.13198908
114	0xbed7a7ea	-0.42120296
115	0xbf695103	-0.9113924
116	0x3d2fcd46	0.042920373
117	0xbe4ef87c	-0.20211977
118	0x3dd9dba6	0.10637598
119	0xbd0b60f3	-0.034028005
120	0x3cdc95fb	0.026926985
121	0x3ead48ba	0.33844548
122	0x3d055330	0.032550037
123	0x3e82391d	0.254342
124	0x3dfb2d57	0.12264507
125	0x3daf3c9e	0.08556484
126	0xbe3def69	-0.18548359
127	0xbdddca94	-0.10829654
128	0x3eca9598	0.39567256
129	0x3b508e79	0.0031823202
130	0x3d8ca0cd	0.06866608
131	0x3d99cbee	0.075095996
132	0xbdfc81c6	-0.1232944
133	0x3d009e51	0.031400982
134	0x3e821134	0.2540375
135	0x3e18c0af	0.14917253
136	0xbe12ce60	-0.14336538
137	0x3d4935d2	0.049123593
138	0x3dc3af2e	0.09554897
139	0xbb9ebb7d	-0.0048441277
140	0x3eb23618	0.34806895
141	0x3fa40ffb	1.2817377
142	0xbe0f7aa1	-0.14011623
143	0xbf0824e0	-0.53181267
144	0xbd790768	-0.06079808
145	0xbc8f6c60	-0.017507732
146	0xbe53edd5	-0.20696194
147	0x3b90fec4	0.0044249017
148	0xb96c0b01	-0.00022510813
149	0x3e3b11c0	0.1826849
150	0x3e093839	0.13400353
151	0xbd4d09b6	-0.05005809
152	0x3cb7f504	0.0224557
153	0x3c0d349c	0.0086185
154	0x3d9802fd	0.07422445
155	0xbdcb33b0	-0.09921968
156	0x3c58ae73	0.013225186
157	0x3e934bc6	0.28768748
158	0xbdba8752	-0.091078416
159	0xbe2bf438	-0.16792381
160	0x3e908e05	0.28233352
161	0x3eb552d8	0.35414767
162	0x3e479c02	0.19493106
163	0xbe141832	-0.14462355
164	0xbb1633ca	-0.0022919052
165	0xbd21301e	-0.03935253
166	0xbd2b7814	-0.041862562
167	0xbc4d6dbc	-0.01253837
168	0x3eba535e	0.3639173
169	0xbec1c147	-0.3784277
170	0xbc96457d	-0.018343681
171	0xbf680da3	-0.9064581
172	0xbe6824e4	-0.22670323
173	0xbccec1c5	-0.02523888
174	0xbf328a76	-0.69742525
175	0x3db30c60	0.08742595
176	0x3e0cf2f3	0.13764553
177	0x3f88c16e	1.068403
178	0x3d95cf01	0.073148735
179	0x3ec78fcf	0.38976905
180	0x3d1b7da5	0.03796162
181	0xbd599973	-0.053124856
182	0xbf206806	-0.6265873
183	0xbefd13b3	-0.49429092
184	0xbe8be5a2	-0.27323633
185	0xbebd0882	-0.36920553
186	0xbf058046	-0.52148855
187	0xbdc9c323	-0.098516725
188	0xbecb6511	-0.39725545
189	0xbed3e478	-0.41385245
190	0xbe79a829	-0.24380554
191	0x3cf43bbd	0.029813642
192	0x3d0074a2	0.03136123
193	0xbe66ad40	-0.22527027
194	0x3d47b1f4	0.048753694
195	0x3ea6ccdd	0.32578173
196	0x3c133cef	0.008986696
197	0xbf8f974b	-1.1218046
198	0x3ef4edd2	0.47837692
199	0x3fc74ce4	1.557034
200	0xbb023f81	-0.0019874277
201	0x3d8627e3	0.065505765
202	0xbe365e9f	-0.17809533
203	0x3d1ae191	0.037812773
204	0xbc626630	-0.013818309
205	0xbc5ace01	-0.013354779
206	0xbd9eb16f	-0.077486865
207	0x3df1b84a	0.118027285
208	0xbd34a942	-0.04410673
209	0xbe14a6b9	-0.14516725
210	0xbcd0ff37	-0.02551232
211	0xbd42bf26	-0.047545575
212	0xbdd39aa2	-0.10332228
213	0xbf1f7105	-0.6228183
214	0xbd2cbfd7	-0.04217514
215	0x3d951ac9	0.072804995
216	0xbe69ad07	-0.22819911
217	0x3ddb95f1	0.107219584
218	0x3b0358f3	0.0020042032
219	0x3edeefab	0.43542227
220	0x3d9f110d	0.07766924
221	0xbd05dbc8	-0.032680303
222	0x3b1db68b	0.0024065103
223	0xbd1f5088	-0.03889516
224	0x3f419660	0.7562008
225	0xbf641271	-0.8909064
226	0xbe357f90	-0.17724442
227	0xbf9edd1f	-1.2411231
228	0xbe014a73	-0.12626056
229	0x3d6d723a	0.057970263
230	0xbe387771	-0.18014313
231	0x3d17ee4f	0.037092503
232	0xbcd589c7	-0.026066674
233	0x3f891113	1.0708336
234	0xbde2e27f	-0.11078357
235	0xbee398f7	-0.4445264
236	0x3d1aa922	0.037758954
237	0x3cefadd8	0.0292577
238	0xbf4ce7ef	-0.800414
239	0xbfa71e07	-1.3056039
240	0xbeb4bfc6	-0.35302562
241	0x3e570c75	0.21000846
242	0xbe098306	-0.13428888
243	0xbf2d88b3	-0.6778671
244	0xbedb69ad	-0.42854062
245	0x3cdb9fab	0.026809534
246	0x3e0f670c	0.14004153
247	0x3e9696a9	0.2941182
248	0x3c979741	0.01850474
249	0xbcb8c759	-0.022555994
250	0x3c9cb3d6	0.019128721
251	0xbd03c49d	-0.032169927
252	0x3f552ede	0.8327464
253	0x3f95d253	1.1704811
254	0xbdf95fd2	-0.121764794
255	0x3e4fbe34	0.202874

l1.bias f4 [256]
0	0x3dfd0262	0.1235397
1	0x3e9a27f6	0.30108613
2	0x3e8bea12	0.2732702
3	0xbf0cb13d	-0.54957944
4	0xbe8145e3	-0.25248632
5	0xbf10e401	-0.56597906
6	0x3db38dcf	0.08767282
7	0x3e69c6d6	0.22829756
8	0x3e132ce9	0.143726
9	0x3cb6bfa2	0.022308175
10	0xbddecfab	-0.10879453
11	0xbe210586	-0.15724763
12	0x3ed8ca56	0.4234187
13	0x3e88e360	0.26735973
14	0x3f0c58c8	0.5482297
15	0xbe85a7fb	-0.2610472
16	0x3ea3726b	0.3192323
17	0x3e0163c3	0.12635712
18	0x3da3104a	0.07962091
19	0x3df218d9	0.118211456
20	0x3da6105a	0.081085876
21	0x3ec83cba	0.3910883
22	0xbe707174	-0.23480779
23	0xbd34647c	-0.044041142
24	0xbeb551ce	-0.35413975
25	0xbe4979b2	-0.1967533
26	0x3e4b4f44	0.19854456
27	0x3cf4a736	0.029864889
28	0x3e685efc	0.22692484
29	0x3df4d657	0.119549446
30	0x3c29f695	0.010373731
31	0xbe136ce6	-0.1439701
32	0x3e66d9d5	0.22544034
33	0x3d8cff76	0.06884663
34	0xbe64e00a	-0.22351089
35	0xba8410eb	-0.0010075843
36	0x3ed4aa6c	0.41536272
37	0x3da5539e	0.08072589
38	0x3efde36d	0.49587575
39	0xbdfab65d	-0.12241814
40	0xbe37596b	-0.17905204
41	0xbdcc15e3	-0.09965112
42	0x3e8c3f4a	0.27392036
43	0xbc8693d2	-0.016427908
44	0xbd8f06cc	-0.06983718
45	0xbe15cf53	-0.14629869
46	0x3f36a3a7	0.71343464
47	0x3e657e40	0.22411442
48	0xbe841918	-0.25800395
49	0x3e8a5b38	0.2702272
50	0x3f0d9135	0.55299693
51	0x3e975ea5	0.29564396
52	0x3e3995e7	0.1812359
53	0x3de07b7e	0.10961054
54	0x3e329e50	0.17443204
55	0x3eadd868	0.33954167
56	0x3eab1392	0.33413368
57	0x3dea797b	0.11448952
58	0xbeeb2a81	-0.45930865
59	0x3e79a6cd	0.24380036
60	0xbee740ad	-0.4516653
61	0xbea3cf7d	-0.31994238
62	0x3e802640	0.25029182
63	0xbecb5065	-0.39709774
64	0xbebd5723	-0.36980543
65	0xbeecc3bf	-0.46243092
66	0xbe045f38	-0.12926948
67	0xbe2e0422	-0.16993764
68	0x3ec03694	0.3754164
69	0x3eaf78cf	0.34271857
70	0xbedda8a6	-0.4329273
71	0xbd85dc07	-0.065361075
72	0x3f017faf	0.50585455
73	0xbe3a7356	-0.1820806
74	0xbd784103	-0.060608875
75	0xbcae4f77	-0.021278126
76	0x3ed4e768	0.415828
77	0x3e955cf3	0.29172477
78	0x3f0a0496	0.5391325
79	0x3e40e8a1	0.18838741
80	0xbed319f3	-0.41230735
81	0xbd112fa6	-0.03544583
82	0xbeb152d2	-0.346335
83	0x3e620e66	0.22075805
84	0xbef803eb	-0.4844049
85	0xbd8fc57b	-0.07020088
86	0xbe20bad4	-0.1569627
87	0xbed4d88b	-0.4157146
88	0xbda9e315	-0.082952656
89	0xbd9f3500	-0.07773781
90	0x3df1e155	0.11810557
91	0xbdbd73bd	-0.09250591
92	0xbe1633cb	-0.14668195
93	0xbed5bf3b	-0.4174746
94	0xbe65588f	-0.22397064
95	0xbdf062c3	-0.11737587
96	0xbcf854f7	-0.030313952
97	0xbdb1cbdf	-0.086814635
98	0x3e374ef8	0.17901218
99	0xbe8e27b8	-0.27764678
100	0x3ea1011a	0.31446153
101	0xbf073a87	-0.5282368
102	0xbeb18663	-0.3467284
103	0x3e44d7bf	0.19222926
104	0x3e823709	0.25432613
105	0x3f1e955a	0.6194664
106	0x3eb38ac8	0.3506682
107	0xbea36078	-0.31909537
108	0x3e7786c8	0.24172509
109	0xbe31f838	-0.17379844
110	0xbe69a0e2	-0.22815278
111	0x3dd19379	0.10233206
112	0xbe3cf0a6	-0.18451175
113	0x3eb61607	0.3556368
114	0xbc207fc3	-0.009796086
115	0xbe1840a8	-0.14868414
116	0x3dff4ab2	0.12465419
117	0x3db49348	0.08817154
118	0x3e57442c	0.210221
119	0x3e49dbc2	0.19712737
120	0xbeb9c600	-0.36283875
121	0xbe4dc734	-0.20095521
122	0x3e02ce3f	0.12773989
123	0xbe7b5cc6	-0.24547109
124	0x3e388d45	0.1802264
125	0xbeca93f2	-0.39565998
126	0xbf123713	-0.57115287
127	0x3d9d1d48	0.076716006
128	0x3eaecd30	0.3414092
129	0xbd4f44de	-0.050602786
130	0xbd5b35d4	-0.05351813
131	0x3e11e800	0.14248657
132	0xbe0214f7	-0.1270331
133	0x3e356240	0.1771326
134	0x3df5eb34	0.12007752
135	0xbd32face	-0.043696217
136	0xbec89cfe	-0.39182276
137	0xbf14b0ab	-0.58082074
138	0x3dd33fcb	0.10314902
139	0xbd9751a9	-0.07388622
140	0xbeb031e6	-0.3441307
141	0x3d706eb5	0.05869933
142	0xbe4dafee	-0.20086643
143	0xbe5403a4	-0.20704514
144	0xbe88a0bd	-0.26685134
145	0x3d0a4ce3	0.03376473
146	0xbe245159	-0.16046657
147	0x3e1005f8	0.14064777
148	0x3e4dad9f	0.20085762
149	0x3e25d792	0.16195515
150	0xbd78db8d	-0.060756255
151	0xbeb230e9	-0.3480294
152	0x3ea19bb0	0.31564093
153	0x3e0f429d	0.13990255
154	0xbe22c3b5	-0.15894969
155	0x3de08850	0.109634995
156	0xbcac8e84	-0.02106405
157	0x3f1f4e96	0.6222929
158	0xbecd6046	-0.40112513
159	0x3e7a971e	0.24471709
160	0x3d8c8f96	0.06863324
161	0xbcd00041	-0.025390746
162	0xbec1c4ca	-0.3784545
163	0x3da8862f	0.082287185
164	0x3d373e20	0.04473698
165	0xbce87ca1	-0.02837974
166	0x3ebba49d	0.36649027
167	0x3ed43b3e	0.41451448
168	0x3ec0f06c	0.37683427
169	0xbe6e3866	-0.23263702
170	0x3e8405af	0.25785586
171	0xbe82c185	-0.2553827
172	0x3d6a962a	0.057272114
173	0xbea1e961	-0.31623366
174	0xbe1dd932	-0.15414885
175	0xbe1823c1	-0.14857389
176	0xbeab8a90	-0.33504152
177	0xbccd95f4	-0.025095917
178	0xbe4996da	-0.19686452
179	0xbe141fc6	-0.14465246
180	0xbef2f374	-0.47451365
181	0xbeb5d75c	-0.3551587
182	0x3e90b822	0.28265482
183	0xbedf9129	-0.43665436
184	0xbe9320ad	-0.28735867
185	0xbd0f8fe8	-0.03504935
186	0x3ea44b57	0.3208873
187	0xbe4617d3	-0.19345026
188	0xbf08a24c	-0.53372645
189	0xbdf7abc3	-0.12093308
190	0xbe6f145a	-0.23347607
191	0x3eb80035	0.35937658
192	0xbd25cdd5	-0.0404795
193	0xbeb10917	-0.34577248
194	0xbde62077	-0.11236661
195	0xbd8d670f	-0.069044225
196	0xbdafe7a4	-0.08589104
197	0x3dbc01db	0.091800414
198	0x3ea1b0d9	0.31580237
199	0xbec42deb	-0.38316283
200	0xbf1dc229	-0.6162439
201	0xbe8c39d9	-0.27387884
202	0x3e33f802	0.17575076
203	0x3e0603d7	0.13087402
204	0x3c0593a0	0.008152872
205	0x3d4be879	0.04978225
206	0xbc8242c1	-0.015900971
207	0xbecca8a0	-0.399724
208	0x3f11a42c	0.5689113
209	0xbd8f0322	-0.069830194
210	0xbe714c76	-0.23564324
211	0x3e91a32c	0.28444803
212	0xbecc7dec	-0.3993982
213	0x3f046c65	0.51727897
214	0x3e0cb29b	0.13740008
215	0xbe723993	-0.23654775
216	0xbf2ffa23	-0.68741053
217	0x3d791353	0.060809445
218	0xbe927ba3	-0.28609952
219	0x3ea8ac36	0.32943887
220	0x3e1db2dd	0.15400262
221	0x3e10fcf3	0.14158992
222	0xbe80e072	-0.25171238
223	0x3ef0295a	0.4690655
224	0xbea4570d	-0.32097664
225	0xbec1ddbc	-0.37864482
226	0xbe308d52	-0.1724141
227	0x3d2b9685	0.041891593
228	0x3d5f3495	0.054493506
229	0x3e3cc3df	0.18434094
230	0x3edec9d0	0.43513346
231	0xbe114c8f	-0.14189361
232	0x3e1598c6	0.1460906
233	0x3e91b5ca	0.28459007
234	0x3eb9a6fe	0.36260217
235	0x3e519179	0.2046565
236	0x3ed62b37	0.41829845
237	0x3eec74fd	0.46183005
238	0x3e12cc24	0.14335686
239	0x3d33b24f	0.04387122
240	0x3e011174	0.12604314
241	0x3e697cf3	0.2280157
242	0xbdea799f	-0.11448979
243	0xbb8b2ce2	-0.004247294
244	0x3f0fc8e1	0.5616589
245	0x3eb853d9	0.3600147
246	0x3de85fa9	0.11346371
247	0x3d5f7abe	0.054560415
248	0xbd416aef	-0.04722112
249	0x3dbe5542	0.092936054
250	0xbef2cba7	-0.47421
251	0xbc9d056b	-0.019167623
252	0x3df6c5b5	0.120494284
253	0xbe6354c3	-0.22200303
254	0xbe7d22e9	-0.24720348
255	0x3e2ab542	0.16670707

l2.weight f4 [256, 256]
0	0xbd2676e7	-0.040640738
1	0x3da767a7	0.08174067
2	0x3e23c5d4	0.15993434
3	0x3d6d8be1	0.057994727
4	0x3d45e4c7	0.048313882
5	0x3eb512d2	0.3536592
6	0xbf031fb9	-0.5122028
7	0xbe25420c	-0.16138476
8	0x3e64fd91	0.22362353
9	0xbd42314e	-0.047410302
10	0xbe763740	-0.24044514
11	0x3e0ad030	0.1355598
12	0x3d943a79	0.07237715
13	0x3e2b8127	0.16748486
14	0x3b8ed84e	0.0043592816
15	0xbc6413b9	-0.013920718
16	0x3b9acb04	0.0047239084
17	0x3df39a6b	0.11894687
18	0xbea60723	-0.3242732
19	0xbf6a6e1e	-0.91574275
20	0xbe50fac8	-0.20408165
21	0x3e82f57d	0.25577918
22	0xbdac3fb2	-0.084105864
23	0xbe3280d4	-0.17431957
24	0xbec62d3b	-0.38706383
25	0xbf21a1df	-0.6313762
26	0x3f1a3676	0.6023935
27	0xbeb19ce4	-0.3469001
28	0x3e8a5687	0.2701914
29	0xbef38f97	-0.47570488
30	0x3f05b1c9	0.52224404
31	0x3d565c9a	0.052334405
32	0xbf11aae5	-0.5690139
33	0xbd7ceaa1	-0.061747197
34	0x3c0537a0	0.008130938
35	0x3e4b8c31	0.19877698
36	0xbff9ee17	-1.9525784
37	0x3cb416c5	0.021983514
38	0x3dbcbba4	0.09215477
39	0xbcecdb2a	-0.0289131
40	0x3ef695fb	0.481613
41	0xbec01e73	-0.3752323
42	0x3da0814f	0.07837164
43	0xbf298cda	-0.6623055
44	0xbd5499ec	-0.051904604
45	0xbf0d6dcd	-0.5524567
46	0x3e3a7823	0.18209891
47	0xbdaeff69	-0.08544809
48	0x3e00f558	0.12593591
49	0xbc8c70e7	-0.01714368
50	0xbf0a7e4f	-0.5409898
51	0x3d02b1f7	0.031908
52	0xbe049355	-0.12946828
53	0xbea8e6d4	-0.32988608
54	0x3ca355c8	0.019938365
55	0x3e8a679c	0.27032173
56	0xbe590578	-0.21193492
57	0xbe789834	-0.24276811
58	0xbd93bb40	-0.072134495
59	0x3dd9bef4	0.106321245
60	0xbd2723ae	-0.04080551
61	0xbb20a941	-0.0024514946
62	0xbcb4584a	-0.022014756
63	0xbc8b011a	-0.016968299
64	0x3d585208	0.052812606
65	0xbd466c99	-0.04844341
66	0xbea29aa9	-0.3175862
67	0xbf01c472	-0.50690377
68	0xbc94c740	-0.018161416
69	0x3c54ddef	0.012992366
70	0x3c1d6931	0.009607599
71	0x3ef477a0	0.47747517
72	0xbe33a6e7	-0.17544137
73	0xbd29134f	-0.04127818
74	0x395e3f94	0.00021195255
75	0xbe87cc98	-0.2652328
76	0x3e686419	0.22694434
77	0xbdd890cf	-0.10574495
78	0xbc491b46	-0.012274569
79	0x3e49623a	0.19666377
80	0x3c13be47	0.009017534
81	0xbc355181	-0.011066795
82	0x3e118389	0.14210333
83	0x3d9e6606	0.07734303
84	0xbe286705	-0.16445549
85	0x3f1174fa	0.5681912
86	0x3e505dd6	0.20348296
87	0xbe2b76e9	-0.1674458
88	0xbdb16c74	-0.08663264
89	0x3e438d36	0.19096836
90	0x3e3e65aa	0.1859347
91	0xbe4667c9	-0.19375528
92	0xbf08398d	-0.53212816
93	0x3d221fa1	0.039580945
94	0x3ce05139	0.02738248
95	0x3c3ef7d3	0.011655766
96	0x3e3caa34	0.18424302
97	0x3dcd69a0	0.10029912
98	0x3d132714	0.03592594
99	0xbcb337f6	-0.02187727
100	0x3ea394c0	0.31949425
101	0x3d51614e	0.051118188
102	0x3d0253e8	0.0318183
103	0x3d93a06a	0.07208331
104	0x3d04f16a	0.032456793
105	0xbf570a4e	-0.840001
106	0x3e416b17	0.18888508
107	0x3e1bedd2	0.1522744
108	0x3df2a40c	0.11847696
109	0xbe40f537	-0.18843542
110	0x3dd6a7ea	0.10481246
111	0x3deab28a	0.11459835
112	0x3e0e6cac	0.13908643
113	0xbe8617e1	-0.26190093
114	0x3bd18f92	0.0063952887
115	0x3b90e933	0.0044223308
116	0x3e854668	0.26030278
117	0x3ec7d4f6	0.39029664
118	0x3e5fc1d3	0.21851282
119	0xbf5217ca	-0.8206755
120	0x3ec7fce9	0.39060143
121	0xbeae2dbc	-0.34019268
122	0xbf1b6430	-0.6069975
123	0xbc7d7dda	-0.0154719
124	0xbd0c7c88	-0.03429845
125	0x3e6243d0	0.22096181
126	0x3cf065e0	0.029345453
127	0x3e1d0473	0.15333728
128	0xbdf66824	-0.12031582
129	0xbf5fa633	-0.87362975
130	0xbeef4745	-0.46734062
131	0x3d39dae4	0.045374766
132	0x3f0cecbe	0.5504874
133	0xbdbe6adb	-0.09297725
134	0x3d2710ee	0.04078763
135	0x3e72b336	0.23701176
136	0x3e25a13a	0.16174784
137	0x3dce3e30	0.10070455
138	0xbe6f9ac4	-0.23398882
139	0x3df57c00	0.11986542
140	0x3ef0648a	0.46951705
141	0xbc851d41	-0.0162493
142	0x3d1a6755	0.0376962
143	0x3d35a885	0.044350166
144	0xbf0284f2	-0.5098411
145	0x3d80f3d4	0.062965065
146	0x3d13a892	0.036049433
147	0x3e31443d	0.17311187
148	0xbfa696bc	-1.301475
149	0x3d6f6597	0.058446493
150	0xbe478b70	-0.19486785
151	0x3d61015a	0.05493293
152	0xbd03e85d	-0.03220402
153	0xbf46611c	-0.7749193
154	0x3e081a71	0.13291337
155	0xbe45ffd4	-0.19335872
156	0x3d0985f6	0.03357502
157	0xbf8ddec4	-1.1083608
158	0x3dbc0c21	0.09182001
159	0x3e1d7682	0.15377238
160	0xbd3f8b46	-0.04676368
161	0xbd0a4724	-0.03375925
162	0x3eccc357	0.39992782
163	0xbfac5749	-1.3464137
164	0x3e8f520e	0.2799229
165	0x3efb84d7	0.49124786
166	0xbb9f8886	-0.00486857
167	0xbd2e7c8e	-0.042599253
168	0x3da482b3	0.080327414
169	0x3db6bfc5	0.08923296
170	0xbc78ad02	-0.015177967
171	0x3cb6f7e2	0.022334997
172	0xbeaabe81	-0.33348468
173	0x3f36e15d	0.7143763
174	0xbead2edc	-0.33824813
175	0x3e687fe3	0.22705035
176	0xbee7913c	-0.45227993
177	0xbdda3614	-0.10654846
178	0xbeb8a248	-0.3606131
179	0xbdd2831e	-0.10278915
180	0x3e4500ba	0.19238558
181	0xbd6dda20	-0.05806935
182	0xbec78645	-0.38969627
183	0x3d97a489	0.074044295
184	0xbe496c90	-0.1967032
185	0xbca93d0b	-0.02065899
186	0x3d6f1f4c	0.058379456
187	0xbda11336	-0.07864992
188	0x3e893fe0	0.26806545
189	0xbd1f5726	-0.03890147
190	0x3e7c64b3	0.24647789
191	0xbdcf0d9d	-0.101100184
192	0xbcca802d	-0.024719322
193	0x3e02a0e3	0.12756686
194	0x3d93d192	0.07217707
195	0xbdb00065	-0.08593825
196	0xc00b0ab1	-2.1725276
197	0x3e7c5377	0.24641214
198	0x3dbb55bd	0.09147213
199	0x3e688655	0.22707494
200	0xbe39db8b	-0.18150155
201	0x3e1b6aa2	0.15177396
202	0x3be7dcae	0.0070758676
203	0xbdf6fb1c	-0.12059614
204	0x3e855dcf	0.26048133
205	0xbf344d0d	-0.7043007
206	0x3e8e4c01	0.2779236
207	0x3d100365	0.035159487
208	0xbecde106	-0.40210742
209	0xbe27988d	-0.16366787
210	0xbdcd1e72	-0.100155726
211	0xbd822770	-0.06355178
212	0xbe0c6f0a	-0.13714233
213	0x3c5c2410	0.013436332
214	0xbd77a50a	-0.060460128
215	0x3d28b324	0.041186467
216	0xbcc2570b	-0.023723146
217	0xbe55eaf5	-0.2089041
218	0x3e2de522	0.16981938
219	0xbe391607	-0.18074809
220	0xbde04ffe	-0.10952757
221	0x3e85ef48	0.2615912
222	0x3c90f615	0.017695466
223	0xbe9e1546	-0.30875605
224	0x3e6ed4cf	0.23323368
225	0x3e22f6dc	0.15914482
226	0xbd326c29	-0.04356018
227	0xbe97f3ad	-0.29678097
228	0xbc57c4d1	-0.013169483
229	0xbdbfd643	-0.09367039
230	0xbd798a91	-0.060923163
231	0xbed0b84f	-0.40765616
232	0xbe332862	-0.17495874
233	0x3e18344f	0.14863704
234	0xbee47db9	-0.4462717
235	0x3d24d9cb	0.040246766
236	0xbe76e444	-0.24110514
237	0x3da7b2db	0.08188411
238	0x3d6660ff	0.056244846
239	0xbdf11df6	-0.11773293
240	0x3e77147b	0.24128906
241	0xbe80f1b2	-0.251844
242	0x3daac2ca	0.08337934
243	0xbbf070c2	-0.0073376605
244	0xbeb9a837	-0.3626115
245	0x3ef5aad3	0.4798189
246	0x3c5c30e0	0.013439387
247	0xbf556d66	-0.83370054
248	0xbeae1f21	-0.34008124
249	0x3f0c89b0	0.54897594
250	0x3da0a6ec	0.07844338
251	0x3eadacde	0.3392095
252	0xbe591393	-0.21198873
253	0x3d047c15	0.032344896
254	0xbdfa5e0e	-0.12224971
255	0x3eba599a	0.36396486

l2.bias f4 [256]
0	0x3df11eef	0.11773478
1	0x3e060512	0.13087872
2	0x3c47ff24	0.012206826
3	0xbdf342dd	-0.118779875
4	0x3ce884c8	0.028383628
5	0x3c9fd323	0.019509858
6	0x3e4d9d3d	0.20079513
7	0xbe16ee89	-0.14739431
8	0x3da1a9f7	0.07893746
9	0xbcf0f276	-0.02941249
10	0xbdf08c3b	-0.11745497
11	0xbcdfcce5	-0.027319381
12	0x3dc31dde	0.09527181
13	0x3c94d175	0.018166283
14	0x3d54a93f	0.05191922
15	0x3d491814	0.04909523
16	0xbce4bdca	-0.02792253
17	0x3d44dc03	0.048061382
18	0x3ca80701	0.020511152
19	0xbd93cbd4	-0.072166115
20	0xbe203beb	-0.15647857
21	0x3e753f0a	0.23949829
22	0xbe30c965	-0.17264326
23	0xbd03f833	-0.032219123
24	0x3da00d17	0.07814997
25	0x3e29e706	0.16592035
26	0x3ccc543f	0.024942515
27	0x3d859c41	0.06523944
28	0x3dd82618	0.10554141
29	0xbc425f7b	-0.011863585
30	0xbe75306c	-0.23944253
31	0x3e3e7f57	0.18603264
32	0x3dfbe545	0.12299589
33	0xbde48bff	-0.11159515
34	0xbe816a93	-0.25276622
35	0xbe0e351e	-0.1388745
36	0xbd7d7b83	-0.061885368
37	0x3e160112	0.14648846
38	0x3dfc3c7d	0.12316225
39	0xbd9c4ff0	-0.07632434
40	0x3c716e99	0.014735841
41	0xbeaac314	-0.33351958
42	0x3da69b41	0.08135081
43	0xbcc30eea	-0.023810823
44	0xbde1d136	-0.11026232
45	0x3d3b1ed5	0.0456837
46	0x3dda4734	0.10658112
47	0x3e08f9c8	0.13376534
48	0x3b13f718	0.00225777
49	0xbcefc99a	-0.029270936
50	0xbcd471c5	-0.025933156
51	0x3dddbf64	0.108275205
52	0x3e052936	0.13004002
53	0xbd5b3e12	-0.05352599
54	0xbe9f834b	-0.31154856
55	0xbe1067c4	-0.14102083
56	0x3cd7b715	0.026332418
57	0x3bf34396	0.0074238284
58	0x3c818626	0.015811037
59	0x3e312cc9	0.1730224
60	0x3d39d58c	0.04536967
61	0x3d06003c	0.032715067
62	0xbe34b439	-0.17646874
63	0xbcea9618	-0.028636023
64	0x3e6f0124	0.23340279
65	0xbe4ccaf2	-0.19999292
66	0xbdaded61	-0.08492542
67	0x3e15c025	0.14624079
68	0xbe24ef5b	-0.16106932
69	0x3e3ba9bd	0.18326469
70	0x3cceaa59	0.025227712
71	0xbce21e63	-0.02760238
72	0x3cc92ea2	0.02455837
73	0x3d6e322f	0.058153328
74	0x3db989f3	0.09059515
75	0xbddb2995	-0.107012905
76	0xba358544	-0.000692446
77	0x3e178091	0.14795138
78	0xbb9381ae	-0.004501543
79	0x3dce05a2	0.10059668
80	0xbd73a445	-0.05948283
81	0xbdc632ca	-0.09677656
82	0xbc2bdacb	-0.010489176
83	0x3c7885ae	0.0151685905
84	0xbd48fc3b	-0.04906867
85	0xbcedefc3	-0.029044991
86	0x3d52cd9d	0.05146562
87	0x3cecad8f	0.028891353
88	0xbe95b072	-0.2923618
89	0xbdb637d7	-0.08897369
90	0xbd18a404	-0.037265792
91	0x3c9f470f	0.019443063
92	0x3d8e9675	0.06962291
93	0x3cfe5031	0.031044098
94	0x3d34f8ce	0.04418259
95	0x3cd7e32e	0.026353445
96	0xbbeaf6a3	-0.0071705147
97	0x3dccc195	0.0999786
98	0x3da03d67	0.078242116
99	0x3e1ebbec	0.15501374
100	0xbe1d41b4	-0.15357095
101	0xbdc19fff	-0.09454345
102	0x3e5a724a	0.2133266
103	0x3d9796b3	0.074017905
104	0xbe5abe92	-0.2136176
105	0xbdb9e57c	-0.09076974
106	0x3e3b5ab2	0.18296316
107	0xbd67c581	-0.05658484
108	0xbbcdce44	-0.0062806923
109	0xbdc6b682	-0.09702779
110	0xbbe85fc2	-0.0070914933
111	0x3e25eb8d	0.16203137
112	0x3c6c14d7	0.0144092655
113	0xbe091672	-0.13387468
114	0x3dfc01fd	0.12305067
115	0x3d4669ae	0.048440628
116	0x3da207c7	0.0791164
117	0x3ed4db32	0.41573483
118	0x3e763e0f	0.24047111
119	0xbe980ac1	-0.29695705
120	0x3de35988	0.11101061
121	0xbd0babb3	-0.034099292
122	0x3d804a7b	0.06264206
123	0xbe6c504d	-0.23077507
124	0xbe3923d1	-0.18080069
125	0xbc35d082	-0.011097075
126	0x3de8203d	0.11334274
127	0x3da32aac	0.079671234
128	0x3d9fbf32	0.078001395
129	0x3e05a3dd	0.1305079
130	0xbd729f64	-0.059234038
131	0x3d7a13ca	0.06105403
132	0xbd2d7476	-0.042347394
133	0xbde9551d	-0.11393187
134	0xbdc60415	-0.09668747
135	0xbd205280	-0.039141178
136	0x3c78c348	0.015183277
137	0xbd93ddfe	-0.07220076
138	0x3c0f00f2	0.008728253
139	0xbe12ec2f	-0.1434791
140	0xbb2a5d81	-0.0025995674
141	0xbbad6206	-0.0052912263
142	0x3d90ad66	0.07064323
143	0x3dd69b7c	0.10478875
144	0x3da512aa	0.080602005
145	0xbd586c86	-0.05283787
146	0xbdd72198	-0.105044544
147	0xbd2e4307	-0.04254439
148	0xbd5f2f35	-0.05448838
149	0x3d60c397	0.05487403
150	0x3c1e99b5	0.009680201
151	0x3d40472e	0.046942882
152	0xbd39cdf3	-0.045362424
153	0xbe9956dd	-0.29949084
154	0x3e0d3d7c	0.13792986
155	0x3cc6cde4	0.024268098
156	0x3d264e92	0.040602274
157	0x3c2d5120	0.010578424
158	0x3dfded3c	0.123987645
159	0x3a650e5d	0.0008737797
160	0x3de94a63	0.11391141
161	0x3d16f8be	0.036858313
162	0xbb9114ac	-0.004427513
163	0x3d728c67	0.05921593
164	0xbd6adaad	-0.05733745
165	0xbe323cec	-0.17406052
166	0x3cd4356e	0.025904384
167	0xbe49dd35	-0.1971329
168	0xbcd7c330	-0.02633819
169	0xbd288d96	-0.041150652
170	0x3cb39255	0.021920362
171	0xbe41c3e8	-0.18922389
172	0xbe0c68a8	-0.13711798
173	0xbafc8e4c	-0.0019268482
174	0xbd096ca4	-0.033550873
175	0xbea2d728	-0.31804776
176	0x384a92a8	4.8297137e-05
177	0xbe88d64d	-0.26726
178	0xbc3b1bdb	-0.0114202155
179	0xbd253352	-0.040332146
180	0xbe559e2d	-0.2086112
181	0xbdd03cd4	-0.10167852
182	0xbdde9d34	-0.10869828
183	0xbcb4dc10	-0.02207759
184	0x3cc89a26	0.024487566
185	0x3e16baa6	0.14719638
186	0x3d994763	0.07484319
187	0x3dbeab57	0.09310024
188	0x3df064eb	0.117379986
189	0x3d03fccc	0.032223508
190	0x3d96e1dd	0.07367299
191	0xbc4802ce	-0.0122077
192	0xbd27310f	-0.04081827
193	0x3e242341	0.16029073
194	0xbdc523b1	-0.09625948
195	0xbb6c1e49	-0.0036028794
196	0x3b8ea73b	0.0043534315
197	0xbe57e91b	-0.21085016
198	0xbcc03ae6	-0.023465585
199	0x3c3a1784	0.011358146
200	0xbd9f4f70	-0.077788234
201	0x3ccc2862	0.0249216
202	0x3ba953b1	0.0051674475
203	0x3d918e3c	0.07107207
204	0x3defb03f	0.11703538
205	0x3d36ea8e	0.044657283
206	0x3e11be64	0.14232785
207	0x3cf281f4	0.029602982
208	0xbdb080c4	-0.0861831
209	0x3d9686a4	0.073498994
210	0x3d888c0a	0.06667335
211	0xbda1dae7	-0.079030804
212	0x3d240fec	0.040054247
213	0x3df38324	0.118902475
214	0x3de88b71	0.11354721
215	0xbdc55df2	-0.09637059
216	0x3d9d6252	0.07684769
217	0x3d22b946	0.03972747
218	0xbcd98f16	-0.026557487
219	0xbe8bf44c	-0.2733482
220	0xbd5ba9f9	-0.053628895
221	0x3cb4d757	0.022075338
222	0xbdff902c	-0.124786705
223	0xbd371c23	-0.044704568
224	0x3dcd49e8	0.10023862
225	0x38e5e205	0.0001096167
226	0xbe4aa03e	-0.1978769
227	0xbdf00003	-0.11718752
228	0x3e2d0da0	0.16899729
229	0x3d16cb78	0.036815137
230	0x3d1a60e7	0.03769007
231	0xbdab53fc	-0.08365628
232	0x3de586bb	0.112073384
233	0xbce2992c	-0.027660929
234	0x3daf7a77	0.0856828
235	0x3da2392a	0.079210594
236	0xbdafecf8	-0.0859012
237	0x3d1aca96	0.037790857
238	0x3db59478	0.08866209
239	0x3c9a4d5a	0.018835712
240	0xbc5a797d	-0.013334629
241	0xbc94c416	-0.018159907
242	0xbddee399	-0.108832546
243	0x3db68698	0.089123905
244	0x3b691aeb	0.0035569023
245	0xbe19f068	-0.15033114
246	0x3db022d1	0.08600391
247	0xbe57ca9e	-0.21073386
248	0x3dd6cb85	0.10488037
249	0x3e4a944a	0.1978313
250	0xbd808c4e	-0.06276761
251	0xbd0e2be3	-0.034709822
252	0x3da57d32	0.0808052
253	0xbb98b276	-0.004659946
254	0x3c879d3b	0.016554466
255	0xbdecec3e	-0.11568497

l3.weight f4 [1, 256]
0	0xbfa5951b	-1.2936128
1	0xbfede53c	-1.8585582
2	0x3eea7ba8	0.45797467
3	0x3fb21504	1.3912663
4	0x3faf04da	1.3673356
5	0x3fb8fb9b	1.4451784
6	0x3fe5368f	1.7907275
7	0xc031b7ca	-2.7768426
8	0xbf8efe5f	-1.1171378
9	0xc036298a	-2.8462853
10	0x4014f51e	2.3274608
11	0xbfae3fdb	-1.3613237
12	0xbf9d4267	-1.2285889
13	0xc0db3acf	-6.850929
14	0xc00c3019	-2.1904356
15	0x3fbe0782	1.4846041
16	0xc09c8c23	-4.8921065
17	0x3fbda875	1.4817034
18	0xc0877b98	-4.233837
19	0x3f8d5c8f	1.1043872
20	0x3fa34873	1.2756485
21	0xbfb5ec8e	-1.4212816
22	0xc0094d82	-2.1453557
23	0x3bde7905	0.006789329
24	0xc0008228	-2.007944
25	0xbf146863	-0.5797178
26	0x3e3a701b	0.18206827
27	0xc0160f40	-2.3446808
28	0xbf934864	-1.1506467
29	0xbf62e0c4	-0.88624215
30	0x3fedbc12	1.857302
31	0xc0b605f4	-5.6882267
32	0x3ebd2417	0.36941597
33	0x3f74bb5e	0.955984
34	0x3fe80198	1.8125486
35	0x3f15cf8b	0.5851981
36	0x3f8c28de	1.0949972
37	0xbf235b90	-0.6381159
38	0xbf695b47	-0.91154903
39	0x3fe585a2	1.7931406
40	0x3ef8378d	0.48479882
41	0x3fea6d9c	1.83147
42	0xc01fd0f2	-2.497128
43	0xbf872690	-1.0558643
44	0x3f375e4e	0.7162827
45	0xbf21c27d	-0.6318739
46	0xbf937824	-1.1521039
47	0xc0a1dabe	-5.057952
48	0xbf62f56c	-0.88655734
49	0x3fd8b25c	1.6929431
50	0xc08ee7f2	-4.4658136
51	0xbf50ec69	-0.81610733
52	0xbf639f5b	-0.8891503
53	0x3f9b698b	1.2141584
54	0x4005f98b	2.093356
55	0x3f3f8f59	0.74828106
56	0x40038732	2.0551267
57	0xbff15362	-1.8853571
58	0x3faabeb6	1.333945
59	0xc0fbd161	-7.869309
60	0x3fea31b4	1.8296418
61	0x3f74e867	0.9566712
62	0x3f179811	0.5921641
63	0x3fb11bb1	1.3836576
64	0xbfa1f1e8	-1.2651949
65	0xbff0271d	-1.8761936
66	0xc041b1b5	-3.0264714
67	0xbfe6d997	-1.8035153
68	0x3f961417	1.1724881
69	0xc09e1467	-4.9399905
70	0xbfd31b59	-1.6492721
71	0x3facfe67	1.3515137
72	0x3f4bedaa	0.7965952
73	0xbfeef9cf	-1.8669986
74	0x406496d6	3.5717063
75	0x3f2b1473	0.6682808
76	0x3f170471	0.5899115
77	0xc030c302	-2.7619023
78	0x3f863a61	1.0486566
79	0x3e8078e2	0.25092226
80	0x3fd26c1e	1.6439245
81	0x3f85eff4	1.0463853
82	0xbfa70531	-1.3048459
83	0xbf63c1ce	-0.889676
84	0xbf856284	-1.042069
85	0x3f42865d	0.7598627
86	0xc0828a7c	-4.079405
87	0x3fc337e3	1.525143
88	0x3fadcbf1	1.3577863
89	0xc0f42679	-7.6296964
90	0xbc99cfce	-0.018775847
91	0x3f77c8f7	0.96791023
92	0xc03e73ed	-2.9758255
93	0x3f2eb67e	0.6824721
94	0xbfd832c9	-1.6890498
95	0xc0b86d47	-5.7633395
96	0xbfdda716	-1.7316616
97	0xbf92a1a4	-1.1455579
98	0xbf9e85cc	-1.2384582
99	0xbf59882b	-0.849734
100	0x3f1b2bc7	0.60613674
101	0x3f28c9ab	0.6593272
102	0x3f84e29b	1.0381655
103	0xbf8a369f	-1.0797919
104	0xc062fc21	-3.5466387
105	0x401bc93f	2.434158
106	0xbf48d08d	-0.78443223
107	0x3f76db17	0.96428055
108	0x3f4e2d88	0.80538225
109	0xc07c9ecc	-3.9471922
110	0xc0087de2	-2.1326833
111	0xbfc8bfc3	-1.5683521
112	0xbf8422eb	-1.0323156
113	0x3fbe8cfc	1.4886775
114	0xbfcc6b6d	-1.5970284
115	0x3f79d4b4	0.97590184
116	0x3fcc9829	1.5983936
117	0x400032b2	2.0030942
118	0xc0450fbf	-3.079086
119	0x4033833b	2.8048847
120	0x3f5506c8	0.8321347
121	0xbfaf303d	-1.3686596
122	0xbf99cfb6	-1.2016513
123	0x40221b36	2.5329108
124	0x3fc0cba2	1.5062144
125	0xc03e4341	-2.9728549
126	0xc03a75e1	-2.9134448
127	0xbf8c3b3f	-1.095558
128	0xbfb8d6bd	-1.4440533
129	0x3e8735fb	0.2640837
130	0x3f80c46f	1.0059947
131	0xbf951c02	-1.1649172
132	0x3f5dcee2	0.86643803
133	0x3ea68d02	0.32529455
134	0xbf80c15c	-1.0059009
135	0xbc87a502	-0.016558174
136	0x3eaac074	0.33349955
137	0x3fecc261	1.849682
138	0x3fab5e84	1.3388219
139	0x3f8b86c8	1.0900507
140	0x3ff6b010	1.927248
141	0xbfc0bda8	-1.5057878
142	0xc082ac65	-4.0835443
143	0xbf8be954	-1.0930581
144	0xc03f06a7	-2.984781
145	0x3fd1a620	1.6378822
146	0xc054c377	-3.3244302
147	0xc078702b	-3.8818462
148	0xc030b67d	-2.7611382
149	0x3fb792b0	1.434164
150	0x3f01ab32	0.5065185
151	0x3f0b94fc	0.5452421
152	0x3f2dbf13	0.6786968
153	0x404a123b	3.1573627
154	0xbf843063	-1.0327266
155	0x3edbd138	0.4293306
156	0x3e58da55	0.21177037
157	0x4039ed39	2.905104
158	0xbee9d531	-0.45670465
159	0x3fe48c78	1.7855368
160	0xc10b62e9	-8.711648
161	0xbf977c3e	-1.1834791
162	0xbfe0bbd3	-1.7557319
163	0xc097139d	-4.721144
164	0x3f7ae63e	0.9800757
165	0xbfc9b166	-1.5757263
166	0x3ecad676	0.39616746
167	0x3ff73a33	1.9314636
168	0x3f4ca9ed	0.79946786
169	0xc001d7f8	-2.0288067
170	0x3f59d053	0.850835
171	0x3f9995c1	1.1998826
172	0x3f2b2612	0.66854966
173	0xbf604fa7	-0.8762154
174	0x3eface71	0.48985627
175	0x3fe9733f	1.8238295
176	0x3f72154c	0.94563746
177	0x3f8d24b2	1.1026824
178	0xbf9b622b	-1.2139333
179	0x3fea8f0d	1.8324906
180	0x3f864a00	1.0491333
181	0xc04af54f	-3.1712224
182	0x3f7c1278	0.9846568
183	0xbfaefe16	-1.3671291
184	0x3edc5799	0.43035582
185	0xbf53b2bf	-0.8269462
186	0xbf6ccf3f	-0.9250373
187	0xbf92b966	-1.1462829
188	0xbf62e5e7	-0.88632053
189	0x3e0c84a7	0.13722478
190	0x3f02c885	0.5108722
191	0x3ecefff4	0.40429652
192	0xbf61174f	-0.8792619
193	0xbf3a74bf	-0.7283439
194	0x3f202071	0.625495
195	0xbfec312a	-1.8452504
196	0xc097773b	-4.7333045
197	0x3fe6c3e8	1.8028536
198	0xbfd737a8	-1.681386
199	0x3b36519a	0.0027819634
200	0x3f2944e6	0.66120756
201	0xbfe8f4f5	-1.8199755
202	0x3f4773af	0.77910894
203	0xc0974ec9	-4.7283673
204	0xc03b4496	-2.9260612
205	0xbf5b5782	-0.856804
206	0xbf97786e	-1.1833627
207	0xc0f8d378	-7.775814
208	0xbfdc90f0	-1.7231731
209	0x3f2a332a	0.6648432
210	0x3f47f550	0.7810869
211	0x3f58e897	0.84729904
212	0x3f7137cb	0.9422576
213	0xbf248588	-0.6426625
214	0xbfdfd516	-1.7486904
215	0xbffbe822	-1.9680216
216	0xc0e96406	-7.29346
217	0x3f41dcb1	0.75727373
218	0xbd484515	-0.048894007
219	0x3f8ac40b	1.0841078
220	0x3f695bfc	0.9115598
221	0x3ffb248f	1.9620532
222	0x3f71100c	0.9416511
223	0x3f276727	0.65391773
224	0x3e84e8d0	0.25958872
225	0x3f0c0c9f	0.5470676
226	0x4031f7c4	2.7807474
227	0xbfe37ee1	-1.7773095
228	0xbf828d0d	-1.0199295
229	0x3f268b18	0.6505599
230	0xbf4cd4e5	-0.8001235
231	0xc027fb4e	-2.6247134
232	0xbf70308b	-0.9382407
233	0x3f57d301	0.8430634
234	0xbf50d7c8	-0.81579256
235	0xc021706e	-2.5224872
236	0x3f541ccc	0.8285644
237	0xbfc48d65	-1.535565
238	0xbfd00379	-1.625106
239	0x3f0348ca	0.5128294
240	0xc05f1e49	-3.4862235
241	0xc0849aa0	-4.143875
242	0x3f2f62e5	0.68510276
243	0x3ecada59	0.3961971
244	0x3fb47278	1.4097433
245	0xbf9445fb	-1.1583856
246	0x3dfc73ea	0.12326796
247	0x3fc5c3cd	1.5450379
248	0xc0b593b2	-5.674279
249	0x3fd2a2e0	1.6455956
250	0x3f9f29b5	1.2434603
251	0x40479101	3.1182253
252	0xc0d40e2f	-6.6267314
253	0xbf2c56fb	-0.6732022
254	0xc0139433	-2.3059204
255	0xc04e5915	-3.2241871

l4.weight f4 [256, 28]
0	0x3d9a2143	0.075258754
1	0x3e66f598	0.22554624
2	0xbe8befcb	-0.27331385
3	0xbcc35b67	-0.023847295
4	0x3d65c273	0.056093644
5	0xbbf68f77	-0.0075244266
6	0x3c083b7a	0.008314962
7	0xbc5eb404	-0.013592724
8	0xbcbfc7c5	-0.023410687
9	0x3c6ea408	0.014565475
10	0x3c6b5ea4	0.014365826
11	0xbc5453e6	-0.012959456
12	0xbc0eabfe	-0.008707998
13	0xbc5d32cf	-0.013500883
14	0xbd9a0910	-0.0752126
15	0xbb28063f	-0.0025638489
16	0x3e46e61d	0.19423719
17	0xbe71d64f	-0.23616908
18	0x3e90d643	0.2828847
19	0x3eaa799b	0.33295903
20	0x3f45e85a	0.77307665
21	0xbf3f5938	-0.7474551
22	0x3d32507c	0.043533787
23	0xbe97b02b	-0.29626593
24	0xbb393a2b	-0.002826343
25	0xbcd86d80	-0.026419401
26	0xbc434206	-0.011917597
27	0xbb127268	-0.0022346023
28	0x3cc5ce54	0.024146236
29	0xc0014056	-2.0195518
30	0xbef7850c	-0.48343694
31	0x3f6375b5	0.8885148
32	0x3d8f0d76	0.06984989
33	0xbb4fd410	-0.0031712092
34	0x3ea8a227	0.32936212
35	0xbc601736	-0.013677409
36	0x3d0d63ee	0.03451913
37	0x3e2dbeee	0.16967365
38	0xbe1f062b	-0.15529697
39	0x3c96b435	0.018396476
40	0xbd8b78b7	-0.06810134
41	0xbcbde8a3	-0.023182219
42	0x3e97d57e	0.2965507
43	0x3e5ffa91	0.21872927
44	0xbe475e16	-0.19469485
45	0xbd4d8605	-0.05017664
46	0x3df2a928	0.1184867
47	0xbe7eae93	-0.24871282
48	0x3d98182d	0.07426486
49	0x3a7e22e0	0.0009694528
50	0xbdcb8ca4	-0.099389344
51	0xbb00904a	-0.0019617253
52	0x3e213fa6	0.15746936
53	0x3d0fc449	0.0350993
54	0x3d10a181	0.035310272
55	0xbcc5bab9	-0.024136888
56	0x3d68e76b	0.056861322
57	0x3f1c10b1	0.6096297
58	0xbd674194	-0.056459025
59	0xbe0e2a30	-0.13883281
60	0xbbd1d520	-0.0064035803
61	0x3d1861f4	0.03720279
62	0xbb11d23d	-0.0022250556
63	0x3cb8f5c5	0.02257813
64	0xbb784440	-0.0037882477
65	0xbcf35f5f	-0.029708562
66	0x3d333dc0	0.04376006
67	0x3bb3d430	0.005487941
68	0x3d0e323e	0.034715883
69	0xbb0c8dbc	-0.0021446785
70	0x3e5600e2	0.20898774
71	0x3e9ad28c	0.3023876
72	0x3de344f8	0.11097139
73	0xbf02a2b4	-0.51029515
74	0xbe4ba6b2	-0.19887808
75	0x3dffe941	0.124956615
76	0x3c137df8	0.009002201
77	0x3ed2cea1	0.4117327
78	0x3f0ddb3f	0.5541267
79	0xbea62c20	-0.3245554
80	0xbc263403	-0.0101442365
81	0x3b5e4235	0.0033913974
82	0xbc970bee	-0.018438306
83	0x3cc9ae31	0.024619194
84	0x3de385fd	0.111095406
85	0x3e8318a2	0.2560473
86	0xbdb2a943	-0.0872369
87	0xbdaa2e02	-0.083095565
88	0x3ba8bf08	0.005149726
89	0x3b531c76	0.003221301
90	0xbc9bfa83	-0.019040352
91	0x3a88cad8	0.0010436429
92	0xbb936168	-0.0044976957
93	0x3ca58a4b	0.020207545
94	0x3c8b6879	0.01701759
95	0x3c2b2f00	0.010448217
96	0x3bce4431	0.00629475
97	0xbbe8ab66	-0.0071005104
98	0xbceeb063	-0.029136842
99	0xbea0af14	-0.31383574
100	0xbd9948b1	-0.07484568
101	0x3e43ab27	0.19108258
102	0x3eaf842c	0.34280527
103	0x3f98e04f	1.1943454
104	0xbf79d9af	-0.97597784
105	0xbe647682	-0.22310832
106	0xbe87e050	-0.26538324
107	0x3e9521e7	0.29127428
108	0xbc4dc0e0	-0.012558192
109	0xbbcc30a6	-0.0062313853
110	0xbb63c34e	-0.0034753862
111	0x3bc97a6d	0.0061486275
112	0x3eb2ccd6	0.34921902
113	0x3f5b50ff	0.85670465
114	0x3e94682c	0.28985727
115	0x3f213604	0.62973046
116	0x3ead4cfb	0.33847794
117	0x3d8aa5f3	0.067699336
118	0x3e60042c	0.21876591
119	0x3c0b9eaa	0.008521715
120	0xbc0dbea2	-0.008651407
121	0x3db41494	0.087929875
122	0x3cc46146	0.023972165
123	0x3dabc8d9	0.08387918
124	0x3d247bc6	0.040157102
125	0x3d742264	0.05960311
126	0x3e6a70c6	0.22894582
127	0x3e91a7dd	0.28448382
128	0x3f09926d	0.53739053
129	0x3dde26a0	0.10847211
130	0xbe97c6ac	-0.29643762
131	0xbd7d89f7	-0.06189915
132	0x3e946172	0.28980595
133	0x3edec172	0.43506962
134	0xbf5976ac	-0.84946704
135	0x3d92356a	0.07139094
136	0x3bfb14ce	0.007662392
137	0x3d11d797	0.035605993
138	0x3cfba07e	0.030716177
139	0x3d7eb436	0.06218358
140	0x3e4e3a5d	0.20139451
141	0xbf260fcc	-0.64867854
142	0x3e42d2f9	0.19025792
143	0xbd83cdbf	-0.06435727
144	0xbe1339ca	-0.14377514
145	0xbc1abb69	-0.009444096
146	0xbe22b58f	-0.15889572
147	0x3d980b02	0.074239746
148	0xbd34d91f	-0.044152375
149	0xbe072ebf	-0.13201426
150	0xbcf006ba	-0.029300082
151	0xbdd1be9c	-0.10241434
152	0xbd95acec	-0.07308373
153	0x3c66fb20	0.014097959
154	0xbe2da857	-0.16958748
155	0x3d8b5d4c	0.06804904
156	0x3e1169f4	0.14200574
157	0xbc573b83	-0.013136747
158	0x3dac2f29	0.084074326
159	0x3cbda767	0.023151113
160	0x3e57815b	0.21045439
161	0x3e19e624	0.15029198
162	0x3ec49f31	0.38402703
163	0xbd06abb0	-0.032878578
164	0xbcffa8c2	-0.0312084
165	0xbc33bda7	-0.01097051
166	0xbc797470	-0.015225515
167	0x3ce2ef91	0.027702125
168	0xbd18dd14	-0.03732021
169	0x3f45e3ed	0.7730091
170	0x3f15fbca	0.58587325
171	0x3f2da13f	0.67824167
172	0x3dcc9611	0.099895604
173	0x3c9bca3b	0.01901733
174	0xbcb503d6	-0.022096556
175	0xbd288e77	-0.04115149
176	0xbd107872	-0.035271116
177	0x3e15c2cf	0.14625095
178	0xbd6dc2ce	-0.05804711
179	0xbdbff215	-0.09372345
180	0xbd6390e7	-0.05555811
181	0x3d0e3dea	0.034727015
182	0xb914a099	-0.00014174207
183	0xbe5a1b24	-0.21299416
184	0x3e01e295	0.1268409
185	0x3e132710	0.1437037
186	0x3e35ec4a	0.17765918
187	0xbe2918b4	-0.1651333
188	0x3d4266a6	0.047461174
189	0x3e5e4694	0.21706611
190	0x3dba0f45	0.09084944
191	0x3d4a14ab	0.049336117
192	0xbc857242	-0.016289834
193	0x3d954464	0.07288435
194	0xbbece5be	-0.007229536
195	0x3ce3759a	0.027766038
196	0x3ee1b366	0.44082183
197	0xbf9e0455	-1.2345072
198	0xbda8c93e	-0.08241509
199	0xbf2c242b	-0.6724269
200	0xbe305c59	-0.17222728
201	0xbd1c95db	-0.03822885
202	0xbb85becc	-0.0040815827
203	0xba9cf463	-0.0011974688
204	0xbcf53c75	-0.029936055
205	0x3f4b650a	0.7945105
206	0xbe2b1336	-0.16706547
207	0x3f27ceff	0.65550226
208	0x3c5151c5	0.012775843
209	0x3ea65c9b	0.32492527
210	0xbefae4c2	-0.49002653
211	0xbe9b1975	-0.3029286
212	0xbe82719b	-0.254773
213	0x3f80546f	1.0025767
214	0x3dae9415	0.08524338
215	0xbe55d895	-0.208834
216	0x3e416f24	0.18890053
217	0xbd7b29b7	-0.06131908
218	0xbe8e5d1b	-0.2780541
219	0xbd1a3d2e	-0.037656
220	0x3c8460c2	0.016159419
221	0xbcbf9f3d	-0.02339136
222	0xbdc6ea4f	-0.097126596
223	0x3b6ccd4b	0.0036133106
224	0xbda74d6e	-0.081690654
225	0xbebd0d08	-0.36924005
226	0x3f69b8ee	0.91297805
227	0x3c2868c4	0.010278884
228	0xbd1914af	-0.03737324
229	0xbcb17d17	-0.021666093
230	0x3cdf5d47	0.027266158
231	0xbc1b3986	-0.009474164
232	0xbb5cfbac	-0.0033719344
233	0xbd465239	-0.048418257
234	0x3c0a899a	0.008455658
235	0xbbbfb6d5	-0.0058506527
236	0xbc09f039	-0.00841909
237	0xbbeaaab8	-0.0071614645
238	0xbe81f4d0	-0.2538209
239	0x3e62d025	0.22149713
240	0x3f390184	0.7226794
241	0x3ee48ec9	0.44640186
242	0xbf11a0fc	-0.5688627
243	0xbe508ca8	-0.20366156
244	0xbf1157b3	-0.56774443
245	0xbe723374	-0.2365244
246	0x3d868b72	0.06569566
247	0xbe98d148	-0.2984717
248	0xbcb63d64	-0.02224607
249	0xbc932be1	-0.017965259
250	0xba5afdbf	-0.0008353851
251	0x3cbad113	0.022804772
252	0x3de55221	0.111973055
253	0x3edc88f0	0.43073225
254	0xbe950b3d	-0.29110137
255	0x3ba1686d	0.0049257786

l4.bias f4 [256]
0	0x3e96508e	0.29358333
1	0x3e952b37	0.29134533
2	0xbefc0c5a	-0.49228173
3	0x3d84bd40	0.06481409
4	0xbe8b8b88	-0.2725489
5	0xbec850cf	-0.39124152
6	0xbec063f1	-0.3757625
7	0xbe469406	-0.19392404
8	0x3e056bb6	0.1302937
9	0x3e805533	0.25065002
10	0x3d6e61b2	0.05819864
11	0x3dcc53b1	0.099769
12	0xbf01253c	-0.5044744
13	0xbdd7fd28	-0.105463326
14	0x3ed5d5dd	0.41764727
15	0xbea29986	-0.31757754
16	0xbe9f0707	-0.3106005
17	0x3d2c0c0d	0.04200368
18	0xbdfd08a0	-0.12355161
19	0xbe8e4e6e	-0.27794212
20	0xbf0afcd0	-0.5429201
21	0x3f1aa8db	0.60413903
22	0xbe23b13e	-0.15985581
23	0xbd757cb0	-0.059933364
24	0xbf1bf054	-0.60913587
25	0xbd37d2a7	-0.044878628
26	0x3c7fb844	0.015607897
27	0x3e1162b8	0.14197814
28	0xbeecfa77	-0.4628484
29	0x3e7a1df9	0.24425496
30	0xbef72d23	-0.48276624
31	0x3e117beb	0.14207427
32	0x3ebaf418	0.36514354
33	0xbe4a20a0	-0.19739008
34	0xbe366619	-0.17812385
35	0x3e467dfa	0.19383994
36	0x3d1e6626	0.038671635
37	0x3d2fbe22	0.042905934
38	0xbd5cc7c6	-0.053901456
39	0x3ed1462c	0.4087385
40	0x3e382f4e	0.17986795
41	0x3dc9a220	0.09845376
42	0x3ec717cf	0.38885352
43	0x3c6f78bc	0.014616188
44	0x3ea78504	0.3271867
45	0xbdb9f3e3	-0.09079721
46	0x3e75d62e	0.24007484
47	0x3eb9263c	0.36161983
48	0xbf242b0e	-0.64128196
49	0xbecc434b	-0.3989509
50	0xbdf22366	-0.11823158
51	0x3f142824	0.5787375
52	0x3cc1c78d	0.023654724
53	0x3e3eb42c	0.18623418
54	0x3e24c4b5	0.16090663
55	0xbbdfc90d	-0.006829387
56	0xbebcaa42	-0.36848646
57	0xbed830c7	-0.42224714
58	0xbed90b21	-0.42391303
59	0xbd769611	-0.06020171
60	0x3d927154	0.07150522
61	0x3eb5a899	0.35480192
62	0xbeff13f2	-0.49819905
63	0x3d0c6bfe	0.034282677
64	0xbd352355	-0.04422315
65	0x3d6a5e61	0.057218913
66	0x3e843c56	0.25827283
67	0xbed18fb3	-0.40929946
68	0x3e76f5c1	0.24117185
69	0x3e548222	0.20752767
70	0xbb797c7a	-0.0038068579
71	0x3e81c2e4	0.25344002
72	0x3dc12ca8	0.09432346
73	0xbe2a2793	-0.16616659
74	0x3f0f692f	0.5601987
75	0x3c8be11a	0.01707511
76	0x3d7cc779	0.06171367
77	0xbd880308	-0.06641203
78	0x3d620d04	0.055188194
79	0x3e69042d	0.22755499
80	0xbed16ce9	-0.40903404
81	0xbee50ae3	-0.44734868
82	0x3dbad1e5	0.091220655
83	0x3e753942	0.23947623
84	0xbe361cba	-0.17784396
85	0xbe4a22df	-0.19739865
86	0xbef86161	-0.48511794
87	0x3f09df1f	0.5385608
88	0x3dfae70d	0.12251101
89	0x3ea4f848	0.32220674
90	0x3c8361f1	0.016037913
91	0xbe830533	-0.25589904
92	0x3c8116d1	0.01575795
93	0xbea72756	-0.32647198
94	0xbe3ff97b	-0.18747513
95	0xbc4c55bc	-0.012471613
96	0xbd581279	-0.052751992
97	0x3d8d8d70	0.06911743
98	0x3b704a5e	0.003666542
99	0xbed1a73f	-0.4094791
100	0x3e5325ff	0.20619963
101	0xbe739a0f	-0.23789237
102	0xbd2bcc67	-0.04194298
103	0x3e648544	0.22316462
104	0xbd9dee18	-0.077114284
105	0x3e832424	0.2561351
106	0xbe9d98c9	-0.30780628
107	0xbe068bd0	-0.13139272
108	0xbe4eddfb	-0.20201866
109	0xbe1b0c73	-0.15141468
110	0xbeadf63c	-0.33976924
111	0x3e6536ac	0.22384137
112	0xbdc26610	-0.09492123
113	0xbe0abef9	-0.13549413
114	0x3da1df16	0.079038784
115	0x3c851166	0.016243648
116	0xbf0983b8	-0.5371661
117	0x3e21ec11	0.15812708
118	0xbe8716f2	-0.26384693
119	0xbeaee919	-0.34162214
120	0x3f096c4c	0.5368087
121	0x3ebabfca	0.36474448
122	0xbe2341bd	-0.15943046
123	0x3db69797	0.08915632
124	0x3ef08584	0.46976864
125	0x3c5cb553	0.013470965
126	0xbe3e032c	-0.18555897
127	0xbefa7f71	-0.48925355
128	0x3eeaccec	0.45859468
129	0x3e47be57	0.19506203
130	0xbe9c629f	-0.30543992
131	0x3cf1d693	0.029521262
132	0xbe53fade	-0.20701167
133	0xbecf3de1	-0.40476897
134	0x3e330d83	0.17485623
135	0xbe913107	-0.28357717
136	0xbf206c3b	-0.62665147
137	0xbd133405	-0.03593828
138	0xbf0737dc	-0.5281961
139	0xbece18bd	-0.4025325
140	0xbefa814e	-0.48926777
141	0xbe15e518	-0.14638174
142	0x3d4b5cf6	0.0496492
143	0xbca623c6	-0.02028073
144	0x3ede599e	0.43427747
145	0x3e5772de	0.21039912
146	0x3ec93073	0.39294776
147	0xbe15b599	-0.14620055
148	0xbe84e65f	-0.2595701
149	0xbd911f9e	-0.070861086
150	0xbdf3eb28	-0.11910087
151	0xbe6f34a5	-0.23359926
152	0xbc9a2441	-0.018816115
153	0x3e7a2cec	0.24431199
154	0xbd5828ca	-0.052773274
155	0xbe51e281	-0.2049656
156	0xbe3b19f0	-0.18271613
157	0x3c06ebf2	0.008234965
158	0xbdec7a33	-0.11546745
159	0x3e3e4bb9	0.18583573
160	0xbe81775b	-0.25286373
161	0x3ccc8bec	0.024969064
162	0x3e5dcb85	0.21659668
163	0xbe35355e	-0.17696139
164	0xbdee3330	-0.11630857
165	0xbc083d39	-0.008315378
166	0xbeb44645	-0.3520986
167	0xbd706545	-0.05869033
168	0xbe63a1b8	-0.2222966
169	0xbbbd380b	-0.005774503
170	0xbea7ac45	-0.3274862
171	0xbdbfdeba	-0.093686536
172	0x3e6b9e3b	0.23009579
173	0xbe3f9a2d	-0.18711157
174	0x3cf1312d	0.029442394
175	0x3ead469a	0.33842927
176	0x3c862103	0.016373163
177	0xbc9ef6f2	-0.019404862
178	0x3ea2e08a	0.31811935
179	0x3c509187	0.012730009
180	0xbf283fa2	-0.65722096
181	0xbe80a18f	-0.2512326
182	0xbeab8637	-0.33500835
183	0x3f69b09c	0.9128511
184	0x3ee0ac32	0.43881375
185	0x3e277897	0.16354595
186	0x3d0b2319	0.03396902
187	0xbe5d4de2	-0.21611741
188	0xbe51e8fa	-0.2049903
189	0xbeba0b86	-0.36336917
190	0x3efa6d01	0.48911288
191	0x3c580b58	0.013186298
192	0x3f00f0bb	0.50367326
193	0xbe537e03	-0.20653538
194	0x3e480ce9	0.19536175
195	0x3de11216	0.10989778
196	0x3e9a2572	0.30106694
197	0x3d3fe788	0.046851665
198	0x3e1c93f5	0.15290816
199	0x3de56845	0.112015285
200	0xbd13f58f	-0.036122855
201	0xbe6672eb	-0.22504775
202	0x3dd2a71a	0.10285778
203	0x3e842a00	0.25813293
204	0xbf130591	-0.5743037
205	0xbe724608	-0.23659527
206	0x3e1433ce	0.14472887
207	0x3ebfb777	0.3744466
208	0x3bbb1584	0.005709352
209	0xbe201aff	-0.15635298
210	0xbe645459	-0.22297801
211	0x3f0fa378	0.5610881
212	0x3d9b0d7e	0.07570933
213	0xbeb8c73f	-0.36089513
214	0x3e87c10e	0.26514477
215	0xbe65b4c3	-0.22432236
216	0xbeb4c2b5	-0.353048
217	0xbe89b0db	-0.26892743
218	0xbeb1fe3a	-0.34764272
219	0xbe312ebd	-0.17302985
220	0xbe6b0aea	-0.22953382
221	0x3eea308d	0.45740166
222	0xbda5724c	-0.08078441
223	0xbd064f7d	-0.03279065
224	0xbefdd1bd	-0.4957408
225	0xbed870f5	-0.4227368
226	0x3e739335	0.23786624
227	0xbebc2d06	-0.367531
228	0xbd8c1b1a	-0.06841107
229	0x3e7c0b1b	0.24613611
230	0x3ea87571	0.329021
231	0xbdc2e875	-0.09516994
232	0x3ec9d702	0.3942185
233	0xbe6c34c7	-0.23067008
234	0xbea23d17	-0.31687233
235	0x3dcc7b14	0.09984413
236	0xbeeea883	-0.4661294
237	0x3eaed27a	0.34144956
238	0x3a215335	0.00061540614
239	0xbd8c2de4	-0.068446904
240	0x3e1a8cd6	0.15092787
241	0x3ec1ce79	0.3785284
242	0x3efefcac	0.49802148
243	0x3e2431a7	0.16034566
244	0x3f4996e3	0.7874586
245	0x3d547724	0.051871434
246	0x3ebec30a	0.37258178
247	0xbe4d5eb9	-0.20055665
248	0xbe715027	-0.23565732
249	0x3e47b62f	0.19503091
250	0x3e513788	0.2043134
251	0xbeaf35ff	-0.34220883
252	0x3d325145	0.043534536
253	0xbe92349c	-0.28555763
254	0xbef0ce92	-0.470326
255	0xbe972801	-0.29522708
