HardcoreVersion_7500_V3/critic/ppo_q_critic3400.pth (torch, 592130 bytes, 10 tensors)

l1.weight f4 [256, 28]
000000 b6 7f 0b be 62 b1 77 3d 9b cf 27 bf 50 3e c7 be
       -0.13622937 0.0604719 -0.65551156 -0.38914728
000010 66 32 d0 3c 93 83 18 3c ea a2 bc 3c 6c 28 2f 3e
       0.025414657 0.0093087135 0.023026902 0.17105263
000020 df b0 ad 3d a3 41 fa bd be 2d 03 bd fd 32 0a be
       0.08481001 -0.122195505 -0.032026045 -0.13496013
000030 89 f0 54 bd 4c d6 f6 3d b1 4e b7 bd 9e c8 ba 3d
       -0.051987205 0.12052593 -0.08950556 0.09120296
000040 50 89 c7 3d dc 65 0e 3f fa c2 82 3e 9d 2a 33 be
       0.09742987 0.55624175 0.2553938 -0.17496724
000050 61 de f1 be d9 85 98 3e 74 da 8b 3e 17 aa 25 be
       -0.47239974 0.29789618 0.27315104 -0.16178165
000060 42 a9 f9 3d fe b9 0c 3e 10 2a 2e be 41 9a 4e bd
       0.121904865 0.13742825 -0.17008233 -0.050440077
000070 8b 19 f5 be 21 76 bf bf 3f 8f 31 be 5c 4f af 3e
       -0.4787105 -1.4957925 -0.173398 0.34240234
000080 a5 61 83 be 06 89 a5 3d 75 36 db bd 49 7a ab 3d
       -0.25660434 0.08082776 -0.10703746 0.083729334
000090 8f 66 24 3d 92 ed 1f 3e 8d 77 26 be 9a bf b3 bd
       0.04013687 0.1561797 -0.16256543 -0.087767795
0000a0 40 26 bb bd ab 2e 44 bb cd 6f 3e be 48 68 99 be
       -0.09138155 -0.0029935043 -0.18597336 -0.29962373
0000b0 1d 89 73 bd 21 81 21 be 44 26 45 bd 42 d2 6c be
       -0.059456933 -0.15771915 -0.048132196 -0.23127082
0000c0 3e ab 7b 3e d8 aa c6 3e 35 2f 5a 3e 2b 29 52 be
       0.24577042 0.38802218 0.2130707 -0.20523517
0000d0 c9 23 2c 3d fb 7b db 3d 64 dc eb 3c c5 0f 89 bd
       0.042026315 0.10717007 0.028791614 -0.06692461
0000e0 44 5d 3b 3e 03 35 6d 3f 82 23 29 bf 56 5d f9 be
       0.18297297 0.92659014 -0.66069806 -0.48704022
0000f0 47 b6 cd 3e cb 89 0a 3f 71 21 c5 3e 09 63 d9 bc
       0.4017813 0.54116505 0.38502076 -0.026536481
000100 27 b3 b6 bd 51 80 af 3d 6f ab 09 be 60 d8 b1 be
       -0.08920889 0.08569396 -0.13444303 -0.34735394
000110 b1 c2 bc bd 09 67 fe 3d d5 da 78 be 1f 62 8b 3e
       -0.09216822 0.12421996 -0.24302228 0.27223298
000120 fd 34 08 bd 6b 69 8f bc 56 0c 98 3d 7d 1c 97 3c
       -0.03325366 -0.017506322 0.07424228 0.018446201
000130 c8 b4 a8 bc 13 39 ef bd 38 13 95 bd f6 c7 b1 3c
       -0.020594016 -0.11680808 -0.07279056 0.021701794
000140 ee 89 86 3e d9 68 70 be 0e a9 72 bd 52 56 de bd
       0.26277107 -0.23477496 -0.059243254 -0.10856308
000150 56 20 ad be 7c 9c 98 be d9 6b a0 3e 48 76 79 be
       -0.33813733 -0.29806888 0.3133228 -0.24361527
000160 3b 4e 1e be a3 46 12 3d a9 80 f1 3d de 22 32 3d
       -0.1545953 0.035711896 0.11792118 0.043490283
000170 60 a8 9f 3d 5d d3 02 be 41 b0 11 be 51 ed 04 3e
       0.07795787 -0.12775941 -0.14227392 0.12981154
000180 8b fb 2b 3d 58 e1 05 3d 1e 26 18 be e3 5e da bb
       0.041987937 0.032685608 -0.1485829 -0.0066641434
000190 9f 7b f6 3d 85 d1 3a 3e c1 68 2d 3d 02 b4 b2 3d
       0.120352976 0.18243988 0.04233623 0.0872574
0001a0 62 90 4b 3e c0 04 1c 3d 72 8c 2f 3e 95 ef 6a be
       0.19879296 0.038090467 0.1714342 -0.22942956
0001b0 bb a9 12 3b 0b 6e a8 bc be 03 81 3d 36 62 82 3d
       0.0022379 -0.020560285 0.06299542 0.063663885
0001c0 b2 54 57 3e 55 a1 41 3f b3 ac 13 bf 6b a2 eb be
       0.21028402 0.756368 -0.57685393 -0.46022353
0001d0 55 c7 31 be eb ac 60 3e 7f 19 0d 3e ac 7d fb 3d
       -0.17361195 0.21940963 0.13779257 0.122798294
0001e0 45 78 6f bd 29 6d 0a 3f 2f 69 3a 3e 2f 46 82 3e
       -0.058464307 0.54072815 0.18204187 0.2544417
0001f0 f8 3b 25 3d c0 9d 34 3c ca e0 50 be f5 4b 29 3e
       0.040340394 0.011023939 -0.2039825 0.16532882
000200 33 39 58 3e 62 8b cb 3d 94 55 9a 3d 50 81 96 3d
       0.2111557 0.099386945 0.07535854 0.07348883
000210 ca 50 b4 bd 5d f5 68 3c 59 1c df 3d 4f 64 e0 3d
       -0.08804472 0.014218655 0.10894079 0.10956632
000220 e4 7f 9b 3d c1 6d 5f 3d 4e f3 19 bd 71 43 a9 3c
       0.075927526 0.05454803 -0.03758555 0.020662041
000230 c2 5d 7c 3e 71 ef 0c 3f 07 f5 c0 bd b9 8c 51 bf
       0.24645141 0.5505286 -0.09421735 -0.8185535
000240 8f 56 d8 3d 50 8a 62 3d 37 18 1d be 01 38 dd 3a
       0.10563385 0.055307686 -0.15341268 0.0016877652
000250 32 33 34 bd b9 a4 b5 3e 89 ab b0 3d 0f 2b 61 bd
       -0.043994136 0.35477236 0.08626468 -0.054972704
000260 85 29 0d 3c d4 41 1a bc 7e 86 81 3d 64 0d bd bc
       0.008615856 -0.009415109 0.063244805 -0.023077674
000270 1c 9a 68 3e e8 fe 3e 3e 1a df 3f be 32 b4 85 bd
       0.22715038 0.18651927 -0.1873745 -0.0652851
000280 34 97 38 3e 32 17 a4 3e 73 39 77 3d a9 66 34 bc
       0.1802643 0.32048947 0.060357522 -0.011010804
000290 53 2a 26 bc 5a e5 ac bc 02 1e 64 3d 26 26 8f bd
       -0.010141927 -0.021105457 0.05569268 -0.06989698
0002a0 7b 0a ac 3e c5 22 cb be 4f 0f 01 3d 97 00 fd be
       0.33601746 -0.39674965 0.03150874 -0.49414513
0002b0 0f bf 39 3e 9a 66 3a 3e 23 da 12 be f7 bd 22 3e
       0.1813929 0.18203202 -0.14341025 0.15892778
0002c0 8c d5 c2 be b4 32 ed 3e c6 a0 25 3e 4a 46 3e 3e
       -0.38053548 0.46327746 0.16174611 0.185815
0002d0 fc 55 fc 3d 49 de 73 bd dc 27 84 be 3d 8a 3f be
       0.12321088 -0.05953816 -0.2581166 -0.18705077
0002e0 ef 07 d1 bd fe 48 03 be 28 f6 0f be 84 d4 3f bd
       -0.10206591 -0.12820813 -0.14058745 -0.04683353
0002f0 bb 05 8f be c5 7a e5 bd 6e 68 17 3d db 04 ff bb
       -0.2793406 -0.11205057 0.036964826 -0.0077825612
000300 4e e0 c7 3e 8d 3c e6 bc 46 82 23 bc d1 50 9d 3e
       0.39038318 -0.028105045 -0.00997979 0.3072572
000310 e0 f7 34 be 07 b1 89 bf ec 65 21 3f ad 78 92 3f
       -0.17672682 -1.075715 0.63046145 1.1443077
000320 49 d4 2d 3e a3 ce ce 3d f4 bf 29 3d 74 b0 6e 3c
       0.16975512 0.100980066 0.041442826 0.014568437
000330 c9 37 82 bd 58 f5 2a bd e4 18 0a be f6 9b 54 3e
       -0.063582964 -0.041737884 -0.13486058 0.2076262
000340 04 23 a9 3d 71 6c 8b be a6 03 9e 3c 80 0b fb bd
       0.08258632 -0.27231172 0.01928885 -0.12258053
000350 5e 81 5e be ed ec bb be d8 94 ec 3d 8c fb ed 3d
       -0.21729037 -0.36704198 0.11551827 0.116202444
000360 18 58 d2 bc 46 62 70 3d 8b e0 33 3e 87 cd 1a 3e
       -0.025676772 0.05868747 0.17566125 0.15117465
000370 d4 ff cc 3d 42 2e 2e 3d 08 1c aa bd a7 fb 21 be
       0.10009733 0.042524584 -0.08306128 -0.15818654
000380 bd d8 0b bd d8 45 95 be 51 ee 69 3b 74 3d 40 be
       -0.034142245 -0.2915485 0.0035695026 -0.18773443
000390 dc 05 5c be 3e ea 56 bd 60 e4 a9 be 55 dc 03 be
       -0.2148661 -0.052469485 -0.3318205 -0.12877019
0003a0 61 15 ba 3c 5e fe 08 3f 6d a1 09 be 3e 13 89 be
       0.022715272 0.53513134 -0.13440485 -0.26772493
0003b0 11 d1 aa 3d a8 7d 98 be 7c 82 fb be 22 e2 bd be
       0.083406575 -0.29783368 -0.4912299 -0.37086588
0003c0 58 6e 3b be 46 af 75 3e 51 62 5b bd 2a 81 97 be
       -0.18303812 0.23992643 -0.05356056 -0.29590732
0003d0 80 85 91 be b0 82 ba bc 76 45 a1 3d 21 7e 1e 3e
       -0.28422165 -0.022767395 0.07874577 0.15477802
0003e0 2d e4 01 3d 32 b6 b5 be 0a d9 24 be 3f 93 2a 3e
       0.031711746 -0.35490566 -0.16098419 0.16657732
0003f0 6c 72 39 3f 7a 1b a7 3f af 42 87 be bb e8 46 3e
       0.7244022 1.305526 -0.26418063 0.19424717

l1.bias f4 [256]
000000 cf 05 e9 3d 30 34 22 3e 6b af 42 3e 58 9a 7f be
       0.11378061 0.1584022 0.19012229 -0.24961221
000010 e5 c4 4c be 13 18 8d be 52 c5 58 3d 5d 78 7e 3e
       -0.19996984 -0.2755743 0.052922554 0.24850602
000020 e1 37 8c 3d 3e d5 02 3d eb 41 62 bd 2a bf 15 bd
       0.068465956 0.031941645 -0.055238646 -0.03655926
000030 fe e8 37 3e 7a 8a 51 3e b1 78 a9 3e 60 c8 d1 bd
       0.17959973 0.20462981 0.33099893 -0.102432966
000040 43 c7 15 3e 14 dd 80 3e f5 0a 31 3e a4 ba 0b bc
       0.14626794 0.2516867 0.17289336 -0.008528385
000050 29 f8 0c 3e 31 26 88 3d df c1 47 be c0 10 09 3e
       0.1376654 0.066479094 -0.1950755 0.13385296
000060 59 f7 34 be 57 80 14 be ff 43 2f bc 77 cc 14 bd
       -0.1767248 -0.14502083 -0.010697364 -0.036327805
000070 a0 c1 1d 3d b3 40 a4 3c 19 c8 a1 bd 6b 0d 8a bc
       0.038514733 0.020050382 -0.07899494 -0.016852101
000080 29 df 12 bb 01 fa bf bd 5c 75 48 bc 06 23 65 bd
       -0.0022410846 -0.09373856 -0.012235012 -0.055941604
000090 80 82 3f 3e 50 6a 67 3e c6 d1 d0 3e be 0f 68 bd
       0.18702126 0.22599149 0.40785044 -0.056655638
0000a0 34 15 cb bc cd 66 10 ba a6 08 f8 3d fb 4b db bd
       -0.024790384 -0.00055084826 0.121110246 -0.107078515
0000b0 1f 11 97 3d fd 74 c7 bd 2d 14 06 3f ae f6 5c 3d
       0.073763125 -0.097391106 0.52374536 0.05394619
0000c0 16 d5 0b bc 4d c6 7f 3d f4 1a ad 3e 6b a6 69 3e
       -0.00853469 0.062444974 0.33809626 0.2281739
0000d0 1a fe bb 3d e3 6a 70 bd 5e 2a 2c 3d 1d 89 6d 3e
       0.091793254 -0.058695685 0.042032592 0.23196836
0000e0 0c 8d 7f 3e 6a ca fa 3d 95 b9 70 be 29 19 40 3e
       0.24956149 0.12245639 -0.23508294 0.18759598
0000f0 b6 e8 94 be 70 14 49 be de 3c 52 3e 0d ad 45 be
       -0.29083794 -0.19636703 0.20531031 -0.19304295
000100 2e 00 63 be 11 b7 97 be e9 d9 28 be 0d 94 00 be
       -0.22168037 -0.29631856 -0.16489376 -0.12556477
000110 44 fc 93 3e 3f b9 1a 3e 0f 1c 84 be 07 be 28 bd
       0.289034 0.15109728 -0.25802657 -0.04119685
000120 a6 69 86 3e 22 28 3d bd 65 9d 90 bc 2e d9 83 3d
       0.26252478 -0.04618085 -0.017653177 0.06437908
000130 67 82 87 3e b2 9c 87 3e 3c 34 c0 3e b2 d2 a2 3d
       0.26466677 0.26486737 0.37539852 0.07950343
000140 86 69 7d be fa 0c 98 bd 39 78 60 be a6 20 1c 3d
       -0.24747285 -0.0742435 -0.21920861 0.038117073
000150 19 97 8c be 29 6d b4 3d b4 29 0c be aa 53 a9 be
       -0.27459028 0.08809883 -0.13687783 -0.33071643
000160 55 48 28 be 18 8a 6c 3d 7a 38 36 3e 07 73 20 bc
       -0.16433842 0.057748884 0.17794982 -0.00979305
000170 9e 6c 24 3d df 7a 75 be 5a 87 56 be 3f 26 b4 bc
       0.040142648 -0.23972653 -0.2095007 -0.021990893
000180 27 e3 b3 3c 39 fc 54 3d c7 a3 e5 3c b5 03 25 be
       0.0219589 0.05199835 0.028032197 -0.16114695
000190 a8 1c 15 3d 90 2e 9e bd 83 ce 2e be 0b 54 e3 3d
       0.03640428 -0.07723725 -0.17070965 0.11100014
0001a0 4a 7f c6 bc 31 50 67 3e 84 50 3a 3e d0 69 c0 bd
       -0.024230618 0.22589184 0.18194777 -0.09395182
0001b0 4e f2 8f 3d b7 fa f1 bd 64 bd d4 bd c6 51 1f 3c
       0.07028638 -0.11815398 -0.10387686 0.009724086
0001c0 f6 23 aa bd d0 48 82 3e 7b 20 0c be 65 3f eb 3b
       -0.0830764 0.25446177 -0.13684265 0.007179188
0001d0 9c 7f a7 bd c9 4b 06 3e d3 0b 99 3c 19 cc 37 3e
       -0.081786364 0.13114847 0.018682396 0.17948951
0001e0 e2 d1 38 be 4c 50 bd bd 56 f9 3f 3e 14 2f c8 bd
       -0.18048814 -0.09243831 0.18747458 -0.097746044
0001f0 41 33 3a 3e 1c c8 4d be a0 b8 b5 be 03 5f ba 3c
       0.18183614 -0.20095867 -0.3549242 0.022750383
000200 ae 96 14 3e 43 8c 09 bd ce c7 1b bd c2 47 6b 3d
       0.14510605 -0.03358103 -0.038032345 0.05744148
000210 98 ea b0 bd d8 d4 2f 3e 03 c2 2d 3d f8 17 00 3c
       -0.08638495 0.17171037 0.042421352 0.007818215
000220 da a7 e7 bd 69 67 ac be 0f d5 ed 3d 59 4d fe bd
       -0.11311312 -0.33672646 0.11612903 -0.12417097
000230 73 3b 24 be 3a 49 8b bd 50 0e 24 bd 1a ed b8 bd
       -0.16038303 -0.06801076 -0.040052712 -0.090295985
000240 eb d2 37 3d 84 29 51 3d 21 89 b8 bd 7c 66 da 3d
       0.04487888 0.051064983 -0.0901053 0.106640786
000250 86 96 0c 3e d3 ce 15 3e 58 5d 39 bd 1d 7b 2a be
       0.13729295 0.14629678 -0.045255035 -0.16648526
000260 39 c5 49 3e 0d 1f 89 3d 8b 7c 9e bc d8 4d 97 3c
       0.1970414 0.066953756 -0.019346496 0.018469736
000270 b0 8c ad bc dd ab 23 3e 4f a7 54 be 70 c5 20 3e
       -0.02118525 0.1598353 -0.20766948 0.15700316
000280 d7 45 ec bc 4f ac 3a 3d ab a9 7b be e0 8d 27 3d
       -0.028841896 0.045574483 -0.24576442 0.040906787
000290 2c 3d 1a 3e 06 12 10 bc f4 52 3b 3e b9 95 77 3e
       0.15062398 -0.00879336 0.18293363 0.24178208
0002a0 78 2d 51 3e 7d 08 15 bd 4b 07 89 3d fc 99 f2 bd
       0.20427501 -0.03638505 0.06690844 -0.118457764
0002b0 29 85 64 3e 69 a2 28 be 2c 5d 3d bd c2 64 84 3b
       0.22316422 -0.16468205 -0.046231434 0.0040403316
0002c0 20 25 18 be 86 79 34 bd 7b 81 37 be 04 a7 ef bd
       -0.14857912 -0.044061206 -0.17920487 -0.117017776
0002d0 83 76 85 be 26 13 3c be ee f9 35 3e 8f 76 96 be
       -0.2606698 -0.1836668 0.17771122 -0.29387328
0002e0 48 a5 10 be 22 56 12 bd f3 d5 b7 3d 5e 4d 0b be
       -0.1412555 -0.035726674 0.089763544 -0.13603732
0002f0 57 70 56 be 5d 03 39 bd e1 db 84 be 0a c4 61 3e
       -0.20941292 -0.045169223 -0.25949004 0.22047439
000300 1c 16 80 3c d6 5a 37 be 03 2d 29 be 1f 84 6d 3d
       0.015635543 -0.17905745 -0.16521077 0.05798733
000310 7b 94 b0 bd 3c a5 b9 3d c0 ea 22 3e ca b5 89 be
       -0.086220704 0.09064719 0.15909863 -0.26896507
000320 5e 0c 9c be 30 c0 d0 bd ee f2 b7 3d 5c bc 47 3d
       -0.30478185 -0.10192907 0.08981882 0.048763618
000330 19 29 09 bd 98 a8 b6 bc e9 a3 63 bd e2 3b 77 be
       -0.03348646 -0.022297189 -0.05557624 -0.24143937
000340 ef 76 b6 3e 9c 41 6d 3d d1 9a b8 bd ea 21 19 3e
       0.35637614 0.057923898 -0.09013904 0.14954343
000350 65 36 72 be 73 3c 91 3e 79 77 02 3d 8e 97 ad bd
       -0.23653562 0.28366432 0.03185222 -0.084761724
000360 9e eb b4 be fa 6a 30 3e 09 f1 4a be 64 a7 96 3e
       -0.35336012 0.17228308 -0.1981851 0.29424584
000370 02 88 ce 3d ed c4 c2 3d 40 a8 73 bc 6e b9 b3 3e
       0.10084535 0.09510217 -0.014871657 0.3510241
000380 85 fa c5 bd 16 cd 4f be 26 75 0a bd 82 60 6e 39
       -0.096669234 -0.20293078 -0.033803128 0.000227334
000390 d4 09 9e 3d 20 af 03 3e 76 8d 48 3e 48 4e f4 3c
       0.07716718 0.12859774 0.19585213 0.029822484
0003a0 f3 ea d7 3d 0d c1 21 3e 69 00 ba 3e 9d 4a cc 3d
       0.1054286 0.157963 0.36328438 0.09975169
0003b0 0d 77 6e 3e 5c 0d 92 3e 06 e0 17 3c ca 59 88 3d
       0.23287602 0.28525817 0.00926972 0.06657751
0003c0 d5 5c c3 3c 4c 01 b4 3d 98 04 86 bd 82 f3 28 bc
       0.023847977 0.0878931 -0.06543845 -0.010311963
0003d0 71 25 39 3e 05 8e 5f 3e e0 37 22 3d de 40 bc 3d
       0.18080689 0.2183152 0.039604068 0.0919206
0003e0 89 f6 d8 3b 17 fc 82 3c ee 0b 63 be 33 5d 3a bd
       0.006621186 0.015989346 -0.2217252 -0.045499038
0003f0 a5 c3 14 3e 12 c7 ac bd 25 5c 09 be d4 40 8c 3d
       0.14527757 -0.08436407 -0.13414057 0.068483025

l2.weight f4 [256, 256]
000000 07 a8 cf bd e6 d8 16 be 28 e7 82 be e8 03 c1 bb
       -0.101394705 -0.14731178 -0.25566983 -0.0058903582
000010 a4 1b f3 3d b8 e1 39 3e 57 a7 e2 3b 5f ed 80 be
       0.118705064 0.18152511 0.006916921 -0.251811
000020 c4 82 0e be 82 c3 19 3e 00 18 70 be 76 06 41 3d
       -0.1391707 0.15015987 -0.23446655 0.047125302
000030 51 15 05 3e 5f 66 8b 3d 71 b4 88 bd 5f d7 1f 3d
       0.12996413 0.06806635 -0.066750415 0.039023753
000040 2f 43 80 3d be fb f9 3d 55 8b 71 bd 15 18 90 be
       0.06262814 0.12206219 -0.058970768 -0.28143373
000050 46 0e 6c 3e 1d ea 0f be b1 ca b6 bd 81 66 b5 be
       0.2305232 -0.14054151 -0.08925379 -0.35429767
000060 da 1a 2b be 01 e2 89 bd fe 01 1a bd 37 96 95 be
       -0.16709462 -0.0673256 -0.037599556 -0.29216167
000070 9b 38 3c 3d 08 21 d4 be 9a db fe 3e 42 fd 12 3c
       0.04595242 -0.4143145 0.49776918 0.008971514
000080 c0 98 ca be 1d 4d 98 be ba 61 40 3d c0 3a 85 3d
       -0.39569664 -0.29746333 0.0469682 0.06505346
000090 b3 4c 02 be 4d 20 66 bd ed ad 06 3e 66 ed f1 bc
       -0.12724571 -0.05618315 0.13152285 -0.029532146
0000a0 4b 6d 71 3b ca 8a a2 be ee 4b 09 be fb 0a e9 3c
       0.0036838825 -0.31746513 -0.13407871 0.028447619
0000b0 18 ff 3a be 54 9e ea be 4b e3 2b 3e a6 a1 2c 3d
       -0.18261373 -0.4582392 0.16785924 0.042146347
0000c0 5b df b1 bd 90 a6 dc bd e4 4c 99 bd c5 2e 53 bc
       -0.0868518 -0.10773957 -0.07485369 -0.012889569
0000d0 69 0c 6c 3d 38 fe 86 be 0c bb b6 bd c0 b5 db 3c
       0.057629023 -0.2636583 -0.08922395 0.026820064
0000e0 ab 22 54 3e 7a d5 b6 bd da 97 a0 3d 96 56 54 bc
       0.2071635 -0.08927436 0.078414634 -0.012960097
0000f0 c9 44 ad bb a9 4b 0d 3d b7 1a b3 bd 34 da 88 bd
       -0.005287741 0.034495983 -0.0874533 -0.06682244
000100 6f 3c c8 3d 37 cd 1c 3d e4 cf 56 bd 72 78 0a 3f
       0.09777152 0.038281646 -0.052444354 0.54090035
000110 a9 56 a2 bd d6 a6 65 bb 96 64 08 3d c4 50 85 bd
       -0.07926685 -0.003504207 0.03329905 -0.065095454
000120 45 37 db bd 46 7b 79 bd ad 6d 1b 3d 51 75 19 bd
       -0.10703901 -0.06090858 0.03794639 -0.037465397
000130 de f5 14 3e 37 cb c1 3c 26 2f b0 bc 10 26 56 3d
       0.14546916 0.02365647 -0.021506857 0.052282393
000140 c6 11 95 3d c4 59 40 3d 04 06 de 3d a8 d0 2f be
       0.07278781 0.046960607 0.10840991 -0.1716944
000150 69 8c 0d bc 6a 0e 0b 3c f6 c6 84 3d f4 be ca 3d
       -0.008639433 0.008487323 0.06483261 0.09899703
000160 25 43 90 bd 04 97 a3 bd 80 7d c6 be 7b 98 40 bc
       -0.07044057 -0.07987788 -0.38767624 -0.011755104
000170 3d 81 af be 62 45 e7 3c 81 ec 98 39 bd 96 93 bc
       -0.34278288 0.028231326 0.00029167908 -0.018016214
000180 41 2b 44 be 1a 31 3c 3d d1 3e 2d 3d 13 af 97 3d
       -0.19157125 0.045945264 0.042296235 0.0740644
000190 83 07 9b 3d c7 d5 37 3e 89 8d 09 3d 9e c4 52 bd
       0.07569792 0.17952643 0.033582244 -0.05145704
0001a0 68 45 da be 47 de 4a bc 31 cf c4 bd cd c7 83 3e
       -0.42631078 -0.012382097 -0.09609831 0.25738373
0001b0 73 f5 4c be 6e f2 3f be 7b 5b 4b 3e 69 a8 47 bd
       -0.20015506 -0.18744823 0.19859116 -0.048744593
0001c0 c4 b9 87 3c 4d 93 0a 3d 21 61 f2 bd 17 72 7e 3d
       0.016568072 0.033831883 -0.11834932 0.062120523
0001d0 f2 97 22 3d a2 b3 6e 3d 2b 39 c7 bd 7c 12 01 bf
       0.039695688 0.05827678 -0.09727701 -0.5041883
0001e0 8b f1 a5 3d 9e 83 97 3d 62 90 b7 bd af ef da bd
       0.08102711 0.07398151 -0.08963086 -0.10690247
0001f0 4e 34 03 3e cf 8d 09 3e 78 54 ea 3d 48 a2 41 3e
       0.12812921 0.13433002 0.114418924 0.18909562
000200 1b 50 0a be 1c 90 7e be 50 a5 2b bf 90 8c 6b bd
       -0.1350712 -0.24859661 -0.6704912 -0.057507098
000210 02 42 7b 3e a7 99 1b 3d 9c 72 5b 3c c4 68 69 3d
       0.24536899 0.03798833 0.013394024 0.056984678
000220 cb 2c 85 3d f6 11 89 3d e6 5f 93 3c a3 36 4b 3d
       0.06502684 0.06692879 0.017990064 0.049612653
000230 86 b2 64 3e 8f 0e 28 bd a7 42 52 3c e6 e7 83 3d
       0.22333726 -0.04102951 0.012833274 0.064407155
000240 b9 52 a5 bd 63 0e 6c 3e 06 e2 ce ba 5a 2a 91 bc
       -0.08072419 0.23052363 -0.0015783913 -0.01772039
000250 3e 01 14 bf 96 dc 4a bd 55 88 8b be 21 0c bc 3d
       -0.57814395 -0.049526773 -0.2725245 0.09182001
000260 51 79 a5 be f0 62 87 be fe 11 da 3d 26 ee c4 bd
       -0.3231912 -0.2644267 0.10647963 -0.09615736
000270 e2 b6 98 bc b6 66 3a 3e cc 97 ac 3d 01 c7 c3 bd
       -0.018641893 0.18203244 0.084273905 -0.09559441
000280 c0 0a 34 3d 2f 0d 00 3c 49 d3 fc bc 7a ea 9b be
       0.043955564 0.007815643 -0.030862467 -0.3045233
000290 d3 a1 6f 3c 9c 7b 09 3e 74 9a 53 3e 73 a8 cc bd
       0.014625984 0.1342606 0.20664388 -0.09993067
0002a0 ce 85 86 3c 99 ff d3 bd 95 9f c4 bd 4a c2 b3 3d
       0.016421225 -0.10351486 -0.0960075 0.08777292
0002b0 64 fd e8 3d 51 99 53 bd 0a b1 c9 bd 4a 03 a5 3c
       0.113764554 -0.051659886 -0.09848221 0.02014317
0002c0 79 0d f4 bd 7a 51 75 3d e7 f7 a1 bd 88 9f 95 3d
       -0.11916632 0.059892155 -0.07908612 0.07305819
0002d0 c1 ac 09 3e 06 3a d6 bc 3c d3 15 be 8c a0 a3 3d
       0.13444807 -0.026150715 -0.14631361 0.07989606
0002e0 39 3b 34 be 28 d5 71 bd 5c 3c 45 3e df f0 87 bd
       -0.17600717 -0.059041172 0.19261307 -0.066377394
0002f0 17 a9 89 3d 14 ac f7 3d fa 2f 18 be 53 26 13 3c
       0.067217045 0.12093368 -0.14862052 0.008981305
000300 13 4f 2d 3d e5 a0 03 3e 14 8b cc 3e 1a 32 5b 3d
       0.04231174 0.12854345 0.39949858 0.053514577
000310 9f 3e 83 bf cc c4 d6 bb 83 4f ab bc d4 50 77 be
       -1.0253485 -0.0065542217 -0.020911938 -0.24151927
000320 99 b4 12 3e c3 65 09 3d 69 cb d4 bb cb 77 4d 3d
       0.14326705 0.033544313 -0.006493975 0.05016307
000330 77 43 dc 3d b5 e7 07 bc 55 6c c6 be de ef 27 3d
       0.107550554 -0.008294989 -0.38754526 0.04100024
000340 8a 62 ce be e4 dc c9 3d cc 72 fa 3d 27 f8 4e 3d
       -0.40309554 0.09856585 0.12228927 0.050529625
000350 e4 b8 00 3d 80 25 c5 3d f1 8f f2 bd 9e 70 0d 3e
       0.031426325 0.09626293 -0.11843861 0.13812491
000360 5a bb fe 3d 37 23 ec bc b1 fa 8e 3d e9 39 dc bd
       0.12438078 -0.028825385 0.06981409 -0.10753233
000370 57 81 03 be e1 15 b1 bd 43 6b e3 3e c7 55 6c bb
       -0.12842308 -0.08646751 0.44417772 -0.003606187
000380 e3 86 e0 3d 68 dc e8 3d 98 c0 de bd a8 f4 a1 3d
       0.109632276 0.11370164 -0.10876578 0.079079926
000390 65 23 98 bd 2b 1a 27 be ce ae 72 be 9b 8a c7 be
       -0.07428626 -0.16318576 -0.23699495 -0.38972935
0003a0 68 d6 94 bb 12 5f 9b 3e d0 51 b3 3d 3a 0c 82 3d
       -0.004542161 0.3034597 0.08755839 0.06349988
0003b0 63 90 92 3e c8 5d 29 3d a8 e8 d4 3d 64 f0 14 be
       0.28625783 0.041349202 0.10395938 -0.14544827
0003c0 59 0b b0 3e 5e 2a 58 be 33 83 93 bd 57 92 b7 3d
       0.34383658 -0.21109912 -0.07202759 0.08963459
0003d0 1e d8 b0 be 3d ed ae 3c ea 75 79 3c 3c 20 ab be
       -0.34539884 0.021353358 0.015225867 -0.3342303
0003e0 96 d0 29 be 82 27 81 3e a1 dd bd bd 7c c4 f9 3d
       -0.16583475 0.25225455 -0.09270788 0.121956795
0003f0 f7 9b 48 bd cd 6c db bb 24 a8 47 3d 3d 5c 0b be
       -0.048976865 -0.0066963197 0.048744336 -0.13609405

l2.bias f4 [256]
000000 ee d6 2b 3d 90 40 b9 3d 77 d2 8d 3c f5 5c 97 bd
       0.04195302 0.090455174 0.017312272 -0.07390777
000010 8c c9 c6 bc 28 37 cc 3d 11 d6 82 3d 30 76 6f bd
       -0.024266027 0.09971458 0.06388486 -0.05846232
000020 1d ac 5b 3d 3e 60 12 3d d7 75 85 3c ea 0f 46 bb
       0.053630937 0.035736315 0.016291542 -0.0030221888
000030 ca 9e 7d 3d 2c fa 09 3d cb 4e 5f 3c 2c 8c d8 bc
       0.06191901 0.033685848 0.013629626 -0.026434027
000040 a3 dc e1 bb d1 76 30 bd 15 35 5f 3d 86 19 49 3d
       -0.006892757 -0.043082062 0.054493982 0.049096607
000050 09 cd 96 bd 38 2c ea 3d 24 f9 0f 3d 17 f3 ee bc
       -0.07363326 0.11434215 0.03514971 -0.029168649
000060 6b 06 9b 3c db 78 f1 3d 4f b3 a6 bc 51 72 42 3d
       0.018923959 0.117906295 -0.020349173 0.047472302
000070 5a 40 80 3d e0 4e 74 bd 1f 4d 96 bd e9 81 f5 3c
       0.06262274 -0.059645534 -0.073389284 0.029969173
000080 bb aa 46 3d a3 ab 67 bd 6d bc 23 be 5f 3a bf bd
       0.048502665 -0.05656017 -0.15989847 -0.09337305
000090 d3 1a 0a 3d 1e 07 bd 3d 5b 8a 58 3d 44 85 fc bc
       0.033716988 0.09229873 0.05286632 -0.030825265
0000a0 02 28 ec 3c 95 bd 2a be cf 57 41 3d ce 8e e0 bd
       0.028827671 -0.16673882 0.04720288 -0.10964738
0000b0 6a 97 a4 bd 26 00 ca bc fd c3 c4 3d 89 e7 a3 3d
       -0.080366924 -0.024658274 0.09607694 0.08003146
0000c0 fb 6e cc 3b 7c 07 30 3c ef ed 48 3c 04 7e e0 3b
       0.006238816 0.010743972 0.012263759 0.0068509597
0000d0 0c 6d b4 3c 33 cb 9d 3d 0d 99 2b be d5 17 a2 bd
       0.022024654 0.07704773 -0.16757603 -0.07914702
0000e0 3c c7 2d 3d 6d f0 fa 3c 5b e1 18 bd 2a 72 9a 3d
       0.042426333 0.030632222 -0.03732429 0.07541306
0000f0 a9 eb c9 3c 32 b8 69 3c f8 29 e7 bd 44 68 25 3d
       0.024648504 0.014265107 -0.11287302 0.04038264
000100 7c 1e bc 3d 52 1c e0 bb 96 96 55 bd f4 e7 2b 3d
       0.09185502 -0.0068393135 -0.052145563 0.041969255
000110 85 5d 80 bd 4c f2 8c 3d 5d b9 76 3d 42 bc c6 3c
       -0.062678374 0.06882152 0.06023537 0.02425969
000120 f9 78 37 3c f2 fd 24 3d f4 77 04 3e cf 40 fb bc
       0.011198276 0.040281244 0.12936383 -0.030670552
000130 28 6a 2c 3c d2 16 a0 3d 10 28 0c bd 54 a4 8b 3d
       0.0105233565 0.07816853 -0.034217894 0.068184525
000140 fe b7 56 bc 72 7d a5 bd 65 5a 34 bd 8a f5 f1 3c
       -0.013105391 -0.080805674 -0.04403152 0.029536027
000150 6f a9 b4 bb 5d a3 95 bd 20 24 75 3d 5d 24 54 bd
       -0.005513362 -0.0730655 0.059848905 -0.05179249
000160 5f 7f 1b be fd 43 a0 bd 04 a4 18 bd da 33 0f bd
       -0.15185307 -0.07825468 -0.037265792 -0.03496156
000170 52 9c 80 3c bc 1d 3f b9 1e 21 65 3d 37 77 1c 3d
       0.01569954 -0.00018226256 0.055939786 0.03819963
000180 a4 b7 0d 3d 0a 3f 29 bc 33 ab 06 3d ae 54 a3 3d
       0.03459896 -0.010329971 0.032878112 0.07975136
000190 e1 51 7e bd 8a 61 8d bd 84 a9 1d 3e 82 bb 16 bb
       -0.062089805 -0.0690337 0.15396696 -0.0022999947
0001a0 fc cf 12 3c d0 cf 8b bd 77 e7 bc 3d 10 d1 89 bd
       0.00896072 -0.068267465 0.09223836 -0.06729329
0001b0 ff 91 0e bd f1 28 fd bc 90 1d 17 bd f9 fe ac 3d
       -0.0348072 -0.030903311 -0.036893427 0.0844707
0001c0 31 10 69 bd 1d 77 0a bd c1 27 b5 3c a4 e8 c6 3c
       -0.056900207 -0.033805 0.022113683 0.024280854
0001d0 6d 88 45 3d 4b 6b 22 3d c8 66 43 3e 11 e0 12 be
       0.04822581 0.039653104 0.19082177 -0.14343287
0001e0 57 d3 93 3c d1 90 f4 3c 8a 16 a6 bc fd c5 c6 bd
       0.01804511 0.02985421 -0.02027442 -0.09705732
0001f0 e1 69 cd bd f0 51 b8 bc 9a a3 2e 3d cc ce 97 bc
       -0.100299604 -0.022500008 0.04263649 -0.018531226
000200 b0 77 fd 3d c6 f2 a5 3d 54 b2 f3 3c 00 83 b9 3d
       0.12376344 0.08102946 0.02974812 0.090581894
000210 42 83 8e bd ae 59 94 bd 32 9d 0a bd 43 f9 0d bd
       -0.06958629 -0.072436675 -0.03384132 -0.034661543
000220 b4 49 2e bd b9 8b 6c 3c 60 1c 82 3d 70 60 a9 bd
       -0.042550758 0.014437609 0.06353068 -0.08270347
000230 87 19 b9 3c 91 69 0a 3e a4 28 2f 3c d3 d2 d1 3c
       0.02259518 0.13516833 0.010690842 0.025613224
000240 a5 2a 8c 3c 43 e3 02 bd 25 fb dd bc 29 ce fd bd
       0.017110178 -0.031955015 -0.027097294 -0.123928376
000250 92 18 a1 3d 06 9d d6 3b ff 05 2a 3c 95 97 13 3d
       0.078660145 0.0065494804 0.010377406 0.03603323
000260 3f 2c a9 bd 8f 0d 7d bd 10 2c d8 3d a1 5f d8 bc
       -0.082603924 -0.06178051 0.10555279 -0.026412787
000270 f7 51 2e bc 27 f6 62 3d 67 1f 94 3d 16 cd d4 39
       -0.010639659 0.05541053 0.07232552 0.00040588592
000280 30 df b5 bc 54 60 0c bd 27 4e 86 3d 7c be 8d bc
       -0.02220115 -0.034271553 0.06557875 -0.017302744
000290 ea 88 6b bd eb 4d e3 bc c7 83 86 bc 05 39 3b bd
       -0.05750362 -0.027747115 -0.016420258 -0.045708675
0002a0 dc 3f 84 bd 19 1a 62 bd da 65 61 3d 2c 9e 51 bc
       -0.06457493 -0.05520067 0.055028774 -0.012794059
0002b0 75 a8 e6 bd 25 50 ae 3c 15 6d 34 bd 5b 7d 4e be
       -0.112625994 0.02127845 -0.04404934 -0.20165007
0002c0 f4 4a 9a bd bd dd 10 be eb 52 2c bd 9a a5 5d bc
       -0.075338274 -0.14147086 -0.042071264 -0.013528252
0002d0 8f 44 d5 bd 0f 8c 78 bd 29 7e ac bd 07 a1 cf bb
       -0.10413467 -0.060680445 -0.08422501 -0.0063363346
0002e0 fc 30 07 3d 28 3e fc 3d 44 4c cf 3b e8 07 2a 3d
       0.0330057 0.12316543 0.0063262302 0.041511446
0002f0 33 e6 ef 3c 1a f0 24 3c 5b 62 c7 3c 24 fe cd bc
       0.029284572 0.01006701 0.024338892 -0.025145598
000300 4a 2d 9d 3c 0b 71 c3 3d aa a9 64 bd 65 8f 07 bd
       0.019186635 0.095430456 -0.055825867 -0.033095736
000310 c4 7b e2 bd 64 24 8c bd 51 e4 aa bc c3 f2 69 3c
       -0.11058763 -0.068428785 -0.020860823 0.01427907
000320 8b ad ac bd ab e1 ce 3c dd 02 17 bd d7 c7 48 3d
       -0.08431538 0.025254091 -0.036867965 0.049018707
000330 a3 fa 1c 3e 1d 71 fa 3c 3a 09 b2 3d db 81 8a bc
       0.15329985 0.030571515 0.08693166 -0.016907623
000340 97 2e 40 bd a1 43 f2 3c d1 63 68 bc 62 c3 23 bd
       -0.04691943 0.029573264 -0.014183954 -0.039981253
000350 cb c2 a5 bc db cf f2 3c be be 04 3d f0 e6 0b bc
       -0.020234486 0.029640129 0.03240847 -0.0085389465
000360 64 d8 a3 bd 84 b7 85 3c 16 8f d9 bc d6 4d e0 bd
       -0.080002576 0.016322859 -0.026557487 -0.10952346
000370 7e 31 71 bc a7 30 0d bd 02 4d eb bd 6c 8c 92 bd
       -0.0147212725 -0.034470227 -0.114892974 -0.071556896
000380 37 87 59 3d 1a 37 fd bc 62 64 1a be 05 50 d5 ba
       0.053107467 -0.030910064 -0.15077356 -0.0016274458
000390 78 2b ce 3d f9 0c 88 bc 2a 8c b5 3d 28 3a ab bc
       0.10066885 -0.016607748 0.08864625 -0.020901754
0003a0 63 73 8a 3d e2 88 3f 3a af 09 00 bd 02 cb 11 bc
       0.067602895 0.0007306469 -0.031259235 -0.0088984985
0003b0 6a f1 00 bd d2 b0 2c 3d 68 5b b4 bc 4d 7b f2 bc
       -0.03148023 0.042160816 -0.022016242 -0.02959981
0003c0 2b d5 6c bb 56 a5 36 bd d5 79 97 bc 95 c8 81 3d
       -0.00361378 -0.04459127 -0.018490711 0.06337086
0003d0 11 ea 5b 3d bb 47 d8 3c 60 ba 31 3d eb b0 d9 bd
       0.05369002 0.026401391 0.04339063 -0.106294475
0003e0 4d ee 6b 3b da 11 cd 3d 46 c3 89 3d eb 01 e0 bc
       0.0036000193 0.100131705 0.067266986 -0.027344665
0003f0 cd e7 89 3c 56 0a a1 3c 69 91 da 3c 32 f2 03 bd
       0.016834164 0.019658249 0.026680665 -0.032213397

l3.weight f4 [1, 256]
000000 01 72 a0 bf ba 30 17 bf 97 2c d7 3e 80 62 4c 3f
       -1.2534791 -0.59058726 0.42026207 0.798378
000010 90 6c 38 3f a0 d8 7a 3f e9 1b 5c 3f 29 66 14 c0
       0.72040653 0.97986794 0.8598009 -2.3187354
000020 7b 13 26 bf d5 2d 8a bf b4 cb 70 3f 8d d7 1a bf
       -0.64873475 -1.0795237 0.94060826 -0.60485154
000030 49 43 7c bf 2d 6c fa bf 2a a1 68 bf 50 7d 8d 3f
       -0.9854017 -1.9564263 -0.90870917 1.1053867
000040 a5 b3 a6 bf d0 60 0e 3f de 0f 9c bf e6 5f 8f 3f
       -1.3023573 0.55616474 -1.2192342 1.1201141
000050 31 b4 35 3f 67 78 8d bf 36 0a d9 bf 97 42 20 3c
       0.70978075 -1.1052369 -1.6956241 0.009781501
000060 8f 94 4c bf 23 fd 8e be e2 f1 28 3e 7c 35 9b bf
       -0.7991418 -0.27927503 0.16498521 -1.2125697
000070 01 51 4a bf d0 18 1f bf a0 aa 26 3f 15 a5 f8 bf
       -0.7902985 -0.62147236 0.65104103 -1.9425379
000080 82 9d 96 3e 6e 2d 18 3f b8 cb 8f 3f d6 12 12 3f
       0.29417044 0.5944432 1.1234045 0.5705999
000090 ff 5f 59 3f 1e dd b4 be e7 22 e7 be 05 3e 35 3f
       0.84912103 -0.3532495 -0.45143816 0.7079776
0000a0 5f 2c bb 3e 99 54 1b 3f f9 e9 d2 bf d4 ce 83 bf
       0.3655729 0.6067596 -1.6477653 -1.0297494
0000b0 6d de ac 3e e4 8d b4 be fb 51 67 be 0c c1 82 bf
       0.33763447 -0.35264504 -0.22589867 -1.0215163
0000c0 64 24 13 bf 01 40 91 3f 6f 3f 9e bf b0 e2 68 be
       -0.574774 1.1347657 -1.2363108 -0.22742724
0000d0 a4 b2 59 bf e1 2b 89 3f fe 13 71 3f 0c eb 03 3f
       -0.8503821 1.0716516 0.9417113 0.5153053
0000e0 df 1f 44 3f 65 39 80 bf 05 43 18 3f 13 db cb bf
       0.7661113 -1.0017515 0.59477264 -1.5926231
0000f0 a8 e6 38 3f 11 fe f9 3e 6f ee db 3e 36 f3 8d 3f
       0.72226954 0.4882665 0.42955348 1.1089847
000100 fa 58 18 bf 71 34 a6 bf 8e fd ec bc b1 6d 4d bf
       -0.5951077 -1.2984754 -0.028929498 -0.802455
000110 fd d8 2b 3f 55 af 6e bf b9 96 2d bf 5a f1 61 3f
       0.6712797 -0.93236285 -0.6780811 0.882589
000120 5e 41 c3 3e ac 46 9e bf 97 fc a7 3f b3 59 12 3f
       0.3813581 -1.2365317 1.3123959 0.5716812
000130 52 a3 c8 3e 63 68 25 bf 3a f0 78 3f b2 56 75 3e
       0.39187104 -0.64612406 0.97241557 0.23958853
000140 19 98 9f 3f 63 94 1a 3f 10 c9 3d bf ae 54 1e bf
       1.2468292 0.6038267 -0.7413492 -0.6184796
000150 b0 bf 53 bf 11 27 0f 3f e0 f2 62 bf 01 86 2d 3f
       -0.82714367 0.55918986 -0.8865185 0.677826
000160 be c2 41 3f 55 3b 29 c0 ce cf 99 bc 86 4d 01 3f
       0.7568778 -2.6442463 -0.018775847 0.50508916
000170 9b c6 36 bf 95 14 14 3f e7 e3 0b bf ba 18 63 bf
       -0.713968 0.57843906 -0.54644626 -0.88709605
000180 d9 25 d6 be 88 db 74 bf f5 54 87 bf 2e 78 23 bf
       -0.4182575 -0.9564748 -1.0572802 -0.63855255
000190 5f 12 95 3e 89 9b c0 3e cd 8d 31 3f f4 cc 15 bf
       0.2911558 0.37618664 0.69356996 -0.5851586
0001a0 63 d3 ca bf 28 49 2d 3f f4 ff d3 be 83 4b ee 3e
       -1.584576 0.6768975 -0.41406214 0.46541986
0001b0 52 f8 11 3f 8d 8c 74 bf 49 51 93 bf 62 8d 4c bf
       0.5701953 -0.95526963 -1.1509181 -0.79903233
0001c0 6a 30 25 bf 27 98 82 3f 3b 87 eb be a4 db 46 3f
       -0.64527 1.0202683 -0.4600161 0.77678895
0001d0 62 d4 51 3f e3 b1 7c 3f f7 52 00 c0 32 9e c6 3f
       0.81964695 0.98708934 -2.0050638 1.5517027
0001e0 d5 8f d8 3e f6 3f c4 be a2 0d 12 bf 7d de 5a 3f
       0.42297235 -0.38330048 -0.5705205 0.8549574
0001f0 8c e4 4d 3f d1 bf 54 bf b0 01 4c bf c7 78 5c bf
       0.8042686 -0.8310519 -0.79690075 -0.8612179
000200 4f ae 22 bf 4b d8 7b 3e 5e 48 e5 3e dc 3a b8 be
       -0.63547224 0.24594228 0.44781774 -0.35982406
000210 9b f1 28 3f 55 95 81 3e b4 06 02 bf 33 29 a7 bc
       0.6599366 0.25309244 -0.5079148 -0.020405388
000220 98 1e a0 3e 56 c8 14 3f 63 32 27 3f ab ab 6b 3f
       0.3127334 0.5811819 0.6531126 0.9205882
000230 14 85 9a 3f 29 a2 54 bf e6 27 0e c0 3a cc 87 bf
       1.2071862 -0.83059937 -2.2211852 -1.06092
000240 69 5a a6 bf 4a cf 3f 3f 59 2c 22 bf a5 20 25 c0
       -1.2996341 0.74925673 -0.6334892 -2.5801175
000250 5d 52 97 bf 06 2f ef 3e 32 4e 9f 3e 33 9a d8 3e
       -1.182201 0.46715564 0.31114346 0.42305145
000260 04 e8 e6 3e 97 4c 9f 3f 49 36 9f be 73 3e b6 3e
       0.4509889 1.2445248 -0.31096104 0.3559452
000270 c6 e5 46 3e bf 17 a5 3f 19 87 65 be 08 1c 9d 3f
       0.19423589 1.2897872 -0.22414817 1.227418
000280 2d 20 83 bf a4 77 8f bf ab 3a 4e bf 23 00 bf bf
       -1.0244194 -1.1208386 -0.8055827 -1.4921917
000290 dd 65 d4 3e 07 19 37 bf 54 a2 b6 3e 3e de 90 3f
       0.41483966 -0.71522564 0.35670722 1.1317823
0002a0 ec 85 15 3f 7c 17 56 bf 4b 0b 0e 3f e8 a4 f8 3e
       0.58407474 -0.83629584 0.5548598 0.48563313
0002b0 72 97 14 3f 40 2a 8c be b7 29 da 3e b6 e9 c1 3f
       0.5804359 -0.27375984 0.4260995 1.5149448
0002c0 b0 27 3c 3f dc 87 3d 3f 93 d7 44 bf 3d 2b e4 3e
       0.7349806 0.7403543 -0.7689144 0.44564238
0002d0 b0 af 11 3f 9d df 21 c0 bd 52 ac 3e fa 2d 91 bf
       0.569087 -2.5292733 0.33656874 -1.1342156
0002e0 34 b8 d0 3e 45 68 02 bf 73 c2 ff be 9b 70 4b bf
       0.40765536 -0.5094035 -0.4995304 -0.794687
0002f0 c6 ec df be e4 dd fe 3d 50 74 da 3e 09 32 94 3e
       -0.4373533 0.12444666 0.42666864 0.28944424
000300 60 ac fc be 8c 36 59 be 8e e7 a5 3e dd cf 5d bf
       -0.49350262 -0.21212214 0.32403225 -0.866453
000310 bd 1a b4 bf 04 1e 90 3f d3 28 4e bf 82 c5 86 b9
       -1.407066 1.125916 -0.8053104 -0.00025705626
000320 71 9d df 3e 52 a5 50 bf 91 9b 46 3f 97 2e 02 c0
       0.43674806 -0.8150226 0.77581125 -2.0340936
000330 00 7f ff bf c0 e4 f0 be d8 8f 40 bf 41 c4 e7 bf
       -1.9960632 -0.47049522 -0.7521949 -1.8106767
000340 61 cf 3e bf a9 16 b3 3e 2e 8a cd 3e bc cb 03 3f
       -0.74535185 0.34978226 0.40144485 0.5148275
000350 e3 a8 6c 3b c0 7b ab be 2e df 96 bf a5 3a 40 bf
       0.0036111407 -0.3349285 -1.1786859 -0.75089484
000360 0c d4 04 c0 3f cd 87 3e 15 45 48 bd da e1 47 3f
       -2.0754423 0.26523778 -0.048894007 0.78079
000370 d6 51 78 3f 6e 50 82 3f e2 14 58 3f dc e8 17 3f
       0.9699987 1.0180795 0.84406865 0.5933969
000380 83 d9 73 3e 5c 2a ae 3e 3b 41 b2 3f af 4a 26 bf
       0.23813443 0.34016693 1.3926157 -0.6495771
000390 54 64 2b bf 7b 9c b0 3e 79 7d d6 be 80 58 9a bf
       -0.66949964 0.34494385 -0.41892603 -1.2058258
0003a0 54 42 56 bf c7 0a f7 3e d0 5b b5 be 92 4b 25 bf
       -0.8369496 0.4825041 -0.3542161 -0.64568436
0003b0 65 0c 32 3f 4a 92 52 bf 0a 6b 39 bf 87 32 b9 3e
       0.6955016 -0.8225447 -0.72428954 0.36171362
0003c0 09 14 5f bf 4a 9b e3 bf c1 b0 ef 3e 6b 3b b6 3e
       -0.87139946 -1.7781765 0.4681454 0.35592207
0003d0 4d fd 3b 3f af d0 c5 be 6a 10 e1 3d 61 96 12 3f
       0.7343338 -0.38635775 0.10989459 0.5726071
0003e0 c7 ee df bf bc 21 5f 3f ee fd 7b 3f df f9 fa 3f
       -1.7494744 0.8716085 0.9843434 1.9607505
0003f0 af 05 9d bf 73 6a cc be 80 45 5e bf 5f 4c 87 bf
       -1.226736 -0.39924964 -0.868248 -1.0570182

l4.weight f4 [256, 28]
000000 4b 86 4a 3d 23 6c 3d 3f d3 d9 cb be be 20 89 be
       0.049444478 0.7399313 -0.39814624 -0.26782793
000010 6a 80 41 3d dd 7d 04 bd 48 d9 fc bd 52 fb 84 ba
       0.047241606 -0.032346595 -0.123461306 -0.00101457
000020 a6 0b 8c 3b 08 eb 4b 3c ca 0f 48 3d d2 2c 3d be
       0.0042738495 0.012446173 0.048843183 -0.18474129
000030 0a c2 0f 3d 5f b2 10 bc 3b 60 e6 3c 92 e1 8a 3d
       0.03509716 -0.0088315895 0.028122058 0.067813054
000040 6b 94 10 3e 5c 2f fc bd 03 84 4f 3e a6 16 af 3e
       0.14119117 -0.123137206 0.20265202 0.34196967
000050 95 ba 6f 3e b8 15 92 be 88 b9 81 3d ef 7e 05 be
       0.23411019 -0.28532195 0.063342154 -0.13036703
000060 01 c8 ae bc 6a 5c 10 bd 72 48 c9 3c b7 ae b8 bc
       -0.021335604 -0.035244383 0.024570677 -0.022544248
000070 fb aa 99 3c 99 d8 9e bf 0c a9 cc be f3 d3 64 3f
       0.018758288 -1.240985 -0.39972723 0.8938591
000080 46 34 31 3c 9e be 3c 3d 75 c6 74 3e 6b 75 7e 3d
       0.010815686 0.046080224 0.2390383 0.062123697
000090 f5 8d 53 3d f6 94 0d 39 ac 6f fc bd 57 90 32 3d
       0.051649053 0.000135023 -0.12325987 0.043594684
0000a0 61 bb f9 3c be af c2 3b d0 24 6e 3e b2 15 4f 3d
       0.030484857 0.0059413603 0.2325623 0.0505578
0000b0 ff 2e f5 bd 8b af f4 3d 07 a4 92 3d 3b e8 02 be
       -0.119718544 0.11947545 0.07160192 -0.12783901
0000c0 74 55 bf 3d 1e f1 8e bc 32 e8 2d bb 73 5d 0a 3d
       0.09342471 -0.017448958 -0.0026536104 0.033780526
0000d0 5c 2a db bb 52 bd b2 3d a7 92 8e 3d e5 07 2b 3d
       -0.0066883992 0.08727516 0.069615655 0.041755576
0000e0 4f a7 40 3e 00 8c c6 be 30 45 a3 3d e8 2f 06 bf
       0.18813823 -0.38778687 0.07972181 -0.5241685
0000f0 dc 7d 2c 3e 51 70 0a bc 50 53 06 3e 61 ab 98 3c
       0.16844887 -0.00844963 0.13117719 0.018636407
000100 2e f9 90 bc ad b4 9e bd ad d6 5a bd 0c 24 36 3d
       -0.017696943 -0.07749305 -0.053427387 0.04446797
000110 ec 98 9c 3c a8 d4 96 bd 92 b6 80 3e 45 cb da 3c
       0.019115888 -0.0736478 0.2513929 0.026708255
000120 a5 f2 a7 be 04 e0 05 bf f5 a7 17 be 46 9f f1 3c
       -0.3280231 -0.52294946 -0.14810164 0.029494893
000130 39 cc 4d 3d 8c 98 6c 3e ff 81 a0 3e 21 f4 ce bc
       0.05024359 0.23105067 0.3134918 -0.025262894
000140 6a 28 88 bc 88 f6 52 3d da 86 28 bb 87 bb 94 3c
       -0.016620833 0.05150464 -0.0025715143 0.018155826
000150 f5 5b 19 3f 21 31 86 3e e4 b2 97 3c 30 5e ab 3d
       0.5990594 0.26209357 0.018517919 0.08367574
000160 2e 4e 80 bd 4f e4 aa bc eb a8 23 be d4 35 c9 bc
       -0.062649116 -0.02086082 -0.15982406 -0.0245618
000170 07 ca 1c 3d a5 26 da 3e 02 b1 51 bc a3 77 3a 3e
       0.038278606 0.42607608 -0.01279855 0.182097
000180 b6 be a6 bb c0 7c d4 bd 54 7e 39 bd e1 00 b4 bd
       -0.0050886525 -0.10375357 -0.04528649 -0.0878923
000190 b6 cd 29 3e 58 46 bc 3e 8f 74 aa 3e 3e 05 96 3e
       0.16582379 0.36772418 0.33292052 0.29300874
0001a0 2c 6b de be 96 e9 1d be 90 a2 d9 bd 0f bd fd 3d
       -0.4344114 -0.15421137 -0.106267095 0.12389576
0001b0 7a f2 a3 3c d9 fa c3 bc 4a a5 16 3d ea e6 92 bd
       0.020013083 -0.023923324 0.036778726 -0.071729496
0001c0 e0 ac d3 3e c3 07 63 3f 66 7a a4 3e 1f 94 f3 3d
       0.4134283 0.8868372 0.32124633 0.11893486
0001d0 61 76 33 3e ca 6d 38 3c 58 5e ba 3c 77 31 bc bb
       0.17525627 0.0112566445 0.022750065 -0.0057432014
0001e0 54 8c 50 3d e3 23 4c 3d 5a 8b 40 3d 17 7c 35 3e
       0.050915077 0.04983891 0.047007896 0.17723118
0001f0 08 83 22 bc 48 0b e9 3d 09 a3 52 3e 43 64 99 3d
       -0.009918936 0.11379105 0.20570005 0.074898265
000200 db eb 5a 3e c5 fa 64 bd e9 d9 18 be f8 97 64 3c
       0.21379034 -0.055903215 -0.14926876 0.013952248
000210 15 37 7f 3e 7a 1f 0e 3e 09 05 a1 be 16 4d 88 3d
       0.24923356 0.13879195 -0.31449154 0.06655328
000220 d2 22 41 3d dc 47 06 3d ab 53 e3 bc 7c 04 68 ba
       0.047152348 0.032783374 -0.027749857 -0.0008850766
000230 02 c0 7e 3e ed ac 22 bf d1 8e 6d 3e 12 d1 87 bd
       0.24877933 -0.63545114 0.23199011 -0.06631674
000240 36 b7 41 be bb 8f 7a bd ea 71 12 be 5d 8c b4 3d
       -0.18917546 -0.06117223 -0.14301267 0.08815835
000250 d0 18 29 39 33 5d d4 bd 33 32 90 3d 6a a7 79 be
       0.0001612634 -0.10369339 0.07040825 -0.2438027
000260 a4 39 40 be d0 21 d2 3b 17 66 d1 bd e6 ff b6 3d
       -0.18771988 0.006412722 -0.1022455 0.089355275
000270 75 d5 1a 3e 64 3f c2 3c 34 b3 f6 3d 27 e0 2a 3d
       0.1512049 0.023711868 0.12045899 0.041717675
000280 7c 04 4a 3e 82 b1 1a 3e 67 e7 74 3e fa 7e 92 bd
       0.19728273 0.15106776 0.23916398 -0.07153125
000290 65 62 11 bd 79 bd 9b bd 17 14 6d bd ca 84 6a 3d
       -0.035494227 -0.076044984 -0.057880487 0.057255544
0002a0 7b 3b a2 3d 6e 70 8f 3d f9 bc 25 3f 6f e0 1e 3f
       0.07921501 0.07003866 0.64741474 0.6206121
0002b0 be d0 7e 3d 32 94 e0 3d 69 b5 f8 3d cb 32 9d 3c
       0.06221079 0.10965766 0.12143976 0.019189259
0002c0 18 38 8f bd da 25 a3 3d 82 c7 15 bd 8f c1 3a be
       -0.06993121 0.07966204 -0.03656722 -0.18237899
0002d0 44 0d 17 bd 79 8f 95 bd ac dc 55 3d d6 43 04 be
       -0.036877885 -0.07302756 0.052212402 -0.12916502
0002e0 cc 6c 50 3e 88 ee 18 3e 66 61 4d 3e 06 d7 10 be
       0.20354003 0.14934742 0.20056686 -0.14144525
0002f0 63 dc b6 3d b7 99 56 3e 50 27 f7 3c 07 86 41 3c
       0.08928754 0.20957075 0.030170113 0.01181174
000300 ce e4 e1 3c f9 1c 9d bb 14 5f 1e 3d f7 7e 93 bd
       0.027574923 -0.0047947136 0.038664892 -0.07201951
000310 df 47 d9 3e a3 c2 3a 3f 35 08 88 3e e4 d1 72 3b
       0.42437646 0.7295324 0.2656876 0.0037051374
000320 11 d6 80 be 15 4b 10 3e 1d e8 90 3c 9b 63 17 3d
       -0.2516332 0.14091142 0.017688805 0.036960226
000330 79 90 1d 3d c1 60 5d 3e 78 29 8f be b4 94 89 3e
       0.038467858 0.2161894 -0.27961326 0.26871264
000340 a8 72 33 bd f5 88 02 bc 77 c7 54 be aa 05 a5 bd
       -0.043810517 -0.007967223 -0.20779215 -0.08057721
000350 97 be a0 bd f6 af 0c 3f 66 da ac 3d 4d 6c 23 be
       -0.07848852 0.54955995 0.08440094 -0.15959282
000360 3d d4 87 3e 33 f2 90 bd c1 0f 98 be 8f 13 f4 bd
       0.26529112 -0.07077446 -0.2969952 -0.11917793
000370 d6 17 a0 bd 78 7e a5 bd b3 b4 63 be 7d 41 94 3e
       -0.07817046 -0.080807626 -0.222369 0.28956214
000380 78 e0 18 3e 56 58 92 bd fd 5d 3b 3f bc ec a6 3e
       0.14929378 -0.07145755 0.7319029 0.3260249
000390 d5 41 41 bc 02 51 8d 3d f5 ba b3 bd e5 69 e0 3c
       -0.011795481 0.06900217 -0.087758936 0.027394244
0003a0 25 5a e3 bd 56 71 22 be 58 7a db 3c 22 7e 50 3e
       -0.11101178 -0.15863547 0.026791736 0.20360616
0003b0 21 8a 7d bc f4 56 0e be 8b ef 40 3e 74 92 85 3e
       -0.015474827 -0.13900357 0.18841378 0.26088297
0003c0 97 0c 6e 3e 8a c0 10 be 64 bb 1a be 55 81 75 3d
       0.2324699 -0.14135948 -0.15110546 0.059937794
0003d0 51 1f 09 be 3a 70 0a be 6d d3 fa bb 20 33 8b bd
       -0.13390853 -0.13519374 -0.0076545984 -0.06796861
0003e0 61 00 15 3d 5b 8f a1 3d f2 b1 15 3d 80 7c 78 3d
       0.036377314 0.07888671 0.036546655 0.060665607
0003f0 a8 90 9a bd 20 c2 53 3f 1d 6f 0f bf 83 4c f6 be
       -0.07547122 0.82718086 -0.5602892 -0.4810525

l4.bias f4 [256]
000000 c6 55 9a 3d 26 94 13 3e 2c cf 24 be e7 38 03 be
       0.07535891 0.14411983 -0.16094655 -0.12814675
000010 0e e9 4f be 82 24 77 be 55 8f 4b be 53 47 90 be
       -0.20303747 -0.2413502 -0.19878896 -0.28179416
000020 35 fd 69 3d 71 b9 fd 3d b3 7d 46 bd ea 99 d3 3c
       0.057126243 0.12388886 -0.04845972 0.025830228
000030 9e eb 8d be 74 04 45 bd e1 a9 25 3e d1 f1 8d be
       -0.27718824 -0.04809995 0.16178085 -0.27723554
000040 94 06 49 be 5d 8d d4 bd 5e a9 5d be bd 27 f5 bb
       -0.19631416 -0.103785254 -0.2164664 -0.007481544
000050 d9 44 82 be 4f 21 c7 3e ab f3 24 be 7b 74 d3 bc
       -0.25443152 0.388926 -0.16108577 -0.025812378
000060 9f 41 c9 be 9d 5d fe bd 81 80 15 3d 09 e7 04 bd
       -0.39307877 -0.12420199 0.036499504 -0.032446895
000070 76 99 3d be 7c 1a 8a 3e 45 31 93 be f4 84 c9 3d
       -0.18515572 0.2697333 -0.28748527 0.09839812
000080 98 e8 40 3e e9 11 f2 bd 6c c3 83 bd 1f 30 f3 3d
       0.18838727 -0.11819822 -0.06433758 0.11874413
000090 f1 6d 12 be 0e 62 bb 3d 16 0a b5 bd 33 fd bf 3d
       -0.14299752 0.09149562 -0.08839814 0.09374466
0000a0 58 c4 ba 3d 02 1a 64 3e 56 50 4b 3e 14 46 73 3d
       0.09119481 0.22275546 0.19854864 0.059393004
0000b0 3a 7f 23 3e 59 a4 d8 bd 4d 46 39 3e 71 f7 1f 3e
       0.15966502 -0.10578222 0.18093224 0.15621735
0000c0 07 11 c0 be af 82 24 be 8f ea c8 bd 94 ba 83 3e
       -0.3751299 -0.16065477 -0.098103635 0.25728285
0000d0 80 50 b6 bd ff 44 91 3d a3 b4 57 3e 4b 1e 02 3d
       -0.08902073 0.07093238 0.21065001 0.03176717
0000e0 60 09 e0 bd d3 a1 6c be 49 53 78 be ee 5f 8c bb
       -0.10939288 -0.23108606 -0.24250521 -0.0042838966
0000f0 4b 95 89 3d 8d be 88 3e 07 ae a6 be e3 7e b3 3d
       0.067179285 0.2670788 -0.32554647 0.08764436
000100 18 fb 30 bd fb 75 9e bd 74 ad 60 3e 4a 52 87 be
       -0.04320821 -0.07737347 0.21941167 -0.2642997
000110 62 15 25 3e c9 bb 1c 3d d6 d0 1e 3e 6c b0 01 3e
       0.16121438 0.038265023 0.15509352 0.12664956
000120 dc 92 96 3c e1 92 ce bd 82 6b bf 3e 81 5c 86 bc
       0.018380575 -0.10086609 0.3738671 -0.016401531
000130 11 c4 09 3e 64 c1 19 3e de 38 dd bd 2c 86 f5 3d
       0.134537 0.15015179 -0.10801862 0.11988482
000140 1c 1e 6d be 8f 8f 4a be 75 3a 44 3d fb 55 d6 3d
       -0.23156017 -0.19781326 0.04790731 0.10465618
000150 d2 ff 25 be 20 53 ea bd 8b ea 3f be 6b 3e c5 3e
       -0.16210869 -0.11441636 -0.18741815 0.38524184
000160 48 4a 5c 3d c5 f3 f2 3d 4e a3 b2 3c ae 36 40 be
       0.053781778 0.118629016 0.021806385 -0.18770859
000170 cc 0d 89 3d 61 80 c7 bd 38 79 59 be 31 0c 0c be
       0.06692085 -0.09741283 -0.21237648 -0.13676526
000180 e6 22 91 3c 30 01 9b 3d 62 05 bd 3c fd 79 69 be
       0.017716836 0.07568586 0.023073856 -0.22800441
000190 e6 56 95 3d 66 57 46 be 88 f9 55 bd fa 25 2f 3e
       0.07291965 -0.19369277 -0.052239925 0.1710433
0001a0 f3 b1 c9 bc 23 79 b2 3d 72 48 da bd 45 81 a1 bd
       -0.024620986 0.08714511 -0.10658349 -0.07885984
0001b0 4c 5c f6 bd b2 f4 0f bb ba 9b 3a be 0e 25 2e 3e
       -0.12029323 -0.0021965918 -0.18223467 0.17006323
0001c0 f9 5e 49 be 47 32 a5 bd 1e d0 8c 3d 9f 67 90 bc
       -0.19665135 -0.0806623 0.06875633 -0.017627535
0001d0 1c 66 8c be 3a c9 e8 3d 50 2d 3f be be c6 59 be
       -0.27421653 0.11366506 -0.18669629 -0.2126722
0001e0 a9 76 9c 3e fa 86 18 3e d4 0f ee bc a7 df 0e 3d
       0.3055928 0.1489524 -0.029060282 0.03488126
0001f0 10 c6 77 3e 0e 89 be 3c fc 6b 2a bc a8 6a a9 be
       0.24196649 0.023258712 -0.010401722 -0.33089185
000200 22 00 b8 3e 81 d0 ff 3d 75 51 83 be 66 1e 55 3d
       0.359376 0.12490941 -0.25648084 0.052030943
000210 10 42 76 bd 94 ff 07 be 16 0b 92 3d 66 52 0a be
       -0.060121596 -0.13281089 0.07131021 -0.13507995
000220 a9 1e af be 53 f4 c8 bd 99 2c 62 be 67 fe a6 be
       -0.3420308 -0.09812226 -0.22087325 -0.3261597
000230 45 11 a6 be aa 03 71 bd 30 32 f9 3d 74 30 86 3d
       -0.3243505 -0.058841385 0.12167776 0.065522105
000240 ee 65 77 3e 7b 69 53 3e d4 be 55 3e ad b5 0f bd
       0.24159977 0.20645706 0.20873576 -0.03508537
000250 a4 41 14 be bc a9 12 be 6d 9c 79 be 74 bd 2d be
       -0.14478165 -0.14322561 -0.24376078 -0.16966802
000260 b5 53 79 3d 7d 04 2c 3e 02 1f 46 bd 17 ac 29 be
       0.060870845 0.16798587 -0.048369415 -0.16569553
000270 4e eb 1f be 1f 91 46 3d 27 ff b0 bd db 52 f7 3d
       -0.15617105 0.048478242 -0.086424164 0.1207635
000280 13 ea 4f bd 89 3b 46 3d 53 d8 0d 3e 7f 45 23 bd
       -0.05076034 0.04839662 0.13852052 -0.0398612
000290 a9 f1 21 be fa ba 57 3d 8a b5 f2 bd 20 1e 26 3d
       -0.15814842 0.05266855 -0.11851032 0.040556073
0002a0 35 d8 18 3d a4 94 9a 3d 71 1d 30 be 0c cd 8b bc
       0.037315566 0.07547882 -0.17198731 -0.017065547
0002b0 bb 15 b1 3c b9 d5 8d bd 10 54 c4 bd 56 9c 51 3e
       0.021616807 -0.0692553 -0.09586346 0.20469794
0002c0 12 3b 53 bc ee 08 60 3d 34 48 8a 3d f0 ad 5a bd
       -0.012892501 0.054696016 0.06752053 -0.053388536
0002d0 3f 57 bc be fa 48 5e bd 9c 3a 4f bd af 77 cf 3e
       -0.36785313 -0.054268815 -0.050593004 0.40521
0002e0 a8 96 89 3e 80 7e bc bd 48 09 80 3d 01 d8 ee bd
       0.26872754 -0.092038155 0.0625177 -0.11662293
0002f0 53 50 77 bd f6 4b 6f be b7 d0 8f 3e 0a b2 ec 3b
       -0.060379338 -0.2336882 0.28088924 0.0072233723
000300 0b 22 94 3e 64 25 ba bd fe b9 4d 3d c9 c5 94 3c
       0.28932223 -0.09089163 0.050226204 0.018160718
000310 67 a9 10 3e 19 30 aa 3d 77 ea 0a 3d 0a 03 94 3d
       0.14127122 0.08309955 0.03391501 0.07227142
000320 3c c9 3c bd b5 48 df bd bd 0e fb 3c e1 8f 70 3e
       -0.04609035 -0.1090254 0.030646676 0.23492385
000330 b3 29 81 be 8f 80 22 be 62 19 da 3d 0e 8a 8c 3e
       -0.25227126 -0.15869354 0.10649373 0.27449077
000340 62 aa c1 3d 02 1e 35 be 29 6d b6 bd cc 1a c3 3e
       0.09456326 -0.17687228 -0.089075394 0.38106382
000350 74 da 70 bd 98 8a 2a be 95 5f 9c 3d bf 51 05 3d
       -0.058802083 -0.16654432 0.07635418 0.032548662
000360 c6 87 68 be 08 c3 44 3c 4f ac 8b be 1b de 81 bd
       -0.22708043 0.01200939 -0.272799 -0.063411914
000370 e7 10 cc bd 34 54 58 3e d3 fe 21 bc 3c dd 99 bb
       -0.09964161 0.21125871 -0.009887415 -0.0046955626
000380 67 17 9b be 26 80 81 be a0 1b 0f 3e bd b0 50 be
       -0.30291292 -0.25293082 0.13975382 -0.2037992
000390 01 da e4 bb b2 29 21 3d f5 74 30 3e c0 ac 5b 3b
       -0.006983996 0.039346404 0.17232116 0.0033519715
0003a0 ce bc e9 3d 68 4f 28 be 69 15 23 be 50 cc 9e 3c
       0.11412965 -0.16436541 -0.15926136 0.019384533
0003b0 ab fa 6b be 56 25 77 3e 45 95 43 3d 6a 9a 83 bc
       -0.23044841 0.24135336 0.047749776 -0.016064841
0003c0 4f 97 aa 3d 5f 20 48 3e 56 52 64 3e 4b 87 b8 3d
       0.08329641 0.19543599 0.22297034 0.0901018
0003d0 58 f4 fc 3e 92 e8 87 bd f9 84 25 3e 67 b5 28 3d
       0.4940517 -0.06636156 0.16164006 0.041188624
0003e0 c0 38 14 bd f8 9d 5c 3d 5e 62 34 3e e7 0f 88 be
       -0.036186934 0.05386159 0.17615649 -0.26574633
0003f0 31 c4 94 bd 36 2c 85 be 89 87 5a be f0 7a 9c bd
       -0.07263983 -0.26010293 -0.21340765 -0.07640636
