HardcoreVersion_7500_Working/actor/ppo_actor700.pth (torch, 295482 bytes, 6 tensors)

l1.weight f4 [256, 24]
000000 f0 5c 3b 3f d9 a9 4f 3f e9 0e 88 bf be a8 4d 3e
       0.73188686 0.8111854 -1.062955 0.20083901
000010 27 8a a1 bd d1 a5 38 3e 82 e2 c9 bd 76 cc 9f 3e
       -0.078876786 0.18032004 -0.09857656 0.3121068
000020 ce 2b 3f 3e 04 e7 32 be fd 28 e7 3d 7c dd 25 3d
       0.18669054 -0.17470938 0.11287115 0.040494427
000030 cc 60 00 3e d8 ea 5a 3d 8b 13 cb 3d 7d 19 e6 bc
       0.12536925 0.05344662 0.09915837 -0.028088326
000040 04 e2 21 3e e3 29 fd 3c 43 a9 c1 bd 68 1a 58 3d
       0.15808874 0.030903762 -0.09456112 0.052759558
000050 6b 21 bf bd c6 9b bc bc 2c c5 b8 bd bd ab de 3d
       -0.09332546 -0.023023497 -0.090219826 0.108726
000060 c3 d5 f7 be 7c dd 95 3c b0 44 8c 3e 0d 00 04 bf
       -0.48405275 0.018294089 0.27396154 -0.5156258
000070 e4 59 1d 3e 37 89 f9 be b5 f2 ea 3e 40 e2 5a be
       0.15366322 -0.487375 0.45888296 -0.2137537
000080 cc ae 22 3e 14 bd 16 bd 71 1c 12 be 3d db 17 3e
       0.15886992 -0.036801413 -0.14268662 0.14829727
000090 43 87 4d bc b9 b8 11 3e 2b e9 34 bd 9b ff 05 be
       -0.012544456 0.14230622 -0.04416768 -0.13085787
0000a0 1f ac 3e bc 97 86 f9 bd 38 2c 9f 3c d0 1c ed 3d
       -0.011637717 -0.12183874 0.019430265 0.11577761
0000b0 78 06 53 3d 8c 89 1e be 20 63 61 3d 12 08 27 bc
       0.05151984 -0.15482157 0.055026174 -0.010194795
0000c0 c9 8a cf 3e 6d b1 66 be ff ce 19 bf 71 ab 06 bd
       0.40535572 -0.2252862 -0.60081476 -0.032878343
0000d0 cc ec 65 be 33 2c b8 3e e6 5b 1f 3e 3b 4c 27 3e
       -0.22453612 0.3597122 0.155624 0.16337673
0000e0 59 87 dc 3d 6d ac 0f 3b 9c 25 4f 3e 82 b6 35 be
       0.10768003 0.0021922842 0.2022919 -0.17745402
0000f0 6f 53 60 3d 37 85 6a be 69 d1 be 3d 5d 1b 24 bd
       0.05476707 -0.2290238 0.093172856 -0.04006516
000100 59 02 be 3d fb 79 49 bc 89 52 4c 3e a3 da b9 bd
       0.092777915 -0.012297149 0.1995336 -0.09074905
000110 c3 64 bb bd f4 f4 bf bd 72 4d 4d 3e ca 52 47 3d
       -0.09150078 -0.09372893 0.20049074 0.04866294
000120 14 ed e7 3e 48 83 fb be 8d cc 19 bf 35 75 c9 bd
       0.45298064 -0.49123597 -0.60077745 -0.098368086
000130 7f a7 6a be 29 15 66 3e 3b 54 d0 3d da 53 a4 3e
       -0.22915457 0.2246901 0.10172316 0.32095224
000140 54 d0 1b be 90 93 3a be 78 d7 ad 3b ea 62 c9 bd
       -0.1521619 -0.18220353 0.005305227 -0.098333195
000150 0d 06 33 3e e2 1c a4 bd 89 10 cb 3d cf 71 34 be
       0.17482777 -0.080133215 0.09915263 -0.1762154
000160 a8 0b f7 bd 83 c0 36 3d fa 2d d1 3c 8b af 8e bd
       -0.1206277 0.044617187 0.025534619 -0.06967076
000170 63 0e d5 3d b7 82 f8 3d 00 ca 1c be 38 a4 04 be
       0.10403135 0.12134307 -0.15311432 -0.1295327
000180 6f aa d7 3e b8 91 7a bc 7a 81 96 be fa 9f bc be
       0.42122218 -0.015293531 -0.29395658 -0.36840802
000190 51 c0 75 be 96 bf 8a 3d ac 56 8e bc d3 a1 1b be
       -0.23999144 0.06774823 -0.017375313 -0.1519845
0001a0 c4 ff 81 3c ac a6 8a be 36 73 26 be a1 db a3 bd
       0.015869029 -0.27080286 -0.16254887 -0.08000875
0001b0 3d ee 67 bd ff 5a 49 be ed 32 60 3e fc f0 5a 3d
       -0.056623686 -0.19663619 0.21894427 0.053452477
0001c0 5a 56 9f 3d 37 b1 33 be d6 0e f4 bd 07 54 59 bd
       0.07780142 -0.17548071 -0.11916892 -0.05305865
0001d0 06 c2 3f 3d 3c d1 26 be 6b b4 83 bd 31 84 d2 bd
       0.046815895 -0.16290754 -0.06430896 -0.1027912
0001e0 18 52 3c 3e 49 64 88 3c 7d cd b8 be 82 39 bf be
       0.18390691 0.016649382 -0.36094275 -0.37348562
0001f0 0d ba 21 be 28 50 6b be 2e 80 28 bd 72 98 65 be
       -0.15793629 -0.22979796 -0.041137867 -0.22421435
000200 23 e7 a0 3e ee b4 cc bd 69 9c 6e 3e 4d 32 68 3d
       0.31426343 -0.09995447 0.23301853 0.056688596
000210 df 7e 65 be 4a 9a 3e 3e ad fb 13 bd d7 6e 6e bd
       -0.22411679 0.18613544 -0.03612869 -0.058211174
000220 c0 fc 18 be ba 48 3b be ec a4 a0 3d 9b 30 c9 bc
       -0.14940166 -0.18289462 0.07843956 -0.02455931
000230 0c b6 cb 3d 3a 7e 16 be 3e 3a 46 3e a5 4c 08 be
       0.09946832 -0.14696589 0.19358155 -0.13310488
000240 52 e1 19 bc cd 7a c6 3b 0c 49 2e 3f 81 07 bd 3c
       -0.009392099 0.0060571195 0.6808021 0.023074867
000250 5e 1e 62 3e 83 38 b2 be c3 92 03 bd 7d 24 e0 bd
       0.22081897 -0.3480874 -0.032122385 -0.109444596
000260 48 e9 74 bd 8b ea 9f be 3c b1 cf 3e 6c 1c 96 be
       -0.059792787 -0.3123363 0.40564907 -0.2931856
000270 34 b5 b6 3c ff 14 08 3e 49 72 50 3d b6 d1 00 be
       0.022303201 0.1328926 0.05089024 -0.12579998
000280 e1 2d 2e 3e e0 f7 f0 3c fc 40 31 3c f2 02 48 be
       0.17009689 0.029415071 0.010818716 -0.19532374
000290 6a dd 8f 3d 50 ac 40 bd 8f 72 c3 bd d4 38 38 3e
       0.07024653 -0.04703933 -0.09543335 0.17990428
0002a0 18 ad 64 3e cc 36 b9 3c 3b f6 05 bf 66 05 24 3d
       0.22331655 0.022609137 -0.5232884 0.04004421
0002b0 27 41 9e 3d cc c0 aa bd 4f ff 6a be fd 53 45 be
       0.077272706 -0.08337554 -0.22948955 -0.1927032
0002c0 fd 78 72 be 08 2d 17 3e c1 bc a3 3e 93 a7 a0 be
       -0.23678966 0.14763272 0.31979945 -0.3137785
0002d0 ef 43 8d 3d 25 75 20 3e c9 75 de 3c d8 10 a9 bd
       0.06897723 0.15669687 0.027155774 -0.08255166
0002e0 ba 01 c6 3d fa 7f c7 3d 01 20 88 3d c0 55 3b bd
       0.09668298 0.097412065 0.06646729 -0.045736074
0002f0 87 ee 82 bd ad af 20 3c 1e 33 e0 bc 67 7a 86 bd
       -0.06393152 0.009807509 -0.027368125 -0.06566315
000300 1b 27 b4 3e e8 92 79 3d 1f 36 c4 be f7 73 e3 3b
       0.35186085 0.060931116 -0.3832254 0.0069413143
000310 13 4f b4 bd 50 56 c7 3d 25 28 f6 3c fa 21 b1 3d
       -0.08804145 0.0973326 0.03004844 0.08649059
000320 7e b9 c0 be 02 4a 8e ba 48 54 45 3e 27 f5 11 3e
       -0.3764152 -0.0010855796 0.19270432 0.14253674
000330 c1 62 9b 3d cc e4 4b be 73 ad 10 be 10 08 4c be
       0.07587195 -0.19911498 -0.14128666 -0.1992495
000340 52 dc a9 bd 62 2a 57 3d 06 f6 e8 3d 9f 69 9f 3d
       -0.08293976 0.052530654 0.1137505 0.077838175
000350 1a 8d 49 be 6a 94 0e be b0 b8 c5 bc c6 0d 59 3e
       -0.19682732 -0.13923803 -0.024135917 0.2119666
000360 48 e2 35 3e 54 a5 72 3c 80 84 16 be b9 0e b3 bd
       0.177621 0.014809925 -0.14698982 -0.087430425
000370 75 4e 8d be 20 6b b3 3e d7 3c 52 be ef fc d3 bc
       -0.2759892 0.35042667 -0.20531021 -0.025877444
000380 db a2 68 be 28 b4 93 3e 9d 1a c7 3d 3d 96 3c 3e
       -0.22718374 0.28848386 0.09721873 0.18416686
000390 33 6c a2 bd 41 b8 97 be 51 71 29 be a6 30 1c 3e
       -0.079307936 -0.29632762 -0.16547133 0.15252933
0003a0 b4 59 c9 3d 31 37 30 3e 1d a2 db 3d 5b da 54 3d
       0.09831563 0.17208554 0.1072428 0.051966053
0003b0 d9 82 db ba c4 17 1d be e0 40 34 be 9d 99 39 be
       -0.001674737 -0.15341097 -0.17602873 -0.18125005
0003c0 be 03 2d 3f c0 58 10 3f 51 10 24 bf 56 4d 80 3d
       0.67583835 0.5638542 -0.64087397 0.06264751
0003d0 f8 43 dd bd a6 fb 23 be 87 7c 6d be b2 c7 8b bb
       -0.1080398 -0.16013965 -0.23192035 -0.004265749
0003e0 f0 7a 77 bd d4 28 93 3e dc 26 71 be c5 45 53 be
       -0.060419977 0.28742087 -0.2354998 -0.20632084
0003f0 b3 2b cb ba 80 35 05 be db b4 03 bd c3 f7 27 be
       -0.0015500694 -0.1300869 -0.0321549 -0.16403107

l1.bias f4 [256]
000000 de 73 43 be e5 01 9a 3b 49 ff 5f bd c9 08 13 3e
       -0.19087169 0.004699933 -0.05468682 0.1435882
000010 c2 78 49 be 65 aa 34 3d 01 68 e6 3d b5 cd 12 3d
       -0.19674972 0.044107813 0.11250306 0.03584071
000020 f6 69 55 bd b3 ab 4d 3e bc 7f 0b be d4 01 74 3e
       -0.052103005 0.2008503 -0.13622946 0.23828822
000030 8c 46 9f 3d 3e f6 fd 3d 78 fe 1e 3e 61 e8 1d 3d
       0.077771276 0.124004826 0.1552676 0.038551692
000040 a9 50 54 3d 62 3f 45 3b 22 db 3b be 71 06 9f 3d
       0.051834736 0.0030097594 -0.18345311 0.077649005
000050 4f 7b 4c 3e 6b 39 a1 3d ea 8e 4b bd 18 ed 2d be
       0.19968913 0.0787228 -0.04969684 -0.16984975
000060 23 44 cf 3a b8 bc 60 3d 31 cb 0d be ec a8 4e 3e
       0.0015813153 0.054867476 -0.13847043 0.20181626
000070 7b 2a 31 bc 02 b9 16 3d 22 11 2a 3e a1 a8 0a 3e
       -0.010813351 0.03679753 0.16608098 0.1354089
000080 44 5a 92 bd cf d9 8c 3d 61 f9 03 3e 4a a9 e0 3d
       -0.07146123 0.06877481 0.12888099 0.10969789
000090 51 ac 00 be fa 40 7e 3d 34 26 e9 bd 59 5a 55 3d
       -0.12565733 0.062073685 -0.1138424 0.052088115
0000a0 07 06 49 be 41 71 02 3e cc 79 6c 3e 21 ea 4c be
       -0.19631205 0.12738515 0.23093337 -0.20011188
0000b0 9f ee bb bd e6 71 a3 bd dd 44 0d be b2 11 5f 3e
       -0.09176373 -0.07980709 -0.137958 0.21784094
0000c0 fc 19 18 be 87 f8 b8 bd a4 f5 41 be fe f2 e7 3c
       -0.14853662 -0.09031778 -0.1894136 0.02831411
0000d0 05 e9 d0 bd 05 74 06 be db ae 60 3e c8 74 ba 3d
       -0.10200695 -0.13130195 0.21941702 0.091043055
0000e0 02 f6 f2 3d 35 fe 01 3e 5a d9 17 3d 04 c0 57 3b
       0.118633285 0.12694629 0.037072517 0.0032920847
0000f0 9a 69 f4 bd 40 b2 ba 3d d6 ea 3d be 07 11 0b bd
       -0.119342044 0.0911603 -0.18546614 -0.033951785
000100 5c 1e a0 bd 29 0c db bd 8e cc 05 be c5 d7 b2 bd
       -0.078182906 -0.10695679 -0.13066313 -0.08732561
000110 63 3c fe bd c2 6f 05 be 75 d3 21 bd 23 f1 45 be
       -0.124138616 -0.13030913 -0.0395083 -0.19330268
000120 4b 5f 30 3e bb c4 57 3d 49 d0 86 be 66 bf 50 be
       0.17223851 0.05267785 -0.26330784 -0.20385513
000130 c9 ad e9 bd 58 3b 76 3d 57 08 23 3e fa 0d da bc
       -0.114101 0.06011519 0.1592115 -0.026617993
000140 44 bd 06 3e 62 75 9d bd 7a d0 fc bc 1c ed 14 bd
       0.13158137 -0.076884046 -0.030861128 -0.036358938
000150 1f 1d 39 be 11 e4 f4 bc 0f 1f 62 3d 08 8d de 3d
       -0.18077515 -0.029893907 0.0552054 0.10866743
000160 5e e0 3d be 4a 11 63 bd d6 04 f7 bb 2d 59 21 3d
       -0.1854262 -0.05543641 -0.0075384183 0.039391685
000170 62 00 e7 3b 04 24 5d be 4b 70 2d 3e bc a4 2a be
       0.007049606 -0.2159577 0.16937368 -0.16664404
000180 1b a0 48 bd 85 89 0e 3e 1f 2e 8e bd 63 43 b5 bd
       -0.048980813 0.13919647 -0.06942391 -0.088507436
000190 77 9d 3a be af ba 3e 3e 35 b9 c5 bc 5e ab 9c 3d
       -0.1822413 0.18625902 -0.024136165 0.07649873
0001a0 b8 82 f4 3c 66 48 46 be dd a1 d7 bd 38 08 21 3e
       0.029847488 -0.19363555 -0.1052892 0.15725791
0001b0 9c a9 b8 bd bb f5 09 be b9 0c 0b 3e 56 16 1a be
       -0.090167254 -0.13472645 0.13579072 -0.15047583
0001c0 35 da 58 3d 76 99 e2 bd 16 86 2f 3d f9 38 1e 3d
       0.052942473 -0.110644266 0.042852484 0.038628552
0001d0 3c 14 51 be 30 59 69 be 3c 6c 56 3d ea 1b 94 bd
       -0.20417875 -0.22787929 0.052349314 -0.07231887
0001e0 a7 79 07 3e 63 1d 34 3a 24 f2 f4 bd 32 e6 ad bc
       0.1323 0.0006870834 -0.11960247 -0.02122793
0001f0 25 03 e3 bd da cb a8 3d cc 7c 1e 3e 06 d7 d3 3b
       -0.11084584 0.082420066 0.15477294 0.006464842
000200 da ce da bd f6 65 1d 3e 24 56 2d 3e f2 52 3f 3e
       -0.10683985 0.15370926 0.16927391 0.18683985
000210 bd 62 00 3c 1e 6c 3a 3d a5 42 2d bd fa 18 b4 bd
       0.007836041 0.045513265 -0.042299885 -0.087938264
000220 74 d5 4d be 0e 50 14 bb dd f7 ea 3d 4d 36 0a 3e
       -0.20100957 -0.0022630724 0.114730574 0.13497277
000230 d3 6b 93 3d 4c 0b aa 3d f1 5e 07 3e 29 7e 27 bd
       0.071983 0.08302936 0.13219811 -0.0408918
000240 5f 02 10 3e 82 0b 1b 3b 94 36 25 bd 94 00 97 bd
       0.14063405 0.0023657982 -0.040335253 -0.07373157
000250 ea d7 0b be 85 9f 1a be 80 b2 a7 3d 73 53 42 3e
       -0.13656583 -0.15099914 0.08188343 0.18977146
000260 5d 62 63 3c 3b 67 24 3d 1a 11 b6 bd a2 9d 3e bd
       0.013878432 0.04013751 -0.088899806 -0.04653705
000270 4f 74 ab bd 5a d8 be 3d 67 95 50 3b 8a 14 83 bd
       -0.083717935 0.093186095 0.0031827332 -0.06400402
000280 a2 48 45 3d 1e 03 69 bd c2 aa a9 bb c0 da e8 3d
       0.04816497 -0.05688774 -0.0051778266 0.11369848
000290 a3 17 f0 bd be 1e 2a 3e 21 ee de bd 46 54 2d 3e
       -0.11723258 0.1661329 -0.10885263 0.16926679
0002a0 52 36 94 3d 44 0c b1 3c e5 82 22 bd 3f 9a 71 bd
       0.07236923 0.021612294 -0.039675612 -0.05898499
0002b0 bb af 46 be ce d9 3a be 61 2a 0d 3e 14 4f 6f 3e
       -0.19402973 -0.18247148 0.13785698 0.2337001
0002c0 c6 e4 22 3d b0 56 87 bd 52 e7 04 3d 4b d6 53 bc
       0.039768957 -0.06608331 0.032447167 -0.012929509
0002d0 9a d4 1c be d5 0b 0a be 4b 5a 7c 3d 4c 38 29 bd
       -0.15315476 -0.13481076 0.061609548 -0.041313455
0002e0 b0 d8 04 bc e7 20 d3 bd 1d ab b9 3d c8 d7 b1 bd
       -0.008108303 -0.1030901 0.090658404 -0.08683735
0002f0 fd 82 5b bd c7 72 fc 3d 97 ce 2d 3e 9b 39 54 3e
       -0.053591717 0.123265795 0.16973339 0.207251
000300 41 85 ba 3d 3b 49 75 3c df f0 24 3e c3 80 35 3e
       0.091074474 0.014971073 0.1610751 0.177249
000310 73 34 be 3d ce 5e 1f 3d 41 cf 5f 3d 09 a0 8f bb
       0.09287348 0.038908772 0.054641012 -0.0043830913
000320 2c 5c e1 3d 1d 36 ad 3d 99 f6 45 be 50 b0 f7 bd
       0.110039085 0.08457587 -0.19332351 -0.12094176
000330 e9 b1 3f be eb 43 4a bd 7c 91 1f 3d e0 30 9b bd
       -0.18720211 -0.049381178 0.038957104 -0.075776815
000340 0e c2 4e be b9 21 00 be 9e 8e d2 3d 8d de 99 bc
       -0.20191213 -0.12512864 0.10281108 -0.018782878
000350 2e c9 68 bd 8e ed 02 3d fc e1 ad bd f1 c6 1c be
       -0.056832485 0.03196483 -0.08490369 -0.15310265
000360 9d 2b be bd 32 3a 76 bd 17 ea 69 be 30 5d 6e be
       -0.09285662 -0.060114093 -0.22843204 -0.23277736
000370 42 4f 8d bd 56 a2 5d 3d 83 8c 66 3e a3 d8 07 bc
       -0.06899883 0.054109894 0.22514538 -0.008291396
000380 9f f3 19 3e e4 b2 8f 3d f2 99 19 be b2 25 06 be
       0.1503434 0.070165426 -0.15000132 -0.13100317
000390 0e a7 87 bd dd 84 40 be 09 d8 1b 3d ff f2 a3 3d
       -0.0662366 -0.18800683 0.038047824 0.08005332
0003a0 c3 36 0f be 0b e4 40 bd ea 2b 64 be 93 4c 69 3e
       -0.13985734 -0.04709248 -0.22282377 0.22783117
0003b0 e8 60 2a 3e a2 bd 81 bc be ac 4b 3e 5a fb 05 be
       0.1663853 -0.015837494 0.19890115 -0.13084164
0003c0 f7 9d 30 3e a3 2c c6 bd 07 c1 b4 3d 0f bb 31 3e
       0.17247759 -0.096764825 0.088258795 0.17356513
0003d0 79 7a 8b 3d d9 07 49 3c 00 d7 25 3c ba 0d 88 3c
       0.06810469 0.012269937 0.010122061 0.016608108
0003e0 fb 1b 43 3e 1c d6 14 bd 0a 1a 87 bd 10 31 68 3d
       0.19053642 -0.036337003 -0.065967634 0.056687415
0003f0 24 c5 ca bd c4 05 97 bd 1f 3f dd 3c 8d 90 68 3e
       -0.09900883 -0.073741466 0.027007638 0.22711392

l2.weight f4 [256, 256]
000000 19 70 e9 3d 06 78 92 bd 2c 7d 26 3e ad 59 1c 3d
       0.11398334 -0.07151799 0.16258687 0.03817146
000010 f2 81 86 3c dc 9b cc 3c 0e 38 ff 3c de aa e9 bc
       0.016419385 0.024976663 0.031154659 -0.028523859
000020 98 d3 f1 3c 79 5a 67 3d 35 dd a0 bd cf ef b9 bd
       0.029519841 0.056482766 -0.07854692 -0.09078943
000030 8d d7 0f 3d 61 e2 aa 39 6b 45 9c 3d 8d 3f 3a 3d
       0.035117675 0.00032593592 0.07630428 0.045470763
000040 9c ea 8f bd 9c 90 1a be 4b 57 bd bc d8 bf 0a 3c
       -0.0702717 -0.15094227 -0.023112914 0.008468591
000050 f0 58 99 bd 77 78 3f bd d0 e0 56 3d 96 02 d3 bd
       -0.074876666 -0.046745744 0.05246049 -0.103032276
000060 9d 90 5b be ea 52 40 3c aa 5c c8 bc 4b 0a f3 3b
       -0.21441884 0.011738518 -0.024458248 0.0074169985
000070 f0 b0 4c 3c a7 e2 07 bd 7b c8 d6 3b ce 20 ff 3d
       0.012493357 -0.033175137 0.006554661 0.12457429
000080 ac d2 4e bc 06 db f4 3c 39 b4 8b 3c 72 0e c9 3c
       -0.01262347 0.029889595 0.01705371 0.02454302
000090 77 ac 51 3d 90 03 d9 bd 66 7b b1 bc c8 42 69 bd
       0.051189866 -0.105963826 -0.021665286 -0.056948453
0000a0 33 26 26 3e 77 8e 2c 3d ed cf ec 3c fd 12 be bd
       0.1622551 0.042128053 0.02890774 -0.092809655
0000b0 b6 31 07 3d b0 77 32 3e 9d b3 a0 3d bd 2d 3d be
       0.033006392 0.1742847 0.078467585 -0.18474479
0000c0 fd a9 87 3c 5d 86 43 bc 0d 0e a2 bd 3d 35 ff bc
       0.016560549 -0.01193389 -0.07912836 -0.031153316
0000d0 19 9e 19 3b f7 ed 7c bc 2f 3d 3d 3d 6f c5 09 bd
       0.002344018 -0.015437595 0.046200927 -0.033635553
0000e0 39 7e df 3d 4f c9 87 bd b7 93 3d 3d 4e 00 a0 3d
       0.10912747 -0.066301934 0.04628345 0.07812558
0000f0 87 ba bb 3c 6d d3 b6 bd 0b 04 d0 3d f9 34 5e 3d
       0.022916092 -0.08927045 0.10157021 0.054249737
000100 34 cf 88 3d 5b 2f 57 3d c5 28 6f 3d 3e 80 87 3d
       0.06680146 0.052535396 0.05838849 0.06616257
000110 c6 3d 9e bd 36 85 23 3c cc 32 a8 3d 89 0d 5d 3d
       -0.07726626 0.00998049 0.08212814 0.053967986
000120 36 e7 5f bd 5a 02 de bc 3f 98 09 3d 44 3b 63 3c
       -0.05466386 -0.02710073 0.03359246 0.0138691105
000130 a4 d3 29 3e c4 9d 32 3d a6 f4 e1 3d 4f 4c 70 be
       0.1658464 0.04360749 0.11032991 -0.2346661
000140 b8 d3 82 bd 9b d5 14 bd b7 8f de 3d a1 c8 1e bd
       -0.063880384 -0.036336523 0.10867255 -0.038765553
000150 06 be 35 be 29 15 fb bc 80 ae 4b bd 9f 6c 6f bd
       -0.1774827 -0.030649738 -0.049726963 -0.0584532
000160 e1 47 28 3e 44 8c 79 bd 71 5a 1b 3d 03 08 a8 bb
       0.1643367 -0.060924783 0.03792805 -0.005127908
000170 69 0f a3 3c 48 a8 87 3d b8 41 62 bd 64 b0 bc 3c
       0.01990481 0.06623894 -0.055238456 0.023033328
000180 e9 24 bf 3d c2 b8 f1 3c 98 49 13 3d 8a ea 36 3c
       0.09333212 0.029507045 0.035958856 0.011164317
000190 b5 6b 84 bd 65 67 59 3d 31 7b 39 bd 97 f7 76 bc
       -0.06465856 0.05307712 -0.0452835 -0.015073678
0001a0 a7 1e a7 bd 7c 46 81 3d 58 09 94 bc 1a 35 9d 3d
       -0.08160143 0.06312272 -0.018070862 0.07676144
0001b0 3c 7e 81 3d 0d bd 13 bc 52 f3 8f 3b 91 95 5b 3d
       0.063229054 -0.009017241 0.0043930197 0.053609435
0001c0 7f c8 ca bd 82 6d 8f bd 38 41 2b 3c 7c 53 81 bd
       -0.09901523 -0.07003309 0.010452561 -0.063147515
0001d0 78 ed 4d 3c bd b3 d8 3d cf 57 98 bd 8f 43 53 3d
       0.012568824 0.10581157 -0.07438623 0.0515781
0001e0 63 13 8c 3d 92 bb 2c 3e 4b 95 71 3d cb c9 53 3d
       0.06839635 0.16868427 0.058980267 0.051706117
0001f0 0d 1c a5 bc 4f a9 52 3c 6f 81 69 3d 6f 28 95 bd
       -0.020154977 0.012857749 0.057008203 -0.07283103
000200 51 e8 e6 3d b9 d2 88 bc 7a e9 8b bd 9d 62 7d bd
       0.112747796 -0.016702043 -0.068316415 -0.061861623
000210 0c 54 ca bc 62 4c 48 3c e9 de 1e 3e b2 c7 c1 bb
       -0.02469828 0.012225242 0.15514721 -0.005913698
000220 cf 1f 89 3d 20 7e f9 3a f5 7b 48 be e4 e5 19 3d
       0.0669552 0.001903478 -0.19578536 0.037572756
000230 ae ff 75 3d 6c ff 66 3d 4d b2 0e bc b3 31 00 be
       0.06005829 0.056395933 -0.008709502 -0.12518959
000240 3d 61 b6 bd 62 28 8d bd 52 3c 49 bd 8a 0f a7 3c
       -0.089052655 -0.06892468 -0.04912979 0.020393152
000250 9b a4 a8 3c 0f 57 92 bd e8 ff b7 bd 94 d8 3f 3d
       0.020586303 -0.07145511 -0.08984357 0.046837404
000260 4a fa 0a 3d f7 cc ff bb 57 65 ba 3c 06 3e 26 3d
       0.0339301 -0.007806416 0.0227534 0.040586494
000270 02 07 02 3b 0c 10 21 bd 71 9e 11 bd 13 9f ef bc
       0.0019840603 -0.039321944 -0.035551492 -0.029250657
000280 bf e1 c5 3d d1 0d 04 3d 69 51 e9 3c 53 40 ee bd
       0.09662198 0.03223974 0.028481202 -0.116333626
000290 f7 ab 11 3e ad 5c 42 3d 51 bd d3 3c b4 c0 e9 3d
       0.14225756 0.047451664 0.025847109 0.11413708
0002a0 0f bf 2c bd e2 9f 86 3c 72 8c 2a bd 6d 2f 01 3d
       -0.042174395 0.01643366 -0.041637845 0.03153937
0002b0 92 85 ba bb 4a 5b 9d 3c 52 16 f7 3d bc ca d5 3c
       -0.0056921924 0.01920857 0.12064804 0.026097648
0002c0 9e 09 12 bc e6 92 c0 3d 47 12 c5 bd cf 99 c7 bd
       -0.008913426 0.09403019 -0.09622627 -0.097461335
0002d0 9e ee 7e 3b 58 4e a5 3d f7 7a 09 3d 0f 08 58 3d
       0.003889955 0.080715835 0.033564534 0.05274206
0002e0 85 bf 8e 3c 7d 02 3e bc fa 3e ce ba 64 ed 10 3b
       0.017425308 -0.011597273 -0.0015735321 0.0022114152
0002f0 f1 08 0f 3e 31 68 86 bd 4b 7f 76 bd 7b a0 ad bc
       0.13968255 -0.06562842 -0.06017999 -0.021194687
000300 05 7d b3 3d 1a 75 19 bd 9f 12 97 3d 3b 3e 39 bd
       0.0876408 -0.037465192 0.073765986 -0.045225363
000310 17 8c be bd b1 74 57 3c 06 72 af 3d ee 8b 35 bc
       -0.09304064 0.01315038 0.0856667 -0.011080725
000320 94 00 40 3d 1f 93 f1 bc fb b8 05 3d 67 55 ae bc
       0.04687555 -0.029489098 0.032647114 -0.021280957
000330 78 6f 3b bd 71 de 5d 3d a9 66 93 bd f3 e1 ca bd
       -0.0457606 0.054167215 -0.07197315 -0.09906378
000340 21 a3 d6 3d 45 e2 2a 3d 97 44 62 3d 5d 8f 7c bd
       0.10480333 0.041719694 0.055241194 -0.06166016
000350 1f 5d 0e 3d 12 f3 0f 3c 17 2e f1 bb 65 e6 4a 3e
       0.034756776 0.00878598 -0.0073602307 0.19814451
000360 45 5f 0f bd 9b 0d 0b be 63 0f 76 3d c5 a3 6c 3c
       -0.035002965 -0.13579409 0.060073268 0.014443343
000370 12 0f d8 bd 47 bb a6 3c 0c f0 99 bd 62 e8 11 3d
       -0.105497494 0.020352973 -0.075164884 0.03562201
000380 bc a2 78 3c 05 21 e8 bc e9 11 5a bd dc da 13 bd
       0.015175518 -0.028336057 -0.053239737 -0.036097392
000390 d4 c1 05 3e 5d a9 17 3e 0a be 4b bb 89 32 b6 bd
       0.13062221 0.148107 -0.0031088614 -0.088963576
0003a0 2f d9 92 3c 8c 04 cf 3b af 80 4b 3d 6f 1d 86 3b
       0.017925827 0.0063176807 0.04968327 0.004092864
0003b0 bf 2d 00 3d 37 66 b7 bd 00 38 16 3d 18 1c b0 bd
       0.031293627 -0.08955043 0.0366745 -0.085991085
0003c0 96 b9 82 3d d9 9f 15 bd 28 4d 98 bd b3 c2 80 3d
       0.06383054 -0.036529396 -0.074365914 0.06287136
0003d0 7a 51 1b 3d d6 8d 61 bd f6 fe 96 bd 8b fb 73 bc
       0.0379195 -0.055066906 -0.07372849 -0.0148915155
0003e0 6a ba a6 bd 8a 68 42 bc b3 12 c1 bd 38 18 36 3b
       -0.081410244 -0.011865744 -0.09427395 0.0027785432
0003f0 10 10 ad 3b ef 78 8b bd b1 f7 c1 3c d7 45 94 bd
       0.005281456 -0.068101756 0.023677679 -0.072398834

l2.bias f4 [256]
000000 ba 0b a5 ba 8f ef dc bd 60 ac dd 3c f8 fc f7 3b
       -0.0012591996 -0.1078788 0.027059734 0.007567998
000010 72 7b 22 3d a0 1b a5 3c 94 b0 69 bc 49 a8 1f 3d
       0.039668508 0.020154774 -0.014263291 0.03897885
000020 64 3a 83 3c 93 e4 33 3d 3f fb 56 bc e7 67 8c bd
       0.016019054 0.043919157 -0.013121425 -0.06855755
000030 f8 1f 8c 3d 9f 88 7b bd 14 c1 0b be ff 5b 03 bd
       0.06842035 -0.06140959 -0.13647872 -0.032070156
000040 aa 77 c6 3a 18 07 7c bd 7e 03 97 bc 6b 7e 48 bc
       0.0015141864 -0.061530203 -0.018434282 -0.012237172
000050 ed 3d ae 3b 21 d9 d9 bc 34 6c 18 bc 3d 81 45 3d
       0.0053174407 -0.026592793 -0.009303141 0.048218954
000060 17 08 18 3d 7d d7 5a 3d 15 9a 3a 3d 03 78 93 bd
       0.03711709 0.053428162 0.0455571 -0.07200625
000070 99 80 04 3c 68 80 e1 3d 64 a7 04 bc b2 ca 64 bd
       0.008087301 0.1101082 -0.00809655 -0.055857368
000080 ed 83 ae bd cd dc 16 bc a6 8a 09 be b2 6a 8b 3d
       -0.085212566 -0.009207916 -0.13431796 0.0680746
000090 5a 67 73 bd a8 46 8b 3b ea e7 f1 3c 3a d4 dd bc
       -0.059424736 0.0042503662 0.02952953 -0.027078737
0000a0 fc 5a ab bc b9 31 12 bd 52 00 55 3c d9 5b 8b 3d
       -0.020917408 -0.03569195 0.013000565 0.06804628
0000b0 19 78 c1 3d da 7c 26 3c 48 4a 40 bd ea 4c 2c bd
       0.09446735 0.010161603 -0.04694584 -0.04206554
0000c0 de f6 95 bd c0 30 4d bd 97 0c 03 bd 71 3f aa 3d
       -0.07322477 -0.05009532 -0.03199443 0.08312882
0000d0 6a d4 7a bc f8 dd 3d 3c 87 3e c1 bc 5a c7 02 bd
       -0.0153094325 0.011588566 -0.023589386 -0.031928398
0000e0 8a c4 c6 bb ec 55 ab bd a7 60 c2 bc 56 55 98 bb
       -0.0060659098 -0.08365998 -0.023727728 -0.0046488447
0000f0 71 87 07 3d c5 a3 c3 3c 0c 19 ac bd bd bb ee 3d
       0.03308815 0.023881802 -0.08403215 0.11656902
000100 d9 0b f7 bc 51 38 71 bd 80 d5 72 bd 2f 25 5a bd
       -0.030157017 -0.058891598 -0.05928564 -0.053258117
000110 c4 57 1f bd 60 0d 28 3d 39 a8 b0 bd 59 95 53 bd
       -0.03890206 0.04102838 -0.08625836 -0.0516561
000120 09 03 1d 3c c1 38 38 3d ba 6f 43 bc d3 88 85 bb
       0.009583243 0.044976 -0.011928493 -0.0040751486
000130 bb 7c 9a 3b f5 ec b4 bb 7a 1d 5e bd 49 a3 5f 3d
       0.004714576 -0.0055214115 -0.05422733 0.05459908
000140 b7 21 75 bd 7f 9f 1c bd 89 23 cb 3c c3 c3 bc bd
       -0.059846606 -0.038238045 0.024797218 -0.09217026
000150 58 a7 a2 bc 1d db 0e 3d cc f6 33 bc 8e 84 1e bd
       -0.019855186 0.03487693 -0.010984134 -0.038700633
000160 ac 58 b2 3d 8b d3 75 3c bb d1 c1 bc 46 a8 fb 3c
       0.08708319 0.015004049 -0.023659578 0.030719887
000170 75 f4 ef bc 76 5a e6 3d 29 5b 02 3c f1 a7 42 bd
       -0.02929137 0.11247723 0.007956305 -0.047523443
000180 e7 b5 38 bd 28 84 3f 3d 2d 8e 7b ba d6 c8 9f 3c
       -0.04509535 0.046756893 -0.0009596076 0.019504946
000190 21 00 43 3d f0 92 3b bd 9b d3 81 3c 35 7e 60 bc
       0.047607545 -0.045794427 0.015847972 -0.013701965
0001a0 4b 25 a1 3c 64 d3 63 bd 31 7f 2c bd 43 f2 aa bc
       0.019671103 -0.05562152 -0.042113487 -0.020867473
0001b0 19 2f 00 3c cb 99 21 bd cd ad 8c 3d ee 77 c5 3c
       0.007823729 -0.03945331 0.06869087 0.024105038
0001c0 f2 4d 8e bd 78 4a e7 3d 15 db ae bd cb 76 1d bd
       -0.06948461 0.11293501 -0.0853788 -0.038443368
0001d0 45 3b 03 bc 9f c2 97 3c 00 10 63 bd 1c 34 b5 3d
       -0.008009736 0.01852542 -0.05543518 0.0884783
0001e0 7f de 1f bd 68 44 13 bc dd 6f 9c 3d d9 a7 90 3d
       -0.03903055 -0.008988477 0.07638524 0.070632644
0001f0 04 ab 9b bc 59 c6 6d 3d fb 03 f1 bc 2f cf 1a 3c
       -0.019002445 0.058050487 -0.029420843 0.0094488105
000200 75 3a 79 3d f4 60 0e 3c a4 c4 83 3d bc 83 82 3d
       0.060846765 0.008690108 0.064339906 0.063727826
000210 f8 88 c1 bd 39 41 fb 3c 92 c7 7a bd 08 c1 52 bd
       -0.09449953 0.030670749 -0.06122548 -0.05145362
000220 a5 11 47 3d c8 ec 24 3b 02 0f 89 bb b6 9e 99 bd
       0.04860081 0.0025165547 -0.0041826973 -0.07500975
000230 a0 db 0e bd eb 1d b0 3d 41 70 ac 3c a9 5b 7a bc
       -0.03487742 0.085994564 0.02104962 -0.015280643
000240 8b a4 2b 3b c1 be 13 3d 93 b8 ec bc ab a7 6c 3d
       0.0026190605 0.03607059 -0.028896606 0.057777088
000250 ce b1 f5 bc 54 41 9b 3d 31 f1 96 bd 8c 03 4a bc
       -0.02999201 0.0758082 -0.07370222 -0.012329947
000260 b6 a9 37 bd 74 8c 00 3d ad 6d 04 bc b3 33 e5 bc
       -0.044839583 0.031383947 -0.008082789 -0.027978754
000270 cc d8 45 3d 7b 96 9c bc 1e 06 8c 3d 6a d2 1c 3d
       0.048302457 -0.019114723 0.06837104 0.038286604
000280 47 29 69 3d 6d fa dd 3c 90 9e 85 bd 0c aa 9a bc
       0.05692413 0.027096951 -0.06524384 -0.018879913
000290 c5 d8 c7 bc 33 db 33 3c e0 ce 47 3d 70 c4 e8 bc
       -0.024395356 0.010977554 0.048781276 -0.028413981
0002a0 d1 21 49 bd e0 e0 0a 3d 3c aa 26 bd db 93 ce bc
       -0.049104515 0.033905864 -0.040689692 -0.025216987
0002b0 fe 5a 80 bd a4 7a 60 bd fe a9 f3 3b 7f 91 26 3d
       -0.062673554 -0.05480446 0.007436036 0.0406661
0002c0 4a 3d da bb 9d d2 5b 3d 31 02 d9 3c e0 e7 3a bc
       -0.0066601383 0.053667653 0.026490303 -0.011407822
0002d0 f6 8f 06 bd be 3c 51 bd b1 e2 9b 3c 0a a0 fc 3d
       -0.032852136 -0.05108332 0.019028993 0.123352125
0002e0 8e f9 9f 3d a5 a9 bc bd a8 01 a8 3c d5 a0 08 3c
       0.07811271 -0.092120446 0.020508602 0.008339127
0002f0 74 db 49 3d 20 2d 0b bc 5e bc 12 bc 51 fc 5b ba
       0.049281552 -0.008494645 -0.008956043 -0.0008391785
000300 88 f8 df 3d b0 c1 93 3d 13 62 a5 3c 8d 59 94 bc
       0.109360754 0.07214677 0.020188367 -0.018109107
000310 df 1f f1 bc 99 4f 2f bd c2 7a a6 3c c3 3d 8a 3d
       -0.029434143 -0.04280052 0.020322207 0.06750061
000320 f6 11 e8 3c 75 cb 3d 3d 45 b2 ad 3b 2d fe 88 bd
       0.028328877 0.04633661 0.0053007924 -0.06689105
000330 74 53 4a bd 93 6b 54 bd 2c 1a 0f 3d 0c 74 fb ba
       -0.049395993 -0.051860403 0.03493707 -0.0019184365
000340 44 06 00 bd 7f 70 b0 bc bc 9f 83 bd 3c cc 29 bd
       -0.031255975 -0.021538017 -0.06426951 -0.04145454
000350 9b 75 24 bd e6 31 84 3d 6d c9 74 3d 84 0d c5 bb
       -0.04015122 0.0645483 0.059762407 -0.006013574
000360 32 28 4c 3d 54 a9 7f bd 67 a0 e8 3c a5 ee 16 bc
       0.04984302 -0.062417343 0.028396798 -0.009212171
000370 85 79 b9 3c 46 9d 2b 3c c5 8e 04 bd cb 1e 81 3c
       0.022640953 0.010474509 -0.032362718 0.015761754
000380 a6 ee 80 3d 1d b0 4b 3d 4f 93 82 3c f6 c2 17 3d
       0.062955186 0.0497285 0.015939383 0.037051164
000390 44 1d db 3d 06 f6 39 bd 2a 3e b0 3d bc ac 8f bd
       0.10698941 -0.04540064 0.08605607 -0.07015368
0003a0 aa ba 5b bd d0 0e b8 bc 22 d2 b8 3d 77 72 d9 bc
       -0.053644814 -0.022468 0.09024455 -0.026543839
0003b0 aa 30 77 bd 43 bd fd 3a 18 12 bd 3c 67 6e 71 3d
       -0.060349144 0.0019358773 0.023079917 0.05894318
0003c0 43 0d 3c 3d 5e 6e 8d b9 2d 6d ab bc 87 e4 3f 3d
       0.045911085 -0.00026975846 -0.020926083 0.0468488
0003d0 fa 2f 74 3c a5 55 c9 bd cf 10 0a 3d 38 39 96 3d
       0.014904017 -0.098307885 0.033707436 0.07335132
0003e0 e3 5e 0a bd 99 93 55 3d 1c b9 6b 3d b6 45 e0 bc
       -0.033781897 0.052142713 0.05754958 -0.02737699
0003f0 0a d1 1a 3d 04 f7 a0 bb fd c0 6c 3d 85 4e c6 bb
       0.03779701 -0.004912259 0.057801235 -0.0060518407

l3.weight f4 [4, 256]
000000 72 05 2e 3d d0 76 94 bd 79 65 78 bb ed 86 3e bd
       0.04248566 -0.07249224 -0.003790228 -0.046515394
000010 f2 b4 7c 3e df 82 d0 3d 04 30 fb 3d 7a 49 f2 bd
       0.246784 0.10181212 0.12265018 -0.11830421
000020 bf b2 c2 bd 96 bd 07 bd 72 a6 0d bb e6 62 9c bd
       -0.09506749 -0.033139788 -0.0021614102 -0.07636051
000030 c9 ee 6f 3d 78 14 78 3d 05 29 e3 3d 76 03 2b 3d
       0.058577333 0.060566396 0.11091808 0.041751347
000040 8e 0c 23 be 11 f9 22 bc b2 2f 93 bc bc 8d dc 3c
       -0.15922758 -0.009947077 -0.017967079 0.026923053
000050 70 a7 dd 3d c0 27 fa 3b 0c cb 69 bb a6 05 a4 3d
       0.10822952 0.007634133 -0.0035674004 0.0800889
000060 99 a5 1b bd 8f 1c ac bd ec 01 43 be ec 6a c7 bd
       -0.037999723 -0.084038846 -0.19043702 -0.097371906
000070 e1 03 1a bc 1c ae 4b 3e dd 00 b8 3d 29 73 8c 3c
       -0.009400339 0.19890636 0.0898454 0.017144756
000080 68 f3 db 3d 2a 4b 24 be cb 15 d7 3d 08 8a 47 bd
       0.107397854 -0.16044298 0.105022036 -0.04871562
000090 0d 38 fd bd 05 9b cc 3d 03 fc b1 3d 99 97 7a bd
       -0.123642065 0.09990505 0.086906455 -0.06117973
0000a0 8a c1 b9 3c fe f4 d8 3d d2 85 bf 3d a7 07 99 bd
       0.022675294 0.105936036 0.09351696 -0.07472163
0000b0 80 56 e2 3d 8e 65 60 bd 2d cc ba bc 1f 94 33 bd
       0.11051655 -0.05478435 -0.022802437 -0.04384243
0000c0 98 3a 45 bc cd 89 29 bd 4a a8 da 3d 76 09 3f bd
       -0.012037896 -0.041391183 0.1067663 -0.046639882
0000d0 81 d2 e3 bb 56 b2 f6 bd 4f eb 18 be 2b 48 4e 3a
       -0.0069525843 -0.12045734 -0.14933513 0.000786903
0000e0 39 eb 7c bd 01 1a 6c be bc ee 1f 3d 1a 49 f3 3c
       -0.061747763 -0.23056795 0.039046034 0.029697943
0000f0 88 f1 95 bd 7b 2b 30 be 0b 65 b7 bc aa 8c 11 be
       -0.07321459 -0.17204086 -0.022387048 -0.14213815
000100 64 4e c3 3d f2 bb 09 be 74 66 d3 3c d8 19 5f be
       0.09536436 -0.13450602 0.02580569 -0.21787202
000110 80 d3 ad 3d b0 33 5d 3d eb cf c6 bd a2 50 02 be
       0.08487606 0.05400437 -0.09707626 -0.12726071
000120 4a 90 3c 3c d0 9e c9 bd 94 78 9d bd 79 45 d0 3d
       0.011509011 -0.09844744 -0.07689014 0.10169501
000130 f5 6d d8 3d 13 b8 c7 3d 1f 13 28 bd ad 15 21 3e
       0.10567848 0.09751906 -0.04103386 0.15730925
000140 24 cc 83 3d ab 82 57 bc fb eb 36 3d d6 e3 d5 3d
       0.06435421 -0.013153712 0.044658642 0.10443847
000150 26 16 a4 bd ef 1e 94 3b ca 2b 26 3e fb 08 34 3d
       -0.08012037 0.004520289 0.16227642 0.043953877
000160 97 0d e8 3d 09 35 55 3c 11 a4 f4 3b a7 a5 a9 bd
       0.11330717 0.013013133 0.0074658473 -0.08283549
000170 95 34 e0 3d 4d 0e ae bd 3e 60 fd bd d6 6d c9 3d
       0.10947529 -0.084988214 -0.12371872 0.09835403
000180 e7 dc c0 3d ef bb 79 3d 4e 40 f2 3c 91 d1 3f 3c
       0.09417134 0.060970243 0.029571678 0.011707679
000190 80 06 1f 3e 76 e8 96 3d a3 93 3d 3c 0f 41 8e 3d
       0.15529823 0.07368557 0.011570844 0.06946003
0001a0 e4 80 b1 bd 47 90 b6 bd 7d fb 8b 3b 2c 8c 55 3c
       -0.08667162 -0.089142375 0.004271923 0.013033908
0001b0 07 d4 8b bd cd 9c 8f 3e c1 85 b8 3b 3d 71 74 bd
       -0.068275504 0.28049317 0.005631179 -0.059678305
0001c0 e7 2f 60 bd e8 6d 7b bd e3 97 d3 3d 01 46 9f bd
       -0.054733183 -0.06138411 0.103317045 -0.07777024
0001d0 70 04 b6 bd 19 7a f1 bc 25 b7 cf bc 0b d8 e3 3d
       -0.08887565 -0.029477166 -0.025355885 0.11125191
0001e0 da 04 d3 3c 79 a2 42 3d 8d 5e 27 be 11 51 b0 3c
       0.02575915 0.047518227 -0.16344662 0.02152303
0001f0 6a d4 7a be d8 e1 38 3d bd 5f 9d 3c 4a a5 8d 3b
       -0.24495092 0.045137256 0.01921069 0.0043226825
000200 e0 7e a7 3d 46 3e 84 be d2 30 11 3d 32 eb 78 be
       0.08178496 -0.2582876 0.03544695 -0.2430847
000210 42 e7 bc bd 8f 4d 8c 3d 78 2d a7 bc d9 9c 2e 3e
       -0.092237964 0.06850731 -0.020407423 0.1705202
000220 34 cd f3 3d 8c f9 ca 3c 7f 0d d7 3d 62 5e a6 3b
       0.11904374 0.024777196 0.10500621 0.0050771693
000230 29 3c 5f bc 21 20 09 bd 87 50 14 3e fc ed aa 3c
       -0.013625183 -0.033477906 0.14483844 0.020865433
000240 63 08 ee 3d d4 bd 7d bd 76 e9 f0 3a 19 e9 3c be
       0.116226934 -0.061948612 0.0018380124 -0.18448295
000250 40 dd 3b be b8 66 20 be f4 f2 02 3e 2e 36 ed 3c
       -0.18346119 -0.15664184 0.12787992 0.028956499
000260 3e 76 6d 3e 71 70 8f bd bc a5 5c bb e0 e7 7b bd
       0.23189637 -0.07003868 -0.0033668121 -0.06150043
000270 e1 71 4a 3d 73 95 52 3d 47 13 82 3d f0 e8 0d bd
       0.04942501 0.051412057 0.06351333 -0.034645975
000280 1a 48 e9 bd ec 93 d2 bd b2 bb 3b 3c 2f 0d 2c 3e
       -0.113907054 -0.1028212 0.011458324 0.16801904
000290 e1 70 f2 bc 17 2c 0a 3d 8a 94 79 bd cb dc ee bd
       -0.02959484 0.033733454 -0.060932674 -0.11663207
0002a0 09 3b 99 bd b7 7b 68 bd 71 48 0f bd c2 35 6b 3e
       -0.07481963 -0.05675861 -0.034981195 0.22969726
0002b0 77 37 05 be c0 c6 7a 3c ab 63 5f 3d ce fb ef bd
       -0.1300944 0.015306175 0.05453841 -0.1171795
0002c0 f3 b0 c5 3c 42 ff c6 3d 84 73 01 3e 49 d7 96 bd
       0.024132228 0.09716655 0.12641722 -0.07365281
0002d0 e8 fd b6 3d 6e f7 51 3e 3f 7e b7 3d 16 60 8a 3d
       0.089351475 0.20504543 0.089596264 0.06756608
0002e0 a8 16 08 3e 06 7e 0a be a5 0b a7 bd d5 8e 13 be
       0.13289893 -0.13524637 -0.08156518 -0.14409955
0002f0 69 43 3c 3e b8 a8 aa bc 1a 76 ac 3c c6 aa 7f bc
       0.1838509 -0.020832404 0.021052409 -0.01560468
000300 c6 b2 12 be 7b 9f 4a 3d 91 ee 9d 3d c9 7c b7 3d
       -0.14326009 0.0494685 0.077115186 0.08959348
000310 09 ac 09 3e 3c 04 5e bd b5 21 dd 3d 13 19 6d 3d
       0.13444532 -0.054203257 0.10797445 0.05788524
000320 b0 67 06 3d a0 03 80 bc 49 a9 22 3a 91 a5 f3 bd
       0.032813728 -0.015626729 0.0006205035 -0.11896814
000330 cf 27 e1 bd a0 c5 ae bd c1 c3 c4 bd 30 ed d0 3d
       -0.10993921 -0.08533788 -0.096076496 0.1020149
000340 81 db cd 3d 11 fa f7 bd 36 80 97 bd 95 1a 0a 3e
       0.10051633 -0.12108243 -0.07397501 0.13486703
000350 66 3c f7 bd 63 82 b5 bd 18 98 3d 3d 2c b8 50 bd
       -0.12072067 -0.0886276 0.046287626 -0.05095689
000360 e9 d9 1d bc b2 48 14 bb cb fc d1 bd f7 96 4c 3c
       -0.009634473 -0.0022626338 -0.102532946 0.012487165
000370 93 09 da bc 1c 16 c3 bd b8 45 98 3d cb 70 ad 3d
       -0.026615893 -0.095257014 0.07435173 0.08468779
000380 41 d7 8f 3d ed 23 2b 3e cf 75 0b be 55 dc e3 bd
       0.07023478 0.16712923 -0.13619159 -0.111260094
000390 80 c5 a5 bb f9 96 bb 3c 49 07 e8 bc ad e5 b8 bd
       -0.005058944 0.022899138 -0.028323786 -0.09028182
0003a0 2d 0e dd 3d 67 57 ca bc 84 a4 a8 bd db 96 39 bd
       0.107937194 -0.02469988 -0.08234504 -0.045309883
0003b0 09 5c 12 3d f0 18 42 3d b7 53 5a be 99 56 eb 3d
       0.035732303 0.047387064 -0.21320997 0.114911266
0003c0 57 ff 83 bd 2a bb 6f bc c4 ca e5 3d f0 f2 95 bc
       -0.064451866 -0.014632026 0.11220315 -0.018304318
0003d0 e1 09 2f 3d 4c 0d 7f 3d 58 97 01 be 9f d5 44 bd
       0.04273403 0.06226854 -0.1265539 -0.048055287
0003e0 ff 49 8d bd a1 3d 21 3d 7e fc 9b 3c 11 1d 5e bd
       -0.06898879 0.039365415 0.019041296 -0.05422694
0003f0 52 61 12 3d 1a 81 03 3e f3 7e 09 3e bc 67 9f 3d
       0.035737343 0.12842217 0.13427334 0.07783458

l3.bias f4 [4]
000000 e2 3e 53 3c 02 69 9e 3d 3d b7 de 3c 86 db 65 3d
       0.01289341 0.077348724 0.027186984 0.056117557
