HardcoreVersion_7500_Working/actor/ppo_actor2700.pth (torch, 295492 bytes, 6 tensors)

l1.weight f4 [256, 24]
0	0x3f2352c4	0.63798165
1	0x3fe76ed3	1.8080696
2	0xbf8e3df2	-1.1112654
3	0x3f806a9a	1.0032532
4	0xbd8ce3b3	-0.06879368
5	0x3dcde379	0.100531526
6	0x3d7bc5bf	0.061467882
7	0x3e76ce69	0.24102177
8	0x3e28a7d3	0.1647027
9	0xbd94ec10	-0.07271588
10	0x3e673a81	0.22580911
11	0x3dd6f194	0.10495296
12	0x3dfaa9c1	0.12239409
13	0x3d9f5816	0.07780473
14	0x3e248134	0.16064912
15	0x3d4d1ba8	0.050075203
16	0x3e5a3210	0.2130816
17	0xbd823de9	-0.06359465
18	0xbe3cc9e9	-0.18436398
19	0x3c690fb3	0.014224934
20	0xbdb119ad	-0.086474754
21	0x3cdafc3a	0.0267316
22	0xbdf64139	-0.12024159
23	0x3de1db7f	0.11028194
24	0xbf45e96c	-0.773093
25	0xbe0e371b	-0.13888209
26	0x3de3d3ae	0.11124359
27	0xbf94e2ba	-1.1631691
28	0x3e144706	0.14480218
29	0xbe4fe2e5	-0.20301397
30	0x3f35e533	0.71052855
31	0xbd6accd9	-0.057324264
32	0x3eb49bb0	0.3527503
33	0xbdd3bffa	-0.10339351
34	0xbe0efba7	-0.13963185
35	0x3ebf9f23	0.374261
36	0x3ccea62c	0.025225721
37	0x3eb1c7ae	0.34722656
38	0x3c761472	0.015019523
39	0xbdfbf6d9	-0.12302942
40	0xbd75f2bc	-0.060045943
41	0xbdebda9c	-0.11516306
42	0x3dcce764	0.10005072
43	0x3e450a56	0.19242224
44	0x3dbb5d4e	0.09148656
45	0xbde50f02	-0.11184503
46	0x3d8056e4	0.06266573
47	0x3d6178f5	0.055046994
48	0x3f15204c	0.58252406
49	0xbe4c3648	-0.19942582
50	0xbe7de323	-0.24793677
51	0xbe017386	-0.12641725
52	0xbef2aec1	-0.47398952
53	0x3ed62bfd	0.41830435
54	0x3e99a3f4	0.300079
55	0x3e0195be	0.12654778
56	0x3e56bcaa	0.20970407
57	0x3c0e5e4e	0.008689476
58	0x3e4e06f4	0.2011984
59	0xbe80a49b	-0.25125584
60	0x3d305b67	0.043055918
61	0xbd509a73	-0.050928544
62	0x3e6a68e4	0.22891575
63	0x3d94dc73	0.0726861
64	0x3e43e914	0.19131881
65	0x3cd6cc5f	0.026220499
66	0x3e3241dd	0.17407937
67	0xbd6ad165	-0.0573286
68	0x3ca3510a	0.019936103
69	0x3deb1f3b	0.11480566
70	0x3ec6fddd	0.38865557
71	0x3e5d1f43	0.21593957
72	0x3ea3c9f6	0.3199002
73	0x3d00e064	0.031463996
74	0xbf16e1b7	-0.58938164
75	0x3f000bca	0.5001799
76	0xbe69ff68	-0.22851336
77	0x3dbc12dc	0.09183285
78	0x3e21b9ce	0.15793535
79	0x3e0ba4db	0.13637106
80	0xbebe4c80	-0.3716774
81	0xbe1a92f4	-0.1509512
82	0x3db0c2f4	0.08630934
83	0xbe312962	-0.17300943
84	0x3e919256	0.28431958
85	0xbd08855d	-0.03333031
86	0x3e4a1163	0.19733195
87	0xbe96af85	-0.29430786
88	0xbed3de53	-0.41380557
89	0xbe8caa4a	-0.2747367
90	0xbdbdfe8f	-0.09277069
91	0x3c6230f5	0.013805618
92	0x3eb2155b	0.34781918
93	0x3e87ac22	0.26498514
94	0xbe17a09c	-0.14807361
95	0xbdc79d4d	-0.097467996
96	0x3efb1e4a	0.49046546
97	0x3f23ea26	0.6402916
98	0xbe741f20	-0.23839998
99	0xbf29e337	-0.6636233
100	0xbea2557f	-0.31705853
101	0x3eb38cdc	0.35068405
102	0x3e083996	0.13303217
103	0xbe3eb9ea	-0.18625608
104	0xbd5eab0f	-0.054362353
105	0xbf069366	-0.5256866
106	0xbe039562	-0.12849954
107	0xbdb02955	-0.086016335
108	0xbdf72d34	-0.12069169
109	0xbe2b64c1	-0.16737653
110	0x3ec31936	0.38105172
111	0x3d09d9dd	0.033655036
112	0xbe23ffd8	-0.16015565
113	0xbee32496	-0.4436385
114	0xbe804f93	-0.2506071
115	0xbd989f1a	-0.07452221
116	0x3d644846	0.055732988
117	0xbe362dd3	-0.17790918
118	0xbc53cef8	-0.012927763
119	0xbcdd4d43	-0.02701438
120	0x3e0a8e97	0.13530956
121	0x3edbfa30	0.42964315
122	0xbf0d30f8	-0.55152845
123	0xbf47653f	-0.77888864
124	0xbe0befd4	-0.13665706
125	0xbea0e805	-0.31427017
126	0xbcfc7fdd	-0.030822689
127	0xbe4a73c4	-0.19770724
128	0x3eb4f0b1	0.35339883
129	0xbc297b4e	-0.01034434
130	0x3ec53a1b	0.38520893
131	0x3e0b7af1	0.13621117
132	0xbe0f0d18	-0.13969839
133	0x3e65ccf1	0.2244146
134	0xbcd63ff8	-0.02615355
135	0xbe3908ef	-0.18069814
136	0xbeb0fff6	-0.34570283
137	0xbec214da	-0.37906533
138	0xbc171840	-0.00922209
139	0xbcf64d8e	-0.030066278
140	0x3ddcf64d	0.10789166
141	0xbda73289	-0.08163936
142	0x3e48e6ec	0.1961934
143	0xbdd77b4f	-0.10521566
144	0xbd998f8c	-0.074980825
145	0x3ea9d360	0.3316908
146	0x3f4108ff	0.7540435
147	0xbf66998e	-0.90078056
148	0x3e87de28	0.2653668
149	0xbeef7d81	-0.4677544
150	0xbe36497f	-0.17801474
151	0xbda47a8b	-0.08031186
152	0x3c1c7fe2	0.009551974
153	0xbf015e27	-0.5053429
154	0x3ed13e7d	0.40867987
155	0xbefa8e6b	-0.4893678
156	0x3e8c73fd	0.27432242
157	0x3d9409d2	0.072284356
158	0xbd336833	-0.043800544
159	0xbe40837e	-0.1880016
160	0x3dffc76d	0.12489209
161	0x3b85b692	0.004080602
162	0x3d373b27	0.044734146
163	0xbe157c61	-0.14598228
164	0x3d04a4e0	0.0323838
165	0xbe79b720	-0.24386263
166	0xbe2b6b30	-0.16740108
167	0x3e825e10	0.2546239
168	0x3efea283	0.49733362
169	0x3e6c883c	0.23098844
170	0xbf2a6f1b	-0.66575783
171	0xbf70204b	-0.93799275
172	0x3c4302e7	0.011902547
173	0xbe8d657e	-0.27616495
174	0xbe326ef8	-0.17425144
175	0xbd6ce5f6	-0.057836495
176	0xbee1fd2b	-0.44138464
177	0x3ea33db5	0.31883016
178	0x3ea1f2d4	0.31630576
179	0xbe3bf08d	-0.18353482
180	0x3e343940	0.17599964
181	0x3e5a5f4f	0.2132542
182	0xbcfdc294	-0.030976571
183	0xbd86718e	-0.065646276
184	0x3e8422f9	0.25807932
185	0x3e6969c5	0.22794254
186	0x3e21d47d	0.15803714
187	0xbd12e894	-0.035866335
188	0xbd661224	-0.056169644
189	0x3d27fe16	0.0410138
190	0xbdc35a70	-0.09538734
191	0xbdbc45f7	-0.09193032
192	0x3eac1197	0.3360717
193	0x3e83bc4c	0.25729597
194	0xbee9fd0a	-0.45700866
195	0x3ef0abff	0.47006223
196	0xbda75414	-0.081703335
197	0x3dc153a9	0.09439785
198	0x3e0577fd	0.13034053
199	0xbd36fc30	-0.0446741
200	0xbf40f890	-0.75379276
201	0xbca5f52d	-0.02025851
202	0x3ee9376e	0.45550102
203	0x3ee2116c	0.44153917
204	0x3dbcbd8e	0.09215842
205	0xbe7106d6	-0.23537764
206	0xbe18e133	-0.14929657
207	0xbe97a822	-0.29620463
208	0xbe46e43b	-0.19423
209	0x3ca13488	0.01967837
210	0x3de4e3ea	0.11176284
211	0x3e0b949f	0.13630913
212	0xbe293ab5	-0.16526301
213	0xbdaacdd4	-0.0834004
214	0x3dd217d0	0.10258448
215	0x3e781eb5	0.24230464
216	0x3e51b91b	0.20480768
217	0x3f354ed1	0.7082339
218	0x3d166954	0.036721542
219	0xbec88e37	-0.39171
220	0xbef50b66	-0.4786026
221	0x3e9c7fd8	0.30566287
222	0xbd97354c	-0.073832124
223	0xbc667cfd	-0.0140678855
224	0xbe87a0ae	-0.26489776
225	0x3eee261b	0.46513447
226	0x3dfde6ce	0.12397538
227	0x3edbeeca	0.4295562
228	0xbd3d3b82	-0.04619933
229	0xbeb4c970	-0.35309935
230	0xbe0d1bc3	-0.13780122
231	0x3e98f949	0.2987769
232	0x3eb715a0	0.35758686
233	0x3ed1f885	0.41009918
234	0x3e8a72a6	0.27040595
235	0x3c21cfdc	0.009876218
236	0x3bb30370	0.0054630563
237	0xbe6ca890	-0.23111176
238	0xbe8f0bd8	-0.27938724
239	0xbe7b35ad	-0.24532194
240	0x3f802f55	1.0014445
241	0x3fcc0725	1.593968
242	0xbefe014d	-0.49610367
243	0xbed2e60a	-0.4119113
244	0xbe1f3e2b	-0.15551059
245	0xbdea397d	-0.11436746
246	0xbd6a2573	-0.05716462
247	0x3d951ed4	0.072812706
248	0xbe34c658	-0.17653787
249	0x3f0ce5f0	0.55038357
250	0xbe639f9c	-0.22228855
251	0xbd3e3086	-0.046432994
252	0xbe037eec	-0.12841386
253	0xbe65d9c1	-0.22446348
254	0xbdd57421	-0.104225405
255	0xbdca814b	-0.09887942

l1.bias f4 [256]
0	0xbe5e1825	-0.21688898
1	0x3d77df1b	0.060515504
2	0x3dac2eb4	0.084073454
3	0x3e309d39	0.17247476
4	0xbe27062d	-0.1631095
5	0x3d74bf9c	0.059753045
6	0x3e26f3a0	0.16303873
7	0xbbc98573	-0.0061499416
8	0xbdb62fb4	-0.088958174
9	0x3e292833	0.16519241
10	0xbe8d825b	-0.27638516
11	0x3e94d1f8	0.29066443
12	0x3d9c3c8e	0.076287374
13	0x3deeb1f6	0.11655037
14	0x3e2f3fbb	0.17114155
15	0x3dd48a09	0.103778906
16	0xbd8a84c6	-0.06763606
17	0xbce55565	-0.02799482
18	0xbe4efbb0	-0.20213199
19	0x3e473e29	0.19457306
20	0x3e3e1359	0.18562068
21	0x3dd7aff9	0.10531611
22	0xbe0a9609	-0.13533796
23	0xbbb244cc	-0.00544033
24	0x3c2746c9	0.010209748
25	0x3d849cc1	0.06475211
26	0xbe1db4bd	-0.15400977
27	0x3db7faf6	0.08983414
28	0xbdcaeb16	-0.0990812
29	0xbb7dbbbd	-0.0038716637
30	0x3e3cd174	0.18439275
31	0x3e3463a2	0.17616132
32	0x3cd1389e	0.025539692
33	0x3c8c150a	0.017099876
34	0x3e35763f	0.17720889
35	0x3de052ec	0.10953316
36	0xbe5fa51c	-0.21840328
37	0x3daec8fe	0.0853443
38	0xbe8c5248	-0.27406526
39	0x3caa8170	0.020813674
40	0xbe0d360a	-0.13790146
41	0x3e8e1f7b	0.27758393
42	0x3e9eb4ed	0.3099741
43	0xbe62072b	-0.22073047
44	0xbde78a41	-0.11305667
45	0x3d2274e8	0.03966227
46	0xbe42da40	-0.19028568
47	0x3e643e64	0.22289425
48	0xbe293dbd	-0.16527458
49	0xbd81bc83	-0.06334784
50	0xbe26ca60	-0.16288137
51	0x3cc9068c	0.024539255
52	0xbe0ca341	-0.13734151
53	0xbe0b2921	-0.13589908
54	0x3ea7c1e3	0.3276511
55	0x3dd6c415	0.104866184
56	0x3e7b3ba2	0.24534467
57	0x3d9f3922	0.07774569
58	0x3daad0c4	0.083406
59	0x3d7000aa	0.058594383
60	0xbdc161a8	-0.094424546
61	0x3e001714	0.12508804
62	0xbe73299e	-0.23746344
63	0xbd9a1962	-0.07524373
64	0xbe00bde1	-0.12572433
65	0xbe09853e	-0.13429734
66	0xbdd3aff1	-0.103362925
67	0x3e53ca82	0.2068272
68	0xbdd0d097	-0.10196035
69	0xbe47aea2	-0.19500211
70	0xbdac1250	-0.0840193
71	0xbe554d3d	-0.20830245
72	0x3e337dc4	0.17528445
73	0x3d08b864	0.033378974
74	0xbea94784	-0.33062375
75	0xbe6f9d1b	-0.23399775
76	0xbd9d7d99	-0.076899715
77	0x3dd73e71	0.10509957
78	0x3e4566fe	0.1927757
79	0xbd4c9877	-0.04995009
80	0x3e83b3e4	0.25723183
81	0xbde893fa	-0.11356349
82	0x3cb8d5ee	0.022562947
83	0x3d1e742a	0.038685
84	0xbe8df2b4	-0.2772423
85	0xbe015436	-0.1262978
86	0xbcb9f022	-0.022697512
87	0x3db9cc34	0.09072152
88	0xbe4b4f42	-0.19854453
89	0xbe074f16	-0.13213763
90	0x3a95e7da	0.0011436895
91	0x3d02e885	0.03196003
92	0xbca7ca12	-0.020482097
93	0xbe39b6fe	-0.18136212
94	0x3e95d9df	0.29267785
95	0xbdfb7a27	-0.12279158
96	0x3bf25370	0.0073952004
97	0x3e8a082d	0.26959363
98	0xbdb88814	-0.0901033
99	0xbd35fc2d	-0.044429947
100	0xbe524788	-0.205351
101	0x3e2ed710	0.17074227
102	0x3b7e6641	0.0038818272
103	0x3e1a110b	0.15045564
104	0xbd60158f	-0.05470806
105	0xbe746702	-0.2386742
106	0x3d2751c1	0.04084945
107	0x3e1b3fc4	0.15161043
108	0xbe14bdf0	-0.1452558
109	0xbe49d44d	-0.19709893
110	0x3e55e2d7	0.20887314
111	0xbdf50430	-0.11963689
112	0xbcb8f241	-0.022576453
113	0xbdb39fd0	-0.08770716
114	0xbd4210eb	-0.047379415
115	0xbd13d562	-0.03609217
116	0xbe8941ab	-0.26807913
117	0xbe8dcfc6	-0.2769758
118	0x3d0b308e	0.033981852
119	0xbdbbc55a	-0.09168501
120	0x3e3a17fb	0.1817321
121	0xbd0b9102	-0.034073837
122	0xbe635b3e	-0.22202775
123	0xbd5e6fb4	-0.054305747
124	0xbdb7dea5	-0.08978013
125	0x3bb57133	0.005537176
126	0x3ebb1455	0.3653895
127	0x3ce259e2	0.02763075
128	0xbca25a69	-0.019818502
129	0x3e1c82f9	0.15284337
130	0xbe654576	-0.22389778
131	0x3df712a7	0.120641045
132	0xbd4551cc	-0.04817371
133	0x3c268e6b	0.010165791
134	0xbd974b3b	-0.07387396
135	0xbd9c79ad	-0.07640395
136	0xbe8b14bc	-0.27164257
137	0xbd218be7	-0.039440062
138	0x3e06cd79	0.13164319
139	0x3e063cc3	0.13109116
140	0x3d87da12	0.066333905
141	0x3e21979e	0.15780494
142	0x3e274ed2	0.16338661
143	0xbdd4b82c	-0.103866905
144	0x3e19c5d8	0.15016878
145	0xbd1c0ec9	-0.038100038
146	0xbc8c67ac	-0.017139278
147	0x3cbed946	0.023296963
148	0xbdb90e4a	-0.090359285
149	0xbde8e300	-0.11371422
150	0x3ea90860	0.33014202
151	0x3e6fb8c1	0.23410322
152	0x3c795deb	0.015220146
153	0x3cb7bfe3	0.022430366
154	0xbd9b78e5	-0.07591418
155	0xbddbebb8	-0.10738319
156	0xbd8ae850	-0.06782591
157	0x3e031a7e	0.12803075
158	0x3d2f22f1	0.042757932
159	0xbda1d03c	-0.07901046
160	0xbc945495	-0.018106738
161	0xbe22c70e	-0.15896246
162	0x3c063f49	0.008193799
163	0x3c864103	0.016388422
164	0xbdd8d4a3	-0.10587432
165	0x3e10dad1	0.14145972
166	0x3d89f4db	0.067361556
167	0x3e3ce334	0.18446046
168	0x3db1bad6	0.08678214
169	0x3de0226d	0.10944066
170	0xbdfd142c	-0.12357363
171	0xbdd45638	-0.103680074
172	0xbe12446e	-0.14283916
173	0xbdb9b976	-0.09068577
174	0x3e312ec0	0.1730299
175	0x3e65db5b	0.22446959
176	0x3d8475d3	0.06467786
177	0xbe2fddeb	-0.17174499
178	0x3d406768	0.046973616
179	0x3afdcc2b	0.0019363215
180	0xbd0aeef4	-0.03391929
181	0xbe05c5a2	-0.13063672
182	0x3e068cc6	0.13139638
183	0xbe2f4eca	-0.171199
184	0x3de3a5a4	0.11115578
185	0xbda93037	-0.082611494
186	0x3e5429cb	0.20719068
187	0xbd6b4ac8	-0.057444364
188	0x3daf9f6d	0.0857533
189	0x3e0dcb96	0.13847193
190	0x3e945ff2	0.2897945
191	0x3e780070	0.24218917
192	0x3dc70ae4	0.09718874
193	0x3d7b31d3	0.061326813
194	0x3e0d6be3	0.13810687
195	0x3e80fbcc	0.25192106
196	0xbb9e6472	-0.0048337514
197	0x3d226b85	0.03965332
198	0x3db74ce3	0.08950212
199	0x3d69bb7f	0.057063576
200	0x3bb11ade	0.005404814
201	0x3e259998	0.16171873
202	0xbe06e24a	-0.1317226
203	0xbd59dc09	-0.053188358
204	0xbe60c563	-0.21950297
205	0x3e033896	0.12814555
206	0xbd65fc94	-0.05614908
207	0xbe146a10	-0.14493585
208	0xbe399d2c	-0.18126363
209	0xbe0dae83	-0.13836102
210	0x3e0dfede	0.13866755
211	0xbc73a109	-0.014869937
212	0xbde7673f	-0.112989895
213	0xbd02b4e8	-0.031910807
214	0xbe0794f9	-0.13240422
215	0xbe4530ac	-0.19256848
216	0xbc9c4986	-0.019078027
217	0xbd113627	-0.035452034
218	0xbe94c259	-0.29054525
219	0xbe592945	-0.2120715
220	0xbd9562a4	-0.07294205
221	0x3e026fbb	0.12737934
222	0x3e6c99fc	0.23105615
223	0xbd9b55f7	-0.07584756
224	0x3e1617e3	0.1465755
225	0x3d345040	0.044021845
226	0xbda9429b	-0.08264657
227	0xbdc404e7	-0.095712475
228	0xbdffa318	-0.124822795
229	0xbe2fef9e	-0.1718125
230	0x3a2fcc57	0.0006706169
231	0x3df16ec5	0.11788706
232	0xbe73a86a	-0.23794714
233	0xbde859a7	-0.11345225
234	0xbe2c37bb	-0.16818134
235	0x3e9bafaf	0.30407473
236	0x3e4326e2	0.19057801
237	0xbd95302b	-0.07284578
238	0x3ebe7799	0.3720062
239	0xbe18e9b5	-0.14932902
240	0x3dfa6b7e	0.12227534
241	0xbd803b72	-0.06261338
242	0xbcc42946	-0.023945462
243	0x3e22f616	0.15914187
244	0x3db89a5d	0.090138175
245	0xbdda0047	-0.10644584
246	0xbdb7272d	-0.08943019
247	0x3e38d59b	0.18050234
248	0x3dd60192	0.10449518
249	0xbcb2658d	-0.021776939
250	0xbdaa4c1e	-0.083152995
251	0x3e34567e	0.17611119
252	0xbdfd1ed0	-0.12359393
253	0xbdc63188	-0.09677416
254	0x3d9c0af9	0.0761928
255	0x3ecb5404	0.39712536

l2.weight f4 [256, 256]
0	0x3e5fecf5	0.21867736
1	0xbdad36a2	-0.08457686
2	0x3e2cc333	0.16871338
3	0x3b20ba0c	0.0024524955
4	0xbdf51fdd	-0.11968968
5	0xbdb5970e	-0.08866702
6	0x3e52c437	0.20582663
7	0x3c764db8	0.015033178
8	0x3c38289a	0.011240149
9	0x3dfe924b	0.12430247
10	0xbdb89bf6	-0.09014122
11	0x3e156c1d	0.14592023
12	0x3d120169	0.035645876
13	0xbce15d2a	-0.027510244
14	0x3e0fc6e3	0.14040713
15	0x3c44628c	0.011986386
16	0xbd9911b5	-0.074740805
17	0xbdbd4f36	-0.09243624
18	0xbdbfdfa0	-0.09368825
19	0x3d1bf34a	0.038073815
20	0x3b84ba6f	0.004050545
21	0xbd792df4	-0.06083484
22	0x3d1e93cd	0.038715173
23	0xbd9baf20	-0.07601762
24	0xbe44577f	-0.19174002
25	0x3d07db20	0.03316796
26	0xbc86f112	-0.016472373
27	0x3e3ab04e	0.18231317
28	0x3c58be73	0.013229
29	0xbb8f02b6	-0.004364337
30	0xbccb0356	-0.024781864
31	0x3dfcf5f7	0.123516016
32	0xbd2b7d76	-0.041867696
33	0xbd842989	-0.06453235
34	0xbd420ac6	-0.047373556
35	0x3d6b82a8	0.05749765
36	0xbc4527f2	-0.0120334495
37	0xbd0a9ed8	-0.03384289
38	0xbd591f08	-0.05300811
39	0xbd211c7b	-0.0393338
40	0xb9f9554a	-0.00047556526
41	0x3da74e20	0.08169198
42	0x3d84e3f3	0.0648879
43	0xbe82cc46	-0.25546473
44	0x3d7f9bdc	0.0624045
45	0x3e804f31	0.25060418
46	0xbd28dd9f	-0.04122698
47	0xbcfb3cf1	-0.030668708
48	0x3ce3209f	0.027725516
49	0xbd1b1384	-0.03786041
50	0xbddd44d7	-0.10804146
51	0x3dafa45f	0.08576273
52	0x3d3bee40	0.04588151
53	0xbca5d5fa	-0.020243634
54	0x3dee45fe	0.11634444
55	0xbca03ba8	-0.019559696
56	0x3deb7842	0.11497547
57	0x3c0d8404	0.008637432
58	0x3d8320a5	0.06402711
59	0x3d76d6b7	0.06026336
60	0x3d94f2fc	0.07272908
61	0x3ccd4350	0.025056511
62	0xbc2dd74e	-0.010610415
63	0xbbe26ef0	-0.0069101974
64	0x3dac6f5c	0.084196776
65	0x3dab9973	0.083788775
66	0x3df6d317	0.12051981
67	0x3d7c25b7	0.061559405
68	0xbe13446b	-0.14381568
69	0xbdd30895	-0.10304371
70	0x3d0fcf5c	0.035109863
71	0x3d11543f	0.035480734
72	0xbd63d89e	-0.055626504
73	0x3e3d232e	0.18470451
74	0x3b97a991	0.004628368
75	0x3e0bc96e	0.13651058
76	0x3e180012	0.14843777
77	0x3d91268b	0.070874296
78	0xbad300bf	-0.0016098245
79	0xbe7ae2e9	-0.24500622
80	0xbc5e7cf1	-0.013579593
81	0x3db71953	0.08940377
82	0x3d452c11	0.048137728
83	0xbd95cbb3	-0.07314243
84	0xbe3575d6	-0.17720732
85	0xbcabec57	-0.020986719
86	0xbbe561bf	-0.0070001776
87	0xbd524d78	-0.05134341
88	0x3e015513	0.1263011
89	0xbd46e46d	-0.048557688
90	0x3d51a207	0.051179912
91	0x3ccca1ee	0.024979558
92	0xbd658ff8	-0.056045502
93	0x3d7c4550	0.06158954
94	0xbd66bec7	-0.056334283
95	0x3c4a367b	0.012342091
96	0x3df86303	0.1212826
97	0x3d3810e5	0.044937987
98	0x3d211f97	0.039336767
99	0xbd631bd8	-0.055446476
100	0xbdf28cc2	-0.11843254
101	0x3d909535	0.07059709
102	0xbdc268ff	-0.09492683
103	0x3bf802a2	0.007568673
104	0xbdb7cc7e	-0.08974551
105	0x3de455f5	0.111492075
106	0x3d52ab0e	0.05143266
107	0x3de0dd58	0.10979718
108	0x3d89d807	0.06730657
109	0xbd9729dc	-0.07381031
110	0x3cee1d37	0.029066665
111	0xbcd956a7	-0.026530577
112	0xbd443631	-0.047903243
113	0xbddd72ad	-0.10812888
114	0x3daf4466	0.08557968
115	0xbdd67dbf	-0.10473203
116	0xbd68dc6d	-0.05685084
117	0xbd9efa25	-0.07762555
118	0xbda2f4e7	-0.07956868
119	0x3d223567	0.03960171
120	0x3c9cd3ae	0.019143905
121	0x3e6aa282	0.22913554
122	0x3cee3c2e	0.02908143
123	0x3d4062f0	0.046969354
124	0x3c6a8098	0.014312886
125	0x3dbe7098	0.09298819
126	0x3de4874b	0.111586176
127	0x3d01c9ed	0.031686712
128	0x3d89f673	0.067364596
129	0xbd0c8b1e	-0.03431236
130	0xbdb9e5ca	-0.09077032
131	0x3da1f0e7	0.079072766
132	0x3d06a5ad	0.032872844
133	0x3c4e9265	0.012608145
134	0x3e16e8a2	0.1473718
135	0xbc65d88a	-0.014028678
136	0x3dede88e	0.11616622
137	0x3e02bb0b	0.12766664
138	0x3c5f5722	0.013631614
139	0xbba64911	-0.005074628
140	0x3d47783e	0.048698656
141	0xbd55daec	-0.052210733
142	0xbd3734e7	-0.044728186
143	0xbbf4e416	-0.007473479
144	0x3dcc0e7d	0.09963701
145	0x3d8ee553	0.06977334
146	0xbd56552f	-0.05232733
147	0x3bda288c	0.0066576656
148	0x3b97ce39	0.004632738
149	0xbd133e16	-0.03594788
150	0xbc86f088	-0.016472116
151	0x3d841ceb	0.06450828
152	0x3d98b964	0.074572355
153	0xbd1738a9	-0.03691927
154	0x3c7bb31b	0.015362526
155	0x3d7e3875	0.06206556
156	0xbe57f029	-0.21087708
157	0xbd2a8797	-0.041633215
158	0x3d280089	0.041016135
159	0xbd5fb033	-0.054611396
160	0x3d6094aa	0.054829277
161	0xbbc729b4	-0.0060779694
162	0xbdc26bf6	-0.09493248
163	0xbdf4df67	-0.11956673
164	0x3ced3158	0.028954193
165	0x3d0bc3af	0.034122165
166	0xbc209d17	-0.009803078
167	0x3ead636f	0.33864924
168	0xbd7d8f82	-0.061904438
169	0x3ce4179b	0.027843287
170	0xbcba2424	-0.022722311
171	0x3c2b08b5	0.010439088
172	0xbe48421f	-0.19556473
173	0x3dbd2cd6	0.092370674
174	0x3da78bcf	0.08180963
175	0x3d3c1d54	0.045926407
176	0xbe26e4ba	-0.1629819
177	0xbcc7184e	-0.024303582
178	0xbdee1c84	-0.11626533
179	0xbe4ef075	-0.20208915
180	0x3ba352de	0.004984244
181	0x3d57d546	0.052693628
182	0x3d2d8ee3	0.042372596
183	0x3bab65e5	0.0052306526
184	0x3ddef441	0.108864315
185	0x3ce35c4b	0.02775397
186	0xbd032fef	-0.032028135
187	0xbd83c3b6	-0.06433813
188	0x3e207491	0.15669467
189	0xbcda6ce9	-0.02666326
190	0xbd8dd74c	-0.0692583
191	0x3cca0e86	0.024665128
192	0x3dcabd2e	0.098993644
193	0x3c135f37	0.008994869
194	0x3dc3977f	0.0955038
195	0x3c3ee88b	0.011652122
196	0xbd3f4905	-0.046700496
197	0x3be5d259	0.007013601
198	0x3d797f37	0.060912337
199	0x3cd90ca8	0.026495293
200	0x3c5356da	0.012899125
201	0x3de57670	0.11204231
202	0x3d3d1163	0.04615916
203	0xbd604386	-0.054751895
204	0xbd4b53d1	-0.04964048
205	0x3e31d109	0.17364897
206	0xbd69dbab	-0.057094257
207	0xbd8bb729	-0.068220444
208	0x3daefd1e	0.08544372
209	0x3d7bbbcf	0.061458405
210	0x3e4631fc	0.19355005
211	0xbc4b1368	-0.0123947635
212	0x3da99e0a	0.08282097
213	0x3c5f0168	0.013611175
214	0xbcc65b5a	-0.024213482
215	0x3e188b79	0.14896955
216	0xbd9f551c	-0.07779905
217	0xbc52ecb5	-0.012873818
218	0xbcd0b177	-0.025475247
219	0x3b9517cb	0.0045499555
220	0xbd97de7c	-0.074154824
221	0x3cc2af5d	0.02376526
222	0xbe008da3	-0.1255403
223	0xbd832c9b	-0.06404992
224	0x3c8842f0	0.01663348
225	0xbd63b5e4	-0.055593386
226	0x3b845c56	0.0040393276
227	0xbcd58756	-0.02606551
228	0x3e1df7a1	0.15426494
229	0x3de52854	0.111893326
230	0x3cbe0d4d	0.023199702
231	0x3e09269c	0.13393635
232	0x3d7d437d	0.06183194
233	0xbd865bae	-0.06560455
234	0xbd966316	-0.07343118
235	0x3dce92b3	0.100865744
236	0x3e14f23b	0.14545529
237	0xbc99e75a	-0.018787075
238	0x3e754ca9	0.23955025
239	0xbda27806	-0.07933049
240	0x3da07f79	0.078368135
241	0x3e2bf8e0	0.16794157
242	0xbe1ebe9b	-0.15502398
243	0x3df7027e	0.12061022
244	0x3d28cb4d	0.041209508
245	0xbda4364f	-0.08018171
246	0xbdd8413d	-0.10559318
247	0x3c1e3f18	0.009658597
248	0x3e0f75eb	0.14009826
249	0xbb8d5193	-0.004312703
250	0xbe0c1c4c	-0.1368267
251	0x3d956254	0.07294145
252	0x3d7f9821	0.06240094
253	0x3c8f2d42	0.017477635
254	0x3d502fe9	0.05082694
255	0xbd02f146	-0.031968378

l2.bias f4 [256]
0	0x3d15e4d5	0.036595184
1	0xbdbae043	-0.09124806
2	0x3dd9840a	0.106208876
3	0xbd731528	-0.059346348
4	0x3d21838c	0.039432094
5	0x3d261f39	0.04055712
6	0x3d1abbae	0.03777664
7	0x3d5546fb	0.052069645
8	0xbbd452da	-0.0064796032
9	0x3de8f557	0.1137492
10	0xbcf35c88	-0.029707208
11	0xbdd3f422	-0.10349299
12	0xbd93ff12	-0.07226385
13	0xbe24079c	-0.16018528
14	0xbe3e92a1	-0.18610622
15	0xbd6cc1c6	-0.057801984
16	0x3ca6c58f	0.020357875
17	0xbda8befe	-0.08239554
18	0xbdb64be0	-0.08901191
19	0xbd2b5c42	-0.04183603
20	0xbdf6d187	-0.12051683
21	0xbc38c994	-0.011278529
22	0xbd5d9095	-0.054092962
23	0x3db7de63	0.08977964
24	0x3cf9355f	0.030420957
25	0x3e3f7d67	0.18700181
26	0x3de8555e	0.113444075
27	0xbd842251	-0.06451858
28	0x3b47f3f6	0.0030510402
29	0x3e4b22c4	0.19837481
30	0x3cbc8581	0.023012878
31	0xbda40368	-0.08008462
32	0xbdc522d0	-0.096257806
33	0xbc961f24	-0.018325396
34	0xbe8f6023	-0.28003034
35	0x3dd457af	0.10368287
36	0xbdcfe1f6	-0.101505205
37	0x3cff83be	0.03119075
38	0xbd59164a	-0.052999772
39	0xbd8b92de	-0.06815122
40	0xbc8aba42	-0.016934518
41	0x3cfaef3f	0.03063166
42	0x3d3a78a4	0.045525208
43	0x3dcdf97a	0.100573495
44	0x3e14429a	0.14478531
45	0x3c0a2119	0.008430743
46	0xbdbe204b	-0.09283503
47	0xbd66e866	-0.056373976
48	0xbd2ff5cf	-0.04295903
49	0xbd801813	-0.06254592
50	0xbd2d1a0b	-0.042261165
51	0x3dc89aa7	0.097951226
52	0xbd7a13e9	-0.061054144
53	0xbca1fedd	-0.019774849
54	0xbcb99848	-0.022655621
55	0xbbc6fa2f	-0.0060723047
56	0xbcff75a8	-0.031184033
57	0xbb8559fb	-0.0040695644
58	0xbd050891	-0.032478873
59	0x3c062105	0.008186583
60	0x3c96b5e6	0.018397283
61	0xbd0d4962	-0.03449381
62	0xbdc525da	-0.0962636
63	0x3e38d85a	0.18051282
64	0xbc32b5e7	-0.010907627
65	0xbd6dd609	-0.058065448
66	0xbc5aaf08	-0.013347395
67	0xbd426db0	-0.047467887
68	0x3cab634a	0.020921368
69	0x3d00156b	0.031270426
70	0xbd5e672f	-0.054297622
71	0xbc2ace5b	-0.010425176
72	0xbd5e21e1	-0.05423153
73	0x3dab8ae2	0.08376099
74	0xbc717551	-0.014737443
75	0xbd144db0	-0.0362069
76	0x3d1ecea1	0.038771275
77	0xbcfbb6fc	-0.030726902
78	0xbcedfdd2	-0.029051695
79	0x3cb5b5c2	0.022181395
80	0xbcedaf64	-0.029014297
81	0xbd0875f4	-0.033315614
82	0x3b3003e9	0.00268578
83	0xbdc05c7d	-0.09392641
84	0xbc97bd4c	-0.018522881
85	0x3db13604	0.08652881
86	0x3d07427c	0.03302239
87	0xbc7f11b1	-0.015568183
88	0xbd979360	-0.074011564
89	0x3c254d89	0.010089287
90	0x3cef2642	0.029193047
91	0x3dc80788	0.097670615
92	0xbd798be4	-0.060924426
93	0x3d99b36b	0.075049244
94	0x3c78bbe8	0.015181519
95	0xbcbf848d	-0.023378635
96	0xbd50ab4e	-0.05094462
97	0x3db08d65	0.08620719
98	0x3c2db8fe	0.010603188
99	0xbcee4811	-0.029087098
100	0x3d82c258	0.063847244
101	0xbce68bd8	-0.028142855
102	0x3c6cccc4	0.014453117
103	0xbc5accbe	-0.013354478
104	0x3c8f4403	0.017488485
105	0xbd88da38	-0.06682247
106	0xbcfc7b22	-0.030820433
107	0xbc73b0e6	-0.014873719
108	0x3d9fa7a7	0.07795649
109	0xbda03cef	-0.07824122
110	0x3db0b991	0.08629144
111	0xbd55aedf	-0.052168723
112	0xbdd709ea	-0.10499938
113	0x3e1c79f2	0.15280893
114	0xbda9ca10	-0.082904935
115	0xbd037fca	-0.03210429
116	0x3c9afb6f	0.018918721
117	0x3da0e433	0.078560255
118	0xbd2a78df	-0.041619178
119	0x3df789e2	0.12086846
120	0xbc5212a6	-0.012821829
121	0x3cea27c6	0.028583419
122	0x3dd1b6dd	0.102399565
123	0x3dd256af	0.1027044
124	0xbc8a6a56	-0.016896408
125	0x3d839dea	0.06426604
126	0xbce6ba1a	-0.028164912
127	0xbd0e2fbd	-0.034713496
128	0x3d581ac9	0.05275992
129	0x3e071aca	0.13193813
130	0x3d7aa249	0.061189923
131	0x3d39e6e0	0.045386195
132	0xbd110e99	-0.035414312
133	0xbba799f3	-0.0051147877
134	0xbda0b07d	-0.078461625
135	0xbcdd7966	-0.027035426
136	0xbd20043b	-0.039066534
137	0x3d210d20	0.039319158
138	0x3c93a741	0.018024089
139	0xbd23a778	-0.039954633
140	0xbe0f08e6	-0.13968238
141	0x3df86b01	0.121297844
142	0xbc1c9ce0	-0.009558886
143	0xbd4db8e9	-0.050225172
144	0x3d0ed59a	0.034871675
145	0x3c010a7d	0.007876036
146	0xbdaa7a2b	-0.08324083
147	0x3dac97c1	0.08427382
148	0x3d7f2735	0.06229325
149	0x3d98fe75	0.07470409
150	0xbde53d23	-0.111933015
151	0xbae6cf86	-0.0017609454
152	0xbd319c57	-0.043361988
153	0x3dd455f7	0.10367959
154	0x3cc92c6b	0.024557313
155	0xbcda02e8	-0.026612714
156	0x3ce8d608	0.02842237
157	0xbd743a26	-0.059625767
158	0x3d09759e	0.033559434
159	0x3db35071	0.08755577
160	0x3d947b1a	0.07250042
161	0x3c89958b	0.01679494
162	0xbd75c547	-0.06000259
163	0xbcdfbf00	-0.027312756
164	0xbd3ee7e8	-0.04660788
165	0x3d6128f1	0.054970685
166	0x3d311470	0.04323238
167	0xbda8af14	-0.082365185
168	0xbc43cbf0	-0.011950478
169	0x3d839134	0.0642418
170	0xbd0022ec	-0.031283304
171	0xbe1ee4cd	-0.15516968
172	0xbd92f2a7	-0.071751885
173	0xbd93aa0c	-0.07210168
174	0x3d15d98c	0.036584422
175	0xbbd14b20	-0.0063871294
176	0x3ccf61b0	0.025315136
177	0xbd26d529	-0.04073063
178	0x3cfdb0f8	0.030968174
179	0x3d7fe6d6	0.062476
180	0xbd3385c5	-0.043828744
181	0xbc977fe7	-0.018493606
182	0x3d85bb01	0.06529809
183	0x3e40bce2	0.18822053
184	0x3dcc20b9	0.09967179
185	0xbd8fac59	-0.070152946
186	0x3df75b79	0.12077994
187	0x3d328fa9	0.043594036
188	0x3d92a0c1	0.071595676
189	0xbd3461ae	-0.044038467
190	0x3c97a0db	0.018509319
191	0x3d98c850	0.074600816
192	0x3e16bdb4	0.14720803
193	0x3db14339	0.086554
194	0x3c61de01	0.01378584
195	0xbd1c714c	-0.038193986
196	0xbd235b1f	-0.03988182
197	0xbda95f89	-0.08270175
198	0x3da4df24	0.08050373
199	0x3ce81491	0.02833012
200	0x3d89c6db	0.06727382
201	0x3d075ee2	0.03304947
202	0x3e3b077b	0.18264572
203	0xbd45e2c4	-0.048311964
204	0xbce1e26e	-0.02757379
205	0x3cab6036	0.0209199
206	0x3d2bada6	0.04191365
207	0x3d519f2c	0.05117719
208	0xbdb853eb	-0.09000381
209	0x3c8c723d	0.017144317
210	0xbdaee055	-0.08538882
211	0xbd6fecd5	-0.05857547
212	0xbd1fcb2e	-0.039012127
213	0x3d05c5a5	0.03265919
214	0x3bc2019d	0.0059206025
215	0xbcfb424b	-0.03067126
216	0xbc3ea8c3	-0.011636916
217	0x3cdead7d	0.027182335
218	0x3d0e0f1d	0.034682382
219	0xbc65977f	-0.01401317
220	0x3d675219	0.05647478
221	0xbc546d69	-0.012965539
222	0xbda398b1	-0.07988108
223	0x3cb8b207	0.022545828
224	0x3e013bf0	0.1262052
225	0x3cfc4b59	0.030797647
226	0x3d46d4de	0.04854285
227	0xbba98637	-0.0051734704
228	0x3dedbbc4	0.11608079
229	0xbd939f0a	-0.07208069
230	0x3e357166	0.1771904
231	0xbd7b7e2a	-0.061399616
232	0xbd0e353d	-0.03471874
233	0xba81804c	-0.0009880154
234	0x3d4e4089	0.050354514
235	0xbdbe3413	-0.09287276
236	0xbdc3fc40	-0.09569597
237	0x3d482549	0.048863683
238	0x3ce1af71	0.027549477
239	0x3d882553	0.06647744
240	0x3d270bd4	0.040782765
241	0x3ca736b3	0.020411825
242	0x3a5eb866	0.00084961054
243	0x3d3e6b02	0.04648877
244	0x3d443e32	0.047910877
245	0xbdd080b3	-0.101807974
246	0x3da372ba	0.07980867
247	0x3d9b9233	0.07596245
248	0xbd4baea6	-0.049727105
249	0x3c813dab	0.015776476
250	0x3dc01bd5	0.093803085
251	0x3b20037f	0.0024416146
252	0x3d5fbad8	0.054621547
253	0xbc0ccfd8	-0.008594476
254	0xbc8366ad	-0.01604017
255	0xbd02c68b	-0.031927627

l3.weight f4 [4, 256]
0	0x3b2f2767	0.0026726366
1	0xbd93f526	-0.07224493
2	0xbdd9a39e	-0.106269106
3	0xbdb5da3c	-0.088795155
4	0x3e821f0c	0.25414312
5	0x3df5a207	0.11993795
6	0x3e8901da	0.26759225
7	0xbe914346	-0.28371638
8	0x3a9b8786	0.0011865951
9	0xbd99d1c0	-0.0751071
10	0xbb858ca3	-0.004075603
11	0xbd397a78	-0.04528281
12	0x3dccf76e	0.10008131
13	0x3d80223b	0.06256529
14	0x3dd62414	0.104561
15	0x3dcbb0ed	0.09945855
16	0xbe0674d1	-0.131305
17	0xbd52c2e9	-0.051455412
18	0x3d7f100c	0.062271163
19	0x3c798b39	0.015230947
20	0x3e74d611	0.23909785
21	0x3ba8473e	0.005135446
22	0xbcb240ac	-0.021759354
23	0x3d03c80d	0.032173205
24	0x3c758bf3	0.01498698
25	0xbdfb89a4	-0.12282112
26	0xbea616cf	-0.32439277
27	0xbd14f21c	-0.036363706
28	0xbcd5165a	-0.026011635
29	0x3e524594	0.20534354
30	0x3dd3da20	0.103443384
31	0xbd830551	-0.063974984
32	0x3e14663b	0.14492123
33	0xbe8925ab	-0.2678655
34	0x3d8debdb	0.069297515
35	0xbe03d6c5	-0.12874897
36	0xbe50ffbe	-0.20410058
37	0x3e1c8acb	0.1528732
38	0x3e17f7f7	0.14840685
39	0xbe162056	-0.14660773
40	0x3cf6250c	0.030046962
41	0x3e04e7fb	0.12979119
42	0x3e149cc8	0.14512932
43	0xbda7c602	-0.08192064
44	0x3dbdcab4	0.09267178
45	0xbde30151	-0.110842355
46	0xbd8b52ab	-0.06802877
47	0xbda63c66	-0.08116989
48	0x3ca9e2d8	0.02073805
49	0xbe3a382d	-0.18185492
50	0x3d149be5	0.036281485
51	0xbd5d4bd1	-0.054027382
52	0x3cc4a6ce	0.02400532
53	0xbe7da490	-0.24769807
54	0xbe081792	-0.13290241
55	0xbde1715c	-0.1100795
56	0xbe0bc868	-0.13650668
57	0xbdb6c5d5	-0.08924452
58	0x3e16ffd9	0.14746036
59	0x3dc7123c	0.09720275
60	0xbd341fd3	-0.043975662
61	0xbeb672df	-0.35634515
62	0xbd3212d2	-0.04347498
63	0xbdc284e5	-0.09498004
64	0x3d52c5ff	0.051458355
65	0xbe74fe01	-0.2392502
66	0x3d546d94	0.051862314
67	0xbe8c7586	-0.27433413
68	0x3e50c11f	0.2038617
69	0x3e3658cc	0.17807311
70	0xbe94856a	-0.29008037
71	0xbe1595ef	-0.14607976
72	0xbe2c01c6	-0.16797552
73	0xbda65e55	-0.08123461
74	0xbdd78a20	-0.10524392
75	0x3e795cc8	0.243518
76	0x3d819d92	0.06328882
77	0x3e3d810f	0.18506263
78	0xbda8f9fa	-0.08250804
79	0x3e7fee7e	0.24993321
80	0x3dcb620a	0.09930809
81	0xbd2ab128	-0.041672856
82	0x3d58d4d8	0.05293736
83	0x3e8084ca	0.2510131
84	0xbe52baba	-0.20579043
85	0x3d58465c	0.052801475
86	0x3e9339ee	0.28755134
87	0xbbe615bb	-0.0070216334
88	0x3e510d3d	0.20415206
89	0xbdbd749b	-0.09250756
90	0xbe1e39ba	-0.15451708
91	0xbdecc900	-0.11561775
92	0x3e261dd9	0.16222323
93	0xbdbfc975	-0.09364597
94	0xbe95616f	-0.29175898
95	0x3d70df2d	0.058806587
96	0x3e544b84	0.20731932
97	0x3e558ec2	0.20855239
98	0x3e06ae85	0.13152511
99	0xbdf4bd71	-0.119501956
100	0x3eb05893	0.34442577
101	0x3e8bd4b1	0.27310708
102	0xbe52ff0f	-0.2060511
103	0xbd56d5cd	-0.05244999
104	0xbdf50df9	-0.11965556
105	0xbdf90981	-0.12160016
106	0xbdccfd9a	-0.10009308
107	0x3dc17a55	0.09447161
108	0xbd53b0da	-0.05168233
109	0x3ea906f7	0.33013126
110	0xbd1511bb	-0.036393862
111	0x3d60e8b1	0.05490941
112	0xbdcc289c	-0.09968683
113	0xbe118f2b	-0.1421477
114	0x3e88fda8	0.26756024
115	0xbe4ed837	-0.20199667
116	0xbe309cb6	-0.1724728
117	0x3d66ef4c	0.056380555
118	0x3db4e224	0.088321954
119	0x3eb1e19e	0.34742445
120	0xbd167953	-0.036736798
121	0xbe17adf2	-0.14812449
122	0xbe3071e3	-0.17230944
123	0x3e2996d2	0.1656144
124	0xbe930efd	-0.28722373
125	0x3e0eacd1	0.13933112
126	0x3be6c0d9	0.007042032
127	0xbd6371d9	-0.055528495
128	0x3e568039	0.2094735
129	0xbecf4deb	-0.40489134
130	0x3b031662	0.0020002355
131	0xbe9cb76c	-0.3060869
132	0xbe83c7d4	-0.25738394
133	0x3e278961	0.16361
134	0xbdb8870b	-0.090101324
135	0x3e880f07	0.26573965
136	0x3ec65f18	0.38744426
137	0xbd396dda	-0.04527078
138	0x3e6c7bb0	0.23094058
139	0xbcb279b4	-0.021786548
140	0xbd6ac3f1	-0.05731577
141	0xbcefb3ca	-0.029260535
142	0x3e556ae6	0.2084156
143	0xbd97fd2f	-0.07421338
144	0x3e3fc104	0.18725973
145	0xbdc78a4c	-0.09743175
146	0x3d159cdd	0.03652655
147	0xbeb14c87	-0.34628698
148	0xbe8a2503	-0.26981363
149	0xbeab58ca	-0.33466178
150	0x3e7b4670	0.24538589
151	0xbde965df	-0.113963835
152	0x3e9ebec5	0.3100492
153	0xbe2b8384	-0.16749388
154	0xbb637a7b	-0.0034710455
155	0xbe3dbe68	-0.18529665
156	0x3de9c7cf	0.114150636
157	0x3dbc7216	0.09201448
158	0x3e19a5c7	0.15004645
159	0x3d5f9942	0.054589517
160	0xbe7b5aba	-0.24546328
161	0xbe8a9d70	-0.2707324
162	0xbc9c5688	-0.01908423
163	0x3e4dba76	0.2009066
164	0xbdbbe221	-0.0917399
165	0x3dc0779e	0.09397815
166	0xbc4f6b87	-0.012659914
167	0xbe3ff060	-0.1874404
168	0xbd85cd45	-0.06533293
169	0xbe51c7dd	-0.20486398
170	0x3c848e2d	0.016181076
171	0x3ebeefe7	0.37292406
172	0xbe209904	-0.15683371
173	0xbd2637ed	-0.04058068
174	0x3e07b646	0.13253126
175	0xbeacd53f	-0.33756444
176	0x3e31ef11	0.17376353
177	0x3e60ccb4	0.21953088
178	0x3e063950	0.131078
179	0xbd8a4389	-0.067511626
180	0x3c35bf06	0.011092907
181	0x3e8e3891	0.27777532
182	0x3e667b5b	0.22507994
183	0x3e26dec6	0.16295919
184	0x3e54ac6e	0.20768902
185	0xbe4e4bfd	-0.20146175
186	0xbe3f2961	-0.18668129
187	0xbdf394a7	-0.118935876
188	0x3e64feb8	0.22362792
189	0xbc6cbbed	-0.014449102
190	0xbd4eb959	-0.05046973
191	0xbe1f8d54	-0.15581256
192	0xbe787f9c	-0.24267429
193	0x3be32270	0.0069315955
194	0x3e6b881e	0.23001143
195	0x3de49822	0.111618295
196	0x3e706a91	0.23478152
197	0x3d2897b7	0.04116031
198	0x3ebc5a56	0.3678767
199	0x3e01cb9c	0.12675327
200	0x3c133312	0.008984344
201	0xbde4b843	-0.11167958
202	0xbdbd3db5	-0.09240285
203	0xbdc20c43	-0.09474995
204	0xbe347b56	-0.17625174
205	0xbe3d5537	-0.18489538
206	0x3de9292d	0.11384807
207	0x3e845a8b	0.2585033
208	0x3e89b1b6	0.26893395
209	0xbe83c594	-0.25736678
210	0xbe3289f7	-0.17435442
211	0x3e1b1bbd	0.151473
212	0xbe4f3694	-0.20235664
213	0xbe5ba384	-0.21449095
214	0xbd6a7157	-0.057236996
215	0x3dbf40ea	0.09338553
216	0xbe1c3914	-0.15256149
217	0x3d964463	0.073372625
218	0xbe83bd6b	-0.25730452
219	0xbc7e6ba8	-0.015528597
220	0xbd987efc	-0.07446095
221	0xbe312697	-0.17299877
222	0x3e793490	0.24336457
223	0x3e2b0e62	0.16704705
224	0x3e0b7ff5	0.1362303
225	0x3db1fe78	0.08691114
226	0xbe01d8de	-0.12680385
227	0xbe1fb8cd	-0.1559784
228	0xbcfb2218	-0.030655906
229	0x3d1bfad4	0.038081005
230	0xbe2998d9	-0.16562213
231	0x3d09a050	0.03360015
232	0x3e09949d	0.13435598
233	0xbda40fea	-0.08010848
234	0xbe0ebbf3	-0.13938884
235	0xbdcb5892	-0.09929003
236	0xbd31fe91	-0.043455664
237	0x3e352d3c	0.17693037
238	0xbdda0bda	-0.10646792
239	0x3e7ed455	0.24885686
240	0xbe9110b3	-0.28333053
241	0xbe4e3b38	-0.20139778
242	0x3e8a63a4	0.27029145
243	0xbda871ac	-0.08224806
244	0x3e0d220b	0.13782518
245	0x3e10014b	0.14062993
246	0xbe341114	-0.1758464
247	0x3d94e6b1	0.072705634
248	0xbcb939cb	-0.022610566
249	0x3d3f28d3	0.046669792
250	0x3c25fa6b	0.010130505
251	0xbdf40259	-0.1191451
252	0xbace2102	-0.001572639
253	0x3ebee58f	0.37284514
254	0x3ecba528	0.39774442
255	0x3dd2c238	0.102909505

l3.bias f4 [4]
0	0xbb2d1ab7	-0.0026413628
1	0x3da8b637	0.0823788
2	0xbb46aaed	-0.0030314282
3	0x3d72087f	0.059090134
