HardcoreVersion/critic/ppo_q_critic2800.pth (torch, 592130 bytes, 10 tensors)

l1.weight f4 [256, 28]
-0.2774558 0.09112378 -0.29592296 -0.18707013 -0.1081596 0.16576254 0.005013732 0.06811192
0.013387683 0.26897937 0.09917664 -0.047869876 0.032526024 0.05309808 0.017990408 0.38966706
0.25854045 0.26986817 0.45531574 -0.2636805 -0.7729815 0.3599622 0.091599226 -0.34926367
0.06091467 0.0030941402 0.072873384 0.014262573 -0.18969406 0.8146774 0.10979606 0.24565686
-0.21818097 0.10212267 -0.32791567 0.08614908 0.005177072 0.20546623 0.029371733 0.028793884
-0.021705844 -0.07619439 -0.15990776 -0.29307207 0.07670407 -0.09913373 0.11728759 -0.257228
0.25945848 0.16546042 0.27057332 -0.24667548 0.060194124 0.09211543 -0.02762786 -0.0666257
0.7748465 0.90128475 -0.30346468 -2.0294714 0.642747 0.14435396 -0.063474335 0.05702415
0.04213879 0.021805078 -0.06427723 0.16794004 -0.054130975 -0.06777262 -0.09336343 0.22162616
-0.05436145 -0.09011971 -0.055296384 -0.06402817 -0.21997035 -0.30712855 -0.120490804 0.08080061
0.08408276 -0.026160656 -0.021691728 -0.029594854 0.15431868 -0.5775349 0.14129846 -0.46617237
0.0549846 -0.07387395 0.14080726 0.006716728 0.047338888 0.0320913 -0.029014047 -0.003119193
0.025199993 0.062674254 -0.17821908 -0.09112061 0.1391814 0.3577632 0.00018841076 0.04264402
0.5728896 0.018267691 0.22828552 -0.42125207 -0.018331626 0.11526565 -0.040395483 0.012340001
0.28010428 1.2840334 -0.37974635 0.72523284 -0.003405777 0.10651422 -0.03629305 0.0515884
0.018652556 0.25097704 0.05025216 -0.110096194 -0.0008361382 0.01731648 -0.30057177 0.0078391135
-0.17940156 -0.61665994 0.142495 0.5508926 0.05654509 -0.2508566 0.21860091 0.19687401
0.0015127877 0.008084808 0.022201344 -0.0118414555 0.04572968 0.37804163 -0.106687315 -0.5168726
0.09850201 0.05540727 -0.16363873 0.057074968 0.010039046 0.13020451 0.017304476 -0.09159782
0.0010264625 0.17288414 0.23921472 0.036863912 0.113602385 0.089374244 -0.21350265 -0.106255434
0.074331954 0.46888193 0.07125008 0.09522571 0.07660719 -0.098378725 0.037695676 -0.026732653
-0.13719612 0.027003879 -0.30121577 -0.4532025 0.20216554 0.03754029 -0.17520782 0.00016759147
0.02466287 0.24742268 0.055514354 0.39299062 0.038413227 -4.8517857e-05 -0.19922581 -0.35434216
-0.38426158 -0.16737725 -0.054981098 -0.040235102 0.0027462943 0.114585824 -0.23414071 0.09842899
0.06982477 0.027819188 0.007832061 0.10478609 0.0325475 -1.8794074 0.3575006 2.004694
0.2885188 -0.10327238 -0.013579427 -0.051771253 -0.029182646 0.18107928 -0.051884085 0.26936594
-0.03226842 -0.0029282244 0.1758249 -0.06540593 -0.26069963 -0.59858966 -0.06525294 0.25858995
-0.059591506 -0.1763947 0.058946386 0.052383125 0.0115643935 -0.011513862 0.009120285 0.029330328
0.10529631 0.8976699 0.6655373 -0.70922226 -0.08945454 -0.014637516 -0.37963408 0.011780601
0.029133925 -0.08321987 0.016935127 -0.11982584 0.019486766 -0.058864128 0.017319163 0.07716166
-0.3766924 -0.079369836 0.42085335 -0.124780886 -0.3471801 -0.38149315 0.0019223863 0.12901837
-0.024885172 -0.029676244 -0.0048386357 0.004460554 0.19343707 -0.9890401 -0.13275963 -0.19994824
00000000: b00e 8ebe 1b9f ba3d 3783 97be 508f 3fbe
00000010: c882 ddbd a8bd 293e 3b4a a43b 437e 8b3d
00000020: 0358 5b3c aab7 893e 1f1d cb3d 3413 44bd
00000030: 023a 053d 5f7d 593d 9f60 933c 7182 c73e
00000040: 6a5f 843e 292c 8a3e 251f e93e 2101 87be
00000050: 1ee2 45bf f74c b83e 6098 bb3d b0d2 b2be
00000060: a981 793d 0fc7 4a3b a43e 953d 91ad 693c
00000070: 293f 42be b38e 503f c2dc e03d 798d 7b3e
00000080: d56a 5fbe b125 d13d 90e4 a7be ee6e b03d
00000090: 6da4 a93b bd65 523e fd9c f03c 27e1 eb3c
000000a0: 74d0 b1bc ce0b 9cbd dcbe 23be 8b0d 96be
000000b0: 0617 9d3d a006 cbbd 7a34 f03d 63b3 83be
000000c0: bed7 843e 756e 293e 9688 8a3e 7f98 7cbe
000000d0: 1d8e 763d 04a7 bc3d d253 e2bc 0e73 88bd
000000e0: 575c 463f 99ba 663f b95f 9bbe dce2 01c0
000000f0: 118b 243f 86d1 133e d5fe 81bd 2892 693d
00000100: b999 2c3d 90a0 b23c c8a3 83bd 79f8 2b3e
00000110: 71b8 5dbd 5fcc 8abd 5335 bfbd f8f1 623e
00000120: 1daa 5ebd af90 b8bd 767e 62bd 3421 83bd
00000130: e83f 61be f43f 9dbe e2c3 f6bd ca7a a53d
00000140: 9533 ac3d df4e d6bc dab2 b1bc e870 f2bc
00000150: b705 1e3e 54d9 13bf 8bb0 103e 25ae eebe
00000160: 8837 613d 3a4b 97bd c72f 103e 0018 dc3b
00000170: 6ce6 413d 2b72 033d deae edbc 606b 4cbb
00000180: 3770 ce3c 5c5b 803d 107f 36be 719d babd
00000190: 9285 0e3e bd2c b73e 2190 4539 7fab 2e3d
000001a0: e5a8 123f 20a6 953c aec3 693e 5aae d7be
000001b0: 352c 96bc 6610 ec3d bc75 25bd b72d 4a3c
000001c0: d469 8f3e 355b a43f 1d6e c2be dca8 393f
000001d0: 7533 5fbb 2124 da3d 05a8 14bd 5c4e 533d
000001e0: 3fcd 983c 1080 803e 35d5 4d3d 1d7a e1bd
000001f0: 4930 5bba 4adb 8d3c 8be4 99be a06f 003c
00000200: 0bb5 37be 6ddd 1dbf 36ea 113e 4c07 0d3f
00000210: d39b 673d 4770 80be ebd8 5f3e 5799 493e
00000220: bb48 c63a 2476 043c 98df b53c aa02 42bc
00000230: 0c4f 3b3d ac8e c13e e17e dabd c351 04bf
00000240: 6cbb c93d bcf2 623d e990 27be 71c7 693d
00000250: d07a 243c 5554 053e 1ec2 8d3c a397 bbbd
00000260: 5e8a 863a 8a08 313e b4f4 743e 9dfe 163d
00000270: 5ea8 e83d d809 b73d 70a0 5abe 739c d9bd
00000280: 5a3b 983d 4b11 f03e 90eb 913d b205 c33d
00000290: 3be4 9c3d c97a c9bd c866 1a3d 70fe dabc
000002a0: 247d 0cbe 3d37 dd3c f438 9abe 280a e8be
000002b0: 7c04 4f3e d9c3 193d ae69 33be 7ebb 2f39
000002c0: ca09 ca3c 5f5c 7d3e 0563 633d 1136 c93e
000002d0: 3057 1d3d a77f 4bb8 da01 4cbe 566c b5be
000002e0: efbd c4be f164 2bbe dc33 61bd 90cd 24bd
000002f0: 2cfb 333b f9ab ea3d 95c2 6fbe 2395 c93d
00000300: 4a00 8f3d 11e5 e33c 0b52 003c 179a d63d
00000310: 8750 053d 6c90 f0bf 520a b73e e84c 0040
00000320: bcb8 933e 7880 d3bd 3f7c 5ebc 180e 54bd
00000330: 7210 efbc d96c 393e 6884 54bd 55ea 893e
00000340: e42b 04bd 74e7 3fbb 710b 343e 8bf3 85bd
00000350: 6c7a 85be 2c3d 19bf 55a3 85bd e765 843e
00000360: 3916 74bd d0a0 34be c471 713d b08f 563d
00000370: 9578 3d3c a3a4 3cbc 3f6d 153c 2846 f03c
00000380: 97a5 d73d b2cd 653f a760 2a3f 978f 35bf
00000390: f133 b7bd 31d2 6fbc 665f c2be 6c03 413c
000003a0: 45aa ee3c 2e6f aabd 89bb 8a3c 4067 f5bd
000003b0: b6a2 9f3c 831b 71bd ebe0 8d3c ef06 9e3d
000003c0: d4dd c0be a78c a2bd 177a d73e 1f8d ffbd
000003d0: 97c1 b1be 1253 c3be 95f8 fb3a 641d 043e
000003e0: fddb cbbc 981b f3bc 6b8d 9ebb d729 923b
000003f0: 5e14 463e bb31 7dbf 24f2 07be 3bbf 4cbe

l1.bias f4 [256]
0.092824504 -0.0048878095 0.22608882 -0.43377554 -0.044524036 -0.3817045 0.19776326 0.26373595
0.10822104 -0.05897657 0.16874182 -0.049910408 0.346549 0.21502492 0.1394422 -0.058276854
0.27595448 0.259188 0.41891196 -0.35258317 0.3977179 -0.40953347 -0.087960914 0.16163327
-0.06593518 -0.10924495 -0.014484632 -0.06717022 0.18645652 0.13946244 -0.27599734 0.21126729
-0.098832384 0.084199026 -0.062369112 0.10611831 0.004132939 0.6348422 0.4745519 0.029846389
-0.1900167 -0.10069844 0.0049688728 -0.22983596 -0.16562797 -0.04388586 0.47469896 0.041067537
0.1635118 0.24949257 0.38226593 0.29714772 -0.16272199 0.09627564 -0.47207904 0.17299177
0.2878488 -0.2715027 -0.13913883 -0.11523746 -0.28386822 -0.3195716 0.07231547 -0.18877523
-0.2729703 -0.2673993 0.09581411 -0.23612386 0.12534477 0.2232434 -0.39364216 -0.29274145
0.20162559 -0.16038093 -0.2755518 0.017656365 0.30186087 0.43975872 0.36718637 0.25017565
-0.3807733 -0.19888586 -0.29192558 0.34531936 -0.3522704 -0.0043874104 0.050411493 -0.26072386
0.0077304915 0.4380092 0.24428281 -0.023228198 0.23820555 -0.15616196 -0.25730884 0.0714373
-0.10961621 -0.011602184 -0.031733166 -0.22717232 -0.09754903 -0.18894233 -0.1307173 0.11549125
-0.1035153 0.10409768 -0.11910877 -0.006782755 0.52564126 -0.17020956 -0.012088748 -0.008558706
-0.07919349 0.0056365505 -0.17825691 0.3002582 -0.15969151 0.22976193 -0.05507653 -0.11252867
-0.0886813 0.44563016 0.19620861 -0.13645189 0.32263803 -0.2649388 -0.55161643 0.075011484
0.39938727 0.4202734 -0.16930006 0.1616351 0.23461562 0.11611676 0.20733732 -0.11330318
-0.26539674 -0.35533825 0.12919073 0.2653941 0.013764361 -0.3984354 0.10020137 -0.20217635
0.12185172 -0.04414611 -0.46250132 0.30308405 0.50337666 -0.13327052 0.1011066 -0.019582076
0.13017541 0.35059485 -0.21074732 0.16353057 0.06369794 -0.4573564 -0.5318535 0.12208814
-0.12211991 0.3436858 -0.16938967 0.21877065 0.02019621 0.24389905 0.22497249 0.2866942
0.23842284 -0.078776956 -0.08655631 -0.024672035 -0.15432782 -0.38185602 -0.23671521 0.16074094
-0.1402806 0.1471895 -0.22682041 0.12700652 -0.3718362 -0.38450378 0.4328068 -0.22846405
0.21373042 -0.03998653 -0.04498993 -0.18137673 -0.25785315 0.27087128 -0.4184886 0.16015187
0.11110615 -0.010429531 -0.1769406 0.33462223 -0.3082381 -0.19752842 0.14453137 -0.06437254
-0.23411597 -0.13355257 0.07145632 0.030632177 0.025818825 0.121122785 -0.25213864 -0.24395177
0.35699594 0.06369213 -0.045662176 0.31186584 -0.29982483 0.10459998 -0.024837604 -0.19404839
-0.20917568 0.37059927 -0.27575937 0.44908512 -0.00795773 -0.038294714 -0.20730525 0.32574397
-0.055495974 -0.42013565 -0.014648824 -0.04561123 0.073553346 0.27817717 0.19766355 -0.063541986
0.12745875 0.11432472 0.17422108 0.24644455 0.26701313 0.46158886 -0.01788682 -0.08314356
0.22747089 -0.02197377 0.07136616 0.093831606 0.196834 -0.06272934 0.5766279 0.05517889
-0.119632825 0.103384644 -0.07620442 -0.16989248 0.2540291 -0.077683285 -0.1270736 -0.044675957
00000000: c61a be3d eb29 a0bb d483 673e d417 debe
00000010: d65e 36bd c66e c3be 7482 4a3e 6608 873e
00000020: fea2 dd3d 6a91 71bd a8ca 2c3e db6e 4cbd
00000030: df6e b13e 7e2f 5c3e f0c9 0e3e b6b3 6ebd
00000040: e849 8d3e 4ab4 843e a17b d63e c885 b4be
00000050: aea1 cb3e 5fae d1be da24 b4bd 3183 253e
00000060: 0609 87bd d1bb dfbd f350 6dbc 8a90 89bd
00000070: 75ee 3e3e 3ecf 0e3e 864f 8dbe 7456 583e
00000080: a268 cabd 8a70 ac3d c176 7fbd 8e54 d93d
00000090: 9b6d 873b 0585 223f 77f8 f23e 6a80 f43c
000000a0: bd93 42be fc3a cebd edd1 a23b 1e5a 6bbe
000000b0: 619a 29be a9c1 33bd be0b f33e 6f36 283d
000000c0: a36f 273e fb7a 7f3e 5cb8 c33e bf23 983e
000000d0: 98a0 26be 2a2c c53d 58b4 f1be c124 313e
000000e0: eb60 933e 6702 8bbe 697a 0ebe 9e01 ecbd
000000f0: 2d57 91be e49e a3be 221a 943d 4b4e 41be
00000100: c3c2 8bbe 90e8 88be 303a c43d 74ca 71be
00000110: 615a 003e eb99 643e 778b c9be 35e2 95be
00000120: f076 4e3e e63a 24be 2015 8dbe 15a4 903c
00000130: 828d 9a3e 0e28 e13e daff bb3e 0617 803e
00000140: b8f4 c2be bca8 4bbe 4577 95be b3cd b03e
00000150: c95c b4be 44c4 8fbb 487c 4e3d 997d 85be
00000160: 1050 fd3b be42 e03e 4625 7a3e 1049 bebc
00000170: 28ec 733e ece8 1fbe fcbd 83be b84d 923d
00000180: 777e e0bd 1617 3ebc a3fa 01bd dc9f 68be
00000190: c9c7 c7bd 197a 41be c2da 05be ad86 ec3d
000001a0: d4ff d3bd 2a31 d53d 4cef f3bd df41 debb
000001b0: 6d90 063f 6a4b 2ebe e20f 46bc d139 0cbc
000001c0: 3230 a2bd d0b2 b83b fb88 36be 71bb 993e
000001d0: 2c86 23be b646 6b3e ed97 61bd 6e75 e6bd
000001e0: 8b9e b5bd a329 e43e e9ea 483e 0bba 0bbe
000001f0: d030 a53e 0fa6 87be bc36 0dbf 9f9f 993d
00000200: 7d7c cc3e 132e d73e ff5c 2dbe ac83 253e
00000210: 143f 703e a0ce ed3d 3c50 543e 7f0b e8bd
00000220: 15e2 87be e5ee b5be 934a 043e bce1 873e
00000230: ea83 613c baff cbbe 6036 cd3d 5107 4fbe
00000240: 658d f93d 8dd2 34bd f9cc ecbe d52d 9b3e
00000250: 4bdd 003f 1178 08be fa10 cf3d 976a a0bc
00000260: b44c 053e 2b81 b33e 25ce 57be 8f74 273e
00000270: 1174 823d 9e2a eabe 8d27 08bf 5909 fa3d
00000280: 011a fabd 96f7 af3e 7c74 2dbe 6a05 603e
00000290: 8672 a53c acc0 793e 305f 663e 95c9 923e
000002a0: 1e25 743e d055 a1bd 6f44 b1bd 021d cabc
000002b0: 1d08 1ebe a282 c3be 7965 72be 4699 243e
000002c0: b8a5 0fbe d8b8 163e 9c43 68be ff0d 023e
000002d0: 5061 bebe aedd c4be da98 dd3e 7bf2 69be
000002e0: 26dc 5a3e eac8 23bd 5c47 38bd d2ba 39be
000002f0: 5405 84be a4af 8a3e 2344 d6be dafe 233e
00000300: 9f8b e33d a0e0 2abc eb2f 35be 9b53 ab3e
00000310: 62d1 9dbe e444 4abe 0800 143e c0d5 83bd
00000320: 19bc 6fbe 01c2 08be b157 923d 55f0 fa3c
00000330: 0082 d33c 390f f83d 5118 81be 7ece 79be
00000340: 2cc8 b63e 0571 823d 4308 3bbd e1ac 9f3e
00000350: a482 99be 8438 d63d 3b78 cbbc 9fb4 46be
00000360: 2632 56be 30bf bd3e 5530 8dbe 7cee e53e
00000370: 2461 02bc ebda 1cbd d447 54be eac7 a63e
00000380: bf4f 63bd 051c d7be 9f01 70bc d7d2 3abd
00000390: 23a3 963d 3d6d 8e3e 5068 4a3e 4d22 82bd
000003a0: 8c84 023e 1423 ea3d 0367 323e f65b 7c3e
000003b0: f2b5 883e 6055 ec3e 6187 92bc 2c47 aabd
000003c0: 21ee 683e 5602 b4bc 6c28 923d c92a c03d
000003d0: da8e 493e 3d78 80bd e39d 133f 4203 623d
000003e0: 0e02 f5bd 54bb d33d 1011 9cbd 4bf8 2dbe
000003f0: 1a10 823e 6a18 9fbd 951f 02be 23fe 36bd

l2.weight f4 [256, 256]
0.060402535 0.2265282 0.072576635 -0.11226899 -0.15327497 -0.042851444 0.37890473 0.1836403
0.01111227 0.19589116 0.31758034 0.02050927 0.23734139 0.10951749 0.08616085 0.41757548
0.039887697 0.34196025 0.44686455 -0.17077611 0.06953586 0.036438815 -0.04556721 0.033691686
-0.6139857 0.0051165037 -0.05572681 0.06657876 -0.050199945 0.06418714 -0.060285885 0.068876326
-0.33155856 0.49230734 0.13235451 -0.12032976 0.02840328 -0.2225236 0.03429087 0.116665155
-0.85914195 0.11871413 -0.2777114 0.3315957 0.06380842 -0.18498471 -0.02885069 0.26674575
0.10381068 0.15234904 0.27582115 0.1721376 -0.041481897 0.3135115 -0.32587826 0.041030407
0.46284583 0.047624696 -0.029048804 -0.6352596 -0.1820558 0.017274229 -0.094021924 0.0673676
-0.22550252 -0.1420596 -0.2547837 0.2747308 0.48271826 0.29579547 -0.0007600787 0.38581032
0.004155444 0.22048019 -0.41063425 -0.14355859 0.2781176 0.004480701 0.03787184 0.073003866
-0.31946105 -0.19521198 -0.061959453 0.035864457 -0.12305685 0.13223971 0.09245136 0.08307979
-0.10473668 0.28809318 -0.5816824 0.025844637 0.14880851 0.30088943 0.07212875 0.047635745
0.04753463 0.1017437 0.047987003 -0.18871446 0.2781303 -0.2527776 -0.11759191 -0.1140922
-0.013477023 0.15056525 0.2428168 -0.49589705 0.19862886 -0.056901228 -0.7466058 0.0460297
-0.14712171 0.14505062 -0.20326726 -0.6618181 0.22134389 0.07394349 0.466678 -0.5236411
-0.09230524 0.3845779 -0.09982246 -0.11505064 -0.09576083 0.010648304 -0.3774516 -0.8650879
0.17600922 0.12892744 -0.35800338 -0.086508214 0.799597 0.19000047 0.23262346 0.4281494
0.07557354 -0.09774046 0.07132547 -0.7066046 0.1925709 0.03304184 0.401612 0.027641926
-0.45817962 0.10636104 0.028878847 0.066484824 -0.027490277 -0.7736717 -0.118247196 0.13297534
0.5327278 -0.24778876 -0.12660383 0.17072767 -0.03092289 -0.25021392 -0.22833817 0.108787954
-0.33628365 -0.32031953 0.18945482 -0.19751336 0.10031387 0.017097425 0.05030864 0.17264554
0.41608548 0.15344384 0.049396567 -0.10209721 -0.34534732 -0.43566716 -0.15852627 -0.12705845
-0.26063254 0.032033525 -0.19544332 0.16623914 -0.26272327 -0.29162002 -0.060322333 -0.18540914
-0.1272214 -0.13322714 0.23561871 -0.12779401 0.14230672 -0.14039849 -0.075377375 0.061486255
-0.35023975 0.090616405 -0.45437977 0.021222647 0.22202022 -0.00051792024 -0.0493494 0.14802727
-0.054659843 -0.0014570275 -0.15149091 0.5558791 0.03536138 0.3128348 0.52288383 -0.080585316
0.3391893 0.0445335 -0.20520248 0.2522076 0.032647222 -0.04984508 0.1689351 0.10040277
-0.13539065 0.060726065 -0.10853898 0.13643596 0.06580956 -0.23024736 -0.21657123 -0.7516113
-0.2675983 -0.20575817 -0.05353432 0.51831543 -0.028628096 0.19901311 0.2137955 -0.6990807
0.18030995 -1.0488288 0.027339166 0.8237623 -0.75071585 0.2533098 -0.73698664 0.11216886
0.3004632 0.020619335 0.14066888 0.23041132 0.20989378 -0.21083702 0.31976438 -0.01402977
0.035572138 0.097873464 -0.09678132 -0.15994503 -0.33948568 0.05371913 -0.023561714 -0.9040234
00000000: a668 773d 02f7 673e 0fa3 943d 49ed e5bd
00000010: 1df4 1cbe ff84 2fbd cdff c13e 340c 3c3e
00000020: 3d10 363c b197 483e e499 a23e 0e03 a83c
00000030: 9f09 733e b54a e03d 1a75 b03d 74cc d53e
00000040: 4861 233d 6a15 af3e 6ecb e43e efdf 2ebe
00000050: d168 8e3d de40 153d afa4 3abd 4b00 0a3d
00000060: 2b2e 1dbf 58a8 a73b cc41 64bd 725a 883d
00000070: 759e 4dbd 8c74 833d 55ee 76bd 080f 8d3d
00000080: 0bc2 a9be b50f fc3e f187 073e 736f f6bd
00000090: ffad e83c 3add 63be 9574 0c3d 24ee ee3d
000000a0: baf0 5bbf 6520 f33d 3030 8ebe e9c6 a93e
000000b0: fdad 823d a26c 3dbe 4858 ecbc e692 883e
000000c0: b29a d43d 6301 1c3e 6e38 8d3e d744 303e
000000d0: ece8 29bd 9484 a03e 84d9 a6be 800f 283d
000000e0: 21fa ec3e 1d12 433d c2f7 edbc 60a0 22bf
000000f0: d66c 3abe af82 8d3c 918e c0bd 06f8 893d
00000100: 22ea 66be 1278 11be 0273 82be 84a9 8c3e
00000110: d926 f73e 8172 973e 0540 47ba ee88 c53e
00000120: 642a 883b 8fc5 613e a73e d2be 0601 13be
00000130: 6e65 8e3e d8d2 923b 811f 1b3d 0d83 953d
00000140: 6690 a3be a6e5 47be 32c9 7dbd 9ce6 123d
00000150: 3b05 fcbd d969 073e 2357 bd3d bd25 aa3d
00000160: 2f80 d6bd f380 933e 23e9 14bf 22b8 d33c
00000170: 4261 183e 2e0e 9a3e 3db8 933d b31d 433d
00000180: acb3 423d 005f d03d 058e 443d 5d3e 41be
00000190: 1867 8e3e 116c 81be 07d4 f0bd 2ca9 e9bd
000001a0: bbce 5cbc c72d 1a3e f8a4 783e 38e6 fdbe
000001b0: 5d65 4b3e 4311 69bd 8f21 3fbf a489 3c3d
000001c0: 13a7 16be 2688 143e 4b25 50be e96c 29bf
000001d0: f9a7 623e af6f 973d 6bf0 ee3e 580d 06bf
000001e0: 880a bdbd 65e7 c43e b86f ccbd ac9f ebbd
000001f0: 411e c4bd 3976 2e3c 5641 c1be 6776 5dbf
00000200: c33b 343e 8e05 043e 384c b7be 382b b1bd
00000210: 64b2 4c3f 7c8f 423e d834 6e3e 6636 db3e
00000220: 4dc6 9a3d 262c c8bd 1713 923d 0ae4 34bf
00000230: 4e31 453e e156 073d 17a0 cd3e 5271 e23c
00000240: 8596 eabe d1d3 d93d 5593 ec3c 3229 883d
00000250: 4a33 e1bc 590f 46bf 962b f2bd b02a 083e
00000260: d960 083f 56bc 7dbe 6fa4 01be 3cd3 2e3e
00000270: 0052 fdbc 0a1c 80be 7bd1 69be 38cc de3d
00000280: 5f2d acbe ec00 a4be 7200 423e f140 4abe
00000290: 5c71 cd3d e60f 8c3c 6f10 4e3d fec9 303e
000002a0: 2809 d53e 6220 1d3e 0e54 4a3d 5818 d1bd
000002b0: 5dd1 b0be c40f dfbe b654 22be 9c1b 02be
000002c0: a171 85be 9635 033d 4b22 48be 983a 2a3e
000002d0: aa83 86be 384f 95be 8d14 77bd e5db 3dbe
000002e0: 5446 02be b26c 08be 0846 713e 6fdc 02be
000002f0: dab8 113e 9fc4 0fbe 745f 9abd 03d9 7b3d
00000300: a052 b3be 1895 b93d 77a4 e8be 1edb ad3c
00000310: 4559 633e 0ac5 07ba 9922 4abd 7694 173e
00000320: 00e3 5fbd bbf9 beba 6f20 1bbe 184e 0e3f
00000330: 18d7 103d e22b a03e b7db 053f ea09 a5bd
00000340: 38aa ad3e c268 363d 9920 52be 5b21 813e
00000350: 18b9 053d 5b2a 4cbd 53fd 2c3e f89f cd3d
00000360: d9a3 0abe e5bb 783d af49 debd deb5 0b3e
00000370: 2ac7 863d f7c5 6bbe d9c4 5dbe 9969 40bf
00000380: a502 89be 45b2 52be ce46 5bbd 52b0 043f
00000390: 7885 eabc 18ca 4b3e 35ed 5a3e f4f6 32bf
000003a0: 2ca3 383e 0640 86bf 63f6 df3c 16e2 523f
000003b0: ea2e 40bf d2b1 813e 28ab 3cbf cab8 e53d
000003c0: 50d6 993e e1e9 a83c 810b 103e f2f0 6b3e
000003d0: 65ee 563e a9e5 57be 28b8 a33e 1fdd 65bc
000003e0: 17b4 113d e271 c83d 4935 c6bd a1c8 23be
000003f0: 11d1 adbe 9708 5c3d 7f04 c1bc 146e 67bf

l2.bias f4 [256]
0.0990913 0.012523144 -0.0077834553 -0.019243188 -0.036616247 -0.058123037 0.07016355 -0.004030189
0.11266155 0.036116917 0.0998725 0.091512345 0.06540201 0.013178757 0.13890462 -0.33893606
-0.068016276 -0.10023312 0.11933171 -0.048340824 -0.039708942 0.07221193 -0.06396114 -0.028991824
0.076549836 0.16048135 -0.03020862 0.03241756 0.013593646 -0.08111437 -0.087613314 -0.11242536
0.029889869 -0.035869356 -0.038336687 -0.046702906 0.09739563 0.12778674 0.13481703 -0.059286587
-0.006481101 0.009295479 -0.024342444 0.01675431 -0.101986006 -0.03252079 0.11200581 0.115186
-0.22189811 -0.025725227 0.06796016 0.0689164 -0.14680563 -0.11162188 -0.0075810924 -0.044993404
0.13183746 0.096474975 -0.10138907 -0.049976654 0.0148716485 -0.04660735 -0.047878522 -0.053238034
0.10635263 0.017778533 -0.054686382 0.10944673 -0.03205153 -0.05858367 0.18125816 0.11996715
-0.122711726 0.03508705 0.16580066 -0.09237304 -0.013321437 0.18176964 0.067940466 -0.0065622497
-0.07252203 0.016965656 0.068211675 0.047817048 0.12389843 -0.116008185 0.05892681 -0.053460866
-0.07587624 0.020212084 0.08856753 -0.09251432 0.0447483 -0.02730739 0.06938322 0.059512496
-0.006563951 0.06254404 0.0746055 0.07680964 -0.059084237 -0.041584067 0.1775669 -0.22072525
-0.029038625 -0.054169483 0.13210176 -0.009920073 0.013921581 -0.14053287 -0.036549497 0.010803402
0.03736522 -0.008713096 0.077304184 0.02830555 -0.02924374 -0.08513687 -0.23161045 0.0025151344
0.009655675 -0.029232312 0.078060634 -0.11042032 -0.0041558393 -0.025531491 0.020324038 0.05613038
0.09897482 0.03415446 -0.06260847 0.088390596 0.009092466 -0.051484797 -0.07760265 -0.027496552
-0.12092248 0.0045410534 0.120726846 0.011564816 0.033717956 -0.070825234 0.062734604 0.13075939
0.028626697 -0.091731705 -0.040153835 0.05476749 0.03477622 0.07797028 0.09741596 0.012353297
-0.09184046 -0.119753815 0.14898802 -0.1073467 -0.06270172 -0.022988575 0.14524731 -0.023406453
-0.05171856 -0.14298902 -0.0050311075 0.025878154 0.07549704 -0.04989354 -0.043161508 0.015921475
-0.012553254 -0.03813378 0.075959265 0.037064645 0.016897729 0.11043744 0.19104771 -0.16528909
-0.107180245 -0.10094652 -0.10923043 -0.04138158 -0.1580645 0.016870968 -0.07966878 0.09648198
0.05149424 0.13242735 -0.069130816 0.021264719 -0.07270289 -0.026175238 0.02258558 -0.03191703
-0.0069757286 0.056090984 -0.015530084 -0.06780898 -0.19065617 0.19790253 0.09911383 0.02163003
-0.058632225 -0.050002646 0.024678607 -0.016947519 0.16476269 0.043178145 0.04854615 -0.07024693
0.019072983 0.0980216 -0.23429172 0.00069903646 -0.017391905 0.029699897 0.017424937 -0.12141813
-0.010511696 0.03945706 0.07705485 -0.09582651 -0.025014192 -0.042321358 -0.037609197 -0.086684704
0.03565641 0.011136043 -0.07838337 -0.019345548 0.14592233 -0.021458969 0.014359865 0.0029643602
-0.06626648 -0.18093485 -0.104816675 0.07557151 -0.02059377 0.025069198 0.06703058 -0.079850785
-0.210755 0.000838299 0.004224865 -0.056566082 0.007043993 0.039268337 -0.0043757055 -0.18214034
-0.015894245 0.2673653 -0.0023774786 -0.06945599 -0.18118057 0.028985845 -0.0884409 -0.014069746
00000000: 61f0 ca3d df2d 4d3c 5b0c ffbb e4a3 9dbc
00000010: ebfa 15bd 6c12 6ebd e8b1 8f3d ad0f 84bb
00000020: 19bb e63d 55ef 133d f489 cc3d d36a bb3d
00000030: 7df1 853d b7eb 573c 033d 0e3e 0789 adbe
00000040: 1e4c 8bbd 0647 cdbd 2f64 f43d 0701 46bd
00000050: d8a5 22bd d9e3 933d 0ffe 82bd 4380 edbc
00000060: 29c6 9c3d 3955 243e 1178 f7bc 47c8 043d
00000070: e2b7 5e3c 4a1f a6bd 9c6e b3bd 443f e6bd
00000080: 99db f43c bfeb 12bd ee06 1dbd 8c4b 3fbd
00000090: 5c77 c73d 87da 023e 7a0d 0a3e 7ed6 72bd
000000a0: 6a5f d4bb 114c 183c ce69 c7bc 5640 893c
000000b0: 0ade d0bd 8534 05bd 4d63 e53d a3e6 eb3d
000000c0: 4239 63be b6bd d2bc b22e 8b3d 0b24 8d3d
000000d0: 3754 16be 039a e4bd d06a f8bb 014b 38bd
000000e0: 6600 073e ac94 c53d 13a5 cfbd 52b4 4cbd
000000f0: 37a8 733c 59e7 3ebd 451c 44bd 2010 5abd
00000100: 68cf d93d 49a4 913c d4fe 5fbd 9b25 e03d
00000110: 7748 03bd 6ef5 6fbd bd9b 393e 56b1 f53d
00000120: 4950 fbbd 70b7 0f3d a6c7 293e 142e bdbd
00000130: 2842 5abc d221 3a3e 5f24 8b3d 2408 d7bb
00000140: 6e86 94bd 8ffb 8a3c 90b2 8b3d cfdb 433d
00000150: 76be fd3d b395 edbd 3d5d 713d c8f9 5abd
00000160: 0165 9bbd d093 a53c e562 b53d 2678 bdbd
00000170: fe49 373d bfb3 dfbc ca18 8e3d 60c3 733d
00000180: 6916 d7bb 1717 803d c5ca 983d 5f4e 9d3d
00000190: 5002 72bd 0e54 2abd 19d4 353e cd05 62be
000001a0: 69e2 edbc d2e0 5dbd af45 073e cd87 22bc
000001b0: 5817 643c d9e7 0fbe edb4 15bd c100 313c
000001c0: 460c 193d 60c1 0ebc a851 9e3d 0ae1 e73c
000001d0: 9190 efbc 3d5c aebd 4a2b 6dbe f4d4 243b
000001e0: d632 1e3c 9a78 efbc 41de 9f3d 0c24 e2bd
000001f0: b52d 88bb 6b27 d1bc 997e a63c f8e8 653d
00000200: 4fb3 ca3d 8ce5 0b3d df38 80bd 2106 b53d
00000210: 91f8 143c b9e1 52bd 23ee 9ebd 7340 e1bc
00000220: 35a6 f7bd 1ecd 943b a33f f73d 5b7a 3d3c
00000230: d71b 0a3d d20c 91bd 007b 803d cae5 053e
00000240: 8982 ea3c d5dd bbbd 5978 24bd e053 603d
00000250: 8271 0e3d e2ae 9f3d 0582 c73d 7c65 4a3c
00000260: da16 bcbd 7d41 f5bd 5190 183e 96d8 dbbd
00000270: c269 80bd 8952 bcbc b6bb 143e e4be bfbc
00000280: d7d6 53bd b76b 12be fddb a4bb 6cfe d33c
00000290: 319e 9a3d 2b5d 4cbd 1fca 30bd c16d 823c
000002a0: 2aac 4dbc 2b32 1cbd 8890 9b3d 19d1 173d
000002b0: 1b6d 8a3c 062d e23d 03a2 433e 8b41 29be
000002c0: 5181 dbbd 0dbd cebd 34b4 dfbd bb7f 29bd
000002d0: a9db 21be fc34 8a3c 6329 a3bd 5898 c53d
000002e0: a0eb 523d 099b 073e 7594 8dbd 5933 ae3c
000002f0: 41e5 94bd 746d d6bc 6505 b93c 6fbb 02bd
00000300: a794 e4bb a9bf 653d e571 7ebc 6fdf 8abd
00000310: 5f3b 43be f6a6 4a3e 31fc ca3d 7631 b13c
00000320: 5828 70bd 93cf 4cbd ca2a ca3c 86d5 8abc
00000330: 8db7 283e 91db 303d 54d8 463d 9fdd 8fbd
00000340: f23e 9c3c 8cbf c83d 2bea 6fbe 8b3f 373a
00000350: 7879 8ebc 334d f33c bebe 8e3c 12aa f8bd
00000360: 4039 2cbc ba9d 213d efce 9d3d b040 c4bd
00000370: 90ea ccbc 2959 2dbd 1a0c 1abd c087 b1bd
00000380: 750c 123d f373 363c 7687 a0bd 8e7a 9ebc
00000390: aa6c 153e b8ca afbc a445 6b3c b645 423b
000003a0: b8b6 87bd fc46 39be 20aa d6bd 3cc5 9a3d
000003b0: 44b4 a8bc eb5d cd3c 5447 893d cf88 a3bd
000003c0: 29d0 57be 4bc1 5b3a bd70 8a3b d6b1 67bd
000003d0: 4cd1 e63b d6d7 203d 1462 8fbb ff82 3abe
000003e0: a634 82bc 1be4 883e 79cf 1bbb f13e 8ebd
000003f0: 6687 39be b973 ed3c 8120 b5bd cb84 66bc

l3.weight f4 [1, 256]
-1.5044181 -0.5895481 0.4580826 0.5688594 0.31462434 0.8091468 0.24026234 -1.2766775
-1.5315002 -0.72021955 0.7665186 -0.58311826 -2.2045648 -2.0442219 -0.30700845 2.8597317
-1.4748783 0.38918868 -0.43051574 0.43826568 0.7589677 -0.28118852 -1.6977313 0.006505962
-1.1068965 -0.6496178 0.6903413 -1.2543988 -1.0852313 -1.2634052 0.60019827 -1.2109879
0.4994789 0.6535233 0.7545305 0.5475835 1.9081883 -1.4755546 1.0396755 0.19796391
0.3601219 1.3131964 -0.931335 -0.57401246 0.9283506 -1.2709836 -0.8157657 -1.3381574
-1.6566054 0.5807626 -1.0378743 -0.2279279 -4.030124 1.324812 0.38220313 0.2626647
1.0715941 -1.0314876 0.5984988 -1.4565843 0.777117 1.211539 0.74468607 0.7661964
-0.44579738 -0.8999891 -0.4094507 -1.9676099 1.424895 -1.1438514 -2.026778 1.9623123
2.222744 -0.6046139 0.8318231 1.6754358 1.8398895 -1.1248114 -1.064466 0.8473236
0.6331568 0.7363358 -0.76015115 -0.5028761 -3.5204165 1.3569297 -1.0060279 1.1719915
0.6459981 -1.4314315 -1.3635103 0.91807294 -0.3223242 0.415796 -0.5100355 -0.5317008
-0.44508123 -0.62496233 -0.7431574 -1.4169776 0.28377876 0.33139902 -0.8136395 -1.5908169
-1.0444245 0.558124 -0.45054826 1.0757183 0.63169694 -1.7952678 -2.9287713 -0.026863553
-1.1799914 0.48557466 -0.44967678 0.76745963 -1.6633804 0.8231158 -1.6645114 0.023230666
0.9591614 -1.4729279 -1.6259934 1.2132049 0.6108661 -1.1199377 -0.89319336 -1.5246618
-0.54111904 0.5736475 0.8574429 -0.7360845 0.7431553 1.112182 -2.107129 -0.02145811
0.63447636 0.94430643 0.9283639 1.0009207 0.4807766 -2.5951033 -1.7298266 -0.8246766
-2.8213663 1.8935182 -1.712909 -0.5143633 -2.2401612 1.0210466 0.3237605 0.7705838
0.5847098 0.8837835 -0.7392511 0.8307808 0.65123355 0.8240838 -0.71096647 1.0499579
-0.8821662 -1.3808346 -0.8417705 -0.9043301 -1.2933159 0.29072666 1.1699674 0.4169018
0.79059553 -0.6948604 0.23043786 0.46988437 0.18937847 1.2908362 1.704263 1.3179387
0.5889836 2.9316587 -2.0032442 1.4916434 1.7246251 -0.83974415 0.7331316 -1.1681331
0.535437 -0.5297764 -1.3605736 -1.4688565 -1.3919791 0.4394519 0.42568386 0.17989749
-1.2608148 -0.67919374 0.22185364 -2.1518707 -1.3059596 1.3315175 -1.5047889 -0.52952886
1.4393001 -0.0336955 0.38154688 -2.5092173 -0.5534095 -0.5788788 -1.3597435 -4.361745
-2.3808334 0.503495 2.5141664 0.22450557 0.006161268 -1.2261341 -0.7312527 -3.1968944
-2.274119 1.5796362 -0.38423812 0.6936159 0.020280948 0.26354268 0.80295193 0.9705914
0.42128855 -0.9149256 0.9086097 -0.72311056 -0.50472873 1.4152067 -1.3482003 -0.81420654
-1.7355871 1.0651475 -0.74432874 -0.5733263 0.39618215 -0.64070785 -0.47012612 1.0397778
-1.5887886 -0.78077114 0.4700538 0.7410115 0.73244435 -1.0333141 0.991429 1.4782071
-1.1542222 1.6239033 0.6925749 2.3738463 -2.386025 -0.7296446 -1.6928116 -0.93428206
00000000: c690 c0bf a0ec 16bf cd89 ea3e c5a0 113f
00000010: 7116 a13e 3f24 4f3f 5507 763e 2b6a a3bf
00000020: 3308 c4bf 4f60 38bf 903a 443f 3d47 15bf
00000030: 9717 0dc0 88d4 02c0 3630 9dbe d805 3740
00000040: d0c8 bcbf bd43 c73e 8f6c dcbe 5c64 e03e
00000050: b54b 423f f1f7 8fbe 424f d9bf f72f d53b
00000060: c9ae 8dbf 5a4d 26bf 35ba 303f 2490 a0bf
00000070: dce8 8abf 43b7 a1bf 98a6 193f a701 9bbf
00000080: b3bb ff3e 4e4d 273f e928 413f 6f2e 0c3f
00000090: 843f f43f f9de bcbf 1614 853f 0db7 4a3e
000000a0: e661 b83e d216 a83f f86b 6ebf 7bf2 12bf
000000b0: 63a8 6d3f 97af a2bf 05d6 50bf be48 abbf
000000c0: a50b d4bf dcac 143f 11d9 84bf ee65 69be
000000d0: c7f6 80c0 7193 a93f 21b0 c33e fd7b 863e
000000e0: ff29 893f c907 84bf 3837 193f 5b71 babf
000000f0: 24f1 463f b613 9b3f bfa3 3e3f 7325 443f
00000100: 8e3f e4be b065 66bf 86a3 d1be a4da fbbf
00000110: f662 b63f b969 92bf bbb6 01c0 0d2d fb3f
00000120: 7041 0e40 fac7 1abf 5cf2 543f ae74 d63f
00000130: 8081 eb3f d2f9 8fbf 6c40 88bf 33ea 583f
00000140: 9016 223f 8180 3c3f 4499 42bf 7dbc 00bf
00000150: 814e 61c0 dfaf ad3f 86c5 80bf d103 963f
00000160: 2260 253f 2639 b7bf 8187 aebf d406 6b3f
00000170: ad07 a5be 37e3 d43e b091 02bf 8b1d 08bf
00000180: b0e1 e3be 88fd 1fbf 903f 3ebf 865f b5bf
00000190: 734b 913e 22ad a93e ae4a 50bf e39f cbbf
000001a0: b4af 85bf 37e1 0e3f 43ae e6be 23b1 893f
000001b0: e4b6 213f 56cb e5bf fd70 3bc0 f410 dcbc
000001c0: f509 97bf 3e9d f83e 093c e6be 3c78 443f
000001d0: a6e9 d4bf b8b7 523f b60e d5bf 3d4e be3c
000001e0: 9a8b 753f e788 bcbf 8d20 d0bf 4c4a 9b3f
000001f0: b961 1c3f 1e5a 8fbf 52a8 64bf 1e28 c3bf
00000200: c786 0abf 90da 123f 6181 5b3f 0970 3cbf
00000210: 6d3f 3e3f fb5b 8e3f 34db 06c0 ebc8 afbc
00000220: 0b6d 223f 11be 713f 42a9 6d3f 2b1e 803f
00000230: 5a28 f63e 2c16 26c0 f56a ddbf 011e 53bf
00000240: 4491 34c0 ce5e f23f 9a40 dbbf 50ad 03bf
00000250: cd5e 0fc0 a8b1 823f f0c3 a53e fb44 453f
00000260: 8baf 153f a33f 623f 8f3f 3dbf 0dae 543f
00000270: 3eb7 263f 28f7 523f e601 36bf 0565 863f
00000280: a5d5 61bf 30bf b0bf 467e 57bf 2d82 67bf
00000290: 608b a5bf 20da 943e 7ec1 953f 2774 d53e
000002a0: 7864 4a3f 5fe2 31bf e7f7 6b3e af94 f03e
000002b0: 6eec 413e 1f3a a53f 4a25 da3f 37b2 a83f
000002c0: a1c7 163f 4ca0 3b40 2735 00c0 2cee be3f
000002d0: 84c0 dc3f 79f9 56bf 83ae 3b3f 6385 95bf
000002e0: 6612 093f 6d9f 07bf 4727 aebf 7d03 bcbf
000002f0: 5f2c b2bf d7ff e03e 3cf3 d93e 0c37 383e
00000300: 6162 a1bf a4df 2dbf 9a2d 633e 40b8 09c0
00000310: af29 a7bf 2a6f aa3f ec9c c0bf 348f 07bf
00000320: fc3a b83f 4b04 0abd 1d5a c33e 0497 20c0
00000330: 3fac 0dbf 6731 14bf 130c aebf 6a93 8bc0
00000340: 935f 18c0 0ce5 003f 1ae8 2040 cae4 653e
00000350: 76e4 c93b f6f1 9cbf 6033 3bbf eb99 4cc0
00000360: 2a8b 11c0 8531 ca3f dcba c4be d090 313f
00000370: 3b24 a63c 11ef 863e 428e 4d3f ae78 783f
00000380: 22b3 d73e 9038 6abf a59a 683f c61d 39bf
00000390: e735 01bf 7e25 b53f d491 acbf d76f 50bf
000003a0: b827 debf c156 883f 548c 3ebf 83c5 12bf
000003b0: 63d8 ca3e 6e05 24bf 5fb4 f0be 7017 853f
000003c0: 6d5d cbbf 9ee0 47bf e4aa f03e eeb2 3d3f
000003d0: 7981 3b3f a343 84bf 4ace 7d3f e435 bd3f
000003e0: 8ebd 93bf 10dc cf3f 974c 313f 19ed 1740
000003f0: a2b4 18c0 fdc9 3abf 0dae d8bf 1c2d 6fbf

l4.weight f4 [256, 28]
-0.10674484 1.2576375 -0.6918028 -0.038373105 -0.10631967 0.116252154 0.054057453 0.031128732
-0.038052905 -0.0154736275 -0.112161994 -0.2172869 -0.02042311 -0.046186518 0.2245903 0.3086049
0.17186528 -0.3850668 0.0060398253 0.2543721 0.48981625 -0.11409204 0.09755739 -0.23325065
0.016555205 -0.0019240723 -0.10673529 0.016953988 -0.24763504 -2.6169937 -0.14568798 0.64172643
-0.15874699 -0.10095958 -0.010430815 -0.01890801 -0.019513298 0.030751286 -0.072181925 0.06607285
-0.026549483 0.0041367263 0.20882235 -0.11841723 -0.20421042 0.16255632 -0.052792706 -0.13005517
0.26503608 -0.18014227 -0.105237074 0.099265106 0.008670656 0.018375352 0.02320634 -0.0077618808
-0.16205865 1.8749415 0.38886076 1.0729316 0.27568513 0.13729851 0.21758558 0.025798926
-0.045770917 -0.09472159 0.07684644 -0.09573937 0.012511993 -0.025658969 0.29000908 0.26293814
0.035895173 -0.019917032 0.1972397 0.060028303 -0.04295857 0.04151903 0.26919514 -0.18499216
-0.007673912 0.006499882 -0.0043870118 0.0068790778 0.0912881 -0.7688378 -0.0893349 0.64623624
-0.13450052 -0.013356202 -0.15728554 0.01464303 -0.0040593087 0.14622833 0.06550564 0.25321767
0.033558037 0.07441678 -0.11532589 -0.37636155 0.12774152 0.009934737 0.53134954 0.35363612
-0.07760863 0.5240299 0.09557914 0.0076353014 -0.019518912 0.022974094 0.043997835 -0.010345219
0.09265175 1.2661091 0.321406 0.40913782 -0.12718183 0.05290385 -0.09838339 0.010745372
0.003558208 0.0684712 0.08184316 0.35943395 0.08602792 -0.08014317 0.41507128 0.3376024
0.267381 -0.008248139 -0.118649 0.046699874 0.09089593 0.46985623 -0.538345 0.069244765
0.0044398024 -0.012018451 -0.021777056 0.06616677 0.23338884 -0.8675152 -0.4712846 0.41448203
0.054057192 0.017937502 0.017946607 0.015329841 0.05829036 -0.13196565 -0.03964602 -0.1578827
0.034824718 -0.06937476 -0.06547382 0.26983938 0.33781368 -0.06535703 0.04235295 -0.10021006
0.2344278 0.22983706 0.3815032 0.01396868 0.022014547 -0.019845957 -0.0027666325 0.006136383
0.03632782 0.107803576 0.31838545 1.0337213 0.09650706 -0.0074510877 0.14314634 -0.031860694
-0.04043317 -0.027323265 0.0014125803 -0.16442932 -0.004939721 0.051837053 0.06477094 -0.16838945
0.08016723 0.049826577 0.090266705 -0.2530346 0.024778455 0.27322626 0.08641282 0.029234739
0.016386854 0.0057168347 -0.0001570297 -0.06270684 0.065135255 0.22701348 -0.29440942 0.10052543
-0.31355593 0.1160083 -0.11008527 0.057233196 0.10722928 0.2999032 -0.03872185 0.6219107
0.08925576 0.009382821 -1.108051 -0.63880783 -0.39381573 0.29997614 -0.12385871 -0.29015586
0.108381614 -0.08275756 -0.012982603 0.2935644 0.07254934 0.0025017178 -0.06538252 0.09179171
-0.64624065 1.1397359 0.41455817 1.5313566 -0.14785254 0.072049946 -0.12382545 0.004145758
0.05872114 -0.29107082 0.055442818 -0.23638679 -0.01651912 0.018631311 -0.10106597 0.21242107
0.39048094 0.05779937 -0.20595396 0.13642262 -0.012047849 -0.16194804 -0.055732217 -0.024511801
0.018536782 0.0052814726 -0.011973278 -0.0048064003 0.12847108 -0.6693029 -0.32147878 -0.25705954
00000000: 0a9d dabd 44fa a03f fd19 31bf 1e2d 1dbd
00000010: 21be d9bd 9c15 ee3d 596b 5d3d af01 ff3c
00000020: 5ddd 1bbd 1985 7dbc 30b5 e5bd 7580 5ebe
00000030: 5e4e a7bc 132e 3dbd 00fb 653e 7601 9e3e
00000040: 74fd 2f3e 7a27 c5be bae9 c53b 0f3d 823e
00000050: 32c9 fa3e 16a9 e9bd 2bcc c73d 42d9 6ebe
00000060: c89e 873c 2731 fcba 0898 dabd 17e3 8a3c
00000070: 0a94 7dbe d37c 27c0 3b2f 15be 2f48 243f
00000080: 928e 22be e5c3 cebd 02e6 2abc f9e4 9abc
00000090: 5ada 9fbc 1fea fb3c 1ed4 93bd 3451 873d
000000a0: 4d7e d9bc 608d 873b 87d5 553e bc84 f2bd
000000b0: 891c 51be 2a75 263e 2a3d 58bd 2f2d 05be
000000c0: cfb2 873e 3777 38be 8986 d7bd 814b cb3d
000000d0: 5e0f 0e3c e887 963c 391b be3c 6057 febb
000000e0: b4f2 25be 15fe ef3f c218 c73e d355 893f
000000f0: 9a26 8d3e fb97 0c3e c1ce 5e3e 4558 d33c
00000100: 497a 3bbd 65fd c1bd ab61 9d3d 0113 c4bd
00000110: 1aff 4c3c c232 d2bc 127c 943e d49f 863e
00000120: d106 133d 0b29 a3bc 34f9 493e 3de0 753d
00000130: 53f5 2fbd dc0f 2a3d f2d3 893e 966e 3dbe
00000140: 7175 fbbb f6fc d43b ecc0 8fbb e369 e13b
00000150: 41f5 ba3d 8ed2 44bf 37f5 b6bd bd6f 253f
00000160: 81ba 09be f9d3 5abc 760f 21be 52e9 6f3c
00000170: f303 85bb e1bc 153e d227 863d bfa5 813e
00000180: 2774 093d d367 983d fb2f ecbd 76b2 c0be
00000190: acce 023e 4fc5 223c 8606 083f cb0f b53e
000001a0: 46f1 9ebd d326 063f ffbe c33d 8d31 fa3b
000001b0: 20e6 9fbc 2b34 bc3c 1337 343d fe7e 29bc
000001c0: 33c0 bd3d dd0f a23f 548f a43e 837a d13e
000001d0: f43b 02be b5b1 583d 3b7d c9bd 5b0d 303c
000001e0: d330 693b a13a 8c3d 639d a73d ba07 b83e
000001f0: 682f b03d 1a22 a4bd 3984 d43e 39da ac3e
00000200: 2ae6 883e 3423 07bc 3ffe f2bd 5e48 3f3d
00000210: a527 ba3d ff90 f03e fad0 09bf 33d0 8d3d
00000220: c37b 913b 09e9 44bc cc65 b2bc 7282 873d
00000230: 7cfd 6e3e 7a15 5ebf 374c f1be fd36 d43e
00000240: 136b 5d3d abf1 923c c304 933c 032a 7b3c
00000250: dfc1 6e3d 0122 07be dd63 22bd 01ac 21be
00000260: 5da4 0e3d 5b14 8ebd 2317 86bd 6328 8a3e
00000270: eaf5 ac3e e8d9 85bd 497a 2d3d ef3a cdbd
00000280: d70d 703e 685a 6b3e 6354 c33e e4dc 643c
00000290: da57 b43c fd93 a2bc 6450 35bb b613 c93b
000002a0: 7bcc 143d 1fc8 dc3d 6b03 a33e fb50 843f
000002b0: 7ea5 c53d 4128 f4bb f494 123e 5c80 02bd
000002c0: 409d 25bd 0ad5 dfbc 5426 b93a 2960 28be
000002d0: 62dd a1bb 1753 543d a0a6 843d 496e 2cbe
000002e0: b72e a43d f416 4c3d c0dd b83d c08d 81be
000002f0: 30fc ca3c 50e4 8b3e 34f9 b03d b17d ef3c
00000300: b93d 863c 4954 bb3b 57a8 24b9 726c 80bd
00000310: a265 853d 3976 683e d5bc 96be 47e0 cd3d
00000320: 678a a0be c295 ed3d 6374 e1bd 5b6d 6a3d
00000330: 069b db3d ea8c 993e cd9a 1ebd 8a35 1f3f
00000340: b9cb b63d 67ba 193c 9dd4 8dbf e988 23bf
00000350: 37a2 c9be 7996 993e a3a9 fdbd 4f8f 94be
00000360: 2ef7 dd3d cc7c a9bd fcb4 54bc 134e 963e
00000370: c094 943d dcf3 233b 45e7 85bd 4bfd bb3d
00000380: 0770 25bf dee2 913f f840 d43e 7e03 c43f
00000390: a866 17be ec8e 933d 3398 fdbd 24d9 873b
000003a0: 9485 703d 3c07 95be 0218 633d 610f 72be
000003b0: 1b53 87bc b1a0 983c adfb cebd e984 593e
000003c0: 1eed c73e 08bf 6c3d 98e5 52be 5fb2 0b3e
000003d0: 5764 45bc b5d5 25be 7747 64bd f9cc c8bc
000003e0: 73da 973c 3410 ad3b 912b 44bc 027f 9dbb
000003f0: ec8d 033e 6f57 2bbf de98 a4be 4f9d 83be

l4.bias f4 [256]
-0.08393838 0.188064 -0.50439745 -0.49255064 -0.25322628 -0.32256854 -0.23127057 0.22823386
-0.016664509 0.13752635 -0.15182173 -0.041737385 -0.33218277 0.17486678 0.24228805 -0.20243281
-0.43419126 0.11885385 -0.2627204 0.12609084 -0.22635843 0.38483608 -0.25638035 0.21474992
-0.2389213 -0.20557025 0.23280692 -0.1124416 -0.4024823 0.048555944 -0.1164398 0.076630875
0.28562096 -0.1790266 0.02669684 0.37802362 0.14266433 0.1364516 0.13558245 0.31595173
0.1905944 0.039758544 0.29858673 0.46099913 0.23167443 -0.22880973 0.13943312 0.03589937
-0.3944616 -0.1259773 -0.2494324 -0.039065227 -0.27044713 -0.03048274 0.33997244 -0.2605086
-0.09446751 -0.19311325 -0.22914521 0.23616482 0.114773855 0.3063946 -0.21483052 0.33044168
-0.057265483 -0.10896689 0.10249092 0.04594044 0.16031745 0.061487112 0.17978653 0.22944275
0.06393434 0.13241424 0.1721035 -0.26834658 0.06574702 0.109017946 0.16803244 0.5450757
-0.27425653 -0.19180043 -0.051280253 -0.13948373 -0.12914775 -0.09721454 -0.16452238 0.54171085
-0.050979722 0.21802185 0.037949655 -0.26644656 0.27931482 -0.19054858 -0.29283425 -0.085500404
0.24207826 0.08013894 0.5019894 -0.0871871 0.17259872 -0.42387152 -0.06843881 0.23573244
0.042228468 0.11235079 -0.21237111 0.05587037 -0.094937 0.14181268 -0.21081693 0.015027875
-0.15914658 -0.2224578 0.27248976 -0.051605806 -0.23961529 0.3349726 -0.23714104 -0.11539955
0.19044304 0.4042551 0.14555871 0.20425296 0.36314246 -0.124790676 0.014751305 -0.50240695
-0.007897355 -0.006024689 -0.3927712 -0.036935225 -0.1433722 -0.21166535 0.5097962 -0.2268532
-0.3703809 -0.27212322 -0.13425022 -0.4855468 -0.12740593 -0.36528862 0.4365742 0.22999477
0.41541383 -0.018729249 0.09888606 -0.19765761 0.28687677 0.04440302 -0.29530573 -0.21969528
-0.08487523 0.09393858 -0.22285365 -0.58696663 -0.2047004 -0.04787918 -0.043924246 -0.08524773
-0.33464828 -0.04261963 0.016997263 -0.14476775 -0.08956085 0.07379964 -0.008387514 0.016910335
0.029344078 -0.13495505 -0.35804376 -0.0082507795 0.0644171 0.019239975 -0.3042259 -0.03000234
-0.059125062 0.09138069 -0.45537266 0.03535309 -0.29129028 0.07120793 0.077001624 0.6167789
0.3369173 -0.18027253 0.01768716 -0.024534546 -0.07514156 -0.36081305 0.20383234 0.067113504
0.17234506 -0.07658553 0.33297536 0.12281095 0.28154674 0.19236402 0.10760156 0.19815785
-0.077734426 0.063261926 0.15731233 0.34959486 0.040604077 0.22136223 0.15574251 0.34081024
0.056186132 -0.124714345 -0.08932885 0.62232625 0.26650724 -0.311538 -0.022586744 0.039923135
-0.2250638 0.23082946 -0.3958685 -0.21744837 0.23611404 0.7021812 0.076824814 -0.06573884
-0.37014782 -0.44985583 0.40717942 -0.29499212 0.114853546 -0.27996647 0.037589077 0.32652745
0.038562585 -0.12753038 -0.12918107 0.0837331 -0.22674906 0.27009922 0.34296218 0.24808936
0.16195649 0.35304457 -0.16689584 0.20696752 0.45864752 0.06688144 0.1389934 0.038166743
0.47080472 0.16265069 0.37577933 -0.046259824 -0.06521345 -0.2942586 -0.19324967 -0.11611776
00000000: e3e7 abbd d993 403e 3120 01bf 992f fcbe
00000010: e0a6 81be b427 a5be 31d2 6cbe 23b6 693e
00000020: 0284 88bc b5d3 0c3e 2877 1bbe d2f4 2abd
00000030: dc13 aabe 4710 333e 5c1a 783e 8c4a 4fbe
00000040: 514e debe a669 f33d 4a83 86be f51d 013e
00000050: 81ca 67be 3c09 c53e 4944 83be 67e7 5b3e
00000060: c9a7 74be 0281 52be f064 6e3e c847 e6bd
00000070: 2912 cebe 99e2 463d fd77 eebd a6f0 9c3d
00000080: e93c 923e c052 37be 55b3 da3c 508c c13e
00000090: 9916 123e f8b9 0b3e 20d6 0a3e 6dc4 a13e
000000a0: 2e2b 433e dbd9 223d 5ce0 983e 1408 ec3e
000000b0: 103c 6d3e 194d 6abe 8ec7 0e3e 380b 133d
000000c0: dff6 c9be 3100 01be 356b 7fbe dc02 20bd
000000d0: 0c78 8abe f0b6 f9bc de10 ae3e 6261 85be
000000e0: 2f78 c1bd 7bbf 45be 0ba5 6abe 31d5 713e
000000f0: 8e0e eb3d c1df 9c3e 88fc 5bbe a72f a93e
00000100: 368f 6abd 082a dfbd c2e6 d13d 0b2c 3c3d
00000110: 422a 243e e9d9 7b3d f619 383e 0af3 6a3e
00000120: 02f0 823d 9997 073e e63b 303e b964 89be
00000130: 60a6 863d cd44 df3d b210 2c3e 158a 0b3f
00000140: 5a6b 8cbe 5567 44be 3e0b 52bd d3d4 0ebe
00000150: 4f3f 04be 6b18 c7bd 8e78 28be 90ad 0a3f
00000160: 1dd0 50bd 1f41 5f3e 1971 1b3d af6b 88be
00000170: 5a02 8f3e 2b1f 43be 5fee 95be d61a afbd
00000180: 5de3 773e e21f a43d 6182 003f 268f b2bd
00000190: b8bd 303e b005 d9be a629 8cbd d863 713e
000001a0: c2f7 2c3d 2c18 e63d d077 59be 54d8 643d
000001b0: 546e c2bd 5837 113e 65e0 57be 7a37 763c
000001c0: 52f7 22be facb 63be c783 8b3e 9c60 53bd
000001d0: b65d 75be 8781 ab3e 1ad5 72be 9956 ecbd
000001e0: 8003 433e 86fa ce3e 580d 153e b027 513e
000001f0: cfed b93e 4192 ffbd 75af 713c be9d 00bf
00000200: e863 01bc c16a c5bb 4f19 c9be 6449 17bd
00000210: 29d0 12be cdbe 58be 0182 023f 354c 68be
00000220: 91a2 bdbe bc53 8bbe e478 09be 9799 f8be
00000230: b376 02be 1c07 bbbe a786 df3e c083 6b3e
00000240: 1fb1 d43e 156e 99bc c684 ca3d c266 4abe
00000250: 83e1 923e f1df 353d 5032 97be cdf7 60be
00000260: 11d3 adbd df62 c03d bf33 64be 7243 16bf
00000270: fb9c 51be f61c 44bd e9e9 33bd 5d96 aebd
00000280: 0557 abbe ec91 2ebd d83d 8b3c ff3d 14be
00000290: ae6b b7bd 4424 973d c96b 09bc 8b87 8a3c
000002a0: fe62 f03c a831 0abe 8351 b7be 472e 07bc
000002b0: 1ded 833d 279d 9d3c 7fc3 9bbe 78c7 f5bc
000002c0: 1f2d 72bd cd25 bb3d 9b26 e9be 67ce 103d
000002d0: 0024 95be 77d5 913d 07b3 9d3d 39e5 1d3f
000002e0: 6d80 ac3e 5d99 38be aae4 903c acfc c8bc
000002f0: d1e3 99bd 7dbc b8be 6db9 503e ce72 893d
00000300: 397b 303e e0d8 9cbd bf7b aa3e 4f84 fb3d
00000310: e526 903e 13fb 443e 355e dc3d e4e9 4a3e
00000320: 3a33 9fbd 788f 813d 7c16 213e 19fe b23e
00000330: 7650 263d c8ac 623e f77a 1f3e ae7e ae3e
00000340: 6e23 663d 3c6a ffbd 0bf2 b6bd c650 1f3f
00000350: a373 883e e981 9fbe d607 b9bc 7186 233d
00000360: 2077 66be 8f5e 6c3e 47af cabe c9aa 5ebe
00000370: e1c7 713e 26c2 333f 5456 9d3d 16a2 86bd
00000380: 0484 bdbe 8153 e6be d279 d03e 3509 97be
00000390: 5638 eb3d c457 8fbe 01f7 193d 9b2e a73e
000003a0: cdf3 1d3d 5397 02be 0b48 04be 427c ab3d
000003b0: e830 68be 724a 8a3e bd98 af3e 230b 7e3e
000003c0: ecd7 253e 42c2 b43e bee6 2abe 4bef 533e
000003d0: d9d3 ea3e 23f9 883d 4954 0e3e bb54 1c3d
000003e0: 510d f13e e78d 263e 2666 c03e f17a 3dbd
000003f0: a18e 85bd 10a9 96be 3ee3 45be 26cf edbd

l5.weight f4 [256, 256]
-0.013851643 0.06384965 -0.1304457 0.106448345 0.04389303 0.032856792 0.0032281347 0.16712348
0.28202292 0.072689205 0.101253055 -0.011168183 -0.16169652 -0.34252858 -0.3024302 0.0888555
0.09980074 0.20889512 -0.19003841 -0.058812473 -0.028207706 -0.07617328 -0.12494964 0.066964746
0.40937918 -0.11108723 0.24398917 0.28980294 -0.0731261 -0.033877466 -0.12612201 0.18568176
-0.032491703 0.31648442 0.24600445 -8.26341e-05 -0.2022678 -0.028696744 -0.7887189 -0.47215012
-0.06187018 0.53247774 0.2852477 -0.34023207 0.14758517 0.07572653 -0.0858097 -0.038890578
0.23670648 0.003372975 0.123869985 -0.0408721 0.0430512 0.43478802 0.274524 0.12356341
-0.09308511 -0.30851018 0.05354701 -0.06821266 -0.0067328615 0.09969945 0.28474802 0.20599332
-0.42392683 0.15065998 -0.18151674 -0.3036216 0.11551466 0.032490678 0.074666925 -0.03568375
0.018355705 0.074278295 0.061764035 0.09932938 0.56879616 0.2543131 0.093658574 -0.63359404
-0.1821401 0.02511626 0.14135222 -0.009415772 0.2891247 -0.011460295 -0.019987507 0.24887016
-0.01387844 0.13599488 0.1562774 -0.06477486 -0.04500159 0.1220528 0.12176215 0.15533642
-0.25121918 0.103197776 0.14054212 -0.0364803 0.13845062 -0.05360064 -0.15460846 0.020756772
0.18848592 0.03170285 -0.613003 -0.8777234 -0.10220011 0.6451036 0.15125792 0.011811663
-0.00820245 -0.007775844 -0.14961334 -0.015817255 0.15380143 0.013731672 0.14705935 -0.3977929
0.09096281 -0.07118213 -0.1210031 -0.031755712 -0.4385895 -0.25117397 -0.048651572 0.08145318
0.32806242 0.015223837 0.14432923 -0.23521195 0.09039851 0.02390812 -0.07492765 0.05593978
0.14512727 0.0308842 0.051621925 0.11642641 -0.17615001 0.021771502 0.1514451 -2.235003
0.086265504 0.088801876 0.013184071 0.01817024 -0.008638785 0.037951726 0.22388151 0.12841143
-0.16731837 0.06930645 -0.19125694 -0.030815007 -0.015256219 0.07916948 0.0014758687 -0.5211489
-0.009555316 0.25156122 -0.011282814 0.1615905 0.062058173 0.06521508 0.19671284 0.044395752
0.08686644 -0.13690431 0.08717835 -0.09462196 -0.013716027 -0.1824808 0.1041457 0.17781197
0.28749213 0.42049795 -0.20449664 0.030401904 0.08764396 0.015092146 0.13645941 -0.6586421
0.08625051 0.104826845 0.16179058 0.05641617 0.16617723 0.19065753 -0.00643282 0.1797878
-0.17325535 -0.08811656 0.009596656 -0.083298765 -0.1933721 0.15296917 0.057098653 -0.2978793
-0.112171344 0.15743266 0.18163973 -0.16463183 0.016557163 0.08462688 0.06553454 0.08435426
0.19882517 -0.22049288 0.10587158 -0.03492095 0.0979659 -0.1768182 -0.66800547 -0.09767478
0.03597791 -0.12702912 0.11940721 0.12827098 0.005429056 -0.09124161 0.036808427 -0.030596616
-0.056040466 -0.55112064 0.011052335 0.04798204 0.120994836 0.30297342 -0.34845132 -0.630651
-0.14394237 -0.09523195 0.08269951 0.10017203 -0.034240454 0.29556227 -0.41735908 -0.019434689
0.08484803 -0.17754668 -0.6100507 0.1446848 -0.029265966 -0.067873016 0.058488287 0.12671265
0.44150227 0.024938043 -0.07600909 0.3156583 0.20126706 -0.1627214 -0.25589055 0.10985619
00000000: 00f2 62bc 9bc3 823d 8f93 05be 9701 da3d
00000010: 2ec9 333d d894 063d 1d8f 533b 6b22 2b3e
00000020: 4f65 903e 14de 943d c35d cf3d c1fa 36bc
00000030: c693 25be e85f afbe 22d8 9abe dff9 b53d
00000040: 5564 cc3d 9ae8 553e 6e99 42be 59e5 70bd
00000050: d913 e7bc bd00 9cbd 99e5 ffbd d024 893d
00000060: 269a d13e b481 e3bd 4cd8 793e 0d61 943e
00000070: 23c3 95bd 19c3 0abd 2126 01be 5c23 3e3e
00000080: 0516 05bd 3f0a a23e 97e8 7b3e d84b adb8
00000090: 4a1f 4fbe 6f15 ebbc 7be9 49bf a9bd f1be
000000a0: 966b 7dbd 7650 083f fd0b 923e e632 aebe
000000b0: 9120 173e 8316 9b3d ffbc afbd ba4b 1fbd
000000c0: 2f63 723e 210d 5d3b 8caf fd3d 8169 27bd
000000d0: 7556 303d 899c de3e 698e 8c3e d00e fd3d
000000e0: 68a3 bebd 0cf5 9dbe 1c54 5b3d 14b3 8bbd
000000f0: 569f dcbb 3a2f cc3d 7eca 913e eaef 523e
00000100: f00c d9be 9c46 1a3e 86df 39be 4a74 9bbe
00000110: f392 ec3d f214 053d f9ea 983d 2029 12bd
00000120: b45e 963c 381f 983d 49fc 7c3d 346d cb3d
00000130: a09c 113f 5435 823e 11d0 bf3d 3833 22bf
00000140: ef82 3abe 9dc0 cd3c a3be 103e 9c44 1abc
00000150: 2708 943e f6c3 3bbc d7bc a3bc d2d7 7e3e
00000160: 6562 63bc 3e42 0b3e 2f07 203e afa8 84bd
00000170: 9653 38bd d2f6 f93d 6f5e f93d 8310 1f3e
00000180: cd9f 80be 5b59 d33d 46ea 0f3e 5e6c 15bd
00000190: 00c6 0d3e 588c 5bbd ae51 1ebe 1b0a aa3c
000001a0: 7402 413e d9da 013d c4ed 1cbf 7bb2 60bf
000001b0: 4b4e d1bd 8225 253f 5be3 1a3e b585 413c
000001c0: 9263 06bc 82cc febb 3d34 19be 3093 81bc
000001d0: 1f7e 1d3e cffa 603c ba96 163e 83ab cbbe
000001e0: b64a ba3d f0c7 91bd 79d0 f7bd 4712 02bd
000001f0: ce8e e0be e099 80be df46 47bd edd0 a63d
00000200: ccf7 a73e 676d 793c 0bcb 133e 67db 70be
00000210: db22 b93d f6da c33c ab73 99bd 1c21 653d
00000220: 3e9c 143e dd00 fd3c 8371 533d f870 ee3d
00000230: ab60 34be 265a b23c 6d14 1b3e 4a0a 0fc0
00000240: f8ab b03d c2dd b53d 0002 583c c1d9 943c
00000250: b189 0dbc 4573 1b3d 3241 653e 497e 033e
00000260: 8255 2bbe 8af0 8d3d dcd8 43be c16f fcbc
00000270: 38f5 79bc 9c23 a23d f071 c13a 046a 05bf
00000280: e68d 1cbc a2cc 803e 8ddb 38bc fb77 253e
00000290: b630 7e3d 7c8f 853d 176f 493e 52d8 353d
000002a0: 08e7 b13d a530 0cbe 908a b23d 28c9 c1bd
000002b0: 30b9 60bc 3fdc 3abe 574a d53d 5714 363e
000002c0: 2b32 933e 824b d73e 9167 51be 6a0d f93c
000002d0: ad7e b33d 0c45 773c 04bc 0b3e c59c 28bf
000002e0: 1ba4 b03d 75af d63d 6eac 253e a414 673d
000002f0: 5d2a 2a3e ba3b 433e 68ca d2bb 4b1a 383e
00000300: da69 31be 7476 b4bd 4b3b 1d3c 8b98 aabd
00000310: 5603 46be f3a3 1c3e 47e0 693d a383 98be
00000320: 17ba e5bd 0736 213e c4ff 393e 3f95 28be
00000330: e3a2 873c dc50 ad3d f936 863d edc1 ac3d
00000340: d398 4b3e e3c8 61be 33d3 d83d 4509 0fbd
00000350: 59a2 c83d d50f 35be 6802 2bbf b709 c8bd
00000360: 935d 133d ec13 02be c48b f43d 7859 033e
00000370: 39e6 b13b e2dc babd 6fc4 163d c1a5 fabc
00000380: b08a 65bd 3e16 0dbf da14 353c d188 443d
00000390: 24cc f73d 551f 9b3e 3668 b2be 5872 21bf
000003a0: a165 13be f808 c3bd 5c5e a93d fe26 cd3d
000003b0: b83f 0cbd f053 973e 17b0 d5be 7f35 9fbc
000003c0: cec4 ad3d ccce 35be 482c 1cbf 4128 143e
000003d0: 2ebf efbc 0201 8bbd 6a91 6f3d f6c0 013e
000003e0: 960c e23e de4a cc3c a7aa 9bbd f79d a13e
000003f0: f418 4e3e 70a0 26be 1604 83be 48fc e03d
