HardcoreVersion/critic/ppo_q_critic5600.pth (torch, 592130 bytes, 10 tensors)

l1.weight f4 [256, 28]
000000 f5 d2 66 3e 8a b8 01 be 9a 9b a7 be 62 db a8 3d
       0.22541411 -0.12668052 -0.32735902 0.08244969
000010 b3 18 fa bd 81 a3 7d 3c ce 7f c2 bd 3a f4 55 3c
       -0.12211742 0.015480877 -0.09497033 0.013058716
000020 cf ec 2c 3c 71 4a c9 3e df 8f 7c 3d 00 89 df 3d
       0.010554506 0.39314607 0.061660644 0.109148026
000030 41 73 91 3c e8 dc be 3c 95 47 45 bc d7 85 b2 3e
       0.017755153 0.023298696 -0.012040992 0.34867737
000040 fc 39 fd 3e 86 19 7a 3e d5 c6 2a 3f 70 38 14 be
       0.494583 0.24423799 0.66709644 -0.14474654
000050 87 47 81 bf 71 14 99 3e 0b 7b b6 3d 81 b0 0c bf
       -1.0099953 0.29898408 0.08910187 -0.54956824
000060 6d 6e d6 3c 83 5a cf bc 1a fa 84 3d 46 67 d3 3b
       0.026175702 -0.025311714 0.064930156 0.00645152
000070 76 6e 7a bd 6d ab 1c 3e 79 07 05 3e bb 02 56 3e
       -0.0611405 0.15299769 0.12991132 0.20899479
000080 89 b4 5d be 6e d0 85 3d 76 44 18 be 5c 8a 40 3d
       -0.216509 0.065338954 -0.14869866 0.04700695
000090 b1 5d fa 3c 9a 79 48 3e cf a9 88 3d 15 44 e7 3d
       0.030562254 0.19577637 0.066730134 0.112922825
0000a0 87 d4 04 3d 2e c8 7f bd 95 5f 80 be 16 4e d9 be
       0.032429244 -0.062446766 -0.25072923 -0.42442387
0000b0 49 51 b8 bc 32 d0 94 be 9c 73 8a 3e 8b 24 bd be
       -0.022499697 -0.2906509 0.27041328 -0.36941943
0000c0 db a0 b0 3e ea d0 07 3e 7e 06 04 3f 62 cc c6 be
       0.34497723 0.13263288 0.51572406 -0.38827807
0000d0 99 04 c2 3c 60 1d b1 3c 29 44 69 3d 75 b4 76 3c
       0.023683833 0.021620452 0.05694977 0.015057673
0000e0 c7 a9 9a 3f 1e 65 d2 3f 78 63 98 3e c1 4d f9 bf
       1.2083062 1.6437109 0.2976339 -1.9476854
0000f0 0e 56 3e 3f a8 7c 01 3e 54 94 13 be 91 07 14 3d
       0.7435006 0.12645209 -0.14412051 0.03614003
000100 33 ba b0 bc 3e 4f c5 3b e8 e3 cd bb b0 39 49 3d
       -0.021573162 0.0060214093 -0.006283272 0.04912728
000110 a5 01 76 3c ac 6c 31 bb e8 54 00 be 85 66 17 3e
       0.0150150405 -0.002707283 -0.12532389 0.14785202
000120 91 b6 8b bd 27 6f 32 ba a9 c4 77 be ae d7 72 be
       -0.06821931 -0.0006806724 -0.24196114 -0.23715088
000130 d4 d8 6a be 1f 00 8e be a6 8d 3b be 1e 36 ec 38
       -0.22934276 -0.27734467 -0.18315753 0.00011263437
000140 e3 49 03 3d aa 2c d0 bd 2e df 6c bc 99 1a 0d bd
       0.032052886 -0.10164769 -0.014457507 -0.034449194
000150 3d 54 82 3e 86 f5 d3 bc 85 96 c9 3d e2 93 b9 be
       0.25454894 -0.02587391 0.098431624 -0.36245638
000160 36 06 b2 3d d0 cd ec ba 4b 74 c9 3c 60 01 23 3b
       0.08692591 -0.0018066708 0.024591586 0.0024872646
000170 1e 65 19 bc 35 11 b9 3d 78 b1 b0 3c c1 f9 29 bd
       -0.009362487 0.09036485 0.021568999 -0.04149795
000180 45 10 38 3c f6 f5 b0 3c 34 a7 aa bd 46 db 1d be
       0.011234348 0.021601658 -0.08332673 -0.15415677
000190 f7 86 9b 3d d6 52 8f 3e 55 38 d3 bd 25 cd 8b 3d
       0.07594102 0.27992886 -0.10313479 0.068262376
0001a0 87 03 45 3f 15 bf 1d 3e 40 56 f2 3e 5b 2c 1e bf
       0.7695851 0.15404923 0.4733143 -0.6178643
0001b0 d4 6d 54 3c 30 a1 f3 bb 96 70 de 3c be 0f 9a bc
       0.012965638 -0.0074349865 0.027153295 -0.018806335
0001c0 28 d8 ad 3d c7 57 e3 3f 77 45 bc be 80 58 52 3f
       0.08488494 1.7761163 -0.36771747 0.8216629
0001d0 ed 0c 89 3c 07 a4 84 3d 8c 8e 65 3d 2a 98 27 3c
       0.016729796 0.06476598 0.056044146 0.01022915
0001e0 73 33 d6 bc 32 a9 04 3e 2f ee fd 3c eb 20 0b be
       -0.02614758 0.12955168 0.030997364 -0.13586776
0001f0 42 d1 c3 bc 85 32 c6 3b 71 fd f4 be 54 c7 29 be
       -0.023903493 0.006048503 -0.4784961 -0.16579944
000200 48 ea 21 bd aa 38 43 bf a8 b5 cc bb ba ec 21 3f
       -0.03953007 -0.7625834 -0.006247241 0.6325184
000210 ba 62 21 3e 60 ee 47 be 35 e6 f1 3d 07 fc c8 3e
       0.15760317 -0.19524527 0.11811487 0.39254782
000220 7e c1 af bc f8 4a ec bb de e9 9b 3b b6 52 07 bd
       -0.021454569 -0.0072110854 0.0047581038 -0.033037864
000230 20 2e 3f 3e 70 5d 07 3f 6d 66 88 be 50 cf 19 bf
       0.18669939 0.5287695 -0.26640645 -0.6008196
000240 87 14 95 3d 8e 8f 6f 3c 0b 86 5d be 4f 48 83 3d
       0.07279306 0.014621628 -0.21633165 0.06410276
000250 3d 62 fc 3c 09 91 7d 3e 25 1c 49 3d 32 77 9e 3d
       0.030808562 0.24762358 0.049099106 0.077375785
000260 f4 ad 6c 3c 4d 4c 61 3d 51 ef 7f 3e 47 6e aa 3c
       0.0144457705 0.055004407 0.24993636 0.020804537
000270 4e a7 04 3e 43 c1 83 3d 4e 0b 79 be d8 19 ee bd
       0.12954447 0.06433346 -0.24320719 -0.11626023
000280 37 d8 e5 3c 98 28 f8 3e 7f 62 0e 3e e7 0b 3e 3e
       0.0280572 0.4846847 0.13904761 0.18559228
000290 52 c9 50 3c cb 8d cd bd 78 2c 69 3d 2a f3 7b 3c
       0.012743311 -0.100368105 0.056927174 0.015377799
0002a0 b4 81 a0 be f5 e6 49 3d 57 2b f1 be d1 ee 3f bf
       -0.31348956 0.049292523 -0.47103378 -0.7497378
0002b0 29 39 da 3e 89 42 fa bd d5 84 3d be 7d 51 92 bd
       0.42621735 -0.12219722 -0.18507703 -0.07144449
0002c0 00 ea a8 bd 1e 56 79 3e e3 58 71 3d c0 c8 49 3f
       -0.08247757 0.24349257 0.05892266 0.78821945
0002d0 1e 8b 83 3d b7 c3 85 3d 36 a5 e8 be ca 36 1c bf
       0.06423019 0.0653147 -0.45438546 -0.610211
0002e0 15 ef 2c bf 47 4d 81 be 1b 78 87 be c4 64 82 be
       -0.6755231 -0.2525427 -0.2645882 -0.25467503
0002f0 3e ad 91 bd 77 d3 6c 3e cb 09 bd bd 10 af 90 3e
       -0.071131214 0.23127542 -0.092303835 0.28258562
000300 48 94 99 bc 2c b3 2d bd d0 f2 a9 bc 15 44 06 3e
       -0.018747464 -0.0424072 -0.020745665 0.13111909
000310 eb 05 98 3e cb 47 e8 bf 9c f4 9f 3e 7a 02 d9 3f
       0.29692015 -1.814691 0.3124131 1.6953881
000320 cc 8c bf 3e 3a 64 d2 bc e0 66 92 bb 04 63 3b bc
       0.37412107 -0.025682557 -0.00446783 -0.011437181
000330 a0 dc dc bb fd 40 34 3e 37 1a 5a bd d7 3f 52 3e
       -0.0067401677 0.17602916 -0.053247657 0.20532165
000340 76 c0 0b bd ac 1f 17 bd 12 46 e4 3d d0 ec 8c bc
       -0.034119092 -0.03689544 0.11146177 -0.017202765
000350 67 66 11 be e9 9e 31 bf 62 62 f7 be 60 22 e0 3e
       -0.1419922 -0.693831 -0.48317248 0.43776226
000360 06 1d 9c be 9d bc 9a be af 62 a6 3c 77 76 6f 3e
       -0.30490893 -0.30222026 0.020310728 0.23385035
000370 c0 35 d2 3c 15 78 f5 3a e3 b2 55 3c 73 96 91 3c
       0.025660396 0.0018727804 0.013043138 0.017771935
000380 0c ed f3 bd 74 59 43 3f c8 91 6f 3f 06 7c 4f bf
       -0.119104475 0.7630837 0.9358182 -0.8104862
000390 80 e7 6e bd 87 89 81 3c a0 58 e7 be 65 c5 aa 3c
       -0.058326244 0.015812648 -0.45184803 0.020846078
0003a0 19 1a ff 3c 96 91 09 bd 3f d8 f7 3b 17 f4 b1 bd
       0.031140374 -0.033586107 0.0075636203 -0.086891346
0003b0 53 9c 36 3b 7e 8e 2d bd 70 37 c1 be 28 f3 54 bd
       0.0027864173 -0.04237222 -0.37737608 -0.051989704
0003c0 b7 08 e4 be 54 3e 9f 36 9f 6f be 3e de 45 81 bd
       -0.445379 4.745825e-06 0.37194535 -0.06312154
0003d0 94 59 a4 be 2b aa d9 be 6a f2 c9 3c f6 7d 28 3e
       -0.32099593 -0.4251264 0.024651725 0.164543
0003e0 be 6e f8 bc 99 03 65 bd 0b cd bd bc 49 7c 20 3c
       -0.030326243 -0.055911634 -0.023169061 0.009795257
0003f0 c0 03 46 3e 27 03 a6 bf 6f 64 5b be 99 17 93 bd
       0.19337368 -1.2969712 -0.21425031 -0.07182235

l1.bias f4 [256]
000000 41 36 43 3e 36 5d df 3c 0f e8 1a 3e 05 de 38 bf
       0.19063665 0.027266126 0.15127586 -0.72213775
000010 bc 39 18 bd e3 93 c3 be e1 b5 c0 3e 03 2b b8 3e
       -0.037164435 -0.38198766 0.37638763 0.35970315
000020 2c 0b cf 3d 5d c8 34 bd 98 44 ca 3e 6a 4f 10 bd
       0.10109553 -0.044136394 0.39505458 -0.035231985
000030 0b d5 0e 3f 0e bb ce 3e 7e f4 16 3e b0 8e 51 bd
       0.5579383 0.40377086 0.14741704 -0.051161468
000040 fe ef eb 3e 54 88 a4 3e 8f 1f 2b 3f ff 6d c2 be
       0.46081537 0.3213526 0.6684503 -0.37974545
000050 e6 85 1e 3f 9d c7 0c bf 70 a9 7a bd 4c ba 1d 3e
       0.6192306 -0.54992086 -0.061196744 0.15403098
000060 20 88 b6 3d 98 d7 a8 bd 48 96 ea 3d 1d 09 dd bd
       0.089126825 -0.08244246 0.11454445 -0.10792754
000070 af a0 9c 3e 78 17 83 3e 55 4b a2 be 5e 61 e6 3e
       0.30591342 0.25603843 -0.316981 0.4499616
000080 24 d1 92 be bb ee 20 bd f2 92 57 bd 5c 6d 13 bd
       -0.28675187 -0.03929017 -0.052630372 -0.035992965
000090 8c 19 12 3e 85 a4 23 3f b7 96 15 3f 24 e2 d7 3d
       0.14267558 0.6392291 0.584331 0.1054118
0000a0 0c 60 ba be 4c 8a 12 be a3 03 03 be f1 4a 03 bf
       -0.36401403 -0.14310569 -0.12794356 -0.51286227
0000b0 08 cc 60 be 94 22 39 be 55 3b 53 3f 8a 6c b1 bb
       -0.21952832 -0.18079597 0.8251241 -0.00541455
0000c0 23 12 43 3e ab 6d c0 3e e1 aa 33 3f 04 fa bc 3e
       0.19049887 0.3758367 0.70182616 0.36909497
0000d0 c3 3d c6 be f5 f7 43 3e 0c d5 12 bf 26 74 bb 3e
       -0.38718995 0.19137557 -0.57356334 0.36612052
0000e0 a1 dd d5 3e 69 17 95 be 26 64 26 be 9f c1 ec bd
       0.41770652 -0.29119423 -0.16249141 -0.11560368
0000f0 d4 92 84 be d6 e7 fc be 02 10 af 3c 22 8c 5e bd
       -0.2589327 -0.49395627 0.021369938 -0.05433286
000100 68 cf 92 be 66 25 f3 be ac d0 91 3d 6a 57 9d be
       -0.28673863 -0.4748947 0.07119879 -0.30730754
000110 1b 0a 27 bd 5d fe 9b 3e e6 0a fe be 4c 54 93 be
       -0.04078112 0.304675 -0.4961769 -0.2877525
000120 bf 8d 91 3e 7a cb ad be 32 64 9f bc 23 44 45 bd
       0.28428456 -0.33944303 -0.019456957 -0.048160683
000130 54 21 1c 3f dc 98 39 3f bb 3e f8 3e a7 a5 a8 3e
       0.60988355 0.7249887 0.4848536 0.32938883
000140 20 61 a0 be f0 a0 5b be 82 88 a5 be a2 bd e2 3e
       -0.313241 -0.21448112 -0.3233071 0.44285303
000150 f7 34 03 bf c7 ea b5 3d 55 a0 a6 bd c0 cc 17 be
       -0.5125269 0.08882671 -0.0813605 -0.148242
000160 8f 5a da bd 44 a8 30 3f e3 47 ae 3e a6 b0 0a be
       -0.10661804 0.6900675 0.3403922 -0.13543949
000170 9c 77 1e 3e ab eb c5 bd 0c ea f8 be f8 97 22 3e
       0.15475315 -0.09664091 -0.48616064 0.15878284
000180 5d 1f bb be fd 85 46 3e 2d a8 13 be 63 e5 85 be
       -0.36547366 0.1938705 -0.14419623 -0.2615157
000190 73 49 53 3d e6 d4 6d be 3a 0d 64 be 72 28 86 3e
       0.05158372 -0.23225746 -0.2227067 0.26202732
0001a0 12 ba ab bd 11 44 70 3e 90 fc af be 19 a6 11 be
       -0.083850995 0.23463465 -0.34372377 -0.14223517
0001b0 19 bf 35 3f 82 7d 8c be a8 7d 75 be 63 05 39 be
       0.70994717 -0.27439505 -0.23973715 -0.18068461
0001c0 fd 0a 56 be 2d 5b db bc db 19 5b be c8 8c fa 3e
       -0.20902629 -0.026776874 -0.21396582 0.48935533
0001d0 c4 2d 9d be 3e 76 e4 3e 23 f9 ac 3d 19 d2 1e bd
       -0.3069898 0.44621462 0.084459566 -0.038774583
0001e0 f8 bc 13 be 81 02 1b 3f 9a 1f b8 3e 7d 23 b6 be
       -0.14427555 0.60550696 0.3596161 -0.3557395
0001f0 2d 32 fa 3e 7b 7a 96 be fe cd 3f bf 12 a9 46 be
       0.48866406 -0.2939032 -0.74923694 -0.19400433
000200 cb 13 c4 3e 9b 01 09 3f 8e 4e b6 be ce c3 82 3e
       0.3829635 0.53518075 -0.35606807 0.25540012
000210 49 82 fc 3e 9f 5c 4c 3e 0e fa 62 3e ea 05 18 be
       0.4931815 0.19957207 0.22165701 -0.14846006
000220 d2 a3 e5 be 3e a6 c6 be 2c 41 1d 3e 75 45 06 3f
       -0.44851547 -0.38798708 0.15356892 0.52449733
000230 9d 53 a2 3d f2 0d 1d bf 8d 14 da 3c 94 6b 57 be
       0.07926104 -0.61349404 0.026621128 -0.21037132
000240 a1 db 82 3d 74 86 45 bb 19 46 13 bf 38 4b ca 3e
       0.06389547 -0.0030139955 -0.57528836 0.39510512
000250 c8 57 c4 3e 66 5d 44 be a0 dc 23 bd 1b b3 c0 bd
       0.38348222 -0.19176254 -0.040005326 -0.09409162
000260 b0 c5 34 3e 3b a6 0a 3f 19 eb 63 be f0 57 23 bb
       0.17653537 0.541599 -0.22257651 -0.002492424
000270 c0 45 be 3d d6 02 18 bf 16 8c 4c bf 0c b2 be 3e
       0.092906475 -0.5937933 -0.79901254 0.37245214
000280 e9 4e 33 be 4f 09 23 3f f0 b0 9c be 83 8a 00 3f
       -0.1751057 0.6368608 -0.30603743 0.5021135
000290 e5 2b 0f 3d df 68 bb 3e ee 35 e7 3e 8b 46 d5 3e
       0.03495397 0.36603448 0.45158333 0.41655383
0002a0 15 2f df 3e 64 87 19 be c1 9c 12 be 7f e0 37 3d
       0.43590608 -0.14993054 -0.1431761 0.04489183
0002b0 7b 5b ec 3c a0 54 00 bf a8 eb d6 be 5a f5 3f 3e
       0.028852215 -0.5012913 -0.41976666 0.18745938
0002c0 12 e3 c5 be d3 cc 7c 3e 00 30 b5 be 52 9f 51 bc
       -0.38649803 0.24687509 -0.35388184 -0.012794333
0002d0 ba 45 14 bf e7 8a b7 be 8c 74 2b 3f 56 e5 b2 be
       -0.57918894 -0.35848162 0.6697471 -0.34940594
0002e0 48 0b 81 3e 12 e3 2c be e0 3c e1 3d da 90 38 3d
       0.2520392 -0.16883495 0.10997939 0.045060016
0002f0 de f6 cd be d6 f2 d4 3e 3a bd ec be 51 3a 4a 3e
       -0.40227407 0.4159152 -0.46238118 0.19748808
000300 4d 0d db 3d 17 e3 40 3d b1 2e e3 be 81 70 0b 3f
       0.10695896 0.04709157 -0.4437156 0.5446854
000310 31 20 e2 be 51 7c 79 be 4f e5 b4 3e bb 49 46 be
       -0.44165185 -0.24363829 0.353312 -0.19364063
000320 67 5e 60 be 17 74 ac 3c e2 85 58 3e 86 77 61 3e
       -0.21911012 0.02105145 0.21144822 0.22018251
000330 84 80 83 3e 18 dd 7c 3e 21 51 e9 be 3b d0 b1 be
       0.25683987 0.24693716 -0.4556971 -0.3472918
000340 09 32 f5 3e 2e 94 fd 3c a2 b9 98 bb 3d 54 b4 3e
       0.47889736 0.030954447 -0.004660801 0.3522052
000350 1b 77 c4 be b1 db bd 3d a8 d7 76 3e c2 17 48 be
       -0.3837212 0.092704184 0.24105704 -0.19540313
000360 d4 ac 30 be 0b 18 0d 3f c7 a8 dc be d9 06 f1 3e
       -0.17253429 0.5511481 -0.43097517 0.47075537
000370 2b 75 eb bd 3f 44 4a bd e2 45 9b be 5d 15 8d 3e
       -0.114969574 -0.04938149 -0.30326754 0.2755536
000380 01 8b bd 3d 92 46 12 bf 68 e0 e3 bd 9a e5 0a be
       0.092550285 -0.5713893 -0.111267865 -0.13564149
000390 f0 03 d1 3d ea b7 b5 3e 9b 8e 3e 3e 84 a3 05 be
       0.10205829 0.35491878 0.18609087 -0.13050658
0003a0 11 79 67 3e e0 21 83 bd 7e 44 b7 3e 6d c5 ef 3e
       0.22604777 -0.064029455 0.35794443 0.4683031
0003b0 54 30 e8 3e 25 59 1c 3f e4 ea 19 3e d4 31 30 be
       0.4534937 0.61073524 0.1503101 -0.17206508
0003c0 90 79 2a 3e 28 3a da bd 02 c7 2b 3e f9 da 2b 3e
       0.16647935 -0.10655624 0.16775134 0.1678275
0003d0 68 5e b4 3e 0f 1f d2 bd 35 d4 2e 3f 02 c4 47 3b
       0.35228276 -0.1025983 0.6829255 0.003048182
0003e0 79 ea 71 be 87 af 97 3e b7 eb d5 be da d9 d4 bd
       -0.236246 0.29626104 -0.417814 -0.103931144
0003f0 80 ab 1c 3e c4 16 1a be 4c 5b 1d bc b4 0b 95 be
       0.15299797 -0.15047747 -0.009604286 -0.2911049

l2.weight f4 [256, 256]
000000 53 c9 2f bf 95 16 6a bd 22 b9 9d be f9 6e d3 be
       -0.6866657 -0.057150442 -0.30805308 -0.41295603
000010 f8 da cd be f1 6c e7 bc 79 da 25 3f 20 9f fc 3d
       -0.40206122 -0.02825019 0.6478649 0.12335038
000020 63 d8 62 3e dd c4 f1 3e 80 49 1c 3f 08 0a 8c 3e
       0.22152857 0.47220507 0.6104965 0.27351403
000030 c4 b1 00 3f ea 75 af 3d 43 7f 15 3e 4c 03 09 3f
       0.5027125 0.08567412 0.14599328 0.53520656
000040 52 74 4e 3c 3e ae fc 3e 4d 0f 71 3e aa d2 13 be
       0.012600975 0.49351686 0.23540993 -0.1443583
000050 e2 6e 1b 3e 30 4b c9 be e3 e9 b0 3d 52 41 bc bd
       0.15179017 -0.39315176 0.0863836 -0.09192146
000060 06 ca a6 bf 73 9a be bd 5c 04 05 bd 25 e8 09 be
       -1.3030403 -0.093068026 -0.03247486 -0.13467462
000070 ca c9 69 3e a8 a3 22 be 59 44 09 bf 2c 12 6e 3e
       0.22830883 -0.15882742 -0.53619915 0.2324912
000080 f5 6e 8c be 3b 76 b0 3e 9b 74 84 3e 6a d4 e9 be
       -0.27428403 0.34465203 0.25870213 -0.45669872
000090 29 b5 d6 3e aa a0 ec 3d 58 47 a8 bd 30 bf 99 3e
       0.4193509 0.11554082 -0.08216733 0.30028677
0000a0 8f 5e b9 be 22 9a cc bd cb 0a 06 bf ef e6 86 3e
       -0.36204955 -0.09990336 -0.5236022 0.26348063
0000b0 8e 6f 29 3e 1f 15 7a be 43 ca c4 3d fb 9b c4 bb
       0.16546461 -0.2442212 0.09608891 -0.0060000396
0000c0 e8 ff aa 3e df 39 30 3e cc 18 9e 3e bb 06 dc 3d
       0.33398366 0.17209576 0.30878294 0.10743471
0000d0 b6 7e 39 3e 66 80 3c 3f ad 40 e3 be eb f2 db 3e
       0.18114743 0.7363342 -0.4438528 0.4295877
0000e0 88 e8 7f 3e 09 eb 2f be 40 ba 19 ba b2 57 b2 be
       0.24991047 -0.17179503 -0.000586424 -0.3483253
0000f0 6c f5 3c be 35 65 8a be 2c 0d 99 be 07 e1 39 be
       -0.18452996 -0.2703034 -0.29892862 -0.18152247
000100 e1 b5 55 3d ca 7a 74 3d f5 43 81 bf 0e 35 8c 3e
       0.052175406 0.059687413 -1.0098864 0.27384228
000110 77 e9 10 3f d8 c8 86 3e ff d5 e3 bd a9 99 4a 3f
       0.5660624 0.26325107 -0.11124801 0.79140717
000120 1f ad 92 3d b1 e2 40 3e ad 9e 2b bf 7d 3e 28 be
       0.071619265 0.18836476 -0.67038995 -0.16430087
000130 f7 c5 82 3e c6 b1 15 3e 8c 8e 47 3c ac f0 35 3e
       0.2554166 0.14618596 0.012179982 0.1776759
000140 ae f0 fe bd 15 41 94 be 30 73 87 bd 19 10 94 3e
       -0.1244825 -0.28955904 -0.06613767 0.28918532
000150 50 b9 78 be 67 b8 9d bd 5e a8 24 bc 66 bf 87 be
       -0.24289441 -0.077011876 -0.0100499075 -0.26513213
000160 49 48 cd 3c b1 ef d3 3e 4b 4f 59 be bc 44 2a 3e
       0.025058882 0.41393808 -0.21221654 0.16627783
000170 65 64 bd 3e c9 59 74 bd 39 a4 86 b8 c9 0a a5 be
       0.36990657 -0.05965594 -6.420207e-05 -0.3223479
000180 0b 01 5e be a7 ef aa 3d 71 d7 9b 3c 4f 9c 55 be
       -0.21680085 0.08346491 0.019023629 -0.20860408
000190 07 c8 a0 3e 45 18 47 be d0 cd de bd 78 37 c9 3c
       0.3140261 -0.19442852 -0.10879099 0.024562582
0001a0 5e 9c fa bd 78 ec e1 bc 9e 3a a4 3e b2 2e 30 3e
       -0.12236856 -0.027578577 0.3207597 0.17205313
0001b0 cd ad 23 3f 04 89 85 3c 8d 8f 52 be 4a e9 2a 3e
       0.63937074 0.016300686 -0.20562573 0.16690555
0001c0 59 e0 88 3e d7 d0 13 bd ac 18 38 3e c6 0a 37 bf
       0.26733664 -0.036087837 0.17978162 -0.71500814
0001d0 2c 97 bc 3e f7 6a 7a 3c 05 1b dd 3e 3c 3c 4c bd
       0.36834085 0.0152842915 0.43184677 -0.04986213
0001e0 99 33 d5 3c 68 6d 71 3e 09 77 9d be 27 35 32 be
       0.02602558 0.23576891 -0.3075488 -0.17403089
0001f0 dc 4e d1 bc d2 85 cf bd cd c7 1e be ce c0 15 c0
       -0.025550298 -0.10132946 -0.15505905 -2.3398929
000200 26 6a 8a 3e 7e 0c 2c 3f 15 fb 99 bf eb c0 f6 bd
       0.2703411 0.6720656 -1.2029749 -0.12048515
000210 85 8f 4a 3f ab 20 2d 3f 85 24 2a 3f 8c 54 82 3e
       0.79125243 0.6762797 0.66461974 0.2545513
000220 a1 4a 95 3d cb 1e 4b 3d 3a db bd be ff 6b 43 bf
       0.07289625 0.049589913 -0.3708132 -0.76336664
000230 ac fb 95 3e fe da 3d 3d e3 90 c7 3e fc 62 00 3e
       0.29293573 0.046351425 0.38977727 0.1253776
000240 de 78 4e bf 31 fa 28 bd 9a f7 c5 3d dd d6 62 3e
       -0.8065318 -0.041254226 0.09666367 0.22152276
000250 e2 95 58 3e 94 3b 1b bc f3 2d a7 be fa 5c b5 3d
       0.21150926 -0.009474654 -0.32652244 0.088556245
000260 20 3a 43 3f 0d f6 b9 3d 62 6c 78 be 8c 0e ec 3d
       0.76260567 0.090801336 -0.24260095 0.11526212
000270 ae 54 30 be 69 9d 9e be 89 f8 d6 bd 8f be b7 3d
       -0.17219803 -0.3097947 -0.10496623 0.08971893
000280 c7 69 59 be a3 da 51 be 42 34 0c be 67 22 d9 be
       -0.21231757 -0.2049356 -0.1369181 -0.4240906
000290 ff 27 47 be 06 a8 1a 3f c1 6d b2 3d 8a 31 86 3e
       -0.19448851 0.60412633 0.0871234 0.2620967
0002a0 c1 33 da 3d ce 5f 15 3e 6d 4a 55 3e 29 61 8a be
       0.106544025 0.14587328 0.20829172 -0.27027252
0002b0 20 d1 da be 15 ea 80 be 3f 75 89 be 9d 3c 6e be
       -0.42737675 -0.2517859 -0.26847264 -0.2326531
0002c0 90 79 89 be a8 4e 69 3e 3e 54 a5 3c 77 68 37 bd
       -0.26850557 0.22783911 0.020181771 -0.04477736
0002d0 79 79 02 bf 46 f6 8e be 7c 44 84 3c c6 f8 79 3d
       -0.509666 -0.27922267 0.016145937 0.061028264
0002e0 d8 61 f2 bd f1 b1 1b bf 0e 88 1e 3e 64 5a 64 be
       -0.118350685 -0.6081839 0.15481588 -0.22300106
0002f0 de c3 e8 3d 99 80 a1 be 51 64 34 be 50 b1 24 3e
       0.11365484 -0.31543425 -0.17616393 0.16083264
000300 17 04 a0 be 70 34 98 3e cf 8f 42 bf b9 32 11 3b
       -0.3125312 0.29727507 -0.76000684 0.0022155477
000310 c2 03 03 3f 54 6a dd bc de 41 ca bd a4 70 5c 3d
       0.5117761 -0.02702824 -0.098758444 0.05381836
000320 9e 7e e1 bb 6f c1 88 be 4e 34 d5 3c 63 5c f4 3d
       -0.006881549 -0.26710078 0.026025917 0.11931684
000330 c0 f3 e3 3e f4 f5 86 3d 76 6c 4c 3f ba 06 92 bd
       0.44521904 0.065898806 0.79853 -0.07130189
000340 74 73 a2 3e c2 09 23 3d ce d7 44 be 58 5a b3 3e
       0.3172871 0.039804228 -0.19222948 0.35029864
000350 e5 7b 03 be c9 e9 1a be 16 fb c2 3e 50 42 e4 3c
       -0.12840231 -0.15128244 0.38082188 0.027863652
000360 42 99 7f be 94 c9 57 be ce 10 1e bd 6d 9d 0b 3d
       -0.24960807 -0.2107299 -0.038590245 0.03408568
000370 2c c5 31 3e 8b 3c 37 be 46 4b 93 be 9f 01 00 bf
       0.17360371 -0.17894189 -0.28768367 -0.50002474
000380 ae 55 f7 be e9 be c1 3d b3 b2 05 be e1 3f ec 3e
       -0.48307556 0.09460241 -0.1305645 0.46142486
000390 63 e8 b2 3e 5e 4a 97 3e 24 82 05 be ca 4b b1 bf
       0.34942922 0.29548925 -0.13037926 -1.3851254
0003a0 85 43 d6 3e 9b aa 0e c0 d8 c3 31 3d 67 96 d4 3f
       0.41848388 -2.229163 0.04339966 1.6608399
0003b0 6a 66 c6 be 59 13 48 3f b0 b1 cd be 40 42 16 3e
       -0.3875001 0.7815452 -0.40174627 0.1467371
0003c0 bd 90 30 3f 82 e2 11 be 83 32 0d 3e cf 58 26 3e
       0.68970853 -0.14246562 0.137888 0.16244815
0003d0 d6 3a 6e 3e df 7d 8b be 64 b1 c5 3e 9a 09 04 3d
       0.23264632 -0.2724447 0.386119 0.03223572
0003e0 b9 05 58 3e 94 3d e1 3e 62 58 66 bf e2 f7 8f bd
       0.21095933 0.43992293 -0.8997861 -0.07029702
0003f0 4f 5d cf bd de b1 f1 bc 6a b1 be 3e 1f 5e fb be
       -0.10125219 -0.029503759 0.3724473 -0.49095246

l2.bias f4 [256]
000000 e6 d6 9a 3d 95 a8 13 3d 3c 12 c3 3b d9 04 f3 ba
       0.0756052 0.036049444 0.0059531014 -0.0018540873
000010 2a 6f 95 bc 03 8f a5 bd 70 82 72 3d 30 01 49 be
       -0.018241484 -0.08083918 0.059206426 -0.19629359
000020 1e 79 ec 3d d8 1e bc 3d 4c 6e 0a 3e 28 f6 1a 3e
       0.11546539 0.091855705 0.13518637 0.15132964
000030 02 8d 6b 3c a6 e4 ae bd d7 96 3c 3e 2e 4a e9 be
       0.014376881 -0.08539705 0.18416916 -0.45564407
000040 58 a9 9e be 0e 6a 02 be d3 fb 36 3e 38 a5 88 bd
       -0.30988574 -0.12735769 0.17869501 -0.06672138
000050 f8 1c ac bc e7 ed c3 3d c4 38 91 be 43 80 ed bc
       -0.021009907 0.09566861 -0.2836362 -0.028991824
000060 52 a8 df bd 64 e1 6f 3e 30 03 87 bd 32 ca 77 be
       -0.109207764 0.23425823 -0.06592405 -0.24198225
000070 13 ff 1f bd a5 ba 38 bd 7f 0a b7 bd a5 0a c9 bd
       -0.039061617 -0.045099873 -0.08937549 -0.098164834
000080 8a 16 4f 3d 8a 50 ac bc f3 e2 60 bd 45 15 9e bd
       0.050558604 -0.021034498 -0.054903936 -0.077189006
000090 70 22 88 3e a9 0a 15 3e f3 87 01 3e 3a d0 9a bd
       0.26588774 0.14554848 0.12649517 -0.07559247
0000a0 34 1e d2 bb a8 37 cd bc 9e ac 06 be dc a1 47 3d
       -0.006412292 -0.025050953 -0.13151786 0.048738346
0000b0 16 10 32 be 5f 9f a8 3c 8e 29 c6 3d 6d 46 fb 3d
       -0.17388949 0.020583807 0.09675895 0.12269292
0000c0 4f 3d 83 be 46 71 47 bd 11 91 d8 3d b4 ec db 3d
       -0.25632712 -0.04869201 0.10574544 0.10738507
0000d0 6e 7a c1 bd c8 d9 14 be f0 ed 86 bc da dc 77 bd
       -0.0944718 -0.14536202 -0.01647088 -0.060513355
0000e0 e3 bf d5 3e 45 d1 55 3c 70 4a 01 be a5 6c ec bd
       0.4174796 0.013050382 -0.12626052 -0.1154416
0000f0 88 25 87 bc 45 c9 01 be 4d 9d 03 be 98 c1 a1 bd
       -0.016497388 -0.12674434 -0.12852974 -0.07898253
000100 b1 24 15 3e 17 da 04 bd d1 9a d6 be 18 04 27 3e
       0.14564778 -0.03243455 -0.4191499 0.16310155
000110 52 f8 cb 3c 19 10 63 be 22 71 95 3e 4a 1b f9 3d
       0.024898682 -0.2217411 0.29187876 0.12163408
000120 4e 5d 3c be eb 0f 94 3d f6 f1 14 3e a9 92 f2 3d
       -0.18394968 0.072295986 0.14545426 0.118443795
000130 bd c5 18 bd 97 14 6b 3e 22 60 45 3d 6c c9 96 bd
       -0.037297953 0.22957073 0.048187383 -0.07362637
000140 c4 4c 31 be bc c6 30 3c 53 6d ac 3d ed 3a fb 3d
       -0.1731444 0.0107895695 0.084192894 0.122670986
000150 d8 fe 8b bd fe ce 89 3c ed a4 bc be 0d 2f 60 bd
       -0.06835717 0.016822334 -0.36844578 -0.05473237
000160 7d 8c 9f bd af fc 1a 3d e9 05 00 be ba 70 df bd
       -0.07790468 0.037838634 -0.12502255 -0.10910173
000170 ee b7 99 3d 2a d9 29 bd 79 58 e7 3d d9 c8 da 3d
       0.07505785 -0.04146687 0.11296172 0.1068284
000180 cd 57 30 3c 26 67 97 3d 39 df 00 3e 78 a7 0d 3e
       0.010763121 0.07392721 0.12585153 0.13833416
000190 7b 6f 3b bd 1a e4 07 bd ad 4e 59 3e 35 5e 3a be
       -0.045760613 -0.03317652 0.21221419 -0.182
0001a0 8c a7 80 bc dc a9 49 bd 89 72 33 3e fd d9 8d bc
       -0.015704893 -0.049234256 0.1752416 -0.017315859
0001b0 f1 fa 13 bc a3 03 8c be b1 58 0a bd c9 40 fa 3b
       -0.009031997 -0.27346525 -0.03377599 0.0076371175
0001c0 e9 00 14 3d ec 57 16 bd 65 49 ce 3d 71 b9 c2 3c
       0.03613368 -0.036704943 0.10072593 0.023770066
0001d0 87 d5 21 bd ef c6 c5 bd fb 03 8e be eb ef cd 3d
       -0.039510276 -0.09657084 -0.27737412 0.10055526
0001e0 99 ba 7d bd 25 37 b0 be 7b e1 22 be 47 09 c3 bd
       -0.06194553 -0.34417072 -0.15906326 -0.09523254
0001f0 ed 92 23 3c 7a b8 80 bd e0 2f 2a bd c1 9d 47 be
       0.00998376 -0.06285186 -0.041549563 -0.19493772
000200 2f 01 b2 3d a2 11 40 3c 7a ed 23 be ae 08 c9 bc
       0.08691632 0.011722954 -0.16008559 -0.024540272
000210 44 9e ac bc d1 08 ef bd 8f ea ce bd c3 8a 01 bd
       -0.02107156 -0.116716035 -0.10103332 -0.031626474
000220 ea aa ed bd a2 d7 41 bd d1 ff 10 3e b5 dc d2 ba
       -0.11604865 -0.047324784 0.14160086 -0.0016087504
000230 9e f2 6a 3c c7 63 b3 be 69 b4 bd bd 1b 7c 4b 3e
       0.014340071 -0.35037062 -0.09262926 0.19871561
000240 fe 50 bf 3d 7b 8e 2f bd f7 fb f2 bc d1 a8 c2 3d
       0.0934162 -0.04286049 -0.029661162 0.095048554
000250 74 f9 45 3d cb f8 a1 3d 9d 4d c7 3d b0 8a 2c 3d
       0.0483336 0.079087816 0.097316004 0.04212445
000260 a8 60 f3 bd 6e 90 54 be b9 db 49 3e ed dc 83 3d
       -0.1188367 -0.2075822 0.19712724 0.064386226
000270 db f9 08 be f8 4e ed bc 80 5a 37 3e e8 b7 91 bc
       -0.13376562 -0.02896832 0.17905617 -0.017787889
000280 49 71 43 bc 1f eb 32 be 24 57 cf bb 90 a1 26 3d
       -0.011928865 -0.17472504 -0.0063275266 0.04068142
000290 26 5e 92 3d 01 ac f2 bc 62 d5 93 3d 29 5a b1 3c
       0.07146864 -0.029623033 0.07218434 0.021649437
0002a0 82 df 16 bc ec 9a 6b bd 14 a2 62 3d 0a 12 96 3c
       -0.009208562 -0.057520792 0.05533035 0.018319149
0002b0 3b c9 52 3c 1f de 0f 3e 37 e3 8b 3e cd 5e 1d be
       0.01286536 0.14049576 0.2732179 -0.15368195
0002c0 16 9f 02 be 67 e4 f5 bd 6e 7b b9 bd bb 03 29 3e
       -0.12755999 -0.12006455 -0.090567455 0.1650533
0002d0 8b f4 93 be 23 3d 1b 3c 77 f5 ca bd cc af 1d 3e
       -0.2889751 0.009475025 -0.099101 0.15399092
0002e0 4c 19 4c 3d 4b 60 86 3e b8 15 96 3b 2c 16 13 3d
       0.049828812 0.2624534 0.004580226 0.035909817
0002f0 59 46 ce be d2 74 f1 bc 44 da f4 3c 87 e6 3b bd
       -0.40288046 -0.02947465 0.029889233 -0.045874145
000300 3f c1 17 3d e5 75 1e 3e bd aa f5 ba 92 d1 91 bd
       0.03704953 0.1547466 -0.00187429 -0.071200505
000310 17 8f 00 bf ba b9 b1 3e 33 fb 18 3d ee bd 16 3d
       -0.5021834 0.3471201 0.037348937 0.036802225
000320 30 c8 db bd 93 cf 4c bd 20 72 bb ba bd 78 27 bc
       -0.10731542 -0.050002646 -0.001430098 -0.010221657
000330 3c 34 66 3e 27 29 c2 3d 5b 62 22 be 4e 5a f2 3c
       0.22480863 0.094805054 -0.15857832 0.029584076
000340 ec 13 20 3d dc 6e 9d 3c b7 9a c1 be 36 6e a0 3b
       0.0390815 0.019217901 -0.3781335 0.0048959507
000350 78 79 8e bc 16 39 8b be fe cb 00 3d 58 15 cd be
       -0.017391905 -0.2719199 0.031444542 -0.40055346
000360 a8 3e c2 3d e6 bf 99 bd d9 da f7 3d 50 8d 4e be
       0.09484607 -0.07507305 0.12102289 -0.20171094
000370 ed 4c f3 bc a1 a2 3d bd de 17 26 bd f7 ca 0d be
       -0.029699767 -0.046297673 -0.040550105 -0.13846956
000380 f4 c7 4b 3d da ac 6c 3d e5 3c e9 bd d6 99 fb bd
       0.049751237 0.05778203 -0.11388568 -0.12285201
000390 58 98 2f 3e dc 11 0a 3e 38 85 a7 3d 7d b1 19 3d
       0.17147958 0.13483375 0.08179706 0.03752278
0003a0 3b 13 e7 be d7 f7 5c bd 0a 19 f8 bd be 3a ab 3d
       -0.4513186 -0.053947296 -0.12114151 0.083608136
0003b0 8c 51 92 bd b7 cc 80 3d 36 eb e6 3d 55 5f f6 bd
       -0.0714446 0.06289046 0.11275332 -0.12029902
0003c0 74 94 38 be fc ef d3 3c 87 aa a8 bc 44 dd 27 be
       -0.1802538 0.02587127 -0.020589126 -0.16393
0003d0 ad 92 e5 3c 21 1b 80 3a c2 39 09 3e cf 6a 94 be
       0.028024042 0.000977371 0.13400939 -0.28987738
0003e0 04 e2 36 3c 08 38 c8 3e c4 a1 09 bd ce f7 d8 bc
       0.011162285 0.39105248 -0.033601537 -0.02648535
0003f0 86 8c 81 bd 4d 3d 8a 3d ad f5 59 be fe ab 8f be
       -0.06325631 0.067499734 -0.21285124 -0.28060907

l3.weight f4 [1, 256]
000000 c2 ca 04 c0 18 89 45 bf 54 fc f6 3e 1c 1a 63 3f
       -2.0748754 -0.77162313 0.48239386 0.88711715
000010 39 e6 b1 3e 92 fc 3f 3f 00 50 7e 3e c4 02 e9 bf
       0.34745958 0.74994767 0.24835205 -1.8203969
000020 34 65 36 c0 ab e9 52 bf 44 af 68 3f 2b f8 48 bf
       -2.849927 -0.823878 0.90892434 -0.78503674
000030 d8 96 80 c0 de fe df bf bb 02 72 be 78 4d 4e 40
       -4.0184135 -1.7499654 -0.23633854 3.2234783
000040 ba 1b 0b c0 51 26 ee 3e 51 fc 49 bf 21 c1 f1 3e
       -2.1735673 0.46513608 -0.7890063 0.47217658
000050 00 06 86 3f a9 dd e1 be a8 c2 ba bf f7 2f d5 3b
       1.0470581 -0.44114426 -1.4590654 0.006505962
000060 44 f6 cf bf 84 9f 87 bf 65 7f 39 3f 37 c8 e2 bf
       -1.6247029 -1.0595555 0.72460014 -1.7717351
000070 6b 0b b9 bf 59 87 77 bf c1 59 1a 3f 10 3a 79 c0
       -1.445661 -0.966909 0.60293204 -3.8941689
000080 a0 68 45 3f 75 88 89 3f 38 7f 71 3f f0 33 2f 3f
       0.7711277 1.0744768 0.94334745 0.68438625
000090 63 95 1a 40 4b ef f3 bf 01 99 8b 3f 64 72 46 3e
       2.4153678 -1.9057401 1.0906068 0.19379574
0000a0 a5 0c 22 3f de 70 cd 3f 94 b4 a6 bf 98 34 28 bf
       0.63300544 1.6050069 -1.3023858 -0.6570525
0000b0 ef d9 5d 3f cf ce da bf 72 5c a2 bf 82 df a5 bf
       0.86660665 -1.7094363 -1.2684462 -1.2958834
0000c0 30 8d a2 bf 15 9b 1b 3f 31 6a 9a bf 3c 03 d0 be
       -1.2699337 0.6078351 -1.2063657 -0.40627468
0000d0 fa 5c 56 c0 68 04 d3 3f db 88 d4 3e 11 61 7a 3e
       -3.3494248 1.648572 0.41510662 0.2445109
0000e0 e8 97 07 40 8d 07 8e bf c2 b5 07 3f fe 72 0d c0
       2.1186466 -1.1096054 0.53011715 -2.2101436
0000f0 d1 77 5e 3f 94 8f d8 3f 2a 0f 42 3f 6b 70 4a 3f
       0.86901575 1.6918817 0.7580439 0.79077786
000100 80 7a 16 bf 04 44 9d bf 98 23 94 c0 df 37 cf bf
       -0.5878067 -1.2286382 -4.629345 -1.6188926
000110 e8 96 1c 40 29 9f b3 bf 79 00 05 c0 21 d5 cd 3f
       2.4467106 -1.4032947 -2.0781538 1.6080667
000120 d3 b6 10 40 29 ee 1d bf f2 38 84 3f 70 44 f2 3f
       2.2611587 -0.6169153 1.0329878 1.8927135
000130 fd af 3e 40 6e 58 8b bf 34 67 76 bf 6f 96 97 3f
       2.9794915 -1.0886362 -0.96251225 1.1842784
000140 22 9f 55 3f 2f b6 44 3f e9 83 f3 be 37 f6 50 bf
       0.8344594 0.7684049 -0.47561577 -0.81625694
000150 e2 8a 6e c0 fb d9 dd 3f 1e e1 b9 bf d8 97 85 3f
       -3.7272267 1.7332147 -1.4521825 1.0436964
000160 9c f9 31 3f b4 42 3b c0 2d 30 5a c0 93 8f 5c 3f
       0.695215 -2.9259462 -3.4091904 0.86156577
000170 61 c1 a8 be a4 e7 d8 3e ce f3 07 bf 03 29 4f bf
       -0.32960036 0.42364228 -0.5310639 -0.80921954
000180 4d 1c 2a bf e9 59 73 bf 68 55 80 bf f7 1a a9 c0
       -0.66449434 -0.95059067 -1.0026064 -5.2845416
000190 08 f9 99 3e ec 6f b7 3e d5 b6 63 bf ba 76 96 bf
       0.30072808 0.35827577 -0.88950855 -1.1754982
0001a0 a8 86 a4 bf d1 7d 1f 3f 37 b0 1c bf 29 29 87 3f
       -1.2853594 0.62301356 -0.6120638 1.0559436
0001b0 7d 41 38 3f 3d 05 f8 bf ab 03 87 c0 dc 60 c6 bc
       0.7197493 -1.9376599 -4.2191978 -0.024216108
0001c0 02 78 7e bf 8f d0 17 3f df 47 2b bf df be 63 3f
       -0.9940187 0.5930261 -0.6690654 0.8896312
0001d0 84 f0 f6 bf 82 02 43 3f a2 48 29 c0 d3 08 87 3f
       -1.929215 0.761757 -2.6450582 1.0549568
0001e0 35 62 88 3f fb ca f1 bf a0 43 fa bf d8 1a ae 3f
       1.065497 -1.889007 -1.9551888 1.3601942
0001f0 51 a2 34 3f c9 0f 98 bf bb 7d b1 bf b2 37 40 c0
       0.70560175 -1.1879817 -1.3866495 -3.0033994
000200 16 46 2c bf ec 98 08 3f c1 62 ac 3f eb 93 8d bf
       -0.6729444 0.5335834 1.3467637 -1.1060766
000210 a7 75 74 3f 1f 4d bf 3f e0 7d 1f c0 f4 9e b9 bc
       0.95492023 1.494541 -2.4920578 -0.022658803
000220 08 ad 45 3f ad a5 8a 3f 2b 84 a8 3f 77 04 59 3f
       0.7721715 1.083181 1.3165334 0.8477244
000230 df ea f3 3e e3 46 34 c0 16 6f 13 c0 f7 83 98 bf
       0.4764013 -2.8168266 -2.3036551 -1.1915272
000240 4b ff 69 c0 99 cd 11 40 03 ea 4f c0 e8 ab 1b bf
       -3.6562068 2.2781737 -3.248658 -0.60809183
000250 ba 8e 2c c0 c3 34 8e 3f 8f 8f 8d 3e 40 af bf 3f
       -2.6962113 1.1109852 0.2764859 1.4975357
000260 e5 80 0a 3f a3 92 93 3f c5 ed 3f bf 93 f1 d8 3f
       0.5410293 1.1529125 -0.7497218 1.6948723
000270 7c 9f 4a 3f 9f f0 5a 3f a6 f0 15 bf 87 28 18 40
       0.79149604 0.8552341 -0.58570325 2.3774736
000280 9e f1 4c bf 78 f8 b6 bf fb eb 4e bf e3 e9 c8 bf
       -0.8005618 -1.4294577 -0.8082883 -1.5696377
000290 67 68 01 c0 f7 4e 9f 3e 6b f6 13 40 34 0c c7 3e
       -2.0219972 0.31114933 2.3119152 0.38876498
0002a0 34 31 56 3f 76 fe 62 bf 43 ef 82 3e fc 73 f5 3e
       0.8366883 -0.88669527 0.25573167 0.47940052
0002b0 05 7e 51 3e 8e 3c c5 3f e3 46 08 40 bb d6 c5 3f
       0.20458229 1.5409105 2.1293266 1.5456156
0002c0 35 9a 1d 3f 7a 44 94 40 6d ba 63 c0 82 a1 d4 3f
       0.61563426 4.633359 -3.5582535 1.6611788
0002d0 23 da 2f 40 1f 7e 93 bf 52 51 51 3f af 22 0e c0
       2.747689 -1.1522864 0.8176471 -2.220867
0002e0 fa e7 04 3f f7 74 47 bf d5 f5 8d bf 50 c8 c6 bf
       0.5191647 -0.7791285 -1.1090647 -1.552988
0002f0 6f 68 e7 bf 24 5a 0b 3f 9c 8b 25 3f 92 fa 4b 3e
       -1.8078746 0.5443442 0.6466615 0.19919804
000300 92 37 a6 bf 57 97 20 bf a4 fe 01 3f ae 01 31 c0
       -1.2985709 -0.62730926 0.50779176 -2.7657275
000310 b3 a5 e6 bf b0 37 f4 3f e1 5b b6 bf a0 2b 49 bf
       -1.8019317 1.9079494 -1.4246789 -0.7858219
000320 7f 16 d0 3f 4b 04 0a bd a6 75 d6 3e 50 ca 6c c0
       1.6256865 -0.0336955 0.41886634 -3.6998482
000330 ea 0f 3d bf 24 00 53 bf b6 dc 15 c0 a6 f0 07 c1
       -0.7385241 -0.8242209 -2.3415961 -8.496252
000340 e3 96 06 c0 ab e4 18 3f d3 b6 83 40 17 db 7f 3e
       -2.1029594 0.5972392 4.1160674 0.2498592
000350 76 e4 c9 3b 61 b9 bc bf 02 30 43 bf 7a e6 60 c0
       0.006161268 -1.4744073 -0.7624513 -3.5140672
000360 92 04 b6 c0 fd 57 01 40 21 d3 02 bf 6b 03 84 3f
       -5.688058 2.0209954 -0.5110341 1.0313543
000370 03 dc fb 3b d1 d9 95 3e 48 b3 66 3f 79 32 61 3f
       0.0076861396 0.29267743 0.9011731 0.8796764
000380 bc 4b d7 3e d9 b1 c9 bf e4 28 75 3f 3f c4 99 bf
       0.42049968 -1.57574 0.9576552 -1.2013015
000390 53 d0 10 bf 19 06 c3 3f ee 3a b4 bf b9 9b 1d bf
       -0.5656788 1.5236236 -1.4080484 -0.6156574
0003a0 17 fd 31 c0 ff 56 9f 3f e8 5d 57 bf bf bd 5e bf
       -2.7810724 1.2448424 -0.84127665 -0.8700828
0003b0 d5 c4 1e 3f 7e 83 47 bf 23 24 0f bf 1e a5 7e 3f
       0.6201909 -0.77935016 -0.55914515 0.994707
0003c0 82 ce c1 bf 3e 9a 7a bf 07 f8 f6 3e 91 e4 82 3f
       -1.5141146 -0.97891605 0.48236105 1.0226003
0003d0 12 03 2b 3f 85 e8 fc bf 98 ff 03 40 79 2b da 3f
       0.6680156 -1.9758459 2.0624752 1.7044517
0003e0 f2 27 89 bf 42 e7 08 40 44 9b 32 3f 6a 51 66 40
       -1.0715315 2.1391149 0.69768167 3.5987191
0003f0 b4 23 5e c0 68 40 82 bf 8c 60 cd bf 5b dd cb bf
       -3.4709291 -1.0175905 -1.6045089 -1.5926927

l4.weight f4 [256, 28]
000000 00 b3 87 bc 2f 8d 2a 3f e6 02 58 bf ed af e8 3e
       -0.016564846 0.6662168 -0.8437942 0.4544672
000010 c6 db 7b 3c c8 59 f6 3c a8 f0 fb bc 31 d0 94 3c
       0.015372222 0.030072108 -0.030754402 0.01816568
000020 fe 49 23 3d 59 d1 e3 3d 99 44 e8 bc cb b7 91 bd
       0.039865486 0.11123914 -0.028353022 -0.07115134
000030 42 6a 95 bc 5c 96 3f bd d1 83 28 3e 12 d3 ae 3e
       -0.018239144 -0.046774253 0.16456534 0.3414541
000040 35 b6 9b 3e a4 2b b2 be fb 17 09 be be 95 4c 3e
       0.3041245 -0.3479892 -0.13388054 0.19978997
000050 93 75 2d 3f 18 c5 6f be 61 16 f2 3d 9e d3 97 be
       0.6775753 -0.23415029 0.11820675 -0.2965364
000060 e9 6a de 3c 6f 42 61 bc e3 3a 87 bd 5a 68 8c bc
       0.027150588 -0.013748749 -0.066030286 -0.017139602
000070 e6 85 09 bf 22 3f 5c c0 b3 9c 54 be dd f6 62 3f
       -0.5371994 -3.4413533 -0.20762901 0.88657933
000080 21 47 25 be 8c bb 3b be 4c f2 65 bd 57 69 7e bd
       -0.16140415 -0.18333262 -0.056139275 -0.06211218
000090 ee 5d 00 bd 0b 1a 7e bd 4e 3c cc bd a9 6a 9f 3c
       -0.03133958 -0.062036555 -0.0997244 0.01946004
0000a0 26 2b 4f bd 4d ff 01 3c 7a f4 3d 3e 3e af 20 bd
       -0.05057826 0.007934404 0.18550292 -0.039229624
0000b0 4c a4 4a be 24 b0 36 3e f5 a0 44 bd 93 bc 01 be
       -0.19789237 0.1784063 -0.048005063 -0.12669592
0000c0 82 62 ba 3e ff e1 03 be 58 43 3f be 38 8c d0 bb
       0.3640328 -0.1287918 -0.18678033 -0.0063643716
0000d0 f5 15 e8 3b d7 58 71 ba bc f3 46 3d 07 5b a7 bb
       0.0070826956 -0.00092066586 0.048572287 -0.005107287
0000e0 45 5f 3e be 0e 15 6e 3f 48 e4 fe 3e c4 df 60 3f
       -0.1859103 0.93000877 0.4978354 0.8784144
0000f0 64 90 58 3e 29 b2 79 3d dd 39 01 3e 4b 78 a2 3c
       0.2114883 0.060960922 0.1261973 0.01983275
000100 35 63 1e bd b4 58 ca bd e5 4b 3f 3d 48 12 d5 bd
       -0.03866883 -0.098802 0.046703238 -0.104038775
000110 7c 33 36 3b b7 45 06 bd 20 3b a6 3e 52 9c af 3e
       0.0027801683 -0.03278133 0.32466984 0.3429895
000120 aa 04 8b 3c c5 74 fe bc 53 c7 63 3e b1 68 13 bd
       0.016969997 -0.03106154 0.22244005 -0.035988513
000130 67 04 80 bd 04 44 f1 3c 56 c7 a5 3e ba 87 70 be
       -0.0625084 0.029451378 0.32378644 -0.23489276
000140 9e 56 4b 3c 7a 7f f0 39 1c 3b b8 bb bc ec 81 bc
       0.012410788 0.00045871345 -0.0056222808 -0.015859954
000150 fd 43 3e 3e 4b 00 c9 be ff ca e3 bc a1 1b 5c 3f
       0.18580623 -0.39258036 -0.027806757 0.8597966
000160 f4 35 a7 3d 94 e6 cc bc 1d 65 66 3d 2e ad f7 bb
       0.081645876 -0.025012292 0.056248773 -0.0075584864
000170 16 4a 17 3d 9d d0 f0 3c b9 38 c8 3c 64 a9 c4 3d
       0.03693589 0.02939635 0.02444111 0.09602621
000180 9f 7b 07 3d b8 3c 40 3d 3a 22 cd bd f8 10 b4 be
       0.03307688 0.046932906 -0.10016294 -0.35169196
000190 2f 31 fc 3d a9 87 dd bb 2f 1e 15 3f 0c 0f bd 3e
       0.123140685 -0.0067605567 0.5824918 0.36925542
0001a0 14 83 24 be b8 62 12 3f f3 44 5e 3e 3a 24 e1 3b
       -0.16065627 0.5718188 0.2170599 0.0068707736
0001b0 92 9a 51 bb 7f c4 07 3d ff 9b 11 3d 35 be 7d 3c
       -0.0031983 0.033146378 0.03554916 0.015487243
0001c0 c5 e6 b3 3d 01 cc c1 3f 95 2e de bd 4b ef bf 3e
       0.0878425 1.5140382 -0.108487286 0.37487254
0001d0 30 68 3e be 9c 3d fc 3b 67 b7 4f be fc af 0b bd
       -0.18594432 0.007697774 -0.20284806 -0.03410338
0001e0 eb 87 cc bc 2a 73 c3 3e 1e 23 f8 3d 53 45 8b 3e
       -0.024967154 0.381738 0.12116073 0.27201328
0001f0 00 a0 08 3d 5f ef 32 3d 0a b0 ef 3e fe 8d c5 3e
       0.033355713 0.043685313 0.46813995 0.38584894
000200 a6 c8 fb 3e 79 16 b2 bd e5 69 49 be 2c 9f 74 3d
       0.4917652 -0.086956926 -0.19669302 0.05972211
000210 47 39 c5 bc 1a 3c 03 3f 04 70 58 bf 3c 5b be 3d
       -0.024075164 0.5126358 -0.8454592 0.09294745
000220 18 04 b9 bc ea b8 6f bd 57 0c c2 3a c4 ed 5a 3c
       -0.02258496 -0.058525957 0.0014804703 0.013362352
000230 3c 0c 71 3e cb 48 31 bf 84 8a db be 74 79 ec 3e
       0.23539823 -0.692517 -0.42879117 0.4618641
000240 24 a0 b5 3d 93 1a 83 3c 00 80 13 3d 4d 54 94 3c
       0.08868435 0.016003883 0.036010742 0.018106604
000250 72 e0 07 3d 8f c4 0c be c5 b6 96 bc f9 f6 72 be
       0.033173032 -0.13746856 -0.018397698 -0.23727025
000260 d2 04 1e 3d d9 e9 8e bd f0 cb 96 bd 11 76 81 3e
       0.038578816 -0.06978197 -0.07363117 0.2528539
000270 29 d5 b2 3e ca 08 9d bd 2c f2 90 3d 05 c5 ac bd
       0.34928253 -0.07667692 0.070774406 -0.08436016
000280 24 d4 6f 3e 0f 6b 73 3e 5b ee 03 3f d0 59 5e 3d
       0.23420769 0.23771308 0.51535577 0.05428487
000290 ed 07 14 3d 5c 8d af 3a 44 34 11 bd 29 26 1e 3d
       0.03614037 0.0013393569 -0.035450235 0.03861061
0002a0 df 99 21 3c b7 a4 e2 be 63 25 2b 3e 9d 11 7e 3f
       0.009863346 -0.44266292 0.1671348 0.99245626
0002b0 bc 96 86 3d bd d3 24 3d 78 7b 1c 3e b5 87 19 3c
       0.06571719 0.04024099 0.15281475 0.009370734
0002c0 a8 b2 fe 3b 02 49 0d 3d f4 61 46 bc 29 6c 09 be
       0.0077727623 0.034493454 -0.012108315 -0.13420166
0002d0 71 8e 0e bd 7c 20 ac 3b 64 c0 77 3d d9 0f 3a be
       -0.03480381 0.005252896 0.060486212 -0.18170108
0002e0 db aa 10 3c b7 b3 ab 3c a0 b1 1c 3d 4e 55 a5 be
       0.008829798 0.020959718 0.038255334 -0.32291645
0002f0 e5 54 3f be 28 33 bc 3e f6 8e 45 3e 45 96 49 3e
       -0.18684728 0.3675778 0.19292817 0.1968623
000300 f4 5d f8 3b 75 2e 39 3d b6 c3 3d bc f5 15 9b bd
       0.0075795595 0.04521032 -0.011582306 -0.07572547
000310 1d 49 d2 3e 5d d1 0e 3f 75 17 f8 3e ca 85 5b bc
       0.41071406 0.55788213 0.48455396 -0.013398597
000320 09 cc 5e be ea af 0c 3e b0 18 2a be 17 24 5f 3c
       -0.2175752 0.13738981 -0.1661098 0.013619444
000330 6c 4c d1 3d fe af 93 3e 49 7f 9e bd a0 85 e2 3e
       0.102196544 0.2884521 -0.077391215 0.44242573
000340 ce 8c ae 3b a7 ec 82 be fd 25 b5 bf f9 80 87 bf
       0.005326844 -0.25571176 -1.4152218 -1.0586234
000350 1b d0 b5 be 4b 13 e2 3e 33 49 d3 bc 4a a4 c6 be
       -0.35510334 0.44155344 -0.02579174 -0.38797218
000360 a0 c6 c4 bd 86 50 21 be b2 57 76 bd f9 f2 6a 3e
       -0.09608197 -0.15753374 -0.060142227 0.22944249
000370 10 10 50 3d 39 38 31 3c 04 26 32 bd b2 02 74 3d
       0.05079657 0.010816627 -0.043493286 0.059572883
000380 70 33 09 bf 69 56 fa 3e 34 8b 50 3e 14 f4 cf 3f
       -0.5359411 0.4889405 0.20365602 1.6246362
000390 d8 b1 42 bd 52 ff f6 bb 6f af af bd 02 de 3d bb
       -0.047532886 -0.007537761 -0.08578383 -0.0028971438
0003a0 f9 68 a6 3c 2f 20 99 be 59 a9 8d bc de 9c 7f be
       0.020313727 -0.29907367 -0.017292665 -0.24962184
0003b0 c1 24 27 bd a1 f1 22 3d cb 97 c4 be d7 54 49 3e
       -0.040806536 0.039781217 -0.3839706 0.1966127
0003c0 bd 06 c2 3e 90 0a 07 3e 13 2e 99 be ea a1 b3 3d
       0.37895766 0.13187623 -0.29917964 0.08771117
0003d0 2e cf d0 3d 97 f8 3f be f5 e7 f6 bc cc dc 84 3d
       0.101957664 -0.18747173 -0.030139903 0.06487426
0003e0 92 b7 d1 bc 18 27 92 3c e5 98 4e bd 5d e8 81 bc
       -0.025600228 0.017840907 -0.05043878 -0.01585787
0003f0 f7 cb 34 3d 80 cf e3 3e 5d f6 3a be bd 69 9b bf
       0.04413983 0.44494247 -0.18258043 -1.2141644

l4.bias f4 [256]
000000 40 c3 2e 3d 8a 80 9f 3e 57 fd 2b bf db 6d 39 bf
       0.042666674 0.31152755 -0.6718344 -0.7243325
000010 0c d8 14 be 66 f6 ee be 3b be c8 be c7 38 0c 3e
       -0.1453554 -0.46672362 -0.39207634 0.13693534
000020 db 95 cb 3d 51 be f0 3d bd b7 3f be 94 29 4b be
       0.09940692 0.1175505 -0.18722434 -0.1984008
000030 f6 32 1d bf 99 1b f0 3d ad 8c 71 3e f2 40 71 be
       -0.61405885 0.11724014 0.2358882 -0.23559931
000040 3a ff fb be 2c 5c dd bd cd 64 f4 be 14 49 91 3e
       -0.4921816 -0.10808596 -0.47733155 0.28376067
000050 2d eb 8c be d4 b5 22 3f 72 27 c9 be fe 28 ee 3e
       -0.27523175 0.635587 -0.39287907 0.4651565
000060 f9 8f c3 be fb 08 2a be bd 5d 72 3e 8b 0e ca bd
       -0.3819578 -0.16604988 0.23668571 -0.09866055
000070 e7 14 1b bf 95 e6 82 3e 85 fb a6 3d 5d c1 c9 3d
       -0.6057877 0.25566545 0.08153442 0.09851334
000080 7d 62 9f 3e 5a 50 88 be fb fb 75 bd 1b 13 e7 3e
       0.31129828 -0.26623803 -0.06005476 0.45131764
000090 c2 69 9e 3e b4 dc be 3e 31 c6 8a 3e 6a d8 ed 3e
       0.30940062 0.37277758 0.27104333 0.46454173
0000a0 f9 54 bd 3e d7 9b 62 3e 48 03 25 bd be 7f 35 3f
       0.36978891 0.2212976 -0.040286332 0.70898044
0000b0 4d 0e 16 3f d4 8d b3 be e1 e0 03 3e 5c c1 ef 3c
       0.5861557 -0.35069144 0.12878753 0.029267006
0000c0 ec 33 ba be 3f bc 94 be db 09 40 be e0 fb d6 bd
       -0.36367738 -0.2904987 -0.1875376 -0.1049726
0000d0 83 ac d1 be 40 8f 2b be ed 18 cc 3e 08 3c ab be
       -0.40951928 -0.16753864 0.39862767 -0.33444238
0000e0 8c fa d4 bd 4f a2 80 be 7c 28 9a be 48 17 c6 3e
       -0.103993505 -0.25123832 -0.30109012 0.38689637
0000f0 48 75 a9 3e b2 17 f0 3e f0 f6 55 be c8 d8 ce 3e
       0.3309729 0.46893078 -0.2089498 0.40399766
000100 49 9d c6 bd b1 d5 41 be 97 ad 3b 3e bf 88 44 bc
       -0.096979685 -0.18929173 0.18327938 -0.011995493
000110 b0 bb ad 3e ad 81 4b 3e 79 83 87 3d c4 f1 bf 3e
       0.33932257 0.19873686 0.06616873 0.3748914
000120 3b 33 43 3e 3c bc 9a 3e 88 d3 df bb 21 8c bf be
       0.19062512 0.30221736 -0.0068306364 -0.37411597
000130 c1 73 72 3d 51 6f 60 3e 5c 8a 0c 3e 17 84 28 3f
       0.059192423 0.21917464 0.13724655 0.65826553
000140 56 c3 9b be 97 54 b6 be 97 20 af bd 5d 4a 46 be
       -0.30422467 -0.35611412 -0.08551138 -0.19364305
000150 3d 62 0e be 76 8e 3b bd 24 7f ac be 35 9f 59 3f
       -0.13904662 -0.04579016 -0.3369075 0.85008556
000160 8a 4a d8 3d dc 22 df 3e 2c a9 15 3e 6c cc a2 be
       0.10561092 0.43581283 0.14615315 -0.31796587
000170 17 54 02 3f 4d 59 50 be 28 e7 b2 be 7d ce c5 bb
       0.5090956 -0.20346566 -0.34941983 -0.006036578
000180 dd 63 ce 3e 4e bc df bd a1 b6 0c 3f 55 33 f6 bc
       0.40310565 -0.10924588 0.5496617 -0.030053774
000190 bb a0 27 3e 78 13 4a be 47 cc cf bb f3 de b8 3e
       0.16369908 -0.19733989 -0.0063414904 0.36107597
0001a0 b5 45 a2 3d 3e 33 53 bc f3 a6 0f bf 5c 48 d6 3d
       0.07923452 -0.012890635 -0.5611412 0.1046302
0001b0 f3 4c 8f 3c f4 0c b6 3e 9d 5b 73 be a6 03 d8 3c
       0.017492747 0.35556757 -0.23765416 0.026368927
0001c0 14 8f b1 be d4 91 75 be 7d d5 c6 3e 38 e2 a7 bd
       -0.34679472 -0.2398141 0.38834754 -0.08197445
0001d0 e4 e5 b1 be cb 19 f7 3e 62 d9 1d be 93 4c a4 bd
       -0.34745705 0.48261866 -0.15414956 -0.08022418
0001e0 3b 9f c4 3d f9 f9 12 3f c2 4e b0 3e 6e 2a 13 3f
       0.09600683 0.5741268 0.34435087 0.5748662
0001f0 67 c1 de 3e 64 19 1a 3e 13 b7 39 3e a5 f9 1d bf
       0.4350693 0.15048748 0.18136244 -0.6170905
000200 a7 5e 91 bd 1e bb fa 3c 44 6d 66 bf 79 18 d8 3c
       -0.070981316 0.030606803 -0.90010476 0.026378857
000210 2e 6a b1 bb d7 ac dd be df 03 3a 3f 8b 6a 87 be
       -0.005414269 -0.4329593 0.72662157 -0.26448473
000220 33 b9 d6 be 20 50 d2 be a5 01 f7 3d ba 71 0b bf
       -0.4193817 -0.41076756 0.120608605 -0.5447041
000230 04 87 d6 bd ad 2a a3 be 08 d2 11 3f 6d ea e1 3e
       -0.10474971 -0.31868497 0.5696111 0.44124165
000240 82 f4 0e 3f 5a b9 07 be a3 3f 52 3e ac ce b5 be
       0.5584184 -0.132543 0.20532088 -0.3550924
000250 1c 6c f4 3e 20 ed 0d 3e a8 09 da be 16 01 eb be
       0.4773873 0.13859987 -0.42585492 -0.45899266
000260 76 c0 6b be c8 3f ab 3e c2 16 23 be 8b 84 1d bf
       -0.23022637 0.334471 -0.1592665 -0.6153037
000270 5a 44 a5 be ab 89 ba bd 4f 97 04 3e 3a a0 d9 bd
       -0.3227871 -0.09108289 0.12948345 -0.10626264
000280 70 bf de be c1 d8 83 bd 0d 2b 31 3e 87 b9 81 3c
       -0.4350543 -0.06437827 0.17301579 0.015835537
000290 32 93 3a 3c 0e 84 77 3e 53 1d 31 3e a0 8c 28 3e
       0.011387633 0.24171469 0.17296343 0.16459894
0002a0 7d 19 d3 3c c9 96 93 bd c7 36 10 bf 79 97 71 3e
       0.02576899 -0.07206494 -0.56333584 0.23592938
0002b0 d9 f4 f5 3c b1 8b 01 bd ff 54 05 bf a4 ac e4 bd
       0.030023979 -0.03162736 -0.5208282 -0.11165741
0002c0 9a 54 df 3c c5 fa af 3e 4b c1 2d bf 0e 70 0e 3e
       0.02726202 0.3437101 -0.67873067 0.13909933
0002d0 df bc f3 be 73 ad 8a 3c 5b 57 99 3d fd 0e 4c 3f
       -0.47605035 0.01692841 0.07487365 0.7971037
0002e0 b3 a9 bf 3e 60 f3 9c be 11 fa 48 3b 4d 76 b5 3d
       0.37434158 -0.3065443 0.003066663 0.08860455
0002f0 2e a3 9c bd f5 61 f2 be a4 bc b5 3e d7 70 e0 3d
       -0.076483116 -0.4734036 0.35495484 0.109590225
000300 f4 50 8c 3e 72 43 2a be c8 a9 ab 3e ec e5 2e 3e
       0.27405512 -0.16627291 0.3352797 0.17079896
000310 97 20 ca 3e 9b db 0f 3d 26 79 b4 3e e5 a7 8d 3e
       0.3947799 0.03512154 0.3524868 0.27667156
000320 62 87 76 3e 7f 94 1d 3e e6 9b 80 3d f3 60 d1 3e
       0.24075082 0.15388678 0.06279735 0.4089428
000330 c2 11 05 3e 55 dd b6 3e 66 7f 44 3d 28 84 06 3f
       0.12995055 0.35715738 0.04797306 0.52545404
000340 9a e7 53 3e bc 73 3d be e8 00 57 be 57 48 5a 3f
       0.20693818 -0.1850118 -0.2099644 0.8526663
000350 63 59 30 3e 74 d9 e9 be 64 79 bf 3d 7f 0a 38 3e
       0.17221598 -0.45673716 0.09349325 0.17972754
000360 39 54 ae be 44 22 b0 3e f6 6d 0e bf 63 76 14 be
       -0.34048632 0.34401143 -0.5563654 -0.14498286
000370 87 84 8b 3e 39 4f 77 3f e0 07 d2 3d 58 56 1e be
       0.27249548 0.9660526 0.10255408 -0.15462625
000380 f8 1a 02 bf 5d 89 18 bf d7 00 20 3f d3 70 de be
       -0.508224 -0.595846 0.6250128 -0.43445453
000390 b2 d8 29 3e 49 19 8a be c1 86 fe 3d 5b 48 10 3f
       0.16586569 -0.26972416 0.12428046 0.56360406
0003a0 fa 8f bc bd ec 73 06 be b9 3c 86 be 74 81 63 3e
       -0.09207149 -0.13130158 -0.26218203 0.22217351
0003b0 ac 04 06 bf ec dc b9 3e 5b 97 ef 3e 70 45 d5 3e
       -0.5235088 0.36301363 0.46795163 0.4165454
0003c0 39 ae 33 3d b3 88 ae 3e 3e 79 8d be be f6 10 3e
       0.043867324 0.34088668 -0.27631563 0.14156625
0003d0 22 a0 07 3f 00 56 4b 3d 55 d1 98 3e 00 d2 b8 3e
       0.5297872 0.049642563 0.29847208 0.36097717
0003e0 47 99 1c 3f 1c 73 5f 3e 0c 9a 1b 3f 0d a2 ee bd
       0.6117138 0.21821254 0.6078193 -0.116520025
0003f0 75 bf d3 3c 21 78 d1 be 82 7a 08 bf 4d a9 de bd
       0.02584813 -0.40911964 -0.5331193 -0.10872135
