HardcoreVersion/critic/ppo_q_critic7000.pth (torch, 592130 bytes, 10 tensors)

l1.weight f4 [256, 28]
000000 13 93 93 3e d9 bb a3 be b6 31 80 be fb ca 21 bd
       0.28823146 -0.31979254 -0.25037926 -0.039500218
000010 47 2e 66 bc 10 6e 3e bc e8 7d a0 bd 83 c4 2a bc
       -0.014049119 -0.011622921 -0.07836515 -0.010422829
000020 78 ab 43 3c 92 57 c0 3e 54 e1 4d 3d 09 8d 92 3d
       0.011942737 0.3756681 0.050263718 0.071558066
000030 8c a0 26 3c 7c 30 16 3d fe 36 6c 3b f4 64 95 3e
       0.010170113 0.036667332 0.003604352 0.29178584
000040 1d c3 0c 3f 8c fa 78 3e 0a 5d 36 3f aa 12 83 bd
       0.5498522 0.24314326 0.71235716 -0.06400044
000050 ba 29 90 bf b8 65 89 3e 1e 94 b0 3d a9 f6 21 bf
       -1.1262734 0.26835418 0.08622001 -0.63267
000060 f5 ed 86 3c ed ad 37 bc e2 39 05 3d 07 7e fd 3b
       0.016470889 -0.011210901 0.032525904 0.007735971
000070 9e cd 9b 3d e0 7a 3c 3e 1c c9 0d 3e 08 86 c8 3d
       0.07607578 0.18406248 0.13846248 0.097911894
000080 4a 2d 11 be af 21 8a 3d 23 c6 6a bd 1a 16 1e 3d
       -0.14177433 0.06744706 -0.057317864 0.038595296
000090 f0 69 48 3c 2a 1d 20 3e 0d 54 c9 3d 48 ec e8 3d
       0.012232289 0.15636125 0.098304845 0.11373192
0000a0 d2 41 aa 3c 92 fc 12 bc a1 ff 83 be c3 2d ef be
       0.020783339 -0.00897135 -0.25780967 -0.467146
0000b0 e0 bd 2f ba 68 96 96 be 98 b4 b8 3e c5 72 cd be
       -0.0006704014 -0.29411626 0.36075282 -0.40126625
0000c0 4c f1 b8 3e 4e 47 17 3e 08 af 11 3f 61 fc e1 be
       0.36121595 0.14773294 0.569077 -0.44137862
0000d0 bc 6f a0 3c 3e f5 0c 3d c4 e6 40 3d c8 7f d8 3c
       0.01958453 0.03441357 0.047095075 0.026428118
0000e0 71 46 9d 3f 78 68 dc 3f 80 f6 85 3e e1 90 07 c0
       1.2287122 1.7219381 0.26164627 -2.1182177
0000f0 13 51 4c 3f 0f 33 63 3e 57 9c 26 bc 26 e8 85 3d
       0.7981121 0.22187446 -0.01016911 0.065384194
000100 76 ed 9f bd c9 96 5c bd 71 61 28 bd 5a 37 d9 bb
       -0.07808964 -0.053854737 -0.041108552 -0.006628913
000110 2a 71 a7 bc e9 e3 05 bd 90 3a 5c be bc fb 9a 3e
       -0.020439703 -0.032688055 -0.21506715 0.30270183
000120 ee 00 9d 3d ba e3 26 3d 3b 1c 8a be eb 05 56 be
       0.07666193 0.04074452 -0.26974663 -0.20900695
000130 1c 4e 41 be f9 5b 76 be 73 36 7a be 4b 73 88 bd
       -0.18877453 -0.24058522 -0.24434833 -0.066626154
000140 1c 08 52 3d 51 bd a3 bd e1 b3 0b bd d3 06 2e bd
       0.051277265 -0.079950936 -0.034107093 -0.042486977
000150 01 5e 45 3e 6b 1d a0 3d 70 b0 9a 3d 2d 4b a5 be
       0.19274141 0.07818111 0.07553184 -0.32283917
000160 82 f3 83 3d 1c 58 63 bc f2 b6 ae 3b 68 39 0a bb
       0.0644293 -0.013875987 0.0053318674 -0.0021091346
000170 11 7c cd bb c8 32 3e 3d c9 a3 1c bb 2d 2d 79 bc
       -0.0062708934 0.046435148 -0.0023901334 -0.015208525
000180 6f 2e 48 3a 4b fd 47 3c 58 cb 10 be bc 14 fb bd
       0.00076363137 0.012206386 -0.1414007 -0.12259814
000190 a3 b8 80 3d d0 60 86 3e 50 db fc bd 99 81 57 3d
       0.06285217 0.26245737 -0.12346518 0.05261383
0001a0 57 2d 49 3f ea e4 7a 3e b3 41 13 3f 14 68 29 bf
       0.7858481 0.24501386 0.57522124 -0.66174436
0001b0 12 da 83 bb 52 9e 7d bb ac 7e 82 3b e7 e2 af bc
       -0.0040237987 -0.0038699103 0.0039823856 -0.0214705
0001c0 00 83 15 be c4 cb b0 3f 72 cb 8b be 7a 2e 77 3f
       -0.14600754 1.3812184 -0.27303654 0.9655529
0001d0 77 b5 f1 ba ae 10 2e 3d 7a 6e 33 3d 7d cd 4d 3c
       -0.0018440922 0.042496376 0.04380653 0.012561199
0001e0 c9 c4 d8 bc 55 24 67 3d bc 62 32 3d c0 3b 0c be
       -0.026461022 0.056431133 0.04355119 -0.13694668
0001f0 a2 96 4e bc e7 b8 16 3d 5e 3d 0e bf aa 92 a5 be
       -0.012609156 0.03679743 -0.5556239 -0.32338458
000200 67 84 ef bd 31 b6 51 bf 5e 52 83 3b d7 ec 2f 3f
       -0.116951756 -0.8191863 0.0040076217 0.68720764
000210 89 3b 4f 3e 15 1c 6e be 3e 8b 1c 3e 81 1f f1 3e
       0.20237555 -0.232529 0.15287492 0.47094348
000220 15 9a 97 bc 89 2e c5 bb fb 6a 09 3c 50 39 c5 bc
       -0.01850609 -0.0060175103 0.008387323 -0.02407518
000230 06 21 29 3e 4d 31 02 3f 21 c1 95 be 4e 58 01 bf
       0.16516504 0.5085648 -0.29248908 -0.5052537
000240 d2 d0 96 3c 3b 78 a6 3c 00 a9 2f be b1 00 6a 3d
       0.01841012 0.020321002 -0.17154312 0.057129566
000250 5d 37 82 3d e3 79 5c 3e fb 62 48 3d f0 57 b4 3d
       0.06358216 0.21530871 0.04892252 0.08805835
000260 9e 8d f8 3c 9e 91 16 3d 4e 39 81 3e ec 78 69 bb
       0.030340966 0.036759965 0.25239033 -0.0035625054
000270 12 90 e5 3d 90 08 22 3d f0 c7 8b be a3 11 0d be
       0.1120912 0.039558947 -0.27300978 -0.13776259
000280 a4 fc aa bb 65 82 f4 3e 1d 7e 1c 3e 33 c7 48 3e
       -0.0052181054 0.47755733 0.15282483 0.19607238
000290 8a 06 50 3d 34 bf 5e bd f7 fb d6 3c 4c cf 49 3b
       0.050787486 -0.054381564 0.026243193 0.0030793725
0002a0 eb cf a6 be 5c 03 13 be f2 04 fc be 28 9b 6a bf
       -0.32580504 -0.1435675 -0.49222523 -0.91643
0002b0 5a 3f 04 3f 1e 57 8a bc 8c 71 2b be a2 c3 20 3c
       0.51659167 -0.016887244 -0.16742533 0.0098122675
0002c0 e5 3b 98 3b 89 8d 39 3e b9 7e 9a 3c 8e fc 4a 3f
       0.004645812 0.18120398 0.018859254 0.7929162
0002d0 b7 7d a5 3d 92 d9 c0 3c 7a 91 fd be 9a 85 28 bf
       0.08080619 0.023541246 -0.49525052 -0.6582886
0002e0 8b 00 46 bf 45 13 8b be fb 7c a0 be 73 3f 63 be
       -0.7734458 -0.2716314 -0.31345353 -0.22192173
0002f0 21 8b 0b be 67 26 19 3e d4 5d c3 bc 52 e6 a7 3e
       -0.13627292 0.14956056 -0.023848452 0.32792908
000300 af 3f e5 3c 2f 6c 88 bd b1 a5 16 3d fb 14 b5 3d
       0.027984468 -0.066612594 0.03677911 0.08841892
000310 2b 61 ea 3d e6 58 02 c0 c3 6e b3 3e 8f 83 d5 3f
       0.114443146 -2.036676 0.35045442 1.6680773
000320 c7 58 8f 3e e7 0f 33 bd f3 7a 82 3d 06 b0 07 bd
       0.2799742 -0.043716338 0.06371107 -0.033126853
000330 5f bc 71 bc 61 9e 2e 3d 24 9e 5c bd 15 42 14 3e
       -0.014754384 0.04263151 -0.053861752 0.14478333
000340 99 88 26 bd 08 2d 6e 3c b5 c7 2b 3d fb 3f 9e bb
       -0.040657613 0.0145371035 0.041938502 -0.0048294044
000350 98 b1 3b bd c2 9e 36 bf c3 43 f3 be f6 4b 0e 3f
       -0.045823663 -0.71335995 -0.47512636 0.5558466
000360 84 8f 9c be 45 8a c0 be 9d 31 05 3d ca 35 7c 3e
       -0.30578244 -0.3760549 0.032518018 0.24629894
000370 8a cf 69 3c 1c f1 36 bc 4f 51 23 3c a4 76 53 3d
       0.014270673 -0.011165883 0.009968116 0.051626816
000380 16 e7 84 bd 37 11 04 3f e1 4c 7f 3f 78 f0 52 bf
       -0.06489389 0.5158877 0.9972668 -0.82398176
000390 ee 0e 64 3d 67 89 8c 3c 8d 3b d0 be c1 67 93 3b
       0.0556783 0.017155362 -0.40670434 0.0044984524
0003a0 cd 4f 12 3c 10 94 27 bc c9 c4 43 bc 8c b3 d3 3c
       0.008930159 -0.010228172 -0.011948773 0.02584245
0003b0 14 56 62 bc 0b 7d 42 bd f5 4e 03 bf 90 e9 85 bc
       -0.013814468 -0.04748253 -0.51292354 -0.016346723
0003c0 5a 2c f8 be 8c c9 bd bc b2 e5 bf 3e fc 4b 46 bd
       -0.48471338 -0.023167394 0.3747993 -0.048412308
0003d0 ee a3 aa be a2 19 c8 be 77 ff 66 3d bf cd 4a 3e
       -0.33328193 -0.39082056 0.056395974 0.19805048
0003e0 33 8b 07 bc f5 6f 8e bd 02 67 08 bd 98 73 d9 b4
       -0.008272934 -0.06954948 -0.03330136 -4.0503505e-07
0003f0 74 9f 5b 3e 1a 22 b7 bf 36 ed aa be 9a a8 d1 3d
       0.21447545 -1.4307282 -0.33384103 0.10237236

l1.bias f4 [256]
000000 2a 05 69 3e 94 1e 27 3c ab 9f 19 3d 98 c7 43 bf
       0.22755876 0.0102001615 0.037505787 -0.7647643
000010 9f 64 24 bc 7d ec d1 be f0 66 03 3f fd d2 c0 3e
       -0.010033756 -0.4100074 0.51328945 0.3766097
000020 50 81 d9 3d 1e 72 f4 bc 48 44 db 3e dc b8 04 bd
       0.106203675 -0.029839572 0.42825532 -0.03240286
000030 b2 63 02 3f 35 c8 f8 3e aa 32 15 3e b2 6c 9f bd
       0.5093337 0.48590246 0.14570108 -0.07784404
000040 57 3c 0e 3f 2a 70 b3 3e a4 24 35 3f 33 85 ce be
       0.5556082 0.35046512 0.70759034 -0.40335998
000050 cd d4 22 3f 82 87 17 bf 7d e7 96 bd 4b 17 c5 3d
       0.6360596 -0.59191144 -0.07368372 0.096235834
000060 a1 0d 05 3e bd 02 c0 bd c4 fc 19 3e eb ff 1c be
       0.1299348 -0.09375522 0.15037829 -0.15332
000070 20 2a bb 3e 68 62 9b 3e d4 55 ac be 1e 6e f8 3e
       0.36555576 0.30348516 -0.33659232 0.48521513
000080 7d 54 bf be e4 ef ca bd 7e 53 92 bd e3 39 1a 3c
       -0.37369147 -0.09909037 -0.07144831 0.009413215
000090 4a a4 e3 3d 9b a6 12 3f de a2 23 3f cc 20 57 3d
       0.1111532 0.5728547 0.6392039 0.052521512
0000a0 01 61 c2 be 6d ee f2 bd 5e e0 53 be c4 6b 20 bf
       -0.37964633 -0.11861882 -0.20691058 -0.6266444
0000b0 2f d2 7c be ab 27 6f be 4c 5e 55 3f d9 f6 4b bc
       -0.24689554 -0.23354976 0.8334701 -0.01244899
0000c0 8d b2 80 3e c4 7f cd 3e a0 72 4b 3f 5d b3 b4 3e
       0.25136223 0.4013654 0.7947178 0.35293093
0000d0 1c 1f dc be af 19 8a 3e 2e 19 19 bf 0a e5 cc 3e
       -0.42992485 0.2697272 -0.59804046 0.40018493
0000e0 d0 ff d6 3e c5 15 b3 be 1b 7b 45 be 0b 05 dd bd
       0.41992044 -0.34977546 -0.19285242 -0.107919775
0000f0 0b 57 91 be 46 38 0b bf 5b 68 76 bd 1d a3 6c bd
       -0.2838672 -0.5438274 -0.060158115 -0.057772744
000100 6d f2 a5 be 23 a5 05 bf f1 d1 cc 3d 74 9f 9c be
       -0.3241152 -0.52205104 0.10000981 -0.30590403
000110 8d 53 41 bd 22 5d c4 3e 27 14 0a bf fd cf b1 be
       -0.04719882 0.38352305 -0.53937 -0.34728995
000120 96 d2 93 3e 94 e1 c5 be 19 9f 75 3d 2e 87 a9 bc
       0.28871602 -0.38648665 0.05996618 -0.020694342
000130 45 af 2f 3f e2 1e 4d 3f ca 10 f9 3e 02 87 b6 3e
       0.68626815 0.8012525 0.48645622 0.35649878
000140 50 86 a3 be 0c f1 78 be 0a 2f b6 be d1 b0 07 3f
       -0.3193841 -0.24310702 -0.35582763 0.53004175
000150 0c 79 1c bf dc 9d de 3d 6a 84 bb bc 9c f0 0e be
       -0.611222 0.10869953 -0.022890288 -0.13958973
000160 08 47 bd bd 3b 84 3d 3f ad ab a6 3e 4d 8e 2d be
       -0.09242064 0.7402989 0.32552853 -0.16948815
000170 43 0c 10 3e 7f a3 b2 bd 8a 08 0a bf 83 e8 2d 3e
       0.14067177 -0.08722591 -0.5391928 0.16983227
000180 9a 11 d4 be 35 ae 20 3e 8d 9b 1f be 12 7f b3 be
       -0.4141968 0.15691455 -0.15586682 -0.35057884
000190 64 d6 98 bc af 3e 17 be 98 bb 62 be 62 6d a0 3e
       -0.018656917 -0.14770006 -0.22141874 0.31333452
0001a0 74 4f a6 bd 89 ee 62 3e 29 d1 9d be 4e 16 32 be
       -0.08120623 0.22161306 -0.3082364 -0.17391321
0001b0 b6 58 4a 3f 3c 9e 9e be 07 2b 5f be ab 11 23 be
       0.7904161 -0.30980098 -0.21793757 -0.15924709
0001c0 0b ff 76 be 02 d6 98 bd ee 4e 2f be 89 0d 10 3f
       -0.24120729 -0.07462694 -0.17119953 0.56270653
0001d0 79 55 9e be f4 72 e4 3e 02 97 e1 3d 84 ac a1 3c
       -0.30924585 0.44618952 0.110151306 0.019735582
0001e0 c2 65 13 be b5 f9 1e 3f 7a 6a c9 3e f4 15 d7 be
       -0.14394286 0.6209977 0.39339048 -0.42008936
0001f0 fd b9 06 3f d2 aa 8e be 2a 06 48 bf d6 55 88 be
       0.52627546 -0.278647 -0.78134406 -0.26627988
000200 82 cd ae 3e 89 31 20 3f af 33 bd be 05 7c 60 3e
       0.34141165 0.62575585 -0.36953494 0.2192231
000210 7e 87 18 3f fc 3c 91 3e 08 84 4b 3e f4 1b 7b be
       0.59581745 0.2836684 0.19874585 -0.24522382
000220 f5 3b 01 bf 5b 4d d2 be 98 91 2e 3e bb 2e 1e 3f
       -0.5048211 -0.41074643 0.17047727 0.61790055
000230 f1 b2 79 3d 9a 24 39 bf c9 c2 50 bd 67 fc 7c be
       0.060961667 -0.72321475 -0.05096701 -0.24705659
000240 72 02 a8 3d 06 57 b4 3c c1 4c 1d bf 95 f9 ec 3e
       0.082035914 0.022014152 -0.6144524 0.46284166
000250 ff da be 3e 43 7c 8a be c5 78 c3 bd 63 14 ce bd
       0.37276456 -0.2704793 -0.09544519 -0.10062482
000260 7f 73 35 3e 8c 5c 23 3f 83 c0 9e be fe f1 2c bd
       0.1771984 0.6381309 -0.3100625 -0.04222297
000270 05 94 13 3e 2b 51 24 bf 21 86 5a bf 46 9e df 3e
       0.14411934 -0.6418635 -0.85360914 0.4367544
000280 cd 1d 29 be 38 a5 28 3f 39 89 d1 be 05 cc 0d 3f
       -0.16515274 0.65877104 -0.40925005 0.55389434
000290 ca b8 1d 3d c2 94 a7 3e e9 fe ef 3e 5f f5 df 3e
       0.038506307 0.3273068 0.4687417 0.4374189
0002a0 22 05 ff 3e 8f ba 38 be 41 b6 4c be 58 87 a1 3d
       0.49808604 -0.18039916 -0.199914 0.07887143
0002b0 a9 58 4b 3d 1a 9d 08 bf 3c 05 e9 be d7 47 77 3e
       0.0496451 -0.5336472 -0.45511806 0.24148498
0002c0 6f c7 ee be 1c 11 9c 3e 58 19 c5 be af cf 3e bd
       -0.4663653 0.30481803 -0.38495898 -0.04658478
0002d0 93 42 1d bf 89 4b e7 be 88 cc 2c 3f 91 6a 94 be
       -0.6142971 -0.45174816 0.6749959 -0.28987554
0002e0 26 b0 ad 3e af 25 5b be 63 f2 15 3e 85 9a c9 3d
       0.33923453 -0.21401094 0.14643244 0.098439254
0002f0 95 57 e4 be 66 ee e8 3e 95 b3 e6 be 6e 6d 43 3e
       -0.4459807 0.45494384 -0.45058885 0.19084713
000300 65 10 1d 3e 07 eb 1e 3d c8 81 ec be 02 21 21 3f
       0.15338285 0.03879836 -0.46192765 0.6294099
000310 64 fb e2 be a3 28 8a be 27 56 bc 3e 70 e7 66 be
       -0.4433242 -0.26984128 0.3678448 -0.22549224
000320 66 a0 6c be fd 87 59 3d 26 97 47 3e e8 3f 80 3e
       -0.23108062 0.053108204 0.19491252 0.25048757
000330 eb 32 99 3e 85 64 96 3e f8 61 fc be d4 e2 c6 be
       0.2992166 0.29373565 -0.49293494 -0.3884493
000340 1a df 04 3f f4 ff 3b 3d 26 44 2b 3c d6 c3 cb 3e
       0.51902926 0.045898393 0.01045326 0.39797848
000350 fc da d1 be 52 32 d7 3d ec 3e 95 3e 11 ff 57 be
       -0.40987384 0.10507645 0.29149568 -0.21093394
000360 42 17 06 be 78 0b 14 3f 3e 29 f0 be 3d 7d f7 3e
       -0.1309481 0.5783 -0.46906465 0.48337737
000370 97 35 0b be 02 6f 77 bd de a2 b6 be d9 17 56 3e
       -0.13594662 -0.0604086 -0.35671133 0.20907535
000380 c5 46 14 3e 70 66 24 bf 47 56 22 be 5a 5f 33 be
       0.14480121 -0.6421881 -0.15853225 -0.17516842
000390 c2 fd 9f 3d b6 80 cc 3e dc 1d 21 3e 1c 53 00 bd
       0.07812072 0.3994195 0.15734047 -0.03132926
0003a0 58 aa 88 3e 13 7d dd bd 25 d8 b5 3e d2 fd fe 3e
       0.26692462 -0.10814872 0.35516468 0.49803025
0003b0 20 1e f5 3e 9f ce 2f 3f a8 73 44 3e a8 f5 44 be
       0.47874546 0.68674654 0.19184744 -0.19234335
0003c0 d2 8f 92 3e d3 bd dd bd fd b6 c2 3d b6 18 49 3e
       0.2862535 -0.10827222 0.095075585 0.19638333
0003d0 8b a9 b2 3e 02 53 52 bd 4f ca 31 3f 65 6b 92 3d
       0.34894976 -0.051348694 0.69449323 0.0714939
0003e0 ce 72 a2 be b0 11 b9 3e f2 ae c9 be c7 5a 25 be
       -0.31728214 0.36146307 -0.39391285 -0.1614791
0003f0 a4 67 01 3e 82 47 74 be d2 46 d4 3d 28 78 a1 be
       0.12637192 -0.23855403 0.103650704 -0.31536984

l2.weight f4 [256, 256]
000000 17 30 93 bf 20 8c 8a be fc 7e f1 bd 3c 2d dc be
       -1.1499051 -0.27060032 -0.117917985 -0.4300326
000010 99 39 d8 be 6e 5b f6 bd 4d 7b 18 3f e6 95 ad 3d
       -0.42231444 -0.120291576 0.5956314 0.084758565
000020 7f f4 99 3e 99 9e 0b 3f 25 e7 e4 3e 7a 9a 0f 3e
       0.30069348 0.54538876 0.447076 0.14023772
000030 13 c7 7c 3e 4a 19 a9 37 2c ad 05 3e 76 89 e5 3e
       0.24685316 2.0158146e-05 0.13054341 0.44831437
000040 4f f2 12 bf 59 c0 d2 3e ce 85 ba 3e 2b 66 62 be
       -0.57400984 0.41162375 0.3643021 -0.22109286
000050 1e 17 cf 3d 8c 3a cf be 9e a9 95 3c d8 28 e6 bd
       0.10111831 -0.40474355 0.018269356 -0.11238259
000060 61 69 8e bf 28 75 2e be 96 c4 ab bd 2f 24 a8 be
       -1.1125909 -0.17036879 -0.08387105 -0.32840106
000070 9c 34 9e 3e 6d 35 1a be 24 d1 fc be 71 6a 45 3e
       0.30899513 -0.15059443 -0.49378312 0.19278885
000080 b9 17 41 be 8e f7 f2 3e 1d 52 40 3e ea 33 06 bf
       -0.18856706 0.47454494 0.18781324 -0.52422965
000090 34 e6 6d 3e 58 b2 91 bb 9d bf 13 be a0 a2 78 3e
       0.23232347 -0.004446309 -0.14428563 0.24280787
0000a0 3b 35 b9 bd 94 c7 34 bc 8f 2a da be 96 cb 2f 3f
       -0.09043356 -0.011033911 -0.42610595 0.6867002
0000b0 a0 a9 b5 3d 2a 46 d9 be 48 00 eb bd e7 2d 0b bd
       0.08870244 -0.42436343 -0.11474663 -0.033979323
0000c0 39 eb bf 3e e5 65 e8 3d d1 0a 8a 3e 07 ec 17 3d
       0.37484148 0.1134756 0.26961377 0.037090328
0000d0 6b f9 d6 3d f1 cd 25 3f a6 ed 63 bf f4 03 e8 3e
       0.104967915 0.64767367 -0.890345 0.45315516
0000e0 c9 05 7a 3e ee 51 2f 3d b6 7d 09 3d 55 c0 52 be
       0.2441627 0.042802744 0.033567153 -0.20581181
0000f0 2d 59 11 be 05 9d e0 be 93 0b 90 be 1b 89 fe be
       -0.14194174 -0.43869796 -0.2813383 -0.49713978
000100 9b 72 cb 3c cb 05 8f 3d bf 2e 6f bf 35 38 51 3e
       0.024834922 0.06983527 -0.93430704 0.20431598
000110 04 95 32 3f 72 bc 85 3e b5 39 19 be bb d3 5e 3f
       0.6975863 0.26120335 -0.1496342 0.87041825
000120 5d 4e a5 3d 5f 04 fd 3d d5 30 20 bf bd 73 56 be
       0.08071587 0.12354349 -0.6257451 -0.20942588
000130 a1 c4 93 3e c5 18 9d 3e 94 bb 18 be 52 90 1b 3e
       0.28860953 0.3068296 -0.14915305 0.15191773
000140 4f 89 4c bd 15 cc ac be 34 90 32 be b3 20 c7 3d
       -0.049935635 -0.33749452 -0.17437822 0.09723034
000150 3b 1b 3d be c5 62 66 be 29 85 35 3e a1 60 4d be
       -0.18467419 -0.22498615 0.17726578 -0.20056392
000160 10 bb 07 3d a3 7f ca 3e 89 f9 b6 be 3f 9f 5e 3e
       0.03313738 0.39550504 -0.35737255 0.21740435
000170 a8 de 01 3f 3e 19 86 3e 82 90 e4 bc 7d 09 e4 be
       0.5073037 0.26191133 -0.027900938 -0.4453849
000180 f7 c2 9d be 16 4c d7 3d 4f 99 5c 3d 0e d5 9d be
       -0.3081281 0.10512559 0.053857144 -0.3082661
000190 55 3c a1 3e 8c 8c 70 be 90 57 20 be 07 a5 97 bd
       0.31491342 -0.23491114 -0.15658402 -0.07404523
0001a0 65 f1 3d be ff 98 49 be 50 af b4 3e 0f 4b 88 3e
       -0.18549116 -0.1968727 0.35290003 0.26619765
0001b0 78 5b 45 3f 08 37 d9 bc 02 6a 4d be d1 f5 ad 3c
       0.77092695 -0.026515499 -0.2005997 0.021235378
0001c0 b9 36 9c 3e 56 69 85 bd e6 21 2c 3e 10 2c f4 be
       0.305105 -0.06514232 0.16809806 -0.47689867
0001d0 ba de 18 3e 3c c5 3c 3e d5 48 d9 3e 8c 50 aa 3d
       0.14928713 0.18434614 0.4243838 0.08316144
0001e0 29 75 77 bc 9c 91 0e 3e 14 f8 03 bf 38 e5 a9 be
       -0.015103617 0.13922733 -0.5155041 -0.33182693
0001f0 b9 ba 50 bd a1 a4 80 3d e2 62 6d 3d 86 30 1b c0
       -0.050959323 0.062814005 0.05795563 -2.4248366
000200 dc 8b 0b 3e 29 de 5e 3f 8b a0 cf bf 1e de 8d 3d
       0.13627571 0.8705774 -1.6220869 0.06927131
000210 ab 08 38 3f e4 00 5c 3f cb aa 22 3f cf ee ce 3e
       0.71888226 0.8593886 0.6354186 0.40416571
000220 d7 bb 05 3e 9c 42 1b bc 2b 26 ff be 3b 91 1a bf
       0.13059936 -0.00947633 -0.49833807 -0.60377854
000230 95 7d 72 3e e8 c8 68 be bb 30 1f 3f e7 7e f9 3c
       0.23680718 -0.2273289 0.6218373 0.03045602
000240 40 07 62 bf 88 f4 e8 be a8 a7 78 3d f3 17 08 3e
       -0.8829231 -0.45499063 0.060706764 0.13290386
000250 a3 89 e6 3d ab b8 08 bf a7 0a 0e bf 5c 9e 8a be
       0.11256721 -0.5340678 -0.55485004 -0.27073944
000260 99 db 58 3f b7 19 0a 3e 64 47 88 be 58 93 09 3d
       0.8471008 0.13486372 -0.26616967 0.033587784
000270 ac ff 4a be 72 b7 ff bd 2f 21 5c bd ec 2d 31 3c
       -0.19824094 -0.12486161 -0.053742584 0.010814171
000280 3d bc a5 be da db 8e be 09 db 95 3c f7 51 08 bf
       -0.32370177 -0.27902108 0.01829292 -0.5325007
000290 fe 36 6d be 3c e4 20 3f 39 30 87 3e 21 2e 81 3e
       -0.23165509 0.6284826 0.26403978 0.25230506
0002a0 40 43 03 bc 6a b9 ca 3d b0 08 8c 3e a0 5a f1 be
       -0.008011639 0.09898646 0.27350378 -0.47139454
0002b0 7a 41 a9 be 0f 29 67 be c4 08 43 be 6b 0c c2 be
       -0.33057767 -0.22574256 -0.19046313 -0.379001
0002c0 94 75 9c be 08 20 b7 3e a6 ab 58 bd 1a 95 75 3d
       -0.30558455 0.35766625 -0.05289807 0.059956647
0002d0 5d 98 e3 be 7f f6 54 be 64 cf 9c bd f9 ed 3e 3e
       -0.4445218 -0.20797156 -0.07656744 0.18645467
0002e0 45 62 00 bc 7c e4 4e bf a0 98 0f 3d b4 ca 3c bd
       -0.007835929 -0.8081739 0.035057664 -0.04609175
0002f0 34 02 98 3d 93 f4 b4 be 46 80 44 be b2 05 9a 3e
       0.07422295 -0.35342845 -0.19189557 0.3008247
000300 c8 8c a1 be 9d 6d 5d 3d f3 06 e5 be 6d 26 31 3c
       -0.3155272 0.054059613 -0.44731864 0.010812384
000310 8c cf 1b 3f 70 97 5b bd 07 28 47 be a7 26 11 3e
       0.60863566 -0.05361122 -0.19448863 0.14174901
000320 d5 c6 66 bc 85 8d f5 be 8d f7 fc bd 1f 72 2b 3e
       -0.014085491 -0.47959533 -0.12351904 0.16742752
000330 c8 94 ed 3e 1f 0c 71 3d 96 30 8f 3f 67 f7 bd bd
       0.46402574 0.05884945 1.1186702 -0.09275704
000340 f6 89 8b 3e 56 d1 ed 3d d5 b6 91 be 8d ff 0b 3f
       0.27253693 0.11612193 -0.28459802 0.54686815
000350 50 22 74 bd 3f 4f ae 3d 23 aa f0 3e 89 34 75 be
       -0.059603035 0.08511209 0.47004804 -0.23945822
000360 ef e4 28 3c 6e b5 f0 be 09 aa ab 3c 68 44 79 3d
       0.010308488 -0.4701342 0.020955103 0.060856253
000370 09 f6 2d 3e 4f 42 00 bd ba 05 8e be 9b e9 f6 be
       0.16988386 -0.031313237 -0.27738744 -0.48225102
000380 f7 a4 2e bf 17 80 42 3e b1 88 c4 bd 82 25 13 3e
       -0.68220466 0.18994175 -0.09596384 0.14369777
000390 4a fe a6 3e cd fe 0e 3e 81 37 c3 3c 3d 6c 7e bf
       0.32615882 0.13964386 0.023830177 -0.9938391
0003a0 40 24 e8 3e f4 3c b2 bf 1b fe 50 3e 4d 85 e6 3f
       0.45340157 -1.3924851 0.20409434 1.800943
0003b0 c7 ce 24 bd fa e5 7c 3f 90 af 90 be 63 f1 ae 3d
       -0.04023626 0.98788416 -0.28258944 0.085421346
0003c0 b4 d0 00 3f 5a 73 5a be b4 64 a3 3d ea 7e 6f 3e
       0.50318456 -0.21333066 0.07978192 0.23388258
0003d0 22 67 10 3e 1a cf 29 be 56 52 d7 3e 7a fe fe 3c
       0.14101842 -0.16582909 0.42055005 0.031127203
0003e0 17 f3 64 3e 3f 38 e9 3e 16 6e 1d bf 39 0a 01 be
       0.22358356 0.45550725 -0.614961 -0.12601556
0003f0 0a 35 df be 7e ed 18 bd 0a 20 7c 3e a0 53 11 bd
       -0.43595153 -0.037335865 0.24621597 -0.03548014

l2.bias f4 [256]
000000 cc 7d 01 3d ae e9 ef 3c 06 e8 21 3d 02 6e de bb
       0.03161411 0.029286232 0.039527915 -0.0067880163
000010 1e df 38 3b 37 28 ab bd a5 1b 8f 3d 67 c0 6a be
       0.002820916 -0.0835728 0.06987695 -0.22924958
000020 47 c4 05 3e 5e 4d be 3d cb 3d 1c 3e a3 ab 1d 3e
       0.13063155 0.092921 0.15257947 0.15397505
000030 63 36 ec bd 47 50 a5 bd dc 66 51 3e fb f1 ee be
       -0.11533811 -0.08071952 0.20449394 -0.4666899
000040 2c e4 a8 be 99 dc f9 bd 9c d6 55 3e 70 5d 6c bd
       -0.3298658 -0.12200279 0.20882648 -0.057706296
000050 bf 69 c1 3c 8d d3 b1 3d 00 73 98 be d1 e8 22 bd
       0.023609994 0.08682928 -0.29775238 -0.039772812
000060 40 4a e5 bd 75 46 85 3e 03 39 6e bd 6c f9 7a be
       -0.11195803 0.26030317 -0.05815984 -0.2450921
000070 8e 67 d7 bc 60 b2 06 bd 7e f5 6e bd cd 6f 9b bd
       -0.026294496 -0.032884955 -0.05833959 -0.07589684
000080 11 8c 2f 3d 8e 05 d7 3b 0d b3 8b bd 9c 33 af bd
       0.042858187 0.0065619415 -0.068212606 -0.085547656
000090 df 38 93 3e 61 bf 14 3e cc 40 e8 3d f6 ce 82 bd
       0.28754327 0.1452613 0.11340484 -0.06387131
0000a0 3c 4c d6 bc 5c c7 3c bc 3a 51 cb bd c4 d4 78 3d
       -0.026159398 -0.01152214 -0.09927602 0.060749784
0000b0 0e 71 48 be e6 0a 57 3d f3 16 e1 3d 65 77 e0 3d
       -0.19574377 0.052500628 0.10990705 0.10960273
0000c0 85 72 9c be 48 8c b9 bc de 10 cc 3d 4c 1e 03 3e
       -0.3055612 -0.0226499 0.09964155 0.12804526
0000d0 aa 07 0b bd 9f 2e 59 be 8c 4b 69 bc 08 67 3e bd
       -0.033942856 -0.21209191 -0.014239203 -0.046484977
0000e0 09 a4 e5 3e 64 6a ca 3c b1 03 0a be f0 f1 c9 bd
       0.4485171 0.024708934 -0.1347797 -0.09860599
0000f0 5f bb e8 bc ff 3d 14 be 1a be 0d be 00 5f ab bd
       -0.028409658 -0.14476775 -0.13842049 -0.08367729
000100 7e ba 15 3e 9e e6 15 bd c5 c5 d3 be 4e c6 36 3e
       0.14621922 -0.036596887 -0.41361824 0.17849085
000110 ac a2 35 3d 20 93 8c be ee 67 9e 3e 88 11 04 3e
       0.04434459 -0.27455997 0.30938667 0.12897313
000120 d4 d5 5e be ae b1 a1 3d a5 49 2f 3e bf 43 c9 3d
       -0.21761256 0.07895218 0.17117937 0.09827375
000130 84 49 5f bd 54 bd 80 3e 8e 04 ca 3d bb 9c c2 bd
       -0.05451347 0.25144446 0.0986415 -0.0950255
000140 b3 61 46 be 75 7b b5 ba 01 bc d7 3d 37 93 16 3e
       -0.19373207 -0.0013845997 0.10533906 0.14704596
000150 35 51 8c bd 5c 49 e0 3b 96 43 bd be 9b 5f 78 bd
       -0.068514265 0.0068446826 -0.36965626 -0.06063805
000160 b1 cf 97 bd fe e4 5c 3d cb 51 23 be 1e a8 e1 bd
       -0.07412661 0.05392932 -0.1594917 -0.11018394
000170 8a 92 c1 3d da 63 0b bd 23 37 d0 3d a1 10 11 3e
       0.09451778 -0.034030773 0.101667665 0.141665
000180 ed fe 41 3c 32 02 a1 3d 1d aa 1b 3e ca 0c 29 3e
       0.011840564 0.07861747 0.15201612 0.16508785
000190 99 66 f6 bc a6 ef 0e bd 2c ff 75 3e fc 94 3d be
       -0.03007822 -0.034896515 0.24023122 -0.18513864
0001a0 67 48 b9 bc c8 84 0a bd 3c 74 47 3e 32 ef de bb
       -0.022617532 -0.033818036 0.19477934 -0.0068034166
0001b0 ce 06 84 3c 98 77 98 be 0a 34 76 bd c9 40 fa 3b
       0.016116526 -0.29778743 -0.060108222 0.0076371175
0001c0 1a be 2c 3d 83 eb 14 bd 07 56 e9 3d 5c 24 ae ba
       0.042173482 -0.036357414 0.113933615 -0.0013285982
0001d0 db 3e 85 bc 48 0f 9a bd 8b 6c 8e be 7a b3 c7 3d
       -0.016265323 -0.07522446 -0.27817187 0.09751029
0001e0 cf 1a a5 bd 31 6a af be c1 79 3c be b7 52 03 be
       -0.08061754 -0.34260705 -0.1840582 -0.12824522
0001f0 67 ae 97 3c 2c 8c 02 bd 5c 20 2f bd 82 63 83 be
       0.018515779 -0.03187196 -0.04275547 -0.25661856
000200 e9 9d 94 3d 01 bd 83 3c 45 c9 35 be 82 80 b3 3c
       0.072566815 0.016081335 -0.1775256 0.021911863
000210 60 3b a5 bc cc cb 1e be f3 70 c9 bd c3 8a 01 bd
       -0.020169914 -0.1550743 -0.098359965 -0.031626474
000220 02 5c 02 be e9 0a 42 bd 46 ec 10 3e be 28 28 3c
       -0.1273041 -0.047373686 0.14152631 0.01026362
000230 f2 78 64 3c ac 74 c1 be ed 8b 73 bd d1 38 5a 3e
       0.013944851 -0.37784326 -0.059459615 0.21310736
000240 36 cf 07 3e 47 38 6b bd f9 51 aa bb 4e 63 c8 3d
       0.13262638 -0.057426717 -0.00519776 0.09784566
000250 cd cc d8 3d 15 c1 b8 3d b0 35 bb 3d 72 ad 98 3d
       0.10585938 0.090212025 0.091410995 0.07454957
000260 01 52 e2 bd 5f 74 6f be 8e 9d 61 3e bc 92 9f 3d
       -0.11050797 -0.23384236 0.22032759 0.07791659
000270 57 c8 f2 bd 9a e0 02 bd 3b ca 4c 3e 55 7a 2e bd
       -0.11854618 -0.031952478 0.1999902 -0.042597134
000280 cc 49 07 3c 7a df 3a be 22 ac b5 3c 2c aa 49 3d
       0.008257341 -0.18249312 0.022176806 0.049234554
000290 21 d5 f1 3d cc 98 bc bb 99 48 c9 3d c7 e6 bd 3c
       0.11808229 -0.0057555195 0.098283 0.023181332
0002a0 71 38 1d 3b 83 11 51 bd 9d de 84 3d 0f 5f ef 3c
       0.002398994 -0.05104209 0.064877726 0.029220132
0002b0 29 0c d2 3c 2a 43 13 3e 7a e7 86 3e 9e 20 30 be
       0.025640564 0.1438109 0.26348478 -0.17199942
0002c0 36 42 f9 bd b6 08 ce bd ea 67 fb bc fe af 2b 3e
       -0.12170832 -0.10060255 -0.030689199 0.16766354
0002d0 98 84 a7 be 8d 7d 1f 3c cb 1a a8 bd 04 64 15 3e
       -0.32718349 0.0097345235 -0.08208235 0.14588934
0002e0 ee 0b 62 3d d4 91 b4 3e ed ce 11 3d 7a b0 68 3d
       0.05518716 0.35267508 0.03559773 0.056808926
0002f0 30 68 eb be 0f e5 05 bd 1d c1 7e 3c dd 8f 46 bd
       -0.45977926 -0.03268915 0.0155489715 -0.048477042
000300 5e 33 53 3d 17 61 20 3e 69 12 d0 bc 4a 18 1c bd
       0.05156266 0.15662037 -0.025399404 -0.0381091
000310 41 40 09 bf 52 d4 c1 3e ab e3 1c 3d ec 17 1a 3d
       -0.5361367 0.378573 0.03830306 0.03762047
000320 ce c8 08 be 93 cf 4c bd 50 23 cd bb e8 4e d2 3b
       -0.13357851 -0.050002646 -0.006260313 0.0064180978
000330 f9 2a 77 3e 74 8f ec 3d 33 16 da bd 10 a4 d7 3d
       0.24137487 0.11550799 -0.106487654 0.10529339
000340 0c 8b 4e 3d 2c 52 d5 3c 63 47 dc be 20 dd 1e 3c
       0.050425574 0.02604016 -0.43023214 0.009696275
000350 78 79 8e bc 4e 00 a7 be e3 43 0e 3d a2 b2 db be
       -0.017391905 -0.3261742 0.03473271 -0.42909724
000360 fa cc 14 3e 3e 51 d7 bd 8e d6 03 3e 1c 1a 5b be
       0.14531317 -0.105135426 0.12874815 -0.21396679
000370 ed 4c f3 bc 24 f7 3a bd 59 81 a1 bc 15 1a 28 be
       -0.029699767 -0.045645848 -0.019714998 -0.164162
000380 4c f5 82 3d 1f b0 9e 3d 64 e7 be bd f6 00 92 bd
       0.06394443 0.07748436 -0.09321478 -0.071290895
000390 ff 22 3e 3e 33 e1 38 3e 1f 34 c6 3d d4 91 8e 3d
       0.18568037 0.18054657 0.0967791 0.06961408
0003a0 11 94 ee be 95 d8 f3 bd b1 59 0e be b1 7f ae 3d
       -0.4659734 -0.11906544 -0.13901402 0.08520449
0003b0 d9 6e e6 bd dd 43 5e 3d 84 37 11 3e 26 b1 12 be
       -0.11251611 0.05426394 0.14181334 -0.1432539
0003c0 72 9d 39 be af e6 1c 3d 80 4e e2 bc 82 47 2d be
       -0.18126467 0.038305935 -0.027625322 -0.1692181
0003d0 b6 ca f9 3c b6 f1 06 3c cc 75 60 3d cf 6a 94 be
       0.030492168 0.008236339 0.05479984 -0.28987738
0003e0 29 9d 1c 3c 40 2c d0 3e f0 e4 db bc 1c 8f 07 bd
       0.009558954 0.4065876 -0.026842564 -0.033095464
0003f0 8f 50 55 bd fc 53 9f 3d 55 cc 5d be d9 ba 9f be
       -0.05207878 0.077796906 -0.21659978 -0.3119724

l3.weight f4 [1, 256]
000000 f6 05 08 c0 e2 f3 5a bf 3b a4 09 3f 76 6e 64 3f
       -2.1253638 -0.85528386 0.5376622 0.8923105
000010 33 2e b0 3e b3 33 34 3f 1d a1 6d 3e 2c af ea bf
       0.34410247 0.70391387 0.23205991 -1.8334708
000020 66 9c 60 c0 a3 c3 39 bf 90 5b 7b 3f d5 ac 35 bf
       -3.5095458 -0.7256414 0.9818659 -0.70966846
000030 5b 39 9e c0 f8 be fc bf 9e dc 96 be 76 b4 4a 40
       -4.9445014 -1.9745779 -0.29465193 3.1672645
000040 2e 99 12 c0 7c 82 0b 3f 95 22 60 bf 94 05 fc 3e
       -2.2905993 0.5449598 -0.8755277 0.49223006
000050 cc 69 94 3f a2 f1 1c bf 72 40 ca bf 9b ac 43 3f
       1.1594787 -0.613062 -1.5800917 0.7643525
000060 03 83 ed bf 36 ec 91 bf 70 08 40 3f e2 2b e3 bf
       -1.8555607 -1.1400211 0.75012875 -1.7747767
000070 af 5a d7 bf 8f f1 76 bf 63 62 2d 3f b6 4f ad c0
       -1.682455 -0.9646234 0.6772825 -5.4159803
000080 db ca 48 3f e6 3a a1 3f 2a 3c 75 3f de eb 40 3f
       0.7843453 1.2596099 0.9579493 0.75359905
000090 f9 ef 24 40 47 4e 00 c0 27 0a 9c 3f 8d 73 3d 3e
       2.5771468 -2.0047777 1.2190598 0.1850111
0000a0 65 d6 28 3f 26 98 e8 3f b7 b8 b5 bf 39 00 2b bf
       0.6595214 1.8171432 -1.4196995 -0.66797215
0000b0 a5 96 54 3f b3 db e0 bf ef 6a ba bf ce 32 9f bf
       0.83042365 -1.7567047 -1.4563884 -1.2437379
0000c0 48 2f ac bf 16 90 21 3f 9e 5c 9b bf 75 59 db be
       -1.3451929 0.6311048 -1.213764 -0.42841688
0000d0 d7 de 69 c0 23 da 07 40 46 c7 ce 3e a1 05 66 3e
       -3.654226 2.122689 0.4038641 0.22463085
0000e0 d1 a7 14 40 da e6 c7 bf 69 dc 06 3f ce 76 1a c0
       2.3227427 -1.5617325 0.5268007 -2.4135013
0000f0 bc d4 84 3f 24 dd fa 3f e0 90 4b 3f 3f 6b 4c 3f
       1.0377421 1.9598737 0.79517937 0.79851145
000100 10 f1 25 bf 37 f1 9a bf ac 2d bc c0 59 23 c8 bf
       -0.6482096 -1.2104863 -5.880575 -1.5635787
000110 f1 5c 2f 40 50 a6 cd bf f7 31 07 c0 d8 07 c7 3f
       2.7400477 -1.606638 -2.1124246 1.5549269
000120 e5 df 0c 40 fd a4 55 bf b6 61 91 3f 7c 53 e9 3f
       2.2011654 -0.8345488 1.1357944 1.8228602
000130 0d ff 39 40 ad ed 8e bf 37 65 79 bf 7d 6a 98 3f
       2.906192 -1.1166283 -0.97420067 1.1907498
000140 f3 51 5e 3f 22 e0 52 3f 3e fc 0e bf 8f 56 5c bf
       0.86843795 0.8237325 -0.5585364 -0.8606958
000150 4a 71 69 c0 1c da e0 3f fd 57 c4 bf 18 15 67 3f
       -3.6475396 1.7566562 -1.5339352 0.9026656
000160 68 10 31 3f f4 2f 32 c0 17 f1 7e c0 6c 3e 57 3f
       0.6916566 -2.7841768 -3.983465 0.84079623
000170 b0 80 9e be b8 c9 e5 3e d7 66 30 bf e2 1a 81 bf
       -0.30957556 0.44880462 -0.6890692 -1.0086329
000180 06 d9 2b bf cc ec 6d bf af 08 7e bf 76 05 ed c0
       -0.67128026 -0.9293945 -0.99232 -7.4069166
000190 2b b7 91 3e 02 e0 ae 3e f7 76 46 bf 51 78 9c bf
       0.2846006 0.3415528 -0.77525276 -1.2224218
0001a0 2f f3 aa bf fd 9f 1f 3f d8 be 26 bf 6b 63 84 3f
       -1.3355464 0.623535 -0.65134954 1.034284
0001b0 44 b8 39 3f ad 47 0f c0 00 00 a0 c0 dc 60 c6 bc
       0.7254679 -2.2387497 -5.0 -0.024216108
0001c0 f2 4e 72 bf 39 d2 16 3f d0 a7 2d bf f8 99 4f 3f
       -0.9465171 0.58914524 -0.67834187 0.8109431
0001d0 58 8b 03 c0 d5 00 47 3f 8d 7a 37 c0 7d 47 ad 3f
       -2.0553799 0.77735645 -2.866855 1.3537441
0001e0 a0 c7 8a 3f 49 44 f5 bf 3f dd 01 c0 6f 66 a5 3f
       1.0842171 -1.9161464 -2.0291288 1.2921885
0001f0 13 bd 4d 3f d9 bc ae bf 3c 2f be bf 57 d2 4f c0
       0.8036663 -1.3651382 -1.4858165 -3.2472131
000200 bb 2d 34 bf 2e 07 06 3f 83 fe c4 3f 7c b3 c0 bf
       -0.7038228 0.52354705 1.5390171 -1.5054774
000210 b9 95 9a 3f ac 23 db 3f e9 6a 29 c0 f4 9e b9 bc
       1.2076942 1.7120261 -2.6471503 -0.022658803
000220 c1 08 47 3f 75 e6 83 3f 29 50 ab 3f 35 08 68 3f
       0.7774773 1.0304705 1.3383838 0.9063752
000230 0a 4f f4 3e 5a 30 33 c0 a1 0b 2c c0 59 e4 9e bf
       0.47716552 -2.7998261 -2.6882098 -1.2413436
000240 80 44 81 c0 0c 06 1b 40 4e 15 76 c0 21 0b 24 bf
       -4.039612 2.422244 -3.8450503 -0.6407948
000250 0e ba 34 c0 58 09 88 3f 5d e8 7c 3e 64 de d8 3f
       -2.8238559 1.0627851 0.24698015 1.6942868
000260 fc 7c 13 3f da d1 90 3f a5 9f 42 bf f4 ee ee 3f
       0.57612586 1.1314042 -0.7602485 1.8666673
000270 c2 f8 50 3f 85 3f 5b 3f 45 88 29 bf 20 c4 1b 40
       0.81629574 0.856438 -0.66223556 2.4338455
000280 99 26 54 bf 76 27 ac bf 92 c5 3b bf 84 d0 c8 bf
       -0.82871395 -1.3449543 -0.73348343 -1.5688634
000290 44 06 0b c0 5d 94 9e 3e bf 58 16 40 f9 2e bc 3e
       -2.1722574 0.30972567 2.3491666 0.36754587
0002a0 fb 54 55 3f 6d 3d 61 bf 9b 89 80 3e b9 57 e8 3e
       0.83332795 -0.87984353 0.25104985 0.45379427
0002b0 46 78 4d 3e 86 dd ce 3f df fc 0f 40 1c 33 c6 3f
       0.20065412 1.6161354 2.249809 1.5484347
0002c0 81 fe 19 3f 9f 54 99 40 f3 37 81 c0 66 c9 e3 3f
       0.6015397 4.7915797 -4.0380797 1.7795837
0002d0 c9 75 47 40 44 94 ae bf fc b3 59 3f d9 84 16 c0
       3.116564 -1.3638997 0.8504026 -2.3518584
0002e0 2f 3d 04 3f 21 2f 76 bf c6 91 87 bf 11 20 c4 bf
       0.5165586 -0.96165663 -1.0591362 -1.5322286
0002f0 b5 24 eb bf 44 fe 1a 3f be 02 29 3f f0 0e 62 3e
       -1.8370577 0.6054423 0.6601981 0.2207601
000300 92 b4 ae bf 21 1f 29 bf 2d ad 06 3f be b9 46 c0
       -1.3648856 -0.66063124 0.52607995 -3.1050868
000310 f9 bb eb bf f2 e5 04 40 33 bb bb bf cb d8 4e bf
       -1.841674 2.0765347 -1.4666504 -0.8079955
000320 5f 34 04 40 4b 04 0a bd b0 73 d3 3e f4 6f 78 c0
       2.0656965 -0.0336955 0.412992 -3.881833
000330 49 d1 44 bf 0e a7 57 bf bf 02 18 c0 32 82 1f c1
       -0.76881844 -0.8423928 -2.3751676 -9.969286
000340 39 0b 06 c0 48 f3 2b 3f 7e 2b 93 40 e8 db 60 3e
       -2.094435 0.6716809 4.599059 0.21958888
000350 76 e4 c9 3b 30 79 c0 bf d4 0b 3e bf d9 76 76 c0
       0.006161268 -1.5036983 -0.742368 -3.851004
000360 c7 6b 06 c1 a3 a0 fd 3f 0a df 0c bf 4f 46 8f 3f
       -8.401313 1.9814647 -0.5502783 1.1193331
000370 03 dc fb 3b 42 ac 8f 3e 43 ab 61 3f 8f d9 6b 3f
       0.0076861396 0.2806111 0.8815195 0.92128843
000380 d7 03 d1 3e 61 95 07 c0 af c5 74 3f fa 44 a6 bf
       0.40823242 -2.1184924 0.9561414 -1.29898
000390 59 c9 0d bf 8d 76 cf 3f 5c c7 b3 bf 33 eb 28 bf
       -0.5538536 1.6208054 -1.4045215 -0.65983886
0003a0 d3 60 34 c0 26 4a 9f 3f e1 9e 7a bf 71 2a 70 bf
       -2.8184097 1.2444503 -0.9789868 -0.9381476
0003b0 c7 06 0b 3f 91 a5 3b bf 46 2e 19 bf 27 60 75 3f
       0.54307216 -0.7329951 -0.5983623 0.9584984
0003c0 68 b8 c5 bf 86 c7 87 bf 5f a4 03 3f 96 d1 8e 3f
       -1.5446901 -1.0607765 0.51422685 1.115771
0003d0 35 b1 2c 3f 9f d1 15 c0 09 7a 1b 40 79 2b da 3f
       0.67457896 -2.3409193 2.4293234 1.7044517
0003e0 71 9f 83 bf 77 bf 11 40 24 98 3c 3f 64 ed 75 40
       -1.0283033 2.277311 0.7366965 3.8426142
0003f0 ca 05 87 c0 95 f9 86 bf ff 8b cd bf 70 dc c5 bf
       -4.2194567 -1.0544916 -1.6058348 -1.5457897

l4.weight f4 [256, 28]
000000 58 ef cc bd af e0 ee 3e 54 e8 7e bf 73 86 2d 3f
       -0.10006589 0.46655795 -0.99573255 0.6778328
000010 b0 0a 9c 3d 7e ba 1c 3d 3d 18 46 3c 4c 13 cd 3c
       0.07619226 0.03826379 0.01209074 0.025033616
000020 de 9d 04 bc ae d7 72 3d ab d6 93 bc f6 81 d6 bd
       -0.008094279 0.05928772 -0.018046698 -0.10474007
000030 df 24 03 bc 81 b7 8d bc fd ba 12 3d ff 0a ae 3e
       -0.008004396 -0.017299416 0.035822857 0.33992764
000040 a2 e6 d4 3e 13 2b a7 be 3a 43 88 be 68 11 3e 3e
       0.4158221 -0.3265005 -0.2661379 0.18561327
000050 bf f7 3b 3f 5a 04 89 be 28 b9 1d 3e 08 77 8a be
       0.73424906 -0.26761132 0.15402663 -0.2704394
000060 b5 67 f1 3c 7b 64 08 bc e0 68 15 bc 46 24 71 3b
       0.029468397 -0.008324738 -0.009119242 0.0036795302
000070 da d9 ef be 8e 89 72 c0 bf 63 a5 be 27 78 6e 3f
       -0.46845895 -3.7896457 -0.32302663 0.9315209
000080 f9 36 4b be 0c 71 43 be 80 45 19 bd f0 eb 9b bd
       -0.19845189 -0.19086093 -0.037419796 -0.07613361
000090 9e d3 a7 3c c5 89 88 bc b2 d5 07 be 62 d5 38 bd
       0.02048665 -0.016667256 -0.13265112 -0.045125373
0000a0 29 37 51 bd 4f 2e 16 3c fe 86 7e 3e ca 8b 45 3d
       -0.051077995 0.009166314 0.24856183 0.048229016
0000b0 de bd 82 be ab 3d 11 3e 89 a0 71 bd 7e a1 3c be
       -0.25535482 0.1418368 -0.05899099 -0.1842098
0000c0 3f ac ce 3e db a7 24 be e4 db 4e be 96 79 84 bc
       0.40365788 -0.16079657 -0.20201069 -0.016171258
0000d0 dd 2c 57 3c 4e ed 6a bc 5a fa f6 3c 26 0a a9 bc
       0.013133255 -0.014338804 0.030148674 -0.020634722
0000e0 68 13 87 be 04 a7 ea 3d 87 f6 08 3f a7 26 08 3f
       -0.26381993 0.11457637 0.5350117 0.5318398
0000f0 7b ab c1 3e cf 3a 60 3d a9 a2 c7 3d d1 9e 92 bb
       0.37826142 0.054743584 0.09747822 -0.004474499
000100 c5 b8 d1 bc c1 62 02 be 70 fa e6 3c 92 9d 0f be
       -0.0256008 -0.12732984 0.02819559 -0.14024952
000110 1f 00 8d 3b 3f 50 06 bd 22 55 d4 3e b0 f9 a2 3e
       0.004302993 -0.032791372 0.414712 0.3183112
000120 66 51 99 3d aa 5a d7 bd 39 00 89 3e 91 91 4d 3c
       0.07486229 -0.1051534 0.26757982 0.012546913
000130 bf 32 b1 bd bc dc 60 3d 9c 28 b7 3e 05 2c 9d be
       -0.08652257 0.05489801 0.3577317 -0.30697647
000140 6e 43 70 3c f7 87 9b bc d4 1c 62 3b ef a4 c7 bb
       0.014664514 -0.018985732 0.0034502046 -0.0060926597
000150 93 fe 3d 3e 77 99 f3 be 12 77 fd bc e9 61 52 3f
       0.18554144 -0.47578022 -0.030940566 0.8218065
000160 7a cc 5a 3d 5d 6a e3 bc 6e 81 5f 3d aa 12 48 3c
       0.05341766 -0.027760679 0.054566793 0.012211481
000170 e3 2a 67 3d 21 19 1b 3d e3 13 93 ba b6 f2 da 3d
       0.056437384 0.03786576 -0.0011221137 0.10690825
000180 ce a7 5a 3b 63 a3 f9 3c 6a 9d c0 bd 12 13 a8 be
       0.003336418 0.030473417 -0.09405024 -0.3282705
000190 54 38 00 3e b3 85 9c bc 49 6a 19 3f 5a 72 c2 3e
       0.12521487 -0.019106722 0.59927803 0.37977868
0001a0 f1 03 34 be fb 1d 14 3f 1e ba 7c 3e 78 19 82 3c
       -0.17579629 0.57858247 0.24680373 0.015881285
0001b0 11 cd 60 3b d1 77 b9 3c 88 40 25 3d d0 ce f8 3c
       0.0034301917 0.02264014 0.040344745 0.030372053
0001c0 5a fb 12 3d d7 80 aa 3f 66 9e 16 be 2b 55 95 3e
       0.03588424 1.3320569 -0.14708862 0.2916654
0001d0 3e 5c 3f be 37 c2 17 bb 16 51 32 be 7a 03 e6 bc
       -0.18687531 -0.0023156533 -0.17413744 -0.02807783
0001e0 2c 10 1a ba b1 b0 8d 3e f1 13 e7 3d 25 e5 65 3e
       -0.00058770436 0.27673867 0.112831004 0.22450693
0001f0 69 fb ad 3c bc 8f d5 3c 74 80 e5 3e 82 1c e9 3e
       0.021238046 0.026069514 0.44824564 0.45529562
000200 05 23 1b 3f 9a 32 0b be 61 3b 56 be ba b9 b5 3d
       0.6060031 -0.13593522 -0.20921089 0.08873315
000210 11 ec 8d bd 6e e2 16 3f 36 10 6d bf 73 bd 94 3d
       -0.06929792 0.58939254 -0.9260286 0.07262697
000220 80 42 77 bc 85 d8 21 bd 86 92 4d 3c 39 54 81 3c
       -0.015091538 -0.03951313 0.012547141 0.01578723
000230 e7 d4 74 3e 76 66 34 bf 21 35 d4 be ea fd bf 3e
       0.23909341 -0.70468843 -0.41446784 0.3749841
000240 76 df 82 3d 63 6f 16 b9 70 b1 91 3d 3f 6a b9 bb
       0.06390278 -0.0001434661 0.07113922 -0.0056584175
000250 05 78 0e bc 7c d9 08 be d4 03 9c bb a6 95 79 be
       -0.008695607 -0.13364214 -0.0047611985 -0.24373493
000260 8a 94 44 3d ff 32 a4 bd d8 5c a4 bd 6b 13 84 3e
       0.04799322 -0.08017539 -0.08025521 0.25796065
000270 3a 60 b3 3e 90 d3 97 bd 47 23 a3 3d a4 a2 97 bd
       0.35034353 -0.07413399 0.07965713 -0.07404068
000280 13 7f 78 3e dd 0c 76 3e 0b 76 0e 3f 1b 08 8a 3d
       0.24267225 0.24028344 0.5564887 0.06739827
000290 2e 65 2b 3d 88 42 60 bc 65 66 95 3b 74 13 02 3d
       0.04184454 -0.013687737 0.0045593255 0.031756833
0002a0 a8 14 10 3d 6c 7a 96 be bc 5b e2 3d e7 2b 7e 3f
       0.03517595 -0.29390275 0.11052653 0.9928574
0002b0 bd 6c 0c 3e 18 c3 12 3d 55 9b 33 3e de 59 14 3c
       0.13713355 0.035830587 0.17539723 0.009054629
0002c0 7e 26 ca bb 66 c2 ac 3c 59 9f 3c 3c 6f 8a 07 be
       -0.0061691394 0.02108879 0.011512601 -0.13236402
0002d0 0b fa 0c bd 8c 7f 84 3c 48 29 de 3d ee e5 46 be
       -0.034418147 0.0161741 0.108477175 -0.19423649
0002e0 eb 71 78 bc 03 b7 bf 3c cd 28 ec 3c 10 ae b6 be
       -0.015163879 0.023402696 0.02882805 -0.35679674
0002f0 88 fe 5d be a1 36 d3 3e 6b b2 70 3e a6 04 7a 3e
       -0.21679127 0.41252616 0.23505561 0.24415836
000300 35 f4 18 3c f4 97 e8 3c f6 83 8c 3c c3 43 d6 bc
       0.009335567 0.02839277 0.017152768 -0.026155358
000310 f0 90 b9 3e 41 67 8e 3e ac f4 1f 3f 24 02 3c 3b
       0.3624339 0.2781315 0.62482715 0.00286878
000320 e9 a0 4a bd 51 e3 25 3e 70 47 e6 3d 91 f1 41 bc
       -0.049469862 0.16199996 0.11244094 -0.011837379
000330 99 2c 46 3d b8 b0 a3 3e 15 62 9c 3d d2 81 10 3f
       0.048382375 0.31970763 0.07635895 0.5644809
000340 6a 86 4c 3d 59 d5 47 be 9d 3b ad bf c7 08 83 bf
       0.049932875 -0.1951498 -1.3533818 -1.0237054
000350 39 47 aa be 4c ea f8 3e 33 db 47 bc 55 85 e7 be
       -0.33257464 0.48616254 -0.012198257 -0.45218912
000360 a3 16 1a be 75 ee 87 be 6c 52 1e 3b bb 9b 89 3e
       -0.15047698 -0.26549116 0.0024158014 0.26876625
000370 d7 5c cb 3c a6 e2 44 3c 63 06 67 bd 53 62 ff 3d
       0.024824543 0.012016928 -0.056402575 0.12469926
000380 53 63 36 bf f2 56 51 3e 4c 54 64 3e cf 1c c8 3f
       -0.71245307 0.20443323 0.22297782 1.5633792
000390 85 39 ca bd 2c 68 e7 bc ad 10 4b bd fd 82 d8 bc
       -0.09874252 -0.028247915 -0.04957645 -0.026429648
0003a0 cf 2e aa bc 0d 9c ab be a9 cb a9 3c 71 92 4c be
       -0.020774273 -0.33517495 0.020726996 -0.19977738
0003b0 b3 50 a0 bc c3 0a 3a 3c f9 39 e6 be 50 cf 15 3e
       -0.01956973 0.011355105 -0.44966105 0.14629865
0003c0 07 29 cb 3e 52 80 3e 3e e7 36 c6 be 4e ad e1 3d
       0.3967974 0.18603638 -0.38713762 0.11019383
0003d0 cc 8b dd 3d a4 f8 24 be 96 7e 0d 3c 0a dd d5 3d
       0.1081768 -0.16110474 0.0086361375 0.104425505
0003e0 be ec 27 bc 67 98 0c 3c da 50 31 bc 55 0b 3d 3c
       -0.010249315 0.008581257 -0.010822499 0.011538346
0003f0 fd d0 61 3d 67 f4 2a 3f 2f 07 50 be fa 18 91 bf
       0.055130947 0.6677918 -0.2031524 -1.1335747

l4.bias f4 [256]
000000 a2 a8 fc 3d fc b5 9c 3e 9c ca 49 bf a9 7d 43 bf
       0.12336852 0.30607593 -0.7882478 -0.7636362
000010 e9 0b db bd 2b ac fe be a3 85 d9 be f0 63 d6 3d
       -0.10695631 -0.4974073 -0.4248477 0.1046828
000020 84 ea 10 3e 45 0f fa 3d 68 79 80 be 81 b3 80 be
       0.1415196 0.12209944 -0.25092626 -0.2513695
000030 c1 45 20 bf 3d 41 40 3d b9 30 47 3e f2 ab 5b be
       -0.62606436 0.046937216 0.1945218 -0.2145231
000040 d6 1d 00 bf 1d 2f 18 be be d2 09 bf 16 ba 97 3e
       -0.50045526 -0.14861722 -0.5383719 0.2963416
000050 46 40 bb be 35 e2 2f 3f 81 a5 ee be ca 17 06 3f
       -0.36572474 0.6870454 -0.46610644 0.5238005
000060 45 e2 b9 be 85 03 76 be 78 3d 0a 3e 10 47 c9 bd
       -0.36305442 -0.2402478 0.13500011 -0.09828007
000070 5e 6a 24 bf e4 95 aa 3e 63 a9 35 3e 14 c1 9e 3d
       -0.64224803 0.33317482 0.17740397 0.077516705
000080 97 15 88 3e 66 b4 a0 be ae 10 77 bc 63 6a f5 3e
       0.26578972 -0.31387633 -0.01507966 0.4793273
000090 f0 45 8d 3e 42 69 dd 3e 2d 1f 91 3e 17 c4 00 3f
       0.2759242 0.43244368 0.28344098 0.5029921
0000a0 cc 72 da 3e c9 ce 8a 3e bd 2a 00 be 6c ad 48 3f
       0.42665708 0.2711089 -0.12516303 0.7838962
0000b0 83 fe 24 3f d4 46 e0 be d4 25 4c 3e 65 12 2e bd
       0.64450854 -0.43804038 0.19936305 -0.04249801
0000c0 38 c5 e1 be 08 25 aa be 4e 3f 61 be ab fd 08 be
       -0.44095778 -0.33231378 -0.21996805 -0.13378017
0000d0 b6 70 e5 be 3d 7d 50 be b3 26 e1 3e a1 bd b8 be
       -0.44812554 -0.20360275 0.43974838 -0.36082175
0000e0 35 7a 93 bd b2 c1 88 be 2e d4 8f be 1b 66 e0 3e
       -0.072010435 -0.26710278 -0.28091568 0.438279
0000f0 f9 b9 c7 3e 1b 7c 04 3f f0 97 62 be a5 62 dc 3e
       0.39009073 0.5175187 -0.22128272 0.4304401
000100 5f c0 0e be 41 78 13 be 3d bb ff 3d 2c 1b 21 bd
       -0.13940571 -0.14401342 0.12486885 -0.039332554
000110 24 db 8b 3e f3 e3 62 3e d5 02 65 bc 13 07 d8 3e
       0.2731563 0.22157268 -0.013977726 0.42192897
000120 e3 73 6e 3e 61 07 ab 3e 35 76 bc bd 42 ee e7 be
       0.23286395 0.33404067 -0.09202234 -0.45298964
000130 93 e0 23 3d 01 60 6c 3e a5 62 19 3e 2b cd 3f 3f
       0.040009093 0.23083498 0.14979036 0.74922436
000140 52 6a a6 be db 24 d1 be e2 8a 83 b8 75 23 50 be
       -0.3250299 -0.4084843 -6.272436e-05 -0.20326026
000150 5e 32 be bd 8d 2b 1f be 7f 87 9c be f9 06 63 3f
       -0.092869505 -0.15543957 -0.30572125 0.88682514
000160 6a ac 12 3e 1c c7 d5 3e b5 28 ce 3d d0 4c b6 be
       0.14323583 0.4175347 0.10066358 -0.35605478
000170 70 c9 1e 3f 4b 40 62 be a7 9f b5 be 23 24 1e 3d
       0.6202612 -0.22094838 -0.35473368 0.03860868
000180 12 a9 00 3f 4f 36 2c be 00 41 16 3f 5b 83 3d bd
       0.5025798 -0.16817592 0.5869293 -0.04626785
000190 90 d6 4b 3e 79 61 1d be 94 5c 3b 3c 2e c3 de 3e
       0.19906068 -0.15369214 0.011435647 0.43508285
0001a0 16 da a8 3d ce fb 45 bd 9a 06 22 bf 0c 66 5d 3e
       0.082447216 -0.048335843 -0.63291323 0.21620959
0001b0 4d 49 ab 3d 8c ae cd 3e 67 c2 87 be 35 2b 82 3d
       0.083635904 0.4017223 -0.26515505 0.06355897
0001c0 7d f5 cb be 3e 45 85 be 64 55 c8 3e 9a b2 cb bd
       -0.3983573 -0.2602939 0.39127648 -0.09946175
0001d0 f5 7b c2 be e2 c4 01 3f 51 98 f9 bd 7d 92 10 be
       -0.37985197 0.50691044 -0.12187255 -0.14118381
0001e0 eb 08 1f 3e 2b ea 25 3f 0c 15 c7 3e bd 92 1e 3f
       0.15530746 0.64810437 0.38883245 0.61942655
0001f0 96 50 d6 3e bc 38 8d 3e 3b ca 75 3e 38 f0 26 bf
       0.41858357 0.27582347 0.24002926 -0.65210295
000200 73 6e 29 be 58 c6 f5 bc b3 95 80 bf 2f 4a 6b 3c
       -0.1654604 -0.030001804 -1.0045685 0.0143609485
000210 95 8b e2 3d 6c b3 f8 be 98 c4 44 3f be e9 9b be
       0.110617794 -0.48574388 0.7686248 -0.3045177
000220 75 25 e4 be 34 97 02 bf d0 86 1c 3e 84 9c 13 bf
       -0.44559827 -0.5101197 0.15285802 -0.576607
000230 89 e5 d3 bd ae 66 a1 be 63 f5 0c 3f 4f 06 01 3f
       -0.10346515 -0.3152365 0.5506193 0.5040025
000240 28 03 19 3f d6 87 03 be 5f 1c 2c 3e 8c 77 c4 be
       0.5977044 -0.12844786 0.16807698 -0.38372457
000250 e8 b7 f5 3e c4 1e 3b 3e 75 43 db be 86 4c 0a bf
       0.47991872 0.18273455 -0.42824903 -0.54023015
000260 db 94 a6 be e0 f9 c0 3e 5a ec 52 be 07 ba 2a bf
       -0.32535443 0.3769064 -0.20597973 -0.66690105
000270 83 8f ba be 2d a2 09 be c9 7c 57 3e 35 62 92 bd
       -0.36437616 -0.13440771 0.21043696 -0.07147638
000280 a7 ed f8 be 3c 35 6d bd 22 db 87 3e 54 fd 6d 3d
       -0.48618814 -0.057912096 0.26534373 0.05810292
000290 e7 26 0f 3e ef aa 79 3e 6e 2c 04 3e 53 3a 63 3e
       0.13979684 0.24381612 0.12907574 0.22190218
0002a0 f6 a6 75 3a 47 cc cf bd 02 e3 14 bf af 8c 9a 3e
       0.00093708874 -0.10146385 -0.58158886 0.30185458
0002b0 4a 70 98 bc 61 bc 2c bd b6 14 19 bf 5b 30 36 be
       -0.018608231 -0.04217184 -0.5979723 -0.17791884
0002c0 f0 44 98 3d 45 47 ba 3e 09 1b 3b bf 68 03 31 3e
       0.07435024 0.363825 -0.7308813 0.17286456
0002d0 04 e7 12 bf 0b 86 da 3b 16 05 0c 3e 0b 12 57 3f
       -0.5738375 0.006668811 0.13673815 0.84011906
0002e0 82 a3 ad 3e b4 92 bf be 00 63 4a bc d0 a8 0b 3e
       0.3391381 -0.37416613 -0.012352705 0.13638616
0002f0 9e e0 b0 bd 84 d2 0d bf e1 e7 c9 3e 68 9e e9 3d
       -0.08636592 -0.55399346 0.39434722 0.11407167
000300 d5 58 96 3e 6a e3 31 be 30 f8 56 3e 3c f2 2a 3e
       0.29364648 -0.17371908 0.20993114 0.16693968
000310 f1 1e d9 3e f6 aa 47 bc 61 96 d3 3e 46 69 83 3e
       0.4240642 -0.012186756 0.41325668 0.25666255
000320 e8 a8 92 3e 16 90 41 3e ee 18 04 3d 15 4c e7 3e
       0.2864449 0.1890262 0.032250337 0.45175233
000330 70 7f 94 3e f6 59 e1 3e 62 02 ac 3a f8 1f 0e 3f
       0.29003477 0.44013947 0.0013123269 0.5551753
000340 06 ce 76 3e f0 f8 5d be 92 25 8f be 90 c6 6b 3f
       0.24102029 -0.21676993 -0.2795835 0.9209986
000350 32 f4 c1 3d ec 40 01 bf 54 62 f2 3d a1 ff 5f 3e
       0.09470405 -0.5048969 0.11835161 0.21874858
000360 b9 38 bd be a0 6d b9 3e 29 f4 1d bf 23 ec 4d be
       -0.36957338 0.3621645 -0.61700684 -0.2010961
000370 eb 4f 82 3e ff b9 87 3f dd a7 16 3e 25 48 2d be
       0.25451598 1.0603637 0.14712472 -0.16922052
000380 b1 04 09 bf 94 1a 25 bf 40 e2 33 3f e2 14 08 bf
       -0.53522784 -0.6449368 0.70267105 -0.53156865
000390 fb 77 02 3e 23 62 98 be 08 88 1e 3e bd 3b 19 3f
       0.12741081 -0.29762372 0.1548158 0.5985678
0003a0 cc b4 b0 bd cd 8a 31 be eb 19 84 be 10 04 50 3e
       -0.08628234 -0.17338105 -0.25801024 0.2031405
0003b0 80 5a 18 bf aa 21 f1 3e 4d 82 f9 3e 2b 56 ec 3e
       -0.5951309 0.47095996 0.48732224 0.4615949
0003c0 3d 3c 59 bd aa 3d d8 3e c5 38 a2 be 39 7b a7 3d
       -0.053035963 0.42234546 -0.31683937 0.081778
0003d0 fc 80 ea 3e 3b de 10 3e 06 df ee 3e a3 fb c6 3e
       0.45801532 0.14147274 0.46654528 0.3886386
0003e0 6e 04 4a 3f a4 af 9c 3e 7d b7 22 3f 43 dd 77 bd
       0.7891301 0.30602753 0.6356123 -0.060513746
0003f0 77 2b 94 3d ab 2b e9 be 4d 1e 0e bf 6c a5 07 be
       0.07234853 -0.4554113 -0.55514985 -0.13246697
