HardcoreVersion/critic/ppo_q_critic6500.pth (torch, 592130 bytes, 10 tensors)

l1.weight f4 [256, 28]
000000 b5 41 8d 3e 86 d2 b3 be c5 01 8c be 9c 3c 76 3c
       0.27589193 -0.35121554 -0.273451 0.015029099
000010 69 4f 86 bd 1d 4c ad bb 98 bf fb bd 3a ca b3 3b
       -0.06558115 -0.0052886144 -0.12292403 0.005486754
000020 45 80 8e 3c bd 60 c8 3e 54 5e 2d 3d 6c 7d 99 3d
       0.017395148 0.39136305 0.042326286 0.074946254
000030 cd b1 ee 3b 1a 59 c2 3b 73 3a ba bc 16 f5 9d 3e
       0.007284379 0.005931032 -0.022732949 0.30851048
000040 fd 4c 09 3f 52 8d 7d 3e 65 24 30 3f 40 25 9d bd
       0.536331 0.2476094 0.68805534 -0.076731205
000050 ba b5 8b bf 73 1d 92 3e d6 b3 b0 3d 0f 0a 1b bf
       -1.0914834 0.28538093 0.08628051 -0.60562223
000060 22 96 35 3c 4f 2e a2 bc 88 29 12 3d 41 43 8a 3c
       0.011083158 -0.019797472 0.03568414 0.016877772
000070 5e 7b 5e 3c c9 8e a2 3d ef d4 15 3e e8 af 02 3e
       0.013579218 0.0793739 0.14632009 0.12762415
000080 97 ca 53 be 97 9a 6b 3d 56 71 9e bd a0 93 0d 3d
       -0.2068275 0.057520475 -0.07736461 0.034564614
000090 02 9c e9 ba 10 05 35 3e 8a f1 a6 3d 49 4f bf 3d
       -0.0017822983 0.17677712 0.08151539 0.09341294
0000a0 0a 27 ed 3c 64 cc e4 bc 2d 92 88 be 80 2f e6 be
       0.02894928 -0.027929492 -0.26674023 -0.44958115
0000b0 ba 8a 5a bc c6 0f 91 be bf ae aa 3e 0d c7 c6 be
       -0.013338739 -0.28332347 0.33336446 -0.3882374
0000c0 27 0b bb 3e d2 25 23 3e 00 74 0c 3f 0f 1f da be
       0.36531946 0.15932396 0.548645 -0.4260182
0000d0 48 a9 1b 3c c5 53 07 3d 95 d3 65 3d 0d 9a 99 3c
       0.009500809 0.033038873 0.056109983 0.018750215
0000e0 31 89 9a 3f f5 39 e3 3f c7 7f a1 3e 62 52 03 c0
       1.2073117 1.7752062 0.315428 -2.0519032
0000f0 0c e0 4a 3f e9 ef 3c 3e ea ed a3 bd f6 c5 28 3d
       0.7924812 0.18450893 -0.08004363 0.041204415
000100 70 16 18 bd 70 fd 0d bd cc e5 0e bd 7b 03 2f 3d
       -0.037130773 -0.034665525 -0.03488712 0.04272793
000110 48 94 81 bc 47 ad db bc b1 0e 33 be 58 57 73 3e
       -0.015817776 -0.026816024 -0.17486073 0.23763788
000120 3e d2 f2 3c ce 2a b3 ba b1 67 81 be d2 c8 48 be
       0.029641267 -0.0013669373 -0.25274423 -0.19607857
000130 37 fa 48 be 95 a6 8c be f4 9e 62 be 09 ef 29 bd
       -0.196267 -0.27470842 -0.22130948 -0.041487727
000140 06 3c 7c 3d d0 00 8e bd de 4a 95 bb 9a a6 02 bd
       0.06158068 -0.06933749 -0.004556044 -0.031897165
000150 14 6c 86 3e a1 86 ef 3d bf d7 a0 3d f2 63 af be
       0.26254332 0.116956 0.0785365 -0.3425594
000160 68 a2 8b 3d b1 5b 4f 3b 51 ef 80 3c a9 16 8a 3b
       0.06818086 0.0031640346 0.015739115 0.004214127
000170 57 60 31 3a 39 9d 6e 3d 4d 15 50 3b fe 40 13 bd
       0.000676637 0.058255408 0.0031750978 -0.035950653
000180 6f f2 30 b9 bc 51 ba 3c db 9f fb bd 75 e1 0e be
       -0.00016874982 0.022744052 -0.122863494 -0.13953193
000190 95 99 88 3d 1f e4 86 3e be 9a f0 bd 5f 15 68 3d
       0.066699184 0.26345918 -0.11748265 0.056661006
0001a0 5e 20 48 3f 88 4f 59 3e e7 51 0b 3f 9c 0a 25 bf
       0.7817439 0.21221745 0.5442185 -0.64469314
0001b0 ac 85 8f 3b b9 f2 34 bb 6f a0 42 3b 9e ff c9 bc
       0.0043799486 -0.0027610494 0.0029697677 -0.02465802
0001c0 7c 71 b8 bd 9d 04 b5 3f 55 f8 a5 be e7 78 65 3f
       -0.090060204 1.4142033 -0.32416025 0.8963761
0001d0 a1 46 38 3c 19 3b f7 3c fa 8f 17 3d b4 1f d0 3a
       0.011247308 0.030179547 0.03700254 0.0015878589
0001e0 cf 8d fd bc 3a da a1 3d 30 2a 43 3d 38 78 08 be
       -0.030951409 0.079029515 0.047647655 -0.1332711
0001f0 40 e3 92 bc d7 5f 61 3d 07 0d 03 bf 85 62 9a be
       -0.017930627 0.05502304 -0.51191753 -0.3015329
000200 0c 4d 98 bd 13 a6 48 bf 21 40 a5 bb c9 9c 32 3f
       -0.074365705 -0.7837841 -0.005043045 0.69770485
000210 2e 93 49 3e d4 51 71 be f6 c7 08 3e f0 11 e7 3e
       0.19685051 -0.23566371 0.13357529 0.45130873
000220 74 d8 2d bc f6 a1 77 bc 56 c9 9c 3c d7 43 a5 bc
       -0.0106106885 -0.015114298 0.019138973 -0.02017395
000230 11 ee 36 3e a7 a9 07 3f 22 44 93 be a1 1b 0c bf
       0.17864253 0.52993244 -0.2876292 -0.5472966
000240 15 34 33 3d f7 75 c1 3c 10 b0 47 be d5 11 5b 3d
       0.04375084 0.02361582 -0.19500756 0.053483803
000250 43 06 0e 3d 12 80 69 3e c1 10 18 3d 25 bd c0 3d
       0.03467394 0.22802761 0.037125353 0.094110765
000260 90 a0 d6 3c be 6a fa 3c 9d a8 81 3e 6f d4 82 39
       0.026199609 0.030568477 0.25323954 0.00024953808
000270 6d 7e f9 3d 0b 53 36 3d ca 54 86 be 6f 8a 06 be
       0.12182317 0.04451279 -0.26236564 -0.13138746
000280 73 86 9b 3b 35 0a f7 3e 12 44 17 3e a9 82 46 3e
       0.004746252 0.48249975 0.1477206 0.1938578
000290 86 b0 d0 3c 68 fd 8e bd 61 a9 c4 3c a6 b2 76 3c
       0.025474798 -0.06981927 0.024006547 0.015057242
0002a0 c2 a9 a4 be 0d ea 83 bd 65 b7 ef be f0 0c 50 bf
       -0.32160765 -0.06441126 -0.46819606 -0.8126974
0002b0 9c c9 f1 3e 57 bd 75 bd 15 bb 25 be dd 4f 64 bc
       0.47224128 -0.05999502 -0.16184647 -0.0139350565
0002c0 e2 ca 9d bc f3 34 7c 3e 8d 41 8f 3d b8 7e 55 3f
       -0.019261781 0.24629574 0.06994925 0.8339648
0002d0 65 90 d1 3d fc f6 0f 3c 36 de 00 bf 61 79 27 bf
       0.10232619 0.008786913 -0.50339067 -0.65419585
0002e0 0a c4 3a bf b9 12 94 be 3d 88 a6 be 95 ca 5a be
       -0.7295538 -0.28920534 -0.32525817 -0.21366341
0002f0 8b f9 c7 bd 30 63 33 3e c4 a6 0b bd 7c 1b 9a 3e
       -0.097643934 0.17518306 -0.034094587 0.30099094
000300 28 8f a3 3c 05 b8 6a bd c4 48 61 b9 b0 0f d3 3d
       0.019965723 -0.0573044 -0.0002148478 0.103057265
000310 39 a5 79 3e aa 37 ee bf 59 e0 9b 3e 46 5c e9 3f
       0.24379434 -1.8610737 0.304446 1.8231285
000320 fe 98 ac 3e bc 33 1e bd 73 7d ce bc 56 fa f0 bc
       0.33710474 -0.038623556 -0.025206303 -0.029416244
000330 e1 d4 ef ba 9f c8 f6 3d 5d d2 da bc 47 fd 41 3e
       -0.0018297696 0.12049984 -0.026711637 0.18944274
000340 b1 2d db bc 80 07 5f bc c3 c7 4f 3d d0 72 4d 3a
       -0.026755186 -0.013612628 0.050727617 0.0007837238
000350 ba 61 68 bd 5e 8b 39 bf 16 38 01 bf d0 ff ef 3e
       -0.056733824 -0.7247828 -0.50476205 0.46874857
000360 bf 4f a5 be b7 0f a9 be b2 b1 83 3d 05 89 76 3e
       -0.32287404 -0.33019802 0.06430377 0.24075706
000370 cd e8 6a 3b 68 14 12 bc 31 1d 8b 3c 05 ae 51 3d
       0.0035844326 -0.008915998 0.016981693 0.05119135
000380 64 ca d0 bd 91 37 20 3f 4c 5f 79 3f c1 0f 49 bf
       -0.10194853 0.6258479 0.97411036 -0.78539664
000390 36 d5 2f 3b 72 67 4e b9 c7 60 eb be bd c3 0c 3c
       0.0026829964 -0.00019684227 -0.45972273 0.0085915895
0003a0 fe e8 bc 3c a5 7d 0b bd 6c f7 5c bc 1e 18 77 bc
       0.023060318 -0.03405537 -0.013486724 -0.015081434
0003b0 2a 56 9a bc 0d 82 29 bd 69 5f e7 be fa 3c 09 bd
       -0.018839914 -0.04138379 -0.4518998 -0.033505417
0003c0 f2 95 f3 be 25 36 06 bc b8 7c cd 3e 1b 22 79 bd
       -0.47575337 -0.00819162 0.40134215 -0.06082354
0003d0 13 fe aa be 49 78 d7 be 55 2d c2 3c 04 12 59 3e
       -0.33396968 -0.42083958 0.023703257 0.21198279
0003e0 66 ba 02 bd ee 36 80 bd 20 b5 0b bd bf f9 00 bc
       -0.031916045 -0.06260477 -0.03410828 -0.007872044
0003f0 b9 4d 3e 3e 92 7a c3 bf 28 de 95 be 59 57 ba 3b
       0.18584336 -1.527178 -0.29271054 0.005686682

l1.bias f4 [256]
000000 cc e9 58 3e 24 43 19 3c e4 64 94 3d fa 52 3f bf
       0.21182936 0.0093543865 0.07245806 -0.7473599
000010 d8 13 7a bc a2 8f c7 be 8c 6e eb 3e d5 08 c3 3e
       -0.01526352 -0.3897677 0.45982778 0.38092676
000020 b3 93 f2 3d f7 0d 2c bd 06 66 da 3e 35 77 da bc
       0.11844578 -0.042005505 0.42655963 -0.02666817
000030 ea fc 08 3f 94 17 f0 3e bc e1 02 3e 70 ca 85 bd
       0.53510916 0.4689299 0.12781423 -0.065327525
000040 fd 6c 06 3f c2 92 af 3e 73 e6 32 3f 61 a0 c7 be
       0.5251005 0.34291655 0.6988289 -0.38989547
000050 c9 5d 23 3f ea f8 17 bf f7 52 b1 bd 2b b5 cc 3d
       0.6381498 -0.5936419 -0.086584024 0.099954925
000060 a3 60 fd 3d 3f 06 99 bd 0a ab 11 3e f3 46 11 be
       0.123719476 -0.074718945 0.14225402 -0.14187221
000070 a6 22 af 3e 59 62 92 3e a4 f4 ad be 50 dd f2 3e
       0.34206122 0.28590658 -0.33975708 0.47434473
000080 8b a5 b9 be 88 14 91 bd e0 82 40 bd d0 b0 d8 bc
       -0.36259112 -0.07083994 -0.046999812 -0.026451498
000090 ce 96 1c 3e 07 a1 16 3f 9f 37 21 3f c8 de 97 3d
       0.15291902 0.5883946 0.62975496 0.07415539
0000a0 3a 34 bf be 07 3b f3 bd 35 5d 24 be 8c 56 18 bf
       -0.37344533 -0.11876493 -0.1605118 -0.5950706
0000b0 aa ed 62 be fc 29 64 be 6f 66 59 3f 89 f4 d4 bc
       -0.22160974 -0.22281641 0.84921926 -0.02599551
0000c0 a4 8c 60 3e e9 d3 c7 3e a5 13 47 3f 64 08 b3 3e
       0.2192865 0.39028862 0.7776435 0.3496734
0000d0 8e 1d d2 be 4c 34 68 3e 65 4b 16 bf 2d a2 c9 3e
       -0.41038173 0.226762 -0.5870879 0.39381543
0000e0 b8 a2 d9 3e d4 9a b3 be 1d f4 37 be e5 ed f8 bd
       0.42506957 -0.35079062 -0.17964216 -0.1215475
0000f0 e4 a0 8b be 0d bb 09 bf b7 8d a5 bc b0 5b 20 bd
       -0.27271187 -0.5380104 -0.020209176 -0.03914994
000100 60 e2 99 be f2 c9 ff be 3f 70 e2 3d 7b c8 a8 be
       -0.30055523 -0.4995876 0.110565655 -0.32965454
000110 09 23 54 bd f3 ab b3 3e a0 d8 06 bf 6f 51 9f be
       -0.051791225 0.35092124 -0.52674294 -0.31116816
000120 5a 5b 8c 3e 6c fc bb be b7 10 29 3d 4d 34 f6 bc
       0.27413446 -0.3671602 0.041275706 -0.030054236
000130 57 f9 2a 3f 07 6c 49 3f 84 f6 f2 3e 7f 4f af 3e
       0.6678671 0.7868046 0.47453701 0.34240338
000140 93 d6 a6 be e0 0f 76 be 39 22 ab be 68 42 00 3f
       -0.32585582 -0.24029493 -0.33424547 0.5010133
000150 b5 58 15 bf c9 33 cd 3d 7e 67 4c bd a0 50 13 be
       -0.5833848 0.10019643 -0.049903385 -0.14386225
000160 ec fc c4 bd a1 90 3b 3f 77 2b ac 3e 78 67 21 be
       -0.096185535 0.7326756 0.3362691 -0.15762126
000170 44 2f 0a 3e 24 33 b9 bd 2e ad 07 bf 21 eb 27 3e
       0.13494593 -0.090429574 -0.52998626 0.16398288
000180 a0 6d dc be 68 9c 41 3e 7e 87 1b be da a3 a0 be
       -0.43052387 0.1890732 -0.15188405 -0.3137501
000190 b9 e8 0a bc d0 19 2c be 75 b6 65 be a4 51 9a 3e
       -0.008478337 -0.16806722 -0.22432883 0.30140412
0001a0 6d dc a0 bd 4b 82 5b 3e af db 97 be 08 b5 2f be
       -0.07854543 0.21436422 -0.29659793 -0.17158902
0001b0 52 0b 43 3f ba 1b 99 be 80 e3 69 be 55 5a 22 be
       0.7618915 -0.29903966 -0.2284069 -0.15854771
0001c0 5c 19 5a be d7 47 8d bd a7 cb 30 be 48 e8 0c 3f
       -0.21298736 -0.06898468 -0.17265187 0.55041933
0001d0 10 67 91 be ff 62 e7 3e 1b 29 ac 3d 5c fe 31 bc
       -0.28398943 0.45192716 0.08406278 -0.010863867
0001e0 75 97 0f be 80 46 1c 3f b3 c7 ca 3e 08 8f ca be
       -0.1402262 0.61045074 0.39605483 -0.3956225
0001f0 5f 24 04 3f 6e ff 83 be 78 ca 44 bf 66 d5 80 be
       0.51618 -0.25780815 -0.7687144 -0.2516281
000200 06 0b b6 3e 0c 47 15 3f 6a 4c bc be 95 58 6c 3e
       0.35555285 0.58311534 -0.3677705 0.23080666
000210 ec 21 12 3f f6 46 8b 3e b5 1f 47 3e 5b 76 63 be
       0.5708301 0.27202576 0.19445689 -0.22213118
000220 f2 be f9 be eb 70 c7 be 4a d8 26 3e 69 d9 1c 3f
       -0.48778492 -0.38953337 0.16293445 0.6126924
000230 5c df 89 3d 22 47 30 bf 55 aa ad bc a5 6a 7f be
       0.067320555 -0.6885854 -0.021199385 -0.24943025
000240 f2 fc b9 3d 49 5a 86 3c 9c 60 19 bf 6c 19 dc 3e
       0.090814486 0.016400473 -0.5991304 0.42988145
000250 2f 81 bf 3e 29 36 7a be 0f eb cd bd e7 4a fd bd
       0.37403247 -0.24434723 -0.100545995 -0.12367802
000260 80 48 2a 3e 3b b3 20 3f 25 b8 8f be 03 c2 26 bd
       0.16629219 0.62773484 -0.2807018 -0.040712368
000270 60 6b 04 3e 51 da 1b bf 63 d1 56 bf ab cf d6 3e
       0.12931585 -0.6088 -0.8391325 0.41955313
000280 b0 37 16 be fd c9 26 3f 9c dc bb be 64 35 0c 3f
       -0.1466968 0.6515196 -0.3669175 0.5476897
000290 cd 4b 07 3d dc f7 c0 3e 69 36 ed 3e b0 a0 df 3e
       0.033031274 0.37689102 0.46330574 0.43677282
0002a0 60 54 f6 3e d2 d5 2f be e3 7a 39 be 3a c7 84 3d
       0.48111248 -0.1717141 -0.18113284 0.06483312
0002b0 e7 72 3d 3d e0 70 05 bf 51 84 e4 be 0c c3 63 3e
       0.046252158 -0.5212536 -0.446322 0.22242373
0002c0 d4 cd e7 be fc 46 a0 3e 34 48 bc be 31 bf ff bc
       -0.45274222 0.31304157 -0.36773837 -0.031219097
0002d0 8d 68 15 bf f6 42 de be 4f 27 2f 3f 1b ac a4 be
       -0.58362657 -0.43410462 0.68419355 -0.32162556
0002e0 59 32 9d 3e 9e ee 4a be 86 6a 08 3e 98 2c ce 3d
       0.30702475 -0.19817588 0.13321885 0.10067099
0002f0 70 50 dd be 68 90 dd 3e 6f 5e e1 be e2 0f 37 3e
       -0.4322543 0.43274236 -0.4401736 0.17877153
000300 42 8e 13 3e 59 91 87 3d cc da e3 be 16 d8 23 3f
       0.14409736 0.0661952 -0.44502866 0.64001596
000310 72 9a e8 be a7 39 88 be 51 fa b6 3e e6 5f 4e be
       -0.45430332 -0.26606485 0.3573785 -0.2015377
000320 3b 13 5d be 53 a5 5f 3d 75 f5 4e 3e 72 0a 8c 3e
       -0.21589367 0.054601025 0.20210822 0.2735172
000330 a0 0f 90 3e cd a7 94 3e 82 1c f2 be 3c 7f bf be
       0.2813692 0.29034272 -0.47287375 -0.3740176
000340 95 39 02 3f cc 68 eb 3c e7 f0 fe 3b d1 e8 bb 3e
       0.50869113 0.028736494 0.0077801826 0.36701062
000350 5f 85 cf be 3c c7 ed 3d 09 4b 8b 3e 78 df 4b be
       -0.40531442 0.116102666 0.27205685 -0.19909465
000360 84 c1 0a be e1 9d 14 3f 62 f8 e9 be 6e ce f0 3e
       -0.13550383 0.58053404 -0.45697314 0.47032493
000370 77 d3 09 be 63 54 88 bd 2d cb ae be 10 09 78 3e
       -0.13459574 -0.066567205 -0.34139386 0.24222207
000380 ed 15 10 3e aa ce 1d bf 11 0c 11 be ec c1 10 be
       0.14070864 -0.6164347 -0.14164759 -0.14136475
000390 09 5a 96 3d 30 8a c4 3e 14 fb 3b 3e 24 a5 cc bd
       0.073413916 0.3838668 0.18357497 -0.099924356
0003a0 32 e7 81 3e bc 48 02 be 1e f3 b2 3e e3 db fb 3e
       0.253717 -0.12723058 0.3495111 0.49191198
0003b0 f9 cd f2 3e 9a f3 23 3f 86 d1 3c 3e 0a 0b 44 be
       0.4742277 0.6404358 0.18439302 -0.19144836
0003c0 5c 7e 80 3e a7 6e f9 bd 49 1f 02 3e 51 64 55 3e
       0.25096405 -0.121793084 0.12707247 0.20839049
0003d0 6a 27 b0 3e 8e 4e 86 bd 6f bf 2d 3f 8e f2 3d 3d
       0.3440507 -0.06557952 0.6787023 0.046373896
0003e0 5a be 96 be c8 98 b0 3e 09 93 d5 be 07 77 1f be
       -0.29442102 0.34491563 -0.4171374 -0.15572749
0003f0 46 76 e7 3d 65 e7 66 be 45 ad c1 3d 72 45 a1 be
       0.11301856 -0.22549208 0.09456877 -0.31498295

l2.weight f4 [256, 256]
000000 11 be 45 bf f4 40 81 be 66 e9 ab be 02 8b 03 bf
       -0.77243143 -0.25244868 -0.33576506 -0.51383984
000010 f1 24 f0 be 7b 8c 62 bd 92 db 0c 3f 1e ff 70 3c
       -0.46903184 -0.055309754 0.5502254 0.014709262
000020 47 dc 9e 3e 6c 12 0b 3f e5 4a ff 3e c5 e6 97 3d
       0.31027433 0.54324985 0.49861827 0.07417063
000030 5d 6b ab 3e 80 3d 59 3d ac d8 e2 3d 59 26 fa 3e
       0.3348035 0.053037167 0.11076483 0.48857382
000040 f6 47 b9 be eb d2 de 3e ac 5d a2 3e ab 13 59 be
       -0.36187714 0.43520293 0.3171209 -0.21198909
000050 36 d0 e6 3d 6b 04 d2 be a6 06 99 3d 57 aa d2 bd
       0.11270182 -0.41018996 0.07471971 -0.10286396
000060 ae df 95 bf 9d 5b 19 be 6a 70 13 bc 52 11 cd be
       -1.1708887 -0.14976354 -0.00899897 -0.40052277
000070 31 9c a1 3e 96 c8 2d be 59 8a f4 be 3a af 64 3e
       0.31564477 -0.16971049 -0.477618 0.22332469
000080 1e 0d ab be 8b d0 03 3f d1 ec 66 3e 27 fb ec be
       -0.33408445 0.51490086 0.22551276 -0.46285364
000090 65 79 c9 3e 9a 5c 13 be 2f e1 e9 bd 04 0f 86 3e
       0.3935043 -0.14390793 -0.114199035 0.2618333
0000a0 b3 dc 8b be 15 cd 02 3d 2c 59 2e bf ba db 2e 3f
       -0.27316818 0.031933863 -0.68104815 0.68304026
0000b0 5c 24 fb 3d 0d 89 bd be ae d0 37 bd 12 f7 82 bc
       0.122627944 -0.37018624 -0.044876747 -0.015986953
0000c0 93 6c a6 3e a5 3b 3a 3e f7 03 91 3e 84 c2 7f 3d
       0.3250471 0.18186815 0.28323337 0.062441364
0000d0 cc 2d e0 3d 01 86 3c 3f 2f e8 7f bf 60 1d 15 3f
       0.10946235 0.73641974 -0.9996366 0.5824795
0000e0 32 51 80 3e ef 7d 13 be e4 6d ca 3d 25 48 a7 be
       0.25061947 -0.14403509 0.09884241 -0.3267223
0000f0 50 44 14 be c9 e1 c4 be 2d 07 89 be 48 2f 00 bf
       -0.14479184 -0.3845351 -0.26763287 -0.50072145
000100 41 da da 3d b7 07 1e 3d de e7 7d bf de b1 67 3e
       0.1068616 0.038581576 -0.99181926 0.22626445
000110 fc 89 2d 3f 84 8d 97 3e fa 65 06 be 54 f5 28 3f
       0.6778867 0.29600155 -0.13124838 0.6599934
000120 dd e1 a7 bb 09 4d 0b 3e 50 94 14 bf ed 10 55 be
       -0.0051233605 0.13603605 -0.58038807 -0.20807238
000130 ba 12 95 3e 0f 84 9c 3e 14 41 60 bd 34 1b 2b 3e
       0.2911585 0.30569503 -0.054749563 0.16709596
000140 bd 7a 4a bd 8d 4d ad be b2 d4 2e be ad 9e 1e 3e
       -0.04943346 -0.3384823 -0.17073324 0.15490218
000150 6c 39 21 be 42 2d d3 bd 83 ee 6f 3d 66 9e 71 be
       -0.15744561 -0.103113666 0.058577072 -0.2359558
000160 65 b6 43 3d eb 44 c8 3e 8d 8f 77 be 80 a4 5e 3e
       0.047781367 0.3911508 -0.24175854 0.2174244
000170 09 b3 f4 3e 7f 73 ee 3d a9 a3 68 bc d6 be c3 be
       0.47792843 0.11643123 -0.014199176 -0.38231534
000180 cb 9a 8f be e3 d8 39 3e 32 99 94 3c e5 71 a2 be
       -0.28047785 0.18149142 0.018139455 -0.3172752
000190 c8 4f dd 3e 81 b9 79 be fe 4b 14 be f7 55 2b bd
       0.4322493 -0.2438717 -0.14482114 -0.04183003
0001a0 64 dd 27 be 7b 61 0e be 77 22 b7 3e 7a 87 2c 3e
       -0.16393048 -0.13904373 0.35768482 0.16848555
0001b0 e5 e8 32 3f a5 7f 6c bc 06 aa 2b be 5c 37 cf 3d
       0.6988662 -0.01443473 -0.16764078 0.10117981
0001c0 1f 2c 56 3e fe 60 90 bd 99 b2 5a 3e ab 06 1e bf
       0.20915268 -0.0704975 0.21357192 -0.61728925
0001d0 9e b6 bd 3e 59 e9 1f 3e f5 f7 ce 3e 44 4d 1a 3d
       0.37053388 0.15616359 0.4042355 0.037671342
0001e0 59 a4 cc 3a a1 b0 29 3e 40 c2 db be 43 3a 89 be
       0.0015612944 0.16571285 -0.42921638 -0.26802263
0001f0 93 0b 78 bd ea 02 c0 ba 21 27 43 3c fb 80 19 c0
       -0.060557913 -0.0014649306 0.0119111845 -2.3984973
000200 c6 3f 32 3e a6 8d 54 3f 05 0a ba bf a9 b3 27 3b
       0.1740714 0.8302864 -1.4534308 0.0025589264
000210 e5 71 39 3f 5f 45 46 3f 46 41 24 3f 1b 1e 97 3e
       0.72439414 0.774496 0.641621 0.29515156
000220 10 47 dc 3d 23 1c f1 39 76 8a f0 be 80 0d 2d bf
       0.107557416 0.00045988066 -0.46980637 -0.67598724
000230 d4 ba 7e 3e 28 99 19 be d6 7d 0f 3f e7 9e e8 3d
       0.24875957 -0.1499983 0.56051385 0.11358433
000240 2d 47 6b bf cc b9 d4 be 75 dd 9c 3d 13 cb 90 3e
       -0.9190548 -0.41548002 0.07659427 0.28279933
000250 52 01 88 3d 0f a3 f3 be fe fb 0a bf 04 14 f8 bd
       0.06640877 -0.4758534 -0.5429076 -0.12113193
000260 74 e9 48 3f 42 8d 10 3e a6 37 81 be 17 77 0b 3e
       0.7848122 0.14116386 -0.2523777 0.13619648
000270 c5 f7 4c be be a6 56 be d4 a5 85 bd f6 d7 a0 3d
       -0.20016392 -0.20962045 -0.0652577 0.07853691
000280 20 76 90 be 4e d0 b6 be e5 45 8c 3c 2f 48 0d bf
       -0.28215122 -0.357058 0.017123172 -0.5518827
000290 03 54 9b be 36 b1 1f 3f f0 31 f4 3d 53 61 89 3e
       -0.30337533 0.6237978 0.11923587 0.26832065
0002a0 c9 9e de 3d 89 6a 20 3e f4 8a 85 3e 6b bc e3 be
       0.108701296 0.1566564 0.26082575 -0.4447969
0002b0 11 46 a8 be de d2 61 be 12 35 55 be 5d 27 ab be
       -0.32865956 -0.22053096 -0.20821026 -0.3342847
0002c0 e3 b1 b4 be f2 d9 a5 3e d3 c7 48 3d 1e 6f 0a 3e
       -0.35291967 0.32392842 0.049018692 0.1351895
0002d0 07 07 01 bf 70 a1 72 be 03 78 88 bc 04 f5 f1 3d
       -0.5040135 -0.23694396 -0.016658789 0.11814311
0002e0 36 7a b7 bd 83 e8 6e bf dc 56 f8 3d 48 c4 23 be
       -0.08958857 -0.93323535 0.12125942 -0.15992844
0002f0 40 55 c8 3d f4 02 d3 be 14 f4 78 be aa 7f 32 3e
       0.09781885 -0.4121319 -0.24311858 0.17431512
000300 14 3f c3 be 1b d0 fd 3d b8 8c 20 bf 6a 81 bc 3d
       -0.38134062 0.123932086 -0.6271472 0.09204371
000310 1a 43 16 3f 38 09 0a bd cb 6b 1f be c4 36 fe 3d
       0.5869614 -0.033700198 -0.15568464 0.124127895
000320 3c 9e 0f 3c 4b cb b1 be cb c3 01 bc 4d a9 94 3d
       0.008765753 -0.34725413 -0.007920216 0.07258854
000330 9f 68 14 3f 7d ac 6e 3d a1 17 86 3f 3a 89 a8 bd
       0.5797214 0.058269966 1.0475961 -0.08229299
000340 6c 5b 97 3e 89 08 e1 3d 4f c4 68 be 78 4c dd 3e
       0.29561937 0.10987956 -0.22731136 0.43222404
000350 1e a1 04 be 6b 7e 0e bb b3 de fd 3e 76 d0 32 be
       -0.12952086 -0.0021742831 0.4958397 -0.17462334
000360 49 3b c2 bd eb d3 b7 be 03 bc fe bc 30 31 8d 3d
       -0.09483964 -0.35903868 -0.03109551 0.068941474
000370 d4 a2 26 3e ff 67 cb bd 68 8d 9d be 10 9c df be
       0.16273052 -0.09931945 -0.30771947 -0.43673754
000380 83 a6 10 bf e6 c1 a7 3d fb e8 e2 bd 05 a8 7d 3e
       -0.56504077 0.0819128 -0.11079594 0.24771126
000390 7d 17 d1 3e 45 67 52 3e 53 0b e6 3a 86 96 8e bf
       0.40838233 0.20547207 0.0017550982 -1.1139686
0003a0 2d 36 df 3e f0 a8 d0 bf 7e ec 05 3e d6 00 e1 3f
       0.4359602 -1.6301556 0.13078496 1.757838
0003b0 c9 05 00 be 2f ec 7a 3f c5 93 5a be 19 8a 64 bc
       -0.12502207 0.9801664 -0.21345432 -0.013948941
0003c0 11 43 13 3f e0 c5 6e be d9 23 f7 3c 20 1f 3a 3e
       0.5752421 -0.23317671 0.03016846 0.18175936
0003d0 a3 cc e9 3d f4 bb 3f be ba b7 d6 3e 5f ef 66 3d
       0.114159845 -0.18724042 0.41937047 0.056380626
0003e0 74 bb 2f 3e d2 35 08 3f 7c 48 43 bf 64 41 5e bd
       0.17161351 0.53207123 -0.7628248 -0.05426158
0003f0 a4 b6 c1 be c8 14 b0 bc af ca 91 3e 7f 79 c7 bd
       -0.37834656 -0.021494284 0.28474948 -0.097399704

l2.bias f4 [256]
000000 93 a3 8c 3d 2e f2 f2 3c ef 38 dd 3c 6b 20 08 bc
       0.06867137 0.029656496 0.027004687 -0.00830851
000010 a4 e0 d2 bb 55 91 ab bd d5 df 80 3d 53 ca 7e be
       -0.0064354707 -0.08377329 0.062926926 -0.24881868
000020 2d 58 05 3e 4e 2c bb 3d 00 3f 12 3e 96 cf 1e 3e
       0.13021918 0.0913931 0.14281845 0.15508875
000030 d9 e4 b6 bd 49 f6 b0 bd 1b 1f 47 3e 28 52 ed be
       -0.08930368 -0.08640725 0.1944546 -0.46351743
000040 b8 e8 b2 be 2a c3 02 be 59 ad 53 3e 34 c4 65 bd
       -0.34943175 -0.12769762 0.20671596 -0.056095317
000050 94 7e 3d 3c f7 81 b3 3d 63 c8 97 be 43 80 ed bc
       0.011565823 0.08765023 -0.2964507 -0.028991824
000060 9e e3 07 be 1c c2 81 3e 98 43 6e bd b8 55 71 be
       -0.13270423 0.25343406 -0.05816993 -0.23567855
000070 f9 d7 6e bc 4e 49 04 bd 0a b8 94 bd 4e 0e 94 bd
       -0.014577859 -0.03229647 -0.07261665 -0.07229291
000080 b3 d8 34 3d c0 7f 3e bc 5d f7 81 bd 4e 11 ab bd
       0.044151973 -0.011627138 -0.06346009 -0.0835291
000090 55 68 8c 3e 90 3c 16 3e da c9 01 3e c7 46 8e bd
       0.2742335 0.1467154 0.12674657 -0.069470935
0000a0 49 e5 9e bc ca 4d 87 bc f3 88 f8 bd ac d6 5d 3d
       -0.019396441 -0.016516585 -0.12135496 0.054159805
0000b0 b6 83 40 be 6d d2 44 3d 62 07 d7 3d 00 81 e4 3d
       -0.18800244 0.04805224 0.10499455 0.11157417
0000c0 e3 b4 93 be 34 2e 03 bd 12 95 d1 3d 2c 45 f9 3d
       -0.28848943 -0.032026485 0.10233511 0.121713966
0000d0 51 05 5e bd 48 52 30 be 18 94 8f bc a4 b5 5a bd
       -0.05420429 -0.17218888 -0.017526671 -0.053395882
0000e0 15 17 e2 3e 4d 00 b2 3c 41 4e 07 be b9 89 d6 bd
       0.44158235 0.021728659 -0.13213445 -0.10475487
0000f0 c6 bd b3 bc 88 ed 0c be c9 52 07 be ef 2e ad bd
       -0.021941077 -0.13762486 -0.13215174 -0.084562175
000100 e3 ba 14 3e 8f c0 2c bd 9e 5a d4 be 99 3a 34 3e
       0.14524417 -0.042175826 -0.41475385 0.17600478
000110 a6 60 5d 3d 80 96 83 be 5e 8f 9d 3e b0 09 f2 3d
       0.05404725 -0.2570076 0.30773443 0.11818254
000120 36 1a 52 be 95 2b 97 3d 7a e9 1e 3e ef b6 ea 3d
       -0.20517811 0.073813595 0.15518752 0.11460673
000130 31 47 1f bd 61 9f 77 3e fb 25 9c 3d e4 ca b9 bd
       -0.038886253 0.24181892 0.07624432 -0.090719014
000140 54 68 3d be 81 ba 51 3b 16 d9 cf 3d e0 44 10 3e
       -0.1849683 0.0032002034 0.10148828 0.14088774
000150 d4 e5 bd bd f7 71 70 3d ab 40 cc be cb d8 7f bd
       -0.09272352 0.058702435 -0.39893088 -0.06246261
000160 8b 16 a1 bd 23 b8 80 3d 1b 39 15 be 91 38 e6 bd
       -0.07865628 0.06285121 -0.14572565 -0.11241258
000170 e2 c8 ab 3d b4 53 0b bd 3b 71 d5 3d 09 7b fe 3d
       0.08387925 -0.034015372 0.104219876 0.12425811
000180 3f a7 61 3c 28 ad 99 3d 8f 97 10 3e 3f 84 28 3e
       0.013772785 0.0750373 0.14120315 0.16456698
000190 f2 93 07 bd 59 a8 0d bd 09 d4 6d 3e 84 72 41 be
       -0.033100076 -0.034584377 0.23225416 -0.1889134
0001a0 01 d4 b4 bc 2b b3 28 bd 89 69 42 3e 55 85 98 bc
       -0.022073748 -0.041186493 0.18985571 -0.018618265
0001b0 88 a6 b9 3b 03 7b 98 be 7b 5d 1c bd c9 40 fa 3b
       0.005665604 -0.2978135 -0.038175087 0.0076371175
0001c0 b8 66 19 3d 67 21 22 bd 3c 33 ee 3d 57 c2 8d 3b
       0.037451476 -0.039582636 0.11630866 0.0043261456
0001d0 9e 84 9d bc 0a bd a5 bd 80 22 8d be f2 79 e1 3d
       -0.019228276 -0.08092697 -0.27565384 0.11009587
0001e0 8a 18 9c bd 08 a4 bb be da a8 37 be 04 2f e9 bd
       -0.07621868 -0.36648583 -0.17935506 -0.11385921
0001f0 ce fb 70 3c 87 3b 17 bd 33 12 39 bd c4 2f 87 be
       0.014708472 -0.036922004 -0.04518337 -0.2640363
000200 33 d8 98 3d 43 de 45 3c 02 65 25 be da 4a 25 3b
       0.07463112 0.012076917 -0.16151813 0.0025221617
000210 93 30 be bc 2d 44 17 be 9f 9e d1 bd c3 8a 01 bd
       -0.023216521 -0.14772101 -0.10235333 -0.031626474
000220 db 58 f7 bd 0c 2b 41 bd 70 64 12 3e a7 da e0 3b
       -0.12077495 -0.047160193 0.14296126 0.006862003
000230 bb 32 69 3c a4 f8 c1 be 03 c8 a6 bd 06 07 57 3e
       0.0142332865 -0.3788501 -0.08143618 0.20998773
000240 2f dd f7 3d 3c 8f 05 bd e0 b5 96 bc 65 db c2 3d
       0.12102734 -0.032607302 -0.018397272 0.095145024
000250 c2 43 bc 3d c1 f2 9f 3d 22 ea c5 3d 7e 56 6d 3d
       0.09192611 0.078099735 0.09663798 0.057943814
000260 08 04 e7 bd 12 74 6c be 33 2d 5b 3e 6c 68 c6 3d
       -0.11280066 -0.23091152 0.21403961 0.09687886
000270 ba d6 00 be 30 7e 0e bd a0 99 43 3e 3f 57 1e bd
       -0.12581912 -0.03478831 0.19101572 -0.038657423
000280 21 52 82 bb cc 6a 38 be ef 7f 22 3c 15 06 2a 3d
       -0.0039770757 -0.1800949 0.009918197 0.041509707
000290 b1 9a aa 3d 36 da 76 bc f2 0e a5 3d 1c 9d a2 3c
       0.08330286 -0.015066674 0.08059491 0.019850306
0002a0 56 e0 28 ba 42 56 5f bd ac c1 77 3d d1 3c c0 3c
       -0.000644212 -0.05452562 0.060487434 0.0234665
0002b0 12 37 b1 3c d6 0b 13 3e e9 93 86 3e 5b 64 29 be
       0.021632705 0.14359984 0.26284721 -0.16542189
0002c0 a9 9f ff bd 6e bc f5 bd 17 7c 87 bd 2e 8b 3d 3e
       -0.12481625 -0.11998831 -0.06615465 0.18510124
0002d0 de 33 a2 be c8 c9 1c b9 82 50 af bd 33 41 20 3e
       -0.31680197 -0.00014952489 -0.085602775 0.15649872
0002e0 27 24 4d 3d f5 c4 a9 3e d5 78 10 3d c5 d1 55 3d
       0.050083306 0.3315808 0.035271484 0.052202005
0002f0 fa a7 ef be 08 c1 03 bd 50 24 98 3c 09 ac 49 bd
       -0.46807843 -0.03216651 0.018572003 -0.04923633
000300 c5 c7 51 3d 3f da 1e 3e 9e 32 c0 bc 1a ff 4f bd
       0.051215906 0.15512942 -0.023461636 -0.050780393
000310 c3 28 09 bf b7 2e ba 3e 6f 99 48 3d f8 9d 22 3d
       -0.5357782 0.36363766 0.04897445 0.039701432
000320 e5 ce 00 be 93 cf 4c bd f9 3e 02 bc 7a ae 89 3b
       -0.12578924 -0.050002646 -0.007949584 0.0042017074
000330 78 dd 71 3e 59 56 e2 3d 19 c3 ff bd 80 10 c0 3d
       0.2361964 0.11051626 -0.12488384 0.09378147
000340 23 72 47 3d da c9 a2 3c 8e f1 cd be f4 c8 9c 3b
       0.048692834 0.019871641 -0.40223354 0.0047846977
000350 78 79 8e bc 51 9b a0 be 11 45 fe 3c eb 9f de be
       -0.017391905 -0.31368497 0.031038793 -0.43481383
000360 40 3b 0b 3e c9 b4 c3 bd 98 71 02 3e 73 ed 5b be
       0.13596821 -0.095559664 0.12738645 -0.21477298
000370 ed 4c f3 bc dc 85 3a bd 80 8c e1 bc e0 d8 1b be
       -0.029699767 -0.045537814 -0.027532816 -0.1521945
000380 44 d5 73 3d 20 d0 8e 3d 2b 1d d5 bd ad 5a 9c bd
       0.059529558 0.069732904 -0.10405954 -0.076344825
000390 02 f8 36 3e 88 ec 3f 3e 4b 03 c2 3d 41 03 75 3d
       0.17868045 0.18742573 0.09473284 0.059817556
0003a0 d5 f5 f9 be 25 43 75 bd a4 f5 04 be e5 2c b8 3d
       -0.48820367 -0.059878487 -0.1298433 0.08992938
0003b0 53 53 cc bd c3 de 76 3d cd d8 07 3e 6d 7d 0b be
       -0.0997683 0.060271036 0.13266297 -0.13622065
0003c0 60 22 32 be 8f 28 ff 3c a4 cb d9 bc 8e f7 2c be
       -0.17395926 0.03114727 -0.026586361 -0.1689131
0003d0 0a 16 f5 3c cf ae 19 3c de 08 ce 3d cf 6a 94 be
       0.029917736 0.0093800565 0.10060285 -0.28987738
0003e0 b4 59 49 3c 1b a1 cb 3e 4d 4b d8 bc ca 2f a9 bc
       0.012289453 0.3977135 -0.026403094 -0.02065267
0003f0 63 fb 14 bd 5d cc 9e 3d 58 58 69 be 82 66 9b be
       -0.036372554 0.07753823 -0.22787607 -0.30351645

l3.weight f4 [1, 256]
000000 12 d0 0b c0 b6 ec 5e bf 92 a0 01 3f fb 2e 64 3f
       -2.1845746 -0.8707994 0.50635636 0.89134187
000010 d4 f9 b2 3e 8b 2a 39 3f fc 70 76 3e dd 06 ed bf
       0.3495623 0.7233054 0.24066538 -1.851772
000020 45 4d 53 c0 09 53 49 bf 14 ce 72 3f 77 ee 3f bf
       -3.3015912 -0.78642327 0.948457 -0.74973243
000030 92 20 98 c0 a3 1f ed bf b7 35 85 be ad 54 4e 40
       -4.753976 -1.852528 -0.26017544 3.2239182
000040 c5 11 0c c0 b4 cd 03 3f 04 5e 5c bf 8a 4d f9 3e
       -2.1885846 0.51485753 -0.86080956 0.4869197
000050 28 fa 8f 3f c5 da 0a bf b5 8c c4 bf f7 2f d5 3b
       1.1248217 -0.54240066 -1.535544 0.006505962
000060 e3 4f f1 bf e7 ed 8e bf 82 f0 3c 3f 61 00 e3 bf
       -1.8852504 -1.1166352 0.73804486 -1.7734491
000070 2e a4 ca bf 05 2a 72 bf 30 2e 24 3f 2d 4d 9c c0
       -1.5831354 -0.94595367 0.64132977 -4.884421
000080 dd f7 4a 3f 26 ee 96 3f 9a a8 72 3f 85 9f 3e 3f
       0.7928446 1.1791427 0.94788516 0.7446216
000090 10 96 20 40 16 d0 fd bf 87 b7 99 3f 7c 8d 40 3e
       2.509159 -1.9829128 1.2009133 0.18803972
0000a0 58 bb 29 3f 5d ca df 3f 7b e2 ac bf ec c6 22 bf
       0.6630149 1.7483631 -1.3506616 -0.6358478
0000b0 97 9a 57 3f cf af e1 bf a1 d8 b4 bf 1d 9b a6 bf
       0.8422026 -1.7631778 -1.412861 -1.3016087
0000c0 06 f2 a5 bf fc 7f 20 3f 18 13 9c bf f7 c0 d6 be
       -1.2964485 0.6269529 -1.2193327 -0.41944095
0000d0 69 52 60 c0 76 9b ea 3f ca 17 d1 3e aa 81 6a 3e
       -3.50503 1.8328693 0.40838462 0.22901025
0000e0 58 19 10 40 4d da bd bf ba bb fc 3e 98 f8 16 c0
       2.2515469 -1.4832245 0.49361974 -2.358923
0000f0 68 62 71 3f 22 c7 ef 3f 77 ba 53 3f 75 38 50 3f
       0.9429078 1.8732646 0.827064 0.81336147
000100 8b c4 1f bf ba 91 9f bf 8e dd af c0 8f d9 c8 bf
       -0.62409276 -1.2466347 -5.4957952 -1.5691394
000110 ab ad 29 40 2a b0 c4 bf e1 1e 07 c0 78 6b d3 3f
       2.6512249 -1.5366261 -2.1112597 1.6517172
000120 b6 84 0e 40 bd 26 3b bf aa 7b 8b 3f 7d c2 ef 3f
       2.22685 -0.73105985 1.0897114 1.8731228
000130 ad 3b 37 40 d2 b5 8e bf 39 b7 6c bf 44 8a 99 3f
       2.8630173 -1.1149237 -0.92467076 1.199532
000140 6c fc 5b 3f 23 22 4b 3f 08 14 fb be 25 bf 59 bf
       0.8593204 0.79348963 -0.4903872 -0.8505729
000150 cb ad 6a c0 18 3c e6 3f 5c bb be bf c1 5e 73 3f
       -3.6668575 1.7987089 -1.4900928 0.9506646
000160 6d 96 31 3f c3 66 33 c0 f4 6b 70 c0 cd 5a 5a 3f
       0.69370157 -2.803147 -3.756589 0.852948
000170 b5 1e a1 be ab d5 e0 3e af d1 1f bf ac 65 6c bf
       -0.3146874 0.43913016 -0.62429327 -0.9234264
000180 ac 9e 2a bf 98 ba 73 bf 1c 0c 83 bf d4 5a e0 c0
       -0.66648364 -0.95206594 -1.023807 -7.0110874
000190 73 27 97 3e 68 e4 b0 3e 07 02 57 bf 0f e4 9c bf
       0.29522285 0.3454926 -0.8398747 -1.2257098
0001a0 1e eb a7 bf 5f e9 1e 3f 31 32 20 bf 8c cd 85 3f
       -1.3118627 0.62074846 -0.62576586 1.0453353
0001b0 71 53 3b 3f 87 75 f9 bf d8 94 97 c0 dc 60 c6 bc
       0.73174196 -1.9488991 -4.7369194 -0.024216108
0001c0 e5 48 81 bf d9 b7 16 3f e3 b2 2f bf 86 5e 59 3f
       -1.0100371 0.5887428 -0.68632334 0.84909856
0001d0 fe ee fe bf fa ce 4c 3f 3e 97 31 c0 d4 41 89 3f
       -1.9916685 0.8000332 -2.774856 1.0723214
0001e0 5a 4a 88 3f 9a d9 f1 bf 1b 12 03 c0 2e 9b a5 3f
       1.064769 -1.8894532 -2.04798 1.2937982
0001f0 86 f0 48 3f 59 c3 a3 bf 27 20 bb bf 20 03 4c c0
       0.7849201 -1.279399 -1.4619187 -3.1876907
000200 13 fd 2f bf f5 cd 06 3f 97 2e bc 3f f9 20 b5 bf
       -0.68745536 0.52658015 1.4701718 -1.4150687
000210 19 6c 8d 3f 9b be c9 3f e6 29 24 c0 f4 9e b9 bc
       1.1048614 1.5761293 -2.5650573 -0.022658803
000220 25 c1 48 3f 6e 70 86 3f fe f6 ab 3f d2 5a 66 3f
       0.78419715 1.0503061 1.3434751 0.8998233
000230 e3 14 f2 3e 34 1c 32 c0 b8 dc 29 c0 98 1d 9c bf
       0.4728156 -2.7829714 -2.6540966 -1.2196531
000240 3b 09 79 c0 a4 c9 12 40 61 5f 75 c0 3a 88 21 bf
       -3.8911884 2.2935572 -3.8339465 -0.6309849
000250 35 e8 39 c0 95 a4 88 3f fc b2 80 3e 27 0d d0 3f
       -2.9047978 1.0675226 0.25136554 1.6254014
000260 1a a4 0e 3f b5 df 89 3f 77 31 49 bf dd 9d e6 3f
       0.5571915 1.0771395 -0.785911 1.8016926
000270 ed 25 4d 3f 99 7c 60 3f 07 48 27 bf 35 0a 19 40
       0.80135995 0.8769012 -0.6534428 2.391248
000280 85 bf 51 bf cd 2b ac bf a9 02 3b bf a7 8e d6 bf
       -0.8193286 -1.3450867 -0.73050934 -1.6762284
000290 83 2f 06 c0 b5 76 a0 3e 6f b3 13 40 3f 3e c1 3e
       -2.09665 0.31340566 2.3078268 0.37742803
0002a0 bd 37 56 3f 1c 2d 67 bf 16 f2 82 3e 90 82 ed 3e
       0.836788 -0.90303206 0.25575322 0.46388674
0002b0 cf a2 50 3e c0 f4 cd 3f 70 44 0c 40 8e c2 c7 3f
       0.20374607 1.6090317 2.191677 1.5606248
0002c0 b7 e5 19 3f 78 d4 9d 40 f4 98 80 c0 de 38 e0 3f
       0.6011614 4.932186 -4.018671 1.7517354
0002d0 bc 78 3f 40 94 47 a5 bf a5 3e 5a 3f 89 68 14 c0
       2.991744 -1.2912469 0.8525184 -2.3188803
0002e0 32 a4 05 3f 7b b7 71 bf 58 da 82 bf f3 91 c0 bf
       0.5220367 -0.94420594 -1.0222883 -1.504454
0002f0 1a bd eb bf 7e 4a 14 3f 88 09 2c 3f aa da 53 3e
       -1.8417084 0.57926166 0.67202044 0.20688882
000300 39 3f ab bf 2d d5 24 bf 5b ab 09 3f 64 31 3d c0
       -1.3378669 -0.6438778 0.5377709 -2.9561396
000310 99 03 ed bf 16 21 ff 3f d1 63 ba bf 2d 9e 50 bf
       -1.8516723 1.9931972 -1.4561712 -0.8149136
000320 fc 12 f1 3f 4b 04 0a bd d1 12 cb 3e f6 61 75 c0
       1.8833919 -0.0336955 0.39662793 -3.834104
000330 dc 44 42 bf 45 2d 5f bf c2 4f 15 c0 57 80 1a c1
       -0.7588632 -0.8717845 -2.332993 -9.656333
000340 5f 5a 05 c0 74 9e 26 3f 50 0f 8d 40 7b c8 6a 3e
       -2.0836408 0.6508553 4.408119 0.2292804
000350 76 e4 c9 3b d0 01 bf bf 89 8c 36 bf a0 4f 6b c0
       0.006161268 -1.4922428 -0.7130819 -3.676735
000360 45 b2 ef c0 5a 96 f9 3f 7e fe 0c bf 23 fd 8b 3f
       -7.4905114 1.9499009 -0.55075824 1.0936626
000370 03 dc fb 3b 2d 7e 90 3e 30 bf 6a 3f f9 4e 64 3f
       0.0076861396 0.28221264 0.9169798 0.89183
000380 54 2b d5 3e 99 9a f9 bf f6 63 70 3f db 4c a8 bf
       0.4163462 -1.9500304 0.9390253 -1.3148454
000390 9f c2 0f bf 9b b8 cb 3f ce fa b4 bf 8c 09 22 bf
       -0.56156343 1.5915712 -1.413904 -0.6329582
0003a0 1c 91 33 c0 1d 89 9c 3f f4 da 69 bf 50 32 6c bf
       -2.8057318 1.2229344 -0.9134972 -0.9226427
0003b0 d8 74 12 3f 29 c7 42 bf ef 2b 19 bf cc 91 7b 3f
       0.5720954 -0.76085144 -0.5983266 0.98269343
0003c0 a3 f7 c0 bf 94 d7 81 bf 61 0c ff 3e dc d8 89 3f
       -1.5075573 -1.0143914 0.49814132 1.0769305
0003d0 70 0d 2c 3f d8 0e 0f c0 86 15 0b 40 79 2b da 3f
       0.67208004 -2.235281 2.1731887 1.7044517
0003e0 a2 0e 85 bf f1 63 0f 40 a7 62 3b 3f 87 be 6e 40
       -1.039509 2.240475 0.73197407 3.7303789
0003f0 89 32 7a c0 80 1d 89 bf 9e de d0 bf a0 bc cb bf
       -3.9093344 -1.0712128 -1.6317937 -1.5916939

l4.weight f4 [256, 28]
000000 df 30 6b bd c1 aa 0c 3f 08 29 6d bf c9 29 c7 3e
       -0.057419654 0.5494805 -0.92640734 0.38899067
000010 79 78 0d 3e 22 35 77 3c 6c c3 76 3c 45 ea 91 3b
       0.13815488 0.015088351 0.015061241 0.004452976
000020 f9 12 ba bb a6 28 b8 3d 31 c9 9b bc 88 25 df bd
       -0.0056785312 0.08992128 -0.019016834 -0.108958304
000030 71 2b 8f bb c8 3f 8a 3a 4d ad d3 3d 61 47 b6 3e
       -0.0043691923 0.0010547573 0.10335789 0.35601333
000040 19 16 c4 3e 50 86 ae be 0d f1 79 be 85 b1 2f 3e
       0.3829811 -0.34086847 -0.2440836 0.17157562
000050 32 9a 32 3f 19 29 85 be 73 1b 10 3e 79 ef 8f be
       0.69766533 -0.26007918 0.14072971 -0.2811239
000060 55 63 fe 3c b0 0d d9 bc 3e 38 9c bc 41 16 30 3a
       0.031053225 -0.026495785 -0.019069787 0.0006717183
000070 cb 91 04 bf af 0c 6c c0 32 9f 9c be bf 13 73 3f
       -0.5178496 -3.6882741 -0.30590206 0.94952005
000080 85 b4 3c be 9e 4f 50 be 45 40 52 bd 9f 19 9c bd
       -0.18428238 -0.20342872 -0.051330823 -0.07622074
000090 98 52 e3 bc 3f a7 7c bd c5 88 fc bd 8c 3f 01 bd
       -0.027749345 -0.061682936 -0.12330774 -0.031554744
0000a0 48 11 6d bd b9 85 e6 3b 56 1d 66 3e 43 7a 58 bc
       -0.05787781 0.007034984 0.22472128 -0.013212743
0000b0 64 2b 70 be 16 97 15 3e e2 31 ce bc 54 5c 17 be
       -0.23454052 0.14608416 -0.02517027 -0.14781314
0000c0 16 99 c4 3e 1e 9e 12 be ba cd 37 be 94 45 00 bc
       0.38398045 -0.1431813 -0.17949572 -0.007829089
0000d0 23 b9 46 3c da 56 22 bb 2d ca 15 3d f9 3e ee bc
       0.012129101 -0.0024771006 0.036569763 -0.029082762
0000e0 2d 94 92 be 22 d1 f5 3e c4 6e fb 3e 23 95 22 3f
       -0.28628674 0.48011118 0.49107945 0.63508815
0000f0 d4 43 b3 3e be 82 51 3d 60 0d 12 3e 2b 37 d7 ba
       0.35012686 0.051150076 0.14262915 -0.001641964
000100 01 9c b8 bc 21 ac 1c be 87 af 5c 3d e8 da 09 be
       -0.022535326 -0.15300037 0.053878333 -0.13462412
000110 13 57 84 3c 4c dd a2 bc 83 ee c2 3e f1 4e af 3e
       0.016154801 -0.019880913 0.38072595 0.34239915
000120 66 42 b7 3d 80 00 ae bd 63 a1 91 3e f2 96 d4 3b
       0.08948211 -0.08496189 0.2844344 0.0064877206
000130 8d 0c a9 bd ba 68 4a 3d 92 f6 ac 3e 90 68 8e be
       -0.08254347 0.04941628 0.33781868 -0.2781415
000140 f8 1a 22 3c 43 e1 98 bc 68 a8 22 3c 58 37 bf 3b
       0.009894125 -0.0186621 0.0099278465 0.005835455
000150 88 ce 28 3e d6 2c ed be bf 33 fb bc a2 fa 62 3f
       0.16485035 -0.4632327 -0.030664323 0.88663685
000160 8b 0a 88 3d ba b1 01 bd 0c c7 17 3d 0d 01 e6 3b
       0.06642636 -0.031663634 0.03705506 0.007019168
000170 68 e0 6f 3d 08 90 17 3d f6 01 ba 3b 08 56 d7 3d
       0.05856362 0.037002593 0.0056765033 0.10514456
000180 7f 11 12 3c ae 53 29 3d 7f 26 c4 bd 7f bb aa be
       0.008915304 0.04133957 -0.09577655 -0.33346173
000190 f7 9c f9 3d 9f 08 62 bc 7b ac 17 3f be 06 bf 3e
       0.12188142 -0.013796001 0.5924756 0.3730983
0001a0 b9 1d 31 be ba fc 12 3f 04 f1 6e 3e da fe 4b 3c
       -0.17296495 0.5741688 0.23334128 0.012450898
0001b0 29 2e 49 3b 9a d7 c7 3c a8 7b 2d 3d ce 53 13 3d
       0.003069768 0.024394799 0.042354256 0.035968594
0001c0 21 95 77 3d ae 8b b8 3f 80 a5 15 be 48 df 92 3e
       0.060444955 1.4417627 -0.14613914 0.28685975
0001d0 2b f0 4f be 2a b6 97 3c 33 fa 33 be 5f 30 ce bc
       -0.2030646 0.01851948 -0.17575912 -0.02516955
0001e0 f0 60 77 bb 35 ec 97 3e 6f 83 e9 3d 00 03 7c 3e
       -0.0037746988 0.296724 0.11402022 0.2461052
0001f0 f3 6f ab 3c d1 d9 57 3d b8 c3 f4 3e 19 4a dd 3e
       0.020927405 0.05269796 0.47805572 0.43220595
000200 10 ad 0f 3f 54 65 d0 bd e9 08 45 be 3e 8a 8f 3d
       0.5612345 -0.10175577 -0.1924168 0.070087895
000210 3d 8b 38 bd d5 41 0e 3f 5a 28 67 bf 6b af 98 3d
       -0.045054663 0.555692 -0.90295947 0.07455333
000220 b8 a6 ad bc 58 db 1e bd 7d 25 14 3b f6 fd c2 3c
       -0.021197662 -0.0387834 0.0022605353 0.023802739
000230 e6 b8 6b 3e 51 54 39 bf cb 17 d5 be 40 f9 db 3e
       0.23019752 -0.7239428 -0.41619715 0.429636
000240 f2 dc 6e 3d f5 a7 13 3c 3c 9f 86 3d 1c 73 84 3b
       0.05831618 0.009012212 0.0657334 0.0040420424
000250 f2 6c a8 ba 00 f5 08 be fb 6b 58 bc 5e d5 7e be
       -0.0012849851 -0.1337471 -0.013209338 -0.2488608
000260 67 b2 58 3d 59 9c ad bd 65 77 a0 bd b5 d5 83 3e
       0.052904513 -0.084770866 -0.07835273 0.25748983
000270 a8 e0 b3 3e 69 ba 95 bd 10 41 a0 3d 52 46 9c bd
       0.35132337 -0.073109455 0.0782491 -0.076306
000280 22 a4 77 3e 84 7b 75 3e 40 b8 0a 3f 87 40 86 3d
       0.24183705 0.23972899 0.54187393 0.06555276
000290 1b b7 40 3d 40 fd 54 bb c7 06 0b bc 1f 1a df 3c
       0.047049623 -0.0032499582 -0.008485503 0.027234135
0002a0 82 0c 3f 3d 95 fd 83 be 7d ea 13 3e 7e 69 74 3f
       0.046642788 -0.25779405 0.14444919 0.9547347
0002b0 92 2f 00 3e e8 cc 8c 3d 6d b3 39 3e 47 cf 11 3c
       0.12518147 0.0687502 0.18134852 0.008899516
0002c0 42 36 04 3c 30 53 27 3d 52 75 f0 3a 0a 81 13 be
       0.008069577 0.04085082 0.0018345511 -0.14404693
0002d0 a9 9b ff bc 3f c6 9f bb 81 cf d9 3d d3 91 31 be
       -0.031202154 -0.0048759277 0.10635281 -0.17340784
0002e0 f8 fa a5 bc 83 a4 ff 3c 07 23 07 3d f9 d2 ad be
       -0.020261273 0.031206375 0.03299239 -0.33950022
0002f0 fc d2 55 be 3f fc cb 3e 5b 24 55 3e ea 43 6b 3e
       -0.20881265 0.39840886 0.2081465 0.22975126
000300 e6 d8 a3 3c 0a b0 cd 3c 69 80 16 3c a4 9c 57 bd
       0.020000886 0.025108356 0.009185889 -0.05263962
000310 48 57 c7 3e 58 d2 af 3e c1 94 1e 3f 04 cf 45 3c
       0.38933778 0.34340167 0.6194573 0.012073282
000320 da a7 35 3c e4 c3 34 3e a1 f6 8b 3d ca 3b be 3b
       0.011087382 0.17652851 0.0683415 0.0058054673
000330 24 f8 8f 3d e5 81 a3 3e 97 be 38 3c 08 49 0d 3f
       0.07029751 0.3193504 0.011275909 0.5518956
000340 9d 1b 10 3d 27 d6 1c be 8f e9 b0 bf ee 7d 86 bf
       0.035182584 -0.15316068 -1.3821276 -1.0507181
000350 4a 36 ac be 41 da 00 3f 63 4f 29 3b a0 bd d2 be
       -0.3363517 0.5033303 0.0025834672 -0.41160297
000360 12 3a 19 be 0d 08 65 be aa fa 87 bc 61 c5 80 3e
       -0.14963558 -0.22366352 -0.016599018 0.25150588
000370 4f 19 1b bc b6 c4 d1 bc 5f 00 51 bd b2 f1 b6 3d
       -0.009466483 -0.025606494 -0.051025745 0.089328185
000380 94 f3 31 bf eb 2a a2 3e e6 e0 78 3e 54 c4 cd 3f
       -0.69512296 0.3167337 0.24304542 1.607554
000390 15 90 b6 bd aa 9a 2b bc 3b 97 88 bd 4e 8f d0 bc
       -0.089142 -0.0104738865 -0.0666947 -0.025458958
0003a0 19 77 52 bb b3 ee 9f be d9 4c af 3c 40 77 6c be
       -0.0032114445 -0.312368 0.021398949 -0.23092365
0003b0 fe 51 d0 bc 11 6f 13 3d d3 d1 ea be 0f d8 f1 3d
       -0.025429722 0.035994593 -0.45863208 0.11808788
0003c0 a7 3e c6 3e 7c e3 3b 3e 83 c6 b3 be 10 41 bc 3d
       0.38719675 0.18348497 -0.3511239 0.09192097
0003d0 cf 2c f0 3d 25 cf 2d be fd d6 0f bc b0 bf c3 3d
       0.117272966 -0.1697355 -0.008779285 0.09558046
0003e0 e9 2a 66 bb c3 21 0f 3c 74 85 61 bc 10 e3 e1 ba
       -0.0035120791 0.008736077 -0.013764728 -0.0017233808
0003f0 1e 03 8a bd e2 7f 28 3f 4c 43 3d be 51 3b 9d bf
       -0.06738876 0.65820134 -0.18482703 -1.2283727

l4.bias f4 [256]
000000 9e 09 d9 3d 56 54 a4 3e b4 7a 3f bf 35 a3 40 bf
       0.105975375 0.32095593 -0.74796605 -0.75249034
000010 fe 5e de bd 49 a8 f8 be 1a cc d7 be de d4 c3 3d
       -0.10857962 -0.4856589 -0.42147905 0.095620856
000020 bc b7 06 3e 03 46 f7 3d 3d b1 65 be 9a 30 67 be
       0.13156027 0.120739006 -0.22430892 -0.22577134
000030 34 49 22 bf 78 e4 86 3d a3 04 5f 3e b9 96 61 be
       -0.6339295 0.06586546 0.21779113 -0.22030152
000040 98 b4 00 bf 9e 45 33 be eb 87 05 bf 6b 4f 9e 3e
       -0.50275564 -0.17507026 -0.5216052 0.30919966
000050 b6 cd af be 49 3a 2b 3f a4 2a de be 68 96 01 3f
       -0.34336632 0.6688581 -0.43391907 0.50620127
000060 98 ca bf be ec 09 6f be 62 cb 25 3e 20 d9 e5 bd
       -0.37459254 -0.23343629 0.16190866 -0.11223054
000070 ec 1a 1f bf e3 47 a8 3e 5a ca 20 3e 83 c3 a3 3d
       -0.62150455 0.32867345 0.15702191 0.07996275
000080 33 cc 87 3e 84 b2 a0 be b5 33 12 bc 80 f6 eb 3e
       0.2652298 -0.31386197 -0.008923461 0.46086502
000090 20 37 8b 3e 56 b2 d4 3e fb a3 97 3e 5f 4d f7 3e
       0.27190495 0.4154231 0.29617295 0.48301217
0000a0 2d 56 d6 3e 1b e7 7f 3e 35 57 df bd df d5 46 3f
       0.41862622 0.24990503 -0.10905305 0.7767009
0000b0 26 08 25 3f ef 6c c6 be de 6b 3e 3e 5a 41 e5 bc
       0.6446556 -0.38754985 0.18595836 -0.027985264
0000c0 e0 8d d8 be bd 1f a7 be 56 15 53 be c2 b4 fd bd
       -0.42295742 -0.32641402 -0.20613608 -0.123879924
0000d0 45 5c e0 be a5 36 4b be 52 79 d5 3e 3a f8 b2 be
       -0.43820396 -0.19845064 0.41694123 -0.34955007
0000e0 e4 0f a3 bd bb da 85 be 09 66 94 be cf 42 db 3e
       -0.07962015 -0.2614344 -0.28984097 0.42824408
0000f0 0a 1f c2 3e 16 cf fc 3e 2a 73 6a be ad dc ca 3e
       0.37914306 0.49376744 -0.22895494 0.39621487
000100 5f f8 de bd 37 77 23 be 7d 8f 11 3e 88 40 17 bd
       -0.10887217 -0.15963446 0.14214893 -0.036926776
000110 af 77 a2 3e e5 cf 69 3e 1f c3 4e 3b d3 33 d3 3e
       0.31731936 0.22833212 0.0031549407 0.41250476
000120 a5 23 57 3e 44 25 a3 3e ab 37 94 bd 6c aa d7 be
       0.21009691 0.3186437 -0.0723718 -0.4212221
000130 c2 d1 3e 3d a9 2d 69 3e ae 6f 34 3e ea 90 36 3f
       0.04658676 0.22771324 0.17620727 0.7131487
000140 9f d0 a0 be 4b af b9 be b6 82 3a bc 9c 01 3a be
       -0.31409165 -0.3626655 -0.011383703 -0.18164676
000150 28 17 dd bd e4 48 07 be 08 67 99 be 01 1b 60 3f
       -0.10795432 -0.132114 -0.2996142 0.87541205
000160 97 8b 0a 3e 5e ce d5 3e 38 a8 f0 3d 11 d5 ac be
       0.13529812 0.41759008 0.11750835 -0.33756307
000170 70 53 19 3f a4 92 54 be 08 23 ba be 59 a8 05 3d
       0.5989294 -0.20759064 -0.36354852 0.032631252
000180 16 95 e5 3e fc 89 17 be a7 b3 15 3f d0 4c d7 bc
       0.44840306 -0.1479873 0.5847725 -0.026281744
000190 c7 38 3a 3e 80 d6 1b be 5d 5a dd 3c 14 13 cd 3e
       0.18185721 -0.15218544 0.027020628 0.40053618
0001a0 85 bd a9 3d d3 89 24 bd d6 57 15 bf 08 cc 3c 3e
       0.08288101 -0.040170502 -0.5833715 0.18437207
0001b0 1e 12 64 3d 8e 2c ca 3e 53 5d 80 be 8f a6 86 3d
       0.05568134 0.39487118 -0.250712 0.06574737
0001c0 0b 5e c7 be 64 05 83 be 3b 01 ba 3e 6c ec d6 bd
       -0.38938937 -0.2559005 0.36329064 -0.10494313
0001d0 9b f6 bd be 3a d4 fe 3e b4 44 02 be c8 b4 c8 bd
       -0.37102208 0.4977129 -0.1272152 -0.09800106
0001e0 ae 21 22 3e 4e 21 22 3f 43 33 cc 3e 36 d4 1f 3f
       0.1583316 0.6333207 0.3988286 0.62433183
0001f0 db 32 d9 3e c3 1d 7f 3e c0 5a 61 3e 8d 00 24 bf
       0.42421612 0.24913697 0.22007275 -0.6406334
000200 83 5e 17 be dd 28 9b 3a 65 46 7a bf 77 90 0d 3d
       -0.14782147 0.001183774 -0.97763664 0.0345616
000210 95 20 83 3d aa 38 ef be 20 52 41 3f 99 24 8d be
       0.06402699 -0.4672292 0.7551594 -0.27566984
000220 8b b9 da be ea 2f f4 be 51 2c 0f 3e 40 99 0e bf
       -0.42719683 -0.47692806 0.13981749 -0.5570259
000230 b5 3e ba bd ba eb 9b be eb 82 11 3f 4a b3 fe 3e
       -0.09093992 -0.30453283 0.5684039 0.49746162
000240 25 3b 17 3f 27 62 0e be e6 d4 3c 3e d3 5f c0 be
       0.5907462 -0.1390463 0.1844059 -0.37573108
000250 1f c2 f1 3e c4 1b 36 3e a0 95 cd be ab 86 01 bf
       0.47218415 0.17784029 -0.40153217 -0.5059611
000260 5d c1 95 be 25 94 c2 3e 46 bc 2f be 18 cc 25 bf
       -0.29249087 0.3800365 -0.17161664 -0.6476455
000270 c5 c3 b7 be 50 01 f8 bd 45 65 41 3e a4 b0 a3 bd
       -0.35891548 -0.12109625 0.18886288 -0.07992676
000280 6c 49 ee be bb e8 2d bd 13 74 81 3e 16 d0 00 3d
       -0.4654039 -0.042458277 0.2528387 0.031448446
000290 bf ea bb 3d cb df 7b 3e 2e 8c 2a 3e 1d 98 4e 3e
       0.09175634 0.24597089 0.16655037 0.20175214
0002a0 bc 88 b5 3b 32 db 9b bd 24 e9 10 bf d1 3f 94 3e
       0.0055399816 -0.076101676 -0.56605744 0.28954938
0002b0 b8 3c 90 bb f1 00 b5 bc 9f f4 10 bf 50 54 12 be
       -0.0044017695 -0.022095175 -0.5662326 -0.14289975
0002c0 c5 5b 6b 3d e3 d9 c0 3e 94 fa 30 bf 89 41 2c 3e
       0.057460565 0.37666234 -0.6913235 0.16821875
0002d0 5b e3 0e bf d3 3a e0 bb d0 3c fd 3d d5 57 55 3f
       -0.55815667 -0.00684295 0.12365115 0.83337146
0002e0 c2 67 b9 3e b9 84 b5 be bc 7d ef bb b7 16 ca 3d
       0.36211973 -0.35452822 -0.00730869 0.09867614
0002f0 11 3f a5 bd db 73 0a bf 6d 56 c4 3e dc 15 f6 3d
       -0.080686696 -0.5408303 0.38347188 0.12015888
000300 c7 85 92 3e 64 ed 34 be 9f 9d 7a 3e 11 21 15 3e
       0.2861769 -0.17668682 0.2447419 0.14563395
000310 b2 ca d1 3e 11 c1 0b 3c ff 57 c7 3e c2 61 92 3e
       0.40974957 0.008529917 0.38934323 0.28590208
000320 c9 22 8e 3e 7d cf 46 3e f4 54 2b 3d 5f b7 df 3e
       0.27760914 0.19415088 0.041829064 0.4369459
000330 3a cd 81 3e 93 2f d2 3e 02 73 d1 3c e6 3d 0a 3f
       0.25351888 0.4105192 0.025567535 0.540007
000340 94 2a 81 3e 66 cc 54 be b0 7d 85 be 13 03 6a 3f
       0.25227797 -0.20781097 -0.26072454 0.9141094
000350 b7 a0 e8 3d bd 66 f7 be ec 13 01 3e f8 35 4a 3e
       0.11358779 -0.4832057 0.12605256 0.1974715
000360 04 bf b7 be 29 73 ba 3e 1b 68 18 bf a4 b1 3c be
       -0.3588792 0.36415985 -0.5953385 -0.1842714
000370 32 b1 85 3e 7f 9f 85 3f 19 83 dd 3d 6e 34 30 be
       0.26111752 1.0439299 0.108160205 -0.172075
000380 68 98 05 bf 4a 5f 20 bf 7b c2 31 3f 20 f6 00 bf
       -0.5218568 -0.626454 0.6943738 -0.50375557
000390 e0 7a 09 3e d5 40 8d be 41 2e 13 3e 15 8f 18 3f
       0.1342578 -0.27588525 0.14373113 0.59593326
0003a0 b1 05 a4 bd 72 3b 17 be 85 70 8d be 6f a8 60 3e
       -0.08008898 -0.1476877 -0.27624908 0.21939252
0003b0 58 03 10 bf d9 51 e5 3e 26 95 f4 3e 10 14 ea 3e
       -0.562551 0.44789007 0.4777004 0.4571843
0003c0 b2 7d 85 3b 90 3b c3 3e b4 5f 95 be ce 6d c6 3d
       0.004073822 0.3813138 -0.29174578 0.09688912
0003d0 96 a3 f9 3e 48 2f dc 3d 49 a1 dc 3e 2d cf bd 3e
       0.4875762 0.10751206 0.430918 0.37072125
0003e0 26 d3 2c 3f 69 42 97 3e f7 a8 21 3f a1 81 88 bd
       0.67509687 0.29542854 0.63148445 -0.0666535
0003f0 93 70 1e 3d e1 91 da be 1a 34 07 bf 28 38 ea bd
       0.038681578 -0.42689422 -0.52813876 -0.11436492
