HardcoreVersion/critic/ppo_q_critic300.pth (torch, 592114 bytes, 10 tensors)

l1.weight f4 [256, 28]
0.058034778 -0.10322524 -0.3615298 -0.10441036 -0.0041829296 0.009301539 0.12482429 0.16266224
-0.041123986 0.093089014 0.07291429 -0.020143796 -0.09158127 0.1927904 0.019487724 0.1340867
0.0068764775 0.11793085 0.13502169 -0.04561579 -0.17820272 0.1571783 0.09608322 -0.09687592
0.061816376 0.19003859 -0.12689903 0.16173314 -0.1287585 -0.023425207 0.12469689 0.24803314
-0.27283207 0.0019095796 -0.22341144 0.2149944 -0.07633716 0.20407693 -0.014516571 -0.049664687
0.06788919 -0.05847388 -0.15966186 -0.15990588 0.07706624 -0.019135062 0.002347422 -0.13611713
0.14390168 0.15182874 0.1470815 -0.15724707 -0.087739676 0.15128513 -0.041337706 -0.08689594
0.37236544 0.70778704 -0.3993182 -0.34939086 0.3655896 0.15754063 -0.070191026 -0.19000366
0.074332096 -0.2528117 -0.07200465 -0.06581454 0.044720728 0.04392607 -0.22766739 0.13791938
-0.006921481 0.041345693 0.011441373 -0.034748636 -0.1329485 -0.23074348 -0.16255105 0.011378504
0.11553873 0.10401954 -0.056261234 -0.030155323 0.16233003 0.060897592 0.3604616 0.18736675
-0.16879605 -0.14154199 0.11139886 0.092108436 0.023589315 -0.16346699 -0.07999588 0.121281125
0.043036435 0.08556077 -0.05698284 0.093039155 0.090707086 0.088754475 -0.029458059 0.09645444
0.18347824 0.03638582 0.14000946 -0.1059764 -0.090381674 0.033728756 0.06645844 0.07289051
0.13278961 0.5662314 -0.33260363 0.32346907 -0.048302587 0.14278305 0.11661254 -0.12877393
0.08630636 0.066269085 0.15375784 -0.114825316 -0.05508783 0.14723806 -0.08708742 0.085982025
-0.0020308993 -0.15760905 0.18556601 0.13238993 0.025282681 -0.11164261 0.04982383 0.08672536
0.0010173825 0.013313473 0.094809085 0.10208913 -0.021574883 0.37526336 -0.11135385 -0.1807787
0.16587456 0.103704385 -0.06672277 -0.033265363 -0.120057434 0.14671046 -0.08336165 -0.11156295
0.07418673 0.20889716 0.22152999 0.07338207 0.12488091 0.057161767 -0.123632476 0.103700176
0.20404749 0.17569764 0.08915213 0.07678192 0.071823664 -0.052873075 0.13574068 -0.0037465189
0.003297238 0.33757508 -0.19288017 -0.0044328193 0.17652275 0.027279327 0.073832765 0.077698156
0.029584028 0.09683704 -0.008048159 -0.03732496 0.09899263 0.1461224 -0.25558797 -0.20500231
-0.2197548 -0.16207358 -0.17502236 -0.08095363 -0.22676748 -0.052712176 -0.20620531 -0.13803895
0.07997541 0.023773994 -0.06902996 0.008350865 -0.18885832 -1.2328097 0.27772468 0.57452756
0.20554976 -0.027337823 -0.020900982 0.03741455 -0.082474336 0.06682309 -0.087894395 0.21014608
-0.0009676011 -0.110476576 -0.040444933 -0.029548295 0.076351255 -0.12043503 0.20898972 0.07395607
-0.08987471 0.06747354 0.12475594 0.08646576 -0.07925774 -0.044779476 -0.14345022 -0.048581768
-0.2102843 -0.012410848 0.41391596 -0.02872107 -0.24493131 -0.020154582 -0.26818016 -0.2031914
0.023975048 -0.018136635 -0.085244924 -0.15414153 0.103670694 -0.16734827 -0.050214715 -0.0092996005
-0.16940436 0.16949789 0.05308004 -0.1249306 -0.09411889 -0.037460152 -0.012417519 0.05922153
0.14879811 0.017057564 -0.087881714 -0.071200006 0.18848017 -0.5173878 -0.16524778 0.045093864
00000000: e0b5 6d3d c167 d3bd 6f1a b9be 19d5 d5bd
00000010: f510 89bb 7b65 183c e1a3 ff3d ee90 263e
00000020: a071 28bd 74a5 be3d 1654 953d 9a04 a5bc
00000030: f68e bbbd d96a 453e b8a4 9f3c 064e 093e
00000040: 1354 e13b bb85 f13d 2043 0a3e 9fd7 3abd
00000050: c67a 36be 59f3 203e 47c7 c43d e266 c6bd
00000060: 2b33 7d3d 7a99 423e d2f1 01be 5f9d 253e
00000070: 45d9 03be 38e6 bfbc 1561 ff3d 66fc 7d3e
00000080: a5b0 8bbe dc4a fa3a f8c5 64be 7e27 5c3e
00000090: a856 9cbd 8bf9 503e e9d6 6dbc 336d 4bbd
000000a0: 7d09 8b3d 4f82 6fbd 667e 23be 5ebe 23be
000000b0: e8d4 9d3d 22c1 9cbc 35d7 193b 4a62 0bbe
000000c0: f65a 133e fe78 1b3e 889c 163e 6005 21be
000000d0: dcb0 b3bd 7dea 1a3e ba51 29bd 80f6 b1bd
000000e0: afa6 be3e 8831 353f 6f73 ccbe 5ce3 b2be
000000f0: 8f2e bb3e 5552 213e 50c0 8fbd 5290 42be
00000100: 6d3b 983d 8970 81be 2d77 93bd c6c9 86bd
00000110: 152d 373d d3eb 333d a421 69be bd3a 0d3e
00000120: 97cd e2bb 1a5a 293d 9974 3b3c 9654 0ebd
00000130: a723 08be 0548 6cbe c873 26be e86c 3a3c
00000140: 929f ec3d 3208 d53d 2e72 66bd 4c08 f7bc
00000150: d839 263e c16f 793d 6c8e b83e 12dd 3f3e
00000160: dfd8 2cbe 62f0 10be 1625 e43d 59a3 bc3d
00000170: 613e c13c e463 27be e1d4 a3bd 3d62 f83d
00000180: f946 303d 7c3a af3d d766 69bd 508b be3d
00000190: a3c4 b93d e8c4 b53d 0752 f1bc e889 c53d
000001a0: b8e1 3b3e 4c09 153d a45e 0f3e 280a d9bd
000001b0: 071a b9bd 2a27 0a3d 5d1b 883d 9f47 953d
000001c0: 00fa 073e 8bf4 103f 064b aabe bd9d a53e
000001d0: efd8 45bd b835 123e 8ed2 ee3d 50dd 03be
000001e0: 64c1 b03d 16b8 873d b272 1d3e 8929 ebbd
000001f0: c7a3 61bd 93c5 163e e45a b2bd 5817 b03d
00000200: d618 05bb 4464 21be 0405 3e3e 3a91 073e
00000210: a01d cf3c e1a4 e4bd 1314 4c3d 119d b13d
00000220: b159 853a c120 5a3c 442b c23d 1b14 d13d
00000230: cfbd b0bc 8522 c03e 7d0d e4bd 0d1e 39be
00000240: 05db 293e f762 d43d f3a5 88bd 4341 08bd
00000250: ace0 f5bd 443b 163e 83b9 aabd 1e7b e4bd
00000260: 36ef 973d 23e9 553e c2d8 623e 5749 963d
00000270: 90c1 ff3d 7522 6a3d 0633 fdbd c260 d43d
00000280: d3f1 503e 15ea 333e 6495 b63d d73f 9d3d
00000290: 4918 933d 7091 58bd 9bff 0a3e 2888 75bb
000002a0: 7916 583b a4d6 ac3e 6182 45be 2f41 91bb
000002b0: 61c2 343e e578 df3c a235 973d 3620 9f3d
000002c0: 345a f23c 7f52 c63d 6ddc 03bc 0fe2 18bd
000002d0: a6bc ca3d 1ca1 153e 6ddc 82be 20ec 51be
000002e0: 6707 61be 9ef6 25be 1039 33be 04cb a5bd
000002f0: bc35 68be b9e8 57bd 7c27 53be 155a 0dbe
00000300: 26ca a33d aec1 c23c 945f 8dbd 11d2 083c
00000310: 1364 41be b5cc 9dbf ee31 8e3e 3d14 133f
00000320: a37b 523e 92f3 dfbc 8938 abbc 0040 193d
00000330: 4ee8 a8bd 8bda 883d fa01 b4bd 8930 573e
00000340: 9ca6 7dba 8b41 e2bd 96a9 25bd 440f f2bc
00000350: 0c5e 9c3d a4a6 f6bd 6701 563e 4876 973d
00000360: 3b10 b8bd 912f 8a3d 0b80 ff3d f614 b13d
00000370: e251 a2bd af6a 37bd 9de4 12be adfd 46bd
00000380: c454 57be df56 4bbc cbec d33e 7348 ebbc
00000390: 46cf 7abe 391b a5bc e94e 89be 6811 50be
000003a0: 5267 c43c 4893 94bc e494 aebd 47d7 1dbe
000003b0: 4d51 d43d 585d 2bbe f2ad 4dbd 5a5d 18bc
000003c0: 5678 2dbe db90 2d3e 756a 593d 9ddb ffbd
000003d0: 68c1 c0bd d16f 19bd da72 4bbc 4692 723d
000003e0: 885e 183e 4ebc 8b3c 54fb b3bd 4fd1 91bd
000003f0: f200 413e 8773 04bf b736 29be 58b4 383d

l1.bias f4 [256]
0.11815847 0.09498037 0.113762476 -0.090942085 -0.13252918 -0.14160061 0.058312967 0.11264114
0.08895004 0.12342887 -0.057834685 0.12762178 0.23447701 0.123741195 0.1488856 -0.029104145
0.14225523 0.18432084 0.1618178 -0.16021636 0.25450367 -0.11587739 -0.05933009 0.089146696
-0.13517241 -0.08434924 -0.025145393 -0.06430066 0.07424279 0.034495514 -0.020905474 0.0034648674
-0.014736401 -0.06744204 0.0680959 -0.017838364 -0.06451649 0.17884415 0.26008084 0.066564076
0.002436103 -0.05089262 0.122298844 -0.027691044 0.06314472 -0.15020916 0.19192503 -0.011881089
0.02270737 0.12189313 0.19833066 0.23491949 0.0009402797 0.046233132 -0.09448992 0.13223897
0.16801128 -0.093300454 -0.011810466 0.14741056 -0.14313334 -0.08288705 0.16799213 -0.14524546
-0.120675676 -0.11528411 -0.09504996 -0.16770579 0.11221318 0.11616813 -0.1446009 -0.18962033
0.1454691 0.0043856287 -0.12796283 0.020127764 0.17666599 0.20941512 0.21720369 0.19179843
-0.18175705 -0.040436946 -0.1073622 -0.042186443 -0.1470794 0.08196922 -0.14698306 -0.14391835
-0.045697805 0.14578198 0.032115743 0.12181332 0.021824691 -0.09677595 -0.110316016 0.15283756
-0.03372849 0.097903766 0.06642176 -0.015797114 -0.13388523 -0.036828145 -0.07479014 0.08559193
-0.05063489 0.07668233 0.068352565 0.075490735 0.13116077 -0.0864652 -0.07531416 0.09525049
0.08600097 0.16274999 -0.08748266 0.013536351 -0.13755663 0.14829707 -0.032054044 0.049184985
0.021004904 0.052400503 0.11454071 -0.024521176 0.17105332 0.005972702 -0.11418007 0.062641546
0.10111846 0.031338543 -0.14939843 0.18000293 -0.027226077 0.18652943 0.041589726 0.0030371284
-0.009024947 -0.104954876 0.06163744 -0.16697153 0.06772986 -0.17382862 0.12095243 -0.14620647
-0.010157499 -0.10990181 0.0017252663 0.112381734 0.12108612 0.021063372 -0.02011691 0.01488372
0.23734725 0.10698056 -0.06542758 0.14162841 0.012262567 -0.10257546 -0.16084032 0.10412169
0.062058277 0.21864407 -0.06785102 -0.07761257 -0.017942028 0.09345839 0.10171212 0.19327323
0.17029455 0.005536232 0.035409063 0.034446187 0.105483785 -0.13551687 -0.05126654 0.20171206
-0.111805975 0.1260853 -0.090460144 -0.0020374835 -0.09436736 -0.18319112 0.058709607 -0.17571187
-0.077266656 -0.038620103 0.04513455 -0.062084652 0.003983092 0.010649374 -0.09245813 0.23939534
0.08430511 -0.12390502 -0.1282698 0.05507886 -0.1315378 0.14283335 0.076063834 -0.071427405
-0.07881559 0.03803806 0.062109616 0.011311248 0.023890963 0.025274346 -0.09783966 -0.07347285
0.18667197 -0.0028556085 -0.08216503 0.08156597 -0.1326994 0.18392652 0.09658302 -0.0035898867
-0.07500864 0.03489552 -0.08175501 0.23991767 0.07026466 0.0018096722 0.0076793646 0.028430335
0.054717116 -0.12847401 0.053043112 -0.076656505 0.15084405 0.1856551 0.11956732 -0.116943315
0.021105118 0.08434565 0.21679807 0.063079655 0.09581459 0.25047684 0.03217106 0.003463659
0.047356527 0.098792486 -0.03085463 0.02669336 0.17372817 0.08770112 0.1386733 0.038295053
-0.13654248 0.050729644 -0.04273086 -0.014558752 0.14498839 0.018941408 -0.17980874 0.04568247
00000000: 11fd f13d 1185 c23d 4dfc e83d d83f babd
00000010: bbb5 07be c0ff 10be 94d9 6e3d 66b0 e63d
00000020: 702b b63d 47c8 fc3d 10e4 6cbd 49af 023e
00000030: be1a 703e 066c fd3d 7775 183e d16b eebc
00000040: 5bab 113e 9abe 3c3e 91b3 253e c20f 24be
00000050: 4e4e 823e 2051 edbd 1c04 73bd 8b92 b63d
00000060: a36a 0abe 4bbf acbd b6fd cdbc 10b0 83bd
00000070: 9b0c 983d 2b4b 0d3d f541 abbc d412 633b
00000080: f270 71bc 0d1f 8abd dd75 8b3d c321 92bc
00000090: 3921 84bd ec22 373e 5129 853e bf52 883d
000000a0: 07a7 1f3b c874 50bd d177 fa3d 54d8 e2bc
000000b0: 0552 813d 6ed0 19be ff87 443e e6a8 42bc
000000c0: ce04 ba3c 1ba3 f93d 3117 4b3e bc8e 703e
000000d0: 1a7d 763a f45e 3d3d ee83 c1bd a769 073e
000000e0: 260b 2c3e 4f14 bfbd af80 41bc cbf2 163e
000000f0: 8c91 12be b0c0 a9bd 2106 2c3e 3abb 14be
00000100: cf24 f7bd 131a ecbd 8ea9 c2bd 11bb 2bbe
00000110: 06d0 e53d 8ee9 ed3d 4212 14be d52b 42be
00000120: daf5 143e 52b5 8f3b b008 03be fbe2 a43c
00000130: eee7 343e eb70 563e a56a 5e3e cf66 443e
00000140: 851e 3abe 36a1 25bd b7e0 dbbd b1cb 2cbd
00000150: fb9b 16be 7adf a73d ba82 16be 555f 13be
00000160: 9f2d 3bbd df47 153e cc8b 033d 4379 f93d
00000170: b2c9 b23c 7832 c6bd 5ded e1bd 7381 1c3e
00000180: e326 0abd c581 c83d 2208 883d f368 81bc
00000190: 3619 09be 1cd9 16bd 932b 99bd d24a af3d
000001a0: 8866 4fbd a00b 9d3d 6efc 8b3d e39a 9a3d
000001b0: 024f 063e ab14 b1bd 4f3e 9abd b012 c33d
000001c0: 4721 b03d efa7 263e 1c2a b3bd 92c7 5d3c
000001d0: a5db 0cbe 30db 173e 1a4b 03bd 3276 493d
000001e0: 7a12 ac3c e9a1 563d 5294 ea3d a2e0 c8bc
000001f0: 9a28 2f3e a8b6 c33b 3ed7 e9bd 364a 803d
00000200: 3217 cf3d d85c 003d e7fb 18be b052 383e
00000210: 3909 dfbc 9201 3f3e fd59 2a3d 8f0a 473b
00000220: 5fdd 13bc 95f2 d6bd 8a77 7c3d 96fa 2abe
00000230: f4b5 8a3d 2100 32be e8b5 f73d 26b7 15be
00000240: a46b 26bc 3314 e1bd 5522 e23a 6528 e63d
00000250: 00fc f73d 188d ac3c 38cc a4bc d9da 733c
00000260: 280b 733e a018 db3d e5fe 85bd 0a07 113e
00000270: efe8 483c 1513 d2bd 53b3 24be c13d d53d
00000280: d230 7e3d 3be4 5f3e 7af5 8abd 57f3 9ebd
00000290: 29fb 92bc 1d67 bf3d 724e d03d 6be9 453e
000002a0: b261 2e3e 4869 b53b 1809 113d 7217 0d3d
000002b0: e207 d83d efc4 0abe ddfc 51bd 9b8d 4e3e
000002c0: 88fa e4bd 811c 013e 2b43 b9bd 4d87 05bb
000002d0: ad43 c1bd 7496 3bbe 7c79 703d d0ed 33be
000002e0: fb3d 9ebd 1d30 1ebd 02df 383d 7a4c 7ebd
000002f0: 9984 823b b67a 2e3c b05a bdbd 0d24 753e
00000300: 28a8 ac3d eac1 fdbd 2959 03be 5f9a 613d
00000310: d8b1 06be e842 123e 5bc7 9b3d 8848 92bd
00000320: 116a a1bd cccd 1b3d a766 7e3d d052 393c
00000330: fbb6 c33c 250c cf3c 2960 c8bd ef78 96bd
00000340: f026 3f3e 2925 3bbb 2446 a8bd 0f0c a73d
00000350: 5ae2 07be 3c57 3c3e 52cd c53d 4e44 6bbb
00000360: 219e 99bd 9bee 0e3d 2c6f a7bd faac 753e
00000370: ebe6 8f3d 8632 ed3a 2ea3 fb3b bce6 e83c
00000380: 0e1f 603d b18e 03be bc43 593d 16fe 9cbd
00000390: dd76 1a3e 5f1c 3e3e b6df f43d fa7f efbd
000003a0: a4e4 ac3c 6abd ac3d 5000 5e3e e82f 813d
000003b0: 713a c43d 803e 803e cdc5 033d 8efe 623b
000003c0: ebf8 413d b753 ca3d d9c2 fcbc 09ac da3c
000003d0: cce5 313e a59c b33d 6000 0e3e 46db 1c3d
000003e0: cbd1 0bbe e3c9 4f3d 8e06 2fbd d587 6ebc
000003f0: d677 143e 032b 9b3c c81f 38be 8b1d 3b3d

l2.weight f4 [256, 256]
0.011155714 0.03928289 -0.040361702 -0.10501475 0.005558813 0.016619235 0.23080671 0.16052546
-0.07466688 0.08891609 -0.3818465 0.024680939 0.023506047 0.111108966 -0.11985895 -0.0027704807
-0.03135987 0.0071359584 -0.02250488 -0.04437055 0.04742456 -0.002021998 -0.02404738 -0.009778491
-0.69302225 -0.03969726 -0.014449851 -0.508692 -0.023069302 0.03129895 -0.0073245475 -0.02007875
-0.10735825 -0.021847544 0.007040178 -0.11883117 0.035065934 -0.068136424 -0.07986907 -0.06557465
0.060990706 0.17724083 0.0022051223 0.1408503 0.010915446 -0.055971958 -0.1532745 0.112026505
0.029192738 0.08850163 0.016717557 0.073950246 -0.0035099373 0.13674723 0.045995697 0.09582661
0.0065379636 0.07855794 -0.03853623 -0.078823395 -0.09228325 0.065752104 -0.055408634 -0.33274612
-0.094031185 0.025402436 -0.08136344 0.1375735 -0.10273859 0.011034819 0.09067195 0.114586644
0.071264684 0.062971085 -0.054289427 -0.040309817 0.009707962 -0.039323762 0.12627888 0.062124223
0.14922652 0.026257256 -0.07697646 0.008981004 0.019006299 0.07162189 -0.023648687 0.0313137
-0.09193248 0.025868872 0.0037733142 0.048103318 0.05778886 0.09429128 0.08225334 0.09025762
-0.38810357 0.07872745 0.059246473 -0.1102636 -0.11516235 -0.025194995 -0.030077 0.03053658
-0.087856315 0.017104398 0.03449601 -0.043667313 -0.03645402 -0.0012130757 -0.047993727 0.0566396
-0.057205483 0.10848039 -0.008298967 -0.19797407 -0.030070648 -0.0062230895 0.10542405 -0.17794049
-0.005508258 0.068300724 -0.030843802 -0.069944985 -0.07540986 0.0922682 0.005419026 -0.00454777
-0.050911978 0.083262265 -0.24906658 -0.034483306 0.12119162 0.039561864 -0.064884625 0.1517429
0.016671063 -0.090202935 0.048106786 -0.19991896 0.16930634 -0.16101977 0.11426368 0.024095515
-0.21003379 -0.21204935 0.04691638 -0.26623034 0.008490277 0.024870437 -0.19897613 -0.07355852
0.14305247 0.016190035 0.0043712645 0.043332957 -0.040650904 0.00036867286 -0.016421672 -0.034722455
-0.053501792 -0.018819677 0.083190426 0.06535359 0.07520634 -0.017717082 0.08951715 -0.1512978
0.049812503 0.12014565 -0.043389946 0.04689368 0.012078303 -0.02357665 -0.068426885 -0.013653374
-0.04661626 -0.00013976109 -0.023226386 0.022985334 -0.060244855 -0.1117296 -0.027783982 0.025878893
-0.042822085 -0.07579852 -0.035972536 0.020643283 0.10355744 0.02302805 -0.018865673 0.033992667
-0.07290014 -0.118709445 -0.19801219 -0.071982585 -0.0015523933 0.06649161 -0.11944419 0.1438646
-0.04474828 -0.0034895048 -0.011195491 0.13570137 -0.016870007 0.07746655 0.06167872 0.0189841
-0.022787133 -0.16571382 -0.06865995 -0.18046558 -0.15558055 -0.03775384 -0.04943876 -0.02196588
-0.060512725 0.011482887 0.008696858 0.07858151 -0.0061095147 -0.10667413 0.010852033 -0.40678784
-0.072020456 -0.008222496 -0.027745478 -0.014802773 -0.07040999 0.04267772 0.08481026 -0.22934012
0.17410815 0.11023686 -0.03975824 0.04078742 0.04272445 0.048339788 -0.062728144 -0.046564154
-0.13648166 -0.046878163 -0.013096535 0.07720272 -0.11926488 -0.094813965 0.06975132 0.08838021
-0.11017297 -0.03588696 -0.098282486 0.024922613 5.1035335e-05 0.027649032 -0.06840539 -0.18126734
00000000: 75c6 363c 18e7 203d 5052 25bd f911 d7bd
00000010: b426 b63b 1025 883c 9858 6c3e c960 243e
00000020: f3ea 98bd a419 b63d 6281 c3be ae2f ca3c
00000030: c18f c03c 198d e33d 9c78 f5bd f490 35bb
00000040: 3573 00bd c2d4 e93b 275c b8bc e5bd 35bd
00000050: 4140 423d 7f83 04bb 03ff c4bc f735 20bc
00000060: e869 31bf 9899 22bd 11bf 6cbc a439 02bf
00000070: d5fb bcbc 5433 003d c202 f0bb 317c a4bc
00000080: a4de dbbd 9ff9 b2bc 4bb1 e63b c25d f3bd
00000090: 4ca1 0f3d 1c8b 8bbd 6592 a3bd 014c 86bd
000000a0: 64d1 793d 9f7e 353e d083 103b 103b 103e
000000b0: b3d6 323c da42 65bd fef3 1cbe 276e e53d
000000c0: 9c25 ef3c 5840 b53d 42f3 883c 3a73 973d
000000d0: fa06 66bb 7707 0c3e fc65 3c3d be40 c43d
000000e0: 6a3c d63b fce2 a03d 2ad8 1dbd 296e a1bd
000000f0: 00ff bcbd 0aa9 863d 2af4 62bd b35d aabe
00000100: 6c93 c0bd c518 d03c e0a1 a6bd 11e0 0c3e
00000110: 9c68 d2bd 63cb 343c 37b2 b93d 67ac ea3d
00000120: 38f3 913d fcf6 803d 975e 5ebd e81b 25bd
00000130: 250e 1f3c f411 21bd 404f 013e f875 7e3d
00000140: d6ce 183e 7519 d73c d6a5 9dbd 1025 133c
00000150: 19b3 9b3c 7fae 923d e4ba c1bc cb42 003d
00000160: 1947 bcbd f5ea d33c b549 773b fc07 453d
00000170: 03b4 6c3d c91b c13d 7074 a83d fdd8 b83d
00000180: 83b5 c6be db3b a13d 6eac 723d e2d1 e1bd
00000190: 3dda ebbd bc65 cebc 0a64 f6bc da27 fa3c
000001a0: 03ee b3bd 861e 8c3c b04b 0d3d 7fdc 32bd
000001b0: cf50 15bd 1100 9fba 1295 44bd edfe 673d
000001c0: 4c50 6abd f72a de3d 64f8 07bc b7b9 4abe
000001d0: b856 f6bc 0feb cbbb 90e8 d73d 0836 36be
000001e0: 9e7e b4bb 40e1 8b3d 24ac fcbc 513f 8fbd
000001f0: 7c70 9abd 1cf7 bc3d 1692 b13b 7605 95bb
00000200: 1489 50bd 6885 aa3d 4f0b 7fbe 5e3e 0dbd
00000210: 5033 f83d 9f0b 223d 3be2 84bd 7e62 1b3e
00000220: c191 883c 51bc b8bd 9f0b 453d 8eb7 4cbe
00000230: a45e 2d3e 5ee2 24be 1403 ea3d f563 c53c
00000240: 1913 57be 7723 59be 642b 403d 584f 88be
00000250: ce1a 0b3c 16bd cb3c 66c0 4bbe d9a5 96bd
00000260: 597c 123e f7a0 843c d33c 8f3b e67d 313d
00000270: 9081 26bd 6f4a c139 be86 86bc 2239 0ebd
00000280: b224 5bbd b92b 9abc be5f aa3d 1ad8 853d
00000290: c805 9a3d 6a23 91bc c454 b73d cfed 1abe
000002a0: 3208 4c3d ec0e f63d a8b9 31bd 9613 403d
000002b0: 13e4 453c d223 c1bc 6523 8cbd 67b2 5fbc
000002c0: b1f0 3ebd d58c 12b9 4345 bebc bd4b bc3c
000002d0: 4fc3 76bd 7dd2 e4bd 3c9b e3bc f9ff d33c
000002e0: 3666 2fbd 413c 9bbd f057 13bd 1a1c a93c
000002f0: ec15 d43d 52a5 bc3c 2f8c 9abc e53b 0b3d
00000300: ab4c 95bd f01d f3bd b5c3 4abe 9b6b 93bd
00000310: ad79 cbba c12c 883d 289f f4bd 3e51 133e
00000320: f949 37bd 2db0 64bb 4b6d 37bc 4df5 0a3e
00000330: f832 8abc c8a6 9e3d d3a2 7c3d 8b84 9b3c
00000340: 15ac babc e2b0 29be 969d 8cbd f8cb 38be
00000350: 8250 1fbe c5a3 1abd 4c80 4abd caf1 b3bc
00000360: 31dc 77bd b822 3c3c 447d 0e3c 58ef a03d
00000370: 5332 c8bb f777 dabd bacc 313c 7f46 d0be
00000380: 767f 93bd a6b7 06bc 7c4a e3bc 5487 72bc
00000390: 1d33 90bd d5ce 2e3d 00b1 ad3d 23d8 6abe
000003a0: 6849 323e ddc3 e13d 89d9 22bd b610 273d
000003b0: d5ff 2e3d f1ff 453d 9d77 80bd 0eba 3ebd
000003c0: d9c1 0bbe 5103 40bd d992 56bc 761c 9e3d
000003d0: 2541 f4bd d32d c2bd c8d9 8e3d af00 b53d
000003e0: 5ea2 e1bd 34fe 12bd 5448 c9bd 822a cc3c
000003f0: c60e 5638 3980 e23c 2018 8cbd 259e 39be

l2.bias f4 [256]
0.0348919 0.019667737 0.018167458 -0.015650403 -0.02792706 -0.009035691 0.06348165 -0.045313768
0.037165593 0.013781688 0.07304813 0.027034592 0.014400769 -0.011009234 0.028682513 -0.051235553
-0.099372104 -0.05196545 0.049512275 -0.0018270678 0.01094251 0.016441107 0.024491936 -0.025302473
-0.044745333 0.048347007 -0.020859184 -0.023901122 -0.022249237 -0.054251663 -0.009095501 -0.014338123
0.046904717 0.03641928 0.003282215 -0.03991524 -0.036393628 0.058488302 0.0025424547 -0.03344318
0.034685686 -0.033528008 0.020995503 -0.050100904 -0.036461126 -0.019917673 0.04425372 0.0145430025
-0.1372377 0.0047728303 -0.004301584 -0.0075841723 0.024041647 0.0147297885 -0.013534392 -0.025396796
-0.014833207 0.0029492963 -0.024793457 0.028470038 0.05797608 0.063857764 -0.018615829 0.047541894
0.0070498874 0.042949967 -0.051972974 -0.06155964 -0.042338517 0.04058575 -0.0023165883 0.012873684
-0.0038572054 0.014123321 0.070847064 0.029150957 0.03335903 0.048960034 0.028161002 0.06950123
0.030925475 0.041957345 0.010094374 0.017605748 -0.041346084 -0.0055302447 -0.020590674 -0.005342498
-0.050587986 0.0042521507 -0.03437945 -0.0635809 -0.03116339 0.019145794 0.01854977 0.020795878
-0.0128048435 0.019667758 0.004203413 0.0020998085 -0.055809136 -0.015086309 0.053502485 -0.0502444
-0.10085249 -0.032870583 0.059387553 -0.020720912 0.032864876 -0.052806437 -0.08818262 0.0112181725
-0.054513425 0.040171925 0.0040505375 0.08386973 0.04193481 -0.010050692 0.045947228 0.0025151344
0.031220494 -0.072308704 0.014253851 -0.05548891 0.04288143 0.022042183 0.06656294 -0.072490625
0.05143138 0.07059175 0.04326705 -0.0022228346 -0.012168206 -0.02260248 -0.097833835 -0.027496552
-0.05257663 0.026620155 0.07333203 0.026828062 0.06562927 0.009705007 0.022218669 0.03187053
0.03341225 -0.055023883 -0.040974833 -0.005702753 -0.035868593 0.04745752 0.07966536 0.058666497
-0.02941329 -0.015915798 0.05000814 -0.01390279 -0.023963707 0.026824169 0.056604903 -0.019927116
-0.10094685 -0.07614734 -0.019359732 0.011351946 -0.015799822 -0.04368869 0.074822955 0.054913964
-0.020966066 -0.06937989 0.07168653 0.039617494 0.0069306786 0.0045260764 0.009971742 -0.07812925
-0.03858013 -0.050304137 -0.111919954 0.09069037 -0.058238707 -0.042792708 -0.030464651 -0.006437261
0.051929157 0.03948635 -0.06086401 0.028095128 -0.113758594 0.020130703 0.040692836 -0.028684424
-0.035645716 0.033419456 0.013536144 -0.07416057 -0.08450936 0.0131571395 -0.014646583 -0.015284133
-0.048392054 -0.04683674 0.06690179 0.011176145 0.0853515 -0.016757224 0.016283093 -0.05245013
-0.06201775 0.116120435 -0.011397227 0.022493456 -0.01428318 0.004817935 -0.019116322 -0.03400493
0.0003954912 0.06728035 0.0348092 -0.043093015 -0.025014192 -0.044111006 -0.040097553 -0.045574352
0.050037086 -0.015419209 -0.025208566 -0.051380366 0.04883401 0.047510237 0.0010034285 -0.065499045
-0.04547214 -0.00053963327 -0.056238305 -0.03383345 0.05905208 0.009314943 -0.0062702983 -0.0071434346
-0.056060787 -0.016425643 0.013190737 0.06424368 0.05231977 0.02678642 0.05326722 -0.030847259
0.036573462 0.04391072 0.034435418 -0.05403244 -0.092817545 -0.05680098 0.060409434 -0.09235695
00000000: cfea 0e3d 3c1e a13c ecd3 943c 4635 80bc
00000010: 4ac7 e4bc 6f0a 14bc ab02 823d ee9a 39bd
00000020: f33a 183d 97cc 613c 429a 953d a677 dd3c
00000030: 34f1 6b3c 1360 34bc 97f7 ea3c 5fdc 51bd
00000040: 9a83 cbbd b9d9 54bd 62cd 4a3d 397a efba
00000050: 3748 333c 80af 863c 50a3 c83c 2247 cfbc
00000060: e246 37bd 8307 463d e1e0 aabc 49cc c3bc
00000070: 0844 b6bc fe36 5ebd 4c05 15bc 72ea 6abc
00000080: 291f 403d 622c 153d 6e1a 573b 2a7e 23bd
00000090: 7c11 15bd 6e91 6f3d 509f 263b b7fb 08bd
000000a0: 9412 0e3d aa54 09bd c3fe ab3c 9b36 4dbd
000000b0: 4358 15bd 632a a3bc 6443 353d c645 6e3c
000000c0: 0a88 0cbe 6765 9c3b 4df4 8cbb a684 f8bb
000000d0: fdf2 c43c 3655 713c 5bbf 5dbc f10c d0bc
000000e0: fb06 73bc fb48 413b a61b cbbc ff39 e93c
000000f0: 5378 6d3d dcc7 823d 3980 98bc 4abb 423d
00000100: be02 e73b 4eec 2f3d 9de1 54bd f625 7cbd
00000110: 276b 2dbd 3e3d 263d e7d1 17bb 25ec 523c
00000120: 2bc9 7cbb 8065 673c 4418 913d fdcd ee3c
00000130: 7aa3 083d 518a 483d e7b1 e63c a956 8e3d
00000140: 6c57 fd3c 77db 2b3d e062 253c ee39 903c
00000150: 835a 29bd 0e37 b5bb c6ad a8bc 1f10 afbb
00000160: 5935 4fbd a055 8b3b 77d1 0cbd b436 82bd
00000170: 5e4a ffbc a4d7 9c3c b0f5 973c 1e5c aa3c
00000180: 68cb 51bc 471e a13c c9bc 893b f19c 093b
00000190: 1f98 64bd 912c 77bc 6c25 5b3d 12cd 4dbd
000001a0: c08b cebd 4ea3 06bd 5d40 733d e7be a9bc
000001b0: 529d 063d 904b 58bd 1799 b4bd 6dcc 373c
000001c0: 7849 5fbd 518b 243d 5fba 843b e5c3 ab3d
000001d0: d6c3 2b3d a8ab 24bc 2933 3c3d f4d4 243b
000001e0: 1fc2 ff3c 9616 94bd fc88 693c 5748 63bd
000001f0: 70a4 2f3d cf91 b43c 2752 883d f775 94bd
00000200: b6a9 523d 6892 903d ca38 313d faac 11bb
00000210: 285d 47bc d628 b9bc 1b5d c8bd 7340 e1bc
00000220: 985a 57bd 8312 da3c 1a2f 963d 86c6 db3c
00000230: a468 863d c001 1f3c ed03 b63c ac8a 023d
00000240: 49db 083d b960 61bd 3ad5 27bd 29de babb
00000250: f2ea 12bd d162 423d 9827 a33d 484c 703d
00000260: 24f4 f0bc d961 82bc 56d5 4c3d 87c8 63bc
00000270: 894f c4bc 5cbe db3c 8bda 673d 313e a3bc
00000280: 39bd cebd 23f3 9bbd 4d98 9ebc 83fd 393c
00000290: a16e 81bc e9f2 32bd c73c 993d 77ed 603d
000002a0: 07c1 abbc 0b17 8ebd 63d0 923d f445 223d
000002b0: bf1a e33b 7b4f 943b 8460 233c 3a02 a0bd
000002c0: 3306 1ebd b60b 4ebd 4a36 e5bd dfbb b93d
000002d0: b68b 6ebd 6847 2fbd 0191 f9bc a9ef d2bb
000002e0: abb3 543d 70bc 213d 8a4c 79bd c127 e63c
000002f0: 44fa e8bd 25e9 a43c 88ad 263d 99fb eabc
00000300: 3e01 12bd d7e2 083d b4c6 5d3c 7fe1 97bd
00000310: 3e13 adbd 0b91 573c 39f8 6fbc 4d6a 7abc
00000320: bf36 46bd e2d7 3fbd ce03 893d 261c 373c
00000330: c4cc ae3d 7246 89bc 1f64 853c f3d5 56bd
00000340: 5306 7ebd 8dd0 ed3d 6fbb 3abc 3244 b83c
00000350: 0004 6abc c5df 9d3b d599 9cbc c148 0bbd
00000360: ee59 cf39 48ca 893d 1794 0e3d 4d82 30bd
00000370: 90ea ccbc bead 34bd 553d 24bd 2cac 3abd
00000380: b0f3 4c3d daa0 7cbc 3282 cebc 3874 52bd
00000390: 2c06 483d 189a 423d 7985 833a 5d24 86bd
000003a0: ff40 3abd 2d76 0dba 235a 66bd f294 0abd
000003b0: 98e0 713d b49d 183c 1377 cdbb 7913 eabb
000003c0: ff9f 65bd 128f 86bc f61d 583c 3192 833d
000003d0: 414d 563d 326f db3c ba2e 5a3d 64b3 fcbc
000003e0: 0ece 153d badb 333d 270c 0d3d 1f51 5dbd
000003f0: 2017 bebd 25a8 68bd e26f 773d a425 bdbd

l3.weight f4 [1, 256]
-0.3291837 -0.19166847 0.3054741 0.21288303 0.22975008 0.36938468 0.2252976 -0.32878095
-0.03812651 -0.06607893 0.2952266 -0.38893253 -0.36675513 -0.08448534 -0.06272768 0.37800032
-0.4428328 0.3116837 -0.08051534 0.17027614 0.24685127 -0.058830775 -0.14817026 0.01075638
-0.074194975 -0.027959678 0.3239992 -0.42596877 -0.045921184 -0.29286733 0.21835381 -0.19738495
0.19949107 0.33454052 0.1748881 0.26650995 0.55214316 -0.577312 0.41165727 0.106272176
0.18069988 0.35100582 -0.05388409 -0.047011517 0.3959622 -0.03340822 -0.08835402 -0.44900194
-0.79573435 0.27006033 -0.31227347 -0.044109322 -0.09373736 -0.015512241 0.33131322 0.15551314
0.29638064 -0.41016528 0.39900887 -0.06690964 0.22175574 0.4565556 0.29240903 0.22389667
-0.04599052 -0.07325341 -0.03065573 -0.38420656 0.52694434 -0.08705993 -0.51660746 0.4116981
0.39917237 -0.11293094 0.40706557 0.4921992 0.30747664 -0.3121753 -0.061243277 0.27616352
0.2674089 0.31853262 -0.38619184 -0.054530285 -0.5312235 0.33375224 -0.34484512 0.43335065
0.32365328 -0.4971053 -0.019366402 0.5154231 -0.056674283 0.34886158 -0.041927405 -0.018782362
-0.2343473 -0.10545693 -0.054295875 -0.063693464 0.2155041 0.13169149 -0.020421868 -0.21653213
-0.44914407 0.20242712 -0.35939363 0.3094682 0.2671615 -0.6762074 -0.6561994 -0.027443012
-0.017973283 0.29529238 -0.38119677 0.16529588 -0.013753374 0.3326981 -0.0725476 0.023230666
0.4190011 -0.2195157 -0.21792121 0.44327813 0.27577168 -0.03989527 -0.28097275 -0.3030067
-0.04526735 0.23177932 0.0028785653 -0.06914415 0.24394636 0.25681537 -0.5803753 -0.02145811
0.2014394 0.35098112 0.29755348 0.27347225 0.18011278 -0.49268547 -0.17535439 -0.3236966
-0.68864894 0.650781 -0.46833313 -0.52593607 -0.48454535 0.28955758 0.2641311 0.37290874
0.25331262 0.33385023 -0.0705224 0.20143315 0.2924755 0.43067485 -0.029909838 0.24937855
-0.28641903 -0.22925702 -0.05409446 -0.092932075 -0.10941201 0.20953749 0.41632903 0.23542689
0.38864625 -0.13132748 0.20291634 0.28531924 0.15118015 -0.021596966 0.18980967 0.6354669
0.23970544 0.5185564 -0.56016374 0.52104276 0.04814696 -0.18455808 0.28104255 -0.36269712
0.3051237 -0.0599702 -0.0691678 -0.19688696 -0.38067448 0.26832694 0.27383065 0.15578052
-0.32123628 -0.11530465 0.15819651 -0.5092643 -0.44692695 0.62190014 -0.16648576 -0.24716653
0.32809645 -0.0367037 0.14078584 -0.44247898 -0.43874568 -0.061806384 -0.08810299 -0.4659729
-0.18406817 0.28933966 0.5911052 0.17773359 0.007927395 -0.16525455 -0.36414632 -0.037791315
-0.4833738 0.4194011 -0.39774138 0.34551796 0.020280948 0.23389538 0.39917234 0.4678686
0.34333768 -0.23100047 0.35740718 -0.032123674 -0.07319234 0.44486746 -0.33216375 -0.17031646
-0.38436863 0.32600376 -0.110347904 -0.047792133 0.16283183 -0.1788371 -0.041465715 0.22720912
-0.10109422 -0.06899171 0.19317237 0.16413565 0.4216621 -0.05099933 0.3105985 0.45984218
-0.21725747 0.5759119 0.39649728 0.019896148 -0.595125 -0.0800198 -0.4196503 -0.23346992
00000000: c48a a8be bd44 44be 1a67 9c3e 02fe 593e
00000010: 9b43 6b3e fd1f bd3e 6ab4 663e fa55 a8be
00000020: 8b2a 1cbd 6454 87bd f127 973e 2a22 c7be
00000030: 54c7 bbbe a606 adbd 5f77 80bd 4289 c13e
00000040: fbba e2be 0295 9f3e 3ae5 a4bd de5c 2e3e
00000050: 94c6 7c3e 8af8 70bd f2b9 17be 873b 303c
00000060: 89f3 97bd b20b e5bc 39e3 a53e 9418 dabe
00000070: da17 3cbd b5f2 95be 2498 5f3e 481f 4abe
00000080: 6347 4c3e e548 ab3e de15 333e fe73 883e
00000090: 4159 0d3f b8ca 13bf bec4 d23e 3aa5 d93d
000000a0: 6409 393e 09b7 b33e 90b5 5cbd 268f 40bd
000000b0: 8fbb ca3e 0fd7 08bd f4f2 b4bd 95e3 e5be
000000c0: 3fb5 4bbf 5945 8a3e 4fe2 9fbe faab 34bd
000000d0: 5ff9 bfbd 0e27 7ebc e3a1 a93e d63e 1f3e
000000e0: 34bf 973e 2f01 d2be e44a cc3e ec07 89bd
000000f0: f013 633e a8c1 e93e a3b6 953e 2b45 653e
00000100: 8e60 3cbd e205 96bd ba21 fbbc b9b6 c4be
00000110: d3e5 063f 7a4c b2bd 6340 04bf 18ca d23e
00000120: 5260 cc3e 5648 e7bd e66a d03e 8901 fc3e
00000130: 946d 9d3e 71d5 9fbe 3bda 7abd 4e65 8d3e
00000140: d2e9 883e b516 a33e f0ba c5be 265b 5fbd
00000150: 43fe 07bf 93e1 aa3e 8a8f b0be 23e0 dd3e
00000160: e2b5 a53e 9684 febe 4aa6 9ebc c5f2 033f
00000170: 4b23 68bd fc9d b23e 12bc 2bbd 78dd 99bc
00000180: bdf8 6fbe cef9 d7bd 5a65 5ebd b871 82bd
00000190: 1bad 5c3e 22da 063e c34b a7bc 99ba 5dbe
000001a0: 36f6 e5be 0e49 4f3e 7102 b8be 9e72 9e3e
000001b0: 64c9 883e ee1b 2dbf affc 27bf 2bd0 e0bc
000001c0: b53c 93bc 9030 973e 392c c3be 5343 293e
000001d0: d555 61bc 6857 aa3e d693 94bd 3d4e be3c
000001e0: 5087 d63e b9c8 60be bd26 5fbe 5af5 e23e
000001f0: f231 8d3e 3969 23bd a9db 8fbe b223 9bbe
00000200: 426a 39bd 8f57 6d3e 50a6 3c3b 739b 8dbd
00000210: 13cd 793e 4e7d 833e 7a93 14bf ebc8 afbc
00000220: 2146 4e3e ccb3 b33e ee58 983e 8e04 8c3e
00000230: 7c6f 383e 4541 fcbe 1a90 33be 90bb a5be
00000240: 4c4b 30bf 9599 263f 5cc9 efbe bfa3 06bf
00000250: 5416 f8be e440 943e 313c 873e e5ed be3e
00000260: 31b2 813e 6bee aa3e 0c6e 90bd 7e44 4e3e
00000270: 59bf 953e 6a81 dc3e 7a05 f5bc 175d 7f3e
00000280: 84a5 92be 5ac2 6abe 2792 5dbd 2c53 bebd
00000290: 6713 e0bd ff90 563e 1429 d53e bf13 713e
000002a0: a4fc c63e b67a 06be 4dc9 4f3e 5d15 923e
000002b0: f8ce 1a3e 1fec b0bc 775d 423e f5ad 223f
000002c0: 5875 753e 1dc0 043f e466 0fbf 0f63 053f
000002d0: bf35 453d cbfc 3cbe cfe4 8f3e 70b3 b9be
000002e0: 2c39 9c3e 50a3 75bd d9a7 8dbd bc9c 49be
000002f0: c4e7 c2be 2662 893e 8833 8c3e ee84 1f3e
00000300: 1579 a4be d824 ecbd 44fe 213e 255f 02bf
00000310: 9cd3 e4be d934 1f3f 3e7b 2abe 3919 7dbe
00000320: 42fc a73e 9e56 16bd 2a2a 103e 9b8c e2be
00000330: 46a3 e0be b128 7dbd 576f b4bd 0094 eebe
00000340: 5e7c 3cbe 5424 943e ac52 173f cbff 353e
00000350: e8e1 013c 7d38 29be 6371 babe 11cb 1abd
00000360: c57c f7be bebb d63e c2a4 cbbe bbe7 b03e
00000370: 3b24 a63c 4582 6f3e 5160 cc3e 798c ef3e
00000380: f5c9 af3e 638b 6cbe 13fe b63e 1d94 03bd
00000390: dee5 95bd abc5 e33e 5e11 aabe 7067 2ebe
000003a0: f7cb c4be f7e9 a63e 15fe e1bd afc1 43bd
000003b0: 63bd 263e 1321 37be f4d7 29bd 82a9 683e
000003c0: 7d0a cfbd 874b 8dbd face 453e 2d13 283e
000003d0: 18e4 d73e ace4 50bd c406 9f3e 6f70 eb3e
000003e0: be78 5ebe f66e 133f b101 cb3e 3ffd a23c
000003f0: 1d5a 18bf 6ce1 a3bd 67dc d6be bd12 6fbe

l4.weight f4 [256, 28]
-0.0018243404 0.5771669 -0.4494704 0.026578626 0.10774194 -0.02957891 -0.16759612 -0.03666729
0.05297711 -0.094291896 -0.09724371 -0.17544399 0.055919144 0.027201207 0.07850607 0.06061175
0.17422995 -0.12347123 0.0979404 0.11319187 0.15430698 -0.10822257 0.062347926 -0.14452311
0.0047064894 -0.18600668 -0.10791195 0.0196106 -0.37945533 -0.9201429 -0.18576148 0.43441936
-0.114455596 0.059498914 0.21516617 0.054418486 -0.006577335 -0.0021633978 -0.11724785 0.061723318
0.006154031 0.08951009 0.21362755 0.045063727 -0.049997874 0.19098935 0.0034747561 -0.0940709
0.025774637 -0.08174919 0.042641483 0.04858422 -0.0043540276 0.056296505 -0.004142148 0.007611742
0.1668543 0.13123658 0.36960974 0.21609102 0.20903371 0.10442 0.22424892 0.102021076
-0.075034775 -0.14779459 0.12045113 0.13397782 -0.0013635424 -0.101529144 0.09403144 0.044679437
-0.04504006 -0.0906905 -0.0018719245 0.058104284 -0.041354246 0.089794606 0.14622885 -0.00041373738
0.12806861 -0.14967261 0.022141168 0.018382112 0.16919199 -0.7213978 -0.007555197 0.20338309
-0.1372462 0.1358364 -0.2968153 0.07463671 0.17183357 0.0337687 -9.3062496e-05 0.23146899
-0.038724475 0.02220617 -0.070676945 -0.1405345 0.15175785 0.14295447 0.21702054 0.11632207
-0.10161844 0.21047446 -0.014775685 0.07899708 -0.012065618 -0.10183059 -0.038759463 -0.0543832
0.19448727 0.44204748 0.2985504 0.06746257 0.18628347 0.12706216 0.18133831 -0.10199728
-0.1533224 -0.1876748 -0.10112137 0.20738325 -0.018360633 0.091407776 0.18049298 0.020133076
0.08875501 -0.01291809 -0.10908891 0.092963815 0.15192883 0.11477479 -0.15926653 0.11466179
-0.03715205 0.00794479 -0.11912026 0.0024470384 0.29700154 -0.5394582 -0.4834192 0.28582704
-0.10858782 -0.0574201 -0.1816751 0.010381901 0.07946733 -0.19888875 0.0059481217 -0.1604551
-0.069049634 0.0035877065 0.026343482 0.1887791 0.17501318 -0.047717556 0.09111658 0.02083429
0.26899973 0.15777513 0.25900212 0.007907753 -0.06334377 -0.10166376 -0.05364251 0.16046137
0.139393 -0.08764866 0.34591514 0.49186602 0.06982789 0.08827049 0.12418196 -0.0049322075
-0.0453492 -0.026650771 0.06512637 -0.10941722 0.084162705 0.04335145 0.07049727 -0.10628688
0.15015104 0.04733284 0.11417903 -0.18204829 0.10568305 0.19687657 0.0390961 0.050499965
-0.009313757 -0.08587598 0.05716526 -0.037281252 0.093791746 0.33644173 -0.02299444 -0.022778604
-0.13664961 0.16437048 0.06865478 0.09054231 0.15382057 -0.01791739 -0.07884516 0.40314874
-0.06491822 0.0014331102 -0.14519407 0.06032567 -0.06372768 0.1948541 -0.06784569 -0.21281281
0.12193413 -0.120242916 -0.13918689 0.033228755 0.099173516 -0.08077847 -0.047912434 0.20395468
0.110065274 -0.027452119 0.3792121 0.29175848 -0.09634532 0.09160851 -0.13810998 0.055963974
-0.14013316 -0.29578575 0.0625098 0.05568987 0.028527685 -0.11504262 0.11634787 0.22216552
0.18220344 -0.084656395 -0.02940239 0.11388379 -0.10299757 -0.06883825 -0.08315575 -0.07014063
0.029261775 0.012333202 0.025557809 -0.017787578 0.071264155 -0.34226844 -0.41638336 0.11125432
00000000: b51e efba 36c1 133f fc20 e6be 6bbb d93c
00000010: cea7 dc3d 784f f2bc 519e 2bbe 7130 16bd
00000020: 87fe 583d 1c1c c1bd b627 c7bd 97a7 33be
00000030: 790b 653d 11d5 de3c cac7 a03d 0744 783d
00000040: 5669 323e 7cde fcbd fa94 c83d 24d1 e73d
00000050: a602 1e3e cba3 ddbd 8a60 7f3d defd 13be
00000060: e538 9a3b 8978 3ebe f100 ddbd 69a6 a03c
00000070: f847 c2be 7c8e 6bbf 4238 3ebe 376c de3e
00000080: b267 eabd 22b5 733d 8554 5c3e ebe5 5e3d
00000090: af86 d7bb cbc7 0dbb a41f f0bd 97d1 7c3d
000000a0: c1a7 c93b 1151 b73d 2ec1 5a3e be94 383d
000000b0: 92ca 4cbd b692 433e bcb8 633b 3ea8 c0bd
000000c0: 5525 d33c 1f6c a7bd d6a8 2e3d 3f00 473d
000000d0: 3bac 8ebb 2a97 663d dbba 87bb eb6b f93b
000000e0: dbdb 2a3e e262 063e 7d3d bd3e f746 5d3e
000000f0: ef0c 563e 27da d53d 82a1 653e 6df0 d03d
00000100: d5ab 99bd 7757 17be 15af f63d 7b31 093e
00000110: e4b8 b2ba 83ee cfbd 8e93 c03d c901 373d
00000120: ed7b 38bd f1bb b9bd 5d5b f5ba c2fe 6d3d
00000130: 1263 29bd 3ce6 b73d 04bd 153e e4ea d8b9
00000140: 6b24 033e c743 19be 6561 b53c 1596 963c
00000150: aa40 2d3e 87ad 38bf 9691 f7bb a843 503e
00000160: 458a 0cbe b218 0b3e 2df8 97be 22db 983d
00000170: 24f5 2f3e 0c51 0a3d 8c2a c3b8 3506 6d3e
00000180: 8e9d 1ebd b7e9 b53c 13bf 90bd 47e8 0fbe
00000190: 6966 1b3e a862 123e a23a 5e3e 443a ee3d
000001a0: 541d d0bd 9e86 573e b715 72bc 39c9 a13d
000001b0: dfae 45bc 8e8c d0bd 3ec2 1ebd ebc0 5ebd
000001c0: ac27 473e 0c54 e23e 99db 983e d129 8a3d
000001d0: 18c1 3e3e 951c 023e c0b0 393e f3e3 d0bd
000001e0: 8c00 1dbe d32d 40be b918 cfbd 465c 543e
000001f0: 0a69 96bc 0034 bb3d 27d3 383e 1fee a43c
00000200: 30c5 b53d 66a6 53bc 026a dfbd d063 be3d
00000210: 3b93 1b3e 0c0f eb3d c416 23be cdd3 ea3d
00000220: bf2c 18bd dd2a 023c 53f5 f3bd 7e5e 203b
00000230: 9610 983e ef19 0abf b982 f7be ec57 923e
00000240: 4a63 debd 5731 6bbd 0a09 3abe d918 2a3c
00000250: c4bf a23d 7ea9 4bbe 76e8 c23b 574e 24be
00000260: e569 8dbd ba1f 6b3b 49ce d73c 4f4f 413e
00000270: a836 333e 7c73 43bd 549b ba3d acac aa3c
00000280: 55ba 893e ce8f 213e ed9b 843e 858f 013c
00000290: 61ba 81bd 1735 d0bd 40b8 5bbd fc4f 243e
000002a0: 0abd 0e3e 2481 b3bd ca1b b13e ddd5 fb3e
000002b0: ed01 8f3d 29c7 b43d 1d53 fe3d 5b9e a1bb
000002c0: 15c0 39bd b852 dabc f960 853d 2316 e0bd
000002d0: 7f5d ac3d 4a91 313d df60 903d f0ac d9bd
000002e0: 32c1 193e 14e0 413d b2d6 e93d de6a 3abe
000002f0: 5b70 d83d 039a 493e 3b23 203d 0dd9 4e3d
00000300: ba98 18bc bfdf afbd 1f26 6a3d 3ab4 18bd
00000310: e315 c03d 1742 ac3e d65e bcbc 329a babc
00000320: e0ed 0bbe bc50 283e e19a 8c3d 3f6e b93d
00000330: 2483 1d3e 7ec7 92bc 9279 a1bd 8369 ce3e
00000340: d8f3 84bd 33d7 bb3a c1ad 14be 0d18 773d
00000350: a883 82bd d587 473e aef2 8abd 9aeb 59be
00000360: 9ab8 f93d eb41 f6bd 0287 0ebe e01a 083d
00000370: 7c1b cb3d 2f6f a5bd d43f 44bd 7fd9 503e
00000380: e769 e13d 44e3 e0bc 1728 c23e 5e61 953e
00000390: b250 c5bd 3e9d bb3d b46c 0dbe 7b3a 653d
000003a0: 117f 0fbe 3b71 97be 2305 803d 101b 643d
000003b0: e4b2 e93c 779b ebbd cb47 ee3d 5c7f 633e
000003c0: 8a93 3a3e 5560 adbd 48dd f0bc e83b e93d
000003d0: 64f0 d2bd 12fb 8cbd 904d aabd e4a5 8fbd
000003e0: 64b6 ef3c 3311 4a3c 9c5e d13c 41b7 91bc
000003f0: f1f2 913d cf3d afbe 3330 d5be 4ed9 e33d

l4.bias f4 [256]
0.010280701 0.09853514 -0.11953339 -0.12517902 -0.092748806 -0.11389606 -0.082269214 -0.12935069
0.05457181 0.082605 -0.039078936 -0.0149716465 -0.19034287 0.0033294708 -0.007767302 -0.13015272
-0.19114208 0.00028025627 -0.100740045 -0.018615039 -0.05578447 0.12534373 -0.07151292 0.18814094
-0.1712673 -0.03933017 0.11257937 -0.12633155 -0.10152873 0.10764075 -0.1755028 0.03990424
0.20196511 -0.17735745 0.058511775 0.14749612 0.07503738 0.11977275 -0.12281956 0.20737737
-0.023782475 0.21358675 0.09137276 0.21405435 0.16098334 -0.14348654 0.074924156 0.03208891
-0.14882198 0.00054503145 -0.20199671 0.1264122 -0.1271359 -0.029050143 0.15963541 -0.06384864
-0.09150554 -0.1570418 -0.016895253 0.06037233 0.16912869 0.17272462 -0.15689033 0.14995736
0.14069207 -0.03468003 0.14752771 -0.11764723 0.046040285 0.033254404 0.1287985 0.14941974
0.011744279 0.11895515 0.1910134 -0.11582882 0.10253943 0.14889975 0.052733127 0.031768817
-0.15624833 -0.04232565 0.17492457 -0.019710202 0.02153838 0.030835385 -0.13257968 0.16679
0.13181594 0.14877713 0.035560694 -0.047946747 0.21135147 -0.08655541 -0.22770122 -0.07682209
0.05042497 0.11966423 0.13240099 -0.083898135 0.054512136 -0.12794025 0.041167714 0.12389301
-0.025997855 0.19855669 -0.024742907 -0.04361438 -0.06094484 -0.06872435 -0.07741486 0.09570657
-0.21210152 -0.15831411 0.223447 -0.04404059 -0.14532201 0.1367909 -0.10044674 -0.23746742
0.18596496 0.09385718 -0.12622613 0.14633137 0.19361942 -0.1831678 -0.0088695865 -0.21725337
0.01462589 0.08300307 -0.12724659 0.13057339 -0.023012681 -0.06750275 0.21951754 -0.09504386
-0.2149286 -0.07256841 -0.13259983 -0.2694685 -0.15666035 -0.07168712 0.16318703 0.07939663
0.20227402 0.02478595 0.15572828 0.047607016 -0.008716795 0.008351935 -0.1364031 -0.06725821
0.06562454 0.08382798 -0.17534581 -0.17811933 -0.12000676 0.016511062 0.022883734 -0.13677023
0.0186701 -0.101906106 -0.012676121 -0.10421311 -0.10520743 0.1416906 -0.05502224 0.08267556
0.05165447 0.009820846 -0.10279778 0.12649849 0.13506335 -0.081157014 -0.04289247 -0.09696039
-0.039724156 0.05536508 -0.15554126 0.15195976 -0.15466397 0.11650279 0.07358415 0.13496041
0.07364894 0.008484183 0.13784648 0.047991034 0.03691538 -0.14484355 0.18139473 0.10024808
0.1725171 -0.053983167 0.16281562 0.12734899 0.16564976 0.061423086 0.084862255 0.14936607
-0.06628336 0.04400397 0.065374546 0.17900541 -0.07974551 -0.07931419 0.18699253 0.1344254
0.15849926 -0.074960925 0.0004638774 0.25291768 -0.03619003 -0.055378333 -0.07744147 0.00401927
-0.12255667 0.10992534 -0.16689762 -0.14605448 0.010764849 0.06614076 0.07826403 0.053543016
-0.12985253 -0.18221438 0.20090273 -0.12682529 0.028529419 -0.08562002 0.07141413 0.09712125
-0.01228224 -0.16811264 -0.06791034 0.04742678 -0.08003322 0.18651181 0.06974691 0.011898394
0.10456896 0.038167592 -0.09742606 -0.040728554 0.14652987 -0.048294883 0.0604384 0.013683842
-0.018654255 0.05829706 0.10014981 -0.13914533 -0.16533607 -0.09005221 -0.09172297 0.0219183
00000000: 6370 283c cbcc c93d eccd f4bd ee2e 00be
00000010: 16f3 bdbd 5642 e9bd c37c a8bd 8274 04be
00000020: b186 5f3d cf2c a93d 3c11 20bd a34b 75bc
00000030: 3ee9 42be 4033 5a3b da84 febb c146 05be
00000040: c0ba 43be 5cef 9239 cc50 cebd 917e 98bc
00000050: 427e 64bd 1b5a 003e 5e75 92bd 05a8 403e
00000060: b260 2fbe ac18 21bd 0390 e63d 0f5d 01be
00000070: 4bee cfbd c172 dc3d 02b7 33be a172 233d
00000080: f1cf 4e3e 319d 35be 0baa 6f3d 3909 173e
00000090: 33ad 993d 6a4b f53d d288 fbbd bc5a 543e
000000a0: 77d3 c2bc 7cb6 5a3e a421 bb3d 1031 5b3e
000000b0: d1d8 243e 23ee 12be d671 993d a96f 033d
000000c0: ca64 18be 71e0 0e3a 3ad8 4ebe 3372 013e
000000d0: ea2f 02be 91fa edbc 7777 233e 13c3 82bd
000000e0: 4267 bbbd 91cf 20be ea67 8abc fa48 773d
000000f0: 1230 2d3e b9de 303e dca7 20be 6c8e 193e
00000100: 9511 103e a60c 0ebd 8111 173e 08f1 f0bd
00000110: bd94 3c3d c535 083d c1e3 033e 7d01 193e
00000120: 146b 403c c29e f33d 0499 433e a937 edbd
00000130: 3100 d23d 2d79 183e b1fe 573d 0520 023d
00000140: 90ff 1fbe a95d 2dbd 6d1f 333e 4a77 a1bc
00000150: 4271 b03c 7d9a fc3c f8c2 07be ffca 2a3e
00000160: c2fa 063e 0859 183e 17a8 113d cf63 44bd
00000170: 856c 583e f643 b1bd 822a 69be e654 9dbd
00000180: 6a8a 4e3d 8512 f53d 2094 073e c9d2 abbd
00000190: 1e48 5f3d c502 03be 7a9f 283d 9ebb fd3d
000001a0: 74f9 d4bc 7252 4b3e a3b1 cabc fea4 32bd
000001b0: 4ca1 79bd 5abf 8cbd af8b 9ebd ce01 c43d
000001c0: 2431 59be 181d 22be 4acf 643e e863 34bd
000001d0: 4bcf 14be ea12 0c3e 05b7 cdbd a92a 73be
000001e0: 996d 3e3e 3138 c03d 6c41 01be e4d7 153e
000001f0: 2b44 463e 5790 3bbe be51 11bc ab77 5ebe
00000200: 6ea1 6f3c 83fd a93d ee4c 02be 08b5 053e
00000210: 1785 bcbc e23e 8abd 35c9 603e 5ba6 c2bd
00000220: 3e16 5cbe bf9e 94bd 40c8 07be c6f7 89be
00000230: 926b 20be b2d0 92bd 801a 273e b39a a23d
00000240: ec20 4f3e e80b cb3c 3c77 1f3e 93ff 423d
00000250: e3d0 0ebc 8ed6 083c 41ad 0bbe acbe 89bd
00000260: 2966 863d 01ae ab3d da8d 33be ea64 36be
00000270: 1bc6 f5bd 3542 873c ab76 bb3c 7f0d 0cbe
00000280: 0af2 983c 26b4 d0bd 81af 4fbc af6d d5bd
00000290: fe76 d7bd 5717 113e 005f 61bd ce51 a93d
000002a0: a393 533d 9de7 203c a487 d2bd d288 013e
000002b0: 0c4e 0a3e a635 a6bd 04b0 2fbd 2b93 c6bd
000002c0: ccb5 22bd 7ec6 623d 3546 1fbe 579b 1b3e
000002d0: 3b60 1ebe 0499 ee3d 49b3 963d 1033 0a3e
000002e0: 41d5 963d 3e01 0b3c a127 0d3e 3f92 443d
000002f0: 9534 173d de51 14be 8abf 393e de4e cd3d
00000300: 53a8 303e 741d 5dbd 23b9 263e c667 023e
00000310: 17a0 293e c696 7b3d 43cc ad3d 6bf3 183e
00000320: 92bf 87bd 823d 343d 17e3 853d 324d 373e
00000330: 9d51 a3bd 7a6f a2bd f87a 3f3e d0a6 093e
00000340: a14d 223e 1d85 99bd 9234 f339 6d7e 813e
00000350: ff3b 14bd 64d4 62bd a299 9ebd 15b4 833b
00000360: fefe fabd 8920 e13d 36e7 2abe 4e8f 15be
00000370: 0d5f 303c cf74 873d e448 a03d ec4f 5b3d
00000380: 10f8 04be 6896 3abe 72b9 4d3e 7dde 01be
00000390: 87b6 e93c 8d59 afbd 9241 923d 82e7 c63d
000003a0: 733b 49bc b825 2cbe 9414 8bbd 9542 423d
000003b0: 75e8 a3bd f4fc 3e3e 78d7 8e3d 7bf1 423c
000003c0: 4028 d63d 9f55 1c3d 5087 c7bd fcd2 26bd
000003d0: ed0b 163e dbd0 45bd 418e 773d 3132 603c
000003e0: cfd0 98bc e6c8 6e3d 581b cd3d 1d7c 0ebe
000003f0: dc4d 29be 4b6d b8bd 41d9 bbbd 028e b33c

l5.weight f4 [256, 256]
-0.070362166 -0.09980959 0.016033003 -0.055746194 0.035390016 -0.007721347 -0.031908236 0.031943884
0.021502111 0.028726136 0.06565595 -0.02529915 -0.12551199 -0.10253718 -0.23019864 0.034563012
-0.19247897 0.029301 -0.043604165 -0.2086287 0.00360165 -0.025729993 -0.075738214 0.078120194
-0.03712105 -0.025094781 0.10224494 -0.035570517 -0.009628403 -0.030313574 -0.059760075 0.028176308
0.056841195 -0.13937268 0.009147615 0.0041200547 -0.16402826 0.112611994 -0.025283258 -0.045032743
-0.095966645 -0.102503896 -0.023354348 -0.09205558 -0.0155372545 0.09882828 0.01760389 -0.046207808
-0.0012333806 0.0026604256 -0.025034409 0.02332784 -0.05264673 0.10020335 0.08062012 0.11154101
-0.05157131 -0.14265093 0.09585276 0.045936383 0.03907715 0.014137747 0.050228164 0.058867723
-0.22175303 0.08320613 -0.044290256 -0.21047802 -0.014072526 -0.059271127 0.08777334 -0.03648569
0.006405436 0.09842961 0.02161745 -0.089029826 0.0240787 0.1180905 -0.19865078 -0.22392283
-0.06708218 0.04562059 0.027795132 0.001445463 0.031065337 0.013108033 -0.025389565 0.01654731
0.047585253 0.045554306 0.018593112 -0.01675075 -0.034552153 0.096116826 -0.0068326327 -0.021182869
0.07931175 0.026872242 -0.1003978 0.0017531979 -0.011653399 0.013756424 -0.11547465 -0.0061169597
0.112966135 -0.018199835 0.06492797 -0.12907559 -0.0452156 -0.037150655 0.13788877 -0.018330136
0.018252281 0.026284598 0.07039 -0.009120698 0.09095052 -0.004769041 0.02162042 -0.09036771
-0.0007984741 -0.012248855 -0.07894668 0.026216846 -0.19922954 -0.182471 0.01592631 0.019115144
0.106328756 0.01467255 -0.12772138 -0.07344467 0.074262165 -0.0035743308 -0.0970464 0.05271694
0.037450403 -0.040360536 0.038093954 0.03928112 -0.07629147 -0.041428916 -0.091755256 -0.100309655
0.04106233 0.06391386 -0.059217654 -0.13671675 0.013911949 -0.022302555 0.14148584 0.042189896
-0.14314397 0.040463228 -0.015272639 -0.031397816 0.019299332 0.024982167 0.057610378 0.062915154
0.0014179351 0.042410254 -0.005986781 0.019227643 -0.03966321 0.075683765 -0.062805526 -0.061373338
0.06376712 0.07806847 0.10489151 -0.019090481 0.015574501 -0.09511302 0.058099836 0.035323385
0.003905126 -0.057730917 -0.076892145 0.06069185 0.08920001 0.018290343 0.015710002 -0.17903547
0.0229353 0.023723777 -0.05056401 0.02628319 0.06265924 0.014324241 -0.0853717 0.09547329
-0.08260727 0.03591626 -0.01782811 0.034393463 -0.2678028 0.060940377 0.082586125 -0.071931995
-0.028115014 0.038822103 -0.0034267446 -0.013913844 0.10618543 0.0954962 0.071180165 0.06933123
0.023561906 0.0024704635 0.030007528 0.069224216 0.10098667 -0.049131308 0.012959156 -0.124200664
-0.020887522 -0.026215628 0.09516901 0.038696814 -0.06585976 -0.007983702 0.028600516 0.028511414
0.03787303 -0.017706867 -0.048185654 -0.0105687305 -0.07992156 -0.12728225 0.058987837 -0.0990731
-0.040631056 -0.05974712 -0.048934117 0.022823494 -0.009127358 0.12012076 -0.1704559 -0.022528645
-0.07840993 -0.050263837 -0.21512543 0.051288866 0.0024638816 -0.070308134 -0.043355137 -0.004638008
0.016906327 0.052312393 0.049510103 -0.005823656 -0.05493588 -0.12912473 0.057218827 0.060403496
00000000: 0a1a 90bd f868 ccbd a557 833c 1f56 64bd
00000010: 1ff5 103d 5a03 fdbb 36b2 02bd 97d7 023d
00000020: 3225 b03c 1353 eb3c a076 863d 2a40 cfbc
00000030: 3786 00be 03ff d1bd 31b9 6bbe f291 0d3d
00000040: 3519 45be a708 f03c 489a 32bd c3a2 55be
00000050: a909 6c3b b5c7 d2bc a31c 9bbd 7bfd 9f3d
00000060: 3e0c 18bd 9293 cdbc cc65 d13d 64b2 11bd
00000070: 73c0 1dbc 2c54 f8bc fbc6 74bd 00d2 e63c
00000080: 50d2 683d b6b7 0ebe e1df 153c 8601 873b
00000090: 06f7 27be 1ea1 e63d d61e cfbc 4174 38bd
000000a0: 298a c4bd 90ed d1bd 9e51 bfbc a387 bcbd
000000b0: f88f 7ebc 7b66 ca3d 0836 903c 6644 3dbd
000000c0: 63a9 a1ba 895a 2e3b f614 cdbc 071a bf3c
000000d0: 19a4 57bd 6a37 cd3d 291c a53d 9d6f e43d
000000e0: 703c 53bd 1613 12be 744e c43d ca27 3c3d
000000f0: 5d0f 203d 02a2 673c 0cbc 4d3d 481f 713d
00000100: 3a13 63be fa67 aa3d b369 35bd 8d87 57be
00000110: 7490 66bc 48c6 72bd 82c2 b33d 0572 15bd
00000120: b1e4 d13b 7795 c93d 1417 b13c 4555 b6bd
00000130: b240 c53c 6fd9 f13d 1c6b 4bbe 074c 65be
00000140: 6262 89bd a8dc 3a3d 9eb2 e33c b175 bd3a
00000150: bc7c fe3c 13c3 563c c7fd cfbc 398e 873c
00000160: c1e8 423d 2797 3a3d 9550 983c de38 89bc
00000170: 8f86 0dbd e6d8 c43d 47e4 dfbb b287 adbc
00000180: 336e a23d 2d23 dc3c 5d9d cdbd 8fcb e53a
00000190: e6ed 3ebc a062 613c f97d ecbd c770 c8bb
000001a0: ca5a e73d d217 95bc f5f8 843d 642c 04be
000001b0: fe33 39bd 492b 18bd b732 0d3e 1529 96bc
000001c0: cf85 953c cc52 d73c a228 903d fb6e 15bc
000001d0: 4444 ba3d 9e45 9cbb 4f1d b13c b512 b9bd
000001e0: b150 51ba 6caf 48bc ccae a1bd b6c4 d63c
000001f0: d402 4cbe aed9 3abe e577 823c 5d97 9c3c
00000200: e4c2 d93d 2365 703c 65c9 02be 296a 96bd
00000210: c316 983d 523f 6abb 43c0 c6bd b8ed 573d
00000220: 9865 193d 1751 25bd 6808 1c3d 3de5 203d
00000230: b43e 9cbd 5eb1 29bd 2eea bbbd 266f cdbd
00000240: f930 283d 45e5 823d 368e 72bd 7aff 0bbe
00000250: f1ee 633c d9b3 b6bc aae1 103e 50cf 2c3d
00000260: 5594 12be c5bc 253d 173a 7abc ff9a 00bd
00000270: a219 9e3c 67a7 cc3c dcf8 6b3d a9d9 803d
00000280: 02da b93a 60b6 2d3d c22c c4bb 4a83 9d3c
00000290: e475 22bd 1700 9b3d 2fa0 80bd 9c62 7bbd
000002a0: 5698 823d 5de2 9f3d 5cd1 d63d a463 9cbc
000002b0: 312c 7f3c 9dca c2bd 18fa 6d3d 41af 103d
000002c0: 24ed 7f3b 4177 6cbd a179 9dbd 0498 783d
000002d0: 7fae b63d a1d5 953c 43b2 803c 1355 37be
000002e0: cfe2 bb3c 5e58 c23c 351c 4fbd d84f d73c
000002f0: 7d53 803d 39b0 6a3c 5cd7 aebd 8087 c33d
00000300: 002e a9bd ee1c 133d 420c 92bc 29e0 0c3d
00000310: 731d 89be 9e9c 793d ea22 a93d 1551 93bd
00000320: 7551 e6bc ed03 1f3d 3c93 60bb e4f6 63bc
00000330: bf77 d93d 8393 c33d e8c6 913d 88fd 8d3d
00000340: e604 c13c 80e7 213b 59d2 f53c 6dc5 8d3d
00000350: 19d2 ce3d e93d 49bd a452 543c eb5c febd
00000360: 4f1c abbc 28c2 d6bc f8e7 c23d 8d80 1e3d
00000370: 7be1 86bd 13ce 02bc a14b ea3c c590 e93c
00000380: c020 1b3d fe0d 91bc 525e 45bd 7828 2dbc
00000390: eaad a3bd 4756 02be 3b9d 713d d6e6 cabd
000003a0: c06c 26bd 65b9 74bd 246f 48bd 56f8 ba3c
000003b0: ea8a 15bc df01 f63d fe8b 2ebe fe8d b8bc
000003c0: 6395 a0bd 74e1 4dbd d749 5cbe 4614 523d
000003d0: 1379 213b b6fd 8fbd 2895 31bd 6efa 97bb
000003e0: 237f 8a3c 8545 563d 1bcb 4a3d 5ed4 bebb
000003f0: 7204 61bd 4639 04be 4a5e 6a3d a869 773d
