HardcoreVersion/critic/ppo_q_critic1100.pth (torch, 592130 bytes, 10 tensors)

l1.weight f4 [256, 28]
0	0x3d3451f2	0.04402346
1	0xbed9955b	-0.42496762
2	0xbeb4382f	-0.35199115
3	0xbea9aa64	-0.3313781
4	0xbcefc1c8	-0.029267207
5	0x3e1f0409	0.15528883
6	0x3d079720	0.03310311
7	0x3e2d73e5	0.16938742
8	0xbdd13ef0	-0.102170825
9	0x3e5ed73e	0.21761796
10	0x3d34c8dc	0.044136867
11	0xbc9d3231	-0.019188972
12	0xbdcdaefe	-0.10043143
13	0x3e41561c	0.18880504
14	0xbc4989f5	-0.012300958
15	0x3e26a419	0.16273536
16	0x3d9b072f	0.075697295
17	0x3e82afc6	0.2552473
18	0x3e03df30	0.12878108
19	0xbe8ee327	-0.27907678
20	0xbed18d53	-0.40928134
21	0x3e94eae6	0.29085463
22	0x3de64f27	0.11245566
23	0xbdf2cedd	-0.11855862
24	0x3cb42839	0.021991836
25	0x3da26159	0.07928724
26	0xbc51ed8c	-0.012812983
27	0x3dd6c740	0.10487223
28	0xbe503b1d	-0.2033505
29	0x3cdb59e1	0.026776256
30	0x3e37f823	0.1796575
31	0x3e8f886d	0.28033772
32	0xbe97aa23	-0.29621992
33	0x3d83e0dd	0.06439374
34	0xbe82512f	-0.25452563
35	0x3df6bf57	0.12048214
36	0xbd9a4993	-0.075335644
37	0x3e5418a9	0.20712532
38	0x3cc15f32	0.023604963
39	0xbd2a2ce1	-0.041546706
40	0xbc7871d3	-0.015163857
41	0xbd1e7c1d	-0.038692582
42	0xbe5de915	-0.21670945
43	0xbe540318	-0.20704305
44	0x3d117e3b	0.035520773
45	0xbd05cbca	-0.03266505
46	0xbd0cafda	-0.034347393
47	0xbe11192f	-0.14169763
48	0x3e1cfa37	0.15329824
49	0x3e4eba8a	0.20188347
50	0x3e0c0fa3	0.1367784
51	0xbe2cfb70	-0.16892791
52	0xbd9c8321	-0.07642198
53	0x3e3154b8	0.17317474
54	0x3c900af0	0.01758334
55	0xbdd35354	-0.10318628
56	0x3ef2798b	0.47358355
57	0x3f816140	1.0107803
58	0xbe1e1a48	-0.15439713
59	0xbf66d2e1	-0.90165526
60	0x3f18c3c9	0.59673744
61	0x3e3c1087	0.1836568
62	0xbe0ea433	-0.13929825
63	0x3d9794e1	0.07401443
64	0x3d33f996	0.043939196
65	0xbe2f4e0e	-0.17119619
66	0x3d46000d	0.048339892
67	0xbdb10e3d	-0.08645294
68	0x3c4eda16	0.012625238
69	0xbd9cb206	-0.07651143
70	0xbe51f042	-0.20501807
71	0x3de35e97	0.11102026
72	0x3d2490f4	0.0401773
73	0x3d428da1	0.04749835
74	0xbc3cb125	-0.011516844
75	0xbdd784f7	-0.10523408
76	0xbe0eae1d	-0.13933606
77	0xbe75acc3	-0.23991685
78	0xbe03439f	-0.12818764
79	0x3dc0edce	0.09420358
80	0x3d5b0482	0.053471096
81	0xbca5d383	-0.020242458
82	0xbd2501cf	-0.040284928
83	0x3c0b96af	0.0085198125
84	0x3ddac691	0.10682405
85	0xbe55437b	-0.20826523
86	0x3e90cda4	0.2828189
87	0x3e4ea77c	0.20181078
88	0xbe3c7b29	-0.18406357
89	0xbe4e41c6	-0.20142278
90	0x3e24684b	0.1605541
91	0x3d94dbfb	0.072685204
92	0x3d78c710	0.060736716
93	0xbe4b9b4e	-0.19883463
94	0xbd682eca	-0.056685247
95	0x3dc66a7c	0.09688279
96	0x3d906fbe	0.07052563
97	0x3cdaa118	0.026688144
98	0xbe4023dc	-0.1876368
99	0x3d1ed4c5	0.03877713
100	0x3e269157	0.1626638
101	0x3e378952	0.17923477
102	0x3cb75a4f	0.02238193
103	0x3db06c90	0.08614457
104	0x3ea1d3b5	0.31606832
105	0x3de2e27b	0.11078354
106	0x3dc6960e	0.096965894
107	0xbe2f2725	-0.17104776
108	0xbd1973ce	-0.037463956
109	0x3dba87a6	0.09107904
110	0xb905a254	-0.0001274434
111	0xbb9274c4	-0.004469486
112	0x3e20d812	0.15707424
113	0x3f1e2fe2	0.61791813
114	0xbebdb8fe	-0.370552
115	0x3eec7ac3	0.4618741
116	0xbd8c9508	-0.06864363
117	0x3d8294d6	0.063760445
118	0x3d302c5f	0.043011066
119	0x3d19fc6d	0.037594248
120	0x3dadd6a0	0.08488202
121	0x3e3225dd	0.17397256
122	0x3d24ec8f	0.040264662
123	0xbe24b257	-0.16083656
124	0xbd1c2780	-0.038123608
125	0x3dc18116	0.09448449
126	0xbe1c7487	-0.15278827
127	0x3d6e7d0c	0.058224723
128	0xbd89608f	-0.0670787
129	0xbe9ee0a0	-0.3103075
130	0x3e82fcf6	0.2558362
131	0x3e9bdc17	0.30441353
132	0x3df6f7fe	0.120590195
133	0xbe0ff890	-0.14059663
134	0x3d7a7d59	0.061154697
135	0x3d8c2a58	0.06844014
136	0xbcb0cd28	-0.021582201
137	0xbd483a6b	-0.048883837
138	0x3d7abba1	0.061214093
139	0x3ce4636f	0.027879445
140	0xbbaf5dac	-0.0053517427
141	0x3e927cf8	0.2861097
142	0xbdcc6a17	-0.099811725
143	0xbf1a3594	-0.60238004
144	0x3e2311d1	0.15924765
145	0x3dae50a3	0.08511474
146	0xbd9a1231	-0.07523001
147	0x3d314c07	0.043285396
148	0xbdb4d953	-0.08830514
149	0x3e08fc86	0.1337758
150	0xbd105d74	-0.035245374
151	0xbdc7d9ec	-0.09758362
152	0xbc12734f	-0.0089386245
153	0x3e08c05e	0.13354632
154	0x3e5232e5	0.20527227
155	0x3d3c2226	0.045931004
156	0x3e0b0dbe	0.13579461
157	0x3da7060b	0.081554495
158	0xbe174dbc	-0.14775747
159	0xbdade097	-0.08490103
160	0x3e3cf122	0.1845136
161	0x3ea2a1f9	0.317642
162	0x3da9697c	0.08272073
163	0x3d896636	0.06708948
164	0x3d830d7e	0.06399058
165	0xbdce14f2	-0.10062589
166	0x3e2365d5	0.15956815
167	0xbd3cc26b	-0.04608385
168	0x3ca0426a	0.019562919
169	0x3e98f8e9	0.29877403
170	0xbeb536f5	-0.3539349
171	0x3d98ce73	0.07461252
172	0x3e653e47	0.22387038
173	0x3e205e4c	0.15660971
174	0xbe2f4173	-0.1711481
175	0x3cb704f6	0.022341233
176	0x3d76f857	0.06029543
177	0x3de1fff4	0.11035147
178	0x3cf5ec86	0.03002001
179	0x3d0b9a88	0.03408292
180	0x3ddc36f4	0.10752669
181	0x3d963b7f	0.07335567
182	0xbe7c1259	-0.24616374
183	0xbe2a37c3	-0.16622834
184	0xbe3f086b	-0.18655555
185	0xbdf170b6	-0.11789076
186	0xbdaca7b7	-0.084304266
187	0x3d49183e	0.049095385
188	0xbdfbab66	-0.12288551
189	0xbd8d9ff1	-0.06915272
190	0xbe713cef	-0.235584
191	0xbcb57ac6	-0.02215327
192	0x3d85def2	0.06536664
193	0x3bc005bb	0.005860058
194	0xbd885443	-0.06656697
195	0x3d896740	0.067091465
196	0xbe7a3643	-0.24434762
197	0xbffbe429	-1.9679004
198	0x3e5b09d5	0.2139047
199	0x3f8215e2	1.0162928
200	0x3eadf3fc	0.33975208
201	0xbddc8171	-0.107668765
202	0xbdd95280	-0.10611439
203	0x3c4f9ebd	0.0126721235
204	0xbd9b269d	-0.07575724
205	0x3d23771d	0.039908517
206	0xbe212286	-0.15735826
207	0x3e881135	0.26575628
208	0x3cdcc73e	0.026950475
209	0xbd1f88d8	-0.038948864
210	0x3de561d2	0.11200298
211	0x3c8060d8	0.015671179
212	0xbd410184	-0.047120586
213	0xbe7e7e31	-0.24852826
214	0x3dcef884	0.10105994
215	0x3e158f5a	0.14605466
216	0xbdf5be1e	-0.119991526
217	0x3d25b248	0.040453225
218	0x3de2a899	0.11067314
219	0x3db5e16d	0.08880887
220	0x3d212cb0	0.039349258
221	0x3d3f419b	0.046693426
222	0x3c3c05dd	0.011476007
223	0x3c8f37b1	0.01748261
224	0xbdadd69a	-0.084881976
225	0x3ee7f888	0.45306802
226	0x3ee7d19d	0.4527711
227	0xbf02fa3e	-0.5116309
228	0xbe860c35	-0.26181188
229	0xbd5131ac	-0.05107276
230	0xbecdbf9d	-0.40185252
231	0xbcb2211a	-0.0217443
232	0xbd116e80	-0.03550577
233	0xbe03e8df	-0.12881802
234	0x3dbb4c55	0.091454186
235	0xbe60281a	-0.21890298
236	0xbd61fbe5	-0.055171866
237	0x3b53a8f2	0.0032296744
238	0x3d25ebe4	0.040508166
239	0x3d8f1ab5	0.06987516
240	0xbea87aec	-0.32906282
241	0x3d99e0f1	0.07513607
242	0x3e49c478	0.19703853
243	0xbda6ffe2	-0.081542745
244	0xbe9dc57c	-0.3081473
245	0xbe9af1c0	-0.30262566
246	0x3d9537a8	0.07286006
247	0x3dbbf193	0.09176936
248	0x3b2b61ae	0.002615075
249	0xbb945457	-0.0045266557
250	0x3d04a270	0.032381475
251	0x3d0e7f74	0.034789518
252	0x3e53deb5	0.20690425
253	0xbf58a7f8	-0.846313
254	0xbe8661ad	-0.26246396
255	0x3dc1d795	0.09464947

l1.bias f4 [256]
0	0x3dc3e4fc	0.0956516
1	0x3db53cbf	0.08849477
2	0x3e6d4f36	0.23174748
3	0xbe5f3c1f	-0.21800278
4	0xbe1e88fc	-0.15481943
5	0xbe3e23df	-0.18568371
6	0x3daa2e17	0.08309572
7	0x3e140a3c	0.14457029
8	0x3d802ed3	0.06258931
9	0x3d83c81b	0.064346515
10	0x3ce3b9ef	0.027798621
11	0x3d9c85fe	0.076427445
12	0x3e844a3b	0.25837883
13	0x3d8f2884	0.069901496
14	0x3dde45fe	0.10853194
15	0xbc9e7f6e	-0.019347873
16	0x3e0d04af	0.13771318
17	0x3e457725	0.19283731
18	0x3e92fde3	0.28709325
19	0xbe5209ac	-0.20511502
20	0x3e96dfde	0.29467672
21	0xbe42f085	-0.19037063
22	0xbde5e43c	-0.11225173
23	0x3e09098b	0.13382547
24	0xbe04cdc6	-0.12969121
25	0xbdc51ee1	-0.0962503
26	0xbc83fb60	-0.016111076
27	0xbcdb685c	-0.02678316
28	0x3dd4b7ee	0.10386644
29	0xbb23cf91	-0.0024995545
30	0xbe091e48	-0.13390458
31	0x3dc9e601	0.09858323
32	0xbbcd7731	-0.0062703122
33	0x3d0b42cb	0.033999246
34	0x3cf39c8f	0.029737739
35	0xbcbe1294	-0.023202218
36	0x3d1e24dd	0.038609374
37	0x3ea144eb	0.31497893
38	0x3e9f54fe	0.3111953
39	0x3d12f89d	0.035881627
40	0x3bc648dd	0.0060511664
41	0xbd9cd71e	-0.07658218
42	0x3df08e3a	0.117458776
43	0x3d39bf8f	0.0453487
44	0xbd8908eb	-0.06691154
45	0xbdc11fdb	-0.09429904
46	0x3ec220c6	0.3791563
47	0xbc8120c9	-0.015762703
48	0x3db57f4e	0.08862172
49	0x3e21f1dc	0.15814918
50	0x3e820a44	0.25398457
51	0x3e8847ef	0.2661738
52	0xbcdeab30	-0.027181238
53	0x3dc02a28	0.09383041
54	0xbe6f4952	-0.23367813
55	0x3da93837	0.08262675
56	0x3e6e62ae	0.23279831
57	0xbddc9d4e	-0.10772191
58	0xbd9a96f3	-0.075483225
59	0x3d9b5f1a	0.075864986
60	0xbe38cc8a	-0.18046775
61	0xbe268d64	-0.16264874
62	0x3e5072d7	0.20356308
63	0xbe0f1fc0	-0.13976955
64	0xbe10f7dc	-0.14157051
65	0xbe11eb27	-0.1424986
66	0xbda1ebdc	-0.07906315
67	0xbdf48ece	-0.119413
68	0x3e0b1faf	0.13586305
69	0x3ddfaa2f	0.10921132
70	0xbe69cfc4	-0.22833163
71	0xbe5d9fd1	-0.21642996
72	0x3e5e4121	0.21704532
73	0xbd48f84c	-0.04906492
74	0xbe6bc2a4	-0.23023468
75	0x3d828b9a	0.06374283
76	0x3e4f1c4d	0.2022564
77	0x3e8bd792	0.27312905
78	0x3e854f83	0.26037225
79	0x3e41bb39	0.18919076
80	0xbe891101	-0.26770785
81	0xbd8d1bb4	-0.068900496
82	0xbe338779	-0.17532147
83	0x3e25755f	0.16158055
84	0xbe5b2ca7	-0.21403752
85	0x3d8c09c2	0.06837799
86	0xbdc2ff7c	-0.09521386
87	0xbdeb018e	-0.11474906
88	0xbcb56c5e	-0.0221464
89	0x3e88e8e1	0.26740173
90	0x3e4e5848	0.20150864
91	0x3d9596f1	0.073041804
92	0x3e34258f	0.17592452
93	0xbe19b18e	-0.15009138
94	0xbe1fd933	-0.15610199
95	0x3df2c24d	0.11853466
96	0xbd1a8831	-0.03772754
97	0x3d9ed6c2	0.077558056
98	0x3d41c610	0.047308028
99	0xbd8ca2af	-0.06866967
100	0xbdee73c7	-0.116431765
101	0xbd943028	-0.072357476
102	0xbd90b122	-0.070650354
103	0x3da4ccca	0.08046873
104	0xbd84c822	-0.06483485
105	0x3d4923fc	0.049106583
106	0x3c2081d7	0.009796581
107	0x3cb3828d	0.021912837
108	0x3ea5bba2	0.32369715
109	0xbdcf2643	-0.1011472
110	0xbde364f4	-0.1110324
111	0x3db3bfc1	0.087768085
112	0x3d398847	0.04529598
113	0x3dab7f5c	0.08373901
114	0xbe00e247	-0.12586318
115	0x3e61d633	0.22054367
116	0xbdfeac9f	-0.124352686
117	0x3e544822	0.20730641
118	0xbd9d400b	-0.07678231
119	0xbdab368a	-0.08360012
120	0xbd6a57f0	-0.05721277
121	0x3e87fd01	0.26560214
122	0x3e326504	0.17421347
123	0xbcf24f05	-0.029578695
124	0x3e737445	0.23774822
125	0xbdbad943	-0.09123471
126	0xbe5d138e	-0.21589491
127	0x3da2bf9b	0.07946702
128	0x3e544f7f	0.2073345
129	0x3e290e93	0.16509466
130	0xbe256a06	-0.16153726
131	0x3e3016e2	0.17196229
132	0x3d3ec869	0.046577845
133	0x3e05f28d	0.13080807
134	0x3dcd94c2	0.10038139
135	0xbc7f0515	-0.0155651765
136	0xbca57424	-0.020196982
137	0xbe35038c	-0.17677134
138	0x3df33871	0.11876
139	0x3c65faab	0.014036815
140	0xba48e5c7	-0.0007663634
141	0xbe1f554d	-0.15559883
142	0x3e25205d	0.16125627
143	0xbe0c906e	-0.1372697
144	0x3dd9eb4b	0.10640582
145	0xbdd50395	-0.10401074
146	0xbe87c65d	-0.26518527
147	0x3ddb7a94	0.10716739
148	0x3e8786ac	0.26469934
149	0xbd942981	-0.07234479
150	0x3c1d8bd5	0.009615858
151	0x3c0c3a45	0.008558814
152	0x3e011bee	0.1260831
153	0x3dfe1c4b	0.1240774
154	0xbdc30bb3	-0.09523716
155	0x3e129aea	0.14316908
156	0xbb929000	-0.0044727325
157	0xbe5d3911	-0.216038
158	0xbe9a1c45	-0.30099693
159	0x3d841422	0.064491525
160	0x3c2ace7e	0.010425208
161	0x3e6eef30	0.2333343
162	0xbd802785	-0.06257538
163	0x3c406387	0.011742479
164	0x3bb6417f	0.005562007
165	0x3e179755	0.14803822
166	0x3e3357c7	0.17513953
167	0x3e69933e	0.22810075
168	0x3e477158	0.19476831
169	0x3ae4f42c	0.0017467788
170	0x3c9a6998	0.01884918
171	0x3d08e504	0.03342153
172	0x3c966a46	0.018361222
173	0xbe863d24	-0.26218522
174	0xbdaddc82	-0.08489324
175	0x3e155cc6	0.14586172
176	0xbd98f3cc	-0.074683756
177	0x3dd0975f	0.10185122
178	0xbe06963c	-0.13143247
179	0x3dcb00f9	0.09912295
180	0xbe8393ee	-0.256988
181	0xbe7b3014	-0.24530059
182	0x3e462d52	0.19353226
183	0xbe2be878	-0.16787899
184	0xbc40ab12	-0.011759536
185	0x3c802738	0.015643701
186	0x3c73c43e	0.014878331
187	0xbdf1c543	-0.11805203
188	0xbd973443	-0.07383015
189	0x3d12f068	0.0358738
190	0xbe55f8ef	-0.20895742
191	0x3e662a5c	0.22477096
192	0x3dc68cb3	0.09694805
193	0xbde6e8b4	-0.11274853
194	0xbdedf989	-0.11619861
195	0x3de379fa	0.111072496
196	0xbdbf33fb	-0.09336086
197	0xbce5b013	-0.02803806
198	0x3d8dc3df	0.06922125
199	0xbc076648	-0.008264132
200	0xbddc72e7	-0.107641034
201	0xbc41b1ff	-0.011822223
202	0x3db9acdc	0.090661734
203	0xbc081152	-0.008304911
204	0xbcec0e7e	-0.028815504
205	0x3da75538	0.08170551
206	0xbe267eb8	-0.16259277
207	0xbe07163a	-0.13192073
208	0x3e820ae9	0.2539895
209	0x3cf46dc0	0.02983749
210	0xbccfca4a	-0.025365014
211	0x3e507075	0.20355399
212	0xbe7b718b	-0.24555032
213	0x3e2d82c4	0.16944414
214	0x3c5fa056	0.013649067
215	0xbc9c2061	-0.019058408
216	0xbde6e09c	-0.112733096
217	0x3e528bca	0.20561138
218	0xbdfc420f	-0.12317287
219	0x3e9e5cd1	0.30930188
220	0x3d585a8a	0.05282072
221	0x3c6f6a5e	0.014612762
222	0xbe1a80fc	-0.15088266
223	0x3de2e018	0.11077899
224	0xbb7ac63f	-0.0038265137
225	0xbe373c5e	-0.17894122
226	0x3d255a09	0.040369067
227	0xbdad33a3	-0.084571145
228	0x3e13d749	0.14437594
229	0x3e4d0699	0.20022048
230	0x3e0e7015	0.13909943
231	0xbd98142f	-0.07425725
232	0x3d19031d	0.037356485
233	0x3c21705d	0.00985345
234	0x3e7a9295	0.24469979
235	0x3e083dd9	0.13304843
236	0x3e3bf018	0.18353307
237	0x3ebb1c7f	0.36545178
238	0xbd3443f7	-0.04401013
239	0xbd906ee1	-0.070523985
240	0x3d623fe9	0.05523673
241	0xbc4244fe	-0.011857269
242	0xbd17fb62	-0.03710497
243	0x3d6aab94	0.057292536
244	0x3e3b2fe7	0.18279992
245	0x3dbc5448	0.09195763
246	0x3e9fcf02	0.31212622
247	0x3cc65779	0.024211632
248	0xbdd9b5a9	-0.10630352
249	0x3d06a8c4	0.03287579
250	0xbdb55fe1	-0.08856178
251	0xbd5a41f4	-0.053285554
252	0x3e2341cc	0.15943068
253	0xbb88c180	-0.0041734576
254	0xbe0efcfe	-0.13963696
255	0x3d48b65f	0.049002048

l2.weight f4 [256, 256]
0	0x3cd6ee2e	0.02623662
1	0x3e017dca	0.12645641
2	0xbd74839c	-0.059695825
3	0xbe1308c1	-0.14358808
4	0x3da70497	0.08155172
5	0xbd1ce846	-0.03830745
6	0x3e65ea95	0.22452767
7	0x3e6d9c8f	0.23204254
8	0xbdb7b8f3	-0.08970823
9	0x3e5238f2	0.20529535
10	0x3c6986f9	0.014253371
11	0xbb0e2a88	-0.002169283
12	0x3ca97652	0.020686302
13	0x3e4a91aa	0.19782129
14	0xbcc6c570	-0.024264067
15	0x3e6085bb	0.21926014
16	0x3b5a8426	0.0033342927
17	0x3e32e055	0.17468388
18	0xbcde7f12	-0.027160201
19	0xbd6f2106	-0.058381103
20	0x3d1da13d	0.038483847
21	0xbd91479e	-0.07093738
22	0xbc5b23ed	-0.013375265
23	0xbc863360	-0.01638192
24	0xbeeee50c	-0.46659124
25	0x3d42d5da	0.047567226
26	0xbd6566f7	-0.056006398
27	0xbdec0039	-0.1152348
28	0xbdbac851	-0.091202386
29	0x3d912d8a	0.07088764
30	0xbe85adec	-0.26109254
31	0x3e1b627f	0.15174292
32	0xbe8814bc	-0.2657832
33	0x3dc04f9e	0.09390186
34	0x3dd5235e	0.104071364
35	0xbead211a	-0.33814317
36	0xbdf93729	-0.12168724
37	0xbe48a272	-0.19593218
38	0xbd63bf91	-0.055602614
39	0x3cadc6ff	0.021213053
40	0xbf4a5c1a	-0.79046786
41	0x3e535135	0.20636447
42	0xbd4336a2	-0.047659524
43	0x3e49398b	0.19650857
44	0x3d743efa	0.05963037
45	0xbe338ff2	-0.1753538
46	0xbe64d00d	-0.2234499
47	0x3e415ded	0.18883486
48	0x3d971921	0.0737784
49	0x3e2cbf20	0.16869783
50	0x3e1b5420	0.1516881
51	0x3e28e603	0.16493993
52	0xbe19842c	-0.14991826
53	0xbd631672	-0.055441327
54	0xbe7fec49	-0.2499248
55	0x3e4733b1	0.19453312
56	0x3cec9f6d	0.028884614
57	0x3d7a61a1	0.061128262
58	0xbe10ca2e	-0.14139625
59	0xbe95f388	-0.29287362
60	0xbe1c1238	-0.15241325
61	0x3d24d181	0.04023886
62	0x3d89d198	0.0672943
63	0xbf3750dc	-0.71607757
64	0xbe2d7d98	-0.16942441
65	0xbd84e574	-0.06489077
66	0xbe3cb093	-0.18426733
67	0x3e0d5743	0.13802819
68	0xbbfce2c5	-0.0077174627
69	0x3dd9b524	0.10630253
70	0x3d5adee1	0.05343521
71	0x3b0a47e3	0.0021099977
72	0x3dde42a2	0.10852553
73	0x3e22d425	0.15901239
74	0xbe9c5acc	-0.30538023
75	0xbdb6f2cc	-0.089330286
76	0x3d9d236a	0.0767277
77	0x3ce105be	0.027468558
78	0x3e0dd863	0.13852076
79	0x3d288a71	0.041147653
80	0x3e2f8a39	0.17142572
81	0xbdacfba9	-0.08446438
82	0xbe26be2b	-0.16283481
83	0xbe146a51	-0.14493681
84	0xbd75479d	-0.05988275
85	0x3e32bdb9	0.17455186
86	0x3d8c5246	0.0685163
87	0x3d4873cc	0.048938558
88	0xbe2bea38	-0.16788566
89	0x3e56156d	0.20906611
90	0xbe072992	-0.13199452
91	0x3dab7b23	0.08373096
92	0x3ea2e628	0.3181622
93	0x3c238617	0.0099807
94	0x3dfdc6d8	0.12391442
95	0x3e05d914	0.1307109
96	0xbd8b9336	-0.06815188
97	0x3debbc1f	0.115104906
98	0x3d836afe	0.064168915
99	0xbe32dc52	-0.17466858
100	0x3d970f2e	0.07375942
101	0xbdab103f	-0.08352708
102	0xbdd0235c	-0.10162994
103	0xbd207ef9	-0.03918359
104	0xbe05d4e6	-0.13069496
105	0x3cbeb0a3	0.023277586
106	0x3cbd00f4	0.023071744
107	0xbec74dee	-0.38926643
108	0x3c057381	0.008145214
109	0xbb42b526	-0.0029710024
110	0xbea9152c	-0.33023965
111	0x3dd8b11e	0.105806574
112	0xbe0b3356	-0.13593802
113	0x3e3cbb5e	0.1843085
114	0xbe531883	-0.20614819
115	0xbea21e13	-0.3166357
116	0x3b540fe9	0.0032358116
117	0x3d3a0436	0.045414172
118	0x3e6f375e	0.23360965
119	0xbf38878f	-0.72081846
120	0x3e021512	0.1270335
121	0x3e41fd51	0.18944289
122	0xbcccea55	-0.025014082
123	0xbcfabafa	-0.030606735
124	0xbdcf745f	-0.10129618
125	0x3e139834	0.1441353
126	0xbea4aad8	-0.32161593
127	0xbe50f6a4	-0.20406586
128	0x3dedcb2d	0.11611018
129	0x3c15fd1e	0.009154586
130	0xbee04704	-0.4380418
131	0xbd0bb1d2	-0.03410513
132	0x3f0a5908	0.540421
133	0x3de1371b	0.10996839
134	0xbca23a8a	-0.019803304
135	0x3e8f75d0	0.2801957
136	0x3d8c1b91	0.068411954
137	0xbdac1cbd	-0.08403919
138	0x3d9e23cd	0.07721672
139	0xbe92e8a7	-0.28693125
140	0x3e25ef68	0.16204607
141	0x3daaafbe	0.083343014
142	0x3e85b1a1	0.26112083
143	0xbd9ee40b	-0.077583395
144	0xbe908c45	-0.28232017
145	0xbe369973	-0.17831974
146	0x3cb7cd99	0.022436904
147	0xbed9d435	-0.42544714
148	0xbd129246	-0.03578403
149	0x3b3bd274	0.0028659375
150	0xbe239735	-0.1597565
151	0xbe58dd95	-0.21178277
152	0x3e4a00c1	0.1972685
153	0xbdc45812	-0.095871106
154	0xbd25c62f	-0.040472206
155	0x3ddad3e0	0.10684943
156	0x3c89faaa	0.016843159
157	0x3e05a846	0.13052472
158	0xbe174e88	-0.14776051
159	0xbe2a5c01	-0.16636659
160	0xbe215e7f	-0.15758704
161	0xbd97a580	-0.074046135
162	0x3dbcbfcb	0.09216269
163	0x3c62e592	0.013848679
164	0x3b46a610	0.0030311383
165	0x3d21a22d	0.039461304
166	0x3dfde369	0.12396891
167	0xbd97d56e	-0.07413755
168	0x3e818233	0.25294647
169	0x3e42fe4f	0.19042324
170	0x3df5f6cc	0.120099634
171	0x3d09b78d	0.033622313
172	0xbe22cbce	-0.15898058
173	0xbc66974e	-0.01407416
174	0xbd91b964	-0.071154386
175	0xbda3a30e	-0.079900846
176	0xbd9d814e	-0.076906785
177	0x3de099c5	0.10966829
178	0xbce14c6a	-0.027502257
179	0xbb42f009	-0.0029745123
180	0xbe34082e	-0.17581245
181	0xbe337e9b	-0.17528765
182	0x3d8ce6b2	0.06879939
183	0x3cbc36ea	0.022975404
184	0xbc9171fd	-0.01775455
185	0xbdaf2073	-0.08551111
186	0x3d126bc8	0.03574732
187	0xbc1f17c6	-0.009710258
188	0x3e1e9bb6	0.15489087
189	0x3b69fd74	0.0035704048
190	0xbdc12a7b	-0.09431931
191	0x3db84315	0.0899717
192	0xbdd90a3c	-0.10597655
193	0xbd62a610	-0.05533415
194	0xbf072291	-0.5278712
195	0xbd1d44d8	-0.038395733
196	0xbd2c61fc	-0.042085633
197	0x3d911aca	0.07085188
198	0xbdb41264	-0.0879257
199	0x3e4f13f1	0.20222451
200	0xbd8fba25	-0.07017926
201	0xbcb52e14	-0.022116698
202	0xbd687008	-0.056747466
203	0x3e88c83c	0.26715267
204	0xbe554806	-0.20828256
205	0x3e35ac5e	0.17741534
206	0x3e2e6c49	0.17033495
207	0xbb4280e6	-0.002967888
208	0x3ddc0074	0.10742274
209	0x3e1e6a07	0.15470134
210	0xbde35571	-0.11100281
211	0xbe203f09	-0.15649046
212	0xbd835343	-0.06412365
213	0xbd80c892	-0.06288256
214	0xbc13a6a3	-0.009011897
215	0x3dd3bc2c	0.10338625
216	0xbe11efad	-0.14251585
217	0xbb039ab2	-0.002008122
218	0xbbc5dad0	-0.0060380474
219	0x3e2b888c	0.16751307
220	0x3d99cb62	0.07509495
221	0xbe1df612	-0.154259
222	0xbe3b9219	-0.1831745
223	0xbf069352	-0.5256854
224	0xbe57dcbd	-0.21080299
225	0xbda20a04	-0.079120666
226	0xbd451228	-0.04811302
227	0x3e351ad6	0.17686018
228	0xbd7e0c40	-0.0620234
229	0x3e2c7839	0.16842736
230	0x3e19079e	0.14944312
231	0xbeb44e9c	-0.35216224
232	0x3e56fbc7	0.20994483
233	0xbef13240	-0.4710865
234	0xbc2dc5d6	-0.01060625
235	0x3ecc8468	0.39944768
236	0xbe6853c8	-0.2268821
237	0x3e583572	0.21114138
238	0xbf4bb8e3	-0.7957899
239	0xbd10831d	-0.03528129
240	0xbde97ee0	-0.114011526
241	0x3cd40c86	0.025884878
242	0x3e059a90	0.13047242
243	0x3e0aad70	0.13542724
244	0x3e0bebc2	0.13664153
245	0xbe1248a5	-0.14285524
246	0x3e12f83a	0.14352503
247	0x3cb4bb8b	0.022062084
248	0xbd86bbe1	-0.06578804
249	0xbdca072f	-0.098646514
250	0xbd36b8c8	-0.044609815
251	0xbd85bf16	-0.065305874
252	0xbd54f2f1	-0.0519895
253	0x3d887c21	0.06664301
254	0xbbc20a81	-0.0059216623
255	0xbf0bb584	-0.54573846

l2.bias f4 [256]
0	0x3d94224d	0.07233105
1	0xbcdb1f21	-0.026748242
2	0x3c909c40	0.01765263
3	0xba83fc7d	-0.0010069754
4	0xbcb3b86e	-0.021938529
5	0xbd2447b3	-0.04010744
6	0x3dae4771	0.0850972
7	0xbc0597ed	-0.008153898
8	0x3d94ebdf	0.07271551
9	0x3c638ed4	0.013889033
10	0x3dac1a44	0.08403447
11	0x3cb1f8c2	0.021725062
12	0x3d99131a	0.074743465
13	0x3d014c84	0.03156711
14	0x3d4dd1cf	0.050248917
15	0xbe1981b1	-0.1499088
16	0xbd9bc4e2	-0.07605912
17	0xbd6398a4	-0.05556549
18	0x3d312f2f	0.04325789
19	0xbc8b7477	-0.017023308
20	0xbb40fedf	-0.002944879
21	0x3c3220e5	0.0108721005
22	0x3d89b1cd	0.06723366
23	0xbccf4722	-0.025302473
24	0xbd201099	-0.03907833
25	0x3d62625e	0.05526959
26	0xbc04d93a	-0.0081084315
27	0x3c24f789	0.010068783
28	0xbc5a8556	-0.013337454
29	0xbd8125ab	-0.06306013
30	0xbc8e8ada	-0.017400194
31	0xbd7d074d	-0.06177454
32	0x3d5cc7fd	0.05390166
33	0x3cdca0f6	0.02693222
34	0xbc155e8c	-0.00911678
35	0xbc939a22	-0.018017832
36	0xbd05bab1	-0.032648746
37	0x3d2d1bd0	0.042262852
38	0x3d50dd60	0.05099237
39	0xbd19338f	-0.037402686
40	0x3d18061d	0.037115205
41	0xbcc52d71	-0.02406952
42	0x3d458daf	0.048230823
43	0xbd28d1f3	-0.04121585
44	0xbc722c86	-0.014781123
45	0xbcbe1c12	-0.023206744
46	0x3d9c4fa6	0.07632379
47	0x3da60722	0.08106829
48	0xbe248a51	-0.16068389
49	0xbab5eb3e	-0.0013879312
50	0xbae92b83	-0.0017789457
51	0x3aa80aa6	0.0012820556
52	0x3b86e035	0.004116083
53	0x3d5833cf	0.052783784
54	0x3b8e2dbb	0.0043389476
55	0xbc3c034d	-0.011475396
56	0xbcddd46a	-0.027078826
57	0x3d7e4e0e	0.062086158
58	0xbd44d0dc	-0.048050746
59	0x3d00f2e5	0.031481642
60	0x3d017657	0.031607
61	0x3d4dc4f6	0.050236665
62	0x3c1254d3	0.0089313565
63	0x3c528e51	0.012851314
64	0x3cc55f21	0.024093213
65	0x3c9fea72	0.019520972
66	0xbd54e19d	-0.051972974
67	0x3b883a26	0.0041573225
68	0x3bead3a8	0.0071663447
69	0x3d43f8db	0.04784475
70	0x3d1c1148	0.03810242
71	0x3d8304b6	0.06397383
72	0xbd88adff	-0.06673812
73	0x3b9d4bfe	0.0048003187
74	0x3dba32c1	0.09091712
75	0xbc1a8b45	-0.0094326185
76	0x3d9235e2	0.071391836
77	0x3ddd6fa2	0.10812308
78	0x3d9a94db	0.07547923
79	0x3d9aeff5	0.075652994
80	0x3cb455fb	0.022013655
81	0x3d690584	0.056890026
82	0x3c9c1fec	0.01905819
83	0xbb9ae91f	-0.004727497
84	0x3b2bf147	0.0026236342
85	0x3c61e3fa	0.013787264
86	0x3cd9e971	0.026600571
87	0x3b213e24	0.002460369
88	0xbd67366a	-0.056448378
89	0x3cee2834	0.029071905
90	0xbcca6cc9	-0.024710076
91	0xbdd7089d	-0.1049969
92	0xbc6ae7cf	-0.014337494
93	0x3cf53fa3	0.02993757
94	0x3cd04ec1	0.025428178
95	0x3c0a298d	0.008432758
96	0xbd1a6871	-0.03769726
97	0x3b9ad059	0.004724544
98	0x3c118093	0.008880752
99	0x3c354220	0.011063129
100	0xbd3b3cac	-0.045712158
101	0xbc6ffe32	-0.014648007
102	0x3dbea4aa	0.09308751
103	0xbe32ec7b	-0.17473023
104	0xbdc4de35	-0.09612695
105	0xbd7428a1	-0.05960906
106	0x3d8198f5	0.06328002
107	0x3c464671	0.0121017555
108	0x3da12428	0.078682244
109	0xbda8e628	-0.08247024
110	0xbd3f34c5	-0.046681184
111	0x3c37cc6d	0.0112181725
112	0xbd4e3dfa	-0.050352074
113	0x3d21972f	0.03945082
114	0x3c79f3d5	0.015255888
115	0x3d9a39c4	0.07530549
116	0x3d4fb0b6	0.050705634
117	0xbca442a0	-0.0200513
118	0xbdc3a758	-0.09553403
119	0x3b24d4f4	0.0025151344
120	0x3d8314d2	0.064004555
121	0xbcb46840	-0.022022367
122	0x3d1f4370	0.038882673
123	0xbd61451e	-0.054997556
124	0x3d1d6d4f	0.038434323
125	0x3d41cc76	0.04731413
126	0x3d33e1b2	0.04391641
127	0xbd7c08e3	-0.061531913
128	0x3d3400fd	0.043946255
129	0x3d60dcd0	0.054898083
130	0x3ce17c76	0.027525168
131	0xb86d155c	-5.6525096e-05
132	0x3c6b3068	0.014354803
133	0x3d23fc3b	0.040035468
134	0xbd44bd35	-0.048032004
135	0xbce14073	-0.027496552
136	0xbdb650c9	-0.08902127
137	0x3ce51ae5	0.027966926
138	0x3ddfd125	0.10928563
139	0x3d9994a0	0.07499051
140	0x3d850dea	0.064967945
141	0x3a21309a	0.0006148905
142	0x3ca4154e	0.02002969
143	0x3d231dee	0.039823465
144	0x3d16df74	0.036834195
145	0xbd41460c	-0.047185943
146	0xbdad95cf	-0.08475839
147	0x3b4b41cc	0.003101456
148	0xbc0ca0c0	-0.008583248
149	0x3db2f5c4	0.08738282
150	0x3dd3c9ba	0.10341211
151	0x3d8f6f3c	0.07003638
152	0xbd322878	-0.043495625
153	0xbd1acdc3	-0.037793886
154	0x3d8de829	0.06929047
155	0x3d0bf431	0.034168426
156	0xbca307ca	-0.019901175
157	0xba95e0b8	-0.0011434769
158	0x3d4ec8f3	0.05048461
159	0xbbeda677	-0.00725251
160	0xbdde7f53	-0.10864129
161	0xbe0925f1	-0.1339338
162	0xbcd60b79	-0.026128517
163	0x3cce6b32	0.0251976
164	0x3d3c4a54	0.045969322
165	0xbd2af22e	-0.041734867
166	0x3d67e465	0.0566143
167	0x3d2963c7	0.04135492
168	0xbc8b32a4	-0.01699192
169	0xbd7fd3d1	-0.062457863
170	0x3dc46279	0.09589095
171	0x3d882586	0.06647782
172	0x3c97c654	0.018527187
173	0x3d454909	0.048165355
174	0x3de2b09a	0.1106884
175	0xbe0ce242	-0.13758186
176	0xbd838d39	-0.064234205
177	0xbdafdb46	-0.08586745
178	0xbd99bfcf	-0.07507288
179	0x3dac0eeb	0.08401283
180	0xbd6e8bb6	-0.058238707
181	0xbd134b8b	-0.035960715
182	0xbd558f71	-0.05213875
183	0x3d32777e	0.043570988
184	0x3d872564	0.065989286
185	0x3d60c7f1	0.05487818
186	0xbe034270	-0.12818313
187	0x3a88c455	0.0010434488
188	0xbdf009da	-0.11720629
189	0x3cb71f4c	0.02235379
190	0x3d658735	0.056037147
191	0xbc21e31e	-0.009880809
192	0xbda52eee	-0.08065592
193	0x3d000c67	0.031261828
194	0x3ceb7c84	0.028745897
195	0xbd3a89df	-0.04554164
196	0xbda0755e	-0.07834886
197	0x3daea350	0.08527243
198	0x3d1fef88	0.039046794
199	0xbd193cf5	-0.03741165
200	0xbdfd92f3	-0.12381544
201	0xbd3fd7e2	-0.04683674
202	0x3d814d7b	0.06313606
203	0x3cf32c2c	0.029684149
204	0x3dc826f8	0.09773058
205	0x3b7c02b2	0.0038453755
206	0x3cba9756	0.02277724
207	0xbd987177	-0.07443517
208	0xbd043268	-0.032274634
209	0x3dd28875	0.10279933
210	0xbd6fc0cc	-0.058533475
211	0x3cec714b	0.028862616
212	0xbc8e7978	-0.017391905
213	0x3d96090b	0.073259436
214	0xbc89e3b7	-0.016832216
215	0xbd388a8e	-0.04505401
216	0xbc30e7ac	-0.010797422
217	0x3de932ad	0.11386619
218	0x3d2e5e1a	0.04257021
219	0xbd18baab	-0.037287395
220	0xbcccea90	-0.025014192
221	0xbce6f58d	-0.02819326
222	0xbd050886	-0.03247883
223	0xbcf93b47	-0.030423773
224	0x3d5baf9c	0.05363427
225	0xbc410d2f	-0.011782928
226	0xbd09c860	-0.033638358
227	0xbd9b66a0	-0.075879335
228	0x3d808950	0.0627619
229	0x3d25c457	0.040470447
230	0xbd2c9882	-0.04213763
231	0xbd86bee1	-0.06579376
232	0xbd93dd35	-0.07219926
233	0xbd81a26d	-0.063298084
234	0xbdcb4938	-0.09926075
235	0xbc314691	-0.010820047
236	0x3d201930	0.03908652
237	0xbc996ef5	-0.018729666
238	0x3c380263	0.011231038
239	0xbd0b9b71	-0.034083787
240	0xbdd3e893	-0.103470944
241	0xbce872bd	-0.028375024
242	0x3c4abd8d	0.012374294
243	0x3db36bb3	0.08760776
244	0x3d86545c	0.06559059
245	0x3d61e760	0.055152297
246	0x3d9eff60	0.07763553
247	0xbda9cc2f	-0.08290898
248	0x3d1babdf	0.038005706
249	0x3df48924	0.1194022
250	0x3d784be5	0.060619254
251	0xbd5d511f	-0.05403244
252	0xbe0e7b60	-0.13914251
253	0xbccbfb55	-0.024900118
254	0x3cada7a8	0.021198109
255	0xbd836f16	-0.06417672

l3.weight f4 [1, 256]
0	0xbf736ff5	-0.9509271
1	0xbed2bc1f	-0.4115915
2	0x3eb93172	0.36170536
3	0x3e95f99e	0.29292005
4	0x3e81caa4	0.25349915
5	0x3f2f548d	0.6848839
6	0x3e6f35c4	0.23360354
7	0xbf334683	-0.7002947
8	0xbea6f63d	-0.3260974
9	0xbeab5816	-0.33465642
10	0x3f191c49	0.59808785
11	0xbee79845	-0.4523336
12	0xbf6ae118	-0.91749716
13	0xbf037a18	-0.51358175
14	0xbe0753d1	-0.13215567
15	0x3f617be3	0.8807966
16	0xbf42efa1	-0.76146895
17	0x3ead0ff8	0.33801246
18	0xbe219557	-0.15779625
19	0x3e7429f7	0.23844133
20	0x3ef0d2b6	0.4703576
21	0xbdfb1c5f	-0.12261271
22	0xbf582a01	-0.8443909
23	0x3c303b87	0.01075638
24	0xbede627d	-0.43434516
25	0xbe7af2dd	-0.24506707
26	0x3f01d71c	0.50718856
27	0xbf4f2ccb	-0.80927724
28	0xbf1474ca	-0.57990706
29	0xbf036fcf	-0.5134248
30	0x3eadbd6f	0.3393359
31	0xbf09683b	-0.5367467
32	0x3e976228	0.29567075
33	0x3edf58ea	0.43622524
34	0x3ebb0552	0.36527497
35	0x3eae171f	0.34002015
36	0x3f75fb0d	0.960862
37	0xbf626660	-0.8843746
38	0x3f3bb7d0	0.7332735
39	0x3e16c2b6	0.14722714
40	0x3e756520	0.23964357
41	0x3f7c2e10	0.98507786
42	0xbeae4387	-0.34035894
43	0xbea60e2a	-0.3243268
44	0x3f44410f	0.7666177
45	0xbea304a1	-0.3183947
46	0xbe9812d8	-0.29701877
47	0xbf6e735c	-0.93144774
48	0xbfbe8d3c	-1.4886851
49	0x3ed22785	0.41045776
50	0xbf15f66a	-0.58579123
51	0xbd7759d6	-0.06038841
52	0xbf6e91c5	-0.93191177
53	0x3f0d21f9	0.55129963
54	0x3eb6ad3a	0.35679036
55	0x3e72af9a	0.23699799
56	0x3f2af34f	0.6677751
57	0xbf370937	-0.71498436
58	0x3ef8d298	0.4859817
59	0xbf49d341	-0.7883797
60	0x3ef408e1	0.47663024
61	0x3f5c8629	0.8614221
62	0x3f34974a	0.7054335
63	0x3f0ade79	0.54245716
64	0xbdf45ae5	-0.11931399
65	0xbee47276	-0.44618577
66	0xbcfb21ba	-0.03065573
67	0xbfcfd226	-1.6236007
68	0x3f643c5b	0.89154595
69	0xbf41d05c	-0.75708556
70	0xbfb7be07	-1.4354867
71	0x3f8cf052	1.101084
72	0x3fb090f0	1.3794231
73	0xbeb040a5	-0.3442432
74	0x3f1ff150	0.6247759
75	0x3f829fd3	1.0205024
76	0x3fa2c34a	1.2715847
77	0xbf3ede09	-0.7455755
78	0xbf08804e	-0.5332078
79	0x3ee350a3	0.44397458
80	0x3ecd2424	0.40066636
81	0x3f14587d	0.5794752
82	0xbef6d62b	-0.48210272
83	0xbe2703e3	-0.16310076
84	0xc00363c7	-2.052965
85	0x3f1569b4	0.58364415
86	0xbf21a5bd	-0.6314352
87	0x3f6ad654	0.9173329
88	0x3eed55d5	0.46354547
89	0xbf62a32f	-0.8853025
90	0xbdaeafa1	-0.08529592
91	0x3f471e74	0.7778084
92	0xbe167b13	-0.14695387
93	0x3ebbb408	0.3666079
94	0xbde6c537	-0.112680845
95	0xbe5b05fd	-0.21389003
96	0xbeae6bcf	-0.34066626
97	0xbe9b65ad	-0.3035101
98	0xbebfc1f0	-0.3745265
99	0xbef0ea9f	-0.47054002
100	0x3e7b2711	0.24526621
101	0x3e4c03cd	0.19923325
102	0xbe86091e	-0.2617883
103	0xbfa47f99	-1.285144
104	0xbf5a1bc8	-0.8519864
105	0x3ebcfc92	0.36911446
106	0xbec56716	-0.3855521
107	0x3f329314	0.69755673
108	0x3edc3bf2	0.43014485
109	0xbfb21364	-1.3912168
110	0xbfcebcee	-1.6151407
111	0xbce0d02b	-0.027443012
112	0xbf0e88a5	-0.55677253
113	0x3ea9e28d	0.33180657
114	0xbed3ce8f	-0.4136853
115	0x3f0d42c5	0.5518001
116	0xbef5ea64	-0.48030388
117	0x3f1ec099	0.6201263
118	0xbf5142a8	-0.81742334
119	0x3cbe4e3d	0.023230666
120	0x3f33a4c3	0.7017328
121	0xbf3f0347	-0.74614376
122	0xbf6cda9d	-0.9252108
123	0x3f55d571	0.8352881
124	0x3ebb58ea	0.36591274
125	0xbeb503e7	-0.3535454
126	0xbef7e914	-0.48420012
127	0xbf4db7ac	-0.80358386
128	0xbd466b44	-0.04844214
129	0x3ee24927	0.44196436
130	0x3e6233da	0.22090092
131	0xbe9c0fe6	-0.3048088
132	0x3f11b850	0.56921864
133	0x3f1cfaff	0.6132049
134	0xbfd8ad0b	-1.6927809
135	0xbcafc8eb	-0.02145811
136	0x3eb99a5e	0.36250585
137	0x3f17584e	0.5911912
138	0x3f0bfef6	0.54685915
139	0x3f49fa6c	0.7889774
140	0x3e8567d5	0.2605578
141	0xbfca1932	-1.5788939
142	0xbf4451e2	-0.76687443
143	0xbf2cd436	-0.6751131
144	0xbfee2902	-1.8606265
145	0x3f95dc39	1.1707832
146	0xbf865c0f	-1.0496844
147	0xbf07a673	-0.52988356
148	0xbf9cf99e	-1.2263677
149	0x3f3f49f3	0.7472221
150	0x3e9715e7	0.29508898
151	0x3efa7df8	0.48924232
152	0x3ecf4cda	0.4048832
153	0x3f181bfd	0.59417707
154	0xbeaf37ce	-0.34222263
155	0x3eed7047	0.46374723
156	0x3ed4b970	0.41547728
157	0x3f31c580	0.69441986
158	0xbe895a7e	-0.26826853
159	0x3eebedb1	0.46079782
160	0xbeeb4e0c	-0.45957983
161	0xbf7bc2fe	-0.9834441
162	0xbeaf486a	-0.34234935
163	0xbee2576f	-0.44207332
164	0xbf17b30a	-0.59257567
165	0x3e7571f5	0.23969252
166	0x3f28b849	0.65906197
167	0x3ea7c65a	0.32768518
168	0x3f1a5957	0.6029257
169	0xbe9a95ad	-0.3019232
170	0x3e5e3c59	0.21702708
171	0x3ecbd228	0.39808774
172	0x3e2845bf	0.16432856
173	0x3f2a73f5	0.66583186
174	0x3f6b0006	0.9179691
175	0x3f997029	1.1987354
176	0x3ee2f70c	0.44329107
177	0x3fb9a2e4	1.4502835
178	0xbf9382d3	-1.1524299
179	0x3f68ad39	0.90889317
180	0x3d4535bf	0.04814696
181	0xbefc263c	-0.4924792
182	0x3ef0d36e	0.47036308
183	0xbf23ad53	-0.63936347
184	0x3ef00748	0.46880555
185	0xbe48dc5a	-0.19615307
186	0xbf5a2387	-0.8521046
187	0xbf4695ac	-0.7757213
188	0xbf6574e5	-0.8963149
189	0x3eaefc87	0.34177038
190	0x3ea6eb4e	0.32601398
191	0x3e29b49f	0.16572808
192	0xbf6652cf	-0.89970106
193	0xbdf6866b	-0.12037357
194	0x3e242638	0.16030204
195	0xbfc2e784	-1.5226903
196	0xbf3e70c4	-0.74390817
197	0x3f47c60d	0.78036577
198	0xbf1d2d15	-0.61396915
199	0xbece82c7	-0.4033415
200	0x3f891e28	1.0712328
201	0xbd16569e	-0.0367037
202	0x3e3d4ded	0.18486758
203	0xbfcb0113	-1.5859703
204	0xbef197f9	-0.47186258
205	0xbe92dc00	-0.28683472
206	0xbedb1440	-0.42788887
207	0xbf9b50af	-1.2133998
208	0xbf8e5c46	-1.112191
209	0x3ed5adac	0.41734064
210	0x3f90b8e9	1.130643
211	0x3e3a3704	0.1818505
212	0x3bc9e476	0.006161268
213	0xbf2be4ea	-0.6714617
214	0xbf066414	-0.5249646
215	0xbfa6f71b	-1.3044161
216	0xbf5b0b2c	-0.8556392
217	0x3f881729	1.0632068
218	0xbecf7d7f	-0.40525433
219	0x3edc2cf1	0.43003038
220	0x3ca6243b	0.020280948
221	0x3e75d7db	0.24008124
222	0x3f19cecf	0.6008119
223	0x3f311ab7	0.6918139
224	0x3ec4554b	0.38346323
225	0xbf2c2c81	-0.6725541
226	0x3f27e224	0.6557944
227	0xbee14ebf	-0.4400539
228	0xbe3cae6a	-0.18425909
229	0x3f64c950	0.8936968
230	0xbf8c5e99	-1.0966369
231	0xbebcc545	-0.36869255
232	0xbf71e614	-0.94491696
233	0x3f228133	0.6347839
234	0xbec19818	-0.3781135
235	0xbe2ce6f7	-0.16884981
236	0x3e80e00b	0.2517093
237	0xbeb6279d	-0.35577098
238	0xbe2bf3f4	-0.1679228
239	0x3efc5ebf	0.49291036
240	0xbf796e03	-0.9743349
241	0xbe8c3563	-0.2738448
242	0x3e9d3637	0.30705425
243	0x3e92a910	0.2864461
244	0x3f149a7a	0.5804821
245	0xbebc83bf	-0.36819264
246	0x3f086687	0.53281444
247	0x3f6eedeb	0.93331784
248	0xbf245fab	-0.6420848
249	0x3f5b520e	0.8567208
250	0x3f144c3d	0.5792883
251	0x3ca2fd3f	0.019896148
252	0xc0098c2b	-2.1491802
253	0xbe8b9aab	-0.2726644
254	0xbf5bd6f7	-0.85874885
255	0xbf0cebf6	-0.5504755

l4.weight f4 [256, 28]
0	0x3d5757b3	0.05257387
1	0x3f6d5199	0.92702633
2	0xbf013cff	-0.504837
3	0x3e26f71c	0.16305202
4	0x3c0f7016	0.008754751
5	0x3d6e1ad5	0.058131058
6	0xbd27a82e	-0.040931873
7	0xbd5eb81a	-0.05437479
8	0xbcde4a53	-0.02713505
9	0xbda88689	-0.082287855
10	0xbe158956	-0.14603171
11	0xbe5713f9	-0.21003713
12	0xbc426ff8	-0.011867516
13	0xbc46e67f	-0.0121399155
14	0x3e1de6cd	0.15420075
15	0x3e2c9dfe	0.16857144
16	0x3e1acfb8	0.15118301
17	0xbe891afb	-0.26778397
18	0x3ced9106	0.028999817
19	0x3e53cc9f	0.20683526
20	0x3e6692e0	0.22516966
21	0xbe11f047	-0.14251815
22	0x3cd292b2	0.025704715
23	0xbe32f417	-0.17475925
24	0x3cb0959a	0.02155571
25	0xbe44b912	-0.19211224
26	0xbde2c661	-0.11072994
27	0xbd7f8014	-0.062378004
28	0xbefaf616	-0.49015874
29	0xbfefcf89	-1.873521
30	0xbe1f5abc	-0.15561956
31	0x3ec0b15c	0.37635314
32	0xbe30a859	-0.1725172
33	0xbc820ed0	-0.015876204
34	0x3dd49e51	0.10381759
35	0x3c05c807	0.008165366
36	0x3c479f44	0.012183968
37	0xbceab2e6	-0.028649759
38	0xbdaacf25	-0.08340291
39	0x3d867dd4	0.065669686
40	0xbd1c57a8	-0.038169533
41	0x3d2dea53	0.042459797
42	0x3e2324d6	0.1593202
43	0xbc547b1f	-0.0129688075
44	0xbd33ae09	-0.043867145
45	0x3ddbc44e	0.107308015
46	0xbd78cc7a	-0.06074188
47	0xbdc7f4ab	-0.097634636
48	0x3d2ab1d1	0.041673485
49	0xbd389491	-0.04506356
50	0x3d3b4329	0.045718346
51	0x3d2f64ec	0.042820856
52	0x3c5d8113	0.013519543
53	0x3d284092	0.041077204
54	0x3c3bf543	0.011472049
55	0xbb0b636d	-0.002126898
56	0x3d8c368e	0.06846343
57	0x3f8e5662	1.1120112
58	0x3ead3d89	0.3383601
59	0x3f665a3d	0.8998144
60	0x3ebafe2b	0.3652204
61	0x3e046fe7	0.12933312
62	0x3e6ae139	0.22937478
63	0x3d24943c	0.04018043
64	0xbe1c13d2	-0.15241936
65	0xbdb93ee8	-0.090452015
66	0x3dbdb552	0.092631
67	0xbc527c04	-0.01284695
68	0x3cfd786c	0.03094121
69	0xbd9662ca	-0.07343061
70	0x3e801053	0.25012454
71	0x3e2a3b1c	0.16624111
72	0x3cc08904	0.023502834
73	0x3d738d9b	0.059461217
74	0x3e260b22	0.16215184
75	0x3d81ffef	0.063476436
76	0xbd808b37	-0.06276553
77	0x3dc9143e	0.09818314
78	0x3e469604	0.19393164
79	0xbdd1380c	-0.10215768
80	0x3c4d6fd0	0.012538865
81	0x3d135c8e	0.03597694
82	0x3c43e868	0.011957265
83	0x3cda8245	0.026673445
84	0x3d39dd4d	0.045377064
85	0xbf7bca0d	-0.9835518
86	0xbddc65f3	-0.10761633
87	0x3e68bf07	0.22729121
88	0xbe581d1e	-0.21104857
89	0x3ddeff20	0.10888505
90	0xbe36e485	-0.17860611
91	0x3d385062	0.044998534
92	0x3dac9c81	0.08428288
93	0x3e294061	0.16528465
94	0xbd1f498a	-0.03888849
95	0x3e85be3f	0.2612171
96	0x3b5a4420	0.0033304766
97	0x3e0fcfae	0.14044067
98	0xbe733b51	-0.23753096
99	0xbeb71140	-0.35755348
100	0x3c6e11d4	0.014530618
101	0x3daa014b	0.08301028
102	0x3ec8b2f9	0.39199045
103	0x3ebbba40	0.36665535
104	0x3c3f8b7e	0.011690972
105	0x3e9cbfb8	0.3061502
106	0xbd8531d4	-0.065036446
107	0xbbf9a8c9	-0.0076189977
108	0x3d45e468	0.04831353
109	0xbcf3ecec	-0.02977606
110	0x3bdad3c6	0.0066780774
111	0xbda50a61	-0.0805862
112	0x3dfb37d5	0.122665085
113	0x3f6c81f0	0.9238577
114	0x3eb2b392	0.34902626
115	0x3e69f26d	0.22846384
116	0x3d9d1b6c	0.07671246
117	0xbd259ee5	-0.040434737
118	0x3d883974	0.06651583
119	0xbd76e149	-0.060273442
120	0xbe05c3fe	-0.13063046
121	0xbe15a660	-0.14614248
122	0x3cfb5f72	0.03068516
123	0x3e97697e	0.29572672
124	0x3d95e763	0.07319524
125	0x3e0e3530	0.13887477
126	0x3ea0c723	0.3140193
127	0x3e223515	0.15840562
128	0x3dd7384b	0.10508784
129	0x3b2399cc	0.0024963496
130	0xbd9dac6a	-0.07698901
131	0x3da39e04	0.079891235
132	0x3e45f6e4	0.19332463
133	0x3e4c1c06	0.19932565
134	0xbe671aa8	-0.22568762
135	0x3d8f7627	0.07004958
136	0x3d8dc3ed	0.069221355
137	0xbd711160	-0.05885446
138	0xbd88b350	-0.06674826
139	0xbd272ee2	-0.040816195
140	0x3e99efb9	0.30065706
141	0xbf4e2a6b	-0.80533475
142	0xbee79d9c	-0.45237434
143	0x3eaac81b	0.33355793
144	0xbd3fa203	-0.046785366
145	0xbc72334d	-0.014782739
146	0xbdc903b1	-0.09815157
147	0xbc19fc4b	-0.00939853
148	0x3d720a9f	0.05909216
149	0xbe17fd13	-0.14842634
150	0x3d0ef987	0.034905937
151	0xbe487611	-0.19576289
152	0xbca9d497	-0.020731254
153	0xbd14b931	-0.036309425
154	0xbd0b1ea0	-0.033964753
155	0x3e637a35	0.22214587
156	0x3e9151c1	0.28382686
157	0xbcb99308	-0.022653118
158	0x3d20082b	0.03907029
159	0xbd80fe87	-0.06298547
160	0x3e7f8f30	0.24956965
161	0x3e85af3c	0.26110256
162	0x3e867d44	0.26267445
163	0xbc516a87	-0.012781746
164	0xbd426759	-0.04746184
165	0xbd89d041	-0.067291744
166	0x3c12c966	0.00895915
167	0x3d74513a	0.059647776
168	0x3dbf9da2	0.09356238
169	0x3dc2e654	0.09516588
170	0x3ebba14a	0.3664649
171	0x3f808144	1.0039449
172	0x3da356e9	0.07975561
173	0x3d854775	0.0650777
174	0x3e12625f	0.14295338
175	0xbb5414d9	-0.003236106
176	0xbd81fc7b	-0.06346985
177	0xbb0b425a	-0.0021249265
178	0xbb0ffed8	-0.0021971967
179	0xbdfd4fc7	-0.12368732
180	0xbb41a226	-0.002954611
181	0x3d058b28	0.032603413
182	0x3d7bfdb1	0.061521236
183	0xbdf03416	-0.117286846
184	0x3e0cb63a	0.13741389
185	0x3da11d80	0.07866955
186	0x3dd964e1	0.10614944
187	0xbe6b7374	-0.2299326
188	0x3daa78d8	0.0832383
189	0x3e874f37	0.26427624
190	0x3d326fd7	0.04356369
191	0x3c981a9a	0.018567372
192	0x3d22ef41	0.03977895
193	0xbcc9da7d	-0.024640316
194	0x3c17ef58	0.009273373
195	0xbb5fc7aa	-0.0034146109
196	0x3d696cdd	0.056988586
197	0x3da63aa5	0.08116654
198	0xbe262f93	-0.16229086
199	0x3e88f949	0.2675269
200	0xbe6825db	-0.2267069
201	0x3e04b016	0.12957796
202	0x3c87dcad	0.016584719
203	0x3d688bd6	0.056773983
204	0x3e3457da	0.17611638
205	0x3de77cb2	0.113030806
206	0x3ba22780	0.0049485564
207	0x3f247b1d	0.64250356
208	0x3decc078	0.11560148
209	0x3cf9cb66	0.030492496
210	0xbef5654f	-0.47928855
211	0xbe729ad3	-0.23691873
212	0xbe8ca9a2	-0.2747317
213	0x3e9acd10	0.30234575
214	0xbc9765df	-0.018481193
215	0xbe8fb819	-0.28070143
216	0xbcc646f9	-0.024203764
217	0xbe1a370e	-0.15060064
218	0xbdab0da7	-0.08352213
219	0x3e2a8e32	0.16655806
220	0x3da53aa0	0.080678225
221	0xbc3ebf5b	-0.011642302
222	0xbe029575	-0.12752326
223	0x3e17a2fe	0.1480827
224	0xbea13e85	-0.3149301
225	0x3f4ab28b	0.79178685
226	0x3ebcb863	0.36859426
227	0x3fb03f36	1.376929
228	0xbda9acd9	-0.08284921
229	0x3bb70b36	0.0055860532
230	0xbdfc1e7a	-0.123105004
231	0xbc153598	-0.009107016
232	0xbce13393	-0.027490413
233	0xbeb7d1a1	-0.35902122
234	0x3dace1f8	0.084415376
235	0xbdf17d8f	-0.117915265
236	0xbd1a39d0	-0.03765279
237	0xbca278ac	-0.019832931
238	0x3e1d9489	0.15388693
239	0x3e85e8d3	0.26154193
240	0x3e6f9f9b	0.23400728
241	0xbd501d78	-0.050809354
242	0xbd5232cb	-0.05131797
243	0x3de72b2c	0.11287531
244	0xbd839e03	-0.06426623
245	0xbdc10435	-0.094246306
246	0xbd690db3	-0.05689783
247	0xbd3fcd56	-0.046826683
248	0xbbd8a78f	-0.0066117714
249	0xbc54e0cd	-0.01299305
250	0xbd63f809	-0.055656467
251	0x3c7a4bbc	0.015276846
252	0x3d719a09	0.05898479
253	0xbf060bfc	-0.52362037
254	0xbed8b363	-0.4232436
255	0x3cf26a20	0.02959162

l4.bias f4 [256]
0	0x3c0975d9	0.0083899135
1	0x3de82cb7	0.11336654
2	0xbe8a34b6	-0.2699334
3	0xbe80cf5d	-0.25158206
4	0xbe2c3841	-0.16818334
5	0xbe414f57	-0.18877922
6	0xbdf33fe8	-0.118774235
7	0x3bc8f4ca	0.0061326968
8	0xbbae50c0	-0.0053196847
9	0x3db8ce83	0.09023764
10	0xbd420f2d	-0.047377754
11	0xbd836bad	-0.06417022
12	0xbe74e3cc	-0.23915023
13	0x3d91c6fe	0.07118033
14	0x3ddcb9b3	0.10777607
15	0xbdb6fe4b	-0.08935221
16	0xbe910b17	-0.28328773
17	0xbc83a5da	-0.016070295
18	0xbddeb74c	-0.10874805
19	0xbd7a4cfd	-0.061108578
20	0xbe110cc3	-0.14165024
21	0x3e20dd8b	0.15709512
22	0xbe137558	-0.14400232
23	0x3e13773a	0.1440095
24	0xbe340e91	-0.17583682
25	0xbd7bdc74	-0.061489537
26	0x3db57a96	0.08861272
27	0xbda17cd8	-0.0788514
28	0xbe4b1ed2	-0.19835976
29	0x3db079f9	0.086170144
30	0xbe1bab1d	-0.15201993
31	0x3dba80be	0.09106587
32	0x3e752f7e	0.23943898
33	0xbe102af2	-0.14078882
34	0x3dad680f	0.08467113
35	0x3e624a8a	0.22098747
36	0x3d65e6fd	0.05612849
37	0x3d873d4d	0.06603489
38	0xbd0f80b0	-0.035034835
39	0x3e644b0c	0.22294253
40	0x3a2cb40b	0.0006588108
41	0x3e635837	0.2220162
42	0x3e3419c5	0.17587955
43	0x3ea92508	0.33036065
44	0x3e1fd93f	0.15610217
45	0xbe051253	-0.12995271
46	0x3e0fa13c	0.1402635
47	0x3d70120c	0.05861096
48	0xbe5c0aea	-0.21488538
49	0xbb81fc96	-0.003966878
50	0xbe73b799	-0.23800506
51	0x3dc4a1b1	0.09601153
52	0xbe620493	-0.22072057
53	0xbcdeefff	-0.027214048
54	0x3e50e5be	0.2040014
55	0xbe1fc0b9	-0.15600862
56	0xbdbf5924	-0.09343174
57	0xbe30cc9d	-0.17265554
58	0xbd61d52b	-0.055134933
59	0x3dd00e50	0.1015898
60	0x3e2c5504	0.16829306
61	0x3e51dfb3	0.2049549
62	0xbe49a879	-0.19693173
63	0x3e65c7a3	0.22439437
64	0x3cb56207	0.02214147
65	0xbd954573	-0.07288637
66	0x3e02953a	0.12752238
67	0xbca92d7b	-0.02065157
68	0x3d738474	0.05945249
69	0x3c6a7808	0.014310844
70	0x3e3b841d	0.18312116
71	0x3e183b1b	0.14866297
72	0x3d12b028	0.035812527
73	0x3dd02690	0.10163605
74	0x3e68e44c	0.22743338
75	0xbe471545	-0.19441707
76	0x3dfffe9e	0.12499736
77	0x3dcfb837	0.10142558
78	0x3da2e9a2	0.07954718
79	0x3e916b8c	0.28402364
80	0xbe0fc632	-0.1404045
81	0xbd9ccefd	-0.076566674
82	0x3e233203	0.15937047
83	0xbc18548f	-0.009297504
84	0xbd7493ee	-0.05971139
85	0x3c46c3e2	0.012131663
86	0xbdc302b4	-0.09522
87	0x3e9378f2	0.2880321
88	0x3dc2ca78	0.09511274
89	0x3df5a364	0.11994055
90	0x3c4f7908	0.012663133
91	0xbdb7a3ae	-0.08966766
92	0x3e2db426	0.16963252
93	0xbdbed3a9	-0.09317715
94	0xbe824b59	-0.2544811
95	0xbe0b5a5c	-0.13608688
96	0x3e0613ed	0.13093539
97	0x3da2e1ea	0.07953246
98	0x3e868d49	0.26279667
99	0xbd657b1e	-0.056025617
100	0x3e23ea9c	0.16007465
101	0xbe92ad96	-0.2864806
102	0x39eb5e3b	0.000448929
103	0x3e3483b8	0.17628372
104	0xbd80f94a	-0.06297548
105	0x3e040829	0.12893738
106	0x3cd9f72b	0.026607117
107	0xbc5c2ae3	-0.013437959
108	0xbd900b08	-0.07033354
109	0x3d92f43f	0.071754925
110	0xbddd024d	-0.107914545
111	0x3dfb6128	0.122743905
112	0xbe6ece36	-0.2332085
113	0xbe13d156	-0.14435324
114	0x3e86015a	0.26172906
115	0xbd70c18b	-0.058778327
116	0xbe271a20	-0.1631856
117	0x3e0b907a	0.13629332
118	0xbe56c00e	-0.209717
119	0xbe354b67	-0.17704545
120	0x3e418484	0.18898207
121	0x3e6d584b	0.23178212
122	0xbcc1f731	-0.02367744
123	0x3da95b27	0.08269339
124	0x3e95c153	0.29249057
125	0xbe0f3f12	-0.13988903
126	0xbd46aaf2	-0.04850287
127	0xbeabfe6b	-0.33592543
128	0x3d2999ff	0.041406628
129	0x3d783f17	0.060607042
130	0xbe341951	-0.17587782
131	0x3d53955f	0.051656123
132	0xbdd0d7e0	-0.10197425
133	0xbdeaf134	-0.11471787
134	0x3e976879	0.29571894
135	0xbde7f825	-0.11326627
136	0xbe8bf487	-0.27334997
137	0xbe05115d	-0.12994905
138	0xbe034b84	-0.12821776
139	0xbe916447	-0.28396818
140	0xbe096f8e	-0.13421461
141	0xbe1c3df2	-0.15258005
142	0x3e856e29	0.26060608
143	0x3dd70452	0.10498871
144	0x3e6b53e6	0.22981223
145	0x3cfe7b00	0.03106451
146	0x3e27f6c8	0.16402733
147	0xbc902f30	-0.017600626
148	0x3de1db5c	0.110281676
149	0x3d52cc3f	0.051464316
150	0xbe458b62	-0.19291452
151	0xbdd20a15	-0.10255829
152	0x3d285014	0.041091993
153	0x3daf072e	0.08546291
154	0xbe2b8d8e	-0.16753218
155	0xbe8ee10c	-0.27906072
156	0xbe08c106	-0.13354883
157	0xbc03633f	-0.008019268
158	0xbdba9dc9	-0.091121264
159	0xbd6f4037	-0.05841085
160	0xbe0858a1	-0.13315059
161	0xbd9b2f80	-0.07577419
162	0x3c5b38c9	0.013380238
163	0xbdd8bfb0	-0.105834365
164	0xbdb01766	-0.08598213
165	0x3de2ea63	0.11079862
166	0x3d33a483	0.043858062
167	0x3d3c9cc8	0.046047956
168	0x3c791a28	0.01520399
169	0xbd9965fa	-0.074901536
170	0xbe0fce6e	-0.1404359
171	0xbd16f446	-0.03685405
172	0x3d8ca413	0.06867232
173	0xbd7522ce	-0.059847645
174	0xbe07ee3f	-0.13274477
175	0xbdb0be2f	-0.08630025
176	0xbdd12a8c	-0.10213193
177	0x3e1b6838	0.15176475
178	0xbe534182	-0.20630458
179	0x3d7fc12a	0.062440075
180	0xbe421c54	-0.18956119
181	0x3db51cf4	0.08843413
182	0x3deb8fb6	0.1150202
183	0x3ec3c268	0.38234258
184	0x3e1b1087	0.15143023
185	0xbbe044e2	-0.006844149
186	0x3df0add6	0.117519066
187	0xbcaaf2e7	-0.020867778
188	0x3bb60ab1	0.0055554737
189	0xbe2a9eba	-0.16662112
190	0x3e375b0e	0.17905828
191	0x3cd43473	0.025903916
192	0x3e1dc281	0.15406229
193	0xbca71818	-0.020397231
194	0x3e7ca06c	0.24670571
195	0x3e06f37d	0.13178821
196	0x3e4ad08f	0.19806121
197	0x3dc6442c	0.096809715
198	0x3d88c0a3	0.066773675
199	0x3dff0648	0.1245237
200	0xbd91867c	-0.07105729
201	0x3d3daa2b	0.046304863
202	0x3e2e6d74	0.1703394
203	0x3e809830	0.2511611
204	0xbd1f7b35	-0.03893586
205	0xbce1f4c5	-0.027582536
206	0x3e149082	0.1450825
207	0x3e499907	0.19687282
208	0x3e0e9da1	0.13927318
209	0xbe1b37e3	-0.15158038
210	0xbc6f442c	-0.014603656
211	0x3ed1b64b	0.4095939
212	0x3e0ac4d0	0.1355164
213	0xbe32b32b	-0.1745116
214	0xbcbe0dbb	-0.023199907
215	0xbd294b92	-0.041331835
216	0xbe18bf1b	-0.14916651
217	0x3e2b7b36	0.1674622
218	0xbe560e89	-0.20903982
219	0xbe0b670c	-0.13613528
220	0x3e005a4f	0.1253445
221	0x3e6b2bdf	0.22965954
222	0x3d9ad78e	0.07560645
223	0x3c38d5c3	0.0112814335
224	0xbe5b6c2c	-0.21427983
225	0xbe4ff1ca	-0.20307079
226	0x3e84f66d	0.25969258
227	0xbe0795c7	-0.1324073
228	0xbbf6f640	-0.0075366795
229	0xbdf8d026	-0.12149076
230	0x3e220406	0.15821847
231	0x3e39ddf9	0.18151082
232	0x3d2f56f2	0.042807527
233	0xbe15c251	-0.14624907
234	0xbd8b15a6	-0.067912385
235	0x3cdeb59a	0.027186204
236	0xbe1337c3	-0.1437674
237	0x3e60f11c	0.21966976
238	0x3e746ebd	0.23870368
239	0x3d96bf05	0.07360653
240	0x3e352f56	0.17693838
241	0x3d97835f	0.07398104
242	0xbe491bed	-0.19639559
243	0x3d19a345	0.03750922
244	0x3e8a9651	0.27067807
245	0xbd2d55f9	-0.042318318
246	0x3d3a0a22	0.04541982
247	0xbc880689	-0.016604679
248	0x3e1be4d6	0.15224013
249	0x3dbea73d	0.09309242
250	0x3e6814bf	0.22664164
251	0xbe233711	-0.15938975
252	0xbe40466c	-0.18776864
253	0xbe2d38e7	-0.16916238
254	0xbe07e99e	-0.13272712
255	0xbb90b8c5	-0.0044165575
