HardcoreVersion/critic/ppo_q_critic1300.pth (torch, 592130 bytes, 10 tensors)

l1.weight f4 [256, 28]
0	0x393c3003	0.00017946963
1	0xbeecef53	-0.4627634
2	0xbead04b9	-0.33792666
3	0xbeba04a4	-0.36331666
4	0xbdbadcf9	-0.091241784
5	0x3e23f866	0.16012725
6	0xbb51ca2f	-0.003201138
7	0x3e2c9373	0.16853122
8	0xbde9c06f	-0.11413657
9	0x3e7393e2	0.23786882
10	0x3d473bab	0.04864089
11	0xbc7a95d9	-0.0152945155
12	0xbd84c3a1	-0.06482626
13	0x3e2e1feb	0.17004363
14	0x3c4f1ec5	0.012641613
15	0x3e3d036c	0.18458337
16	0x3d980f8c	0.0742484
17	0x3e9691b9	0.29408053
18	0x3e546b66	0.20744094
19	0xbe977d4b	-0.29587778
20	0xbefb8216	-0.49122685
21	0x3ea6a264	0.3254577
22	0x3dd57728	0.10423118
23	0xbe0d3631	-0.13790204
24	0x3be3c4d8	0.006950956
25	0x3d9bcbd7	0.07607239
26	0x39d5214e	0.0004065134
27	0x3d9af33f	0.07565927
28	0xbe4153a0	-0.18879557
29	0x3dc42023	0.09576442
30	0x3e309ea3	0.17248015
31	0x3e970468	0.2949555
32	0xbe93b54d	-0.2884926
33	0x3da4a0c3	0.08038475
34	0xbe8216e9	-0.25408104
35	0x3de292bf	0.11063146
36	0xbd927402	-0.07151033
37	0x3e5942ec	0.21216935
38	0x3d2e9a80	0.04262781
39	0xbd34a5b4	-0.04410334
40	0xbcfc6ce3	-0.03081364
41	0xbd1646b3	-0.036688518
42	0xbe67d8a1	-0.22641231
43	0xbe62d4b8	-0.22151458
44	0x3cd0436d	0.025422776
45	0xbd13f3a9	-0.036121044
46	0xbd03c74f	-0.032172497
47	0xbe0aa037	-0.1353768
48	0x3e273448	0.16328537
49	0x3e573a3c	0.21018308
50	0x3e192295	0.14954598
51	0xbe33022f	-0.17481302
52	0xbd83b5d9	-0.06431169
53	0x3e3a7d8b	0.18211953
54	0x3c2b5238	0.010456614
55	0xbe039d44	-0.12852961
56	0x3ef91913	0.48651943
57	0x3f646a1a	0.892244
58	0xbe3c071a	-0.18362084
59	0xbf922100	-1.1416321
60	0x3f229720	0.6351185
61	0x3e31b5e1	0.17354538
62	0xbd86515a	-0.06558485
63	0x3dc2046e	0.09473501
64	0x3d1dc5ed	0.038518835
65	0xbdff0469	-0.12452013
66	0x3c8e62e3	0.017381137
67	0xba8c2216	-0.0010691311
68	0x3c60293f	0.013681709
69	0xbd26c707	-0.04071715
70	0xbe4a06b9	-0.19729127
71	0x3d9e1575	0.07718936
72	0x3cf7ee34	0.030264951
73	0x3ca339b7	0.019924982
74	0xbbe95e99	-0.0071218726
75	0xbdd7f601	-0.105449684
76	0xbe1567cd	-0.14590378
77	0xbe6ea171	-0.23303773
78	0xbe010911	-0.12601115
79	0x3dd19a85	0.102345504
80	0x3dc11d11	0.09429372
81	0xbd02903b	-0.03187583
82	0xbcd00f69	-0.025397973
83	0xbc9166be	-0.017749187
84	0x3df51c71	0.119683154
85	0xbe872546	-0.26395625
86	0x3e97ef81	0.29674914
87	0x3e589d2e	0.2115371
88	0xbe1ba02f	-0.15197824
89	0xbe4d923b	-0.20075314
90	0x3e22a106	0.15881738
91	0x3d8b9ddf	0.06817221
92	0x3d925d7c	0.07146737
93	0xbe42077b	-0.18948166
94	0xbd65ecea	-0.056134142
95	0x3dc79c83	0.09746649
96	0x3d856171	0.06512726
97	0x3d07a514	0.033116415
98	0xbe4e5f33	-0.20153503
99	0x3cfb1803	0.030651098
100	0x3e1f222c	0.1554038
101	0x3e441179	0.1914729
102	0xbc1568c6	-0.009119218
103	0x3db23a94	0.08702579
104	0x3eb992c0	0.36244774
105	0x3df3b990	0.119006276
106	0x3de3b642	0.11118747
107	0xbe4bb136	-0.1989182
108	0xbc6fcaee	-0.014635785
109	0x3e01d1ad	0.12677641
110	0xbc5ec314	-0.013596315
111	0x3c33a573	0.010964739
112	0x3e249db0	0.16075778
113	0x3f26dd5f	0.65181535
114	0xbeba2847	-0.36358854
115	0x3ee8472a	0.45366794
116	0xbd593498	-0.053028673
117	0x3db5c2f1	0.08875073
118	0x3c37bf02	0.011214973
119	0x3d0fe49c	0.03513013
120	0x3d970b72	0.0737523
121	0x3e425471	0.18977524
122	0x3ce9bec1	0.028533341
123	0xbe3aeb9a	-0.18253937
124	0xbd525086	-0.051346324
125	0x3dcb66a5	0.09931687
126	0xbe3a98b1	-0.1822231
127	0x3d8dd17e	0.06924723
128	0xbd82b2d2	-0.063817635
129	0xbea3bd9a	-0.31980592
130	0x3e8bd8be	0.273138
131	0x3ebe2d76	0.3714406
132	0x3dc6ac9d	0.09700892
133	0xbe2b61c9	-0.16736521
134	0x3d736b65	0.05942859
135	0x3d88759f	0.066630594
136	0xbd6ef668	-0.05834046
137	0xbd4d2298	-0.05008182
138	0x3d5c0c8c	0.053722903
139	0xbace4973	-0.0015738442
140	0xbadfe831	-0.0017082748
141	0x3eaa5fd3	0.33276233
142	0xbdd805f7	-0.10548013
143	0xbf1fe35e	-0.6245631
144	0x3e18b1ca	0.14911571
145	0x3db41516	0.08793084
146	0xbdf1829c	-0.1179249
147	0x3d8e718c	0.06955251
148	0xbd960afd	-0.073263146
149	0x3e01c428	0.12672484
150	0xbcd28c29	-0.0257016
151	0xbdb73c2a	-0.08947022
152	0xbbb81c0a	-0.005618577
153	0x3e102597	0.1407684
154	0x3e58e577	0.21181284
155	0x3d3009fd	0.042978276
156	0x3e0189a4	0.12650162
157	0x3dad39be	0.08458279
158	0xbe177802	-0.14791873
159	0xbdb97956	-0.09056346
160	0x3e3ab921	0.18234684
161	0x3eb91437	0.36148235
162	0x3d8d43b6	0.068976805
163	0x3d815385	0.06314758
164	0x3d7adc98	0.06124553
165	0xbdcf070f	-0.10108768
166	0x3e20488b	0.15652673
167	0xbd581bc1	-0.052760843
168	0xbb542b86	-0.0032374575
169	0x3e841400	0.2579651
170	0xbe955990	-0.29169893
171	0x3d4e31b0	0.050340354
172	0x3e672b16	0.2257503
173	0x3df76f59	0.12081785
174	0xbe547b12	-0.20750073
175	0xbc29a5f9	-0.010354512
176	0x3d215ebc	0.039396986
177	0x3dac9a74	0.08427897
178	0x3d80ad9e	0.06283115
179	0x3d80cc15	0.062889256
180	0x3dc45df8	0.095882356
181	0x3d830504	0.06397441
182	0xbe83ea80	-0.25764847
183	0xbe58b455	-0.21162541
184	0xbe7be3ff	-0.24598692
185	0xbe2a9157	-0.16657005
186	0xbdb868f2	-0.09004392
187	0x3d514657	0.051092472
188	0xbdc2593c	-0.09489676
189	0xbd60958a	-0.05483011
190	0xbe55abc9	-0.20866312
191	0x3c495126	0.012287414
192	0x3dc09713	0.09403815
193	0xbd232dd9	-0.039838646
194	0xbce97af2	-0.028501008
195	0x3d99a523	0.075022005
196	0xbe5016fa	-0.20321265
197	0xc0068875	-2.1020787
198	0x3e6c87c0	0.2309866
199	0x3f990057	1.1953229
200	0x3eacdd30	0.33762503
201	0xbdde19b7	-0.108447485
202	0xbdd3d600	-0.10343552
203	0x3c8be934	0.017078973
204	0xbd1a009a	-0.03759823
205	0x3cabf501	0.02099085
206	0xbe0418b9	-0.12900056
207	0x3e997078	0.2996862
208	0x3c815d1d	0.01579147
209	0xbce092a6	-0.027413677
210	0x3df37d30	0.11889112
211	0x3c0123f5	0.007882108
212	0xbda773a1	-0.08176351
213	0xbe990af4	-0.2989117
214	0x3de622a7	0.11237078
215	0x3e001c85	0.1251088
216	0xbdfbbfc6	-0.12292437
217	0x3b8a870a	0.0042275237
218	0x3dec8466	0.115486905
219	0x3dbf9b75	0.09355823
220	0x3d61129a	0.05494938
221	0x3d30e67e	0.043188564
222	0x3c07359b	0.008252527
223	0x3cf1d897	0.029522223
224	0xbdc1634b	-0.09442767
225	0x3f129d61	0.5727139
226	0x3efffc41	0.49997142
227	0xbf0c7bbd	-0.5487631
228	0xbe7ac28e	-0.24488279
229	0xbd870ab4	-0.06593838
230	0xbed72574	-0.42020762
231	0xbd150cda	-0.03638921
232	0xbbf44693	-0.007454702
233	0xbdc6ff60	-0.09716678
234	0x3d917f57	0.07104366
235	0xbe7adeb7	-0.24499021
236	0xbd115d71	-0.035489503
237	0xbc9b30c9	-0.018944161
238	0x3ce91418	0.028451964
239	0x3db438f2	0.08799924
240	0xbea8c459	-0.329623
241	0x3d57c7d7	0.052680817
242	0x3e72f158	0.23724878
243	0xbd7639a6	-0.06011357
244	0xbeb13a33	-0.34614715
245	0xbea2ff25	-0.31835285
246	0x3d95495a	0.07289381
247	0x3daa3dae	0.08312546
248	0xbc8c414b	-0.017120978
249	0xb71cbdd2	-9.342521e-06
250	0x3c3d0b3f	0.011538326
251	0x3cb3da5d	0.02195471
252	0x3e5d0ecf	0.2158768
253	0xbf4a2f77	-0.78978676
254	0xbe79824c	-0.2436611
255	0x3d8f7108	0.07003981

l1.bias f4 [256]
0	0x3dbc5df4	0.09197608
1	0x3da513b6	0.080604
2	0x3e76fba6	0.24119434
3	0xbe819547	-0.25309202
4	0xbe20da1b	-0.157082
5	0xbe51b8a0	-0.20480585
6	0x3da4dfd3	0.080505036
7	0x3e204c94	0.15654212
8	0x3d733642	0.059377916
9	0x3d334c43	0.0437739
10	0x3d61f0a1	0.055161122
11	0x3d89e7d4	0.06733671
12	0x3e865a10	0.26240587
13	0x3d7cad3b	0.061688643
14	0x3ddf8762	0.10914494
15	0xbc67f9a7	-0.014158643
16	0x3e21af26	0.1578947
17	0x3e48ac63	0.1959701
18	0x3e9cb31b	0.30605397
19	0xbe5e4cbf	-0.21708964
20	0x3e9c6d8b	0.30552325
21	0xbe56584b	-0.20932119
22	0xbdf1abc6	-0.11800341
23	0x3e0f2b4d	0.13981362
24	0xbdfd8a2d	-0.123798706
25	0xbdc6424b	-0.09680613
26	0xbc84d1ff	-0.016213415
27	0xbcb2da55	-0.021832624
28	0x3de26e8c	0.110562414
29	0x3c61bcd8	0.013777934
30	0xbe17012a	-0.14746538
31	0x3dc95f02	0.098325744
32	0xbc30022d	-0.010742706
33	0x3d12ab1b	0.03580771
34	0x3cf4fd69	0.029905992
35	0xbcd1981c	-0.025585227
36	0x3d3cf223	0.046129357
37	0x3eb1fed0	0.3476472
38	0x3ea829e7	0.3284447
39	0x3d240f54	0.04005368
40	0x3c9c929b	0.019112876
41	0xbd9cd009	-0.07656867
42	0x3dd015a8	0.101603806
43	0x3c567a11	0.013090626
44	0xbda0297d	-0.07820413
45	0xbda57281	-0.080784805
46	0x3ecbe5c3	0.39823732
47	0x3ab8e934	0.0014107586
48	0x3dd4af1a	0.103849605
49	0x3e24aee4	0.1608234
50	0x3e83dbc3	0.25753602
51	0x3e880f6d	0.2657427
52	0xbd08e1e7	-0.033418562
53	0x3dc344cb	0.095346056
54	0xbe873bf0	-0.26412916
55	0x3da4176b	0.08012279
56	0x3e6dee13	0.2323535
57	0xbdeadf6d	-0.11468396
58	0xbdb8af0b	-0.09017762
59	0x3d8c9c80	0.068657875
60	0xbe427b4b	-0.18992345
61	0xbe304677	-0.1721438
62	0x3e498f67	0.1968361
63	0xbe0f33c7	-0.13984595
64	0xbe1f3b4c	-0.15549964
65	0xbe18cd63	-0.14922099
66	0xbd80a058	-0.06280583
67	0xbdebeb2e	-0.11519466
68	0x3e12d4e4	0.14339024
69	0x3e074b3c	0.13212293
70	0xbe80ace1	-0.25131896
71	0xbe68ddf9	-0.22740926
72	0x3e68260f	0.22670768
73	0xbd4af423	-0.049549233
74	0xbe6e3b2b	-0.23264758
75	0x3d8565fa	0.06513591
76	0x3e524904	0.20535666
77	0x3e8d627d	0.27614203
78	0x3e87d61d	0.26530543
79	0x3e4e1a46	0.2012721
80	0xbe896aff	-0.26839444
81	0xbd8f64b7	-0.07001632
82	0xbe420f12	-0.18951061
83	0x3e3cdc73	0.1844347
84	0xbe6517d0	-0.22372365
85	0x3d430d13	0.04761989
86	0xbd9fa085	-0.077942885
87	0xbe081ae3	-0.13291506
88	0xbc8e7c0f	-0.01739314
89	0x3e938902	0.28815466
90	0x3e4bc733	0.19900207
91	0x3d82cdad	0.06386886
92	0x3e58ad59	0.21159877
93	0xbe2025d9	-0.15639438
94	0xbe2e9bbc	-0.17051595
95	0x3dd8c69d	0.105847575
96	0xbd139088	-0.036026508
97	0x3d8c61ca	0.06854589
98	0x3d27c543	0.040959608
99	0xbdbed275	-0.09317485
100	0xbdf5d922	-0.120043054
101	0xbd7a9d60	-0.06118524
102	0xbd97769d	-0.073956706
103	0x3db06279	0.08612532
104	0xbd84e895	-0.06489674
105	0x3d1adb7f	0.037806984
106	0x3c7b2de8	0.015330769
107	0x3c36d8a9	0.011160054
108	0x3eb8cbe1	0.36093047
109	0xbdd566dd	-0.1042001
110	0xbde01789	-0.10941989
111	0x3da88bd7	0.08229797
112	0x3d10b1c1	0.03532577
113	0x3d99cfdf	0.075103514
114	0xbdf7f247	-0.121067576
115	0x3e682301	0.22669603
116	0xbdf32e61	-0.118740804
117	0x3e5f61db	0.21814673
118	0xbda09270	-0.07840431
119	0xbdc53311	-0.09628881
120	0xbd5e149f	-0.054218885
121	0x3e91c5b6	0.28471154
122	0x3e3c4eea	0.18389478
123	0xbd01a116	-0.031647764
124	0x3e8358f8	0.25653815
125	0xbdfae359	-0.122503944
126	0xbe876dcc	-0.26450956
127	0x3da47242	0.080296054
128	0x3e6667cd	0.22500534
129	0x3e4de83a	0.20108119
130	0xbe28e13c	-0.1649217
131	0x3e25cc27	0.16191159
132	0x3d6379fc	0.055536255
133	0x3e009f7c	0.12560838
134	0x3dd96b75	0.10616199
135	0xbcaab008	-0.020835891
136	0xbd2287d8	-0.039680332
137	0xbe535487	-0.20637713
138	0x3ded2af5	0.11580459
139	0x3da353f1	0.07974995
140	0xbc8264b9	-0.015917169
141	0xbe29fb31	-0.16599728
142	0x3e1d71ca	0.15375438
143	0xbe18a53f	-0.14906786
144	0x3dff4955	0.12465159
145	0xbde1cca4	-0.1102536
146	0xbea38d31	-0.31943658
147	0x3df00442	0.11719562
148	0x3e8f8614	0.2803198
149	0xbdcb7c13	-0.09935775
150	0x3cc2849b	0.023744872
151	0x3c5dd9fd	0.013540742
152	0x3de8b74a	0.113630846
153	0x3e12bf4e	0.1433079
154	0xbdd3181b	-0.10307332
155	0x3e12c78c	0.14333934
156	0xbc9d7b13	-0.019223725
157	0xbe77b9b6	-0.24191937
158	0xbea3b992	-0.31977516
159	0x3d78aa12	0.060709067
160	0xbb824b00	-0.003976226
161	0x3e683b44	0.22678858
162	0xbda07a57	-0.078358345
163	0x3cf1802e	0.029480066
164	0x3bcf253e	0.0063215783
165	0x3e3800d1	0.17969061
166	0x3e33cd58	0.17558801
167	0x3e6d0d44	0.23149592
168	0x3e3f2db8	0.18669784
169	0xbb824163	-0.00397508
170	0x3c85d11f	0.016335068
171	0x3cdf0f2b	0.027228912
172	0x3b095010	0.0020952262
173	0xbe944b43	-0.2896367
174	0xbdbac8a1	-0.09120298
175	0x3e0b6999	0.13614501
176	0xbd9f8711	-0.07789434
177	0x3e01f41a	0.12690774
178	0xbe0fed84	-0.14055449
179	0x3e0444ad	0.12916823
180	0xbe8e3a67	-0.27778932
181	0xbe8b5695	-0.27214494
182	0x3e491592	0.19637135
183	0xbe26c89f	-0.16287468
184	0x3c7d63b8	0.015465669
185	0x3cfba894	0.030720033
186	0xbab3bb42	-0.0013712423
187	0xbe0a96b2	-0.13534048
188	0xbdac2e34	-0.0840725
189	0x3d5b9699	0.053610418
190	0xbe7c7567	-0.2465416
191	0x3e65cc57	0.2244123
192	0x3db9f1ec	0.09079346
193	0xbdd61fe8	-0.104553044
194	0xbdee95ae	-0.11649643
195	0x3dff2e00	0.12459946
196	0xbdc2dbf1	-0.09514607
197	0xbd48e026	-0.04904189
198	0x3d986496	0.0744106
199	0x39d0a355	0.00039794543
200	0xbdf26bc8	-0.11836964
201	0xbcdc2134	-0.026871301
202	0x3dc8812e	0.09790264
203	0xbce4592a	-0.027874548
204	0xbd0f67ca	-0.03501109
205	0x3d9ccafc	0.07655904
206	0xbe410309	-0.18848814
207	0xbe10b201	-0.14130403
208	0x3e8aedf5	0.27134672
209	0x3d688582	0.056767948
210	0xbc8848b1	-0.016636224
211	0x3e64766d	0.22310801
212	0xbe89eee8	-0.26940084
213	0x3e313c17	0.17308079
214	0xbba0b954	-0.0049049053
215	0xbcd76fca	-0.026298422
216	0xbe09cecc	-0.13457793
217	0x3e63eed5	0.22259076
218	0xbe0d8cb2	-0.13823202
219	0x3ea97c44	0.3310262
220	0x3d5ab9de	0.053399913
221	0x3c77aa23	0.015116247
222	0xbe241e51	-0.1602719
223	0x3e02ca52	0.12772492
224	0xbc5bd8b2	-0.013418363
225	0xbe42d0e8	-0.19025004
226	0x3d172425	0.036899704
227	0xbda82067	-0.08209305
228	0x3e0ea336	0.13929448
229	0x3e598592	0.2124236
230	0x3e1851b0	0.14874911
231	0xbd95e90b	-0.0731984
232	0x3d29b137	0.04142877
233	0x3c49801b	0.012298609
234	0x3e7ac5ab	0.24489467
235	0x3e0f4da6	0.13994464
236	0x3e4600d4	0.19336253
237	0x3ec3d99e	0.38251966
238	0xbd4f7917	-0.05065259
239	0xbd95a69c	-0.07307169
240	0x3d8ed095	0.069733776
241	0xbcd77bd2	-0.02630416
242	0xbce982da	-0.028504778
243	0x3d91ecb2	0.07125224
244	0x3e39c764	0.18142468
245	0x3d781bef	0.060573515
246	0x3eb65517	0.35611793
247	0x3d0309b7	0.031991687
248	0xbde364d1	-0.111032136
249	0x3d17fce0	0.037106395
250	0xbdbd67b6	-0.09248297
251	0xbdad47d0	-0.08460963
252	0x3e25c736	0.16189274
253	0xbc40574a	-0.011739561
254	0xbe0bff6e	-0.13671657
255	0x3d4748ba	0.04865334

l2.weight f4 [256, 256]
0	0x3d2d73fc	0.04234694
1	0x3df8b822	0.121444955
2	0xbdb5c8d8	-0.088761985
3	0xbe1cdaa4	-0.1531778
4	0x3dab3acb	0.08360823
5	0xbd58d506	-0.05293753
6	0x3e4ce595	0.20009454
7	0x3e8b9830	0.27264547
8	0xbdadda25	-0.084888734
9	0x3e52eb58	0.20597589
10	0x3d3f1c14	0.046657637
11	0x3d359121	0.04432786
12	0x3d1415f1	0.036153737
13	0x3e642074	0.22278005
14	0xbc5bc817	-0.013414404
15	0x3e85395b	0.2602032
16	0xbc81764e	-0.015803482
17	0x3e7c9f9b	0.2467026
18	0x3c83302a	0.016014177
19	0xbd502e1b	-0.05082522
20	0x3d407838	0.04698965
21	0xbd846744	-0.06465009
22	0xbce946f3	-0.028476214
23	0xbd3bf44e	-0.045887284
24	0xbee73c2c	-0.45163095
25	0x3cec3622	0.028834406
26	0xbd88a4d6	-0.06672065
27	0xbcf6889c	-0.030094437
28	0xbe06b601	-0.13155366
29	0x3da85f93	0.08221354
30	0xbe8f2c96	-0.27963704
31	0x3e3552e9	0.17707409
32	0xbe9525af	-0.29130313
33	0x3e43ac8d	0.19108792
34	0x3e014d4f	0.12627147
35	0xbea59b49	-0.32345036
36	0xbe00551d	-0.12532468
37	0xbe7c81ec	-0.24658936
38	0xbd5bf22c	-0.05369775
39	0x3cca7244	0.02471269
40	0xbf494319	-0.7861801
41	0x3e4cedd1	0.20012595
42	0xbd73f91e	-0.05956375
43	0x3e75e5eb	0.24013488
44	0x3d62ae70	0.055342138
45	0xbe414d78	-0.18877208
46	0xbe65b44d	-0.2243206
47	0x3e41dbc9	0.18931498
48	0x3ddefb41	0.10887767
49	0x3e33a532	0.17543486
50	0x3e3ec773	0.18630771
51	0x3e2eda4d	0.17075463
52	0xbe223b11	-0.15842845
53	0xbd529d1c	-0.051419362
54	0xbe451b9f	-0.19248818
55	0x3e3fb62d	0.18721838
56	0x3cb6fa29	0.022336083
57	0x3d37a696	0.044836603
58	0xbdea0cec	-0.11428246
59	0xbea0c447	-0.31399748
60	0xbe2332fa	-0.15937415
61	0x3cbc284f	0.02296844
62	0x3d73bada	0.059504367
63	0xbf318a94	-0.6935208
64	0xbe2d8ae7	-0.16947518
65	0xbdddece4	-0.10836199
66	0xbe0ee5d8	-0.13954866
67	0x3e0350aa	0.1282374
68	0x3e4e1738	0.20126045
69	0x3e1f1b44	0.15537745
70	0x3d2130c2	0.03935314
71	0x3e27d8ba	0.16391268
72	0x3dcdc1e1	0.10046745
73	0x3e3f4489	0.18678488
74	0xbeb825af	-0.3596625
75	0xbdf08a05	-0.11745075
76	0x3dc5fb42	0.09667064
77	0x3d0a05e0	0.03369701
78	0x3dfa6342	0.12225963
79	0x3d0eeb67	0.034892466
80	0x3e138f4c	0.14410132
81	0xbe049e20	-0.12950945
82	0xbe2820a0	-0.16418695
83	0xbe259cda	-0.16173115
84	0xbd72b04e	-0.05925017
85	0x3e375b51	0.17905928
86	0x3d61455a	0.05499778
87	0x3d0be4dd	0.034153808
88	0xbe2506a4	-0.16115814
89	0x3e6839b8	0.22678268
90	0xbe4e5973	-0.2015131
91	0x3d9be957	0.076128654
92	0x3e9dcaa8	0.30818677
93	0x3daa2cd6	0.08309333
94	0x3e08eb3b	0.13370983
95	0x3dff0744	0.12452558
96	0x3c27f168	0.010250427
97	0x3df15e67	0.11785584
98	0x3d5096e1	0.05092514
99	0xbe517d17	-0.20457874
100	0x3e13fcf9	0.1445197
101	0xbe0585b7	-0.1303929
102	0xbde04774	-0.109511286
103	0xbd3809d3	-0.044931244
104	0xbe01de56	-0.1268247
105	0x3d841d9d	0.06450961
106	0x3c780b63	0.015139434
107	0xbee837a4	-0.4535495
108	0x3d29bc38	0.041439265
109	0x3b8097b3	0.003924334
110	0xbefed172	-0.4976917
111	0x3ddb0543	0.10694363
112	0xbe1eb44c	-0.15498465
113	0x3e296eb8	0.16546142
114	0xbe78235d	-0.2423224
115	0xbea05c6f	-0.3132052
116	0x3caa594a	0.02079453
117	0x3d6aa28a	0.057283916
118	0x3e6ee716	0.2333034
119	0xbf3ae560	-0.7300625
120	0x3dacef24	0.0844405
121	0x3e45eda6	0.19328937
122	0xbcec6ba8	-0.028859928
123	0xbd2588c8	-0.040413648
124	0xbe02fd26	-0.12791881
125	0x3e004c86	0.12529191
126	0xbebb6828	-0.36602902
127	0xbe71f028	-0.23626769
128	0x3e1dddc9	0.15416636
129	0xbaaf8343	-0.001339056
130	0xbede61a7	-0.43433878
131	0xbd45e488	-0.048313648
132	0x3f1c40b4	0.6103623
133	0x3e292ccf	0.16521
134	0xbc64a383	-0.013955
135	0x3e90b23e	0.28260988
136	0x3dbf8dce	0.09353219
137	0xbdcfdc5f	-0.10149454
138	0x3d9b58e9	0.07585318
139	0xbe95d837	-0.2926652
140	0x3e27a9be	0.16373345
141	0x3dd1f6a7	0.10252123
142	0x3e9bdf70	0.30443907
143	0xbd779657	-0.06044611
144	0xbe95623a	-0.29176503
145	0xbe1dc499	-0.15407027
146	0x3d175508	0.036946326
147	0xbee0a7ae	-0.4387793
148	0x3d91a3a1	0.07111288
149	0x3c117429	0.008877792
150	0xbe105a48	-0.1409694
151	0xbe3c9799	-0.18417205
152	0x3e5dfa97	0.21677624
153	0xbdf0490e	-0.11732684
154	0xbd532ade	-0.051554553
155	0x3ddab229	0.106785126
156	0x3d49be15	0.049253542
157	0x3e00d3b4	0.12580758
158	0xbe257bd6	-0.16160521
159	0xbdf5c2d2	-0.1200005
160	0xbe41d7db	-0.18929999
161	0xbdcd4f95	-0.10024945
162	0x3e0ea022	0.13928273
163	0xbb8af6d2	-0.004240849
164	0x3ceb62a5	0.02873356
165	0x3c5c240e	0.0134363305
166	0x3dc32182	0.095278755
167	0xbd87cb3a	-0.06630559
168	0x3e8197fa	0.2531126
169	0x3e3df77d	0.1855144
170	0x3e0f27b5	0.13979991
171	0x3cbbd2da	0.02292769
172	0xbe2fbbb5	-0.17161448
173	0xbd15d5fb	-0.03658102
174	0xbdbcedab	-0.09225019
175	0xbdada8da	-0.084794715
176	0xbd2475d0	-0.040151417
177	0x3e10720b	0.14106004
178	0xbcbd40a8	-0.02310212
179	0x3d1e3a83	0.03863002
180	0xbe256370	-0.16151214
181	0xbe7178d6	-0.23581252
182	0x3cf96511	0.0304437
183	0x3d08b5bc	0.03337644
184	0xbcd34a81	-0.025792362
185	0xbde39dc2	-0.11114074
186	0x3df8cae7	0.121480756
187	0xbd5dd90b	-0.054162066
188	0x3e1bfa35	0.15232165
189	0xbc8fe209	-0.017563837
190	0xbe1ac572	-0.15114382
191	0x3db9724c	0.090550035
192	0xbdda89c6	-0.106708094
193	0xbc94662b	-0.018115124
194	0xbf079e4d	-0.5297592
195	0xbd5d2cd3	-0.053997826
196	0xbc4334ee	-0.011914475
197	0x3d6dc297	0.058046903
198	0xbdd01ce6	-0.10161762
199	0x3e4b8fae	0.19879028
200	0xbd996325	-0.074896134
201	0xbce1b5a3	-0.027552431
202	0xbd9b31b8	-0.075778425
203	0x3e9b5b0c	0.303429
204	0xbe423b54	-0.18967944
205	0x3e447249	0.19184221
206	0x3e6e3420	0.23262072
207	0xbc8736c8	-0.016505614
208	0x3e161c94	0.14659339
209	0x3d7fc796	0.0624462
210	0xbe3fce70	-0.18731093
211	0xbe052661	-0.13002922
212	0xbd83a635	-0.06428186
213	0xbd5c4526	-0.053776883
214	0x3c08578e	0.008321656
215	0x3df2d6ac	0.11857352
216	0xbe0f868b	-0.14016168
217	0x3d125f44	0.035735384
218	0xbd43f23c	-0.047838435
219	0x3e2de1f3	0.16980724
220	0x3d9d3d18	0.07677668
221	0xbe367dc4	-0.17821413
222	0xbe3fcbd3	-0.18730097
223	0xbf2460b8	-0.6421008
224	0xbe515f64	-0.20446545
225	0xbdd15ad9	-0.10222406
226	0xbd456358	-0.048190445
227	0x3e4d572d	0.20052786
228	0xbd4c75ce	-0.049917035
229	0x3e348514	0.1762889
230	0x3e4142bf	0.18873118
231	0xbecd8a6f	-0.4014468
232	0x3e57b218	0.21064031
233	0xbf00582f	-0.5013456
234	0xbc0b8bff	-0.008517264
235	0x3ee292ae	0.44252533
236	0xbea98cc4	-0.33115208
237	0x3e6a2d84	0.22868925
238	0xbf5b44c7	-0.8565182
239	0xbcb31a9d	-0.021863276
240	0xbdf06f97	-0.11740034
241	0x3ccddfa0	0.025131047
242	0x3e30f26c	0.17279977
243	0x3e2b24ef	0.16713308
244	0x3e2cbf05	0.16869743
245	0xbe0a2ab3	-0.13492851
246	0x3e36e449	0.17860521
247	0x3c55c018	0.013046287
248	0xbd007992	-0.03136594
249	0xbd8df54e	-0.06931554
250	0xbdf2d752	-0.11857475
251	0xbd26a49e	-0.040684335
252	0xbdb2ca8c	-0.08730039
253	0x3d8f280f	0.069900624
254	0xbc229d40	-0.009925187
255	0xbf2cde9f	-0.6752719

l2.bias f4 [256]
0	0x3d94ea56	0.072712585
1	0xbccdc45a	-0.025118042
2	0x3c8ba2ea	0.017045457
3	0xbb50e2ad	-0.003187339
4	0xbcb87595	-0.022517005
5	0xbd2816c3	-0.041037332
6	0x3daec40c	0.08533487
7	0x3babe712	0.0052460516
8	0x3db456d4	0.08805624
9	0x3cae78ad	0.021297777
10	0x3dabe0da	0.083924964
11	0x3cc1b819	0.023647355
12	0x3d928a0e	0.07155238
13	0x3d273ed2	0.040831394
14	0x3d6d9a60	0.05800855
15	0xbe27f030	-0.16400218
16	0xbd9ad7fd	-0.07560728
17	0xbd7f3857	-0.06230959
18	0x3d318bab	0.04334609
19	0xbc9332d4	-0.017968573
20	0x3b530d96	0.0032204143
21	0x3c8661fe	0.016404148
22	0x3d81761e	0.06321357
23	0xbccf4722	-0.025302473
24	0xbd081dbb	-0.03323148
25	0x3d7d659d	0.061864484
26	0xbc5792ff	-0.013157605
27	0x3c877e82	0.016539816
28	0xbc8fdf9e	-0.017562684
29	0xbd92fe19	-0.071773715
30	0xbca26c8b	-0.019827148
31	0xbd9f95c3	-0.07792237
32	0x3d5ebae8	0.054377466
33	0x3cc50adc	0.02405303
34	0xbc3cfd9d	-0.0115350755
35	0xbca2b4aa	-0.019861538
36	0xbc9186ed	-0.017764533
37	0x3d4c0aa0	0.04981482
38	0x3d6410f9	0.05568025
39	0xbd24bbf0	-0.040218294
40	0x3d158b3e	0.036509745
41	0xbc8e88cf	-0.01739922
42	0x3d49f0ab	0.049301784
43	0xbd210562	-0.039311774
44	0xbc88099d	-0.016606146
45	0xbcb3ab19	-0.021932172
46	0x3dae37d6	0.085067436
47	0x3db9dbce	0.090751275
48	0xbe352bf0	-0.17692542
49	0xba43f9b6	-0.00074758695
50	0x3b3fc29b	0.002926028
51	0x3c0289d0	0.007967427
52	0x3aeb1684	0.0017935787
53	0x3d7038b9	0.058647845
54	0x3bbefd84	0.0058285613
55	0xbc50a4dd	-0.012734619
56	0xbcb2d561	-0.021830263
57	0x3d9c6d52	0.07638039
58	0xbd55100f	-0.052017268
59	0x3ccc92bd	0.024972314
60	0x3d12b406	0.035816215
61	0x3d1e558e	0.03865581
62	0x3b8ad71a	0.004237068
63	0x3bfcc0c0	0.0077134073
64	0x3cba0af2	0.022710297
65	0x3c86268b	0.0163758
66	0xbd54e19d	-0.051972974
67	0x3cbc8f64	0.023017593
68	0x3b0eea41	0.0021807107
69	0x3d0db254	0.034593895
70	0x3d4a8f35	0.04945298
71	0x3d9acf49	0.07559068
72	0xbd932da7	-0.07186442
73	0x3abe146d	0.0014501937
74	0x3de766c6	0.11298899
75	0xbc8195b6	-0.015818458
76	0x3d8683f6	0.06568138
77	0x3df1f2b2	0.118138686
78	0x3dab0f49	0.08352525
79	0x3d89380d	0.06700144
80	0x3c85fadf	0.016354976
81	0x3d5f2892	0.05448205
82	0x3ccdad57	0.025107069
83	0xbbb43a25	-0.0055000954
84	0x3cbb5011	0.022865327
85	0xb9ff8745	-0.00048738174
86	0x3d2db964	0.04241313
87	0xbb8fa850	-0.004384078
88	0xbd718919	-0.058968637
89	0x3ca5ecc8	0.020254508
90	0xbc804e75	-0.015662411
91	0xbddacba4	-0.106833726
92	0xbbf7adbc	-0.0075585525
93	0x3ccca4c0	0.024980903
94	0x3d057ec7	0.032591607
95	0x3c35d0cf	0.011097147
96	0xbd136954	-0.03598912
97	0x3bb45d90	0.0055043176
98	0x3c47290a	0.012155781
99	0x3c6421d8	0.013924085
100	0xbd3a582c	-0.045494244
101	0xbc934f25	-0.017982075
102	0x3dcc6b79	0.09981436
103	0xbe3cb0c5	-0.18426807
104	0xbdc449ea	-0.095844105
105	0xbd6de6a2	-0.058081277
106	0x3d8eac43	0.0696645
107	0x3c53713b	0.012905414
108	0x3da1b770	0.07896316
109	0xbdba7639	-0.091045804
110	0xbd1374c4	-0.03600003
111	0x3c37cc6d	0.0112181725
112	0xbd4bea55	-0.049784023
113	0x3d050d31	0.032483283
114	0x3ca75c44	0.020429738
115	0x3d8d31cf	0.06894266
116	0x3d50fa67	0.051020052
117	0xbcd54d8c	-0.026037954
118	0xbdf8a93c	-0.12141654
119	0x3b24d4f4	0.0025151344
120	0x3d916aef	0.07100474
121	0xbc462a64	-0.012095068
122	0x3d3ce65c	0.046118125
123	0xbd6b63c0	-0.057468176
124	0x3d18ef7c	0.037337765
125	0x3d49edca	0.04929904
126	0x3d37954f	0.044820126
127	0xbd453d6e	-0.048154287
128	0x3d35d5c6	0.044393323
129	0x3d51ddb9	0.05123684
130	0x3c48f874	0.012266267
131	0x3bb85375	0.005625183
132	0x3ca8ff85	0.020629654
133	0x3d2230f1	0.039597455
134	0xbd6a622b	-0.057222527
135	0xbce14073	-0.027496552
136	0xbdb51222	-0.08841349
137	0x3d055ca1	0.03255904
138	0x3de412c3	0.11136391
139	0x3d8627c8	0.065505564
140	0x3d818258	0.06323689
141	0xbc66285e	-0.01404771
142	0x3cc5df8a	0.024154443
143	0x3d3b45e8	0.045720965
144	0x3cfd717c	0.030937903
145	0xbd5159f2	-0.05111117
146	0xbdbe8aac	-0.09303793
147	0x3baaee39	0.0052163866
148	0xbb4a7ce1	-0.0030897188
149	0x3dbbab3c	0.0916352
150	0x3dce90e7	0.10086232
151	0x3d94d3ae	0.07266937
152	0xbd48e10e	-0.049042754
153	0xbd2e1b6f	-0.04250663
154	0x3d94500f	0.072418325
155	0x3ca137e9	0.01967998
156	0xbc9bc9d9	-0.019017147
157	0xbb7c2ab9	-0.0038477613
158	0x3d4ade6b	0.04952852
159	0xbc0b7b0f	-0.008513226
160	0xbdda9b4e	-0.10674153
161	0xbe0fa7b0	-0.14028811
162	0xbcfa438e	-0.03054979
163	0x3cb902c9	0.022584336
164	0x3d3e58cb	0.0464714
165	0xbd2dcdfe	-0.042432778
166	0x3d226f9b	0.039657217
167	0x3d1d9533	0.038472366
168	0xbc5df440	-0.013547003
169	0xbd78f619	-0.060781572
170	0x3dc1b90f	0.09459125
171	0x3d79e219	0.06100664
172	0x3c8c32a2	0.017113987
173	0x3d7a709d	0.061142553
174	0x3df79e9d	0.120908
175	0xbe06db9d	-0.13169713
176	0xbd8cbd78	-0.06872076
177	0xbdabf853	-0.083969735
178	0xbda2f0fb	-0.079561196
179	0x3d8e975f	0.069624655
180	0xbd6e8bb6	-0.058238707
181	0xbcff2ecd	-0.031150246
182	0xbd47e3c8	-0.048801214
183	0x3d42c298	0.04754886
184	0x3d843606	0.06455617
185	0x3d66f638	0.056387156
186	0xbe06ddec	-0.13170594
187	0x3b1fe501	0.0024397972
188	0xbdf732b2	-0.12070216
189	0x3c9d0f5b	0.019172361
190	0x3d511436	0.051044665
191	0xbc1dcc1c	-0.009631183
192	0xbd9755a3	-0.07389381
193	0x3cf2da39	0.029645072
194	0x3cbe1164	0.023201652
195	0xbd50bcb5	-0.050961215
196	0xbdae3077	-0.08505338
197	0x3db6ed20	0.08931947
198	0x3d563f29	0.052306328
199	0xbd21d216	-0.039506994
200	0xbdeee0ee	-0.11663996
201	0xbd3fd7e2	-0.04683674
202	0x3d6f62f9	0.058443997
203	0x3d0934f6	0.033497773
204	0x3dd4cb92	0.103903905
205	0x3c5eaa2c	0.013590377
206	0x3cdaf900	0.02673006
207	0xbda68496	-0.081307575
208	0xbcc33f02	-0.023833755
209	0x3de83a96	0.113392994
210	0xbd97bd27	-0.07409125
211	0x3cf28ad4	0.029607214
212	0xbc8e7978	-0.017391905
213	0x3d865b89	0.06560428
214	0xbc700ebc	-0.01465195
215	0xbd3288ea	-0.043587603
216	0xbc940e17	-0.018073125
217	0x3dfc231b	0.12311383
218	0x3d3486b4	0.044073775
219	0xbd18454b	-0.037175458
220	0xbcccea90	-0.025014192
221	0xbce32f38	-0.027732477
222	0xbcff8caa	-0.031195004
223	0xbd000070	-0.031250417
224	0x3d5f2bc8	0.054485112
225	0xbc4d2431	-0.012520836
226	0xbce1e88b	-0.027576705
227	0xbd9ad670	-0.07560432
228	0x3d85bc40	0.065300465
229	0x3ce73012	0.028221164
230	0xbd22697a	-0.03965137
231	0xbd8294fd	-0.063760735
232	0xbd91fb66	-0.071280286
233	0xbd7a03d6	-0.061038814
234	0xbdcab171	-0.098971255
235	0xb992c86a	-0.0002799661
236	0x3d0d4334	0.034487918
237	0xbc7fd56d	-0.0156148495
238	0x3cac1d37	0.021010024
239	0xbd0f4b43	-0.034983885
240	0xbdfd4ff9	-0.12368769
241	0xbcf157b2	-0.029460762
242	0x3c890e0d	0.016730333
243	0x3daeb22c	0.08530077
244	0x3d7a145d	0.061054576
245	0x3d662046	0.056183122
246	0x3d96d95e	0.07365678
247	0xbdc00610	-0.09376156
248	0x3c950172	0.018189166
249	0x3e10c2e3	0.14136843
250	0x3d746e78	0.059675664
251	0xbd36d89b	-0.044640165
252	0xbe20cbee	-0.15702793
253	0xbc8e1d33	-0.017347908
254	0x3c4730af	0.012157603
255	0xbd7f8cc8	-0.06239012

l3.weight f4 [1, 256]
0	0xbf865834	-1.0495667
1	0xbed88994	-0.42292464
2	0x3ebd4a25	0.3697063
3	0x3ea813c5	0.32827583
4	0x3e843a07	0.2582552
5	0x3f337bb6	0.7011064
6	0x3e705ad8	0.23472154
7	0xbf418d55	-0.7560628
8	0xbed653e1	-0.4186087
9	0xbeca4e61	-0.39512923
10	0x3f20ba07	0.62783855
11	0xbef43034	-0.47693026
12	0xbf8c7280	-1.0972443
13	0xbf437d8f	-0.7636346
14	0xbe1e20c5	-0.15442188
15	0x3f6e5cbe	0.93110263
16	0xbf4e9619	-0.8069778
17	0x3eb23140	0.348032
18	0xbe30896a	-0.1723992
19	0x3e8121b9	0.2522104
20	0x3f040d86	0.51583135
21	0xbe19bd5d	-0.15013643
22	0xbf87f58d	-1.0621811
23	0x3c303b87	0.01075638
24	0xbf07f7a8	-0.5311227
25	0xbe986653	-0.29765567
26	0x3f096969	0.5367647
27	0xbf5d2c32	-0.8639556
28	0xbf18eaec	-0.5973346
29	0xbf1f4220	-0.62210274
30	0x3ec1cadc	0.37850082
31	0xbf0c8577	-0.5489115
32	0x3e9e4e91	0.30919316
33	0x3eeeb75f	0.46624276
34	0x3ece4b0c	0.4029163
35	0x3eb33d11	0.35007527
36	0x3f91e7d5	1.1398875
37	0xbf6ba428	-0.9204736
38	0x3f4c4be9	0.7980333
39	0x3e1c92cd	0.15290375
40	0x3e7f3a20	0.24924517
41	0x3f8d776e	1.1052072
42	0xbed0fcb8	-0.4081781
43	0xbeb0a399	-0.34499815
44	0x3f491708	0.7855077
45	0xbef02987	-0.46906683
46	0xbec26ceb	-0.37973723
47	0xbf7a7ed6	-0.97849786
48	0xbfc71cac	-1.5555625
49	0x3ed9691e	0.4246301
50	0xbf21cde6	-0.632048
51	0xbda62b38	-0.08113712
52	0xbf9ca2b6	-1.2237155
53	0x3f203560	0.62581444
54	0x3eb8a134	0.36060488
55	0x3e7c7abd	0.24656196
56	0x3f302272	0.6880256
57	0xbf472731	-0.77794176
58	0x3efdf8df	0.49603936
59	0xbf668eb0	-0.90061474
60	0x3f00bda6	0.5028938
61	0x3f6336c6	0.8875545
62	0x3f3b5033	0.7316925
63	0x3f17f76d	0.59361917
64	0xbe10327e	-0.14081761
65	0xbf073c67	-0.5282654
66	0xbcfb21ba	-0.03065573
67	0xbfd1642f	-1.6358699
68	0x3f73bd7b	0.95211
69	0xbf59bc19	-0.8505264
70	0xbfd0cf68	-1.6313295
71	0x3f9bc196	1.2168453
72	0x3fd03576	1.6266315
73	0xbed09239	-0.4073656
74	0x3f304180	0.68849945
75	0x3f8ba35f	1.0909232
76	0x3fb0c01a	1.3808625
77	0xbf4d202b	-0.8012721
78	0xbf1a6a9d	-0.6031893
79	0x3efdad48	0.49546266
80	0x3ed6cee1	0.4195471
81	0x3f19ceac	0.6008098
82	0xbf0614a4	-0.52375245
83	0xbe651c00	-0.22373962
84	0xc00d1f2c	-2.2050276
85	0x3f2477d2	0.6424533
86	0xbf2d908e	-0.677987
87	0x3f75da12	0.96035874
88	0x3ef681c8	0.4814589
89	0xbf6a4045	-0.9150432
90	0xbec26ba1	-0.3797274
91	0x3f4b3d41	0.7939034
92	0xbe3e3e09	-0.18578352
93	0x3ebddc40	0.370821
94	0xbe1925a6	-0.14955768
95	0xbe80e8fd	-0.25177756
96	0xbebf8f6f	-0.3741412
97	0xbeab5631	-0.33464196
98	0xbedd7743	-0.43255052
99	0xbf03938a	-0.51397
100	0x3e80f48d	0.25186577
101	0x3e5f343c	0.2179727
102	0xbea45eb2	-0.32103497
103	0xbfac17e2	-1.3444788
104	0xbf60599c	-0.87636733
105	0x3ecba270	0.39772367
106	0xbeca6070	-0.395267
107	0x3f44e92d	0.769183
108	0x3ee52ef3	0.44762382
109	0xbfc33c35	-1.5252749
110	0xbfe710dd	-1.8052021
111	0xbce0d02b	-0.027443012
112	0xbf28297e	-0.6568831
113	0x3eb19ae5	0.34688488
114	0xbed9324a	-0.4242118
115	0x3f1372ca	0.5759703
116	0xbf1c22cf	-0.60990614
117	0x3f24d737	0.6439089
118	0xbf617387	-0.88066906
119	0x3cbe4e3d	0.023230666
120	0x3f3a0874	0.7266915
121	0xbf42e35b	-0.76128167
122	0xbf82a154	-1.0205483
123	0x3f5e48dd	0.8682993
124	0x3ebef32b	0.37294897
125	0xbf0298d4	-0.5101445
126	0xbf019c35	-0.5062898
127	0xbf67a66f	-0.9048833
128	0xbdc700ee	-0.09716974
129	0x3eebee53	0.46080264
130	0x3ea2f402	0.31826788
131	0xbeb5cf5c	-0.35509765
132	0x3f18ffc4	0.5976527
133	0x3f2cc1ac	0.6748302
134	0xbfdc10da	-1.7192643
135	0xbcafc8eb	-0.02145811
136	0x3ec6e1a1	0.38844016
137	0x3f1c10bd	0.6096304
138	0x3f13b9e0	0.577055
139	0x3f56d477	0.83917946
140	0x3e90165e	0.28142065
141	0xbfda1160	-1.7036552
142	0xbf5f722f	-0.87283605
143	0xbf329d2d	-0.6977108
144	0xc0012cf3	-2.0183685
145	0x3fa0b9d3	1.2556709
146	0xbf86fb1b	-1.0545381
147	0xbf078bb6	-0.52947557
148	0xbf9ffcc1	-1.2499009
149	0x3f4a2ffb	0.7897946
150	0x3e9bb8c6	0.30414408
151	0x3f0230ca	0.50855696
152	0x3ed9ed49	0.42563847
153	0x3f1f728c	0.6228416
154	0xbec5ae8c	-0.3860973
155	0x3ef44fa2	0.47717005
156	0x3edf26d0	0.435843
157	0x3f352a2f	0.7076749
158	0xbe9ef375	-0.31045118
159	0x3f0f3b3c	0.5594976
160	0xbefb256c	-0.49051988
161	0xbf8f6e47	-1.1205529
162	0xbec965c2	-0.39335448
163	0xbeeb0786	-0.45904177
164	0xbf2eb1ad	-0.6823986
165	0x3e7c6e4f	0.24651454
166	0x3f36e003	0.71435565
167	0x3eb16cb1	0.34653237
168	0x3f1dd4f9	0.61653095
169	0xbeb3a763	-0.35088643
170	0x3e60416d	0.21899958
171	0x3ecdf7b6	0.4022805
172	0x3e2b733f	0.16743182
173	0x3f5eb6ec	0.86997867
174	0x3f8d2a6d	1.1028572
175	0x3f9a5193	1.2056144
176	0x3eeff2e7	0.46865007
177	0x3fbe831b	1.488376
178	0xbfa601d2	-1.2969306
179	0x3f7c6f4d	0.9860733
180	0x3d4535bf	0.04814696
181	0xbf001d67	-0.50044864
182	0x3f0235ab	0.5086314
183	0xbf2b4007	-0.6689457
184	0x3ef62044	0.48071492
185	0xbe61e620	-0.22060442
186	0xbf7f7400	-0.99786377
187	0xbf5c40e9	-0.86036545
188	0xbf7bb7ed	-0.98327523
189	0x3eb2a1d8	0.34889102
190	0x3ea87d6c	0.3290819
191	0x3e2b15cd	0.16707535
192	0xbf81a152	-1.0127356
193	0xbe6dc706	-0.23220453
194	0x3e263515	0.16231187
195	0xbfd064c6	-1.6280754
196	0xbf4b0b5d	-0.79314214
197	0x3f57bc5b	0.8427178
198	0xbf3715b8	-0.71517515
199	0xbedcb5af	-0.43107364
200	0x3f8b5d9e	1.0887945
201	0xbd16569e	-0.0367037
202	0x3e49939c	0.19685215
203	0xbfdad721	-1.7096902
204	0xbef75048	-0.48303437
205	0xbea5075c	-0.32232177
206	0xbf0a405e	-0.54004467
207	0xbfae0a53	-1.3596901
208	0xbf9be555	-1.2179362
209	0x3ee28ddc	0.44248855
210	0x3f99177a	1.196029
211	0x3e3d96b7	0.18514524
212	0x3bc9e476	0.006161268
213	0xbf48e079	-0.7846752
214	0xbf13174d	-0.5745743
215	0xbff5e31e	-1.9209936
216	0xbf735884	-0.9505694
217	0x3f922604	1.1417851
218	0xbed01121	-0.40638068
219	0x3eec8991	0.46198705
220	0x3ca6243b	0.020280948
221	0x3e7943ca	0.24342266
222	0x3f1f9662	0.6233884
223	0x3f371981	0.7152329
224	0x3ec85a86	0.39131564
225	0xbf2f1196	-0.6838621
226	0x3f357ede	0.7089671
227	0xbef7e9b4	-0.4842049
228	0xbe73e2b3	-0.23816948
229	0x3f79673a	0.97423136
230	0xbf93ffea	-1.1562474
231	0xbec49361	-0.3839369
232	0xbf86dd89	-1.0536357
233	0x3f385d53	0.720174
234	0xbec9bdbe	-0.39402574
235	0xbe66b477	-0.2252978
236	0x3e86d700	0.26335907
237	0xbed20705	-0.4102098
238	0xbe6c80fd	-0.2309608
239	0x3f0e2825	0.55530006
240	0xbf924b81	-1.1429292
241	0xbea158b9	-0.31513003
242	0x3ea4ff7a	0.32226163
243	0x3ea5c3bb	0.32375893
244	0x3f1b0674	0.6055672
245	0xbedfd9d6	-0.43720883
246	0x3f1cce58	0.61252356
247	0x3f843eb5	1.0331637
248	0xbf302506	-0.68806493
249	0x3f6977fe	0.9119872
250	0x3f189993	0.59609336
251	0x3e4ae6cf	0.19814609
252	0xc0160fef	-2.3447225
253	0xbea0de0b	-0.31419405
254	0xbf694dd1	-0.91134363
255	0xbf14435b	-0.57915276

l4.weight f4 [256, 28]
0	0x3d7c484e	0.061592393
1	0x3f7de26d	0.99173623
2	0xbf0b6227	-0.54446644
3	0x3dad16ab	0.08451589
4	0xbcabe6d6	-0.020984095
5	0x3d8e8448	0.069588244
6	0xbb829d6a	-0.0039860504
7	0xbd472d91	-0.04862744
8	0xbd026627	-0.0318357
9	0xbd961276	-0.0732774
10	0xbe2559de	-0.16147563
11	0xbe5336db	-0.20626394
12	0x3cbb7d78	0.022886977
13	0xbc9b8553	-0.018984472
14	0x3e2dd591	0.16976
15	0x3e4719be	0.19443414
16	0x3e13c382	0.14430049
17	0xbe9c788f	-0.3056073
18	0xbab348f0	-0.0013678353
19	0x3e667f80	0.22509575
20	0x3e6ec080	0.2331562
21	0xbe1beffc	-0.15228266
22	0x3ce7b43b	0.028284183
23	0xbe291f5a	-0.16515866
24	0x3b93d4ee	0.004511467
25	0xbe1d76a8	-0.15377295
26	0xbdfd97db	-0.1238248
27	0xbd312af2	-0.043253846
28	0xbeec75eb	-0.46183714
29	0xc00ce9ca	-2.2017694
30	0xbe220eee	-0.15826008
31	0x3ec069aa	0.37580615
32	0xbe3bd20b	-0.18341844
33	0xbd5746b9	-0.05255768
34	0x3d5ed22b	0.05439965
35	0xbc82b410	-0.015955001
36	0xbc0656a1	-0.008199365
37	0xbb95fa9a	-0.004576993
38	0xbda165ef	-0.078807704
39	0x3d8ce877	0.06880277
40	0xbd22eaf9	-0.03977487
41	0x3ce270f6	0.027641755
42	0x3e034a94	0.12821418
43	0xbd05ae58	-0.03263697
44	0xbd7d1509	-0.06178764
45	0x3de570be	0.112031445
46	0xbce3a0b2	-0.027786586
47	0xbda34233	-0.07971611
48	0x3d291db1	0.04128808
49	0xbd754566	-0.059880637
50	0x3d26d663	0.0407318
51	0x3cf21a76	0.029553633
52	0x3b9fb7f0	0.004874222
53	0x3cc22e9d	0.023703868
54	0x3c7af97f	0.015318274
55	0x3be17b44	0.0068811495
56	0x3dbcfea3	0.092282556
57	0x3fabf1ea	1.3433201
58	0x3ea774d3	0.32706317
59	0x3f51aaf5	0.81901485
60	0x3ebbc428	0.36673093
61	0x3e0d1141	0.13776113
62	0x3e76374a	0.24044529
63	0x3d0afb0a	0.033930816
64	0xbdcead7a	-0.10091682
65	0xbde723ae	-0.11286102
66	0x3dadae51	0.08480514
67	0x3bc1de2e	0.0059163785
68	0x3d1848c5	0.037178773
69	0xbd80f1cd	-0.0629612
70	0x3e8bc118	0.27295756
71	0x3e30069b	0.1719002
72	0x3d09af8d	0.033614684
73	0x3d9fe793	0.07807841
74	0x3e260365	0.16212232
75	0x3dbddef2	0.09271039
76	0xbd514411	-0.051090304
77	0x3db78c97	0.08962362
78	0x3e49fb1c	0.19724697
79	0xbdfd6bd5	-0.12374083
80	0x3cf54a8c	0.029942773
81	0x3d073c9a	0.03301678
82	0xbba1dd99	-0.0049397466
83	0x3c9b8a3c	0.018986814
84	0x3d9eb0a7	0.077485375
85	0xbf7d3ccc	-0.98920894
86	0xbde85d5b	-0.11345931
87	0x3e526946	0.20547971
88	0xbe3e33dd	-0.18574472
89	0x3dd4cdea	0.103908375
90	0xbe517999	-0.20456542
91	0x3c9fccaf	0.01950678
92	0x3d73a82b	0.05948655
93	0x3e294981	0.16531946
94	0xbc84fc70	-0.016233653
95	0x3e75723e	0.23969361
96	0x3c4aa7d4	0.012369115
97	0x3dcb5a15	0.09929291
98	0xbe6e655f	-0.23280858
99	0xbebf7d14	-0.37400115
100	0x3d291ba9	0.041286144
101	0x3dadff93	0.084960125
102	0x3ec87561	0.39152053
103	0x3ec55ec9	0.38548878
104	0x3ceeb580	0.02913928
105	0x3ec230f4	0.37927973
106	0xbd267cdf	-0.04064643
107	0xbc14254f	-0.009042098
108	0x3d85cd93	0.06533351
109	0xbcfacd48	-0.030615464
110	0x3d26f103	0.04075719
111	0xbdc8e7ac	-0.09809813
112	0x3e258a6f	0.1616609
113	0x3f918bc3	1.1370777
114	0x3eddc86f	0.4331698
115	0x3e37a8aa	0.17935434
116	0x3d6161c0	0.055024862
117	0xbcc51ca2	-0.024061505
118	0x3cc72d37	0.024313552
119	0xbd3812f2	-0.044939943
120	0xbe084935	-0.13309176
121	0xbde8bcf3	-0.11364164
122	0x3d2e1f03	0.042510044
123	0x3ea865ff	0.32890317
124	0x3ddb8ff9	0.1072082
125	0x3da82411	0.08210004
126	0x3ebb6965	0.36603847
127	0x3e3cfda7	0.18456136
128	0x3de72d0f	0.11287891
129	0x3c164048	0.009170599
130	0xbd8ccc02	-0.06874849
131	0x3d9a93a4	0.075476915
132	0x3e60fc4f	0.21971248
133	0x3e5bf7e1	0.21481277
134	0xbe8bd6d0	-0.27312326
135	0x3d92a2fb	0.07159992
136	0x3d54f6bb	0.051993113
137	0xbd55dc6d	-0.052212168
138	0xbd661cb0	-0.056179702
139	0xba430f44	-0.00074409344
140	0x3e9aaefb	0.30211625
141	0xbf55f765	-0.8358062
142	0xbee794e7	-0.4523079
143	0x3eb4f821	0.35345557
144	0xbcad3770	-0.021144599
145	0xbc1da07f	-0.009620785
146	0xbda79ef0	-0.08184612
147	0xbc9e1fde	-0.019302305
148	0x3d52e237	0.051485267
149	0xbe15acb3	-0.14616661
150	0x3cb78fc3	0.022407418
151	0xbe3b38a7	-0.1828333
152	0xbbc5a0fa	-0.006031153
153	0xbd5de374	-0.054171994
154	0xbd047acb	-0.032343667
155	0x3e6818a4	0.2266565
156	0x3e984416	0.29739445
157	0xbd117b03	-0.035517704
158	0x3d2c1ae6	0.04201784
159	0xbd6b4c69	-0.057445917
160	0x3e77b2ad	0.24189253
161	0x3e87f978	0.26557517
162	0x3e900566	0.2812912
163	0xbc77f5e6	-0.01513431
164	0xbca5d195	-0.020241538
165	0xbd8b066a	-0.06788333
166	0x3c52e79b	0.012872602
167	0x3d350840	0.04419732
168	0x3dbaf5d3	0.091289185
169	0x3dbf465a	0.0933959
170	0x3ebb214c	0.3654884
171	0x3f7f30df	0.99683946
172	0x3da2f8a1	0.079575785
173	0x3d77ec60	0.06052816
174	0x3e097fb2	0.13427618
175	0x378bc3d6	1.6661284e-05
176	0xbd635308	-0.055499107
177	0xbc3e645d	-0.011620608
178	0xbc2227b2	-0.009897159
179	0xbe0a8119	-0.1352581
180	0x3b98459c	0.00464697
181	0x3d19dfef	0.037567075
182	0x3d5aa471	0.05337948
183	0xbe01df3a	-0.1268281
184	0x3e092823	0.13394217
185	0x3da77a6b	0.08177646
186	0x3dd78416	0.1052324
187	0xbe6ee839	-0.23330773
188	0x3da0a0d6	0.07843177
189	0x3e88674b	0.26641306
190	0x3d592899	0.053017233
191	0x3c768f82	0.015048863
192	0x3d13ad99	0.036054228
193	0xbc53c60c	-0.012925636
194	0xbaa87fc3	-0.0012855459
195	0x3bdcd3b5	0.0067391046
196	0x3d867139	0.06564564
197	0x3d05683c	0.03257011
198	0xbe2c1508	-0.16804898
199	0x3e8433db	0.25820813
200	0xbe862121	-0.2619715
201	0x3e05e1ea	0.1307446
202	0xbc756942	-0.014978709
203	0x3d841508	0.06449324
204	0x3e2ba6fd	0.1676292
205	0x3e1f14d7	0.15535294
206	0xbd0ec76b	-0.03485815
207	0x3f2006a9	0.6251016
208	0x3dd16ab4	0.1022543
209	0x3d0ae84e	0.03391295
210	0xbf0e14ee	-0.55500686
211	0xbe95d1e2	-0.2926169
212	0xbea30c7b	-0.3184546
213	0x3e7ecefe	0.24883649
214	0xbbc99a77	-0.006152447
215	0xbe86dd1b	-0.26340565
216	0xbcf4ffe6	-0.029907178
217	0xbe25ad32	-0.1617935
218	0xbdacf133	-0.084444426
219	0x3e3c8b9e	0.18412635
220	0x3d92bdbf	0.071650974
221	0xbc8f538e	-0.017495897
222	0xbe2281b6	-0.15869793
223	0x3de8abf8	0.113609254
224	0xbeca2f00	-0.39488983
225	0x3f5ac803	0.85461444
226	0x3ec1aabd	0.37825575
227	0x3fb47b2b	1.4100088
228	0xbdbf6dab	-0.093470894
229	0x3c816cea	0.015799005
230	0xbde2fa2a	-0.11082871
231	0xbbc79f48	-0.006091986
232	0x3b00cc6c	0.0019653095
233	0xbeb5d4f4	-0.35514033
234	0x3d9bddc4	0.07610658
235	0xbe0c91af	-0.13727449
236	0xbd334ac2	-0.043772466
237	0xbd1ef408	-0.038806945
238	0x3e0902b2	0.13379934
239	0x3e85a862	0.26105028
240	0x3e80997b	0.25117096
241	0xbd70b581	-0.058766846
242	0xbd96e9fe	-0.07368849
243	0x3e0d7fc6	0.13818273
244	0xbd75827e	-0.0599389
245	0xbdbd5a1f	-0.09245705
246	0xbd82aa90	-0.063801885
247	0xbd60bf37	-0.054869857
248	0xbac0f150	-0.0014720354
249	0xbc2727cb	-0.0102023585
250	0xbd4ac878	-0.04950759
251	0x3c6b32c1	0.014355362
252	0x3dc26e98	0.0949375
253	0xbf1a02cb	-0.6016051
254	0xbee4895d	-0.4463605
255	0xbca6f6d0	-0.020381361

l4.bias f4 [256]
0	0xbc2a4b3d	-0.010393915
1	0x3dcd3633	0.10020103
2	0xbe9b8ba4	-0.30379975
3	0xbe8f46d0	-0.27983713
4	0xbe2f17b7	-0.1709889
5	0xbe51e3c2	-0.20497039
6	0xbdffa8de	-0.12483381
7	0x3cf3b36c	0.029748641
8	0xbca0c86d	-0.01962682
9	0x3dbd79ac	0.09251723
10	0xbd5ba7ec	-0.05362694
11	0xbd627c7b	-0.055294495
12	0xbe68d234	-0.22736436
13	0x3dd5c188	0.10437304
14	0x3e082a7c	0.13297457
15	0xbdab6f23	-0.08370807
16	0xbe9235a1	-0.2855654
17	0xbc625fed	-0.013816816
18	0xbdd0e16d	-0.101992466
19	0xbd316fd2	-0.04331953
20	0xbe1d71a8	-0.15375388
21	0x3e29ac53	0.16569643
22	0xbe1e873d	-0.15481277
23	0x3e0c4514	0.13698226
24	0xbe2a1307	-0.16608821
25	0xbd8f1632	-0.06986655
26	0x3db9e37a	0.09076591
27	0xbd945ae6	-0.072439
28	0xbe5cbf39	-0.2155732
29	0x3dbccf05	0.09219173
30	0xbe28c697	-0.16482006
31	0x3dca798e	0.09886466
32	0x3e7b8e57	0.24566017
33	0xbe0d16e8	-0.1377827
34	0x3dbce6c6	0.09223704
35	0x3e721081	0.23639108
36	0x3d862fc0	0.06552076
37	0x3da350d3	0.079744
38	0xbb9bfd99	-0.004760456
39	0x3e6fc068	0.23413241
40	0x3bd89b83	0.0066103353
41	0x3e5eca4f	0.21756862
42	0x3e23076a	0.15920797
43	0x3eb1c4c5	0.34720436
44	0x3e1b9aa6	0.15195712
45	0xbe1df244	-0.15424448
46	0x3e1f1c67	0.15538178
47	0x3d67099f	0.05640566
48	0xbe659b2c	-0.22422475
49	0xbc240d7d	-0.0100129815
50	0xbe752c3e	-0.23942658
51	0x3d8aca98	0.06776923
52	0xbe5d61e6	-0.21619377
53	0xbcca7467	-0.024713708
54	0x3e53b452	0.20674255
55	0xbe304262	-0.17212823
56	0xbdc3286f	-0.095291965
57	0xbe2bc8f0	-0.1677587
58	0xbd7fc9a8	-0.062448174
59	0x3de23a50	0.110462785
60	0x3e26716f	0.16254209
61	0x3e553103	0.20819478
62	0xbe5b03a2	-0.21388105
63	0x3e777b61	0.24168159
64	0xba8343ee	-0.0010014751
65	0xbd86c4d7	-0.06580513
66	0x3dfc5424	0.12320736
67	0xbb3913d6	-0.0028240583
68	0x3d8c17a2	0.06840445
69	0x3c9063c7	0.017625703
70	0x3e4cff83	0.20019345
71	0x3e1d060f	0.15334342
72	0x3d352208	0.044221908
73	0x3dc7fd84	0.09765151
74	0x3e6990a8	0.22809088
75	0xbe5646a6	-0.20925388
76	0x3de12120	0.10992646
77	0x3da8cf5a	0.08242674
78	0x3da09dc5	0.07842592
79	0x3ea97676	0.3309819
80	0xbe1ee72c	-0.15517873
81	0xbdacc841	-0.08436633
82	0x3e18e643	0.14931588
83	0xbc420ec2	-0.011844339
84	0xbd9d6397	-0.07685011
85	0x3ba66592	0.005078026
86	0xbdd680ca	-0.10473783
87	0x3ea0e4a2	0.31424433
88	0x3d9daa25	0.07698468
89	0x3e01b5b5	0.12666972
90	0x3c76781e	0.015043287
91	0xbdd06aff	-0.10176658
92	0x3e2d9460	0.16951132
93	0xbdc6c05d	-0.09704659
94	0xbe891d10	-0.26779985
95	0xbe183d64	-0.14867169
96	0x3e1f98ea	0.15585676
97	0x3d9a936b	0.07547649
98	0x3ea464c8	0.3210814
99	0xbd7327f5	-0.059364278
100	0x3e2ea729	0.17055954
101	0xbe98b3d9	-0.29824713
102	0xbad36677	-0.0016128559
103	0x3e359f0b	0.17736451
104	0xbd905985	-0.070483245
105	0x3df49d96	0.1194412
106	0x3d0c4036	0.034240924
107	0xba9aaa3c	-0.0011800001
108	0xbda704ef	-0.08155238
109	0x3db4a870	0.088211894
110	0xbdeba71a	-0.115064815
111	0x3ddd160e	0.10795222
112	0xbe667b04	-0.22507864
113	0xbe2a81c7	-0.16651069
114	0x3e807d3c	0.25095546
115	0xbd8d14d8	-0.06888741
116	0xbe2a6535	-0.1664017
117	0x3e1061c6	0.14099798
118	0xbe5d9ab4	-0.21641046
119	0xbe1506c1	-0.14553358
120	0x3e4bcaa2	0.19901517
121	0x3e7dc3a1	0.24781658
122	0x3c694096	0.01423659
123	0x3da65bca	0.08122976
124	0x3e9dfd8e	0.3085751
125	0xbe0abbed	-0.1354825
126	0xbd7f63e3	-0.06235112
127	0xbebb750d	-0.3661274
128	0x3d3d0918	0.04615125
129	0x3d77b444	0.06047465
130	0xbe3fadc9	-0.18718638
131	0x3c837f76	0.016051989
132	0xbdf3e0cd	-0.11908112
133	0xbdf57bb2	-0.11986484
134	0x3ea1485b	0.31500515
135	0xbde79119	-0.11306972
136	0xbe93545f	-0.28775308
137	0xbe102146	-0.14075193
138	0xbdfe9a29	-0.124317475
139	0xbe987d7b	-0.29783234
140	0xbdf10f8d	-0.11770544
141	0xbe3858c4	-0.18002611
142	0x3e93d94e	0.28876728
143	0x3ddcb7a7	0.107772164
144	0x3e7651ff	0.24054717
145	0x3d040b31	0.032237235
146	0x3e2bddfb	0.16783898
147	0xbd1a94ab	-0.037739437
148	0x3e097da1	0.1342683
149	0x3d71a837	0.058998313
150	0xbe648b47	-0.22318755
151	0xbddc23a3	-0.10748985
152	0x3d078cbe	0.033093207
153	0x3dc4b583	0.09604933
154	0xbe2e914f	-0.17047618
155	0xbe9ae4cb	-0.3025268
156	0xbe094a80	-0.13407326
157	0xbbf80c00	-0.00756979
158	0xbdc62b00	-0.0967617
159	0xbd28fdf8	-0.04125783
160	0xbe248e87	-0.16069995
161	0xbd91ca40	-0.07118654
162	0x3bbca9be	0.0057575395
163	0xbdd762e8	-0.10516912
164	0xbd8fe6cd	-0.07026444
165	0x3ddce86e	0.1078652
166	0x3d30efc7	0.04319742
167	0x3d2b557d	0.041829575
168	0x3b839fd6	0.0040168567
169	0xbdcd6a14	-0.100299984
170	0xbe2390e1	-0.15973236
171	0xbd6d8c7c	-0.057995304
172	0x3d65168d	0.05592971
173	0xbd1f75f3	-0.038930845
174	0xbe16297b	-0.14664261
175	0xbdc89f52	-0.09796013
176	0xbde96420	-0.113960505
177	0x3e2524fd	0.16127391
178	0xbe63d2b6	-0.22248349
179	0x3d168db7	0.036756244
180	0xbe47ceb6	-0.19512448
181	0x3db62b79	0.088950105
182	0x3de53bf7	0.11193078
183	0x3ed58879	0.41705683
184	0x3e49a02c	0.19690007
185	0xbc79c5e7	-0.0152449375
186	0x3deb607b	0.114930116
187	0xbcdcc915	-0.026951352
188	0x3b3f859e	0.002922393
189	0xbe28f48f	-0.16499542
190	0x3e317d6e	0.17333004
191	0x3cab24fb	0.020891657
192	0x3e14f86b	0.14547889
193	0xbd00deeb	-0.03146259
194	0x3e80dbf7	0.2516782
195	0x3e0fb725	0.14034708
196	0x3e4eb1a8	0.20184958
197	0x3dd269a8	0.102740586
198	0x3d803b99	0.06261367
199	0x3df3815f	0.1188991
200	0xbd8f345d	-0.069924094
201	0x3d4197f8	0.04726407
202	0x3e33db09	0.17564024
203	0x3e87a15b	0.26490292
204	0xbcd52b68	-0.026021674
205	0xbc3ef59c	-0.0116552375
206	0x3e12407b	0.1428241
207	0x3e5cc38e	0.21558973
208	0x3dff7bd6	0.12474792
209	0xbe2fd22d	-0.1717002
210	0xbc83f234	-0.016106702
211	0x3edb1e42	0.42796522
212	0x3e2c13b5	0.16804393
213	0xbe536705	-0.20644768
214	0xbc9b0839	-0.01892482
215	0xbd3c77b8	-0.04601261
216	0xbe1c3927	-0.15256177
217	0x3e2d7444	0.16938883
218	0xbe5fbe89	-0.21850027
219	0xbde61db6	-0.11236136
220	0x3e1b2809	0.15151991
221	0x3e94db55	0.29073587
222	0x3daf79a7	0.08568125
223	0x3bbc6b54	0.005750099
224	0xbe7ac5d8	-0.24489534
225	0xbe5a507f	-0.2131977
226	0x3e922680	0.28544998
227	0xbe0b7199	-0.13617553
228	0xbb64e9cb	-0.003492939
229	0xbe1eb66d	-0.15499277
230	0x3e3db90e	0.18527624
231	0x3e44bb94	0.1921218
232	0x3d8c3794	0.06846538
233	0xbe008856	-0.12552008
234	0xbd67e613	-0.0566159
235	0x3d073e39	0.033018325
236	0xbe16e024	-0.1473394
237	0x3e5f9438	0.21833885
238	0x3e82b452	0.25528198
239	0x3de2387f	0.11045932
240	0x3e2fb318	0.17158163
241	0x3deda3de	0.11603521
242	0xbe41673d	-0.18887039
243	0x3d799e52	0.060942
244	0x3e9b45ab	0.3032659
245	0xbd1a9e34	-0.03774853
246	0x3d8bf055	0.06832949
247	0xbcadeb83	-0.021230465
248	0x3e35e26f	0.17762159
249	0x3dca0e67	0.09866028
250	0x3e805d32	0.25071102
251	0xbe16cb7b	-0.14726059
252	0xbe2d1af3	-0.16904812
253	0xbe363821	-0.17794849
254	0xbe05ef41	-0.1307955
255	0xbc061531	-0.008183763
