HardcoreVersion/critic/ppo_q_critic1400.pth (torch, 592130 bytes, 10 tensors)

l1.weight f4 [256, 28]
-0.022731613 -0.45411095 -0.32728106 -0.38175333 -0.11298841 0.16464438 -0.006240282 0.14264877
-0.117012404 0.23700453 0.06804645 -0.024842931 -0.064674646 0.15834154 0.029506199 0.18841867
0.061691754 0.2976575 0.23593017 -0.300446 -0.53132737 0.3358705 0.09773488 -0.14671558
0.013098032 0.069132544 0.018332854 0.056974486 -0.17664193 0.14914626 0.16665936 0.31633067
-0.30025646 0.0870197 -0.25578302 0.105200596 -0.06737856 0.21417178 0.040031552 -0.041184817
-0.0342134 -0.022822773 -0.22909243 -0.22777416 0.02242204 -0.038534682 -0.032327678 -0.13274588
0.17315793 0.21917313 0.16257161 -0.17282939 -0.05790549 0.18082465 0.009288887 -0.11597583
0.5254877 0.8278923 -0.21906608 -1.2726398 0.6374873 0.17943628 -0.058002997 0.09806683
0.035561174 -0.09774881 0.009152719 0.04484496 0.004465897 -0.03843678 -0.18803814 0.07777973
0.02478933 0.012481623 -0.002994846 -0.102861114 -0.15371095 -0.23676424 -0.13318013 0.10787562
0.09129428 -0.028182963 -0.007490619 -0.013523053 0.13428666 -0.264959 0.2789851 0.19448192
-0.13285373 -0.19802947 0.17983258 0.06690488 0.08373541 -0.17002955 -0.077361174 0.086320594
0.065928355 0.031720854 -0.19547157 0.029282827 0.15315193 0.19230588 -0.019176418 0.08667669
0.39175016 0.11208884 0.12548883 -0.21961856 -0.03265573 0.13738059 0.00030050386 0.027160047
0.16542347 0.6555161 -0.3477329 0.43304363 -0.07144609 0.08763192 0.022967419 0.039347224
0.05212046 0.19532606 0.028920671 -0.19741495 -0.050539903 0.093008906 -0.19888866 0.07657294
-0.068829425 -0.3315862 0.2722871 0.411779 0.08006969 -0.18355198 0.06671988 0.06725481
-0.07203848 -0.03604789 0.045483768 -0.0074834595 0.00753353 0.35253945 -0.10998719 -0.6153629
0.13931826 0.08873493 -0.119918466 0.07855679 -0.05728602 0.12795348 -0.02051488 -0.076579034
0.0026338012 0.13944818 0.22214428 0.04577428 0.11807901 0.08009778 -0.1550503 -0.09674221
0.18613149 0.38734266 0.05849514 0.06637012 0.054554347 -0.11162053 0.14343588 -0.05097866
-0.01939301 0.24461158 -0.21092375 0.031565316 0.23128767 0.100947976 -0.24706826 -0.016958319
0.0068442067 0.08926451 0.10018732 0.07711521 0.09515508 0.06897135 -0.2848294 -0.2569992
-0.2628896 -0.17484695 -0.07736265 0.059005205 -0.071462035 -0.012150255 -0.22097532 0.03360965
0.0701116 -0.056980435 -0.030020228 0.020692656 -0.12330618 -2.1409602 0.23276046 1.3455818
0.3223564 -0.10738013 -0.12562583 0.0020517546 -0.0027660213 0.023648554 -0.11667408 0.26828098
0.01437854 -0.04177491 0.122312754 -0.0036981998 -0.08938159 -0.32005888 0.12205379 0.11078414
-0.138287 -0.01498929 0.12313799 0.0956827 0.07249045 0.019302422 0.014636316 0.021227432
-0.09069258 0.667367 0.52113914 -0.5727272 -0.22803377 -0.07901851 -0.4207952 -0.012195927
-0.01225142 -0.08870528 0.036467187 -0.25276643 -0.004823219 -0.021618625 0.034625977 0.09614293
-0.3295936 0.040590644 0.25020897 -0.06455578 -0.36294687 -0.32283762 0.07206037 0.082505465
-0.037726965 0.0128568 0.0085557625 0.004931919 0.2167629 -0.81351507 -0.2578366 0.0417396
00000000: a637 babc 3b81 e8be 6291 a7be 2c75 c3be
00000010: 7866 e7bd 8998 283e 487b ccbb 8512 123e
00000020: 33a4 efbd 51b1 723e f05b 8b3d 6783 cbbc
00000030: 2474 84bd 4924 223e fcb6 f13c d3f0 403e
00000040: 7eb0 7c3d 9066 983e ae97 713e 0fd4 99be
00000050: 1205 08bf 38f7 ab3e 3a29 c83d 9c3c 16be
00000060: 2199 563c 5d95 8d3d c82e 963c 145e 693d
00000070: 9fe1 34be ccb9 183e c0a8 2a3e 18f6 a13e
00000080: 37bb 99be 6237 b23d fef5 82be 6973 d73d
00000090: c5fd 89bd d94f 5b3e 20f8 233d 69b1 28bd
000000a0: 5a23 0cbd d3f6 babc 3597 6abe a13d 69be
000000b0: 6dae b73c 8bd6 1dbd 076a 04bd 89ee 07be
000000c0: 5050 313e ec6e 603e 2c79 263e 30fa 30be
000000d0: 4f2e 6dbd 192a 393e 6a30 183c bc84 edbd
000000e0: 5d86 063f c0f0 533f dc52 60be dce5 a2bf
000000f0: 5e32 233f 25be 373e 8d94 6dbd 43d7 c83d
00000100: 98a8 113d 8730 c8bd 49f5 153c 59af 373d
00000110: a956 923b e36f 1dbd 128d 40be fb4a 9f3d
00000120: fe12 cb3c b97f 4c3c 2e45 44bb d9a8 d2bd
00000130: 6766 1dbe 5372 72be 5f60 08be e5ed dc3d
00000140: 7ff8 ba3d f5df e6bc de73 f5bb cc8f 5dbc
00000150: 7182 093e b5a8 87be 23d7 8e3e 4526 473e
00000160: cf0a 08be 3dc8 4abe 0826 383e 6d05 893d
00000170: 787d ab3d 3a1c 2ebe 896f 9ebd dac8 b03d
00000180: 7205 873d baed 013d b329 48be 8ae2 ef3c
00000190: dcd3 1c3e d5eb 443e dd17 9dbc 8c83 b13d
000001a0: 7a93 c83e d58e e53d 2580 003e b0e3 60be
000001b0: 04c2 05bd 7fad 0c3e f28c 9d39 bf7e de3c
000001c0: c564 293e e7cf 273f 0c0a b2be e5b7 dd3e
000001d0: 5452 92bd 5d78 b33d 2b26 bc3c 8e2a 213d
000001e0: 437c 553d 8e03 483e 0beb ec3c 2527 4abe
000001f0: ee02 4fbd 747b be3d 78a9 4bbe 46d2 9c3d
00000200: 71f6 8cbd abc5 a9be 3769 8b3e b2d4 d23e
00000210: 94fb a33d 0df5 3bbe 6fa4 883d e4bc 893d
00000220: e988 93bd f4a6 13bd 304d 3a3d cf37 f5bb
00000230: d4db f63b 0d80 b43e f740 e1bd 6c88 1dbf
00000240: 72a9 0e3e a9ba b53d d097 f5bd 62e2 a03d
00000250: bfa4 6abd 3d06 033e d20e a8bc 78d5 9cbd
00000260: da9b 2c3b 81cb 0e3e ca79 633e d07d 3b3d
00000270: 68d3 f13d 4e0a a43d 81c5 1ebe c820 c6bd
00000280: 4199 3e3e c751 c63e 9a98 6f3d 0fed 873d
00000290: 6174 5f3d 4e99 e4bd dbe0 123e 00cf 50bd
000002a0: 17de 9ebc 757b 7a3e 65fc 57be a24a 013d
000002b0: add6 6c3e d0bd ce3d 76ff 7cbe 2cec 8abc
000002c0: 5e45 e03b 50d0 b63d 022f cd3d 94ee 9d3d
000002d0: abe0 c23d da40 8d3d 29d5 91be 6695 83be
000002e0: 7799 86be 140b 33be 4f70 9ebd 71af 713d
000002f0: b05a 92bd dd11 47bc 5b47 62be 46aa 093d
00000300: ac96 8f3d 5164 69bd fbec f5bc a583 a93c
00000310: f387 fcbd 7e05 09c0 c258 6e3e 063c ac3f
00000320: e60b a53e 1dea dbbd 0fa4 00be bb76 063b
00000330: 2346 35bb 9dba c13c d2f2 eebd 205c 893e
00000340: f893 6b3c 2b1c 2bbd 1c7f fa3d 7f5d 72bb
00000350: b20d b7bd c2de a3be 56f7 f93d cce2 e23d
00000360: 1b9b 0dbe a495 75bc c52f fc3d 4bf5 c33d
00000370: e075 943d 1d20 9e3c 29cd 6f3c 27e5 ad3c
00000380: 08bd b9bd 90d8 2a3f 6069 053f 409e 12bf
00000390: af81 69be 75d4 a1bd 7872 d7be 6dd1 47bc
000003a0: 2eba 48bc 1dab b5bd 9e5e 153d 9a6a 81be
000003b0: 180c 9ebb 8b19 b1bc f8d3 0d3d 96e6 c43d
000003c0: 7ec0 a8be 6042 263d 641b 803e d235 84bd
000003d0: 2cd4 b9be f94a a5be 6394 933d a0f8 a83d
000003e0: 9787 1abd 54a5 523c 782d 0c3c ef9b a13b
000003f0: 18f7 5d3e 8642 50bf 2903 84be 25f7 2a3d

l1.bias f4 [256]
0.09054892 0.0782667 0.25104502 -0.2786561 -0.15558118 -0.21700664 0.08215925 0.16200593
0.06432873 0.033058286 0.06658031 0.058597203 0.26991135 0.05924814 0.101674065 -0.013452179
0.16751918 0.20478801 0.3183041 -0.2241413 0.3134396 -0.22001077 -0.12266437 0.14651942
-0.11954397 -0.09443186 -0.013324745 -0.019350316 0.114552274 0.01678079 -0.15050879 0.10004701
-0.012642395 0.038734943 0.025501803 -0.023269001 0.052930314 0.39366612 0.338815 0.03766411
0.0171988 -0.08525123 0.08853229 -0.0045982064 -0.086681545 -0.06470586 0.40464142 0.009427566
0.11450193 0.16514145 0.26344985 0.26306593 -0.043275215 0.09750436 -0.28788644 0.081747174
0.24017033 -0.124543585 -0.09941165 0.05248085 -0.1959677 -0.1826497 0.19024418 -0.13818766
-0.16515996 -0.15695077 -0.04864188 -0.12397679 0.14498675 0.1489001 -0.26268914 -0.23524247
0.2245915 -0.05029521 -0.23543973 0.0656279 0.20997225 0.2925215 0.27138838 0.20943518
-0.2808984 -0.074750856 -0.19838394 0.20676474 -0.22932318 0.031560652 -0.06978232 -0.15394594
-0.009061256 0.29984272 0.22761929 0.056272283 0.2317344 -0.16647895 -0.17479171 0.08951852
-0.038331673 0.06253329 0.034548722 -0.10376492 -0.12530522 -0.057849973 -0.07907803 0.09445411
-0.06483254 0.038005788 0.002408496 0.0071766647 0.38948548 -0.1071231 -0.10941569 0.07476177
0.02981703 0.067784965 -0.12350201 0.22951728 -0.11335765 0.21856524 -0.07736463 -0.10064149
-0.04549162 0.29228452 0.19054645 -0.036246143 0.26727697 -0.13400804 -0.29622203 0.080849186
0.25110358 0.22064143 -0.16711462 0.15493256 0.06759192 0.12935212 0.111913055 -0.026547743
-0.05353959 -0.23290028 0.12253098 0.11623358 -0.021904655 -0.190697 0.14795537 -0.1532206
0.13463666 -0.11323444 -0.34520134 0.12753002 0.3105216 -0.10774067 0.027613744 0.013048955
0.10749465 0.15473899 -0.10920959 0.14651783 -0.0075029796 -0.2514586 -0.33203986 0.062345836
-0.016505834 0.22407083 -0.08989461 0.044502445 0.007904611 0.1839172 0.18462141 0.22932336
0.18512513 -0.009425888 0.016221208 0.019672927 -0.003972622 -0.30134064 -0.09712586 0.12713857
-0.07784961 0.14789997 -0.13855426 0.13658868 -0.2879928 -0.28575492 0.20700628 -0.17086917
0.03837358 0.036337838 -0.00862066 -0.14539824 -0.09340547 0.067804314 -0.265623 0.223712
0.09044817 -0.09855633 -0.10969252 0.13581534 -0.09957269 -0.063623354 0.06850082 0.00536434
-0.12830849 -0.03412331 0.10245367 -0.02379989 -0.03687027 0.07454978 -0.19859652 -0.14927441
0.2826904 0.05363122 -0.008677992 0.23792143 -0.28014264 0.16890015 -0.028281424 -0.03317418
-0.1507736 0.2266747 -0.14888941 0.33381283 0.059532158 0.013469646 -0.16500469 0.13014148
-0.020879116 -0.20000914 0.032754645 -0.07220187 0.13542399 0.22310117 0.15276125 -0.0737151
0.045981303 0.017289538 0.25137457 0.14402886 0.1965728 0.3882633 -0.051609736 -0.075598896
0.08325441 -0.036254797 -0.025810802 0.08692766 0.17980924 0.046391394 0.3782545 0.0382651
-0.10465521 0.041600294 -0.089232676 -0.09190529 0.16855635 -0.015575554 -0.136372 0.04558739
00000000: b671 b93d 4b4a a03d f988 803e 03ac 8ebe
00000010: ac50 1fbe fd36 5ebe 1c43 a83d e2e4 253e
00000020: c8be 833d 2068 073d 425b 883d 9f03 703d
00000030: d231 8a3e 2dae 723d 7e3a d03d 8766 5cbc
00000040: 268a 2b3e f3b3 513e c1f8 a23e 4c85 65be
00000050: 287b a03e 814a 61be 7537 fbbd 3009 163e
00000060: 78d3 f4bd 7e65 c1bd 0850 5abc 8e84 9ebc
00000070: 629a ea3d de77 893c fa1e 1abe 72e5 cc3d
00000080: 0c22 4fbc 88a8 1e3d 28e9 d03c a29e bebc
00000090: 75cd 583d 9b8e c93e 2979 ad3e af45 1a3d
000000a0: 7fe4 8c3c 3298 aebd 6b50 b53d 8dac 96bb
000000b0: 1886 b1bd 8284 84bd 292d cf3e 1476 1a3c
000000c0: fd7f ea3d d71a 293e e6e2 863e 94b0 863e
000000d0: 5a41 31bd 5eb0 c73d da65 93be 106b a73d
000000e0: 36ef 753e b510 ffbd 5698 cbbd 29f6 563d
000000f0: c2ab 48be 8608 3bbe 5fcf 423e 1181 0dbe
00000100: b11f 29be b4b7 20be b53c 47bd 8be7 fdbd
00000110: 6877 143e 4579 183e 317f 86be 67e3 70be
00000120: 50fb 653e 5a02 4ebd 1d17 71be ec67 863d
00000130: f702 573e 61c5 953e 6bf3 8a3e 2d76 563e
00000140: ead1 8fbe fa16 99bd 2925 4bbe 23ba 533e
00000150: b2d3 6abe be45 013d 08ea 8ebd 01a4 1dbe
00000160: aa75 14bc fc84 993e 0815 693e c47d 663d
00000170: c84b 6d3e 7579 2abe 99fc 32be 7c55 b73d
00000180: ac01 1dbd 7411 803d f682 0d3d b482 d4bd
00000190: 0350 00be 18f4 6cbd aaf3 a1bd 2871 c13d
000001a0: ecc6 84bd f5ab 1b3d dcd7 1d3b 3a2a eb3b
000001b0: a46a c73e 5b63 dbbd 5515 e0bd b31c 993d
000001c0: d842 f43c d8d2 8a3d 9fee fcbd 9406 6b3e
000001d0: 0e28 e8bd 91cf 5f3e 5971 9ebd 201d cebd
000001e0: 6c55 3abd 51a6 953e 9c1e 433e d676 14bd
000001f0: 87d8 883e 6739 09be 6aaa 97be 4294 a53d
00000200: a690 803e d4ef 613e 1820 2bbe a4a6 1e3e
00000210: a26d 8a3d e274 043e ac32 e53d a77a d9bc
00000220: 544c 5bbd 697d 6ebe 86f1 fa3d df0b ee3d
00000230: 6471 b3bc 1346 43be 9d81 173e dce5 1cbe
00000240: 31de 093e 75e7 e7bd 3bbe b0be 3b97 023e
00000250: b0fc 9e3e 24a7 dcbd 3836 e23c 49cb 553c
00000260: 2826 dc3d e673 1e3e 47a9 dfbd c508 163e
00000270: 8edb f5bb 2ebf 80be 2101 aabe 595e 7f3d
00000280: 3e37 87bc d372 653e aa1a b8bd 3248 363d
00000290: 5782 013c ca54 3c3e 650d 3d3e bed3 6a3e
000002a0: 7191 3d3e 0a6f 1abc 57e2 843c 1e29 a13c
000002b0: c52c 82bb 5249 9abe ece9 c6bd 9d30 023e
000002c0: 9e6f 9fbd 1773 173e 2be1 0dbe e7dd 0b3e
000002d0: cb73 93be 784e 92be 74f9 533e 54f8 2ebe
000002e0: 9d2d 1d3d fcd6 143d ab3d 0dbc 47e3 14be
000002f0: 5e4b bfbd fddc 8a3d bdff 87be c214 653e
00000300: e43c b93d e7d7 c9bd 79a6 e0bd 2d13 0b3e
00000310: c4ec cbbd f64c 82bd 284a 8c3d 58c7 af3b
00000320: 4d63 03be e2c4 0bbd 3bd3 d13d fdf7 c2bc
00000330: 4805 17bd 8ead 983d e35c 4bbe 64db 18be
00000340: ccbc 903e 69ac 5b3d 232e 0ebc ada1 733e
00000350: db6e 8fbe 29f4 2c3e 72ae e7bc a6e1 07bd
00000360: 6564 1abe 6a1d 683e 7776 18be 84e9 aa3e
00000370: fed7 733d caaf 5c3c fdf6 28be cf43 053e
00000380: ae0a abbc 32cf 4cbe bc29 063d 93de 93bd
00000390: 96ac 0a3e a274 643e 726d 1c3e f1f7 96bd
000003a0: e456 3c3d caa2 8d3c 2bb4 803e 4d7c 133e
000003b0: 614a 493e 72ca c63e bb64 53bd 98d3 9abd
000003c0: 4a81 aa3d e97f 14bd 2d71 d3bc 2107 b23d
000003d0: ea1f 383e e704 3e3d 93aa c13e debb 1c3d
000003e0: 7955 d6bd 1265 2a3d 9fbf b6bd d738 bcbd
000003f0: 099a 2c3e 9c30 7fbc 1aa5 0bbe d8b9 3a3d

l2.weight f4 [256, 256]
0.06494993 0.12215172 -0.09704463 -0.15695319 0.07401705 -0.05903641 0.25016335 0.30577776
-0.06191525 0.21214966 0.030689081 0.056608573 0.07016228 0.24460933 -0.018558992 0.27486548
-0.020030217 0.29136142 0.056641843 -0.05992021 0.039631367 -0.04302486 -0.02844132 -0.040900543
-0.47942638 0.029072264 -0.061474346 0.03414377 -0.14210635 0.09253155 -0.28923875 0.19043238
-0.29760814 0.22560681 0.13460755 -0.33808687 -0.15421546 -0.2600136 -0.04716591 0.038033295
-0.78309727 0.19075689 -0.07589466 0.27297652 0.047955982 -0.1775466 -0.21694161 0.1821981
0.1471901 0.1729022 0.20024906 0.18416168 -0.16245592 -0.04581693 -0.1785425 0.18093467
0.021547887 0.030714585 -0.1122617 -0.32287064 -0.16258296 0.025922209 0.08055801 -0.64153165
-0.18326457 -0.121674575 -0.07901009 0.1408549 0.27653414 0.1765902 0.033171467 0.2327915
0.08988311 0.21400997 -0.37347034 -0.123995624 0.12209701 0.018090298 0.10651907 0.035645578
0.11957793 -0.14495009 -0.15659109 -0.171542 -0.07923908 0.1559414 0.05038272 0.024635749
-0.14321981 0.21923892 -0.2691455 0.07086403 0.27730078 0.109670326 0.12369177 0.11974175
0.055368017 0.11473701 0.045014836 -0.20574042 0.17848901 -0.15235336 -0.11272005 -0.057282563
-0.109006375 0.07441887 0.0093206065 -0.47493848 0.05242678 0.0066367746 -0.5570244 0.10356361
-0.16981567 0.15456995 -0.24160865 -0.3210079 0.042942386 0.05050378 0.24697262 -0.73586684
0.038697746 0.21196246 -0.04419569 -0.050499424 -0.12761445 0.12656997 -0.4348406 -0.27975067
0.16988248 0.00358675 -0.40205047 -0.05193232 0.6475637 0.17220008 -0.013320929 0.28716514
0.07842598 -0.115840815 0.0759657 -0.31449044 0.16306275 0.12394407 0.3206994 -0.036102764
-0.2817146 -0.14737965 0.05053324 -0.46284756 0.053841043 -0.031029431 -0.15874703 -0.18815967
0.21470174 -0.1279294 -0.061204247 0.120308 0.05756427 0.14040807 -0.16378534 -0.09954765
-0.19060038 -0.12919174 0.17616066 -0.03059541 0.03245827 0.0009296654 0.084395826 -0.05320589
0.25663236 0.17619516 0.15292399 0.022108963 -0.17131792 -0.042663906 -0.09382591 -0.0903425
-0.035172436 0.1503833 0.00017806244 0.075285904 -0.1543788 -0.23533751 0.020098122 0.020094465
-0.044378646 -0.12029842 0.15738814 -0.06991408 0.15275136 -0.020674387 -0.16112714 0.09120676
-0.10889448 -0.0009527265 -0.50326574 -0.06811719 -0.0068096705 0.052419133 -0.096944116 0.20342195
-0.08175582 -0.036858648 -0.050236363 0.28749967 -0.17473982 0.19935988 0.2775441 -0.022313237
0.14836389 -0.0066628256 -0.20991589 -0.11090179 -0.040903408 -0.058660414 0.025531223 0.12157612
-0.15013483 0.036047038 -0.05903062 0.16478534 0.07624048 -0.14713672 -0.18703172 -0.58240503
-0.20507334 -0.11184209 -0.039176922 0.23108688 -0.04009357 0.18059155 0.19759524 -0.42271098
0.21009469 -0.5515205 -0.0069772 0.47445735 -0.37965375 0.23286767 -0.8793954 -0.011000385
-0.10619304 0.037007157 0.1952519 0.17649804 0.16721317 -0.1315637 0.18656091 -0.0069786813
-0.023924725 -0.06695342 -0.16504735 -0.041966148 -0.108486 0.06898885 0.0024256117 -0.72583205
00000000: 7804 853d ae2a fa3d 56bf c6bd 56b8 20be
00000010: 4096 973d 2ad0 71bd 6915 803e e78e 9c3e
00000020: d89a 7dbd c33d 593e ab67 fb3c 64de 673d
00000030: 3eb1 8f3d de7a 7a3e 0709 98bc 2bbb 8c3e
00000040: 6916 a4bc 532d 953e 4701 683d e56e 75bd
00000050: 8054 223d d63a 30bd c5fd e8bc 5487 27bd
00000060: 6077 f5be f528 ee3c 86cc 7bbd 56da 0b3d
00000070: 5484 11be 2e81 bd3d 1a17 94be b500 433e
00000080: 1860 98be 7905 673e 90d6 093e b919 adbe
00000090: a8ea 1dbe 8120 85be 0b31 41bd cdc8 1b3d
000000a0: 1079 48bf c655 433e a96e 9bbd 94c3 8b3e
000000b0: 7e6d 443d c7ce 35be f125 5ebe 2492 3a3e
000000c0: 00b9 163e 460d 313e 170e 4d3e e194 3c3e
000000d0: d85a 26be 88aa 3bbd d8d3 36be f046 393e
000000e0: 3285 b03c 279d fb3c 76e9 e5bd 4d4f a5be
000000f0: 267c 26be d05a d43c 99fb a43d 6b3b 24bf
00000100: b5a9 3bbe 8530 f9bd 0bd0 a1bd 443c 103e
00000110: e295 8d3e 10d4 343e cede 073d e560 6e3e
00000120: a314 b83d 6e25 5b3e 8137 bfbe 6bf1 fdbd
00000130: ff0d fa3d 1b32 943c ac26 da3d 1901 123d
00000140: 46e5 f43d cc6d 14be 6a59 20be b5a8 2fbe
00000150: 1948 a2bd 1aaf 1f3e 1c5e 4e3d e9d0 c93c
00000160: 37a8 12be 2b80 603e 70cd 89be 2921 913d
00000170: 5efa 8d3e d69a e03d 1c52 fd3d 2a3b f53d
00000180: 93c9 623d 3dfb ea3d 7a61 383d 9ead 52be
00000190: d3c5 363e 8502 1cbe c5d9 e6bd 1fa1 6abd
000001a0: bc3e dfbd ec68 983d 75b5 183c 232b f3be
000001b0: 77bd 563d 4d79 d93b 2799 0ebf 2819 d43d
000001c0: 29e4 2dbe 9647 1e3e 4268 77be 265b a4be
000001d0: 5be4 2f3d 0ddd 4e3d 64e6 7c3e c561 3cbf
000001e0: 8781 1e3d b00c 593e 8a06 35bd 7cd8 4ebd
000001f0: 5dad 02be 8f9b 013e 6da3 debe 7b3b 8fbe
00000200: acf5 2d3e ae0f 6b3b 8fd9 cdbe fcb6 54bd
00000210: bcc6 253f 3855 303e 0740 5abc 4f07 933e
00000220: cd9d a03d f33d edbd e893 9b3d e404 a1be
00000230: ecf9 263e 63d6 fd3d b632 a43e 7ee0 13bd
00000240: e53c 90be b1ea 16be f1fb 4e3d 5bfa ecbe
00000250: 6d88 5c3d 6f31 febc 958e 22be eeac 40be
00000260: c6da 5b3e edff 02be 4eb1 7abd 0a64 f63d
00000270: 83c8 6b3d 22c7 0f3e 58b7 27be a3df cbbd
00000280: bf2c 43be d74a 04be 7663 343e 3aa3 fabc
00000290: f7f2 043d cab4 733a b8d7 ac3d 6bee 59bd
000002a0: 5165 833e 816c 343e 1b98 1c3e db1d b53c
000002b0: f76d 2fbe 59c0 2ebd cc27 c0bd 7d05 b9bd
000002c0: f910 10bd 14fe 193e 46b6 3a39 7f2f 9a3d
000002d0: 7a15 1ebe 51fc 70be d1a4 a43c 269d a43c
000002e0: 62c6 35bd 055f f6bd 5b2a 213e 1d2f 8fbd
000002f0: da6a 1c3e 555d a9bc 83fe 24be 9cca ba3d
00000300: 1204 dfbd 65c0 79ba 06d6 00bf 0681 8bbd
00000310: a823 dfbb 72b5 563d a38a c6bd d84d 503e
00000320: 986f a7bd 18f9 16bd a5c4 4dbd 2833 933e
00000330: ffee 32be ff24 4c3e 431a 8e3e 40ca b6bc
00000340: b4ec 173e d553 dabb 31f4 56be 7a20 e3bd
00000350: 558a 27bd e745 70bd db26 d13c e7fc f83d
00000360: f2bc 19be 0fa6 133d 17ca 71bd 7dbd 283e
00000370: f823 9c3d 02ab 16be 3e85 3fbe 7f18 15bf
00000380: bffe 51be 770d e5bd fb77 20bd 0aa2 6c3e
00000390: 2839 24bd feec 383e 6856 4a3e 936d d8be
000003a0: 1023 573e 7330 0dbf ffa0 e4bb 13ec f23e
000003b0: fa61 c2be dd74 6e3e 0f20 61bf f53a 34bc
000003c0: bd7b d9bd d194 173d 1df0 473e e7bb 343e
000003d0: ee39 2b3e a2b8 06be d309 3f3e 6cad e4bb
000003e0: c9fd c3bc e01e 89bd 2c02 29be b2e4 2bbd
000003f0: e82d debd 074a 8d3d 03f7 1e3b 21d0 39bf

l2.bias f4 [256]
0.07130999 -0.020002043 0.016044838 -0.0054153805 -0.022463253 -0.042061526 0.08799733 0.012658692
0.09386908 0.024839103 0.08812324 0.026745157 0.07611403 0.05011806 0.0653008 -0.1724782
-0.07451126 -0.06528664 0.046762235 -0.02160268 0.0032132743 0.021166353 0.061338995 -0.025302473
-0.028205313 0.068117134 -0.01419259 0.029632203 -0.017385563 -0.07858329 -0.02303665 -0.08977124
0.055637702 0.016699312 -0.0135903 -0.023098493 -0.01427721 0.05601095 0.061037984 -0.041826036
0.031553816 -0.009318656 0.047291227 -0.038060304 -0.014917058 -0.02047055 0.088363625 0.09608106
-0.18457039 -0.00055399194 0.007002467 0.012575299 0.0011969117 0.052146893 0.008707335 -0.012602942
-0.019758694 0.08146556 -0.057988465 0.022384679 0.035887614 0.030902855 0.0037799077 0.0028903412
0.030968437 0.016383309 -0.051972974 0.028963104 0.006851703 0.028970301 0.058841594 0.08037339
-0.076080665 -3.4095145e-05 0.12463085 -0.02256522 0.053666063 0.12502967 0.085493684 0.062928125
0.010676015 0.052410513 0.029050892 -0.0047714827 0.034780554 -0.011323763 0.04851489 -0.009325565
-0.06279872 0.02861625 -0.0057083997 -0.10584105 0.00040826318 0.022169746 0.035425585 0.010578118
-0.035564426 0.006820244 0.014601782 0.020954302 -0.046917744 -0.022613803 0.106221944 -0.18755934
-0.0923137 -0.061378174 0.0749674 0.011462376 0.07903418 -0.09380757 -0.031588 0.0112181725
-0.044794776 0.028238267 0.024152584 0.06306031 0.04768807 -0.028103102 -0.13882431 0.0025151344
0.073868476 -0.0022857713 0.04999169 -0.05790592 0.036166772 0.052152485 0.043329664 -0.0371239
0.048788596 0.048520043 0.0047739935 0.009841794 0.02161346 0.04444473 -0.059226673 -0.027496552
-0.090708144 0.03300578 0.11225918 0.05978492 0.061344896 -0.020386416 0.024464471 0.049497057
0.028370718 -0.062659554 -0.085518375 0.0069384635 -0.0014698656 0.09604824 0.10120139 0.07065109
-0.05250904 -0.044949055 0.078181125 0.016896866 -0.020180827 -0.006796282 0.05533934 -0.012658269
-0.10218459 -0.1416491 -0.030011972 0.021454133 0.041722458 -0.04234476 0.025321836 0.035964407
-0.01182193 -0.060680777 0.097350985 0.060551815 0.018024141 0.06762189 0.123947605 -0.13422418
-0.07157733 -0.079032615 -0.07793467 0.06808079 -0.058238707 -0.030902898 -0.052195027 0.049792107
0.06316202 0.059460577 -0.12972307 0.0059828996 -0.1108774 0.01493234 0.04683181 -0.006810459
-0.06559939 0.024342401 0.013501553 -0.050640613 -0.08688651 0.10260033 0.057146605 -0.034161128
-0.116401345 -0.04683674 0.05499149 0.032973576 0.109272756 0.019799829 0.031297788 -0.0870246
-0.013696693 0.1165234 -0.08638743 0.030868068 -0.017391905 0.05838189 -0.012598478 -0.041383564
-0.022268787 0.12336373 0.04459548 -0.039544776 -0.025014192 -0.02471727 -0.030158447 -0.03377189
0.05400691 -0.017314125 -0.029522771 -0.07063943 0.071887486 0.026341392 -0.0359379 -0.062765315
-0.06784604 -0.07865488 -0.100505024 0.008276625 0.032040704 -0.011809743 0.027937494 -0.037012152
-0.13370366 -0.032452423 0.01649565 0.081743196 0.058714446 0.05468847 0.07370408 -0.10372366
0.012383918 0.15131451 0.058752727 -0.043363124 -0.16692345 -0.013029498 0.006407223 -0.058250505
00000000: f90a 923d 53db a3bc 7770 833c 8173 b1bb
00000010: db04 b8bc b548 2cbd f237 b43d 6766 4f3c
00000020: 6f3e c03d 607b cb3c f579 b43d a918 db3c
00000030: ace1 9b3d 9848 4d3d 6dbc 853d 209e 30be
00000040: 5c99 98bd 00b5 85bd c289 3f3d 1bf8 b0bc
00000050: cc95 523b 0f65 ad3c 993e 7b3d 2247 cfbc
00000060: d40e e7bc ff80 8b3d 0988 68bc 3cbf f23c
00000070: 2b6c 8ebc 47f0 a0bd 5bb7 bcbc fcd9 b7bd
00000080: 5ce4 633d ffcc 883c daa9 5ebc 0d39 bdbc
00000090: f6ea 69bc bd6b 653d f702 7a3d c751 2bbd
000000a0: 933e 013d 47ad 18bc 72b4 413d 1fe5 1bbd
000000b0: ad66 74bc dbb1 a7bc fdf7 b43d 26c6 c43d
000000c0: 0500 3dbe c539 11ba f374 e53b a008 4e3c
000000d0: b1e1 9c3a fb97 553d 36a9 0e3c 927c 4ebc
000000e0: fcdc a1bc 6ad7 a63d 5085 6dbd 1360 b73c
000000f0: e4fe 123d fc27 fd3c 54b8 773b e16b 3d3b
00000100: 85b1 fd3c 4a36 863c 9de1 54bd 0844 ed3c
00000110: 4084 e03b 2053 ed3c e203 713d ce9a a43d
00000120: 2ed0 9bbd 6201 0fb8 763e ff3d b2da b8bc
00000130: f2d0 5b3d c707 003e 5017 af3d 76e0 803d
00000140: 74ea 2e3c 68ac 563d 23fc ed3c 195a 9cbb
00000150: 0e76 0e3d 4e87 39bc 8db7 463d 41ca 18bc
00000160: 9e9c 80bd a06c ea3c 870d bbbb 31c3 d8bd
00000170: 280c d639 549d b53c 6b1a 113d d84f 2d3c
00000180: 01ac 11bd 5a7c df3b 503c 6f3c 5ba8 ab3c
00000190: d22c 40bd 9540 b9bc e48a d93d 8e0f 40be
000001a0: f70e bdbd ae67 7bbd 8288 993d b1cc 3b3c
000001b0: acdc a13d 2f1e c0bd 6b62 01bd 6dcc 373c
000001c0: ba7a 37bd f053 e73c a4db c53c c425 813d
000001d0: 9154 433d 7a38 e6bc f627 0ebe f4d4 243b
000001e0: 5b48 973d e1cc 15bb 16c4 4c3d c22e 6dbd
000001f0: 9c23 143d d89d 553d 727a 313d 3b0f 18bd
00000200: 8dd6 473d f4bc 463d 296f 9c3b 7a3f 213c
00000210: b60e b13c ad0b 363d ab97 72bd 7340 e1bc
00000220: 31c5 b9bd 1231 073d 24e8 e53d 08e1 743d
00000230: c944 7b3d 6a01 a7bc b769 c83c 6dbd 4a3d
00000240: b569 e83c a753 80bd 4224 afbd 0d5c e33b
00000250: 81a8 c0ba f1b4 c43d ad42 cf3d 85b1 903d
00000260: b813 57bd 801c 38bd 6d1d a03d 4c6b 8a3c
00000270: 4352 a5bc 58b3 debb 81ab 623d a164 4fbc
00000280: 2846 d1bd 760c 11be abdb f5bc 94c0 af3c
00000290: 2be5 2a3d b371 2dbd bd6f cf3c 6a4f 133d
000002a0: c5b0 41bc 688c 78bd f45f c73d 2e05 783d
000002b0: 5da7 933c 587d 8a3d 3ed8 fd3d 1072 09be
000002c0: 2397 92bd dadb a1bd 369c 9fbd f16d 8b3d
000002d0: b68b 6ebd 1328 fdbc 74ca 55bd cff2 4b3d
000002e0: 175b 813d ef8c 733d 20d6 04be 330c c43b
000002f0: b113 e3bd c6a6 743c b6d2 3f3d 452a dfbb
00000300: f958 86bd b769 c73c 9e35 5d3c 886c 4fbd
00000310: 8ef1 b1bd 1f20 d23d 8f12 6a3d 8aec 0bbd
00000320: d463 eebd e2d7 3fbd c23e 613d 4d0f 073d
00000330: 65ca df3d 4033 a23c 1c32 003d f439 b2bd
00000340: 1868 60bc d2a3 ee3d e5eb b0bd 08df fc3c
00000350: 7879 8ebc d921 6f3d d969 4ebc d081 29bd
00000360: 086d b6bc 20a6 fc3d c0a9 363d b4f9 21bd
00000370: 90ea ccbc df7b cabc d90e f7bc 6554 0abd
00000380: 5a36 5d3d 5ad6 8dbc bdd9 f1bc 68ab 90bd
00000390: bf39 933d e7c9 d73c 9f33 13bd 1a8b 80bd
000003a0: ddf2 8abd cf15 a1bd 94d5 cdbd ae9a 073c
000003b0: 1d3d 033d a77d 41bc 2cdd e43c 0e9a 17bd
000003c0: 9de9 08be d5ec 04bd e321 873c fa68 a73d
000003d0: 8f7e 703d 0401 603d 2af2 963d 126d d4bd
000003e0: ebe5 4a3c 31f2 1a3e b3a6 703d 889d 31bd
000003f0: fbed 2abe ad79 55bc aff3 d13b 1598 6ebd

l3.weight f4 [1, 256]
-1.0949776 -0.4373402 0.3755754 0.35481545 0.2637774 0.7217775 0.23565455 -0.8192656
-0.50010175 -0.4451768 0.64558154 -0.49527276 -1.2124327 -0.93262136 -0.16626546 1.0071785
-0.86011106 0.35283932 -0.18027043 0.26156536 0.5343489 -0.1632295 -1.19345 0.01075638
-0.58692366 -0.32238802 0.5574636 -0.9091325 -0.63725454 -0.69417715 0.41539532 -0.583342
0.3241814 0.4853337 0.44180164 0.36143076 1.240257 -0.94186056 0.84019005 0.15839148
0.25647464 1.194178 -0.44880068 -0.3580346 0.8091465 -0.54573125 -0.42424187 -1.028108
-1.5889043 0.43764618 -0.670074 -0.08871028 -1.4583216 0.68099844 0.3636877 0.25209007
0.7235941 -0.8028373 0.5166359 -0.9580721 0.52642196 0.90782166 0.7504568 0.6167253
-0.15673085 -0.5772034 -0.03065573 -1.7008432 0.9841757 -0.8885386 -1.7331444 1.3331944
1.7735392 -0.43099022 0.7134657 1.1512972 1.4482372 -0.8343456 -0.6508348 0.51737213
0.4342343 0.62214255 -0.5444036 -0.26000515 -2.3643265 0.699408 -0.7222531 0.9735261
0.4975434 -0.9844206 -0.4945692 0.81937224 -0.20811269 0.37507156 -0.16879788 -0.28012565
-0.3922665 -0.35699967 -0.46599704 -0.57059026 0.2581827 0.22773007 -0.36109832 -1.3649486
-0.8956421 0.4149619 -0.40273926 0.8113517 0.46305865 -1.5742686 -1.9322855 -0.027443012
-0.7160207 0.35461515 -0.43234277 0.6004155 -0.6891573 0.6609616 -0.93526715 0.023230666
0.74499655 -0.8162881 -1.0784076 0.89367306 0.39042315 -0.58507055 -0.53604716 -0.9806709
-0.12753865 0.47397336 0.3772067 -0.38719097 0.6267154 0.73609805 -1.7234584 -0.02145811
0.4050183 0.6386299 0.5921517 0.8720164 0.29527274 -1.7534456 -0.9284489 -0.7083343
-2.155166 1.3324814 -1.0762011 -0.5298262 -1.2769192 0.8245359 0.30777177 0.52453643
0.43487224 0.63886964 -0.41908434 0.5216055 0.44655526 0.7213545 -0.3254144 0.58744067
-0.5148249 -1.2525213 -0.42152876 -0.47809544 -0.7315956 0.25062236 0.7504489 0.3598422
0.6325209 -0.3815842 0.22058852 0.40692264 0.1716087 0.9689664 1.1776352 1.2271055
0.48300958 1.5155125 -1.3786095 1.0530802 0.04814696 -0.526578 0.5317852 -0.6897757
0.48081326 -0.23858093 -1.077171 -0.9295377 -1.025813 0.35488486 0.33164737 0.16921528
-1.0654925 -0.30029348 0.15944576 -1.7265065 -0.8303022 0.90639234 -0.7965131 -0.44599167
1.142754 -0.0367037 0.21041797 -1.8006805 -0.49705446 -0.35827225 -0.6080105 -1.455053
-1.3143353 0.45671722 1.2611512 0.18835053 0.006161268 -0.8550764 -0.61088365 -2.2819223
-1.0185184 1.2093995 -0.40457532 0.47434485 0.020280948 0.24600069 0.6444546 0.7329889
0.39551252 -0.6948937 0.7233462 -0.514164 -0.26769945 1.0322118 -1.1904737 -0.4204732
-1.1656352 0.7775657 -0.41229534 -0.26049745 0.2742722 -0.43440557 -0.26326594 0.59709644
-1.221465 -0.33847454 0.33590308 0.35269928 0.6222922 -0.48350343 0.69136834 1.1003011
-0.725992 0.95368916 0.60772663 0.40742633 -2.3990905 -0.34673563 -0.978081 -0.6408792
00000000: 3a28 8cbf 0eeb dfbe 6b4b c03e 5faa b53e
00000010: d50d 873e 69c6 383f 6d4f 713e 64bb 51bf
00000020: ab06 00bf 37ee e3be d544 253f 6494 fdbe
00000030: ff30 9bbf 46c0 6ebf 7e41 2abe 3aeb 803f
00000040: 3d30 5cbf 5ba7 b43e d098 38be e5eb 853e
00000050: 17cb 083f a225 27be f8c2 98bf 873b 303c
00000060: a140 16bf 0b10 a5be efb5 0e3f e8bc 68bf
00000070: 1d23 23bf 98b5 31bf b2ae d43e e755 15bf
00000080: 1bfb a53e a97d f83e d333 e23e 740d b93e
00000090: bec0 9e3f c61d 71bf b216 573f 6031 223e
000000a0: a550 833e d3da 983f 34c9 e5be 5050 b7be
000000b0: 3a24 4f3f 0bb5 0bbf 3b36 d9be 0b99 83bf
000000c0: 3761 cbbf 2913 e03e f889 2bbf bcad b5bd
000000d0: 48aa babf ea55 2e3f 4635 ba3e f311 813e
000000e0: 773d 393f bf86 4dbf 4042 043f 3744 75bf
000000f0: 97c3 063f 0067 683f f01d 403f b6e1 1d3f
00000100: 0d7e 20be 9ac3 13bf ba21 fbbc 3bb5 d9bf
00000110: f0f2 7b3f 4477 63bf add7 ddbf 1da6 aa3f
00000120: 5503 e33f c0aa dcbe b0a5 363f b55d 933f
00000130: d65f b93f ac97 55bf 1c9d 26bf 8072 043f
00000140: f553 de3e bc44 1f3f 095e 0bbf 651f 85be
00000150: 2051 17c0 670c 333f 94e5 38bf 0239 793f
00000160: 02be fe3e fd02 7cbf 2d38 fdbe 61c2 513f
00000170: 7e1b 55be 6109 c03e 5ad9 2cbe a16c 8fbe
00000180: 28d7 c8be a9c8 b6be 2a97 eebe 3412 12bf
00000190: 8630 843e 1232 693e e1e1 b8be a3b6 aebf
000001a0: cd48 65bf e375 d43e d733 cebe bfb4 4f3f
000001b0: 0616 ed3e a281 c9bf 2255 f7bf 2bd0 e0bc
000001c0: 224d 37bf 1e90 b53e 085c ddbe d5b4 193f
000001d0: 9d6c 30bf c834 293f ab6d 6fbf 3d4e be3c
000001e0: 18b8 3e3f 42f8 50bf 4309 8abf c2c7 643f
000001f0: 8be5 c73e 2fc7 15bf 633a 09bf 400d 7bbf
00000200: 7e99 02be a3ac f23e 3d21 c13e e53d c6be
00000210: 6c70 203f ec70 3c3f 499a dcbf ebc8 afbc
00000220: 8f5e cf3e 407d 233f 4197 173f 773c 5f3f
00000230: fd2d 973e e870 e0bf d4ae 6dbf 6655 35bf
00000240: 3dee 09c0 c08e aa3f f5c0 89bf b1a2 07bf
00000250: 1772 a3bf c914 533f 4394 9d3e 0548 063f
00000260: 93a7 de3e f68c 233f 3992 d6be f087 053f
00000270: e4a2 e43e b0aa 383f b79c a6be 8362 163f
00000280: 91cb 03bf 9e52 a0bf 9ed2 d7be edc8 f4be
00000290: d949 3bbf 9351 803e 6b1d 403f 3d3d b83e
000002a0: e4ec 213f 015f c3be f5e1 613e 2a58 d03e
000002b0: 31ba 2f3e 2f0e 783f c0bc 963f cb11 9d3f
000002c0: 084d f73e 50fc c13f 4776 b0bf 55cb 863f
000002d0: bf35 453d d1cd 06bf 1323 083f 2495 30bf
000002e0: 282d f63e 8f4e 74be bde0 89bf 2ff6 6dbf
000002f0: d74d 83bf 78b3 b53e afcd a93e c546 2d3e
00000300: 0f62 88bf 11c0 99be c045 233e 2afe dcbf
00000310: af8e 54bf 5409 683f 48e8 4bbf 0559 e4be
00000320: c345 923f 9e56 16bd cf77 573e b37c e6bf
00000330: ec7d febe 766f b7be 93a6 1bbf 2d3f babf
00000340: 243c a8bf d7d6 e93e 676d a13f f6de 403e
00000350: 76e4 c93b 49e6 5abf df62 1cbf 040b 12c0
00000360: d05e 82bf 9acd 9a3f 7f24 cfbe 54dd f23e
00000370: 3b24 a63c 9be7 7b3e fafa 243f 29a5 3b3f
00000380: 9e80 ca3e 8ee4 31bf 372d 393f 40a0 03bf
00000390: e70f 89be 841f 843f 7161 98bf 4348 d7be
000003a0: 8933 95bf 8c0e 473f 6018 d3be ec5f 85be
000003b0: 686d 8c3e 686a debe cbca 86be 50db 183f
000003c0: f758 9cbf 894c adbe 7dfb ab3e 0095 b43e
000003d0: 8b4e 1f3f c38d f7be 84fd 303f abd6 8c3f
000003e0: 9dda 39bf f924 743f f993 1b3f 2f9a d03e
000003f0: b38a 19c0 5587 b1be 8463 7abf a910 24bf

l4.weight f4 [256, 28]
0.038392693 0.98295856 -0.58051187 0.02964502 -0.014611561 0.07178695 0.021126432 -0.040828306
-0.037475947 -0.07042079 -0.16524242 -0.2269687 0.013953737 -0.0016121281 0.19353865 0.2077552
0.15285994 -0.32705978 -0.024473844 0.23011604 0.24265054 -0.1441667 0.036470063 -0.15298302
-0.02390715 -0.1313052 -0.13853316 -0.047065277 -0.44483933 -2.3150964 -0.16304669 0.36572304
-0.18039568 -0.06651896 0.03608169 -0.026716365 -0.004897163 0.009191237 -0.07149159 0.06283039
-0.03987812 0.042488012 0.106989786 -0.051089395 -0.0762439 0.12283136 -0.015135911 -0.05872462
0.04617728 -0.06070877 0.042130522 0.021847349 0.0067724185 0.010247579 0.015932051 -0.0062907757
0.06726532 1.4876139 0.31697604 0.7690764 0.3506764 0.14474262 0.2689448 0.030793844
-0.07214225 -0.13169596 0.07644079 -0.011026537 0.04550301 -0.060018204 0.286448 0.17768066
0.040361416 0.08367639 0.16880824 0.11485767 -0.043867715 0.07507685 0.20178217 -0.13748373
0.034707148 0.02327051 -0.0059411675 0.015575062 0.091388755 -1.0735524 -0.10598263 0.21893623
-0.1580472 0.091366366 -0.21865483 0.01048965 0.05301145 0.16308858 0.0002696409 0.2303383
0.014174481 0.085760444 -0.20355941 -0.37778693 0.05286152 0.10350582 0.40705466 0.3859297
0.043552365 0.39360124 -0.034786195 -0.010433447 0.06870128 -0.0295929 0.04766661 -0.10061598
0.15009408 1.2515011 0.44126633 0.21975572 0.01877005 0.007354662 0.0010244012 -0.03652422
-0.12309758 -0.09917501 0.056391172 0.35304895 0.13007852 0.06839251 0.39633912 0.21057045
0.108639054 -6.5172986e-05 -0.060474332 0.066514045 0.2366028 0.2375943 -0.30955753 0.07223536
0.05576349 -0.040172342 -0.070975006 0.0075767413 0.3028828 -0.839002 -0.45767668 0.36876762
-0.0038664332 -0.023583632 -0.08029645 -0.020143414 0.057460103 -0.14758088 0.014608889 -0.17692749
0.0089709265 -0.05926789 -0.033174228 0.22816074 0.30310392 -0.03765222 0.043623887 -0.05950763
0.243478 0.25999135 0.29012984 -0.01617457 -0.009427289 -0.06508715 0.004514226 0.025402747
0.07141204 0.09382851 0.36627728 1.0019518 0.08045402 0.057546258 0.14068 -0.001000829
-0.053255796 -0.019496799 -0.01505437 -0.13935207 0.00248295 0.030766236 0.051136725 -0.1294488
0.13165978 0.08252042 0.106708035 -0.23445734 0.079795875 0.26241964 0.05562406 0.011977988
0.038217828 -0.012611464 -0.004896345 0.011776211 0.03776734 0.0042950786 -0.16876987 0.24250916
-0.28171492 0.10874534 -0.016861958 0.07049388 0.13995205 0.18107207 -0.05033152 0.61582863
0.09400636 0.024164053 -0.6046705 -0.33518508 -0.3398969 0.24009424 -0.013927363 -0.25447652
-0.018530954 -0.15170303 -0.074169286 0.19590464 0.083859615 -0.01549293 -0.17724866 0.08187581
-0.47416505 0.8625073 0.38841283 1.4572458 -0.118852206 0.025066582 -0.10785123 -0.005601503
0.014263541 -0.33778322 0.06612952 -0.15262999 -0.03983975 -0.05052178 0.11518473 0.25882956
0.26188612 -0.06337795 -0.08478873 0.15145211 -0.059044234 -0.092058875 -0.06647007 -0.061579775
0.009269887 0.0009992919 -0.041282527 0.0121996645 0.10485353 -0.64778537 -0.47093356 -0.04791088
00000000: a841 1d3d 2ca3 7b3f 6d9c 14bf 1dda f23c
00000010: 5465 6fbc 0905 933d 5711 ad3c 953b 27bd
00000020: 6180 19bd c638 90bd 4f35 29be 7c6a 68be
00000030: 379e 643c 0b4e d3ba ff2e 463e c7bd 543e
00000040: 5187 1c3e 6174 a7be 5f7d c8bc 8aa3 6b3e
00000050: 6279 783e 6fa0 13be a261 153d 95a7 1cbe
00000060: edd8 c3bc df74 06be a3db 0dbe 85c7 40bd
00000070: fbc1 e3be 8a2a 14c0 b6f5 26be 0d40 bb3e
00000080: a5b9 38be 183b 88bd 65ca 133d 47dc dabc
00000090: 6178 a0bb d896 163c 2f6a 92bd 38ad 803d
000000a0: 3d57 23bd e907 2e3d 761d db3d 1d43 51bd
000000b0: c325 9cbd 028f fb3d 9dfc 77bc 3a89 70bd
000000c0: 6324 3d3d c2a9 78bd 0e91 2c3d 36f9 b23c
000000d0: 2aeb dd3b 76e5 273c ef83 823c da22 cebb
000000e0: 66c2 893d 226a be3f af4a a23e 31e2 443f
000000f0: db8b b33e 6937 143e 22b3 893e 5f43 fc3c
00000100: 51bf 93bd 4edb 06be fd8c 9c3d a6a8 34bc
00000110: 5d61 3a3d a6d5 75bd 50a9 923e ebf1 353e
00000120: 0352 253d 875e ab3d 11dc 2c3e 803a eb3d
00000130: a2ae 33bd e4c1 993d fc9f 4e3e 89c8 0cbe
00000140: 1529 0e3d cca1 be3c 20ae c2bb 8b2e 7f3c
00000150: 072a bb3d 2a6a 89bf 6c0d d9bd d230 603e
00000160: 20d7 21be 4a1e bb3d 0de7 5fbe c8dc 2b3c
00000170: 8922 593d b100 273e 975e 8d39 cedd 6b3e
00000180: 153c 683c 2ca3 af3d e171 50be 4a6d c1be
00000190: 5285 583d dcfa d33d 7869 d03e 9498 c53e
000001a0: f763 323d 1a86 c93e f87b 0ebd 0cf1 2abc
000001b0: 42b3 8c3d cf6c f2bc 103e 433d c00f cebd
000001c0: 43b2 193e 3031 a03f a9ed e13e a507 613e
000001d0: a6c3 993c 60ff f03b 3345 863a 6c9a 15bd
000001e0: 961a fcbd 451c cbbd 6efa 663d d5c2 b43e
000001f0: 4e33 053e 5f11 8c3d f6ec ca3e c89f 573e
00000200: 277e de3d 7bad 88b8 efb3 77bd 8438 883d
00000210: 0148 723e ec4b 733e 537e 9ebe 22f0 933d
00000220: 4268 643d c18b 24bd 585b 91bd 5046 f83b
00000230: 7413 9b3e d6c8 56bf 9954 eabe 1ccf bc3e
00000240: fc63 7dbb 7632 c1bc 7772 a4bd cd03 a5bc
00000250: 495b 6b3d 711f 17be 1f5a 6f3c 7b2c 35be
00000260: cbfa 123c e3c2 72bd b3e1 07bd f8a2 693e
00000270: 7030 9b3e 3739 1abd f6ae 323d 46be 73bd
00000280: 4c52 793e 961d 853e e68b 943e 8880 84bc
00000290: ea74 1abc 694c 85bd 13ec 933b 6c19 d03c
000002a0: 7a40 923d 2929 c03d b288 bb3e f53f 803f
000002b0: 14c5 a43d a0b5 6b3d 6b0e 103e 402e 83ba
000002c0: c022 5abd c0b7 9fbc 9ba6 76bc 4fb2 0ebe
000002d0: fdb8 223b 7909 fc3c be74 513d 3a8e 04be
000002e0: d2d1 063e 7700 a93d be89 da3d 9615 70be
000002f0: 056c a33d de5b 863e 0ed6 633d 533f 443c
00000300: 4c8a 1c3d 50a0 4ebc 8571 a0bb 02f1 403c
00000310: edb1 1a3d bbbd 8c3b 02d2 2cbe 5254 783e
00000320: f03c 90be e0b5 de3d 1722 8abc 185f 903d
00000330: 974f 0f3e f56a 393e 6d28 4ebd f2a6 1d3f
00000340: 6886 c03d b1f3 c53c b0cb 1abf 619d abbe
00000350: f706 aebe 44db 753e 982f 64bc bf4a 82be
00000360: 3ace 97bc 0a58 1bbe 11e6 97bd 3a9b 483e
00000370: 97be ab3d 0fd6 7dbc ac80 35be 81ae a73d
00000380: c3c5 f2be 47cd 5c3f 0cde c63e 0887 ba3f
00000390: c968 f3bd 6f58 cd3c 1be1 dcbd d08c b7bb
000003a0: a1b1 693c ecf1 acbe ea6e 873d 094b 1cbe
000003b0: 012f 23bd edef 4ebd f9e5 eb3d 4f85 843e
000003c0: f015 863e 4ccc 81bd b7a5 adbd 4316 1b3e
000003d0: 5ed8 71bd 5d89 bcbd 7621 88bd 133b 7cbd
000003e0: b9e0 173c acfa 823a de17 29bd 1ae1 473c
000003f0: 73bd d63d 43d5 25bf 341e f1be 333e 44bd

l4.bias f4 [256]
-0.012043164 0.091356054 -0.33120933 -0.29302457 -0.16460693 -0.21392615 -0.13144858 0.04072759
-0.0287441 0.09778073 -0.06141615 -0.04541971 -0.23527415 0.115702204 0.15626402 -0.07947759
-0.28693488 -6.237755e-05 -0.11168599 -0.031865552 -0.16073233 0.17318232 -0.15856579 0.1298835
-0.16953391 -0.07690202 0.09390489 -0.07239133 -0.22952557 0.089227624 -0.16937687 0.10628869
0.252187 -0.13288665 0.099103615 0.24116135 0.06817541 0.07856816 0.007857429 0.23751932
0.016285224 0.20828487 0.16135594 0.3580732 0.15410142 -0.15541022 0.16166335 0.056838535
-0.22520335 -0.016660275 -0.23833196 0.05658416 -0.20759687 -0.017412892 0.20692426 -0.18050456
-0.092879556 -0.16432406 -0.070329286 0.11375853 0.15914784 0.21370694 -0.2172335 0.23335744
-0.011337505 -0.061767675 0.114434026 0.010590699 0.0701049 0.022654185 0.20267415 0.16031997
0.04688776 0.096090846 0.22709902 -0.2155612 0.10514927 0.08288689 0.08434046 0.35303766
-0.16690406 -0.08997114 0.124565475 -0.015080233 -0.08374763 -0.0014109124 -0.099971555 0.32802168
0.060587455 0.12983343 0.013173689 -0.11534863 0.16718021 -0.10354412 -0.27219573 -0.15206574
0.16711013 0.07289004 0.35830513 -0.0565393 0.17294179 -0.31279656 -0.005586174 0.17620586
-0.07442976 0.11466529 0.036277313 -0.0024581803 -0.0819079 0.097724885 -0.120883964 0.095082946
-0.22434406 -0.17535774 0.24165566 -0.06196096 -0.17007048 0.1570488 -0.21333459 -0.14128762
0.20735292 0.2651997 0.03216012 0.083218396 0.31426415 -0.13321014 -0.06251201 -0.37474683
0.040500827 0.05968944 -0.19822264 0.0024774713 -0.12238984 -0.1282683 0.32615924 -0.11284953
-0.294206 -0.14596923 -0.12138156 -0.30583093 -0.111888856 -0.205658 0.3029413 0.10990998
0.25169948 0.0353231 0.1608645 -0.049092125 0.15378162 0.0709731 -0.2273499 -0.11289005
0.031701397 0.10079056 -0.17466189 -0.32065865 -0.13922782 -0.008882457 -0.10014379 -0.049480867
-0.17852926 -0.069888204 0.0011093575 -0.11022377 -0.059629217 0.10628106 0.03493193 0.037231248
-0.0063159484 -0.102622904 -0.16918655 -0.052187085 0.047435246 -0.027417429 -0.15305234 -0.08301888
-0.11461722 0.15467985 -0.23288737 0.026362905 -0.20058842 0.08586143 0.11562361 0.44674444
0.21913186 -0.017588094 0.11300494 -0.0279464 -0.00028763645 -0.17442316 0.17253271 0.020787522
0.14602448 -0.035429295 0.26188096 0.14129008 0.20629483 0.10575946 0.060886666 0.11560665
-0.071356006 0.044483326 0.17584777 0.27356973 -0.014603442 -0.006908941 0.1445696 0.22441383
0.11941261 -0.16153681 -0.020349186 0.44813433 0.19738387 -0.21853805 -0.01998806 -0.046130408
-0.15701443 0.17009185 -0.22458169 -0.094394475 0.14872004 0.33287814 0.08652495 -0.0017387964
-0.26391745 -0.23209623 0.29785386 -0.13718985 0.00030631135 -0.17777002 0.20330171 0.20468158
0.0795854 -0.11700561 -0.059092805 0.031324904 -0.1495851 0.21619494 0.2593011 0.120681345
0.17016551 0.124885604 -0.18318018 0.07283593 0.3296747 -0.0389483 0.069734305 -0.022907255
0.18198979 0.10215629 0.264459 -0.13845065 -0.16266948 -0.19000848 -0.12993714 -0.012264524
00000000: b150 45bc e218 bb3d 4594 a9be 5107 96be
00000010: b88e 28be 750f 5bbe 759a 06be f9d1 263d
00000020: bf78 ebbc 4341 c83d 808f 7bbd 050a 3abd
00000030: b5eb 70be 47f5 ec3d ad03 203e 26c5 a2bd
00000040: 21e9 92be b1d0 82b8 a0bb e4bd 7485 02bd
00000050: 0497 24be b556 313e 125f 22be 2e00 053e
00000060: 4c9a 2dbe ce7e 9dbd 3551 c03d e841 94bd
00000070: c008 6bbe f9bc b63d 2171 2dbe e2ad d93d
00000080: a81e 813e 7013 08be d6f6 ca3d 00f3 763e
00000090: 8d9f 8b3d 58e8 a03d 72bc 003c 4438 733e
000000a0: 9768 853c a148 553e 7e3a 253e 5f55 b73e
000000b0: c3cc 1d3e db23 1fbe 148b 253e 86cf 683d
000000c0: b59b 66be 217b 88bc 4b0d 74be cbc4 673d
000000d0: 4694 54be 7ba5 8ebc f4e3 533e 30d6 38be
000000e0: a337 bebd 9144 28be cd08 90bd 3bfa e83d
000000f0: a7f7 223e fed5 5a3e 7572 5ebe 41f5 6e3e
00000100: f1c0 39bc 1a00 7dbd 635c ea3d 9c84 2d3c
00000110: 2893 8f3d 4595 b93c d089 4f3e eb2a 243e
00000120: 610d 403d 47cb c43d a58c 683e 13bc 5cbe
00000130: 8058 d73d 9ac0 a93d b1ba ac3d 5ac1 b43e
00000140: e6e8 2abe ca42 b8bd 2f1c ff3d 1513 77bc
00000150: e183 abbd 5dee b8ba e3bd ccbd 75f2 a73e
00000160: 8d2a 783d 0ef3 043e 75d6 573c e73b ecbd
00000170: 4a31 2b3e f10e d4bd 3d5d 8bbe 1fb7 1bbe
00000180: eb1e 2b3e 6047 953d c573 b73e c195 67bd
00000190: a717 313e df26 a0be 390c b7bb 4f6f 343e
000001a0: a16e 98bd a3d5 ea3d 8597 143d 6c19 21bb
000001b0: 54bf a7bd fc23 c83d 0392 f7bd d9ba c23d
000001c0: 73ba 65be fb90 33be 9574 773e c7ca 7dbd
000001d0: f526 2ebe 67d1 203e 6274 5abe b4ad 10be
000001e0: 5354 543e 41c8 873e 54ba 033d 686e aa3d
000001f0: 3be7 a03e 3d68 08be 4c06 80bd d1de bfbe
00000200: 32e4 253d ea7c 743d e0fa 4abe 125d 223b
00000210: 86a7 fabd c458 03be 58fe a63e a81d e7bd
00000220: 2ba2 96be f578 15be e596 f8bd df95 9cbe
00000230: fc25 e5bd 0398 52be 1f1b 9b3e 7c18 e13d
00000240: c1de 803e f4ae 103d aab9 243e d314 49bd
00000250: ee78 1d3e 585a 913d 6ace 68be e632 e7bd
00000260: 53d9 013d 486b ce3d 91da 32be 5f2d a4be
00000270: bd91 0ebe ba87 11bc 3018 cdbd 73ac 4abd
00000280: 60d0 36be 8c21 8fbd dc67 913a 00bd e1bd
00000290: c43d 74bd e2a9 d93d c914 0f3d cb7f 183d
000002a0: 04f6 cebb f52b d2bd 3d3f 2dbe 20c2 55bd
000002b0: 764b 423d 849a e0bc c1b9 1cbe cd05 aabd
000002c0: 6fbc eabd 6564 1e3e 077a 6ebe 05f7 d73c
000002d0: 0d67 4dbe 1ed8 af3d 12cc ec3d b0bb e43e
000002e0: 1a64 603e e814 90bc 226f e73d d9ef e4bc
000002f0: e9cd 96b9 fc9b 32be 6aac 303e 984a aa3c
00000300: 7187 153e 4f1e 11bd 4315 863e 59ae 103e
00000310: f43e 533e 6a98 d83d 4c64 793d 2ec3 ec3d
00000320: 1923 92bd 2634 363d 7011 343e 5511 8c3e
00000330: 4643 6fbc 6664 e2bb 0e0a 143e bdcc 653e
00000340: 998e f43d e869 25be 56b3 a6bc dd71 e53e
00000350: ff1e 4a3e 70c8 5fbe 00be a3bc 3df3 3cbd
00000360: 64c8 20be 8f2c 2e3e bef8 65be e451 c1bd
00000370: 114a 183e 016f aa3e fe33 b13d 53e8 e3ba
00000380: 3020 87be a2aa 6dbe 4d80 983e 7f7b 0cbe
00000390: 6a98 a039 5809 36be 532e 503e 0c98 513e
000003a0: acfd a23d a3a0 efbd 4c0b 72bd 8b4e 003d
000003b0: d62c 19be 3562 5d3e 1dc3 843e c827 f73d
000003c0: de3f 2e3e 06c4 ff3d 9693 3bbe 012b 953d
000003d0: 1fcb a83e 4188 1fbd dcd0 8e3d ffa7 bbbc
000003e0: 885b 3a3e 5137 d13d 2c67 873e 02c6 0dbe
000003f0: d492 26be 9591 42be 3e0e 05be 24f1 48bc

l5.weight f4 [256, 256]
-0.111949936 0.028430207 -0.0726022 0.046158236 0.08542818 0.027338414 0.015682546 -0.06701759
0.18920203 0.032397706 0.07133439 -0.0027359785 -0.07131592 -0.3951193 -0.74745864 0.033948157
0.07051153 0.041266024 -0.05174633 0.02108978 0.007202258 -0.046715394 -0.07431912 0.082409784
0.07945572 -0.05920705 0.09647898 -0.02566633 -0.006508984 -0.048531074 -0.0949866 0.12531678
0.049307454 0.13976376 0.10823432 -0.022118848 -0.12850279 0.050758667 -0.4771484 -0.5008027
-0.11122153 -0.08439603 0.037276193 -0.21685593 0.07209724 0.12179565 0.051709365 -0.042704165
0.1625018 -0.004827497 -0.045483887 0.1459246 0.11409922 0.32409438 0.08183137 0.09178161
-0.0600964 -0.3220033 0.1133359 -0.010669497 0.019435493 0.031477083 0.2443338 0.08686024
-0.40446588 0.084686756 -0.1462659 -0.31957784 0.06582633 -0.082002856 0.06333206 -0.046374027
0.018166713 0.07940782 0.024838753 -0.027119627 0.034425016 0.12891644 -0.13914274 -0.6980619
-0.11625793 0.076277 0.02717386 -0.018639347 0.13908802 0.0137902 0.031761926 0.13219988
0.02883347 0.057733122 0.035520967 -0.04595397 -0.041336637 0.096519604 0.06651677 -0.0033013783
-0.070333846 0.052379828 -0.09074346 -0.019182514 0.0066787507 -0.050092343 -0.11922779 -0.027664907
0.23311222 0.048511945 -0.38530016 -0.58518714 -0.14325066 0.121957816 0.14226317 0.032007642
0.07034154 -0.027308205 0.019557832 0.011214912 0.14028762 0.10623196 0.054170445 -0.2304704
0.06495214 -0.03883847 -0.12543148 -0.0656148 -0.41682315 -0.16947848 -0.034777254 0.05238461
0.23636429 -0.0030167077 0.045165244 -0.18331514 0.105583966 -0.015383419 -0.10026331 0.100376874
0.08437701 -0.038682573 0.016159473 0.04339766 -0.12312383 0.0387583 -0.28349158 -0.7245285
0.01312478 0.10391693 -0.07345433 -0.039778292 -0.12178593 -0.044409636 0.20384376 0.07842153
-0.13391215 0.061242312 -0.089062974 0.0012176603 0.023612404 0.05728959 0.042667087 0.029254358
-0.030401755 0.29003498 -0.027433466 0.04172158 -0.019514976 0.0761017 0.03207924 -0.023635676
0.14902501 0.05731881 0.044199448 0.008036811 -0.0021759414 -0.041456085 0.0568248 0.058390297
0.11163031 -0.02187214 -0.0031265374 0.053121757 0.09187749 0.0045339935 0.01337496 -0.5766527
-0.10296862 0.01659483 0.10449998 0.09296882 0.11306832 0.063130416 -0.0031101285 0.16669539
-0.12854052 0.019169165 0.019021612 0.014755356 -0.2052951 0.12433823 0.051979728 -0.17104296
0.02529518 0.0088284165 0.123144634 -0.106902264 0.08680508 0.11987946 0.054358132 0.0703144
0.10201247 -0.10650395 0.041583955 0.05695612 0.098419316 -0.1285996 -0.29407603 -0.10667264
0.022657821 -0.12504637 0.093164854 0.07159202 0.03632989 0.040568892 -0.04056101 0.03631093
-0.014161953 -0.34679922 -0.0150850145 -0.005223982 0.042357463 0.35337514 -0.08706498 -0.33919477
-0.21232928 0.019133968 0.06368002 0.0733816 0.027418377 0.15047413 -0.331452 -0.027398344
0.037954632 -0.116708644 -0.2774552 0.15835275 0.013532309 -0.008916006 0.03657597 0.034043625
-0.16526152 -0.0040259454 -0.038590834 0.014674646 0.2527559 -0.11078542 -0.12696792 0.0775368
00000000: 0246 e5bd 77e6 e83c 76b0 94bd 6b10 3d3d
00000010: f8f4 ae3d cff4 df3c af78 803c 8540 89bd
00000020: 2dbe 413e 75b3 043d c417 923d 1a4e 33bb
00000030: 150e 92bd 144d cabe 7359 3fbf 390d 0b3d
00000040: 5968 903d 9006 293d f6f3 53bd 79c4 ac3c
00000050: eb00 ec3b a458 3fbd 9f34 98bd 76c6 a83d
00000060: aeb9 a23d 1783 72bd c596 c53d 3242 d2bc
00000070: 5149 d5bb 85c8 46bd 5688 c2bd 0b53 003e
00000080: 9df6 493d 3b1e 0f3e f5a9 dd3d 9632 b5bc
00000090: 3c96 03be 52e8 4f3d cc4c f4be 9b34 00bf
000000a0: 1dc8 e3bd d3d7 acbd ecae 183d 7b0f 5ebe
000000b0: b8a7 933d ff6f f93d 33cd 533d 90ea 2ebd
000000c0: df66 263e fb2f 9ebb 504d 3abd 426d 153e
000000d0: daac e93d b3ef a53e 3597 a73d fff7 bb3d
000000e0: a527 76bd 9edd a4be a71c e83d 1dcf 2ebc
000000f0: 2f37 9f3c 1dee 003d a432 7a3e c8e3 b13d
00000100: 2716 cfbe 4070 ad3d bac6 15be b59f a3be
00000110: f4cf 863d 1df1 a7bd 3db4 813d b1f2 3dbd
00000120: 5cd2 943c 91a0 a23d a47a cb3c fb29 debc
00000130: 3f01 0d3d ac02 043e 6f7b 0ebe 2fb4 32bf
00000140: a318 eebd 1e37 9c3d b79b de3c 8bb1 98bc
00000150: 176d 0e3e 4bf0 613c cb18 023d 685f 073e
00000160: 2b34 ec3c 9179 6c3d 6f7e 113d 3b3a 3cbd
00000170: 9b50 29bd 12ac c53d f239 883d f05b 58bb
00000180: 310b 90bd 3b8c 563d b5d7 b9bd a624 9dbc
00000190: 6cd9 da3b a12d 4dbd b32d f4bd 84a1 e2bc
000001a0: f8b4 6e3e 76b4 463d 1046 c5be d3ce 15bf
000001b0: 4db0 12be 05c5 f93d 70ad 113e 721a 033d
000001c0: 3a0f 903d 75b5 dfbc bf37 a03c c0be 373c
000001d0: 8fa7 0f3e 2490 d93d d4e1 5d3d 6f00 6cbe
000001e0: a105 853d 1615 1fbd 1c71 00be 0d61 86bd
000001f0: d869 d5be c48b 2dbe 9872 0ebd 3f91 563d
00000200: 7b09 723e f5b3 45bb 31ff 383d f7b6 3bbe
00000210: 683c d83d bc0a 7cbc da56 cdbd 6492 cd3d
00000220: dbcd ac3d 9e71 1ebd df60 843c bfc1 313d
00000230: 5928 fcbd 06c1 1e3d cf25 91be b37a 39bf
00000240: 5109 573c 66d2 d43d 396f 96bd 90ee 22bd
00000250: e76a f9bd e1e6 35bd 6bbc 503e 789b a03d
00000260: 4420 09be 38d9 7a3d a666 b6bd e699 9f3a
00000270: cd6e c13c 7da8 6a3d afc3 2e3d d6a6 ef3c
00000280: 1a0d f9bc 777f 943e 26bc e0bc 3fe4 2a3d
00000290: dfdd 9fbc 35db 9b3d 8565 033d 9b9f c1bc
000002a0: 039a 183e 21c7 6a3d 7b0a 353d d4ac 033c
000002b0: 3d9a 0ebb dbcd 29bd 1fc1 683d aa2a 6f3d
000002c0: 6f9e e43d 342d b3bc 98e6 4cbb 3396 593d
000002d0: 442a bc3d e591 943b a622 5b3c 839f 13bf
000002e0: 36e1 d2bd e2f1 873c 1604 d63d 7066 be3d
000002f0: 5d90 e73d 854a 813d 4cd3 4bbb 32b2 2a3e
00000300: 20a0 03be a708 9d3c 36d3 9b3c 73c0 713c
00000310: e138 52be 0ba5 fe3d b2e8 543d e325 2fbe
00000320: d637 cf3c 10a5 103c 4133 fc3d 93ef dabd
00000330: ddc6 b13d 5d83 f53d a2a6 5e3d ff00 903d
00000340: eaeb d03d be1e dabd f053 2a3d d24a 693d
00000350: 1190 c93d 9daf 03be 2291 96be 2f77 dabd
00000360: e59c b93c 280c 00be 37cd be3d d69e 923d
00000370: a7ce 143d 912b 263d 4d23 26bd c5ba 143d
00000380: 8907 68bc ab8f b1be 2327 77bc f02d abbb
00000390: 057f 2d3d 96ed b43e 204f b2bd f0aa adbe
000003a0: d96c 59be d7be 9c3c ac6a 823d 1849 963d
000003b0: 819c e03c e415 1a3e 14b4 a9be 7e72 e0bc
000003c0: 5176 1b3d f104 efbd 9c0e 8ebe 3927 223e
000003d0: 9eb6 5d3c 7114 12bc afd0 153d 5471 0b3d
000003e0: 513a 29be 14ec 83bb 6c11 1ebd ed6d 703c
000003f0: 3969 813e 77e3 e2bd e103 02be 9dcb 9e3d
